experiments/data/sawyer_clutter_200steps_10H/h_sac/short/2021-06-11_15-13-55_clutter_200steps_10H/model_1800.pt (torch_old, 358080 bytes, 12 tensors)

log_std f4 [1, 12]
-1.9709519 -1.6480261 -1.478171 -1.1692629 -1.3176471 -0.880465 -1.1842486 -0.79202944
-1.3941413 -0.8868563 -2.2172244 -2.1053936
00000000: 2748 fcbf 85f2 d2bf b534 bdbf 68aa 95bf
00000010: a9a8 a8bf 2766 61bf 7595 97bf 71c2 4abf
00000020: 3973 b2bf 0409 63bf 01e7 0dc0 c5be 06c0

mu.0.weight f4 [200, 14]
-0.38970128 -0.29889235 0.095393404 0.016195223 0.09899347 -0.2311795 0.08439514 -0.14070056
-0.16354132 0.3460402 0.22951388 -0.20937191 0.46405825 -0.028219312 0.5625234 -0.4133626
0.26022694 -0.21520813 0.13327487 0.10091398 0.3229363 0.23027645 0.401741 0.15566288
0.23143768 0.21057792 -0.32995567 -0.29605788 -0.31513828 0.06032507 -0.28044736 0.33685172
0.1579386 0.031031998 0.17669766 0.13670085 0.3040138 0.09157742 -0.13793528 0.045725185
-0.27409062 0.0551552 0.4852041 -0.43329847 -0.103879705 -0.14415525 0.3777435 -0.14826122
-0.20157245 0.18493034 -0.17832817 0.064430274 0.09279432 -0.16126479 0.13050893 0.4007825
0.30340123 -0.0022283825 -0.20243928 0.31770334 0.22336183 0.19419692 0.21139316 -0.21478932
0.0052125817 0.35136393 0.13003233 0.14895672 -0.121170856 -0.05104805 -0.1557989 0.27146637
-0.43700784 -0.45776075 0.15405597 -0.113829784 0.10306232 -0.12808552 0.008827784 -0.19066155
0.017155485 0.13748579 -0.017599989 0.1970162 0.1493094 0.15037644 0.14364865 0.39636225
-0.35754636 0.19020873 -0.044702347 0.1860799 -0.15663585 -0.20824073 -0.14720863 0.33643886
0.059758555 0.053503234 -0.39619273 0.43131956 -0.0027404157 0.0954923 -0.013980587 0.37690404
-0.36945242 -0.058876242 0.21293558 0.31427935 0.1491643 0.56541556 0.05925693 -0.15324858
0.055321485 -0.2531004 -0.031326607 0.31267723 0.22232538 0.27652937 0.15394382 0.020033672
-0.2462213 0.04220597 -0.0666972 0.22329898 0.099220626 -0.41974217 -0.48667237 -0.1643705
0.033415925 -0.32424605 -0.2202662 -0.5876502 0.19013755 -0.27240604 -0.4219247 -0.14239256
-0.08253333 -0.16533214 0.025897413 -0.24948612 -0.20438987 0.41650885 0.21692298 0.2545907
0.04954575 -0.15222724 0.13522407 0.301989 0.11075316 -0.36796615 0.09733192 -0.2147382
0.42727366 0.045741804 -0.47525826 0.040558793 -0.22911881 0.41037688 0.11080346 -0.43498147
-0.42165253 -0.11593173 -0.32713085 -0.2704807 -0.11765766 0.13016081 -0.30933878 0.103496134
0.16732012 -0.5283204 -0.19418553 0.09445586 -0.24664666 -0.35329464 -0.13317764 -0.30111244
0.29131627 0.031007543 0.024706444 0.03547314 0.17436078 0.47008258 0.074679404 0.2702864
0.27565107 -0.5039225 -0.34445268 0.27646935 -0.2064932 -0.40293077 -0.30861476 0.21596923
-0.08229384 0.1808748 -0.3457904 -0.024677273 -0.023908611 -0.17923343 -0.106756926 0.12590903
0.06352957 -0.42919832 -0.088559255 -0.07554834 -0.10752446 0.10418481 0.24963482 -0.068741746
0.12558912 0.28865874 -0.3969065 -0.5068438 0.09371132 -0.09916494 -0.0559991 0.25438595
-0.14863487 0.02482853 0.059465338 -0.25029796 -0.22156057 -0.1602486 0.14198102 0.44857374
0.3115458 -0.14660425 -0.22479907 0.32948232 -0.06631349 -0.20262837 -0.26749948 -0.061081566
0.15325572 -0.23643778 -0.2268342 -0.1834012 -0.3390044 0.39959195 -0.0023864405 -0.32991832
-0.20410815 0.07630055 0.18161286 0.17348757 -0.18638134 0.29152998 0.33288097 -0.06571452
-0.38082847 0.13859275 0.5440087 0.17501335 0.26506662 0.36630142 0.09918583 0.28066793
00000000: ed86 c7be 6b08 99be 9e5d c33d d8ab 843c
00000010: 17bd ca3d 52ba 6cbe 5cd7 ac3d cf13 10be
00000020: 6077 27be 2e2c b13e b005 6b3e 9765 56be
00000030: 0b99 ed3e 302c e7bc 8901 103f 43a4 d3be
00000040: 773c 853e 855f 5cbe 3579 083e fdab ce3d
00000050: e857 a53e 97cd 6b3e ffb0 cd3e 1766 1f3e
00000060: 00fe 6c3e bda1 573e f3ef a8be e694 97be
00000070: ce59 a1be 6c17 773d cc96 8fbe d477 ac3e
00000080: a8ba 213e d136 fe3c 3bf0 343e 4ffb 0b3e
00000090: b2a7 9b3e f18c bb3d e83e 0dbe 554a 3b3d
000000a0: 9b55 8cbe 6bea 613d ac6c f83e 4cd9 ddbe
000000b0: e2be d4bd 6f9d 13be 9967 c13e cad1 17be
000000c0: 0269 4ebe 615e 3d3e a99b 36be 05f4 833d
000000d0: f30a be3d 9922 25be 22a4 053e 5d33 cd3e
000000e0: 6857 9b3e 0e0a 12bb 3e4c 4fbe 03aa a23e
000000f0: f7b8 643e 8fdb 463e 7377 583e bbf1 5bbe
00000100: 4ece aa3b f9e5 b33e 3227 053e 1c88 183e
00000110: 6d28 f8bd c317 51bd bf89 1fbe a4fd 8a3e
00000120: 7ebf dfbe 9e5f eabe d9c0 1d3e 971f e9bd
00000130: 5612 d33d da28 03be 69a2 103c c83c 43be
00000140: a989 8c3c 13c9 0c3e da2d 90bc 9dbe 493e
00000150: 90e4 183e 48fc 193e a218 133e feef ca3e
00000160: 5110 b7be 14c6 423e cf19 37bd bb8b 3e3e
00000170: 2665 20be 0f3d 55be dcbd 16be b741 ac3e
00000180: 63c5 743d 3526 5b3d c6d9 cabe ebd5 dc3e
00000190: 8c98 33bb 7891 c33d d50e 65bc 91f9 c03e
000001a0: de28 bdbe 3728 71bd c90b 5a3e 39e9 a03e
000001b0: 87be 183e 13bf 103f 65b7 723d 32ed 1cbe
000001c0: c898 623d 6096 81be 5450 00bd 3b17 a03e
000001d0: 44a9 633e 4295 8d3e 73a3 1d3e a81d a43c
000001e0: 7021 7cbe 2be0 2c3d 8b98 88bd 7da8 643e
000001f0: 2f34 cb3d 72e8 d6be 1f2d f9be be50 28be
00000200: 23df 083d 9403 a6be 768d 61be 3e70 16bf
00000210: 6bb3 423e ce78 8bbe 8406 d8be 5bcf 11be
00000220: 3c07 a9bd d44c 29be d026 d43c 4a79 7fbe
00000230: 944b 51be a640 d53e 0f21 5e3e b659 823e
00000240: 7cf0 4a3d 75e1 1bbe 2e78 0a3e 4d9e 9a3e
00000250: 8ed2 e23d 0f66 bcbe f555 c73d 55e4 5bbe
00000260: 9dc3 da3e c25b 3b3d 0d55 f3be fa20 263d
00000270: 1f9e 6abe eb1c d23e edec e23d e4b5 debe
00000280: d7e2 d7be 9d6d edbd b27d a7be 727c 8abe
00000290: 80f6 f0bd e048 053e a761 9ebe c8f5 d33d
000002a0: f755 2b3e 0140 07bf 92d8 46be 1372 c13d
000002b0: f190 7cbe 09e3 b4be b85f 08be 692b 9abe
000002c0: 6827 953e 8803 fe3c 2b65 ca3c 494c 113d
000002d0: a28b 323e aaae f03e 84f1 983d fb62 8a3e
000002e0: 2322 8d3e 1101 01bf 1a5c b0be 648d 8d3e
000002f0: f472 53be f14c cebe c102 9ebe 0a27 5d3e
00000300: ac89 a8bd 3e37 393e 700b b1be fe27 cabc
00000310: fedb c3bc f888 37be 60a3 dabd 4cee 003e
00000320: cb1b 823d e2bf dbbe 8e5e b5bd 17b9 9abd
00000330: c935 dcbd d85e d53d 45a0 7f3e 79c8 8cbd
00000340: 6f9a 003e 14cb 933e 5437 cbbe 84c0 01bf
00000350: b8eb bf3d fd16 cbbd 505f 65bd e03e 823e
00000360: bd33 18be 3465 cb3c ed91 733d 0e27 80be
00000370: c6e0 62be 3618 24be 7963 113e 75ab e53e
00000380: ee82 9f3e 6d1f 16be ba31 66be e8b1 a83e
00000390: 5ecf 87bd d07d 4fbe b1f5 88be aa30 7abd
000003a0: 11ef 1c3e bf1c 72be 3947 68be 86cd 3bbe
000003b0: fc91 adbe 5197 cc3e d465 1cbb 0eeb a8be
000003c0: ba01 51be 7643 9c3d b9f8 393e baa6 313e
000003d0: c0da 3ebe 6b43 953e 606f aa3e 5695 86bd
000003e0: f3fb c2be 42eb 0d3e 2744 0b3f b336 333e
000003f0: d0b6 873e dc8b bb3e f121 cb3d b5b3 8f3e

mu.0.bias f4 [200]
-0.053947654 -0.0808071 0.33051202 -0.32796225 0.11752155 0.40044588 0.062063724 0.028444082
0.27657583 0.24055104 -0.08540367 0.09918493 0.21105507 -0.08820272 0.29567462 -0.077599525
-0.39355513 -0.1978162 -0.18872237 0.2748138 -0.21176077 0.1341734 -0.05979127 0.12739493
0.22558539 0.039489128 0.19647425 0.36583653 0.1890923 0.23611057 0.330247 -0.18533897
-0.114580765 0.08686612 0.21447301 0.17109771 0.22600128 -0.015656296 -0.10185717 0.118088976
-0.18494634 0.42406607 -0.11873329 -0.02718265 0.13403429 0.12623103 0.05825472 0.07348733
0.13670403 -0.011522803 -0.18900147 -0.16797173 0.09056258 0.15538113 0.3492247 -0.13790159
-0.234411 -0.06362045 0.06206074 0.27614734 0.060151327 -0.25068867 0.09055794 -0.055788867
-0.13693124 0.18439122 4.3680964e-05 0.036159523 0.33392677 -0.2018188 0.14841841 0.03701514
-0.103297055 0.0075905044 0.21182646 -0.0632386 -0.008293187 0.17791 -0.22183721 0.16475786
0.22758918 -0.041713435 0.032386407 0.17256983 0.065663725 0.09884088 0.062500246 0.049973086
-0.0024223921 -0.022021035 -0.078847416 -0.17951635 0.2646598 0.15919343 -0.17826477 0.29342136
0.04768518 0.05450828 0.25582257 0.061423138 0.010684772 0.3191638 -0.12743957 0.23720567
0.02312754 0.39084473 -0.053631753 0.18439114 0.014353679 -0.15423422 -0.03543845 -0.028673435
0.06995093 -0.17764138 0.46237606 0.19706783 0.19740273 -0.13380842 -0.16642977 0.08547437
0.15580781 -0.06871481 0.012072253 -0.032627326 -0.16552271 -0.13007838 -0.11229306 0.18033956
-0.15861297 -0.07602029 -0.0804554 0.092168055 -0.27296752 -0.13773403 0.10761331 -0.39065236
0.1008502 0.022656318 -0.118328966 0.11106996 -0.21546015 0.06732139 -0.19654745 -0.18131034
-0.10614965 0.14359072 -0.10038327 0.26815942 0.009413418 0.1451188 0.24360326 -0.0379177
0.0765279 -0.19005844 0.23904784 -0.22926813 0.008383803 -0.044522237 0.2082157 0.20730804
-0.21498482 -0.111480765 -0.24670511 0.25995895 -0.23986813 0.13868198 0.22023842 0.05887433
0.066136666 0.34794873 -0.16418567 -0.20798096 -0.1614549 0.35386416 0.071633644 0.21770251
-0.27310494 -0.041738324 0.12837657 -0.2473401 0.13518254 -0.047098797 0.20059845 -0.045682456
0.115261815 -0.045748588 0.09945086 0.09635119 0.16710019 0.22254619 -0.07452568 -0.17629306
-0.16185646 0.26422143 -0.1283106 -0.12014979 -0.27117607 -0.1502659 0.059832007 0.4137422
00000000: 37f8 5cbd 317e a5bd df38 a93e abea a7be
00000010: 23af f03d 3e07 cd3e 8836 7e3d 9003 e93c
00000020: 599b 8d3e 0353 763e 1fe8 aebd 7821 cb3d
00000030: d21e 583e a1a3 b4bd aa62 973e 80ec 9ebd
00000040: 0f80 c9be 5490 4abe 7040 41be 65b4 8c3e
00000050: d1d7 58be c064 093e b1e7 74bd d173 023e
00000060: dbff 663e 5abf 213d 8c30 493e ed4e bb3e
00000070: 69a1 413e f8c6 713e 2316 a93e 80c9 3dbe
00000080: 52a9 eabd dde6 b13d d09e 5b3e 3d34 2f3e
00000090: e16c 673e a241 80bc 7e9a d0bd a2d8 f13d
000000a0: 9362 3dbe 301f d93e 702a f3bd 26ae debc
000000b0: 4940 093e b542 013e 809c 6e3d 8680 963d
000000c0: 24fc 0b3e 24ca 3cbc 9a89 41be c800 2cbe
000000d0: e078 b93d 3b1c 1f3e 94cd b23e 1336 0dbe
000000e0: 7009 70be 704b 82bd 6733 7e3d 2f63 8d3e
000000f0: 3d61 763d 445a 80be 7176 b93d de82 64bd
00000100: b437 0cbe 0dd1 3c3e 1436 3738 021c 143d
00000110: 73f8 aa3e 96a9 4ebe fffa 173e 309d 173d
00000120: 688d d3bd c4b9 f83b 09e9 583e 3d83 81bd
00000130: 26e0 07bc 0a2e 363e 4b29 63be 49b6 283e
00000140: 230d 693e b5db 2abd 9ca7 043d 25b6 303e
00000150: b47a 863d 166d ca3d 2100 803d 94b0 4c3d
00000160: ffc0 1ebb 7565 b4bc c17a a1bd 22d3 37be
00000170: 7d81 873e 9a03 233e 0a8b 36be 533b 963e
00000180: 8951 433d 1344 5f3d 2dfb 823e d496 7b3d
00000190: 2f0f 2f3c 7069 a33e 857f 02be 0be6 723e
000001a0: f775 bd3c cd1c c83e f8ac 5bbd 08d1 3c3e
000001b0: b12b 6b3c 93ef 1dbe e827 11bd 8de4 eabc
000001c0: 6f42 8f3d 9fe7 35be 8ebc ec3e 26cc 493e
000001d0: f123 4a3e 1305 09be 916c 2abe 300d af3d
000001e0: 158c 1f3e 5aba 8cbd b3ca 453c 3ba4 05bd
000001f0: c97e 29be 4433 05be e7f9 e5bd efaa 383e
00000200: 706b 22be 87b0 9bbd cdc5 a4bd 9bc2 bc3d
00000210: 66c2 8bbe 260a 0dbe 5e64 dc3d 9603 c8be
00000220: 8d8a ce3d be99 b93c 7556 f2bd a678 e33d
00000230: 96a1 5cbe ccdf 893d bc43 49be 6ba9 39be
00000240: fd64 d9bd 7209 133e be95 cdbd 314c 893e
00000250: bd3a 1a3c 069a 143e 2273 793e 974f 1bbd
00000260: a9ba 9c3d ae9e 42be f5c8 743e 44c5 6abe
00000270: 385c 093c f35c 36bd 7f36 553e 8f48 543e
00000280: fb24 5cbe 0750 e4bd 44a0 7cbe 5719 853e
00000290: fe9f 75be a602 0e3e 2e86 613e 3626 713d
000002a0: a972 873d 5626 b23e 4a20 28be f6f8 54be
000002b0: 6f54 25be af2d b53e a9b4 923d 68ed 5e3e
000002c0: 69d4 8bbe cef5 2abd 2675 033e b946 7dbe
000002d0: 4b6d 0a3e abea 40bd ae69 4d3e 871d 3bbd
000002e0: 630e ec3d df62 3bbd e4ac cb3d c653 c53d
000002f0: 501c 2b3e 26e3 633e eba0 98bd 2b86 34be
00000300: b3bd 25be 0848 873e db63 03be 1811 f6bd
00000310: 97d7 8abe 4edf 19be 6812 753d 05d6 d33e

mu.2.weight f4 [200, 200]
0.060734145 -0.038554877 -0.02129213 0.0577638 -0.07476148 0.041567255 0.04784314 -0.067811176
-0.08384411 -0.077724196 -0.042954456 0.016668 0.012518529 -0.0018226596 -0.035239697 -0.07853813
0.049764313 0.015532088 -0.0032265375 0.04677605 -0.07771559 0.021773066 0.03016193 0.0077190115
-0.011794378 -0.004636723 0.03511231 -0.0454486 -0.081390984 -0.010952808 -0.031574853 0.03259386
-0.069710605 -0.03882695 -0.053872563 0.009012612 -0.01610223 0.02591821 -0.05060318 -0.0075200303
0.031652514 -0.064112104 -0.0051101474 0.0355358 0.033704765 -0.033468343 0.03743683 -0.05690285
0.038588274 -0.022253184 0.049504977 -0.076127395 0.011649662 0.009517511 0.0056205327 0.03773197
0.0060731424 0.008787684 -0.020529555 -0.054969005 -0.01298979 0.00369153 0.03136163 0.03715589
-0.070682466 0.017014612 -0.045602772 0.004253175 0.03620577 -0.002975551 -0.06627785 -0.0057319105
-0.044161078 0.006089664 -0.011315108 0.049057335 0.020340884 0.04247373 0.009445308 -0.07218399
0.01101642 -0.052771166 -0.012855757 -0.03868882 0.061224945 -0.00071421836 0.05644863 -0.07723841
-0.035494626 -8.315873e-05 0.014983988 -0.02935102 0.0014715336 0.008944139 0.016508346 -0.078245394
-0.019501055 -0.026450718 -0.047273174 -0.051860947 -0.05747694 -0.015607592 -0.07610092 0.0104209725
-0.038597215 -0.025702707 -0.02986168 -0.052003592 -0.008306807 -0.06696394 -0.036619913 -0.05227574
-0.036347367 -0.0107554905 -0.023231503 -0.084280714 -0.01996909 0.007359326 0.015084244 0.050711036
-0.00030098984 -0.041172683 0.051952258 -0.054284684 0.0058537945 0.016284414 0.02814579 -0.015389733
0.015768021 0.013420614 0.045391854 -0.05130704 0.03999479 -0.07229861 0.032544892 -0.008327149
-0.039156493 0.04095205 -0.03862595 0.015791785 -0.052262608 -0.063850485 -0.06833804 -0.007794718
-0.04389326 -0.016875902 -0.05196568 -0.023044048 -0.016819628 -0.05387226 0.0037413242 -0.067518994
-0.0038797574 0.06400543 -0.06396277 -0.044921156 0.05402577 0.045018096 0.0034797953 -0.012470233
-0.07607447 -0.031901896 0.036768656 0.046192136 0.0032562586 0.019185742 0.014638353 -0.016748361
0.014004024 -0.0015082585 -0.015101842 0.011893476 -0.06517689 0.013527734 -0.028917849 0.03635591
-0.07929905 -0.0422075 -0.06378816 0.016322378 0.03666531 0.049342263 -0.06401905 0.007933949
-0.01650349 -0.04232694 0.022576135 -0.0039058717 -0.03557594 -0.061441414 -0.0053592147 -0.037274078
-0.055417247 -0.033121936 0.047669534 -0.045056682 -0.062335767 -0.024106553 -0.055414334 0.050595906
0.017184041 -0.12750728 0.17034246 0.010839802 0.09286146 0.06131727 0.021990214 -0.08932616
-0.061602615 -0.1572576 0.054600723 0.079187855 0.05612714 0.116340615 0.09408786 0.27407172
-0.10229234 -0.06387686 -0.022237493 -0.107215725 -0.12949099 -0.022198126 -0.20603648 0.15178107
-0.025260774 -0.33729902 -0.17321713 0.16663691 -0.08159588 0.25870934 0.086340204 -0.024929421
0.029100467 0.08173652 0.099474356 -0.029261526 0.058967374 0.028100058 0.070797786 0.004466224
-0.062897965 -0.055236526 0.014824051 -0.031110028 -0.05376184 0.06223993 0.05288804 -0.083311066
0.0047494634 0.061724022 0.09499419 -0.1112595 0.040149443 0.09072834 0.13971996 0.27107444
00000000: 5ec4 783d b8eb 1dbd d56c aebc bc99 6c3d
00000010: 8c1c 99bd 6d42 2a3d 2bf7 433d 96e0 8abd
00000020: 76b6 abbd dd2d 9fbd 03f1 2fbd 548b 883c
00000030: 841a 4d3c 4fe6 eeba 8057 10bd 99d8 a0bd
00000040: aad5 4b3d 4c7a 7e3c 5174 53bb 3e98 3f3d
00000050: 5a29 9fbd 6e5d b23c 2716 f73c c3ef fc3b
00000060: 353d 41bc a7ef 97bb edd1 0f3d 5028 3abd
00000070: 51b0 a6bd 6873 33bc a254 01bd 2481 053d
00000080: 6fc4 8ebd 0209 1fbd 7aa9 5cbd a2a9 133c
00000090: d3e8 83bc 6d52 d43c 4845 4fbd 966a f6bb
000000a0: 11a6 013d 354d 83bd 0673 a7bb fd8d 113d
000000b0: 020e 0a3d 1a16 09bd 5d57 193d f612 69bd
000000c0: bd0e 1e3d 4f4c b6bc bbc5 4a3d aee8 9bbd
000000d0: 39de 3e3c 56ef 1b3c 722c b83b d78c 1a3d
000000e0: 3601 c73b 38fa 0f3c 992d a8bc 2e27 61bd
000000f0: 21d3 54bc 99ed 713b 0d75 003d c630 183d
00000100: f8c1 90bd 3a62 8b3c f9c9 3abd 385e 8b3b
00000110: 804c 143d 7601 43bb aebc 87bd c0d2 bbbb
00000120: 3fe2 34bd ce8b c73b 0163 39bc 58f0 483d
00000130: eda1 a63c eff8 2d3d 7ec0 1a3c 33d5 93bd
00000140: 377e 343c 9426 58bd f4a0 52bc 2b78 1ebd
00000150: 02c7 7a3d 623a 3bba ae36 673d 2c2f 9ebd
00000160: d062 11bd 8165 aeb8 677f 753c 8d71 f0bc
00000170: 79e0 c03a 708a 123c 833c 873c 1f3f a0bd
00000180: adc0 9fbc 2daf d8bc 84a1 41bd 256c 54bd
00000190: f16c 6bbd fcb6 7fbc cdda 9bbd babc 2a3c
000001a0: 1d18 1ebd 7c8e d2bc 7ba0 f4bc b801 55bd
000001b0: 4619 08bc 6424 89bd c3fe 15bd 161f 56bd
000001c0: fae0 14bd cc37 30bc fe4f bebc 5e9b acbd
000001d0: 3896 a3bc 8026 f13b e823 773c 60b6 4f3d
000001e0: 2cce 9db9 b0a4 28bd e4cb 543d 9e59 5ebd
000001f0: 30d1 bf3b e466 853c 0092 e63c 3825 7cbc
00000200: f02b 813c 23e2 5b3c cfec 393d 5527 52bd
00000210: 94d1 233d 4b11 94bd cb4d 053d 986e 08bc
00000220: 8f62 20bd 56bd 273d 3f36 1ebd c65d 813c
00000230: 5111 56bd 0bc4 82bd d0f4 8bbd d56a ffbb
00000240: 6bc9 33bd 553f 8abc f7d9 54bd dfc6 bcbc
00000250: 51c9 89bc 29a9 5cbd 0131 753b 6647 8abd
00000260: 8743 7ebb 4715 833d eafe 82bd 3fff 37bd
00000270: 204a 5d3d e564 383d 470d 643b f34f 4cbc
00000280: efcc 9bbd 90ab 02bd bb9a 163d f733 3d3d
00000290: f466 553b 6b2b 9d3c b4d5 6f3c dc33 89bc
000002a0: 2271 653c c2b0 c5ba b76d 77bc dbdc 423c
000002b0: 767b 85bd 6ea3 5d3c 20e5 ecbc efe9 143d
000002c0: 8a67 a2bd c6e1 2cbd 5ea3 82bd 82b6 853c
000002d0: 5d2e 163d 1d1b 4a3d 6b1c 83bd 65fd 013c
000002e0: 5432 87bc 035f 2dbd 96f1 b83c a7f9 7fbb
000002f0: 14b8 11bd fea9 7bbd 5a9c afbb b4ac 18bd
00000300: 32fd 62bd deaa 07bd 2141 433d 5b8d 38bd
00000310: ca53 7fbd 1b7b c5bc 24fa 62bd a73d 4f3d
00000320: 8cc5 8c3c 4591 02be 416e 2e3e 6d99 313c
00000330: 262e be3d d127 7b3d d224 b43c a2f0 b6bd
00000340: 0653 7cbd 2308 21be 02a5 5f3d 3e2d a23d
00000350: 92e5 653d fd43 ee3d 23b1 c03d 2153 8c3e
00000360: a57e d1bd dfd1 82bd 672b b6bc eb93 dbbd
00000370: 4999 04be d8d8 b5bc 3afb 52be 7f6c 1b3e
00000380: afef cebc 75b2 acbe d55f 31be dea2 2a3e
00000390: be1b a7bd 8d75 843e 22d3 b03d c938 ccbc
000003a0: 1a64 ee3c 7a65 a73d 36b9 cb3d deb5 efbc
000003b0: c687 713d 1832 e63c 6efe 903d 6759 923b
000003c0: a6d0 80bd b23f 62bd 94e0 723c 75da febc
000003d0: 6035 5cbd 4cef 7e3d 21a1 583d fe9e aabd
000003e0: 63a1 9b3b 54d2 7c3d 508c c23d 05dc e3bd
000003f0: be73 243d c8cf b93d c012 0f3e 45ca 8a3e

mu.2.bias f4 [200]
-0.0035016914 0.08306369 -0.07529939 0.07449063 -0.0153068835 0.036296286 -0.011508928 0.048882335
-0.05575009 0.08771084 0.09443515 -0.06323366 -0.015380507 -0.07861175 0.07521033 0.073157825
0.11369353 0.043570198 -0.043813873 0.009573613 0.08761457 0.024299433 -0.040869243 0.030160518
0.0091322195 0.02223168 -0.06443116 -0.04539438 0.07314446 -0.091530696 0.10236339 0.061235096
0.025986837 -0.00011915102 0.008082077 -0.00985371 0.0051073576 -0.05950132 -0.03556901 0.012173347
-0.014277618 0.047688376 0.12074673 0.062448516 -0.03276028 -0.05742261 0.013137197 0.0472623
0.03025977 0.060248736 -0.015155854 0.0419068 -0.021145532 -0.02315444 -0.05916663 0.04758049
0.0032502098 0.022847084 0.037068292 0.00069970865 0.030676542 -0.020509467 0.06618456 0.0747596
-0.03156721 -0.045629375 0.005988357 0.03417877 0.07409612 0.017454473 -0.018680857 0.03215933
-0.013973593 -0.0057003074 -0.01604363 -0.04482005 -0.10673379 -0.029843152 0.031950742 -0.13339353
0.083826594 -0.0045909886 -0.063481875 0.027695224 -0.032873478 -0.020143269 0.030963134 0.03857477
0.048963044 0.008901713 -0.034151368 -0.02563153 0.07132518 -0.0030543986 0.04849631 -0.03850646
-0.0897257 0.10290063 0.10793421 -0.031714246 -0.017133772 -0.07066736 -0.069166444 -0.05830073
0.050925076 0.004824829 0.051226452 -0.020849036 -0.14022598 -0.06776485 0.009684773 0.053222116
0.09838348 0.046266697 0.081244014 -0.016696071 0.057943903 -0.047078453 0.00939023 0.06572002
0.06812408 -0.00842601 -0.06504822 0.048381392 -0.027433429 0.060090326 0.03639077 -0.08601135
-0.0067243674 -0.0067240763 0.028204305 0.012148167 0.11669365 -0.0013377175 0.00057083013 0.06218893
0.008497588 0.036707554 0.040843777 -0.060626227 0.068489216 0.05850599 0.06078141 0.05491076
-0.0021209363 0.014756858 -0.0064747618 0.0092150485 0.06462034 -0.007295567 -0.0010615558 -0.015214964
0.06688328 -0.065084435 -0.10312118 -0.02331395 0.022450306 -0.032525506 -0.032071237 -0.0066424757
-0.06196479 -0.017408876 0.014057634 -0.006935007 0.03494362 0.06427951 -0.008015961 -0.026235288
0.030808575 0.051035076 0.004838537 0.04925884 -0.061156593 0.082932785 0.056000717 0.042823903
-0.034210324 -0.07689324 -0.06954913 0.004563928 -0.03479747 0.08573813 -0.04287996 0.054742664
0.09829251 -0.03209218 -0.0900039 -0.02442239 0.017970547 -0.013071101 -0.03378545 -0.025504474
-0.015836855 -0.06595835 0.026507528 -0.09191448 -0.016895635 -0.058565866 -0.005811578 0.10793081
00000000: a27c 65bb 4c1d aa3d 9136 9abd 8b8e 983d
00000010: b9c9 7abc 6aab 143d f18f 3cbc d838 483d
00000020: 355a 64bd bea1 b33d 3767 c13d a680 81bd
00000030: 86fe 7bbc 32ff a0bd e007 9a3d c5d3 953d
00000040: 27d8 e83d aa76 323d 2d76 33bd a5da 1c3c
00000050: 456f b33d 9b0f c73c 8266 27bd 3113 f73c
00000060: 4e9f 153c 361f b63c 7cf4 83bd 75ef 39bd
00000070: c3cc 953d 7274 bbbd e6a3 d13d a7d1 7a3d
00000080: 59e2 d43c b7e0 f9b8 b06a 043c 7571 21bc
00000090: 9f5b a73b a8b7 73bd cfb0 11bd b872 473c
000000a0: acec 69bc e354 433d 104a f73d 04ca 7f3d
000000b0: a52f 06bd f933 6bbd 663d 573c 1d96 413d
000000c0: 56e3 f73c 61c7 763d 4250 78bc 77a6 2b3d
000000d0: 6539 adbc 61ae bdbc b558 72bd c3e3 423d
000000e0: 7901 553b cf29 bb3c ecd4 173d a76c 373a
000000f0: 5f4d fb3c 7803 a8bc c58b 873d 901b 993d
00000100: 9e4c 01bd dee5 3abd fb39 c43b 0aff 0b3d
00000110: b5bf 973d affc 8e3c 9908 99bc 80b9 033d
00000120: 7ff1 64bc a5c9 babb ee6d 83bc 3b95 37bd
00000130: 3f97 dabd a079 f4bc c8de 023d 5098 08be
00000140: 47ad ab3d 0170 96bb c902 82bd 18e1 e23c
00000150: 57a6 06bd 7f03 a5bc 66a6 fd3c 9400 1e3d
00000160: 798d 483d 7ed8 113c 4ee2 0bbd 37f9 d1bc
00000170: f012 923d 4e2c 48bb 11a4 463d f3b8 1dbd
00000180: 1cc2 b7bd 91bd d23d 9c0c dd3d cce6 01bd
00000190: 205c 8cbc 0dba 90bd 23a7 8dbd bfcc 6ebd
000001a0: d096 503d 9919 9e3b d4d2 513d 99cb aabc
000001b0: 6697 0fbe 4cc8 8abd e2ac 1e3c 6fff 593d
000001c0: 477d c93d 2682 3d3d 4363 a63d 33c6 88bc
000001d0: 9656 6d3d 56d5 40bd 7bd9 193c 3898 863d
000001e0: a384 8b3d 3f0d 0abc 0038 85bd 912b 463d
000001f0: 12bc e0bc 4621 763d 7d0e 153d b826 b0bd
00000200: 1558 dcbb a455 dcbb b70c e73c 1b09 473c
00000210: 15fd ee3d 5a56 afba c3a3 153a d2b9 7e3d
00000220: 7839 0b3c a95a 163d ce4b 273d 3553 78bd
00000230: 1344 8c3d faa3 6f3d eef5 783d 1bea 603d
00000240: 68ff 0abb c0c6 713c 3d2a d4bb b7fa 163c
00000250: ab57 843d a70f efbb e723 8bba 2f48 79bc
00000260: 1afa 883d fd4a 85bd 3231 d3bd e6fc bebc
00000270: b4e9 b73c 7739 05bd 215d 03bd 20a9 d9bb
00000280: cbce 7dbd 0f9d 8ebc fe51 663c 0e3f e3bb
00000290: 0b21 0f3d faa4 833d 6155 03bc 63eb d6bc
000002a0: 4462 fc3c 280a 513d 978c 9e3b a3c3 493d
000002b0: 567f 7abd aad8 a93d 0261 653d 1e68 2f3d
000002c0: 2020 0cbd 347a 9dbd c66f 8ebd 018d 953b
000002d0: cb87 0ebd 7997 af3d e6a2 2fbd d839 603d
000002e0: 954d c93d 1773 03bd f753 b8bd 7711 c8bc
000002f0: f836 933c 2c28 56bc 9d62 0abd c2ee d0bc
00000300: 4bbc 81bc 2c15 87bd 5126 d93c a93d bcbd
00000310: b768 8abc c3e2 6fbd 0d6f bebb d40a dd3d

mu.4.weight f4 [12, 200]
-0.06537931 0.11347672 0.015823994 0.062540814 0.0027863013 -0.1725733 0.02938725 0.015850058
0.17682193 -0.0947578 0.0849531 -0.041191254 0.033710707 0.09796863 0.097936384 -0.13350287
0.10829554 0.061246384 -0.068338856 -0.12015262 0.08335974 -0.0008198179 0.0317293 -0.03768812
-0.09802358 -0.08289568 -0.033277597 0.052862268 0.045513377 -0.137769 0.13098519 -0.12805419
-0.06664086 0.1340616 -0.120092355 0.037677966 0.010154127 -0.05227651 0.06357125 -0.11481519
0.114036225 0.17187525 0.022063097 -0.004038551 0.028168986 0.16418731 -0.08419507 0.02740291
-0.04103476 0.00742996 0.034431484 -0.020909585 -0.10847626 0.07000617 -0.124418624 0.024772638
-0.006601604 -0.0019133519 -0.039334882 -0.02294009 -0.12965864 0.035332642 0.040777236 -0.07586387
0.21776365 -0.01732134 0.08216852 -0.047352344 -0.11435886 -0.18106228 -0.0046279514 -0.02059072
-0.08308147 0.036652036 0.0060495907 -0.21246427 -0.13786384 0.2135179 0.014518477 0.12508924
0.037941366 -0.028717332 -0.12876128 0.12506047 -0.054615863 -0.051296078 0.13019954 0.13732806
-0.09192154 -0.21341178 0.03431839 0.103032425 0.052637972 -0.105600394 0.07827752 -0.03539919
0.25571942 -0.16011177 -0.023044065 0.031590674 -0.043717112 0.023726732 0.09197656 0.027060658
0.044264182 0.16553405 -0.09269094 0.08931185 -0.14135823 0.051917978 -0.04650696 0.028157344
-0.041210238 -0.04539871 -0.08657697 -0.0025499153 -0.023557412 0.09411426 0.07676566 -0.0055894866
0.13303569 0.035746835 0.020477876 -0.06076886 -0.0737995 0.15443826 0.038546924 0.03491087
0.1052314 -0.020972664 0.082856864 -0.11802864 0.075970724 -0.11158918 -0.07923484 -0.016122581
0.06230169 -0.07402015 -0.20839517 0.0032324896 -0.065923974 0.18643579 0.062032327 0.01372953
-0.08906026 0.007585778 -0.10390984 -0.20373401 0.0014546833 0.021626465 -0.106535085 0.19153117
-0.075669155 -0.022535453 0.15615304 0.03421517 0.19385342 0.10351388 -0.009495433 0.23205407
-0.029976834 -0.07199073 0.016273344 -0.054333538 0.056474127 0.01710043 -0.026258668 0.057230875
-0.07563404 0.12266281 0.0676275 0.052759532 -0.021272918 0.014036542 -0.0396948 0.057627477
0.09504186 0.114392586 -0.03178664 0.03655429 -0.048117634 -0.008977018 0.1034073 0.04141916
-0.05232242 -0.10708195 0.17881572 0.046888813 -0.103720084 0.19456336 0.07504711 0.14763892
0.101307064 0.085217185 -0.22922766 -0.031906147 -0.010970962 0.041924 0.022031475 -0.026380392
-0.059455696 -0.13700314 -0.071632676 0.2024894 -0.17758043 -0.1929845 0.17867775 0.061675668
0.10084669 3.9627223e-05 0.0041034566 -0.042191185 -0.02068063 -0.11131779 -0.095598646 0.04728762
-0.03414505 0.06199332 -0.0040692473 -0.12500134 0.0708657 0.054839455 0.12214312 -0.22595319
0.15811545 -0.097386226 0.15266347 -0.03889843 0.04870743 0.20879982 -0.031676244 0.14894538
-0.028758923 -0.06061611 -0.12319178 -0.06255385 -0.056660682 0.08335248 -0.034071356 0.074604735
0.15683894 -0.10228608 -0.09419661 0.07131828 -0.0991978 -0.26566762 -0.07411741 0.06373226
0.01022196 -0.12723301 -0.13782755 -0.027808845 0.07904517 -0.10576089 0.008982175 -0.04239922
00000000: 96e5 85bd 7c66 e83d 52a1 813c 6615 803d
00000010: 619a 363b 0eb7 30be 88bd f03c fbd7 813c
00000020: cf10 353e 6110 c2bd e4fb ad3d 29b8 28bd
00000030: 3d14 0a3d c7a3 c83d df92 c83d fab4 08be
00000040: 0dca dd3d 7ddd 7a3d 3ef5 8bbd 9412 f6bd
00000050: 83b8 aa3d 0ce9 56ba 95f6 013d dc5e 1abd
00000060: 96c0 c8bd 36c5 a9bd 174e 08bd 1b86 583d
00000070: 3c6c 3a3d 5113 0dbe fb20 063e a320 03be
00000080: 017b 88bd 7247 093e fbf2 f5bd 3654 1a3d
00000090: 7f5d 263c e51f 56bd a531 823d 3a24 ebbd
000000a0: d38b e93d 1100 303e abbd b43c d255 84bb
000000b0: a5c2 e63c b820 283e 776e acbd 117c e03c
000000c0: 1114 28bd 0677 f33b 0708 0d3d 944a abbc
000000d0: cd28 debd 655f 8f3d 31cf febd fdef ca3c
000000e0: 4552 d8bb 70c9 faba 9d1d 21bd dbec bbbc
000000f0: 3cc5 04be f6b8 103d 0806 273d 845e 9bbd
00000100: 6ffd 5e3e 7ce5 8dbc f847 a83d 88f4 41bd
00000110: fa34 eabd 6468 39be 12a6 97bb dfad a8bc
00000120: 9e26 aabd 7220 163d a53b c63b 3c90 59be
00000130: 2e2c 0dbe 70a4 5a3e e8de 6d3c 6517 003e
00000140: 6868 1b3d 9c40 ebbc ffd9 03be da0f 003e
00000150: e2b4 5fbd d61b 52bd 0753 053e ba9f 0c3e
00000160: 5c41 bcbd 9e88 5abe 7191 0c3d aa02 d33d
00000170: ea9a 573d 0545 d8bd f74f a03d befe 10bd
00000180: a8ed 823e 57f4 23be e8c6 bcbc 3965 013d
00000190: b710 33bd 905e c23c 355e bc3d 50ae dd3c
000001a0: 5c4e 353d c281 293e bfd4 bdbd 22e9 b63d
000001b0: 36c0 10be f2a7 543d 157e 3ebd 3baa e63c
000001c0: 11cc 28bd fff3 39bd 444f b1bd 7b1c 27bb
000001d0: 79fb c0bc fabe c03d 5037 9d3d 0328 b7bb
000001e0: 823a 083e 466b 123d 38c1 a73c c5e8 78bd
000001f0: 3124 97bd 1025 1e3e 61e3 1d3d b3fe 0e3d
00000200: 8f83 d73d ddce abbc dcb0 a93d 00b9 f1bd
00000210: 8a96 9b3d de88 e4bd e045 a2bd 8113 84bc
00000220: 0f30 7f3d e097 97bd 8b65 55be 2dd8 533b
00000230: 2603 87bd 06e9 3e3e 9c15 7e3d d3f1 603c
00000240: 3a65 b6bd 1e92 f83b afce d4bd a69f 50be
00000250: 12ab be3a fc29 b13c 112f dabd bf20 443e
00000260: 6ef8 9abd 459c b8bc 95e6 1f3e 3525 0c3d
00000270: 8381 463e 16ff d33d bc92 1bbc 959f 6d3e
00000280: fa91 f5bc e06f 93bd ad4f 853c d88c 5ebd
00000290: 6a51 673d 3316 8c3c 6b1c d7bc ec6a 6a3d
000002a0: 05e6 9abd a436 fb3d 4980 8a3d 611a 583d
000002b0: 8b44 aebc 86f9 653c 0497 22bd ca0a 6c3d
000002c0: 4fa5 c23d a946 ea3d b532 02bd f4b9 153d
000002d0: ff16 45bd 5814 13bc 35c7 d33d 23a7 293d
000002e0: 0950 56bd c84d dbbd 781b 373e 7c0e 403d
000002f0: 326b d4bd 9e3b 473e 4db2 993d a82e 173e
00000300: 147a cf3d 5986 ae3d a8ba 6abe 05b0 02bd
00000310: 8dbf 33bc 80b8 2b3d 5a7b b43c b11b d8bc
00000320: d187 73bd 8d4a 0cbe 27b4 92bd 6259 4f3e
00000330: a5d7 35be bb9d 45be 4df7 363e a09f 7c3d
00000340: b688 ce3d 6835 2638 4a76 863b aad0 2cbd
00000350: 6d6a a9bc 95fa e3bd 39c9 c3bd aab0 413d
00000360: aedb 0bbd b5ec 7d3d 5257 85bb 5a00 00be
00000370: 0922 913d 569f 603d 2c26 fa3d 4660 67be
00000380: 04e9 213e 6e72 c7bd d053 1c3e f653 1fbd
00000390: 7181 473d 9fcf 553e f3be 01bd 2385 183e
000003a0: d597 ebbc 9948 78bd f94b fcbd 3c1c 80bd
000003b0: 0815 68bd b4b4 aa3d 688e 0bbd 5eca 983d
000003c0: 639a 203e 5d7b d1bd 27ea c0bd 520f 923d
000003d0: 3728 cbbd 9605 88be deca 97bd 0f86 823d
000003e0: 027a 273c 5f49 02be aa22 0dbe 60cf e3bc
000003f0: 6fe2 a13d 2a99 d8bd f929 133c ceaa 2dbd

mu.4.bias f4 [12]
-0.043537382 -0.023450162 0.04424723 -0.042186894 -0.009400835 0.025858633 0.072569765 0.008380981
-0.04304885 -0.058518205 0.04238516 0.0039460515
00000000: 4154 32bd 8e1a c0bc 953c 353d 2acc 2cbd
00000010: f605 1abc 7cd5 d33c 759f 943d 6250 093c
00000020: fe53 30bd c9b0 6fbd 109c 2d3d e14d 813b

reward_fun.0.weight f4 [200, 14]
-0.25631306 -0.10479241 0.26000127 0.120284595 0.03759187 -0.16097319 0.22401553 -0.04785438
-0.065427154 0.04375542 -0.19688888 0.14697532 -0.1668668 0.1579617 -0.17375182 0.10440561
-0.004067229 0.017961478 0.24019396 -0.044192377 -0.016078318 0.040631123 0.1503101 -0.2351736
0.16128258 0.14501016 -0.25676098 0.3759056 0.11023393 -0.10866525 0.15675026 -0.18653929
0.0063682506 0.031762887 0.09319346 0.120429024 0.21554597 0.011560258 0.018697575 0.11419705
-0.10139247 -0.46148697 -0.12337414 -0.10503354 -0.010078853 0.28283602 0.222321 0.2316809
-0.1610336 -0.0879854 0.21113393 0.21849883 0.06394448 0.043951936 -0.11244088 -0.32631505
-0.05390085 -0.01769765 -0.14823793 -0.094924115 -0.038089015 -0.12807654 -0.05765927 -0.19832566
0.13522506 0.1431852 0.14497271 -0.021513887 -0.16387576 0.22586076 -0.20875669 0.11172118
0.04384966 -0.15169561 0.23066089 0.064270094 0.032657687 -0.14727944 0.11650364 -0.07368303
0.08827841 0.014125933 0.35400927 -0.36202535 0.302484 -0.18963988 0.15735891 0.0045394567
0.09905782 0.12597984 -0.07709476 0.21779355 -0.10023192 0.086843 0.17428344 -0.18081294
0.06575614 0.010563246 -0.064788274 -0.3201888 -0.23022065 -0.032541342 -0.2557487 0.07574331
-0.16620158 0.1300495 -0.048731185 0.25979733 -0.30104053 -0.069259405 0.3128712 0.35706833
-0.27120078 -0.1774311 -0.055267192 -0.20214482 0.0101885935 -0.17238575 0.1838426 0.081684776
-0.17300509 -0.08518422 -0.116088815 -0.12021862 -0.23194398 -0.12511498 0.25173753 -0.1801541
0.16619246 -0.15646575 -0.16832797 0.07055365 -0.06711851 0.25578073 -0.17460679 -0.056357943
-0.19306767 0.18215653 0.04498696 0.46685705 0.2156535 0.16874728 0.25210404 0.28021246
0.14713793 -0.077126905 -0.13968316 0.04518642 0.13150524 0.030991327 0.0174515 -0.21450575
-0.01196633 0.15131627 -0.15291941 0.013819337 -0.14547326 -0.12846209 0.003340449 0.15663669
-0.105637304 -0.16409141 0.12409554 -0.13154267 0.07908958 0.21972165 0.34134373 0.47587195
-0.026716037 -0.14112988 0.16882351 0.07107512 -0.24852528 -0.27304018 0.15495214 0.19844519
-0.09551714 -0.08412541 -0.04790928 0.15133148 -0.41976368 0.24857791 -0.18633068 -0.2840046
-0.20311804 0.24576247 0.21198003 0.1321981 0.2598752 0.038296178 0.0725757 0.23898402
-0.17768545 0.07021412 -0.43633774 0.39283043 -0.020087592 -0.39330778 0.1700944 -0.29444838
0.18378207 -0.08497651 -0.27901602 0.109510206 -0.11985541 -0.06936807 -0.058258153 0.25971505
-0.29267815 0.28670618 -0.16250579 -0.0074158157 -0.07457752 0.04096904 0.009099486 -0.116967656
-0.06752048 -0.2349807 0.25338954 -0.222025 0.2723906 -0.27042717 -0.14692178 0.08878517
-0.072788894 0.22008935 -0.18559852 0.14616607 0.22384782 -0.21828713 0.100464225 0.20261386
-0.1114146 -0.25324938 0.23261969 0.25937673 0.25180224 0.31954858 -0.12479052 0.29888964
-0.23982707 -0.21828887 -0.2706272 -0.03280502 -0.03124738 0.055424947 0.07094877 -0.06909054
-0.0068859966 -0.10733128 0.24825141 -0.37814236 -0.24281581 0.025165338 -0.20495825 0.13440795
00000000: 773b 83be 679d d6bd e31e 853e c557 f63d
00000010: eff9 193d 28d6 24be 5464 653e f402 44bd
00000020: acfe 85bd e238 333d 3d9d 49be b380 163e
00000030: 21df 2abe b6c0 213e ffeb 31be 9cd2 d53d
00000040: 6446 85bb f323 933c 68f5 753e 1103 35bd
00000050: adb6 83bc d26c 263d e4ea 193e 59d1 70be
00000060: 4327 253e 8b7d 143e 2d76 83be b376 c03e
00000070: 54c2 e13d e38b debd 2483 203e 2804 3fbe
00000080: c2ac d03b cd19 023d 36dc be3d 7ea3 f63d
00000090: 15b8 5c3e 3d67 3d3c a82b 993c 25e0 e93d
000000a0: dba6 cfbd 0548 ecbe 95ab fcbd d31b d7bd
000000b0: c621 25bc e2cf 903e 1ea8 633e c23d 6d3e
000000c0: fee5 24be b031 b4bd 7e33 583e 28be 5f3e
000000d0: 53f5 823d f206 343d 6747 e6bd c412 a7be
000000e0: 23c7 5cbd a9fa 90bc afcb 17be 9367 c2bd
000000f0: 3a03 1cbd 7f26 03be 202c 6cbd e215 4bbe
00000100: 7078 0a3e 249f 123e ba73 143e e43d b0bc
00000110: 0ccf 27be 0b48 673e 50c4 55be 13ce e43d
00000120: b39b 333d 1856 1bbe 5e32 6c3e 0aa0 833d
00000130: 11c4 053d 6cd0 16be 7699 ee3d 21e7 96bd
00000140: 50cb b43d 7570 673c b440 b53e 635b b9be
00000150: 2fdf 9a3e f530 42be b222 213e b9bf 943b
00000160: d4de ca3d dc00 013e dce3 9dbd 4605 5f3e
00000170: 6546 cdbd beda b13d 5c77 323e 0727 39be
00000180: 28ab 863d 7711 2d3c b7af 84bd c9ef a3be
00000190: f6be 6bbe 124a 05bd 7ef1 82be 4f1f 9b3d
000001a0: bf30 2abe b22b 053e 5a9a 47bd 2804 853e
000001b0: fc21 9abe e0d7 8dbd a730 a03e a9d1 b63e
000001c0: d4da 8abe 80b0 35be da5f 62bd 0dff 4ebe
000001d0: 0fee 263c e485 30be 3c41 3c3e 594a a73d
000001e0: 3f28 31be 1075 aebd f9bf edbd 2e35 f6bd
000001f0: b982 6dbe 241e 00be bee3 803e 517a 38be
00000200: 5b2e 2a3e 8f38 20be 2b5e 2cbe 6f7e 903d
00000210: 6e75 89bd b1f5 823e 1fcc 32be 96d7 66bd
00000220: 88b3 45be 3e87 3a3e 3f44 383d e307 ef3e
00000230: 45d4 5c3e 16cc 2c3e c813 813e 0278 8f3e
00000240: 53ab 163e b6f4 9dbd 1a09 0fbe 6515 393d
00000250: 4fa9 063e 86e1 fd3c 73f6 8e3c 65a7 5bbe
00000260: 6d0e 44bc a7f2 1a3e e896 1cbe 806a 623c
00000270: f1f6 14be 918b 03be 6feb 5a3b 5e65 203e
00000280: 5f58 d8bd 9407 28be cd25 fe3d 1fb3 06be
00000290: b8f9 a13d b6fe 603e 9bc4 ae3e 7da5 f33e
000002a0: 97db dabc 5a84 10be 12e0 2c3e d58f 913d
000002b0: 697d 7ebe eccb 8bbe c6ab 1e3e 3735 4b3e
000002c0: 7e9e c3bd f149 acbd 853c 44bd a4f6 1a3e
000002d0: 44eb d6be 358b 7e3e 78cd 3ebe 0d69 91be
000002e0: 2dfe 4fbe 28a9 7b3e 4b11 593e f05e 073e
000002f0: 5d0e 853e 74dc 1c3d 92a2 943d 3ab8 743e
00000300: 2df3 35be 6ccc 8f3d a967 dfbe 1221 c93e
00000310: bc8e a4bc a35f c9be 3a2d 2e3e f0c1 96be
00000320: 5e31 3c3e 2a08 aebd 30db 8ebe e346 e03d
00000330: c176 f5bd d910 8ebd 1aa0 6ebd 5ff9 843e
00000340: e9d9 95be 27cb 923e eb67 26be 5f00 f3bb
00000350: 19bc 98bd 27cf 273d 0316 153c bd8c efbd
00000360: 2d48 8abd c89e 70be 46bc 813e 865a 63be
00000370: c876 8b3e 6e75 8abe aa72 16be 00d5 b53d
00000380: 5812 95bd 1a5f 613e 8a0d 3ebe 8fac 153e
00000390: 5d38 653e a986 5fbe 30c0 cd3d 027a 4f3e
000003a0: 562d e4bd e7a9 81be db33 6e3e 07cd 843e
000003b0: 39ec 803e df9b a33e 2c92 ffbd 1008 993e
000003c0: 3a95 75be 1e87 5fbe a68f 8abe 8f5e 06bd
000003d0: 81fa ffbc 4505 633d 974d 913d 577f 8dbd
000003e0: eda3 e1bb 81d0 dbbd 9e35 7e3e e09b c1be
000003f0: b5a4 78be 8a27 ce3c 93e0 51be 3da2 093e

reward_fun.0.bias f4 [200]
0.15485762 0.14078204 -0.25305966 0.014791743 0.19276161 -0.037959132 -0.059919443 -0.150194
0.0133565795 0.13168633 -0.23320876 -0.20691724 0.32778144 -0.046642937 0.045311227 -0.04585735
-0.0015220947 -0.26098576 0.09290751 -0.07043025 -0.0020307475 0.32575035 -0.21552877 0.024377659
0.26680303 0.096229784 -0.14669298 0.057155147 -0.15115853 -0.14385162 0.11973022 0.09805761
-0.05776198 -0.21966164 -0.11094302 0.14248195 0.07772213 0.14155255 -0.1881023 -0.16457862
-0.1968181 -0.11977998 0.17195424 -0.1398775 -0.050580308 -0.030857598 0.12404095 0.18552953
0.06163548 -0.08067226 0.2240594 -0.20318471 -0.055175856 0.107797556 0.037719585 0.27181083
-0.008383169 -0.17392658 -0.1814623 0.15922552 -0.10795657 -0.24318397 0.018657237 0.25259072
-0.09375538 0.0072240466 0.16019794 0.2211842 -0.22616588 0.16022705 -0.20815033 -0.18044953
-0.26819485 0.031636234 -0.025405116 -0.038165644 -0.01627456 0.088746145 0.070037544 -0.19952324
-0.051765624 -0.0092179505 -0.13682514 -0.0046088407 0.25582236 -0.04289054 -0.098936856 -0.16771275
-0.029678026 0.052626148 -0.21559675 0.20756619 0.2400995 -0.20661923 -0.11081025 0.21726464
0.020058792 -0.07367382 0.16204302 -0.123895355 0.08774305 -0.16630225 -0.045904785 0.1935468
-0.054959163 -0.100409366 -0.20485352 -0.018989403 -0.25667703 0.15650187 0.23248221 0.18359627
-0.09282807 -0.009409792 -0.22466078 0.14317283 0.01239317 -0.09710059 0.08295601 -0.0017770653
-0.14847685 0.058819365 -0.0406048 -0.20444438 -0.0025464094 -0.22756685 0.056534763 -0.0131299095
0.14384429 0.14794223 -0.008072057 0.21584088 -0.17687473 0.208576 0.0029215305 0.060673986
0.22217217 0.017657094 0.24259923 -0.150215 -0.059665177 0.2409581 -0.21279344 0.06420921
0.09504583 -0.09295365 0.028636321 -0.19657995 -0.13419598 -0.26724482 0.029086888 -0.050112624
0.22769481 0.05430507 -0.12887935 0.2410925 -0.16060762 0.21013522 -0.24460767 -0.02698916
0.22285989 -0.12031343 0.10066436 0.23207988 0.23210904 -0.27859792 0.034435533 0.059605658
0.082985 0.07516783 0.17609774 0.15460688 0.018599972 0.28129032 0.06624938 0.087784186
0.12670408 -0.2238575 -0.017697085 0.18201649 0.023381379 0.023568362 -0.08111759 0.15703735
0.13640372 0.074290626 -0.18112811 0.23270251 -0.16608718 -0.042397276 0.22881415 0.062726885
-0.1584019 0.29895714 0.07599258 -0.06384777 0.11876826 -0.034235056 -0.035312943 0.19539627
00000000: ff92 1e3e 2b29 103e 0991 81be 1159 723c
00000010: 4d63 453e 097b 1bbd 176e 75bd 75cc 19be
00000020: 8ed5 5a3c c8d8 063e 47ce 6ebe 1de2 53be
00000030: f8d2 a73e aa0c 3fbd 4498 393d ebd4 3bbd
00000040: 0681 c7ba ed9f 85be 4b46 be3d bc3d 90bd
00000050: 4a16 05bb c0c8 a63e 93b3 5cbe a8b3 c73c
00000060: 689a 883e 1f14 c53d af36 16be 841b 6a3d
00000070: 4dc9 1abe d74d 13be 1e35 f53d 6ed2 c83d
00000080: d397 6cbd fbee 60be 1836 e3bd cae6 113e
00000090: c82c 9f3d 27f3 103e e49d 40be 4c87 28be
000000a0: af8a 49be 354f f5bd c614 303e 0c3c 0fbe
000000b0: 4c2d 4fbd 13c9 fcbc 2e09 fe3d 74fb 3d3e
000000c0: 7c75 7c3d 7f37 a5bd d46f 653e a70f 50be
000000d0: 1400 62bd f7c4 dc3d da7f 1a3d ca2a 8b3e
000000e0: 8f59 09bc cf19 32be 41d1 39be 040c 233e
000000f0: 5618 ddbd 3805 79be 10d7 983c 9253 813e
00000100: d202 c0bd b2b7 ec3b ee0a 243e 1c7e 623e
00000110: 0798 67be 8f12 243e 5c25 55be c3c7 38be
00000120: d650 89be ff94 013d 641e d0bc 9453 1cbd
00000130: 3a52 85bc 8ac0 b53d d86f 8f3d d24f 4cbe
00000140: 3108 54bd e306 17bc e41b 0cbe c205 97bb
00000150: 26fb 823e fead 2fbd 689f cabd e4bc 2bbe
00000160: 551f f3bc 848e 573d 65c5 5cbe 3b8c 543e
00000170: a5dc 753e fe93 53be 7cf0 e2bd 9f7a 5e3e
00000180: 5652 a43c 4de2 96bd 9bee 253e d9bc fdbd
00000190: a1b2 b33d 234b 2abe a806 3cbd 2231 463e
000001a0: dc1c 61bd 6da3 cdbd 1fc5 51be aa8f 9bbc
000001b0: 2c6b 83be 0742 203e d10f 6e3e a900 3c3e
000001c0: a51c bebd 872b 1abc 7a0d 66be e69b 123e
000001d0: b90c 4b3c addc c6bd d7e4 a93d 6bec e8ba
000001e0: 510a 18be 93ec 703d 3851 26bd de59 51be
000001f0: a9e1 26bb 4907 69be ff90 673d d51e 57bc
00000200: eb4b 133e 2b7e 173e a940 04bc 6405 5d3e
00000210: a61e 35be f294 553e 2677 3f3b 4985 783d
00000220: 1a81 633e 9ca5 903c ef6b 783e f6d1 19be
00000230: 7963 74bd b8bd 763e 86e6 59be 1e80 833d
00000240: 63a7 c23d 7c5e bebd b896 ea3c 414c 49be
00000250: ac6a 09be 50d4 88be a047 ee3c e542 4dbd
00000260: d428 693e fe6e 5e3d f3f8 03be f4e0 763e
00000270: 5376 24be b02d 573e 6f7a 7abe 5f18 ddbc
00000280: 6235 643e e366 f6bd 1e29 ce3d 59a6 6d3e
00000290: fead 6d3e 63a4 8ebe 460c 0d3d 1025 743d
000002a0: 0af4 a93d 97f1 993d f752 343e 4451 1e3e
000002b0: f85e 983c 4905 903e c1ad 873d 32c8 b33d
000002c0: b7be 013e e73a 65be 7af9 90bc 8862 3a3e
000002d0: 4e8a bf3c 7012 c13c fb20 a6bd 66ce 203e
000002e0: 6bad 0b3e af25 983d a679 39be 9149 6e3e
000002f0: c212 2abe c4a8 2dbd 424e 6a3e f476 803d
00000300: 1c34 22be e910 993e ffa1 9b3d 9fc2 82bd
00000310: c63c f33d 0f3a 0cbd 4ea4 10bd f615 483e

reward_fun.2.weight f4 [200, 200]
-0.071304135 0.042483453 0.021672042 -0.044863906 -0.02413687 -0.002678854 0.013322697 -0.007139818
-0.058177702 -0.034540858 -0.015649427 -0.14511588 -0.041429553 -0.055073865 0.12065949 -0.014300323
0.021403834 0.10464499 -0.056337595 -0.09138189 0.0668027 0.060712133 0.12943628 0.047459017
-0.0567327 0.04049702 0.13776782 -0.00434599 -0.05048916 0.009855681 0.07053596 -0.043606866
0.010155327 -0.16943558 -0.022459863 -0.00575688 -0.08118776 0.0073489584 -0.041476056 -0.04479856
0.055221442 0.0060597323 -0.13223164 0.05694163 0.036519222 -0.03098607 -0.025922108 0.11302245
-0.14767537 -0.011164052 -0.17689522 -0.048719 -0.016101385 -0.015503167 0.0006645589 -0.0077259215
-0.16279745 0.033738915 0.12972493 -0.030857043 -0.0017504065 -0.053905495 0.043877468 0.0013075096
-0.0014684731 -0.068822496 -0.042891238 0.18216592 -0.1303998 0.014416635 0.048576068 0.052535266
-0.07929598 -0.026924465 -0.011922934 0.046537414 -0.07177673 0.02356568 0.0038371517 -0.043693747
-0.06157485 -0.03786333 -0.060088675 0.016715955 -0.016313512 -0.082364224 -0.038726274 0.021506997
-0.06552038 0.012453453 0.26297227 -0.013336121 0.047704376 -0.094301 0.067380555 0.042746216
0.018654766 0.0013611611 -0.23226699 -0.040003404 0.027501294 -0.07468142 -0.0659216 0.05360292
0.18692052 -0.07196406 -0.06421647 -0.010275235 0.092381194 0.030994225 0.007021842 -0.01170621
-0.014333393 0.059433147 -0.031290896 0.062465962 -0.0849095 0.01042818 -0.030317916 0.022763655
-0.07132825 -0.049337212 -0.056146394 -0.048261907 0.018471101 0.10156274 0.12782544 -0.038421966
0.0065181544 -0.017576253 -0.05803292 0.030415386 -0.036033094 -0.034451764 -0.01693203 0.028069511
-0.08352083 -0.060314603 0.010872963 0.10019346 -0.13245375 -0.0061723446 0.054539964 0.042303443
-0.05848325 0.19628607 0.049936652 0.0009908974 0.037024386 0.12746033 0.0732055 0.050408505
-0.00013396701 0.0865132 0.011473646 -0.008311994 0.07944057 -0.052347083 -0.07862176 0.027017564
0.090556264 -0.20117438 0.06170062 -0.099342465 0.013829925 0.017493527 0.06726599 -0.008220283
-0.00023165357 -0.050422493 -0.045070007 0.01540081 -0.17089552 0.06324415 -0.01743485 -0.02668148
-0.035344336 -0.22569978 0.06895745 0.006562885 0.0007315787 0.019684346 -0.030115193 -0.08163235
-0.020398144 0.0059086154 -0.021642027 6.266776e-05 -0.07302633 0.006621241 -0.025952967 -0.050769683
0.030067172 -0.035211973 -0.047428176 -0.0062780683 -0.1321467 -0.00972724 0.03128624 -0.05744572
0.09987551 0.03639914 0.002869109 0.08788113 0.00592405 -0.056873556 0.07034886 -0.046333473
-0.036283545 -0.03676701 -0.042433947 0.15554212 -0.019497829 0.089783475 -0.039249863 0.030542115
0.006345849 0.15073729 -0.121942386 0.017232167 -0.027821165 -0.040943258 -0.03128791 0.024144245
-0.0571589 -0.03672351 0.053888116 -0.02529625 0.017678602 0.055473965 0.035371058 -0.002208433
0.022775494 0.10247019 0.13572799 0.08038892 0.08519834 -0.077938765 0.06976343 -0.026149787
0.11472185 0.05525411 0.006800516 -0.0058272807 -0.05988844 -0.035669986 0.079193845 -0.016097022
-0.11015754 0.021662405 -0.09173437 -0.0383888 -0.04752663 0.07497172 -0.04300543 -0.070492625
00000000: e707 92bd 2103 2e3d 9189 b13c 37c3 37bd
00000010: afba c5bc b68f 2fbb 7147 5a3c 22f5 e9bb
00000020: be4b 6ebd b77a 0dbd 3a33 80bc 4299 14be
00000030: 09b2 29bd 2295 61bd 531c f73d e74b 6abc
00000040: 1857 af3c 1d50 d63d 40c2 66bd 6e26 bbbd
00000050: dbcf 883d 49ad 783d f28a 043e 6364 423d
00000060: 8c60 68bd 34e0 253d 0213 0d3e ce68 8ebb
00000070: b9cd 4ebd b979 213c 2875 903d 1d9d 32bd
00000080: 8762 263c 8580 2dbe bffd b7bc 36a4 bcbb
00000090: c545 a6bd 88cf f03b cce2 29bd b27e 37bd
000000a0: e12f 623d b890 c63b bb67 07be a03b 693d
000000b0: 2e95 153d 80d6 fdbc 9a5a d4bc 5078 e73d
000000c0: 3638 17be 6ee9 36bc 0524 35be 938d 47bd
000000d0: 0de7 83bc ff00 7ebc cb35 2e3a ba29 fdbb
000000e0: 60b4 26be d131 0a3d 9dd6 043e e9c7 fcbc
000000f0: e56d e5ba 02cc 5cbd dcb8 333d be60 ab3a
00000100: c879 c0ba cff2 8cbd b9ae 2fbd b489 3a3e
00000110: 8687 05be c033 6c3c b3f7 463d 382f 573d
00000120: ee65 a2bd b290 dcbc 6958 43bc 049e 3e3d
00000130: aeff 92bd d00c c13c b978 7b3b 37f8 32bd
00000140: e935 7cbd 9416 1bbd 8b1f 76bd e6ef 883c
00000150: eaa3 85bc 93ae a8bd 719f 1ebd 712f b03c
00000160: 8d2f 86bd 9109 4c3c 4da4 863e bf7f 5abc
00000170: aa65 433d e220 c1bd d1fe 893d a816 2f3d
00000180: e1d1 983c fd68 b23a 66d7 6dbe 9cda 23bd
00000190: 654a e13c 93f2 98bd e701 87bd bc8e 5b3d
000001a0: 1868 3f3e e561 93bd ed83 83bd 7659 28bc
000001b0: 5a32 bd3d 9ae7 fd3c 7b17 e63b 67cb 3fbc
000001c0: 9cd6 6abc 2c70 733d e22a 00bd 4fdc 7f3d
000001d0: 08e5 adbd f5da 2a3c 475d f8bc d87a ba3c
000001e0: 8c14 92bd d115 4abd c3f9 65bd 47ae 45bd
000001f0: b550 973c 2000 d03d ace4 023e 5a60 1dbd
00000200: 3e96 d53b 13fc 8fbc edb3 6dbd b029 f93c
00000210: 7097 13bd 4b1d 0dbd 0ab5 8abc 08f2 e53c
00000220: f80c abbd 720c 77bd 8324 323c 3b32 cd3d
00000230: f5a1 07be 6141 cabb 4c65 5f3d 6046 2d3d
00000240: 228c 6fbd 37ff 483e 608a 4c3d 00e1 813a
00000250: e2a6 173d f684 023e c4ec 953d 2679 4e3d
00000260: 7f79 0cb9 d52d b13d f6fb 3b3c 082f 08bc
00000270: bdb1 a23d e569 56bd 7204 a1bd f053 dd3c
00000280: 9075 b93d a800 4ebe cab9 7c3d 1074 cbbd
00000290: e996 623c 964e 8f3c c0c2 893d 5eae 06bc
000002a0: 08e8 72b9 d187 4ebd 549b 38bd ae53 7c3c
000002b0: 3cff 2ebe 2686 813d 88d3 8ebc 1f93 dabc
000002c0: 39c5 10bd d81d 67be 9039 8d3d 780d d73b
000002d0: 6ac7 3f3a 1141 a13c 23b4 f6bc dd2e a7bd
000002e0: 021a a7bc 0f9d c13b 9f4a b1bc 7f6c 8338
000002f0: d48e 95bd fff6 d83b 519b d4bc dff3 4fbd
00000300: 6e4f f63c 6e3a 10bd 0c44 42bd 41b8 cdbb
00000310: 7751 07be 005f 1fbc 0026 003d 344c 6bbd
00000320: 888b cc3d 4417 153d a907 3c3b 06fb b33d
00000330: 891e c23b 3ff4 68bd 1013 903d 2bc8 3dbd
00000340: 0e9e 14bd 0199 16bd 38cf 2dbd 6f46 1f3e
00000350: e9b9 9fbc 66e0 b73d 77c4 20bd 7533 fa3c
00000360: d7f0 cf3b e05a 1a3e eebc f9bd 792a 8d3c
00000370: 36e9 e3bc 1eb4 27bd c027 00bd 27ca c53c
00000380: 731f 6abd 646b 16bd c9b9 5c3d 153a cfbc
00000390: b7d2 903c ab38 633d 3ee1 103d 5cbb 10bb
000003a0: ac93 ba3c e4db d13d 47fc 0a3e f2a2 a43d
000003b0: 787c ae3d 5c9e 9fbd 21e0 8e3d 1438 d6bc
000003c0: 4af3 ea3d 2252 623d ddd6 de3b c6f2 bebb
000003d0: 954d 75bd b11a 12bd 6230 a23d e7dd 83bc
000003e0: 479a e1bd 5b75 b13c 3bdf bbbd 933d 1dbd
000003f0: 49ab 42bd c68a 993d 7626 30bd 705e 90bd
