experiments/data/sawyer_clutter_200steps_10H/h_sac/2021-06-23_15-51-00_clutter_200steps_10H/model_final.pt (torch_old, 358080 bytes, 12 tensors)

log_std f4 [1, 12]
000000 10 5e ca bf 28 f0 ae bf 07 5f 89 bf 90 3f 50 bf
       -1.5809956 -1.366704 -1.0732125 -0.8134699
000010 ab b3 5c bf f2 8a 18 bf 27 db 51 bf 20 54 18 bf
       -0.8621165 -0.59587014 -0.81975025 -0.59503365
000020 8d 47 7f bf 21 52 4c bf 0a 24 03 c0 0a 53 02 c0
       -0.9971855 -0.7981282 -2.0490746 -2.0363183

mu.0.weight f4 [200, 14]
000000 c2 cb aa bd 98 84 1f bf c0 1f 19 3f 67 2d db 3e
       -0.08339645 -0.62311697 0.5981407 0.42808077
000010 e4 18 78 3e ab 1a 8a be 63 b4 18 3e 4b a5 6d 3e
       0.24228245 -0.2697347 0.14912562 0.23207586
000020 7c 2e 31 be 59 b6 c3 be e1 24 b0 be b9 53 6f be
       -0.17302889 -0.38225058 -0.34403136 -0.23371781
000030 7b ce 57 3c 80 d3 15 be 0e 17 3a 3d f4 cf 01 be
       0.013171787 -0.14631462 0.045432143 -0.12676984
000040 93 70 72 bd 7a 99 a9 bd ea 20 e3 be d0 6b 2e 3e
       -0.05918939 -0.082812265 -0.4436105 0.17033315
000050 13 31 77 3d bf 42 55 3e 92 c3 03 3e 9c 6f 2a 3e
       0.060349535 0.20826243 0.12867573 0.16644138
000060 34 7e 8a 3c e0 57 17 3f bf 74 16 be 0a f4 b4 3d
       0.016905881 0.5911846 -0.14692973 0.08835609
000070 b0 47 07 bf 45 e2 e1 be 4c b4 37 3e cd 08 1f be
       -0.5284376 -0.44117942 0.17939872 -0.15530701
000080 4d bd 91 bd 71 e3 79 bd df 09 93 be 10 52 27 be
       -0.071161844 -0.06100792 -0.2871847 -0.16339898
000090 ec 00 99 be 82 6c 0a be e0 d2 44 be a6 19 46 be
       -0.29883516 -0.13517955 -0.19221067 -0.19345722
0000a0 82 c9 d0 3e 5f c0 db bd 56 43 18 3f 5b 88 ab 3d
       0.40778738 -0.10730051 0.59477746 0.08375617
0000b0 5c 5c d1 bd 90 fa c2 3d 6f 52 c4 bd 2b 6e de 3d
       -0.10222694 0.09520447 -0.095860355 0.108608566
0000c0 94 05 4b be f3 e9 27 3e cf ec 35 be 16 26 72 3e
       -0.19826347 0.16397838 -0.17766117 0.23647341
0000d0 33 b1 59 3e 5c 84 ab 3e b9 53 36 be a9 14 2e bf
       0.21259002 0.3349942 -0.17805375 -0.68000275
0000e0 80 8a 13 bf 7d 9d 76 bd 16 e2 6a bd 6c ea 41 3c
       -0.5763321 -0.060208786 -0.05734452 0.011835676
0000f0 09 f4 b1 3b 4c 67 48 3e 8f 0b 57 be c2 23 00 3e
       0.0054307026 0.19570655 -0.21000503 0.1251364
000100 ba e6 03 be 82 ab 3c 3e 5d 54 7b bc c4 ab 85 be
       -0.12880984 0.184248 -0.015339938 -0.2610761
000110 5f 72 30 3f af ef 03 3f 54 67 14 3f 5a 93 32 bf
       0.68924516 0.51537603 0.57970166 -0.6975609
000120 c0 02 81 be f5 40 b6 3d e4 3f b2 3b f2 b4 96 be
       -0.2519741 0.08899108 0.0054397453 -0.29434925
000130 d3 99 08 3e 31 74 5e 3d 5e e8 24 3d c6 90 af 3e
       0.1333993 0.054310028 0.040260665 0.3429014
000140 bb 72 70 3e 3b 6d 8e 3e d9 2f 62 3b 76 ff 05 3f
       0.23481266 0.2781771 0.0034513383 0.5234293
000150 58 b9 42 bd 6d 79 f6 bd a4 20 92 be f1 25 fb be
       -0.04754004 -0.12034879 -0.28540528 -0.49052384
000160 5a 76 a8 bd 30 11 41 3e 20 5b ce 3e c8 77 83 3e
       -0.08225699 0.18854213 0.40303898 0.25677323
000170 f3 89 0a 3e e7 f7 27 be 12 ce a7 be 54 a3 5f 3e
       0.13529186 -0.16403161 -0.32774407 0.21839648
000180 be d7 83 3e ed 5b 78 3e 13 b3 6e 3d 01 30 10 3f
       0.25750536 0.24253817 0.058276247 0.5632325
000190 6e cf 34 3e f5 6e ab 3e 61 56 b8 bd 78 3b 81 be
       0.17657253 0.3348309 -0.090008505 -0.25240684
0001a0 50 ae 87 3d 92 12 77 be 85 cb 0a bf 15 b7 eb 3b
       0.06625044 -0.24128178 -0.54216796 0.007193456
0001b0 36 08 85 3d 30 59 02 be 81 0d dc 3e 32 64 cd 3e
       0.06495707 -0.12729335 0.42979053 0.40115505
0001c0 4a 3b 9b bd 3a f2 59 3e 63 df e2 3e f4 48 54 3c
       -0.07579668 0.21283808 0.44311056 0.0129568465
0001d0 04 bc ce be 67 0a 96 be 43 01 af bd 66 6b 82 be
       -0.4037782 -0.2930481 -0.085451625 -0.25472564
0001e0 ce 10 f3 bc c9 44 3c 3e cc 6b 17 3e ab 31 80 be
       -0.029671099 0.18385614 0.14787215 -0.25037894
0001f0 87 d9 73 be 01 3c 59 3d b6 5e bf bd e7 fa 08 be
       -0.23813449 0.05303574 -0.093442366 -0.13376962
000200 80 48 96 be 66 84 d2 be 2e 25 65 bd 95 8c 58 3d
       -0.29352188 -0.41116637 -0.05594366 0.052868444
000210 64 50 9b bd cc fb d5 bd 22 63 80 be 5f b9 70 3e
       -0.07583693 -0.10448417 -0.25075632 0.23508213
000220 6e bc 2b 3e da 7a 65 3d cc f6 48 be e0 78 a6 3e
       0.16771099 0.056025364 -0.19625396 0.32514095
000230 46 30 ca 3e 36 25 03 3f cf eb aa bd 55 e6 8f 3e
       0.39489955 0.51228654 -0.08345758 0.28105417
000240 99 09 1b be df f4 c8 bd 8f c3 75 be 04 da fd 3d
       -0.1514038 -0.098123305 -0.24000381 0.12395099
000250 a8 f9 31 be 39 39 d9 be 6d b3 16 be af 16 00 bf
       -0.17380393 -0.4242647 -0.14716883 -0.5003461
000260 de 95 7f be 90 8c a7 be 6e e1 bf be 15 c0 6f be
       -0.24959514 -0.32724428 -0.37476677 -0.23413117
000270 bd a3 6c bd 93 c6 81 3b fc d4 35 3e 09 c2 2d 3e
       -0.05777334 0.0039604395 0.17757028 0.1696855
000280 09 49 71 be 2f ca ce be c5 36 d0 3e d8 80 b1 bd
       -0.23563017 -0.4038863 0.40666786 -0.08667153
000290 4d 99 8b 3e 65 9b 61 3e 90 fd 09 3f a8 c8 a9 be
       0.27265397 0.22031935 0.5390253 -0.331609
0002a0 17 41 a2 3d e1 3a 67 be 1d 5f f3 3e 9f 70 1d 3e
       0.07922571 -0.22581054 0.47533503 0.15374993
0002b0 a3 9a 7a be ea c7 8e be 42 75 3b 3e 73 ac 05 3e
       -0.24473052 -0.27886897 0.18306449 0.13054065
0002c0 14 e1 77 3d bd ce 90 be 04 7a fa 3e 79 87 76 3e
       0.060517386 -0.2828273 0.48921216 0.24075116
0002d0 29 69 09 3f df d1 37 3e 31 8b 71 3e cb 47 2e 3e
       0.53676087 0.17951153 0.23588254 0.17019574
0002e0 b8 dd 8e be fa cf e8 3c 7f 69 a6 3d bc 70 0e 3e
       -0.27903533 0.028419483 0.081255905 0.13910192
0002f0 cc 41 1a 3d 6b b7 7e be 79 38 81 be 09 ac ba 3d
       0.037660405 -0.24874656 -0.25238398 0.09114844
000300 32 e3 73 be 8a 9a 13 3e f6 ba 30 bf 52 7b ea 3e
       -0.23817137 0.1441442 -0.6903528 0.4579721
000310 31 06 66 bd fe b5 6a bc 18 10 bb 3e 3e ce 5b 3e
       -0.05615825 -0.014325617 0.36535716 0.21465394
000320 fc 5d e9 3e 3d 25 a5 be 10 22 b6 3e b9 be c5 3e
       0.45579517 -0.32254973 0.35572863 0.38622072
000330 d8 3b a0 3e cc 24 8e 3e d1 fd 9e 3e b6 d2 48 3e
       0.31295657 0.2776245 0.31053022 0.1961163
000340 e5 09 de be dc 98 30 bd 4f 1d 4a 3e 35 39 27 3e
       -0.43366924 -0.043114528 0.19737743 0.16330417
000350 de 20 80 be 01 bf 61 be 02 9e 44 3e 83 87 7d be
       -0.25025076 -0.22045518 0.192009 -0.24758725
000360 09 f6 93 be 6b 23 0d 3d 3f e0 2a 3e ff 55 9b bb
       -0.28898647 0.034457605 0.16687106 -0.004740476
000370 1d 41 74 3e c0 b3 29 be ae e1 21 3f 72 76 50 3e
       0.23852964 -0.16572475 0.63234985 0.20357683
000380 db 0b de 3d ed 4c 73 be 1f fc 86 be c5 96 6d 3e
       0.10842105 -0.23759814 -0.26364228 0.23202045
000390 fe f8 85 3e 62 3d 60 3d f3 58 50 3e 4c 88 9b be
       0.26166528 0.05474604 0.20346431 -0.30377424
0003a0 94 9b 7e 3e 2e 7d b1 bd 53 37 86 3e e6 45 6c be
       0.24864036 -0.08666454 0.26214084 -0.23073539
0003b0 f9 da d1 3e a8 e1 1c bf 90 56 c1 3e 2d 8a 5d be
       0.40987375 -0.61281824 0.37761354 -0.21634741
0003c0 50 5a e5 be 16 46 a8 3b a5 ac bd 3e 17 8b 96 3e
       -0.44795465 0.005135308 0.3704578 0.29402992
0003d0 5e ae ac 3e 82 d9 91 3e b1 fe 1f 3e 9d 2f 0e bd
       0.33726782 0.28486258 0.15624501 -0.034713376
0003e0 64 8f 8d 3d c2 34 4b 3e f4 15 a7 3e b3 f8 10 3d
       0.06912115 0.19844344 0.32633936 0.035393428
0003f0 e3 8c 49 bf 07 c7 3b 3e 5a 81 34 3e 64 18 54 be
       -0.787306 0.18337642 0.17627469 -0.2071243

mu.0.bias f4 [200]
000000 78 e1 1d be 1d f7 89 3e 88 b3 50 3d 0e 92 1d be
       -0.15418041 0.26946345 0.050952464 -0.15387747
000010 b4 b2 c3 3d 12 e6 6f be ce 3e fc bc 25 5b 3f be
       0.09555569 -0.23427609 -0.030791666 -0.18687113
000020 dc 77 69 3e 9d 49 81 3e 17 76 2f be b3 4d aa 3e
       0.22799629 0.25251475 -0.17134891 0.33262405
000030 5b 01 2c be da 8c 42 3e 26 42 a2 be 2f 8d a5 be
       -0.16797392 0.18999043 -0.31691092 -0.32334277
000040 ee b4 92 bd e9 e2 9c be 6d 67 99 3e ec ae 01 3e
       -0.07163416 -0.3064187 0.2996172 0.12664384
000050 35 d2 28 be df 12 dd 3d eb de 24 ba 88 09 1a 3e
       -0.16486438 0.10794615 -0.0006289321 0.15042698
000060 c5 4a ad be d0 2b 4b 3e d2 99 76 3e d9 e7 a6 3b
       -0.33846107 0.19840932 0.24082115 0.0050935564
000070 8a c4 8f be 4e 71 61 be 38 40 c4 3e 99 98 69 3e
       -0.28079635 -0.22015879 0.38330245 0.22812118
000080 80 c7 58 bd e2 df 8b 3e 4f 33 44 3e 29 a3 02 bd
       -0.052924633 0.27319247 0.19160198 -0.031893883
000090 b6 bb c1 bd 18 1b 1e bc 09 a0 3d be 97 8c 70 3e
       -0.09459631 -0.009650014 -0.1851808 0.23491131
0000a0 02 a7 13 be 10 1e 17 3e 28 c4 92 3d e8 a6 34 bd
       -0.14419177 0.14757562 0.0716632 -0.044104487
0000b0 a5 45 c7 bd 92 41 4f be d0 35 0d 3e 08 e0 be 3e
       -0.097300805 -0.20239857 0.13790059 0.37280297
0000c0 a5 74 56 bd 45 41 80 be 44 e9 c0 bd bc 70 92 bd
       -0.052357335 -0.25049797 -0.09419492 -0.071504086
0000d0 91 f9 4d be 5b 27 2f 3d f1 bc 90 bd a1 6f 67 be
       -0.20114733 0.04276214 -0.07067288 -0.22601177
0000e0 6e 57 4e 3e da 26 74 be 52 9a 2e 3d dd fd 50 bd
       0.2015054 -0.23842946 0.04262764 -0.051023353
0000f0 fb 31 b8 be f3 d3 80 3e 56 f2 71 3e d6 8c f3 3c
       -0.35975632 0.25161704 0.236276 0.029730242
000100 dd e7 80 3d 51 ac 1e be 45 72 13 be 63 32 62 be
       0.062942244 -0.15495421 -0.14399059 -0.22089534
000110 b3 cb c2 bb 9d 2b 2f 3e b0 e0 2a 3e 5f 8e 8f 3e
       -0.005944693 0.17106481 0.16687274 0.28038308
000120 15 d5 1e 3e f5 ec 2c bd 31 07 12 bd a9 67 81 3d
       0.15510972 -0.042218167 -0.03565139 0.063186
000130 c5 d9 e8 bd 0a fd 4e bd 48 c8 1a be 12 f3 be be
       -0.11369661 -0.050534286 -0.15115464 -0.37294823
000140 d5 72 09 3e da 57 de bd c3 6d cb 3c e8 77 37 be
       0.13422711 -0.108566 0.024832612 -0.17916834
000150 d7 17 db be a8 3d 57 3e e5 94 d2 3d 8d 44 91 3e
       -0.42791626 0.21019614 0.10282306 0.28372613
000160 26 b0 dd be 88 6b 39 3e 86 a0 9f 3e 62 09 b8 be
       -0.43298453 0.18107426 0.31177157 -0.3594466
000170 eb 60 5f 3d 7b 08 ad 3e 08 b8 80 be ec 04 b8 3e
       0.054535788 0.33795533 -0.25140405 0.35941255
000180 90 3d 80 be f1 ba e6 bd 9a a6 b2 bd a1 e8 87 be
       -0.25046968 -0.11266125 -0.08723183 -0.2654467
000190 a4 b4 76 3d 00 90 8f 3d 36 e8 84 bd 2e 2c 9d bd
       0.060230866 0.07009888 -0.06489603 -0.07674442
0001a0 aa 8f f9 3d 4f 38 bf 3d 3d 70 fa 3c e7 de 70 bd
       0.12185605 0.09336912 0.030571098 -0.058806326
0001b0 94 38 c3 3c db 10 6e be 2c bf d6 3d cd 2f 07 3e
       0.02383069 -0.23248617 0.10485682 0.13201828
0001c0 52 a1 85 3d 75 2a 15 be cb 4a e8 bd 62 c8 77 be
       0.0652491 -0.14566977 -0.113423906 -0.24197534
0001d0 b6 dc bc 3e e1 7b 05 bd ad 26 5d be b1 b8 82 3e
       0.3688714 -0.032588843 -0.21596785 0.25531533
0001e0 b9 dd fa 3d 17 cb 16 be b0 97 60 3e 07 f2 62 3e
       0.122493215 -0.1472591 0.21932864 0.22162639
0001f0 d0 38 cd be a1 22 01 3d fc ff d2 3c c4 af d8 3d
       -0.40082407 0.031527165 0.025756828 0.105804
000200 c0 68 49 3e af 71 a5 bd 3e 3a ac be 04 74 a2 be
       0.19668865 -0.08078324 -0.33638185 -0.31729138
000210 e3 70 8d be 66 8c 5b 3e 2e ae d8 3d e7 8a 0e bc
       -0.27625188 0.21440277 0.10580097 -0.008700109
000220 56 2d 81 bd d7 b7 2b 3e ed a9 6c 3b 18 74 b8 bd
       -0.06307475 0.16769348 0.0036112026 -0.09006518
000230 3a 7a 32 be a9 65 dd bb 26 ba 16 3e eb 35 2b be
       -0.17429438 -0.0067565036 0.14719447 -0.16719787
000240 4e 13 df be a3 c8 d4 bc e9 e7 38 be 8e a6 17 bc
       -0.43569416 -0.025974577 -0.18057217 -0.009256018
000250 2b 8f 44 3d 3d e1 f8 3d ca ff c8 bd c2 1f 41 bd
       0.047988098 0.12152336 -0.09814413 -0.047149427
000260 8c 17 01 3e dd 4e da be eb 2b ea be c3 a2 55 bd
       0.12606639 -0.42638293 -0.45736632 -0.052157175
000270 ad 74 ab bd 2e 3c 7f be d5 2e ac 3e 5d b1 34 3b
       -0.083718635 -0.249253 0.3362948 0.0027571537
000280 85 35 a1 3e 9b c6 64 3e d1 55 d6 3d 12 3f d5 3d
       0.31486145 0.22341387 0.10465587 0.1041242
000290 b1 81 33 3d 05 ee 51 3e db 23 4f be 8f 3b 23 be
       0.043824855 0.20500953 -0.20228522 -0.15940689
0002a0 42 71 72 3e 50 08 8c 3d 86 9d a8 be 69 13 a9 3d
       0.23676017 0.06837523 -0.3293268 0.08255655
0002b0 be 80 18 be 5e eb 12 3e de 04 e8 bc f3 03 a3 bb
       -0.14892861 0.14347598 -0.028322633 -0.004974836
0002c0 82 01 8f 3e 77 bc 4a be f3 09 c2 bd 1d f6 70 3d
       0.27930838 -0.19798456 -0.09474554 0.058828462
0002d0 e0 15 fe bd 34 37 49 be 26 6c 0e 3e 16 c2 08 3e
       -0.12406516 -0.19649965 0.13908443 0.13355288
0002e0 ce c8 c1 3d bf 2f 38 3e ef e8 68 3d c7 e1 c9 3d
       0.094621286 0.17986964 0.056862768 0.09857517
0002f0 52 68 5f be a4 40 81 3d fe 08 60 be cc 3e 44 be
       -0.21817139 0.06311157 -0.2187843 -0.1916458
000300 ae e4 7b bc 82 ec 1c bd b4 31 29 3c 20 4e 81 3e
       -0.015374346 -0.03831149 0.010326792 0.25254917
000310 ee 2e b8 3c 42 18 b8 3d a9 3d c5 bd 9b f8 70 3e
       0.022483315 0.08989002 -0.09630901 0.23532335

mu.2.weight f4 [200, 200]
000000 ce 12 f2 bd f3 c6 10 3d a2 e8 cc bd 49 33 37 3e
       -0.11819993 0.035345983 -0.10005309 0.17890657
000010 54 8e 61 3c a7 bb 18 be cc 63 b5 3c 18 a5 27 be
       0.013766844 -0.14915334 0.022142313 -0.16371572
000020 72 ad ee 3c 48 19 2c be 4a e0 ad 3c e4 a3 2a 3c
       0.02913544 -0.16806519 0.021225113 0.010415051
000030 7d 77 f7 bd b8 0c 85 bd 09 96 0a 3e a1 6a ae 3e
       -0.120833375 -0.064965665 0.13533796 0.34065726
000040 8b 9f 80 3d d6 bf 1c bd e1 b8 87 bd 39 c7 60 3c
       0.062804304 -0.038268887 -0.0662706 0.013719373
000050 49 4d 66 be ab e2 a0 3d 74 d9 56 be 67 44 dc ba
       -0.2249042 0.078557335 -0.2098139 -0.0016805053
000060 ee 8f 89 bd 4a a5 72 3d 7a b3 1c be b4 2c 8c 3d
       -0.067169055 0.059239663 -0.1530284 0.06844464
000070 50 2c 38 bf 1b e8 53 3e e9 d4 2c 3e be 4e 24 be
       -0.71942616 0.2069401 0.16878094 -0.16045663
000080 74 9e f6 bd a5 68 c5 3d 00 39 83 3d 74 65 ed 3d
       -0.12041941 0.096391 0.06407356 0.11591616
000090 32 84 0b 3c 60 bb af be a2 b8 88 bd 15 9d 3f 3d
       0.008515405 -0.34322643 -0.06675841 0.046780664
0000a0 73 0d 1e 3e a5 46 85 3c c2 51 e3 3d a4 0f c6 3c
       0.15434818 0.016269038 0.110995784 0.02417738
0000b0 d0 9a 2b 3e 1e 66 a5 bd 77 fa 9a bc c5 a8 7b bd
       0.16758275 -0.08076118 -0.01891826 -0.061440248
0000c0 08 fa 8e 3d 0a df 22 3e d4 80 ee 3d 05 fa 37 be
       0.069812834 0.15905395 0.11645666 -0.17966469
0000d0 d4 32 9f bc e6 62 94 3d 63 23 a5 bc 85 e4 87 3d
       -0.019433416 0.07245426 -0.020158475 0.066353835
0000e0 c4 91 59 3d 78 77 23 bd 1a 02 94 3d a8 a1 97 bb
       0.05311753 -0.039908856 0.07226963 -0.004627425
0000f0 ec 46 93 3d af 29 be bd 9d 24 1e 3d 5d a6 cc bd
       0.07191262 -0.09285294 0.038609136 -0.09992669
000100 53 a1 b0 bd 1e af e2 be 74 f1 21 3e d5 52 ad 3c
       -0.0862452 -0.4427423 0.15814763 0.021157661
000110 1f b0 24 3d 5b e6 90 bc 0a f7 8d 3c 76 c2 a5 be
       0.040207025 -0.017687967 0.017329711 -0.32374924
000120 35 73 df bb d3 66 96 bd 26 97 83 3c b9 c9 d1 bc
       -0.0068191537 -0.07343831 0.016063284 -0.025608884
000130 3d 58 85 3d 39 bb b4 3d 3d 8e 6e 3e ba c9 9a be
       0.06510971 0.088247724 0.23296447 -0.3023203
000140 58 4b 38 3d 7a 89 80 3d 79 7e 84 3a d9 f7 fe 3c
       0.04499373 0.062762216 0.0010108493 0.031124042
000150 dc 6f 05 3c 48 82 e2 bd 17 a2 20 be 84 31 81 3d
       0.008144345 -0.110600054 -0.15686832 0.063082725
000160 ad 30 ce 3d fa e7 5d 3d a0 da fb 3c c9 ee 70 be
       0.10067878 0.05417631 0.030743897 -0.2352859
000170 06 e5 bc bd 2b 09 85 bd 40 b6 8a 3c 13 36 83 bd
       -0.0922337 -0.06495889 0.016932607 -0.06406798
000180 31 58 84 3d 02 e3 24 be 63 91 c1 3d 2b d4 6b 3e
       0.06462134 -0.16102222 0.094515584 0.23030154
000190 89 b2 5d be fd 99 61 bd c7 db 37 be 55 5b 1a 3e
       -0.21650137 -0.055078495 -0.17954932 0.15073903
0001a0 6c 12 cb bc 3b 0c 1f bd 23 b4 38 bc 6e 42 ef bd
       -0.024789058 -0.038830023 -0.011273417 -0.11682592
0001b0 9e 39 35 bd f3 36 ac bd 4d 01 91 bd 8a 49 d1 bd
       -0.0442444 -0.08408918 -0.07080326 -0.102191046
0001c0 63 83 86 3e b0 ac 17 be 6f 14 42 be 34 e6 15 bd
       0.26272115 -0.14811969 -0.18953107 -0.036596492
0001d0 c2 fa 91 3d 7e bc 37 bd 83 f1 07 be 48 45 b1 3d
       0.071279064 -0.044857495 -0.13275723 0.086557925
0001e0 37 8c 35 3d 38 d2 c1 3d 46 c0 03 be 8d 22 90 3c
       0.044323172 0.09463924 -0.12866315 0.0175946
0001f0 90 44 01 3e cc 17 f4 bc d1 f5 df bc ec 87 09 bd
       0.12623811 -0.029796503 -0.027338894 -0.03357689
000200 4f 82 1d 3e 28 e1 d1 3c a3 84 71 be e8 6a ea bc
       0.1538174 0.025620058 -0.23585753 -0.02861543
000210 f0 90 8f bd 30 f1 94 bd 82 e3 58 3e b1 a0 d2 bd
       -0.070100665 -0.07272565 0.21180537 -0.10284556
000220 33 7a 43 be 5d a7 52 3c 03 a9 de 3d 39 1a b9 3d
       -0.19089584 0.012857285 0.1087208 0.09038205
000230 b2 70 ca bc 93 70 81 3a 61 a9 65 bd 21 a7 5d be
       -0.02471194 0.0009875469 -0.056069735 -0.21645786
000240 76 2a 98 be cf e8 8a be a1 18 dc 3d 74 17 a7 3d
       -0.29719895 -0.27130744 0.10746885 0.0815877
000250 0b 14 54 bd d6 6f c6 3d 3d 45 16 be 62 e3 b5 bd
       -0.051776927 0.096893 -0.1467485 -0.088812605
000260 fa 56 5f be f6 58 fd bd f5 b0 2e bc 6e 80 9a bb
       -0.21810523 -0.123704836 -0.010662307 -0.004715017
000270 68 be eb bd b3 58 95 3d 40 21 17 3d 55 29 0d 3e
       -0.115109265 0.07292309 0.036896944 0.13785298
000280 cd b1 95 bc 9c 5a dc 3d 40 4e 6f 3c 0b 63 ac bd
       -0.018273259 0.1075947 0.014606059 -0.084173284
000290 98 2c ad 3d bb 4c 8d bd 93 5e 19 bd 25 5d 46 3e
       0.08455771 -0.06899401 -0.03744371 0.1937147
0002a0 b3 42 8a be 91 65 26 3e db f8 a5 3d 7d 65 ff 3d
       -0.27004012 0.16249682 0.08104106 0.12470529
0002b0 98 0c c8 3c 5b ba 32 be 93 e5 31 bd 4b 6a ad 3c
       0.024420068 -0.17453901 -0.04343183 0.021168848
0002c0 77 fe 44 bd 43 68 4d be 48 6d e8 bc d8 c4 c9 bd
       -0.04809424 -0.20059304 -0.028372422 -0.09851998
0002d0 13 23 7e bd d2 9d e3 3d 5e 4f 20 3e 23 28 7f 3d
       -0.062045168 0.11114086 0.15655276 0.062294137
0002e0 45 3b 65 bd ec 53 ba 3d 71 04 5a be d0 ea 77 3d
       -0.055964727 0.09098038 -0.21290757 0.06052667
0002f0 4c 09 38 3e c6 ac 45 bd 20 45 56 3e 85 0a 95 bd
       0.17972296 -0.048260473 0.20924807 -0.07277397
000300 35 14 50 3e 73 41 1d 3e 6e e4 c9 bc 4b b1 42 bd
       0.20320208 0.15356998 -0.024645057 -0.04753236
000310 02 2f 36 bd e9 4e 2e bc 46 7b 8e 3e 79 a7 84 bd
       -0.044478424 -0.010638931 0.27828425 -0.064772554
000320 55 cf 3a bd 4f 69 af 3c d3 d6 8c bd cf f4 8e bd
       -0.045607883 0.02141252 -0.06876912 -0.06980287
000330 59 88 ef 3c 59 b6 59 bd 22 d3 6d bd 26 3c 04 3d
       0.02923982 -0.053152416 -0.05806268 0.032283925
000340 15 b4 7b bd 6e 32 17 bd 65 bb 29 3d c7 ec 2b bd
       -0.061451036 -0.036913328 0.04143848 -0.041973855
000350 ab d1 d3 3c 09 ef 8b bd fb d3 8f bd 30 a7 ef 3b
       0.025856813 -0.06832702 -0.07022854 0.0073136315
000360 0b f7 65 bd 39 ce 87 3c 18 41 44 bd e5 d0 af bd
       -0.0561438 0.016577827 -0.04791364 -0.08584765
000370 46 f7 91 bd 61 6f 98 bd 58 24 83 3b 4d 20 f6 bb
       -0.07127242 -0.07443119 0.0040021352 -0.007511175
000380 f0 78 03 bd 87 3b 54 bb 21 b1 e9 3c 87 82 cb 3c
       -0.032097757 -0.0032384114 0.028526844 0.024842514
000390 e8 f1 05 3d d8 85 97 bc 5f cb b0 3c 4c ab 1a bd
       0.032701403 -0.018496439 0.02158135 -0.037761018
0003a0 00 12 37 39 ca 6f 71 bd de a1 21 bd 80 a7 dd 3c
       0.00017458946 -0.0589445 -0.03946101 0.02705741
0003b0 bd 76 91 bc 04 10 64 bd 38 13 f3 3c 42 f3 33 3d
       -0.017756814 -0.055679336 0.02967225 0.04393316
0003c0 dd 3d 9f bd 9b 68 1d bd 24 e0 dc 3b d7 3c 09 3d
       -0.07775471 -0.038429838 0.006740587 0.033505287
0003d0 a2 8f 4d bc ca f0 2a bd 87 25 04 bd be 58 19 bb
       -0.012546452 -0.04173354 -0.03226235 -0.0023398842
0003e0 9d 1a 33 3d fd 14 95 bc 48 f7 43 bc d0 bf 6a 3d
       0.043726552 -0.018198485 -0.011960812 0.057311833
0003f0 77 0b 88 3d 0f d9 84 bd 99 5b f9 bc 5e 94 42 3d
       0.06642812 -0.06486713 -0.030439185 0.047504775

mu.2.bias f4 [200]
000000 a3 f4 d7 3d 61 5d 9c 3c 21 98 c9 3b 29 83 a6 bd
       0.105447076 0.019087495 0.0061521684 -0.081304856
000010 6e 8b ef bc e2 58 0e 3d 64 9f d1 3d 9e 42 9e 3d
       -0.02924129 0.034752734 0.102354795 0.0772755
000020 53 d4 ce bc fe b1 56 bd 0d a5 a3 3d e2 2d 3b bd
       -0.025247728 -0.05241584 0.07990465 -0.045698054
000030 9b a1 ae bd 65 14 3f bc 72 24 c4 3d ad b4 31 bd
       -0.085269175 -0.011662577 0.09577264 -0.043385196
000040 61 57 0b 3e e6 83 e1 3d 19 c8 59 3d 1d f2 aa 3d
       0.13607551 0.11011486 0.053169344 0.08346961
000050 f9 f3 b1 3d 63 d9 9b 3d 18 e9 06 3d a5 d9 9f 3c
       0.08689112 0.076098226 0.03293714 0.01951296
000060 18 58 87 3b 4b 4d d6 3d 6e 03 3d bc 67 50 a1 bd
       0.0041303746 0.10463961 -0.011536462 -0.07876664
000070 f3 81 23 3d 9c fd 4e 3d ed c1 82 bd 24 ef 1c 3c
       0.03991885 0.05053483 -0.06384645 0.0095785
000080 d9 03 6c bd 53 44 94 bc 71 a9 fe bc f1 2b ad 3d
       -0.057620857 -0.018098986 -0.031086655 0.08455647
000090 5b 2e df 3c 1e 0a 0b bc 00 49 67 3d 78 d1 73 bc
       0.027243784 -0.008486299 0.056466103 -0.014881484
0000a0 a7 98 c3 bd f6 78 19 bd ff d1 ba bc 41 35 d3 3c
       -0.095506005 -0.037468873 -0.022805212 0.02578223
0000b0 b6 4d 29 3d 8f 18 91 3d 75 83 c5 3c 2d 89 a1 3c
       0.041333877 0.07084762 0.024110535 0.01971873
0000c0 b1 2f 66 bd e5 99 9e bd 27 ea eb bc d7 d6 99 bd
       -0.056197826 -0.07744197 -0.028798176 -0.075116806
0000d0 8c 75 e0 bc 32 3a ac 3d 72 97 8b 3d 87 e2 e6 3c
       -0.0273998 0.084095374 0.06815995 0.028184189
0000e0 d7 58 37 bd c5 c2 ec 3c f2 bb 5c 3c c1 16 ed bc
       -0.04476246 0.028901467 0.013472544 -0.028941514
0000f0 73 37 e9 3d 5a 15 d6 3d 61 7e 36 3d 69 95 a2 3c
       0.11387529 0.10453291 0.044554118 0.019846635
000100 9f 60 58 3d 52 01 88 bd bc 45 d9 3c 4a 79 10 3d
       0.05282652 -0.06640877 0.02652251 0.03527192
000110 61 86 48 bc 92 d3 c7 bb dd ec 0c 3e 37 cf fa 3d
       -0.01223907 -0.006098219 0.13762231 0.12246554
000120 f2 49 2e bd 90 67 73 bb cf 52 e1 bc ec 3f 5b bd
       -0.04255099 -0.0037140585 -0.027505307 -0.053527758
000130 4e 01 9a 3b a9 5f b1 3c 97 68 e7 bb 10 73 9f 3c
       0.0046998626 0.02165206 -0.0070620286 0.019464046
000140 c3 be bc ba 53 38 a0 3b da 43 ad bb 61 33 9f 3d
       -0.0014400113 0.004889527 -0.0052876296 0.077734716
000150 97 b6 82 3c a5 73 9a bd 1e 25 02 bd 7c f3 63 bd
       0.015956206 -0.07541589 -0.03177368 -0.055652127
000160 1c e9 5e 3d 37 c0 bc 3d 7e b1 8f 3d ec 36 08 3c
       0.05442153 0.092163496 0.07016276 0.008313876
000170 2f 93 2f 3d 66 77 d5 3d 99 3d c4 3c 7c da 33 bd
       0.042864975 0.10423164 0.023955153 -0.043909535
000180 7b 44 ae bd fe 77 9a bd ad 5c e3 bc 10 69 87 bc
       -0.08509155 -0.07542418 -0.027754152 -0.01652959
000190 f6 dc 9f 3d a0 ba f9 3c 9d 6d a2 bd 2b 69 3f bd
       0.07805817 0.030484498 -0.07931063 -0.046731155
0001a0 ce b1 8f 3d 10 d6 59 bd 31 82 99 3c f9 06 fc 3c
       0.070163354 -0.05318266 0.018738838 0.030765044
0001b0 c0 03 19 be 32 5d 84 3c cc d8 60 bd 60 af 82 3b
       -0.14942837 0.01615772 -0.054894254 0.0039881915
0001c0 79 00 7f bd 9c b4 bd bd bc d8 1d 3c b0 b8 52 3c
       -0.06225631 -0.09262964 0.009634193 0.012861416
0001d0 31 85 7a bd 30 4d 7e bd 8a 87 59 bd b2 95 c4 bc
       -0.061162177 -0.06208533 -0.053107776 -0.023997162
0001e0 00 f6 00 3d 55 4a dd bb 53 09 10 be 01 99 fe 3d
       0.031484604 -0.006753246 -0.14066057 0.12431527
0001f0 8f d6 b8 bb 2d f7 3a bd d7 24 11 bd 8b ec a3 bc
       -0.0056408118 -0.04564588 -0.035435524 -0.020010253
000200 25 45 02 3d fc 9a c7 3b 6b bd bd 3d 93 46 02 3d
       0.031804223 0.0060914736 0.09264644 0.031805586
000210 81 d1 3c 3c 06 4c 35 3d 1c c3 69 bd 64 37 de 3c
       0.011524559 0.044261955 -0.057070836 0.027126022
000220 21 97 9e 3c cf 96 a6 3d 49 fd bd 3d fb 0a 4d bd
       0.019359173 0.08134233 0.09276826 -0.0500593
000230 28 16 74 3d 47 ca 15 b7 ca 9a 9f 3c 31 46 47 3c
       0.059591442 -8.928188e-06 0.019482989 0.012162731
000240 66 bc c1 3b 5f 66 de 3d b0 91 17 3c 12 5e 88 bd
       0.0059123514 0.108593695 0.009251043 -0.066585675
000250 b5 c1 b6 bd 25 2e 4a 3d 58 28 f7 bd 03 49 b9 3d
       -0.089236654 0.049360413 -0.12068242 0.09047129
000260 f3 c5 df bc ed 12 92 3a 95 9c 50 bd 9e 51 2f 3d
       -0.02731607 0.0011144556 -0.05093058 0.042802446
000270 3e 40 ed bc d5 14 81 3d ca 27 4a 3d d4 f0 87 bc
       -0.028961297 0.063028015 0.049354352 -0.016594328
000280 e6 6c 5c 3d 3f 05 00 3d 75 6c 47 3c d8 96 ef 3b
       0.05381479 0.031255003 0.012171854 0.007311683
000290 2c b5 8d bd d9 58 77 3c 9c 57 9b bc 9a 07 40 3c
       -0.069193214 0.0150968665 -0.018962674 0.011720562
0002a0 e9 51 86 3d 9d 86 cd bb f6 50 8b 3d f2 6e bb bc
       0.06558592 -0.0062721507 0.068025514 -0.022880051
0002b0 d0 ab b5 bb cf aa 8f bd 1a 1a fd 3c 5a ae 64 bd
       -0.0055441633 -0.07015001 0.030896235 -0.055830337
0002c0 f3 4b 69 bd 46 5e b3 3b f5 eb 33 3c fc 65 28 3d
       -0.056957196 0.0054738848 0.0109815495 0.041112885
0002d0 92 8e 4c 3d 52 f2 10 bd 7e 02 06 3d 30 1b 16 bc
       0.049940653 -0.035387345 0.03271722 -0.009161755
0002e0 8a 16 f3 3c ce 1c 0b bc e7 0c 87 bd 08 5a af bc
       0.029673833 -0.008490754 -0.06594258 -0.021405235
0002f0 19 90 f7 3b 45 ab a8 bd 23 f2 14 3d d0 61 a0 3c
       0.0075550196 -0.08235792 0.036363732 0.01957789
000300 54 8a 6d bc f6 23 00 ba 06 de 70 3d 44 36 03 bd
       -0.014498312 -0.0004888171 0.058805488 -0.032034174
000310 e1 fa 8f 3d 7a 2e 48 3c bf ca 77 bd 68 a9 88 3c
       0.07030273 0.012218112 -0.060496088 0.016682342

mu.4.weight f4 [12, 200]
000000 db 3b 31 3d 7d 19 2a bd 2a 64 0d bd fb 85 4c bb
       0.043269973 -0.041528214 -0.034519352 -0.0031207788
000010 c1 2e 4f be 59 9d a8 3e c2 49 21 be 81 72 a8 bd
       -0.20232679 0.32932547 -0.15750793 -0.08224965
000020 1c b7 c4 3d e5 ed 11 bb 3f 12 88 bd 56 19 84 bd
       0.09605238 -0.002226704 -0.06644105 -0.06450145
000030 5b 2f a3 3d 36 28 54 be 9b 50 0a be 6c ed 30 3e
       0.07968017 -0.20718464 -0.13507311 0.1727807
000040 ba 4f 3c 3d 1e bf f3 bd be 13 fb bd e0 b2 42 3e
       0.04597447 -0.11901687 -0.12259625 0.19013548
000050 bd 91 59 bc 7c 37 bb 3d cb 73 8c 3c fd f1 f8 bd
       -0.013279376 0.09141442 0.017145058 -0.121555306
000060 b7 bc 15 bd 2a 10 3e be eb 87 b1 bd 35 65 95 be
       -0.036556926 -0.18560854 -0.086685024 -0.29178777
000070 53 15 56 be 6e e7 17 bd cb 42 a8 bd ea c7 58 3e
       -0.20906572 -0.037085943 -0.08215865 0.21170011
000080 24 02 4e bc 15 1d 1f be 1a 27 76 3e ca c2 08 3e
       -0.012573753 -0.15538438 0.24038354 0.13355556
000090 a8 d3 21 bd ba dc 02 bd 86 d7 60 be 2d 2b 49 3e
       -0.03950849 -0.031948783 -0.21957216 0.19645377
0000a0 52 60 1d 3e d7 ea 92 3d 77 92 d1 bd 21 2b 62 3a
       0.15368775 0.071736984 -0.10233014 0.00086276425
0000b0 fb 59 59 3e 69 87 90 bd 9a 69 12 3e e0 38 e2 bd
       0.21225731 -0.070570774 0.14298096 -0.11046004
0000c0 3d 84 34 be 85 88 b7 bd 2f 48 c1 bb 66 d6 f1 3c
       -0.1762857 -0.08961586 -0.0058984975 0.029521178
0000d0 75 27 21 3d 0a 28 3a 3e 62 8f a0 bc 8f ed c6 be
       0.03934427 0.18179336 -0.01959962 -0.38853118
0000e0 d7 ca ae 3e 6a ff 99 bd b6 25 81 3c 77 36 c7 bd
       0.3413913 -0.075194195 0.015765052 -0.09727185
0000f0 dc 67 02 3e 3b 15 1f be 90 eb 9b bd 80 d1 15 be
       0.12734932 -0.15535443 -0.07613289 -0.14630699
000100 fa 7c 05 3e 63 1d 78 3d 1a 73 05 3d 3e 3d 41 bd
       0.13035956 0.0605749 0.032580473 -0.047177546
000110 b4 98 2b 3e 32 7b 4e 3c 48 63 47 bd 0a e8 0b 3c
       0.1675747 0.012602614 -0.048678666 0.008539209
000120 3d 89 6a 3e 46 41 f1 bd 25 ae 45 bd 64 a8 1a bb
       0.22903915 -0.11780028 -0.04826178 -0.0023598904
000130 c7 af fe bc 0a d7 22 3e 24 34 1f bd 0f 75 92 3d
       -0.031089677 0.15902343 -0.038868085 0.071512334
000140 61 7b 19 3c 5b 69 25 be 70 4b 87 3e b5 ed f8 bd
       0.009367795 -0.16153471 0.26424742 -0.12154714
000150 e2 0d 5c bd f8 96 39 be 2c 37 2a bd 09 9c 30 3c
       -0.053724177 -0.18123996 -0.041556522 0.010779389
000160 fd 46 64 3d a1 35 f3 3c 98 be 1a 3e 6d 88 ef 3d
       0.055731762 0.029688658 0.15111768 0.11695943
000170 e0 61 13 3e ec 67 cf 3c 36 20 ab 3d e4 17 13 3f
       0.14392805 0.025318108 0.08355753 0.5745833
000180 28 84 1d bd a0 39 63 3e de fd 11 3e f5 81 f4 bc
       -0.038456112 0.22189951 0.14256999 -0.029847125
000190 6f 1b 95 3e d8 a7 18 3e 05 b2 37 3c e2 46 a2 3d
       0.29122493 0.14907777 0.011211877 0.07923676
0001a0 b0 e0 01 3e f2 26 cc 3d 52 b6 3e bd 26 a5 1f 3e
       0.12683368 0.09968366 -0.046560593 0.15590343
0001b0 55 92 da be 0c f9 5d 3c 3a 81 6b bb b0 20 d8 3d
       -0.42689767 0.013548147 -0.003593518 0.1055311
0001c0 6d 71 47 3d 1e 56 dc bc 73 b7 3b be d1 ce 27 be
       0.048692156 -0.026896533 -0.18331699 -0.16387488
0001d0 22 2b 7a 3d 7f c4 9d bd b1 d8 d3 bd ce b0 75 3d
       0.06107629 -0.07703494 -0.10344065 0.059983067
0001e0 6d 0e d5 3d a2 4f 0e 3d e2 b6 c7 3b f8 89 37 3d
       0.10403142 0.034743913 0.0060947994 0.04480931
0001f0 79 cb c6 3c 0e 27 c1 3d e9 b9 c9 3e 16 b1 17 3d
       0.024266945 0.09431277 0.3939965 0.037034117
000200 e4 0a 2c 3e 7c 6b ba bb 3d 20 08 be e2 74 a3 3d
       0.1680103 -0.0056890827 -0.13293548 0.07981278
000210 97 41 24 be 0b 12 86 3e 33 a9 9b bd 96 89 39 3e
       -0.16040646 0.2618564 -0.076006316 0.18118891
000220 fb a2 19 3e 08 6f 4d 3d 91 20 69 3c 1e 0e 8e bd
       0.15003578 0.050154716 0.014228956 -0.069362864
000230 30 33 de 3c e5 d2 18 bd 5b ca 17 be 7b e8 38 bd
       0.027124017 -0.0373105 -0.14823286 -0.045143586
000240 fa 0d 5e be 01 69 10 ba 97 5b a5 3e 57 e0 8b bc
       -0.21685019 -0.0005508811 0.3229644 -0.017074747
000250 0e ca 13 3d 62 81 89 bd 10 cd a7 3c fb 97 1d 3e
       0.036081366 -0.06714131 0.020483524 0.15390007
000260 86 df 3f 3e ad dc 1f 3e 8a a0 eb bd b8 98 91 be
       0.18737611 0.15611525 -0.1150523 -0.28436828
000270 b6 7a 3b 3e 74 ff 33 3d e6 38 23 3e 77 e1 d8 3d
       0.1830853 0.04394479 0.15939674 0.10589879
000280 f5 8f 03 bc d9 e3 97 bd a5 dc 0b 3e 2a f9 55 3c
       -0.0080299275 -0.07416505 0.13658388 0.013059894
000290 9f 7e 4b 3c 45 19 84 3d 59 5e 6a be a8 dd a7 3e
       0.012420326 0.06450132 -0.22887553 0.32786298
0002a0 40 32 17 bc 5b 90 cb bd 51 bc da 3d 8e 65 87 3c
       -0.009228289 -0.09939643 0.1068045 0.016527917
0002b0 16 d7 79 bd 66 d6 4b bc 02 38 49 bd 9e f0 f8 be
       -0.060996138 -0.012441253 -0.04912568 -0.48621076
0002c0 62 80 78 bc ae 2f 3e bc e8 ab e3 bd d0 4a 4b be
       -0.015167328 -0.011608047 -0.11116773 -0.19852757
0002d0 d4 ab ce 3d bc e9 17 bd 77 12 23 3d 10 cc 77 3d
       0.10091367 -0.03708814 0.03981253 0.060497344
0002e0 9e cd 23 3d 79 45 8c 3c 22 0d 6c 3c 1e 21 04 bc
       0.039991014 0.01712297 0.014407428 -0.008064536
0002f0 aa 7b 3a be f6 22 06 bd fc aa a2 3d 61 64 29 3e
       -0.18211237 -0.032748185 0.07942769 0.16542198
000300 fc de 38 be 86 59 cb bd 7a 59 c4 bd 90 c9 0f 3e
       -0.18053812 -0.099291846 -0.09587379 0.14041734
000310 12 43 11 be c0 e3 cb bc 14 c4 84 bc df 46 1e bd
       -0.14185742 -0.024888873 -0.016206779 -0.038641807
000320 2e 39 0d be 51 2d 34 3d 1c c2 77 3d 68 1d a9 3e
       -0.13791344 0.04398853 0.06048785 0.33030248
000330 c8 0a 61 3d 0c 4e 25 be 18 1e 6d 3c a4 cd d4 bd
       0.054941922 -0.16143054 0.014472507 -0.10390785
000340 7b 00 b7 bd e3 f3 83 bc f4 de 6f 3e 5b 8d 28 be
       -0.089356385 -0.016107505 0.23424894 -0.16460173
000350 f5 7e 4d 3e 10 69 e6 3c 6e 63 ca bd 20 77 37 be
       0.20067962 0.02812627 -0.09882246 -0.17916536
000360 0c 28 b4 3d 42 f0 64 bd 83 54 94 bd 91 0f 47 3e
       0.08796701 -0.05589319 -0.07242682 0.19439532
000370 1f 98 75 3e 04 17 88 3d 04 fa 62 3c d2 da 82 3e
       0.23983811 0.06645015 0.013853554 0.25557572
000380 87 93 b6 bc 7d 3d 09 3e b8 8b 3a be ab 3f 0f bd
       -0.022287143 0.13402362 -0.18217361 -0.034972828
000390 fa f5 9f 3e be c9 8a bd 13 ec ed 3d c4 75 1f be
       0.31242353 -0.067767605 0.11617293 -0.15572268
0003a0 90 e1 0c 3e 8b d1 15 3e f8 61 98 be 86 ab c4 3d
       0.1375792 0.14630716 -0.29762244 0.09603028
0003b0 7b 63 c2 3d fa f4 3a 3e 02 48 96 3d 21 df 7b be
       0.09491631 0.18257514 0.07337953 -0.24596836
0003c0 3a 74 44 be 5d 10 7a be f5 5d f5 bd ef 66 0c 3e
       -0.19184962 -0.24420305 -0.119808115 0.13711141
0003d0 1a f6 73 be 04 22 b4 3e 25 01 6e bd ea 7a 75 bd
       -0.23824349 0.35182202 -0.05810656 -0.059931673
0003e0 55 d7 9f 3d 7a 6e 5c 3e 67 f0 29 3d f1 7d 8f 3c
       0.07804743 0.21526518 0.04148903 0.017516108
0003f0 6a b8 ea bd 11 17 24 be 8f d5 15 be a7 53 5b be
       -0.114609554 -0.16024424 -0.14632247 -0.2141863

mu.4.bias f4 [12]
000000 8b 27 9e bc 27 69 57 bc 90 42 13 3b 0e 30 9c 3c
       -0.019305965 -0.013147629 0.0022470094 0.019065883
000010 bc 9b bb bd 4d c3 ee 3c 67 c0 3f 3b b1 12 9f bd
       -0.09160563 0.029145861 0.0029258968 -0.07767237
000020 a9 17 d0 3c 7d 72 a3 3d c0 d8 8b 3c e8 fd a2 bb
       0.025401907 0.07980821 0.017071128 -0.0049741156

reward_fun.0.weight f4 [200, 14]
000000 5d c2 cf 3e a1 e8 b5 bd b0 54 0f 3e 65 6b 77 3e
       0.40577975 -0.08882261 0.1399715 0.24162062
000010 70 c6 44 3e 0e 0d fa bd f1 d3 3e 3e 3a 68 93 bc
       0.19216323 -0.12209521 0.18635537 -0.017994035
000020 31 a7 c7 3c bb 79 98 3d 8a 1c 47 be ea 41 82 be
       0.024371715 0.07445093 -0.1944448 -0.25440913
000030 84 1c 26 3e a0 63 aa bd f7 c0 51 3e 67 5b 4c 3b
       0.16221815 -0.08319783 0.20483766 0.003118241
000040 9a fa 7c be 25 2c b5 bd 16 0e f0 3d e6 e9 a0 be
       -0.24704972 -0.088463105 0.11721437 -0.3142845
000050 7b 3a ba 3d e0 51 4d be c9 ad 7d 3e 47 e4 82 3e
       0.090931855 -0.20050764 0.24773325 0.25564787
000060 f9 be 0f 3c 11 a1 c1 3e f1 b3 30 bc 45 21 cb be
       0.008773559 0.37818196 -0.010785089 -0.3967382
000070 a2 fb db be 81 00 2b 3e 20 d2 86 be 51 01 04 3e
       -0.42965418 0.16699411 -0.26332188 0.12891127
000080 04 cd 40 3e f5 e3 ae bd 04 ac 25 3e ee b9 99 3e
       0.18828207 -0.08539573 0.161789 0.30024666
000090 d9 76 1a be e9 f7 6c 3c 44 c0 dd bd 89 9c 47 3e
       -0.150844 0.014463403 -0.108276874 0.19493307
0000a0 a3 6d c3 be 7d 47 17 be 9c d8 f2 bc 4f 6d 4f be
       -0.38169584 -0.14773364 -0.029644303 -0.20256542
0000b0 7d a7 8a 3e 37 2a 70 3e c7 f2 62 bd 56 15 ae 3d
       0.27080908 0.23453604 -0.05540731 0.08500163
0000c0 bb d6 4f be bb 34 b0 bd 9e f4 41 be d4 af b6 be
       -0.20296757 -0.086038075 -0.1894097 -0.3568102
0000d0 79 fd aa 3c 66 3e 70 be 53 63 ec 3d 3a c3 c8 3d
       0.020872818 -0.23461303 0.11542382 0.098028615
0000e0 95 21 43 3e a7 99 80 3e 69 ce a2 be 13 f3 a1 3e
       0.1905578 0.25117227 -0.31798103 0.31630763
0000f0 bc b6 c5 bd ad d7 09 be 07 41 83 3e 25 3a de bd
       -0.096539944 -0.1346118 0.2563555 -0.10850934
000100 51 48 81 3c ea e2 60 be 52 a7 82 3d f3 07 ed 3d
       0.015781553 -0.21961561 0.0637957 0.11573782
000110 48 ca f8 3d 17 a7 c3 3e 78 aa 83 3e 2d 90 b2 3e
       0.12147957 0.38213417 0.25715995 0.34875622
000120 a6 2f 8a 3e 10 d5 34 be e9 8a c7 3d 33 11 74 be
       0.26989478 -0.17659402 0.09743292 -0.23834686
000130 ad fd 6a be 95 2d 81 3e 05 09 19 3e 02 87 a1 bd
       -0.22948332 0.2523009 0.14944847 -0.07887079
000140 44 a7 dd 3d 1b c8 7b be 20 33 cf 3d 29 f7 04 bf
       0.10822919 -0.24588053 0.10117173 -0.51939636
000150 1c 08 05 3e e3 3d 6b be 1d 17 6e bd 50 d6 7a 3e
       0.12991375 -0.22972827 -0.05812751 0.24495816
000160 d1 8f 67 be 7a 31 82 3d aa d3 41 bd f8 17 56 3e
       -0.22613455 0.06357093 -0.047321 0.20907581
000170 8d bf 4f bd f1 57 8e 3e 94 f0 2b 3e 92 94 1c be
       -0.050719786 0.2780147 0.16790992 -0.1529105
000180 c4 d6 49 be 01 17 e3 be 7d b6 41 3d 82 be 0f 3e
       -0.19710833 -0.44353488 0.047293175 0.14037517
000190 f1 fc 5e be c1 fb 4b be 1c 5d ac bc 70 ae 82 be
       -0.21776177 -0.19920255 -0.021040492 -0.2552371
0001a0 69 d4 47 be 35 5c c8 3d ca 59 4b 3e af ae 09 bd
       -0.19514622 0.09783212 0.1985847 -0.033613857
0001b0 cd 8a 46 3e 5e 1e 7b be 4b c6 b2 3b 15 84 f2 3e
       0.19388886 -0.24523303 0.0054557673 0.47366396
0001c0 8a e6 c4 3e 91 07 b6 bd ee bf 22 3e 16 d1 e5 3c
       0.38457137 -0.08888162 0.15893528 0.028053802
0001d0 e6 14 51 be 1a b3 22 be 4f 0c 0e 3e 9d e7 6a bd
       -0.20418128 -0.15888634 0.13871883 -0.05734979
0001e0 1c 6d 5b be 6e 23 ab bb 76 a3 d5 bd 41 77 88 3e
       -0.2142834 -0.0052227294 -0.10431568 0.26653484
0001f0 be 85 93 be 2e 0f be 3d f1 a6 f7 3c de 30 97 3e
       -0.28812975 0.09280239 0.030230971 0.2952947
000200 3a 72 81 3e 1c b8 81 3e b4 17 74 be bb bf 6e 3e
       0.2528246 0.25335777 -0.23837167 0.23315327
000210 77 4f 88 3e fd bc da ba 56 b9 9a 3c 55 c0 68 3d
       0.26623127 -0.0016688403 0.018887203 0.056824047
000220 a0 42 ba 3d 3f fd ae be d2 d1 6a 3e cf b6 6c be
       0.09094739 -0.34177586 0.22931603 -0.23116611
000230 79 34 a4 be ec 8f 91 3e 6e 9c 05 bd 11 78 ba 3e
       -0.32071283 0.28430116 -0.032619886 0.36419728
000240 04 db d2 3c 49 59 01 bd 5c 54 80 3e 4e 9d 49 3e
       0.0257392 -0.03157929 0.2506436 0.19688913
000250 74 df aa 3d db 82 80 bd fa be 3d 3d 06 66 21 be
       0.083434016 -0.06274959 0.046324708 -0.15761575
000260 ee 43 e1 be 25 e5 4d 3e f9 15 52 3e ee 70 14 be
       -0.4399714 0.20106943 0.20516194 -0.14496204
000270 b1 dd 47 be 88 38 a2 be 07 63 ab be ea 64 8f be
       -0.19518162 -0.31683755 -0.3347399 -0.2800668
000280 3e 3b 18 3e 39 67 ed 3d 20 bc 8b 3e 47 3e 05 3d
       0.14866349 0.11591954 0.27291965 0.032530095
000290 1b 23 0f be 3f 33 1a 3d 11 83 96 3d 32 43 c7 3e
       -0.13978235 0.03764653 0.07349218 0.38918453
0002a0 78 1c 9b bc 28 26 6b be 9a 9c 14 be 4a 7a 96 3e
       -0.018934473 -0.22963774 -0.14512864 0.29390174
0002b0 4d b8 d0 3c a2 ee 75 bd 14 e2 89 be f6 74 04 3d
       0.025478506 -0.06004203 -0.26930296 0.032338105
0002c0 99 55 12 be 15 7f 13 3e da c8 a5 be 1e 61 75 bd
       -0.14290465 0.14403947 -0.323798 -0.05990707
0002d0 ed 0d fe bd 9d 89 58 3e 8b 66 f6 3e ab 72 24 be
       -0.12405 0.21146245 0.4812511 -0.16059367
0002e0 97 89 4a be c1 8d 16 3e 7b 19 50 3e f5 a3 70 be
       -0.19779049 0.14702512 0.2032222 -0.23500045
0002f0 50 c2 42 bd 33 7e 57 bc c6 9a 52 3d 04 4f 93 3d
       -0.047548592 -0.013152647 0.051417135 0.071928054
000300 56 89 33 be d2 fd 0d 3e 20 f5 1f be 13 7e f7 be
       -0.17532858 0.13866356 -0.15620852 -0.48338374
000310 55 e5 88 be 81 c6 a2 3e bc 1c 85 3c 38 18 93 3e
       -0.26737466 0.3179207 0.016249053 0.28729415
000320 c8 38 b8 3a 49 cc e2 bd 54 c3 87 3d 92 3a 80 3d
       0.0014055008 -0.110741206 0.06629053 0.062611714
000330 92 c0 12 3e 27 30 c2 3d b1 18 76 bd 1f 7e 61 be
       0.14331272 0.094818406 -0.06008214 -0.22020768
000340 67 e0 20 be b8 e6 c4 3e 49 bf f8 3d 41 54 dd 3d
       -0.15710603 0.38457274 0.1214586 0.10807086
000350 dc f9 07 3c da 54 ba 3e bd 47 30 3e 23 2b 36 3d
       0.008299317 0.36392862 0.17214866 0.044474732
000360 16 8c a1 3e bb e2 2c 3e 66 bd 21 bd 35 99 fd 3c
       0.3155219 0.16883366 -0.039487265 0.030956844
000370 15 0e 9c 3d eb a0 3a 3e 07 91 08 3f e4 81 a0 be
       0.076198734 0.18225448 0.53346294 -0.313491
000380 82 9a 0a 3e ce ff 7a be 07 99 2d be 90 f5 62 be
       0.13535503 -0.24511644 -0.16952907 -0.22163987
000390 ff 5d 8f 3c 97 9a f0 3d 07 c3 36 3d e8 ad e4 bd
       0.017500876 0.11748236 0.044619586 -0.111659825
0003a0 65 0c 7d 3e f1 2c 47 3e e7 69 e1 3d dc 8b 01 3e
       0.2471176 0.19450738 0.110065274 0.12651008
0003b0 ca 51 72 3e 96 e0 75 be 13 0f 79 be dc 2b e4 3e
       0.23664013 -0.24011454 -0.24322157 0.44564712
0003c0 1f e0 0e 3e 74 1b ec ba ab 60 b7 3b 64 9d 2f be
       0.13952683 -0.0018013553 0.0055962405 -0.17149884
0003d0 d4 c3 1a 3e 56 98 80 3d 0e 5d c6 3d 12 bc 31 3e
       0.15113765 0.06279056 0.096857175 0.173569
0003e0 dd 2f 82 3e 46 49 41 be 78 f1 73 bd 78 c7 14 be
       0.25427142 -0.18875608 -0.059556454 -0.14529216
0003f0 c1 59 f1 bd 14 cf 02 bd 89 ef a4 3e 60 e8 bc 3e
       -0.11784697 -0.031935766 0.32214 0.36896038

reward_fun.0.bias f4 [200]
000000 0d b5 82 3d d6 b2 4d 3e 60 0f 80 3e 70 3c 11 be
       0.06382189 0.20087752 0.2501173 -0.14183211
000010 85 dc 40 be 31 67 05 be 18 94 8e be 96 72 5b be
       -0.18834122 -0.13027646 -0.27847362 -0.2143043
000020 dd 51 1e 3d e4 1f 8f be 7d 5a 3c be 4e c3 5f 3e
       0.03865229 -0.27954018 -0.18393894 0.21851847
000030 db 22 12 3e a1 ae 6e 3d ba 79 3b be f6 e1 a5 be
       0.14271109 0.058272008 -0.18308154 -0.32398957
000040 36 a2 b3 bb 16 b6 e4 3d 8a af 69 bd 90 34 23 3e
       -0.0054819835 0.11167543 -0.057052173 0.1593802
000050 56 4f 93 be 08 b9 84 3e 34 82 28 3e 0b c5 63 3e
       -0.28771466 0.25922418 0.16455919 0.22243135
000060 23 82 95 3e 34 88 a8 be fc 7e 12 be c7 36 38 3e
       0.2920085 -0.32916415 -0.14306253 0.17989646
000070 b8 a8 0d 3e 9c 2c 8b 3e 0e 58 43 be 34 00 5d 3e
       0.13833892 0.27182472 -0.19076559 0.21582109
000080 9e 96 1c 3e 8c bb c2 3d 05 1c 65 3c 2b 82 d8 3c
       0.15291831 0.09508428 0.013983731 0.026429256
000090 fa 15 48 be 22 37 7c be c6 7e 6a be f0 03 21 be
       -0.19539633 -0.24630406 -0.22899923 -0.15724158
0000a0 54 41 20 bd fb c7 ba 3d 38 86 8b 3d 00 05 31 be
       -0.0391248 0.091201745 0.068127096 -0.17287064
0000b0 cc 20 4d be 97 42 63 be 36 85 8b 3d e4 0c 50 be
       -0.20032042 -0.22193371 0.06812517 -0.20317417
0000c0 da 6f 32 bd 07 ba 36 3e e0 77 24 3e 6d cc 91 3e
       -0.0435637 0.17844401 0.16061354 0.28476277
0000d0 b5 42 39 3e df e8 20 3e 3d 09 9a 3b ec 2f 84 bd
       0.18091853 0.15713833 0.0047008083 -0.06454453
0000e0 25 aa 60 3e cb d0 5d 3e cb db 77 be c0 9c 8a be
       0.21939905 0.2166168 -0.24204938 -0.27072716
0000f0 78 52 e9 3d 00 e0 6d 3d 3e 32 ae 3c c1 48 55 be
       0.11392683 0.05807495 0.021264192 -0.20828535
000100 fe 0f c4 3d 55 62 36 3d c2 da 95 be 6e 4e 8e 3e
       0.09573363 0.04452737 -0.2926846 0.27794212
000110 69 55 21 3e b3 c7 1f be 08 3b 21 3e e2 52 11 3e
       0.15755238 -0.15603523 0.15745175 0.14191774
000120 82 5a 3c 3e 9f 99 53 3e 1a 61 89 3e 68 de b2 bc
       0.18393901 0.2066407 0.26831895 -0.021834567
000130 b3 fd 72 3e 36 87 eb 3d 52 76 46 3d cb e7 36 3e
       0.23729591 0.11500399 0.048452683 0.1786186
000140 cf a0 90 3d 4d 2d a3 bd cb 1b af 3d 73 fd 96 3d
       0.07061922 -0.07967625 0.08550223 0.0737256
000150 c1 b8 2f 3e 80 47 22 be c4 c8 82 be 0e d8 b1 bc
       0.17160322 -0.15847588 -0.25543797 -0.021709468
000160 ce 3e 52 be be 1d c5 3a 58 52 9d 3d 8b 13 fd 3d
       -0.2053177 0.0015038771 0.076817214 0.12357243
000170 8b 22 fa bc 9c 4f 5b be b0 0a ea 3d df 1e 00 bb
       -0.03053405 -0.21417087 0.1142782 -0.001954965
000180 92 77 6f be 35 86 8f be 2b 9a 97 3d 90 98 d1 bd
       -0.23385456 -0.2803208 0.07402452 -0.10234177
000190 6f dc ff 3b 93 6f 80 be 98 fa 83 3e 1d d2 0f 3e
       0.00780826 -0.25085124 0.25777125 0.14044996
0001a0 6d 79 20 be 41 1b 3b be 43 82 0a be fe cb 22 3b
       -0.1567132 -0.18272115 -0.13526253 0.0024840827
0001b0 f0 bf 3a be f2 53 20 bc 9c e9 76 be 01 d9 92 bd
       -0.18237281 -0.009785639 -0.24112552 -0.071702965
0001c0 a6 ba 43 bc fb 10 d8 bd ec a3 66 be 2b cf f8 3d
       -0.011946356 -0.10550114 -0.22523469 0.12148889
0001d0 0c a8 a4 be a5 67 b8 bc 22 ed 8c 3e 3a e8 82 be
       -0.3215946 -0.022510359 0.27524668 -0.255678
0001e0 fd c8 15 3e b4 68 53 3e 4f 01 13 3e 08 57 a3 3d
       0.14627452 0.2064541 0.14355968 0.07975584
0001f0 bf 95 88 3e 41 d5 40 be 53 eb 7b bd b9 39 28 be
       0.26676747 -0.1883135 -0.06150372 -0.1642827
000200 0b 47 0a 3d 7d 64 2a 3e dc 73 3e be 11 0a 55 be
       0.033759158 0.16639896 -0.18598884 -0.20804621
000210 ed 49 44 be 1f 0a 05 3e 4c be 32 bc 97 39 66 3e
       -0.19168825 0.12992142 -0.010909628 0.22482906
000220 6b ff 6b be 9c e6 34 bd de a6 0f 3e 9f 53 3f 3c
       -0.23046653 -0.04416524 0.14028499 0.011677652
000230 c6 73 87 3d 01 54 8b 3b 4d 63 19 3c e7 c3 2e 3e
       0.06613879 0.0042519574 0.009362054 0.17066918
000240 08 9a 71 bd 26 3a ae 3d 3d fa 4b be 36 44 4f 3e
       -0.058984786 0.08507185 -0.19919677 0.20240864
000250 2e 7c 50 bd 26 c8 83 bd 2a 2f 18 be cc c2 39 3e
       -0.050899677 -0.0643466 -0.14861742 0.18140715
000260 fb 09 87 bd 8d 37 98 3d bf 7f 83 be 95 44 8d be
       -0.065937005 0.074324705 -0.256834 -0.27591386
000270 54 76 25 3e 95 9d 2d bd 85 01 05 be 23 ec 78 be
       0.1615842 -0.04238661 -0.12988861 -0.24308829
000280 94 3c 7d 3d 5a ca af be cc 4a b0 3a 56 72 05 3e
       0.06182535 -0.3433407 0.0013450026 0.13031897
000290 dd d8 9e bd 9e c7 73 be 00 1e ee bd 66 d9 d1 3d
       -0.07756207 -0.23806617 -0.11626816 0.102465436
0002a0 4c 66 e6 bd ef d5 e5 3d 2f 51 d6 bd e9 a4 46 be
       -0.1124998 0.11222445 -0.10464703 -0.19398846
0002b0 c2 53 1b 3e 15 26 2b be 57 8a e6 bd 37 0d 96 be
       0.1516867 -0.16713746 -0.11256855 -0.29306957
0002c0 81 29 68 3e 8b 61 96 3c 16 3b ad 3e 4f 14 6f 3d
       0.22672082 0.018357059 0.33834141 0.058368977
0002d0 1d fe 60 bc 51 fd 38 be fb 1d 1e 3d 27 30 35 be
       -0.01373246 -0.18065383 0.03860281 -0.1769415
0002e0 c0 6c 31 3e 4e f5 a3 be 84 73 b0 bd c6 ee 9a be
       0.17326641 -0.3202309 -0.08615783 -0.30260295
0002f0 0d 6b e9 bd 3c 98 78 be 23 d5 0c 3e c6 88 27 3c
       -0.113973714 -0.24276823 0.1375318 0.01022548
000300 c4 bd 94 3e 4b 49 79 3c 56 ca ac bc fb 9d 95 3c
       0.2905103 0.015215228 -0.021092575 0.018263808
000310 6e af c9 bd a5 9a c6 bd 8e 69 2a be f2 a0 69 be
       -0.09847914 -0.09697465 -0.16641828 -0.22815302
