experiments/data/sawyer_clutter_200steps_10H/mpc/2021-06-22_17-04-13_clutter_200steps_10H/model_5400.pt (torch_old, 358080 bytes, 12 tensors)

log_std f4 [1, 12]
00000000: c363 ebbf e44c d9bf 7518 a6bf 2d84 73bf
00000010: 175e 83bf 74dc 49bf 1956 7ebf 6f65 4fbf
00000020: 1d44 a0bf aa3f 82bf 3c61 16c0 dad9 11c0
-1.838982 -1.697659 -1.2976214 -0.9512356 -1.0263089 -0.7885201 -0.99350125 -0.8101415
-1.2520787 -1.0175679 -2.3496847 -2.2789216

mu.0.weight f4 [200, 14]
00000000: 103f da3e 1455 bf3d 487a 3ebd ceb2 17be
00000010: 9772 8d3e a66f 8bbe b3fb 38bd b53b a6be
00000020: b432 143e b972 98be 9f5e 493e e58c 0fbe
00000030: bb6e 893e cf50 4f3e e66a 633e e1ab 21be
00000040: 9a24 b1be 7eb9 b13d 34dc 07bf 68f3 433e
00000050: 9758 983e 677f 863e 410d e3bd c68a 093d
00000060: 76bb 953e f4b0 f1bd b9a0 3a3e eff6 303e
00000070: b46d 9ebd d842 ccbe be7e a63e bc4e f53d
00000080: 1d14 ba3d 94e4 bc3e c675 e4be cebb aa3e
00000090: 693d 25be e7eb 26be 74da 4e3e d7ee bd3e
000000a0: 00de d1bd 8000 1fbf 84ed 18bf 6ea9 76bd
000000b0: 245c 963e ab20 d93e 7bce b2be 1a1f 81be
000000c0: 9a0e 663e 4b73 23bb bf96 523e 25e3 363d
000000d0: 2a05 04be 1bc8 83bd 5ea5 b83e de1b f53a
000000e0: 3513 dabc b758 50be fe02 13bd c79a 12be
000000f0: 4c44 2f3e 3121 90be 7b0d 40be cf5a ac3e
00000100: 9abe cbbc a596 29be a37b af3e 5b64 3dbe
00000110: b6b3 df3e 6783 d6bc c809 55be 46d5 2dbe
00000120: ecac 0b3e 3343 a7be c1a6 7cbe aafd e8bd
00000130: 05dc 203e e3b7 b93d 035b c73c 1171 e6bd
00000140: 4490 a2be e065 85be 6a20 0c3f 0228 9d3a
00000150: 9e53 38bf 112f b1be 9fb2 a43d ca9f 873e
00000160: edcb 92be f9a5 a1be 0c54 5bbd f9a8 c73e
00000170: f240 26be eb36 b23e da6c 40be 0961 d8bd
00000180: c2d6 fa3c 318d 8bbe f98a 223d c140 103e
00000190: 1257 d5be 38aa 5b3e d131 89be b991 87be
000001a0: 2f5c aebe c144 473e 40ef 8abe 60cd 21be
000001b0: 559a 4a3f a36e 8bbe decb 9bbe b1b0 9b3e
000001c0: 8093 e6be 161e 82be e9d6 93bd 6780 3abe
000001d0: 9012 09be 04dd 443e ce70 9bbd fb2b 26bd
000001e0: e168 e2bd 5590 0a3e b2c2 a73e 78d4 b9be
000001f0: ce24 dabd 34f1 623f 1298 b13e e1f3 29be
00000200: 5059 debd b0f6 a5be f681 0dbc 21d6 bfbd
00000210: a8aa 70be e055 44be 9b0b f23d 0696 f6be
00000220: 00aa c1bd cdcd 48be 8c4b a5be 558b c2bd
00000230: 4fa2 293e 64c2 2c3e 7153 0dbe 1661 e43e
00000240: d8af c93e 24fe 55be 9ac8 efbd dd82 a33e
00000250: b19c c73e 4a1a 9a3e 1d7e 13bd 41ac b83d
00000260: 74fd 7f3e bddb 0dbf 1db3 02bd 18b4 103e
00000270: 0a08 a33e 83e2 d43e e421 083e d666 76be
00000280: 1f52 82be 73b4 f8be b0c9 703e c781 2fbe
00000290: 5b2e 0abe a240 eb3d bb8e e4be c4ff f23d
000002a0: c32a 6cbd f180 d2be 64e3 a43d ea77 c93e
000002b0: 7a4d db3e f1eb ac3d 44fa 8e3d c481 0cbd
000002c0: ec67 2ebe 891e 3c3d 2807 b13d 34f1 4ebe
000002d0: 1d81 2d3e 74cf b4be 6d97 c73e e27f a5be
000002e0: 2cb2 e73d a666 63be 453e 773b ee20 c1be
000002f0: d501 a0be 69e8 043d a0a8 f53d a4ae 083f
00000300: 0fc0 2abe 76c7 cebd a145 443e 4a88 b13e
00000310: 1ff1 773f f186 1abe 5756 88bd 21fb f43e
00000320: d715 f23d 6dae c7bd 8ce0 c23e 0fea f33d
00000330: 6b44 a3bd 16ba 123f 1879 12be 29fc cc3c
00000340: 6328 78bd 4697 103e 37de 1fbd 448d 88be
00000350: ac46 303e e755 96be f111 adbe 4eef b63e
00000360: b274 99be 9d82 723e ba87 e5bd be5c 94bc
00000370: be2f 633e 3655 143e 1109 f23d 4563 e7be
00000380: 41be aabb bfd7 04bf 8231 f6be db41 87bc
00000390: e370 ffbd 2457 82bd 832f 01be e69b a03d
000003a0: 10f3 d5bd 9d54 ec3e 7c2f 87be 91fa 90bb
000003b0: 2434 d63e 782d 3a3e 287d fabd fe9e dfbe
000003c0: c051 59be e533 48bd 0357 6abd f5d8 87be
000003d0: 1186 bf3c 097e abbe 0f4e 893e b883 8fbe
000003e0: 6f60 02be d10d 95be b29d d33d a8fc 8a3d
000003f0: 24d2 94be cad7 b13d 58b1 c4bd 9345 d83d
0.42626238 0.09342399 -0.046503335 -0.14814302 0.27626488 -0.27233618 -0.045161914 -0.32467428
0.14472467 -0.29775026 0.19665001 -0.14018591 0.26842293 0.2024567 0.22208747 -0.15788223
-0.34598237 0.08677958 -0.5307038 0.19135821 0.2975509 0.26269075 -0.11086512 0.03357961
0.29244584 -0.11801329 0.18225373 0.17281698 -0.07735768 -0.39894748 0.32518572 0.11977908
0.090858676 0.3689314 -0.44621104 0.3334641 -0.16136707 -0.16300927 0.20200521 0.37096283
-0.10247421 -0.6211014 -0.5973742 -0.060220174 0.29367173 0.42407736 -0.34923157 -0.2521904
0.22466508 -0.0024940546 0.20565318 0.044650216 -0.12892595 -0.064346515 0.36063665 0.0018700322
-0.026620487 -0.20346342 -0.035891525 -0.14316855 0.17115897 -0.28150323 -0.18755142 0.3366303
-0.02487116 -0.16561373 0.34274015 -0.18495314 0.43691796 -0.026185704 -0.20804513 -0.16975889
0.13640183 -0.32668456 -0.24672987 -0.113765076 0.15708931 0.09068277 0.02433539 -0.112520345
-0.3175069 -0.26054287 0.5473696 0.0011990073 -0.7200259 -0.3460622 0.08041882 0.26489097
-0.28671208 -0.3157194 -0.05354695 0.38996103 -0.16235712 0.34807524 -0.18791524 -0.10565383
0.030619983 -0.27256158 0.039683316 0.14087202 -0.41667992 0.21451652 -0.2679582 -0.26478365
-0.34054706 0.19459821 -0.27135658 -0.15801 0.7914174 -0.27232847 -0.30428976 0.30408242
-0.4503441 -0.2541358 -0.07218725 -0.18213044 -0.13385987 0.19224936 -0.07589875 -0.040569287
-0.1105516 0.13531621 0.32765728 -0.36294913 -0.10651551 0.88649297 0.34686333 -0.16596939
-0.10856879 -0.3241477 -0.008636942 -0.09367014 -0.235026 -0.19173384 0.1181862 -0.48161334
-0.09456253 -0.19609757 -0.322842 -0.09499232 0.16565822 0.16871029 -0.13801362 0.4460532
0.3939197 -0.20897728 -0.117081836 0.31935778 0.38986734 0.30098182 -0.036008943 0.0901723
0.24999028 -0.5541342 -0.031909097 0.141312 0.3184207 0.41579065 0.13294178 -0.24062666
-0.25453278 -0.48575172 0.23514438 -0.1713935 -0.13494246 0.11486937 -0.44640145 0.1186519
-0.05765797 -0.41114 0.08051184 0.393493 0.42832547 0.0844344 0.06981328 -0.03430344
-0.1703183 0.045927558 0.08643943 -0.20209199 0.16943784 -0.35314524 0.38982716 -0.3232413
0.113132805 -0.22207126 0.0037726325 -0.37720436 -0.31251398 0.032448206 0.11995053 0.5339148
-0.16674827 -0.10096638 0.19167186 0.34674293 0.96852297 -0.15090539 -0.06657093 0.47847846
0.11820572 -0.09750066 0.3806194 0.119098775 -0.07972034 0.57315195 -0.14304006 0.025022583
-0.06058539 0.14120206 -0.03903028 -0.26670277 0.17214459 -0.29362413 -0.3380275 0.3572945
-0.29971844 0.23682638 -0.112075284 -0.01811063 0.22186181 0.1448563 0.118181355 -0.45192924
-0.0052106683 -0.518917 -0.48084646 -0.016510895 -0.12472703 -0.06364277 -0.1261578 0.07842235
-0.10446751 0.46158305 -0.26403415 -0.004424401 0.41836655 0.18181407 -0.12230903 -0.4367599
-0.21222591 -0.048877615 -0.057211887 -0.26532713 0.023379358 -0.33494595 0.26817366 -0.2803018
-0.12732099 -0.29112104 0.10332812 0.067864716 -0.29066575 0.086837366 -0.09604138 0.10560145

mu.0.bias f4 [200]
00000000: 9577 9abe 1a1c 173d e971 8b3d fd10 713e
00000010: bd76 453e b797 a93e 03b8 553e 78ab 303e
00000020: 44f3 e6bd 00fe 6f3e b2b9 273e 64e7 603e
00000030: 7773 843e b47d 883e 58e8 c9be d083 c33e
00000040: 005b 21be a60b 33be f0f8 353e 7880 f2be
00000050: 35f9 c9bb 3708 e7bd e9b6 0a3e 8e3b 1cbe
00000060: c572 18be a1f7 eebb f191 61be 1c2c 22be
00000070: f6c2 943e dbdf 6dbe 3d36 e03e c4f5 353e
00000080: 424c 573e e8c5 113e c5da eebd f4bc bb3c
00000090: 6fd5 d1be da3f 7c3c eafb b13e fcbd 543e
000000a0: 57a0 64bd 478a 6cbd 47d8 293e dc4d a83e
000000b0: bddc 9abe d70d 673d d3c2 b0bd 7483 4d3e
000000c0: cec0 d6bd 0fae 3bbe 944b cabd 56dd 6ebe
000000d0: 7712 8cbe b36d 87be cdf9 613d 80f7 71bb
000000e0: cd39 513e ca05 46be 0810 f5be 4ac1 333d
000000f0: 9cec a2bd f075 c53d 7184 34be 6e87 5cbd
00000100: 71d2 3abe c256 6bbe 96a4 273e fc6a ca3d
00000110: 50ba 8bbe 442f 063e 48ac f6bd 1d4d a63c
00000120: b7d2 cdbd 6d32 1f3d 4f87 5abe d601 54bd
00000130: e667 b43e 0cee 553c 5c2a 2a3d dc57 febc
00000140: 82ce 8b3d 6ad0 923e 1b0b 323d a9f1 0bbe
00000150: da23 c4bd dbe9 5e3e a790 99be b2fd 6ebd
00000160: a209 67be e012 1cbe 5f4c 1b3e 24d9 82be
00000170: 573d 8b3d d84f 97be 7139 583b 7a96 703b
00000180: 5148 26be 94e8 82be e279 73be 0787 cbbd
00000190: 5958 c43e d90f ad3d dea3 a93c 5f47 c23b
000001a0: ac6a 073e c979 953d 6d3e 9a3d daae 17be
000001b0: 9851 493e 6f06 d6bd 2522 b5bd 48cd 513e
000001c0: 802f 09bd a504 ab3e 4112 993d dd61 82be
000001d0: 78b7 d4bd 6d26 c33d cc03 c03d 01b7 443d
000001e0: 6d2f 9c3e 7972 a73e 5af8 c8bd cebf 313c
000001f0: 793f 113e 18b7 8bbe 23f0 d03d d7e4 8cbd
00000200: 6cd0 1ebe 7547 683d c9b2 c2be d394 cdbd
00000210: 9009 adbd 2d4b b5bc 7266 8cbe b485 443e
00000220: a3ce d53e eca3 6a3e cdf6 4f3e 1d46 f73d
00000230: ad3f 94bb c9f1 c2bd 8227 2cbc 62a1 293d
00000240: 5672 5ebe d0d7 bdbe 763e 0abe 713b b23d
00000250: 7dd8 933e ea61 53be 058a 32be 3266 12be
00000260: 9d23 c0bd 8214 473d ecfa 123e 9e84 c63c
00000270: f163 42be 9b2a 41be 659c 91be 50ab 28be
00000280: e8a0 ef3d d3cb a03d 60e1 b23d f924 e4bd
00000290: 8e36 c33d 2916 953e 110a bbbe bf64 74be
000002a0: c920 4f3e 4d5c 423e e30f 663e 7150 bebd
000002b0: 06a0 d73d d2a9 36be fc04 1abe 0f68 173e
000002c0: 86c6 fd3c fa3c 763e 266e b43c 84b5 213e
000002d0: b2eb a03c 6c78 7cbd 1571 3ebe 6d25 443e
000002e0: c325 063d 6326 863e 5ee5 bebe 9254 81be
000002f0: bc43 de3c fb98 273e 5c0a d13d 36f5 a83d
00000300: 89a8 353e fff2 843e 67a8 523e 80ce 603e
00000310: 0554 57bc 7702 4b3e 8b7b 283e b949 a1bd
-0.3016936 0.036892034 0.06808836 0.23541637 0.19283576 0.33123562 0.20870976 0.1725291
-0.11276868 0.23436737 0.16379431 0.21963269 0.25869343 0.26658404 -0.39435077 0.38186502
-0.1575737 -0.17484912 0.17770743 -0.4736364 -0.006163741 -0.11280864 0.13546337 -0.15257093
-0.14887531 -0.0072927033 -0.22028328 -0.15837139 0.29054993 -0.23229925 0.4379138 0.17769533
0.21025184 0.14235651 -0.11662821 0.022917248 -0.4098315 0.015396083 0.34762508 0.20775598
-0.055816974 -0.05774906 0.1658641 0.32871902 -0.30246535 0.056409683 -0.0863091 0.20069677
-0.10485993 -0.18328117 -0.09877697 -0.2332662 -0.27357838 -0.2645088 0.05516987 -0.0036921203
0.20432205 -0.19338146 -0.47863793 0.043885507 -0.07955286 0.096416354 -0.17628647 -0.053840093
-0.1824434 -0.22982314 0.16371378 0.09883687 -0.27290583 0.13103968 -0.12044579 0.020300442
-0.10049956 0.03886645 -0.21340679 -0.051759563 0.35235518 0.013057243 0.041544303 -0.031047754
0.068264976 0.28674632 0.043467622 -0.13666405 -0.09577151 0.21768896 -0.29993173 -0.05834741
-0.22562268 -0.15241575 0.15165852 -0.2555629 0.06798809 -0.29553103 0.0032993222 0.0036710785
-0.16238524 -0.25568068 -0.23776963 -0.09937864 0.38348654 0.08450288 0.02070802 0.0059289183
0.13224286 0.07298619 0.07531438 -0.14812794 0.19660032 -0.10450446 -0.08844403 0.20488465
-0.033492565 0.3340198 0.07474185 -0.2546529 -0.103865564 0.095288135 0.09375724 0.04802609
0.30504933 0.32704523 -0.09812994 0.010848952 0.14184369 -0.27288127 0.102020524 -0.06879585
-0.15509194 0.05670877 -0.38027027 -0.100381516 -0.084490895 -0.022130573 -0.2742191 0.19191629
0.41759214 0.22914094 0.20308991 0.1207392 -0.0045241923 -0.09518773 -0.010507466 0.041413672
-0.21723303 -0.37078714 -0.1350039 0.08702744 0.28876105 -0.2064282 -0.17435463 -0.14296797
-0.09381793 0.048603542 0.14353532 0.024233159 -0.18983437 -0.18863909 -0.28439632 -0.164716
0.11700612 0.078513764 0.08734393 -0.111398645 0.0953189 0.2911847 -0.36531118 -0.23866557
0.2022735 0.18980522 0.22466998 -0.09292687 0.10528569 -0.17838219 -0.15040964 0.14785789
0.030978452 0.24046698 0.02202518 0.15791899 0.019643638 -0.06163828 -0.18597825 0.19154902
0.032750856 0.26201162 -0.37284368 -0.25259835 0.027131908 0.16366951 0.10207054 0.08249895
0.17740072 0.2596664 0.20572053 0.21953773 -0.01314259 0.19825159 0.16453378 -0.078753896

mu.2.weight f4 [200, 200]
00000000: 1092 bdbc 304b 7d3e fa88 02bd 6167 013b
00000010: a974 79bd 4246 5a3d e538 383e b847 283e
00000020: 1bfa 84be b7d6 b73d 3408 0bbe 4b18 a4bd
00000030: 1e2a 823d 1d08 1cbd ed1d 51be 59d2 9ebc
00000040: 677f 853d 365d a93d fc70 3f3d 6c0a 483e
00000050: be5c 00be 87c9 6ebf 990e ac3d 1f67 19bf
00000060: 1ae4 843d 3d00 85be 8693 813d 5ec1 c8be
00000070: e524 61bd aa63 9f3e 891d cd3c 95bb 84bc
00000080: 4ddb 0bbc 72e1 f5bd 7d71 9a3d 9c88 69bd
00000090: e9e3 70bc 6386 bbbe 1a01 f3bc 6255 0ebb
000000a0: bc7f 00bf 59a1 f63d b388 a9bd 8242 483c
000000b0: fbc5 8c3e 7079 aebd 777e 16be 48d7 1fbe
000000c0: df90 72be 9bc3 6f3d fd55 163e cea2 2bbd
000000d0: c907 bbbb 85b9 193d 9273 cc3d de09 b33d
000000e0: 3a4b 66bb 24b0 b93d fb7b 883c 67ab 4dbd
000000f0: 2472 6c3e 62a7 993d cb9e 063e feb8 99bc
00000100: 09e3 88bd 5743 7d3c 7af6 25bd 63df a5bd
00000110: c15f 19be 28f7 7c3d ebde 0f3e 7180 1ebe
00000120: f902 fa3a 08a2 963c 5b01 a5be c9b0 65bd
00000130: e83c 8bbd 4a0e e33c c764 1bbe 1079 873e
00000140: cd62 9e3c 866f 5f3e 367f 0bbe ff1c b8bd
00000150: 8d19 40be c291 0fbc 20ba 9dbd bdb0 a8bd
00000160: 162c 833d 8ee0 48bd eada dcbd 9f7c 8c3e
00000170: 8147 223e 015a c8be b744 5abd f37b 86bd
00000180: ca94 693e 7bfc 4e3d 8ad9 473e 04ba 493c
00000190: ccc5 e73b d311 a6bd 3a98 883e dd15 efbd
000001a0: f0f2 00be c567 0d3e aafc 80bf fe45 813c
000001b0: ec10 e2bd 5b4b 31bf 90f8 ca3d 9507 f63d
000001c0: e82b 73be d69c 0dbc 2c1a 043e 1f3e 99be
000001d0: 6ca8 0abd df01 bf3d ce50 953d b143 003e
000001e0: 3d1f e03c 31dd 493c e8c9 24bd f96d 72bb
000001f0: 7185 003d 7bf3 53bd 3e25 163c a19f 013f
00000200: bb91 8dbf ee5a 02be 16b8 fabc 6f53 243e
00000210: 5295 27be 567a 3b3e b274 6abd fa1a 313d
00000220: 8458 263e a6c9 a6bd 60e6 0cbe 5b7c 5abd
00000230: 13c5 7c3d 8235 033e b9b1 5dbc 4ee6 f2bc
00000240: 37cc 86bc de57 8ebe 5f02 d83e 4afa 86bd
00000250: c090 b5bc 2d61 813d 9076 953d b5c1 163e
00000260: c41b 7dbc 1368 dabd 5d1a e73d 5944 66be
00000270: 397d ac3b e74e a43c 4553 e2bd 6a18 ebbd
00000280: 5e8e 593d be7b 7e3d 43ff 693e 37a0 913c
00000290: 9cd1 203d 8d1d 8d3e 6870 0ebf f2ea a8bc
000002a0: c796 0e3c d50a e0bb 0ca1 8fbd e1bd bc3d
000002b0: a5e6 853d 3089 463e b8b2 1ebd 84b8 793d
000002c0: 4ccc 773c 0508 61bd 9df7 01be c2a5 3bbe
000002d0: 062c c8bd b5b7 26be 3447 6f3b bc10 db3c
000002e0: 58b5 98bd ada4 93bd e74f 6abe 56e8 b9be
000002f0: 9ae5 a9be 1f8f ed3c 1abc b5bd adb6 ba3d
00000300: a7a4 00bd ac16 0b3e 3768 cdbc 6166 0d3d
00000310: df4d a1bc 5336 cd3d 7bb0 3a3e 3619 8dbd
00000320: 3725 313e 1f6f 7d3e 9bc9 0fbe e4ec 57be
00000330: 67e6 c53d a3d0 04bd 4842 0fbe 462a b0bd
00000340: fbed 22be e27e be3d 8005 613e 8752 2bbc
00000350: 7439 b0bc ebaa 033d 4eac 223e 2a5e 56bc
00000360: c198 02bd 42e4 eebd 8243 79bd ea08 8ebd
00000370: 8e15 593e 4999 5b3e 03d2 3e3d c964 a63e
00000380: 9275 96bd 01aa 383e 36f2 e7bd 96be 05bd
00000390: e746 57bd 2679 abbd c838 a2bd a6a9 cb3d
000003a0: 8093 60bd 7448 b2ba 7400 cf3c b95e a6bd
000003b0: 82e7 bf3d 491f b6be 693b b4bc ec77 3cbd
000003c0: b7be 893c 2b37 39be 5d08 353e e1e0 d23d
000003d0: 9462 fabc 412f f33d 2ec0 433e cd2a 29ba
000003e0: 7a6a 353e 09ca 1bbe 4553 5bbe cb83 09be
000003f0: 0708 01bf 8053 9fbd 25c3 1b3e 7b1e 65be
-0.023140937 0.24735713 -0.031868912 0.0019745457 -0.06090227 0.05328966 0.17990454 0.16433609
-0.25972065 0.089765005 -0.13577348 -0.08012446 0.063556895 -0.038093675 -0.20421572 -0.019387411
0.06518441 0.08269732 0.04673861 0.19535226 -0.12535378 -0.93276256 0.08401222 -0.59922975
0.064888194 -0.25976744 0.06326966 -0.39210027 -0.054966826 0.31130725 0.025038498 -0.016202727
-0.008536172 -0.12005891 0.075411774 -0.057015046 -0.0147027755 -0.36625966 -0.029663611 -0.0021718373
-0.5019491 0.120424934 -0.082780264 0.012222888 0.27494797 -0.08519256 -0.1469668 -0.15609467
-0.23688076 0.058536153 0.1468124 -0.04190331 -0.005707715 0.03753044 0.09982981 0.087421164
-0.0035140053 0.09066799 0.016660681 -0.05021229 0.23090416 0.07502629 0.13146512 -0.018764969
-0.066839285 0.01545795 -0.04051826 -0.08099248 -0.14977933 0.061759144 0.1404988 -0.15478684
0.0019074372 0.01838781 -0.32227597 -0.0560768 -0.06798726 0.027716774 -0.15175162 0.2645955
0.019334221 0.21819887 -0.13622746 -0.089899056 -0.18759747 -0.008762779 -0.07701516 -0.08236835
0.06404893 -0.049042277 -0.10783942 0.27438828 0.15847589 -0.39131168 -0.053288188 -0.0656661
0.22810665 0.050533753 0.19516578 0.012312416 0.00707314 -0.081088684 0.2667864 -0.11674092
-0.12592673 0.13809116 -1.0077107 0.015780445 -0.11038384 -0.6925561 0.09910691 0.12013165
-0.23747218 -0.00864335 0.12900609 -0.29930207 -0.033852026 0.09326529 0.07290803 0.12525822
0.027358646 0.012320803 -0.040231615 -0.0036991818 0.03137726 -0.051745873 0.009164153 0.506342
-1.1060098 -0.1273 -0.030605357 0.16047452 -0.16365555 0.18308386 -0.057240196 0.043238617
0.16244704 -0.0814393 -0.13759756 -0.05334125 0.061711382 0.1281338 -0.013531142 -0.029650833
-0.0164548 -0.27801412 0.4218931 -0.065907076 -0.022163749 0.06317363 0.072980046 0.14722331
-0.015448514 -0.10664382 0.11284325 -0.2248701 0.005263951 0.020057155 -0.11051039 -0.11479266
0.053114288 0.06212973 0.22851281 0.017776592 0.0392624 0.27561608 -0.5564027 -0.020619843
0.00870294 -0.006837229 -0.07013139 0.09215904 0.065381326 0.1938827 -0.03874466 0.060966983
0.015124392 -0.05493929 -0.12692113 -0.1832495 -0.09774022 -0.16281016 0.0036510946 0.026741378
-0.074564636 -0.07209144 -0.22882043 -0.3631007 -0.33182985 0.02899891 -0.08873768 0.09116874
-0.031407025 0.13582867 -0.025074108 0.034521464 -0.019690452 0.10020127 0.18231384 -0.06889574
0.17299353 0.2474942 -0.1404175 -0.2108646 0.096630864 -0.032425534 -0.13990128 -0.08601813
-0.15911095 0.09301545 0.21974754 -0.010456688 -0.02151177 0.032145422 0.15886042 -0.013083974
-0.03188396 -0.116646305 -0.060855396 -0.06935294 0.21199629 0.21445192 0.046587 0.32498768
-0.073466435 0.18033601 -0.11325495 -0.03265246 -0.052557852 -0.083727166 -0.079209864 0.09944467
-0.054828167 -0.0013601915 0.02526877 -0.08123536 0.093703285 -0.35570744 -0.022000985 -0.046012804
0.016814573 -0.18087451 0.17678972 0.102967985 -0.030564584 0.11874247 0.1911628 -0.0006453216
0.17716399 -0.15213789 -0.21418484 -0.13429181 -0.50402874 -0.07779598 0.1521116 -0.22374909

mu.2.bias f4 [200]
00000000: 4b40 a83c 123a 363d ba2d cfbc 26bc 9c3d
00000010: a273 91bd 9670 a53d 6fe1 8d3d d813 07bc
00000020: a8d4 ec3b f8b1 a33d fd00 9abc d0fc 063d
00000030: 5172 b3bd 59eb d83d 2383 9f3c 5c6a 49bd
00000040: ae1c 23bc ad1c 0abd 1e69 903c 3f49 04be
00000050: aa9f 0c3d a9f6 4dbd 8506 373d d418 083d
00000060: 1905 a5bd 192d 3fbd b104 163d 74f8 783d
00000070: c594 edbb 34c0 4c3d c74e 973c 5b71 51bd
00000080: 9bd1 203e 4de7 0d3e a46f e0bc c0a7 a13c
00000090: f581 b8bd 65a1 543d b56e 75bb 9217 b6bd
000000a0: ac06 703d 4f19 0a3d 6825 4b3c ad87 553c
000000b0: b4ba 09bc 5cd8 323c 8e46 4a3d 4446 e63d
000000c0: 3e0d c63d dca6 863d 1613 3f3d 0c96 26bd
000000d0: 9d82 35bd ffde 07bd 818b 0b3d e7bb 41ba
000000e0: 6dd6 0b3d 6ce1 c33d fdbf a4bc 038b 713c
000000f0: a779 a53c 81fb 313d 4ec5 85bc e49e 373d
00000100: b2d2 493d 0d23 22bc 578c 133d 7e19 103e
00000110: 7c44 033e 367c 8f3c 0f00 053c a7f7 10bd
00000120: b73b 613c e3a1 9c3d 4407 953c 9637 92bc
00000130: 4089 a83c c13d 213d 16c7 f63c a3e1 5dbd
00000140: a741 3fbc 4dc5 92bd fd57 93bd 9d5e babc
00000150: 6da8 93bd 78eb 06be 634d c2bc d7e6 62bc
00000160: 9487 b1bd 3958 393d 8ea7 c6bb f7d6 b0bd
00000170: e763 9d3d eff0 743d e4e8 c93d 9649 47ba
00000180: 4900 ccbc cad3 08bd 1205 7ebc 43ba af3d
00000190: c73d d33c 8c1d 19bd 99eb 023e f526 ecbb
000001a0: d1d1 993d 49c1 d0bc f023 1eba 5fd6 4abc
000001b0: 73ab 973b e05a 843d 9d42 27bd c4c2 fd3d
000001c0: 114e 9e3d 7e74 a73d 0870 e23a ecfa 8a3d
000001d0: 3f98 b83d e9e1 f8bc bdb7 9cbd a01a 723d
000001e0: bfbb 9dbc d2d2 2abd 99d3 8abd 1772 20bd
000001f0: 22da febc 0e75 72bd afbb d6bb f52f 4e3d
00000200: c4cf bbbd b22d 883c 79ce d8bc 39ad 653d
00000210: a188 513d 156c dcba c9df 61bd b050 bcbc
00000220: 855a f6bd 4346 c43d 2bd0 0bbd 6ae2 953d
00000230: e0b0 903d 2ea6 ef3c c948 50bd 2b43 24bd
00000240: 35da 02bd 2df5 b13b b732 ec39 5443 353d
00000250: a46e 4d3c ed6c 8cbd 1ddf 363d 8092 fb3c
00000260: 72dc f33d cdde 583d 08a6 babc eb4e 9cbd
00000270: 25b0 d23d d29e 6abd 8b22 a9bc 06e9 c6bc
00000280: d367 aabd d1f0 e93b 4969 76bd b865 aebc
00000290: 45f8 25b9 3a89 aebc 9003 303d f36d 443c
000002a0: b036 ce3c f611 2ebc 0e21 34bd 9fed 84bd
000002b0: 0361 963c 13e5 ad3d 7e16 4e3d 5f30 debc
000002c0: f43c 83bb 6ce5 a03d 1127 c7bc 6c0f 333d
000002d0: 7ca7 403c 7607 9d3d 2782 b9bd 5289 bfbc
000002e0: 2f95 babc a485 003d 558d f83c 140e c6bb
000002f0: 4170 f13d 8ad7 94bb 943f 2cbd 7d77 ff3c
00000300: 5285 22bd 32db 2e3b f702 89bc 3149 5b3d
00000310: 292a 123b 7eab 8abd 4684 55bd 1de5 903d
0.02053847 0.044488974 -0.025290359 0.07653074 -0.07102133 0.08078115 0.06927764 -0.008244477
0.007227499 0.07992929 -0.0187993 0.032955945 -0.087620385 0.10591764 0.01947171 -0.049173698
-0.009955568 -0.033718754 0.017628249 -0.12918566 0.034331955 -0.05028406 0.044683952 0.033226803
-0.08057613 -0.046673868 0.036625568 0.06078382 -0.0072504007 0.049987987 0.018470181 -0.051133495
0.15704958 0.13857765 -0.027396984 0.01973331 -0.09009162 0.05191173 -0.003745002 -0.088912144
0.058600113 0.033715542 0.012399055 0.013032836 -0.00840633 0.010915842 0.049383692 0.11243871
0.096704945 0.06574795 0.04664906 -0.04067044 -0.044314016 -0.03317165 0.03406859 -0.00073903654
0.03414004 0.0956448 -0.020111078 0.014742616 0.02019961 0.043452743 -0.016329434 0.044829264
0.0492732 -0.009896052 0.03602251 0.14072224 0.12819093 0.017515283 0.00811769 -0.03539243
0.013747147 0.07648065 0.018191941 -0.017848771 0.020573258 0.039365534 0.030124228 -0.054170262
-0.011673368 -0.071665384 -0.07194517 -0.022750193 -0.07209859 -0.13175762 -0.023718541 -0.013848982
-0.086684376 0.04525015 -0.0060624545 -0.08634751 0.076850705 0.059800085 0.098588735 -0.0007602213
-0.02490248 -0.033405103 -0.015504139 0.085804485 0.025786294 -0.037381694 0.12785186 -0.0072067925
0.075107224 -0.02548279 -0.0006032577 -0.012380212 0.0046285926 0.064626455 -0.04083501 0.12390664
0.07729734 0.08176516 0.001727582 0.06786141 0.09013414 -0.03038116 -0.07652233 0.059107423
-0.019254563 -0.04170496 -0.0677864 -0.039171305 -0.031109873 -0.059193663 -0.0065531353 0.050338704
-0.091704875 0.016623352 -0.026465641 0.0560734 0.05115569 -0.0016816879 -0.05514506 -0.022987694
-0.12028984 0.09583714 -0.03413407 0.07318576 0.07064986 0.029254045 -0.050850663 -0.04010312
-0.03194638 0.0054308386 0.00045051213 0.044253662 0.012538586 -0.068567134 0.04464637 0.030709505
0.11907281 0.052946854 -0.022784248 -0.0763224 0.10287503 -0.05728037 -0.020646354 -0.024281036
-0.08320584 0.0071393033 -0.060159 -0.021288738 -0.00015828114 -0.02130567 0.042972147 0.011989105
0.025172561 -0.010624399 -0.043976836 -0.06490635 0.018356806 0.08490958 0.05031442 -0.027122675
-0.004005069 0.07856259 -0.02431062 0.04371588 0.011758681 0.07667439 -0.09058028 -0.02338091
-0.022776214 0.03137745 0.03034083 -0.0060441587 0.11788989 -0.004542296 -0.04205282 0.031184906
-0.039677925 0.0026680944 -0.016725047 0.053536598 0.0022302961 -0.06770991 -0.0521281 0.0707495

mu.4.weight f4 [12, 200]
00000000: dd2c 4cbe 1f31 83be 2a5f dfbd 9431 01be
00000010: d675 5dbe fb1a b9bd 93c1 793c bcb9 bc3d
00000020: 50fe 91be ceb4 f9bd 82dd b2bc 5e99 5bbd
00000030: 1f9f 1dbd c4c7 e63d 7b40 6abe 3fe7 2bbd
00000040: 9b77 a03d ace2 99bd 74bd d13e c02a dabe
00000050: ccdd a5bd e453 bbbd 14aa b53d 0e5b 28be
00000060: e8f8 e33b c492 1a3e b66a 2dbd 3971 a7bd
00000070: 6e91 a53c 43dd 1ebe dcfd 97bd a8d0 ad3d
00000080: 948e 9d3d ff5f 523d 3127 b73c df49 453e
00000090: 4be8 74bd 7894 d1bc 1ace 963d 4ce9 843d
000000a0: 8e6c ecbd fbe9 e8be 2415 213e f091 343e
000000b0: 06ea 58bd 1bf2 80bd 10ad 9ebd 7bc2 833c
000000c0: f004 9abe e10b 543e b292 e73d 8a50 a7bd
000000d0: a236 24be 05b8 4c3d 0935 a7bd 3f52 9c3e
000000e0: 61ed 063e 614d 2e3e f20f aabc d249 cdbd
000000f0: ef56 763d 4092 553b c679 e53d 3f5c 57be
00000100: 083e 543e 1f91 22be 2fbe 9f3e 2fbb d5bc
00000110: af37 dcbb 27bd 43be 458c 633d 2fd5 b9bd
00000120: d480 edbd 4594 2dbd b1fc 0b3e c1cb 0abe
00000130: b5d6 623c 3bd8 973d f8ba fe3d 679a 6fbe
00000140: 6c6d 2b3d d800 8e3c 6d6a 413d 4f4c 1bbd
00000150: 9582 19bd 04fc 423e c604 813d 4a6e 88bd
00000160: 083f 91bc 72cc 0dbe 3f79 643e 6eda 8b3c
00000170: d188 bdbd aca9 1d3e 4cf7 6abd dbca e13d
00000180: a24d 0d3d 0dc2 00bd 4879 bdbd f8ef 093d
00000190: 3113 59bc db9d 283a c037 45be d821 7fbe
000001a0: 7a17 a53d b306 173d b2f4 16be c6df 26bc
000001b0: 38b2 e23c 82d7 9a3c 5136 ea3e 618e 0abe
000001c0: 1709 2bbe 0bc1 89bd e959 8dbd 79e0 483d
000001d0: 0198 a9be b2b1 c1bc 6722 56bd 411b 163d
000001e0: 3685 293d e583 91bc 21ec e7bc 3bb6 3a3e
000001f0: 29d1 0e3e 1436 893b cd41 5b3d cd6f 093d
00000200: 86a7 51be 3230 c93d 6e42 d73d f57e 8ebe
00000210: 25b4 833d 28ec 5cbe 9049 a4bd d87c 45bd
00000220: 6907 07bd f48a b13d e321 91bd e4a5 7abc
00000230: 3e31 333e e811 9cbc 8956 09bb 8400 db3d
00000240: 2c29 9f3d 7c42 6cbd accf 96bd 0e8f 0d3d
00000250: 9864 7bbc 15d9 dcbc ec5d 113e 930f 24be
00000260: 32fb df3d 57f3 c93d d52c 2c3e 8b4b d7bd
00000270: 4a35 073e 38bb d9bd 376d 23be dbdd 223d
00000280: 2717 fb3c 79a4 98bd 2700 16be c6f5 7d3e
00000290: 0647 563d eaa7 123e 41d1 123e aece 16bd
000002a0: ce3d b2bd 24d5 48be d9e2 803c 220b f43d
000002b0: ccb2 10be 02b0 a7bd 4a50 c6bd 285d 38be
000002c0: 7d5c bb3c a676 2cbd d9a5 23be 6a62 41be
000002d0: db68 2c3e e1a9 06be 8d6c e93d c9e6 4e3e
000002e0: 0d95 103e 39f8 023e c04a a0bb 6e58 96bd
000002f0: a97a d33d bc84 853d 9afa 21bc a9b7 723e
00000300: 5264 033e 93ee 6fbd 18c1 dbbd d649 6dbd
00000310: d5a2 a03d 8fc9 c0bd 7c2b 77bc 472a 813e
00000320: f2a0 1abe 41c7 d2bd ade5 6cbe 20c5 0d3d
00000330: daec 353d 4fae c83c a110 053b 9ed4 06be
00000340: 9063 213d bf89 1c3c 89e1 8a3e 74b4 97bd
00000350: bc54 debd 1610 f5bd d43b 90bd 3515 c23e
00000360: 2c07 1c3e e21a 30be d97a b83e 2796 66bd
00000370: 0ddf bebd 3698 353e 71e2 5e3e bafc 00bc
00000380: 0974 ee3c d13f 32be 6dbe 2f3e 179b a53d
00000390: b43c ee3d ae36 e73d bd48 353d f598 2e3e
000003a0: 8b6d 25be eb02 17be a87d 8b3d 3e3d 6abe
000003b0: 47d1 7d3e 29aa 75bb ab91 b6bd 44c1 5dbd
000003c0: 9d26 c43d 9ad3 bd3e 1d5c 3b3e 595e 85bd
000003d0: 61d5 623d 104c 343e b06a ecbd 665e 96bd
000003e0: 3cc5 07be 7267 0e3e 6e18 39be f143 423e
000003f0: 336e 6b3d c2ad 11bd b403 f13c a76e 943e
-0.19938989 -0.25623414 -0.10906823 -0.12616569 -0.21626982 -0.09038349 0.015243906 0.092151135
-0.28514338 -0.12192689 -0.021834139 -0.05361306 -0.038481828 0.11268571 -0.2287616 -0.04196858
0.07835313 -0.07513937 0.40964854 -0.4261074 -0.08098945 -0.0914686 0.088703305 -0.16440985
0.006957162 0.15095049 -0.042338096 -0.081758924 0.020210948 -0.15514092 -0.07421467 0.08487064
0.0769321 0.05136108 0.022357555 0.19266461 -0.059791844 -0.02558349 0.073635295 0.0648981
-0.11544143 -0.45491013 0.15730721 0.17633796 -0.052957557 -0.06296178 -0.07747853 0.016083946
-0.30081892 0.20707656 0.11307277 -0.081696585 -0.16036466 0.049980182 -0.081644125 0.305315
0.1317649 0.17021705 -0.020759556 -0.10023846 0.0601415 0.0032588392 0.11204867 -0.21031283
0.20726788 -0.15875672 0.31199786 -0.026090233 -0.006720505 -0.19115125 0.055553693 -0.09073865
-0.11596838 -0.04237773 0.13670613 -0.13554288 0.013845135 0.074142896 0.12438005 -0.23398744
0.0418524 0.017334387 0.047220636 -0.03791457 -0.03747805 0.19041449 0.062997386 -0.06661661
-0.017730251 -0.13847521 0.22311877 0.017071929 -0.09254611 0.15396756 -0.057364747 0.1102502
0.034497865 -0.03143506 -0.09251648 0.033676118 -0.0132492045 0.00064322137 -0.19259548 -0.24915254
0.080611184 0.036871623 -0.14741781 -0.010185188 0.027672872 0.01890159 0.45744565 -0.13530876
-0.16702686 -0.06726273 -0.069019146 0.0490422 -0.33123782 -0.023644302 -0.052278902 0.036647085
0.041386805 -0.017763088 -0.028310837 0.18233578 0.13946976 0.004187355 0.05352955 0.033553887
-0.20474061 0.09823646 0.10510717 -0.27831236 0.06430844 -0.21574461 -0.080218434 -0.048214763
-0.03296605 0.08669081 -0.070865415 -0.0152983405 0.17499253 -0.019051507 -0.002095612 0.10693458
0.07771525 -0.057680592 -0.07363829 0.034560256 -0.015343808 -0.026958982 0.14195985 -0.16021566
0.109365836 0.098608665 0.16813977 -0.105124556 0.13203922 -0.10631412 -0.15959631 0.03976236
0.030650688 -0.07453246 -0.14648496 0.24800786 0.052313827 0.14321867 0.14337637 -0.0368182
-0.087031946 -0.19612557 0.01573317 0.11916186 -0.14130706 -0.08187868 -0.09683283 -0.18004286
0.02287125 -0.04210534 -0.15981235 -0.18885198 0.16836874 -0.13150741 0.113976575 0.20205225
0.14119358 0.12790002 -0.0048917234 -0.073410854 0.1032613 0.06519458 -0.009886408 0.23702873
0.12831238 -0.05857713 -0.10730189 -0.057931744 0.07843558 -0.09413444 -0.015086051 0.25227568
-0.15100458 -0.10291911 -0.2313449 0.03461182 0.044415332 0.02449718 0.00203041 -0.13167045
0.03940159 0.009554326 0.27125195 -0.074074656 -0.108560055 -0.11965959 -0.07042661 0.37906805
0.15237111 -0.17197755 0.36031225 -0.05629554 -0.09319887 0.17733845 0.21766068 -0.007872755
0.029108064 -0.17407157 0.17162485 0.08086222 0.11632672 0.11289726 0.04425882 0.17050536
-0.16155069 -0.14747207 0.068110764 -0.22874925 0.24786864 -0.0037485457 -0.08914503 -0.05413939
0.095776774 0.37075502 0.18296857 -0.06512136 0.055379275 0.1760714 -0.115437865 -0.07342224
-0.13258833 0.13906649 -0.18075725 0.1897123 0.05747814 -0.0355661 0.029420711 0.2899067

mu.4.bias f4 [12]
00000000: 3828 e53b 9ada c4bc 72d4 babc 0923 f13c
00000010: 6527 04be 04a7 b3bd 975a 06bc 0d4e 0dbd
00000020: aa60 bdbd 4e91 6fbd 4135 b93d 100b 9ebd
0.00699332 -0.024030019 -0.02280638 0.029435651 -0.12905653 -0.0877209 -0.008200309 -0.034498263
-0.09246953 -0.058488183 0.090433605 -0.07716954

reward_fun.0.weight f4 [200, 14]
00000000: 6cb7 a3be 90f8 713c 122e bfbe 4100 0b3e
00000010: 543d b0be 7d7e 623e 0545 113e 28d3 683e
00000020: 11b7 74bd a81a d73d 0e84 513e 935a a0be
00000030: 1bcf bbbd d7b2 6abe eb70 f73d 3215 eb3e
00000040: 0941 fe3d 56ce dbbb f9b0 3cbd 75a5 97be
00000050: 0843 af3d b422 883d d900 1d3e 9f9a 293e
00000060: fb7e 9e3a d47c f9bd 0fd2 93be fb42 d8bd
00000070: b262 a93e d7ad d63c 8f2b 4bbe 92ce 8cbe
00000080: 7731 0c3e 4ff5 49be 35ab 48be b338 78be
00000090: 8f9f bf3d dc90 ffbd 7656 8f3e 57b4 20be
000000a0: 2f6e 643e c6d7 183e ff5b 04bd 6f9c b33e
000000b0: d633 98bd 6132 84be 8a05 54bd d7ad 81bb
000000c0: f717 0dbe b459 683e 8a94 73bd 3ec3 9f3d
000000d0: 7d75 e2be da44 1d3e 6817 8a3e cb92 61be
000000e0: 403d 47bd 80fa 943e 0d46 55be f2f9 a53e
000000f0: 5cdf dabb ba90 39bd 7cb2 9a3c 151d 71be
00000100: 4900 2a3e c3f7 773d 5be4 5c3e 8645 b73e
00000110: a196 463c b2b3 f83e 5bc0 913e 2dd4 a7be
00000120: 0721 a8bd d2a9 643d b099 cebd 1750 f93d
00000130: 329d 2d3c d86a 2bbd 433f 113e 1305 31be
00000140: 4bee 08be f2a9 4fbc 4413 8dbe 4964 df3e
00000150: 34b3 c33d ea03 c4bd 79b4 7e3d f1c3 b2bd
00000160: 0831 333e 1ae6 863e 0a57 7c3e fc7f 33be
00000170: d591 5d3d 68a8 ad3d b514 fd3d eb3f a5be
00000180: 3bb1 cabd 552d 8c3e 8ae0 64be 88c0 623d
00000190: 5cb6 983e 350d f43d 7d86 44be 9448 603e
000001a0: 99a5 b0bd bac5 e2bd cf8f 8a3e 69d9 2cbd
000001b0: a86e 1e3e 163b 593d 1539 1b3e d8a2 b3be
000001c0: 97df 8dbc 3c81 173e a71b 5fbd 0ae8 18bd
000001d0: 8855 8abd 1302 afbc 86aa 923e 536f 18be
000001e0: f238 133d fa97 183e 4c43 bfbe 8d3d 00bd
000001f0: 7094 f83d 38a8 3fbe da87 103e 8e53 acbe
00000200: 3861 17be 193b 873e 3fe4 523e 7282 443d
00000210: 2daa f4bd c8a7 fdbd 9749 4ebe 88d2 4e3e
00000220: c0f8 173e cc82 363e c2f5 02be 27e3 ad3d
00000230: 3996 883e cb97 babe 34fd e13c 6b40 63bd
00000240: 3e9b 81be 7a6d d4bd c1e1 8b3e 6502 e43d
00000250: c83f 813e 1b12 933e d2a6 53be b64b 54bd
00000260: 10ff f13a de5f d93e 905d f0bd 1d7c 603e
00000270: e36b 9d3d d090 d5bd 526d 80be fc15 a2be
00000280: 6d8b 463e 6ece 923d 697d 793e e5f6 953e
00000290: af41 9e3d bead 3ebd 0c30 4d3e 9cec 173d
000002a0: 5cbc 8dbe fb6c 513e bc2c 14bf dc55 acbe
000002b0: 5035 ccbe dfa6 b0bc 5462 ddbc c365 273e
000002c0: cfef 05bd 077d cf3d 4200 22be 7299 04be
000002d0: d87f b03e bb1a b43e 85f0 b2bd cd5b 36be
000002e0: 9467 82be b171 ab3d cda8 33be 8f32 2cbe
000002f0: d2a6 fe3c 1ebd 3f3e d309 913e c4fa 0bbd
00000300: faab 54be 7f39 94be 6e24 4c3e 639e 2e3e
00000310: 51e6 763e 1ac2 c9bc a9f6 983d d4a1 a83e
00000320: c672 8c3c 8cc4 96bd 50d0 763e dc96 0abe
00000330: 3f3c 35bd 936e ffbd 1bf2 01bc 5b74 a1bc
00000340: 41aa 1b3e 5dc4 fd3d a647 293e 4154 77bd
00000350: 617d 703e f7be e8be 32e2 843d 1b25 4b3e
00000360: b9ab 3f3e 00f2 503e 8215 03be 4f54 fdbc
00000370: a4c6 b8be 55c5 1c3e ab55 823c 74c3 6e3e
00000380: a673 4b3e 5970 99be a14f 20be 0667 89be
00000390: 5a1d 493e 0172 523e 48d1 3e3e c6ce 7bbe
000003a0: 24ae 0cbc bcdd 0dbe 6b48 0e3e 0225 6ebe
000003b0: 9293 df3e a083 95bc 9a39 2a3c d06d 1ebf
000003c0: cff1 543e 8520 8f3e 14e1 85be e3c3 7ebd
000003d0: 9ef3 543e bca5 9b3b 65fc 02be 9365 11be
000003e0: 3e9c 3fbe 64de c33d f00f 7ebe 711a 35be
000003f0: 438c 663e 08fb a6be 338e 8f3e 14b2 093e
-0.31975877 0.014768735 -0.37339836 0.13574316 -0.3442179 0.22118564 0.14186485 0.227368
-0.0597449 0.10503131 0.20460531 -0.31319103 -0.091703616 -0.22919784 0.12082084 0.45914608
0.12414748 -0.006707947 -0.04606721 -0.2961842 0.08557707 0.06647244 0.15332355 0.1656289
0.0012092286 -0.12182012 -0.288712 -0.105596505 0.3308311 0.02620594 -0.19840835 -0.2750135
0.13690744 -0.19722484 -0.1959656 -0.24240379 0.09356605 -0.124788016 0.27995652 -0.15693794
0.22307657 0.14926061 -0.032314297 0.35080287 -0.07431762 -0.25819686 -0.051763095 -0.003957491
-0.13778673 0.22690469 -0.05946783 0.07800911 -0.4423026 0.15358296 0.26970983 -0.22028653
-0.048642397 0.29097366 -0.20827504 0.32417256 -0.0066794585 -0.045304038 0.018883936 -0.2354625
0.16601671 0.06053902 0.21571486 0.3579523 0.012120874 0.48574597 0.28467068 -0.32779065
-0.082094245 0.055826016 -0.10087907 0.12173479 0.01059656 -0.04184994 0.14184289 -0.17287092
-0.13372152 -0.012674795 -0.2755376 0.436312 0.09555665 -0.09571059 0.06218383 -0.08728779
0.17499173 0.2634743 0.24642578 -0.17529291 0.054094154 0.084793866 0.12357465 -0.32275328
-0.09897085 0.27378336 -0.2235128 0.055359393 0.2982663 0.119165815 -0.19191928 0.21902686
-0.08625335 -0.110728696 0.27062842 -0.042199526 0.154719 0.053034864 0.15158494 -0.35085177
-0.01731853 0.14795393 -0.05446973 -0.037330665 -0.06754595 -0.021363294 0.28645724 -0.14886217
0.03594298 0.14901724 -0.3735603 -0.0313087 0.12137687 -0.18716514 0.14114323 -0.33657497
-0.1478318 0.26412275 0.20594881 0.047975965 -0.11946521 -0.12385517 -0.2014526 0.20197499
0.14840984 0.17823333 -0.12789062 0.084905915 0.2667711 -0.36443934 0.027586557 -0.055481356
-0.25313753 -0.103724435 0.27320674 0.11133269 0.25243974 0.2872475 -0.20669106 -0.051830016
0.0018462855 0.42455953 -0.11736596 0.21922345 0.076865934 -0.104280114 -0.25083405 -0.31657398
0.19389124 0.071682796 0.24364246 0.29289928 0.07727372 -0.046552412 0.2003786 0.037090883
-0.2768277 0.20451729 -0.5788076 -0.33659256 -0.39884424 -0.021563945 -0.027024426 0.16347413
-0.032699402 0.10131269 -0.15820411 -0.1294916 0.34472537 0.35176644 -0.08737282 -0.17808457
-0.2546965 0.08371294 -0.17544861 -0.16816162 0.031085405 0.18724486 0.28327808 -0.034174696
-0.20768729 -0.28950116 0.19935772 0.17052607 0.24111296 -0.024628688 0.07468922 0.32935965
0.017144572 -0.07361707 0.24102902 -0.13534111 -0.04424691 -0.12472262 -0.007931258 -0.019708803
0.15201665 0.12390969 0.16531238 -0.060383085 0.23485328 -0.45458195 0.06488456 0.19838373
0.1871785 0.20404816 -0.12801173 -0.03092399 -0.3608905 0.15309651 0.01590999 0.23316747
0.19868335 -0.29968527 -0.15655376 -0.26836413 0.19640103 0.20551302 0.18634522 -0.24590597
-0.00858644 -0.13854116 0.13894813 -0.23256305 0.43667275 -0.01825124 0.01038971 -0.6188631
0.20795368 0.27954498 -0.26148283 -0.06219853 0.20796058 0.0047499817 -0.12791593 -0.14198904
-0.18711945 0.09563902 -0.24810767 -0.17685868 0.22514443 -0.32613397 0.28038177 0.13446838

reward_fun.0.bias f4 [200]
00000000: 7d78 9ebe 1484 26bc 96b1 a23d 674b 9cbe
00000010: ebfa 39be 5c73 253e 0fb1 28bd 33ee bc3d
00000020: 4a6c 613e 0eb3 933d e628 87be 0097 75be
00000030: 0a31 dbbc 508b 733e 38fd 6fbe 176e cf3d
00000040: d6ce 80be a6e3 3abe 81d0 843d ddfd e63d
00000050: 8f46 9dbd a98e 9a3d e956 04be 5535 bfbd
00000060: 5120 673e 454b 0abe 894c a1bd 37a0 b13d
00000070: 2002 78be bc11 f7bd 7142 1fbe 8d85 193e
00000080: 8585 7e3c 298a 1bbe 967d c93d a466 6e3e
00000090: 8e8d 60be df0b b13d 6029 3f3e b060 863e
000000a0: 324e 87be f748 04be cb24 86be 7bf6 f3bd
000000b0: f299 6c3e c821 6bbe 1b82 3dbe aaa2 c7bc
000000c0: e36d 87bd 9475 dcbc 1206 9abd b66d 1c3c
000000d0: 094c c6bc c8d4 e53c 1d5f a73c d813 c0bd
000000e0: f815 8abe c0bd 14ba c031 d53d 3674 c2bd
000000f0: 985d d63d 8bdf 92be c0c6 cabd 160b f0bc
00000100: df3f 83be 7d3a c93c 522d 9fbd 8716 9d3e
00000110: 7ea0 a6bd dc35 b33c 9f95 90be 8f3d 723e
00000120: 5245 45be fad9 23be 6608 513e 91cd d03d
00000130: f56a 8abe 1945 1dbd c007 4f3c 887d dcbd
00000140: 479c 52be 59e4 d43d 5d1e 8abe 16bb d0bd
00000150: 2ee1 7f3d 146b 023e 0f15 02be 5d6a 45bd
00000160: 15a8 f93c 148d b1bd 0c30 363e a5aa 27be
00000170: f3d7 4a3d 3098 0d3e 241c 273e 846a 173d
00000180: 6df6 b5bd f2c4 203e 4569 41be 3dda 6cbe
00000190: a35c b63d c73a 99bd e1f2 8abc a554 9b3d
000001a0: d325 963e 09c7 38be e9e5 393e 09bd 213d
000001b0: 9ff5 bdbd 679f 733d 4632 993d b017 083d
000001c0: 383e 05bd a90c 853e a3df 15be 44f6 7bbd
000001d0: 4686 623d 0802 503e 0012 35be 2643 2d3e
000001e0: 4e50 19be 7732 3fbe 1236 793c c81f 513c
000001f0: 0a13 eb3d 3575 303e fbbf 01be b54a 45be
00000200: bc11 c93d 9d3a 653e 6e6e e7bd 4bc2 30be
00000210: 5d6e 5bbd 8012 903d 4549 ffbd 2c89 523e
00000220: 1b02 a13c 4cbf f5bd 6802 02be b216 233d
00000230: 7843 563e 26f6 263e c1e4 063e c4eb e9bc
00000240: 1500 a4be f0d7 e6bd 2760 693e 4818 7fbe
00000250: 2dff 84be 5cf8 3abc 292d 84bc cff4 723e
00000260: 785e f0bd 6fee e83b 56fe f9bd 27b2 33be
00000270: ce91 2a3e 465a c8bd 9dcc a73c 2810 5ebe
00000280: 9939 853e 58c8 b43d fe3b 193e 6059 1b3e
00000290: ce55 05be 17b8 343e 35f1 253e 776c dcbd
000002a0: dc32 77bd 77fd 39be 6b3a 333e 97d4 f23c
000002b0: 38ea 52be 1ca8 9e3d c834 d83d 281c 4abe
000002c0: 262b 1c3e 5b46 86be 2845 1cbd 0f28 a03d
000002d0: 6d3e 003e 2b6b 24be 1410 c0bd e1e7 ab3c
000002e0: 69bd c8bd fe79 81bd 557a 1e3e fead 9ebe
000002f0: b4bb 3b3e 78fd 87be dd7f 983d b397 b2bc
00000300: b291 e8bd d056 36bd a29c 1ebc 8ba7 d5bd
00000310: c3ce 3cbe 07da 86bc 91ca 5ebe add8 153e
-0.309513 -0.010163326 0.07944028 -0.30526277 -0.18162124 0.16157287 -0.04118448 0.092251204
0.22013965 0.07211886 -0.2639839 -0.23983383 -0.026756782 0.23783612 -0.23436439 0.1012842
-0.25157803 -0.18250903 0.064850815 0.11278889 -0.076794736 0.075467415 -0.12923779 -0.09336344
0.22570921 -0.13505276 -0.07875926 0.08673137 -0.2421956 -0.120639294 -0.15552689 0.14992352
0.015534763 -0.15189423 0.09838407 0.23281342 -0.21928999 0.08644842 0.18668127 0.26245642
-0.26426846 -0.12918459 -0.26199946 -0.11912247 0.231056 -0.22962105 -0.18506663 -0.024369556
-0.06612756 -0.026911534 -0.07520689 0.0095476415 -0.024206178 0.028055564 0.020431096 -0.09378785
-0.26969886 -0.0005674027 0.1040988 -0.09494822 0.1046707 -0.28686175 -0.0990119 -0.029302161
-0.25634667 0.024564022 -0.07772316 0.3068125 -0.0813608 0.021876268 -0.28239152 0.23656295
-0.19264725 -0.1600112 0.2041336 0.10195459 -0.27034727 -0.038395975 0.012636125 -0.10766131
-0.20567428 0.10395116 -0.2697629 -0.10191934 0.062470607 0.1273616 -0.12703346 -0.04819714
0.030475656 -0.08669487 0.17791766 -0.1637369 0.04952235 0.13827586 0.16319329 0.036966816
-0.088848926 0.15700129 -0.18887813 -0.23130126 0.08904388 -0.07481914 -0.016961517 0.07584504
0.29325733 -0.18044676 0.1815411 0.03948692 -0.09275364 0.05947819 0.07480292 0.033225715
-0.03253004 0.2598622 -0.14636092 -0.061514154 0.055303834 0.20313275 -0.17682648 0.16920146
-0.1497204 -0.18671595 0.015210645 0.012763925 0.11478241 0.17232211 -0.12670891 -0.1926678
0.09817836 0.2238564 -0.1130036 -0.17261617 -0.053572048 0.070347786 -0.12465147 0.2056014
0.019654324 -0.119993776 -0.1269623 0.039816566 0.20924175 0.16304836 0.131732 -0.028554805
-0.32031313 -0.112716556 0.22790585 -0.24911606 -0.25975934 -0.011411753 -0.016134815 0.237262
-0.117367685 0.0071085016 -0.12206714 -0.17548428 0.16657183 -0.09782843 0.02048331 -0.2168585
0.26020506 0.08827275 0.14964291 0.15170813 -0.13021013 0.1764835 0.16205294 -0.107628755
-0.060351238 -0.18163095 0.17502753 0.029642386 -0.2059716 0.07746908 0.10556942 -0.19737303
0.15250835 -0.26225552 -0.03815189 0.078201406 0.12523814 -0.16056506 -0.09378067 0.020984592
-0.09801752 -0.06322096 0.15476353 -0.3099212 0.18333322 -0.2656057 0.07446263 -0.021800851
-0.11355914 -0.044516385 -0.009680899 -0.10432347 -0.18438248 -0.016461385 -0.2175696 0.14633437

reward_fun.2.weight f4 [200, 200]
00000000: 5296 553c 0522 813b 6098 c5bb b290 31bc
00000010: 2b7d 81bd d0c2 08bd 58c2 99be 0a43 d2bd
00000020: 06b1 f8bc 7dfb 6f3d 6957 45bd 2b3c 993d
00000030: 6f25 f0bd 7d1f bd3d 62f8 543d ebec 1d3d
00000040: c2ee 8bbd b2c8 a1bd 5f55 323c 9e53 433b
00000050: 501b 60be f978 7abc c38e 15bd ebbc a3bc
00000060: ccc3 463d 07d7 bfbd 0f45 2e3d e4e8 bd3c
00000070: ae6e 953d d618 c9bd dc4e c53d 3900 1fbd
00000080: 083e a9be 2ea6 173c 335a 983d d3b4 d43d
00000090: 4412 bfbf ea09 663d 53cc b93d 5edc 5b3d
000000a0: b9a0 34bb 7d70 3e3e 74be a1bd 77ac ecbd
000000b0: 33bd f8bc 0281 f6bc dc30 6a3c b10b 42bd
000000c0: 5402 51bd 0a68 a23c 584c 94bc 48fa c6bb
000000d0: 13df a43c 7cf4 1d3c 0cbd 7fbc b089 583d
000000e0: aaa5 03be 5fa2 643c e1dd ff3a 154b b7bd
000000f0: c998 3dbd 1152 c63c 1cbd 093d 31c3 863d
00000100: 950c 63bc 0844 9f3d ad4a f4bd 4302 983d
00000110: bfe7 1f3d 11a7 aabd 003d c5bd c2f3 49bd
00000120: 5d9a c7bc 0b82 48bd 25d9 943d 51af cfbb
00000130: f8fe 62bd eb7b c13d 38c2 d7bc 31a9 03be
00000140: bff3 bbbd ce5a ca3c 6836 dfbd 504d 233c
00000150: 12a4 7dbc 055b 19bd 8484 593c a737 803c
00000160: ee78 363d 802a 07be 979b 94bc 7b44 a03d
00000170: 4c0e ccbd a160 33bd 84c5 5abd 3974 56bb
00000180: c082 6abb 2625 443d 0870 e5bd 1946 dcbd
00000190: 6df8 283d 6d68 353d 28cc 093e b848 bd3c
000001a0: 4a25 333d 1275 b53d 6cab c5bd 89a5 843d
000001b0: b38d a9bc d612 59bd 140a 30bd 7b9a 5f3d
000001c0: 4f7c b63a 0deb 003c b567 883d bae6 933c
000001d0: 825f 96bd 6525 0d3e 2d61 0cbd da41 c43c
000001e0: 70e2 3e3d c4ba 3ebd c98d f0bd 7f31 493d
000001f0: 6047 2c3d db21 35bd 4fb7 623d 6e1a 743d
00000200: 6cec a73d 2d3b 603d 0d04 aaba 8f64 87bd
00000210: ccb6 60be 1a22 2d3d e11d d5bd 013b 283c
00000220: 643a d9bd c9af 73be bbea 9abc 5269 18bd
00000230: ae81 603d 80dc 9dbd af46 6fbd d7a7 bf3d
00000240: 07e9 4d3c fa12 263c 9f98 a13d b1c2 983d
00000250: d94f d23c b47c 75bd e75a b63b 1e24 48bd
00000260: 84a8 b9bd 46b3 013e 8ba1 103d 818d af3d
00000270: 0f2a 59bc 9955 6e3d 57a5 39bd a839 b73d
00000280: e26d b739 f09e d4bc 326c 25bd 446b 473d
00000290: c8bb bdbd 0887 1f3d e092 adbc 7ff4 a03d
000002a0: 0416 fb3d 57a8 bb3c 772f 073d c65d 82bd
000002b0: 99fa 6b3c 0011 c6bd 2f86 673d 946a f4bd
000002c0: 345e 5bbc dc67 f7bd ad41 85bd 9158 303d
000002d0: af44 6ebc 3ddc 233c 2bbe fdbc d7d6 903c
000002e0: b2d1 d0bd adc7 7c3d 0b5e a2bd 9738 423d
000002f0: 7271 38bd 4182 9c3d a8f6 8dbd c58b bf3d
00000300: 24ad ed3c 8837 35bb 6acf 3a3c ca2a 0dbc
00000310: faef e0bc 7475 6d3c 1365 123d fd3c 58bd
00000320: 1b98 3cbe f5f6 2a3d 71a4 2d3d cf01 d8bc
00000330: 4e90 7cbd 3779 b6bd 97f7 d7bc 0d44 0d3d
00000340: 5622 ac3d 03c6 bdbc 2f2a 4f3d c87a 783c
00000350: ba1b 90bd 6db5 7c3d 3c14 813d c32d 1a3d
00000360: 3f15 a03d 87b7 4cbe 0e02 7ebd 7293 59bd
00000370: 414d f33c 48f8 9f3d 4359 e8bc 396d d63b
00000380: 72e8 173d 13a0 873c c825 143d bf32 e9be
00000390: 5c0a 07bd 7f32 6dbc 3d43 0f3d 7da2 e6bb
000003a0: 22e0 18be 667c 19be 4ca0 b43d a304 c1bb
000003b0: 0b3c 363c 4090 f7bd 93d6 313c b03e 523c
000003c0: 9b6b 1a3e cf1f abbd 226d 8d3d d4e5 673d
000003d0: 3c3c d3bc 7aad 88bd 6fb1 96be 6dd9 b7bd
000003e0: a3ea 523c 2593 b53c 9bff 193d 4869 093e
000003f0: 8230 723d ea1e 223d 59d2 443c 82d7 c23c
0.013036327 0.003940823 -0.0060301274 -0.010837721 -0.06322702 -0.033388913 -0.30031085 -0.10266693
-0.030357849 0.058589447 -0.048179064 0.07482179 -0.1172589 0.092345215 0.05199469 0.03855602
-0.06832649 -0.07899608 0.010884612 0.0029804478 -0.21885419 -0.015287631 -0.0365131 -0.019987544
0.04852657 -0.09367185 0.04254633 0.02318234 0.07296501 -0.0981919 0.09634182 -0.03881857
-0.3305514 0.009255929 0.07439079 0.10386052 -1.4927449 0.0561618 0.09072175 0.053676955
-0.0027561618 0.18597598 -0.07897654 -0.115563326 -0.030363655 -0.030090813 0.014293876 -0.04737443
-0.05102761 0.019825 -0.01810281 -0.0060723163 0.020125901 0.009640809 -0.015609037 0.052865684
-0.12856165 0.013954728 0.0019521081 -0.08949868 -0.046288285 0.024209054 0.033627614 0.065801986
-0.01385798 0.07776648 -0.11928306 0.074223064 0.03903937 -0.08332647 -0.096307755 -0.04930473
-0.024365598 -0.048952144 0.072679795 -0.006338038 -0.05541894 0.094474636 -0.026337728 -0.1285751
-0.0917735 0.024701502 -0.10899049 0.009967163 -0.015481012 -0.03744032 0.013276223 0.015651537
0.04454892 -0.13199806 -0.018140597 0.078255616 -0.099636644 -0.043793324 -0.05341102 -0.0032723083
-0.00357835 0.04788699 -0.11203009 -0.107555576 0.041252542 0.04428904 0.13456786 0.023105964
0.043736733 0.0886022 -0.09651837 0.06476886 -0.02069745 -0.05299648 -0.04297836 0.054590683
0.0013922545 0.0078685405 0.066604055 0.018054355 -0.073424354 0.13783796 -0.03427236 0.023957182
0.046602666 -0.046564832 -0.11745793 0.04911947 0.042060256 -0.04422174 0.055350598 0.059595518
0.08199391 0.054743934 -0.0012971178 -0.06610977 -0.21944731 0.04226885 -0.104060896 0.010267974
-0.1060684 -0.23797525 -0.018910756 -0.037209816 0.054811172 -0.07708073 -0.05841702 0.09358185
0.012567765 0.01013636 0.07890438 0.074590094 0.02567284 -0.05993338 0.0055650356 -0.04886257
-0.09065345 0.12666044 0.03531031 0.085719116 -0.013254656 0.0581871 -0.045323696 0.08946544
0.0003498635 -0.025954694 -0.040386386 0.04868628 -0.09264332 0.038947135 -0.0211882 0.07859134
0.122600585 0.02290742 0.03300425 -0.06365542 0.014403009 -0.09671211 0.05652445 -0.11934391
-0.013389159 -0.120803565 -0.06506667 0.043053214 -0.014542743 0.010001239 -0.030974468 0.017680569
-0.10196246 0.061713863 -0.079280935 0.04741725 -0.045030065 0.076420315 -0.069318116 0.09352831
0.029013224 -0.0027651507 0.01140199 -0.008616159 -0.02745818 0.014493335 0.035740923 -0.052792538
-0.18417399 0.041739423 0.04239315 -0.02636805 -0.061661057 -0.08909839 -0.026363177 0.034488726
0.084049866 -0.023165708 0.05057734 0.015165992 -0.070365384 0.06169646 0.063026875 0.037641298
0.07816552 -0.19991885 -0.06201368 -0.05311913 0.029699923 0.07811028 -0.028362876 0.006543782
0.03708691 0.016555822 0.036168844 -0.4554653 -0.032968864 -0.014477371 0.034976233 -0.007038413
-0.1492925 -0.1498886 0.08819637 -0.0058904453 0.011122714 -0.120880604 0.010854381 0.012832329
0.1508011 -0.083556764 0.06905581 0.056615666 -0.025785558 -0.06673713 -0.29432246 -0.089770176
0.012873325 0.02216489 0.03759728 0.13419068 0.059128292 0.039580263 0.012013041 0.023784403
