experiments/data/sawyer_clutter_200steps_10H/sac/2021-06-22_10-11-55_clutter_200steps_10H/policy_1800.pt (torch_old, 75801 bytes, 6 tensors)

mu.0.weight f4 [128, 12]
000000 a4 0a ca bc 0e cf 93 3d 27 d3 b2 3d b7 db 3e 3e
       -0.024663277 0.07217227 0.0873168 0.18638502
000010 8c 36 14 3c 54 1d 8a 3e 94 90 6d bd 56 db 07 3e
       0.009046208 0.269755 -0.05799921 0.13267264
000020 55 bf 45 3c c9 77 56 3e 77 d1 ac bd 25 8d 4a be
       0.012069543 0.20944132 -0.0843839 -0.19780405
000030 6d 06 b4 3d ca c2 8f be 21 91 f4 bc 66 24 9d 3d
       0.08790288 -0.280783 -0.02985436 0.07672958
000040 f5 fe 3b 3e c7 c2 93 3d 9f 63 7d 3e fc 78 d7 bd
       0.18358977 0.07214885 0.24745034 -0.10521123
000050 ee 19 c4 3b 91 e3 83 3e 44 89 62 3e 56 6c 8b be
       0.0059845364 0.25759557 0.22122675 -0.2723109
000060 0a e8 63 be 6d 74 03 be 1d b3 50 3e a3 32 71 be
       -0.22256485 -0.12837382 0.20380826 -0.23554473
000070 06 ce 65 3e 37 80 44 be 81 3f 79 3e 74 ee ba bc
       0.22441873 -0.19189535 0.24340631 -0.022818781
000080 73 40 10 bd 3f 02 19 bd 9b bb 8d 3d ed 13 bf 3c
       -0.035217714 -0.037355658 0.069205485 0.023324931
000090 b6 15 4e 3d e6 22 48 bd 81 4f 5a be 19 f2 63 3e
       0.050313674 -0.048861407 -0.21319391 0.22260322
0000a0 d9 54 67 3e 74 2e 3d be 73 65 76 3e 5f 6c 36 3e
       0.2259096 -0.18474752 0.24062137 0.17814778
0000b0 eb 10 0b 3e 09 1d cf bb fd bb bb bd ac 38 98 bd
       0.13580672 -0.0063206 -0.09166715 -0.07432684
0000c0 f3 d5 bf bd 13 3e 86 3e d9 f4 a4 3d 75 90 d3 bd
       -0.093669794 0.26219234 0.080545135 -0.10330287
0000d0 76 62 6b 3e cb 90 54 bd f5 b2 46 3e 53 3e 2e be
       0.22986779 -0.051895898 0.19404204 -0.17015962
0000e0 f1 d7 84 3e a6 01 f6 3c dd a1 5f 3c 7f 17 09 bd
       0.25946 0.030030083 0.013649431 -0.033469673
0000f0 f6 f9 49 bb c2 ec 22 3e 82 21 67 bd 99 cb 79 be
       -0.0030819154 0.15910628 -0.05642844 -0.24394073
000100 39 49 bb 3d f8 77 26 be 33 ea 90 3e 78 e9 2f be
       0.091448255 -0.16256702 0.2830368 -0.17178905
000110 e4 ba 41 be f7 49 f1 3d b5 a6 47 3e 3e 27 20 3e
       -0.1891895 0.11781686 0.19497187 0.1563997
000120 74 56 90 3d 15 43 fe 3d 22 f4 78 be 9e ac 0e bd
       0.070477396 0.12415139 -0.2431188 -0.03483259
000130 04 62 48 3c 66 13 f4 3c 9e 17 e6 bd 2d a4 65 3e
       0.0122304 0.029794406 -0.11234973 0.2242591
000140 73 12 58 3e 61 3e c1 bd b2 8e 92 3e 59 9b 8b 3e
       0.21100788 -0.09435726 0.28624493 0.27266958
000150 d9 e2 21 be f4 07 6a 3e 5b 25 0f bd aa a3 bb bd
       -0.15809192 0.22854596 -0.034947734 -0.09162076
000160 24 48 8c be 70 57 2c be ae 4e 10 3e a6 06 8c 3e
       -0.2739879 -0.1683023 0.14092514 0.27348822
000170 81 07 48 be a3 37 a2 bd 7f b6 25 be 95 8a 99 bd
       -0.19534113 -0.07920768 -0.16182898 -0.074971355
000180 86 25 96 bc fd 4c db bd 56 36 2b 3e 73 63 0f be
       -0.01832844 -0.10708044 0.16719946 -0.1400278
000190 23 29 00 bd be e9 4f 3d 29 a8 5e 3e 50 ff 2a 3e
       -0.03128923 0.050760023 0.21743836 0.16698956
0001a0 d7 b8 83 3e 73 14 36 be 07 d0 13 3d 66 db ff bd
       0.2572696 -0.17781238 0.036087062 -0.12493019
0001b0 8f 76 0b 3e 63 6d de bd 54 dd 08 3e 08 d8 d9 bd
       0.13619445 -0.108607076 0.1336568 -0.10636908
0001c0 07 42 e7 bd e3 67 c9 bc 99 34 36 be b9 2c ca 3c
       -0.112918906 -0.02458567 -0.17793502 0.024679529
0001d0 22 25 a7 3d 6c be 8a 3d 08 8d 95 bd 40 ba 24 3e
       0.081613794 0.06774601 -0.0730229 0.16086674
0001e0 ea 9c da bc 9b e6 ca bd 1e a0 13 be 87 4a 38 be
       -0.02668615 -0.09907266 -0.14416549 -0.1799718
0001f0 8d 0a 12 3e aa a3 2d be b9 5f 5a be 78 e4 3d be
       0.14261837 -0.16956964 -0.21325578 -0.18544185
000200 6f e1 0a be cb e5 73 3e f3 71 4e 3e c9 0e 8b be
       -0.13562559 0.23818128 0.20160656 -0.27159718
000210 94 87 21 be 07 8e 0d 3d 69 78 34 3e 4b f7 45 3e
       -0.15774375 0.034559276 0.17624058 0.19332616
000220 7c 7a 9d 3d 58 68 26 be 14 dd 2d 3e 85 6c 06 be
       0.07689378 -0.16250741 0.16978866 -0.13127334
000230 1d a0 10 be 83 c0 a4 3c 84 55 72 be 2f c1 22 3e
       -0.14123578 0.020111328 -0.23665434 0.15894006
000240 a3 35 44 be 23 04 3a 3e e5 0e 5b 3e 16 04 42 be
       -0.19161086 0.1816564 0.213924 -0.18946871
000250 c6 9b 7c 3d 1f d5 7d 3d 03 85 6c 3e aa c3 c9 bd
       0.061671995 0.061970826 0.23097615 -0.09851773
000260 c5 f4 32 3e eb 79 85 3d 26 9f 82 be af c6 dd bd
       0.17476185 0.06517395 -0.25512046 -0.108289115
000270 fe 41 56 bc 79 ca 5d 3e 3b d5 87 3e 19 29 f0 bc
       -0.013077257 0.21659268 0.2652987 -0.029316472
000280 f3 4f 1a be 87 78 7b 3e 80 ba 1c be 8f c2 83 3d
       -0.1506956 0.24557696 -0.15305519 0.064335935
000290 b1 9d df 3d f3 3f 89 be e3 6f ba bd 7a 05 54 bd
       0.10918749 -0.26806602 -0.09103372 -0.051763035
0002a0 a7 41 70 be 0e 9c 38 3e 4c b5 0f bd c7 f9 66 3d
       -0.23462544 0.1802828 -0.035085008 0.05639055
0002b0 43 5e 90 3b 5f 7c 9d bd ac 6a 7a be 24 46 ab b8
       0.004405768 -0.076897375 -0.24454755 -8.16698e-05
0002c0 4b 42 8d be 99 1b 69 be 4f ce af bd 26 3d d4 bd
       -0.2758964 -0.22764434 -0.08584272 -0.10363226
0002d0 67 df 23 be b4 d0 fe bd 1d ac 5b 3e a3 e9 1c bd
       -0.1600319 -0.12442151 0.21452375 -0.03830875
0002e0 cd 6f 41 be 40 bf fa 3d f7 25 15 bd 47 2c 70 be
       -0.18890305 0.12243509 -0.03641316 -0.2345439
0002f0 50 f5 37 be 61 3d db 3d 03 01 c0 bc f4 e0 fe bb
       -0.17964673 0.107050665 -0.023437982 -0.0077782813
000300 6a b0 70 be ad 0c 26 3d 7a 57 4b 3d 31 9b 8c 3e
       -0.23504797 0.040539432 0.04964397 0.27462152
000310 73 10 2d be 0e f6 0a 3e 35 b3 1c be bb a6 f4 bd
       -0.16900806 0.13570425 -0.15302737 -0.11945864
000320 1d de 1d be d9 63 21 be bc 34 6a be fb 7d 33 3e
       -0.1541676 -0.15760745 -0.22871679 0.17528526
000330 ca c3 34 3e 4a 88 40 bd 70 08 b4 3d 05 6a 3b 3e
       0.17652813 -0.047004975 0.08790672 0.18302162
000340 89 55 61 bd e6 23 8b 3e fa 57 6a 3e ad 3d 73 be
       -0.055013213 0.27175826 0.22885123 -0.23753996
000350 5b c7 86 be a2 a6 64 3d c5 c1 33 be 14 32 32 be
       -0.2632397 0.055822976 -0.17554386 -0.17401916
000360 1b a3 82 3e 5f 4f 55 bd f5 f9 05 3e 59 3d 4b 3e
       0.25515065 -0.052077647 0.13083632 0.19847621
000370 4b b5 20 3e 58 3c 4d be a8 f4 02 bc 3e 35 93 3e
       0.15694158 -0.2004255 -0.007992901 0.28751558
000380 f9 3e b2 bd c5 6a 8a be a0 16 a4 3d 71 bd 44 be
       -0.08703417 -0.27034584 0.08012128 -0.19212891
000390 cd d6 2f 3e 17 98 05 be a2 ca ea bd ad b4 40 be
       0.17171784 -0.13046299 -0.114644304 -0.18818922
0003a0 73 33 12 be b5 31 c5 3b 21 2e 96 3c 94 01 7d be
       -0.14277439 0.0060178884 0.018332543 -0.24707633
0003b0 f3 31 68 3c d1 4f 2f bc 4f 46 2e be b8 79 81 be
       0.014172065 -0.010700182 -0.17019008 -0.25288177
0003c0 11 f1 87 3e 58 33 13 be 5f ad 18 bd a2 93 3a be
       0.26551107 -0.14375055 -0.037274715 -0.1822038
0003d0 82 95 a6 bd b1 a9 89 3e ae 03 2b be 37 47 83 be
       -0.08133985 0.26887277 -0.16700622 -0.2564027
0003e0 72 ca eb bd 49 c6 19 be 0a ba 00 3d a8 5c dc bb
       -0.11513223 -0.15017046 0.03142742 -0.0067249127
0003f0 5e 34 1f be 67 be be bc 02 90 c9 3d 69 f8 69 be
       -0.1554732 -0.02328415 0.098419204 -0.22848667

mu.0.bias f4 [128]
000000 80 c4 c5 3d 5b ec 88 3c c2 04 8b be 94 23 78 3e
       0.0965662 0.016714266 -0.27152067 0.24232322
000010 06 64 94 be 39 ad 7b be 21 ec 1d be 50 53 8d 3c
       -0.28982562 -0.24577798 -0.15422107 0.01725164
000020 6f fd e9 3d 15 fd 82 bd 92 b8 6e be 48 83 95 3c
       0.11425292 -0.06395928 -0.23312595 0.018251076
000030 85 79 2c bd 36 26 c1 bd 01 f5 97 3e a3 1d 87 3e
       -0.042108078 -0.09431116 0.2967911 0.263898
000040 ee b2 1d 3e b4 49 1e 3e 65 27 4f be d2 6c 73 3e
       0.15400288 0.15457803 -0.20229872 0.2377198
000050 df 87 54 3d b4 a8 61 bd f4 ff 05 3e 15 b9 cf 3d
       0.05188739 -0.05509253 0.1308592 0.101427235
000060 45 5f 7c 3e 77 e7 86 be 97 f4 8c be 82 ac 4f be
       0.24645717 -0.2634847 -0.27530357 -0.2028065
000070 8e 48 29 be 1f af 33 3e 0e dc 95 3e f2 db fc bd
       -0.16531584 0.17547272 0.2926945 -0.12346639
000080 da cb 85 be 13 03 82 3d 9e 57 75 3d f4 b4 1c bd
       -0.2613209 0.063482426 0.05989801 -0.038258508
000090 54 7c a8 bd 3d 57 79 be 2d 84 98 3d 93 94 04 3e
       -0.08226839 -0.24349685 0.074470855 0.12947302
0000a0 87 04 2d 3e 44 98 ef bd a6 51 24 3e d9 b7 5d 3d
       0.16896258 -0.11698964 0.16046771 0.05413041
0000b0 fc 64 8f 3e 0d 80 87 3d 0e 24 2e be e8 97 85 be
       0.28006732 0.066162206 -0.17005941 -0.26092458
0000c0 04 25 23 3e e7 8c 82 bd ba b0 55 3e fb 77 86 3e
       0.15932089 -0.06374531 0.20868197 0.26263413
0000d0 e0 90 1f 3e 7a cb 03 3e 87 ed ca 3b ff 35 3d 3e
       0.15582609 0.12870589 0.0061928662 0.18477629
0000e0 25 e2 73 3e 95 f8 2d 3e 7b 69 a7 bb f4 7a 87 be
       0.23816736 0.16989358 -0.00510901 -0.26460993
0000f0 5f 10 54 3e 7c 67 28 3e 6b e8 41 be 04 66 3c be
       0.2070937 0.16445726 -0.18936317 -0.18398291
000100 8e 12 dc bd b0 a7 42 be 20 57 3b be f2 0e 81 be
       -0.107457265 -0.1900928 -0.18294954 -0.25206715
000110 89 c1 c6 3d ad 65 af 3d 33 38 8b be 10 82 0a be
       0.09704883 0.08564315 -0.27191314 -0.13526177
000120 85 4f 36 3e 3d 4d 13 3e fb 45 88 be 9b 7d 04 3e
       0.17803772 0.14384933 -0.2661589 0.1293854
000130 6d 7b 04 be 66 77 22 be e9 2f cd 3d 21 32 c6 3c
       -0.12937708 -0.1586586 0.10018904 0.024193825
000140 14 44 89 be 84 8e 92 3e da 49 68 3d de 89 0e 3c
       -0.26809752 0.28624356 0.056711055 0.008699862
000150 92 09 2e 3e c1 fc d7 bc c5 88 fa 3d fb ce 84 3c
       0.16995838 -0.02636564 0.12233118 0.016211977
000160 7b 46 b4 bd e5 24 54 bc cb 62 50 be 46 3f 04 bd
       -0.088025056 -0.0129482495 -0.20350187 -0.032286905
000170 d1 6f 24 bc 2f e3 b6 3d 13 ac 3d be ed 96 27 3e
       -0.010036425 0.089300506 -0.18522672 0.16366167
000180 5b 80 78 3d 58 d4 78 3e 99 55 dc bd 4f 55 34 3e
       0.060669284 0.24299753 -0.10758514 0.17610668
000190 39 17 26 be 01 98 60 be 38 45 8b be 33 7c 5e be
       -0.16219796 -0.21932985 -0.27201247 -0.21727066
0001a0 8b 15 39 be f3 2b 3c 3e 88 80 85 3e ea d8 1f be
       -0.18074624 0.1837614 0.26074624 -0.1561009
0001b0 32 e6 4f 3d 89 68 89 3c 17 4c 93 be 51 e9 23 be
       0.05075664 0.016773479 -0.2876899 -0.16006972
0001c0 58 49 b5 3d 6d dc 41 bd 6e 5f 90 be a0 f3 03 3e
       0.0885188 -0.047329355 -0.28197807 0.12885904
0001d0 4d 1e 85 be 45 f0 d7 3c a0 0f be 3d 14 58 6d 3e
       -0.2599968 0.026359687 0.09280324 0.2317813
0001e0 36 9a 8f 3e f4 45 73 be 4e f4 16 3e 4a 55 8c 3e
       0.2804734 -0.23757154 0.14741632 0.2740882
0001f0 84 45 11 3e df 60 83 bd 05 9c 16 3e 94 f6 39 3e
       0.14186674 -0.06414961 0.14707954 0.18160468

mu.2.weight f4 [128, 128]
000000 c4 90 ad 3d c9 ef a9 bd a9 f8 93 3c f2 a9 6f bd
       0.084748775 -0.082976885 0.018062906 -0.05851168
000010 f7 14 56 3d 7c f5 b6 bc e5 be 83 3d cd 92 e2 3c
       0.052266087 -0.022333853 0.064328946 0.02765789
000020 c7 35 37 3d f4 74 88 bc 90 7e bd bd 37 95 0b 3d
       0.04472902 -0.01665733 -0.092526555 0.03407785
000030 24 d6 9b bd 0f bf 1b 3b 13 17 ad 3d 79 f6 a9 bd
       -0.076092035 0.0023765003 0.08451667 -0.08298964
000040 f9 9a 0c 3b 4c b1 44 bd 42 3f 16 bd 9a b3 4d bd
       0.0021454676 -0.048020646 -0.03668142 -0.05022011
000050 61 3c d3 3c dc 54 8b 3d a9 ca f4 bc 79 12 b7 bc
       0.025785627 0.06803295 -0.029881792 -0.022347676
000060 38 1d b6 3c ca d9 ff bc 39 3c 1b 3d 0d f7 99 3c
       0.02223073 -0.03123178 0.03789923 0.01879456
000070 5b 52 79 bd 69 29 94 bd 6a ff a7 3d 92 91 d9 3c
       -0.060869556 -0.07234461 0.08203013 0.026558671
000080 77 c0 36 3c 5d c8 e8 bc 80 0c a4 bd 92 2e 4e 3c
       0.011154286 -0.028415853 -0.08010197 0.012584345
000090 cf 4f be 3b 6d 99 21 3d c7 a2 60 3d 86 85 43 3d
       0.005807854 0.03945296 0.054842737 0.04773476
0000a0 58 2b cf 3d d2 f6 4c bc 9c 01 ce 3b b6 1c 78 bd
       0.10115689 -0.012510018 0.006286813 -0.060574256
0000b0 74 85 13 3d 34 76 16 bd 7d 80 4b 3d 40 d5 81 3c
       0.036015943 -0.03673382 0.049683083 0.015848756
0000c0 5f 0d ae 3d 47 b4 95 bd 63 68 a7 bd f5 4e 37 3d
       0.08498644 -0.07309776 -0.08174207 0.044753034
0000d0 93 8b 85 3d fe df 8b 3c 77 8c 05 bd 09 09 bc bb
       0.06520762 0.017074581 -0.03260466 -0.0057383818
0000e0 81 d2 57 3d 3e 42 e8 bc f2 09 11 bd 04 82 a5 3d
       0.052690987 -0.0283519 -0.035409875 0.08081439
0000f0 c0 4f ef 3c d9 ee 32 ba 58 77 0e 3d d0 60 6e 3d
       0.029212832 -0.0006825752 0.034781784 0.058197796
000100 69 21 c9 bc dd d9 2a 3d d1 57 34 3c 0a 65 a6 bd
       -0.024552064 0.041711677 0.011007265 -0.081247404
000110 39 54 fb bc c9 cb ea 3b d4 0c 82 3d 61 74 9b 3d
       -0.030679809 0.0071654064 0.06350103 0.07590557
000120 c2 11 82 bd d5 ab 7a 3d c3 78 5e 3d d7 84 c5 3c
       -0.06351043 0.061199028 0.054314386 0.024111195
000130 6d 3b e4 bc 85 3e 1c bc 6d 0b bd bc 42 04 33 bd
       -0.027860368 -0.00953639 -0.023076737 -0.043705232
000140 a9 eb 98 bd 5b 23 0f 3c 6c 25 fb 3c 5f a9 ce 3c
       -0.074668236 0.008736457 0.030657493 0.025227247
000150 ee a9 01 bd 92 5e ab 3d 42 e6 ac bd 43 e2 8c 3d
       -0.0316562 0.08367647 -0.08442356 0.068790935
000160 09 6b 8c 3d e4 35 82 bd 4f 4f a1 3d 2b 4c 1e bd
       0.06856353 -0.06357935 0.07876455 -0.03864686
000170 50 6d 91 3d fe a7 84 bc 95 e1 13 3d 03 0f 8e bd
       0.07100928 -0.016193386 0.036103804 -0.06936457
000180 ea 82 3c bc b4 bb 8f 3d b0 df cd 3b 20 c7 41 3c
       -0.011505822 0.070182234 0.006282769 0.01182726
000190 d5 c1 ad 3d ab 26 a8 3d a4 66 dd bc e2 6b 27 3d
       0.08484236 0.082105 -0.027026482 0.04087437
0001a0 af 48 a8 bc c7 5d b8 bc 4e 72 88 bd ad b0 be 3c
       -0.02054247 -0.022505654 -0.06662427 0.023277605
0001b0 e8 2f 9b 3d 45 51 93 3c 5f 06 a2 3d f7 1a 9b 3c
       0.07577497 0.017983088 0.079113714 0.018933756
0001c0 59 77 a3 bd 2b 77 85 bd ed 7d 92 bc f3 11 35 3d
       -0.07981748 -0.0651687 -0.017882312 0.04420657
0001d0 8a 31 97 3d 30 0b 63 3d 1f a0 85 3d ec c6 1c 3d
       0.07382496 0.05543059 0.06524681 0.038275644
0001e0 74 93 6a bd a2 18 f5 3c d6 1d 5b bc 24 e4 d1 3c
       -0.05726953 0.029918972 -0.013373813 0.025621481
0001f0 56 3d dd bc 35 a7 93 bd ec c7 ab bd ad 2d 0f 3d
       -0.027006786 -0.072096266 -0.083877414 0.03495567
000200 70 c9 2e bd 7a 3f 3a bd a2 3e 27 bd a2 d1 fc bc
       -0.042672575 -0.045470692 -0.040831216 -0.03086168
000210 50 cd 99 3d 2d 0f e2 bc e8 49 22 bc 34 5d 0e bd
       0.075098634 -0.027595127 -0.009905316 -0.034756854
000220 a5 b5 b5 3d fa 8f 9a 3d bf 08 87 bd b3 bd 98 bd
       0.088725366 0.075469926 -0.06593465 -0.07458057
000230 6d 06 16 bd ef 4e 1d bd 40 21 ec bc 96 39 87 3b
       -0.03662722 -0.038405355 -0.028824449 0.004126738
000240 b6 02 7d 3d e9 a3 9b 3d fb e0 e8 3c 54 8e 88 3c
       0.061770163 0.07599623 0.028427592 0.01666943
000250 bc 94 0c bb a1 da 71 bc ea 05 6c bc 79 b4 87 3a
       -0.0021450957 -0.014761598 -0.014405707 0.0010353468
000260 40 ff 48 3d 5a 38 98 3d a4 67 ed bb 17 17 7a bd
       0.04907155 0.07432623 -0.007245021 -0.061057176
000270 ac 97 af 3d 7f d2 b2 bd 9a df aa 3d e3 66 f0 3c
       0.08573851 -0.08731555 0.0834343 0.029345935
000280 1c 91 5f 3d e2 ab 17 3d 4b c3 bf 3c 4e 94 60 3d
       0.054581746 0.037029155 0.023408553 0.054828934
000290 ed 65 09 3c d3 f5 9d 3d e7 e0 9a bc 8d 23 93 3d
       0.008386117 0.07712903 -0.01890607 0.07184515
0002a0 b3 d2 c6 3c 61 68 a6 bd 94 40 51 3d 4b 4e 5b 3c
       0.024270391 -0.081253774 0.051086977 0.013385366
0002b0 db ed 03 3d 4d ae 9e 3d 48 a5 81 3b e4 62 5b 3c
       0.03220926 0.07748089 0.0039564706 0.013390277
0002c0 b5 23 1d bd 67 37 12 bd 77 13 0a 3d fa cc 3d 3d
       -0.03836413 -0.035697367 0.03370997 0.04633806
0002d0 f5 fc b2 3d aa d0 fc bc 65 a3 10 bd f2 5e 8f 3d
       0.08739654 -0.030861218 -0.035312075 0.07000531
0002e0 45 47 3b bd a4 6f bd 3d da 83 01 bd bc fa be 3d
       -0.045722265 0.092498094 -0.031619884 0.093251675
0002f0 2a 02 94 3c fd 4d fd bb d9 34 79 3c e3 5c b8 3b
       0.018067438 -0.007730244 0.015210354 0.0056263073
000300 17 62 c5 bd b2 99 c8 bc 79 d6 a0 bd d4 83 7e 3c
       -0.0963785 -0.02448735 -0.078534074 0.01553436
000310 e5 dc 08 bd 88 be 9d 3d 76 b5 19 3c 72 3e 90 3d
       -0.033413786 0.077023566 0.009381643 0.070431605
000320 3a bb b3 bd 6c 46 8c 3c 38 5c fa 3a 09 34 73 bd
       -0.08775945 0.017123424 0.001910097 -0.059375796
000330 21 1a 79 3d dd b1 7d bd ef 80 6e bd c1 f0 b9 3d
       0.060815934 -0.0619372 -0.05822843 0.09079123
000340 96 7b 83 bc e9 cf 1e bc 32 86 a6 bc bb 81 bf bd
       -0.016050141 -0.009693124 -0.020327661 -0.09350916
000350 91 22 2e bd e9 66 ad bd 38 5f de bc f3 18 61 bd
       -0.042513434 -0.08466894 -0.027145013 -0.054955434
000360 96 1d 99 3c b9 80 9e bc d8 db 35 bd 3e 0c be ba
       0.018690865 -0.01934849 -0.044399112 -0.0014499498
000370 1b 4b e8 3c fc aa ed 3c 1e d1 98 3d 2b 21 aa bd
       0.028356126 0.029012196 0.07461761 -0.083071075
000380 6e 11 80 3d 42 8b 86 3d 2c 54 3d bc 83 2e c0 ba
       0.062533244 0.0656953 -0.011555713 -0.0014662299
000390 0c 82 ab bd 28 1f ab bd 5a ff 76 bd 90 6c 46 bd
       -0.08374414 -0.08355552 -0.060302116 -0.048443377
0003a0 b6 cd b1 3d 4b b5 ae 3d 16 5a 75 3d 2f ee 2f 3d
       0.086818144 0.08530673 0.059900366 0.04295176
0003b0 8c e6 1f bd f7 7b 5d 3d 2b 1f 61 bd e9 3e 89 3d
       -0.039038226 0.0540733 -0.054961365 0.06701452
0003c0 98 34 a1 bd 9a 69 bf 3c 39 94 ba bd 3a f7 67 3d
       -0.078713596 0.023365784 -0.091103025 0.056632258
0003d0 fc 01 7c bc 08 dd a0 3d 47 91 27 bd 21 49 98 bd
       -0.0153813325 0.07854658 -0.04091003 -0.07435823
0003e0 5b b0 87 bd a9 05 02 bd 31 90 93 bd 17 38 a9 3a
       -0.06625434 -0.03174368 -0.07205237 0.0012910393
0003f0 f1 d1 70 3d d3 7d 2e 3d 57 8d 15 bd 85 61 a2 3c
       0.058793966 0.042600464 -0.036511745 0.019821892

mu.2.bias f4 [128]
000000 d7 bb af 3d c8 2e 6f bc 81 9e fd 3c 72 c1 9c 3d
       0.085807495 -0.014598556 0.03095937 0.07654084
000010 21 72 7b 3d 2e 08 ea 3b 19 a7 77 3d f2 93 46 bd
       0.06138814 0.0071420884 0.06046209 -0.048480935
000020 88 f6 ca bc b8 3f de 3c 20 8d 84 3d 14 e9 1d 3d
       -0.024775758 0.027129993 0.0647223 0.03855236
000030 2e 14 87 3b e4 bd a5 3d e1 7d 15 3d af 42 70 3d
       0.0041222787 0.080928594 0.036497 0.058657344
000040 dd 64 48 3c bd f3 b1 bd a4 1b 0b 3d 9f 53 2c 3d
       0.012231079 -0.086890675 0.033961907 0.042071935
000050 73 60 83 bd 61 b5 f1 bc d1 0e e4 bb 5e 65 4f bc
       -0.064148806 -0.029505434 -0.006959774 -0.012658445
000060 a2 34 4f bc 81 9e 50 3c c0 d8 43 3d 18 4b 96 bd
       -0.012646826 0.012733103 0.04781413 -0.07338542
000070 38 18 d6 bc 34 4f 5e bd cb 10 4e 3d 17 09 a4 3d
       -0.026134595 -0.054274753 0.050308984 0.08009546
000080 ae 1e 19 bd 9c 39 4c 3c 9a 71 72 bd 01 54 54 3d
       -0.037382774 0.012464907 -0.05919037 0.051837925
000090 a4 45 74 bd 11 85 b4 bc 57 4e 43 bd 9c 10 0e 3d
       -0.059636727 -0.022036107 -0.047682133 0.03468381
0000a0 49 1a b1 bd af e2 9b 3d 80 21 15 3d 48 40 7b 3d
       -0.086475916 0.07611596 0.0364089 0.0613406
0000b0 50 8e aa 3d 8b 1e 89 3d ab 80 b9 3c d2 41 8e bd
       0.08327925 0.06695279 0.022644361 -0.06946148
0000c0 4e 91 ab bd 7e 13 b7 bd 5f 21 94 3d 61 d4 6d 3d
       -0.08377324 -0.08939265 0.072329275 0.05806387
0000d0 81 b9 5c bd e4 19 a8 bb 9c 44 cf 3c 98 c2 bb bd
       -0.053887848 -0.0051300395 0.02530127 -0.09167975
0000e0 20 64 12 bc ce 9a aa 3b a1 34 c8 bc eb df 7d bc
       -0.0089350045 0.0052064424 -0.024439158 -0.015495281
0000f0 a0 c5 13 bc dd 23 a2 bb 59 9e 02 bd 5b dd 8a 3d
       -0.009019285 -0.004948123 -0.031889293 0.067805015
000100 ab 24 b6 3d 88 57 6d 3d c0 b0 e8 3c 66 c7 d4 3c
       0.088937126 0.057944804 0.028404593 0.025973987
000110 14 2c 00 bd 6e 20 91 bd 13 92 af 3d 05 41 40 3c
       -0.031292036 -0.070862636 0.08572783 0.011734252
000120 94 b6 9b bc 1c a6 0e bd 5e 4e ca bc ab be 85 3c
       -0.019007958 -0.034826383 -0.024695572 0.01632627
000130 7c a8 9d bd 4d 71 4c 3d de 49 96 3d 25 2d 1d 3d
       -0.076981515 0.04991274 0.07338308 0.03837313
000140 3a b4 7d bb b0 37 4a bd 05 ef 2f 3d 85 e8 6a bd
       -0.003871216 -0.049369514 0.042952556 -0.057350654
000150 5a 9c 88 bd ca d7 91 3c 4b ea 90 bb 0d 10 43 bd
       -0.06670447 0.017803092 -0.004422461 -0.04762273
000160 f2 f4 12 bc d9 dd 1a bd 53 0b 19 bd db d7 8e bc
       -0.008969532 -0.037809227 -0.037364315 -0.017436912
000170 5f 28 bd 3c 20 93 59 bd 70 31 cb bb 8d 2d 79 bd
       0.02309054 -0.053118825 -0.006200962 -0.060834456
000180 6c 3f 84 3c 22 aa 9b bd 1c 2d c3 bd 5e 8a a8 3c
       0.016143523 -0.0760081 -0.09530088 0.020573791
000190 04 02 8e 3d f7 d7 5b bb 63 ce 7f bd b1 be 73 3d
       0.06933978 -0.0033545473 -0.062452685 0.05950803
0001a0 86 3c 3a 3d 43 43 3e 3c 33 69 ec 3c a8 7c 23 3c
       0.045467876 0.011612716 0.028858757 0.009978451
0001b0 77 a6 61 bd c9 7e c6 3d 26 0c 34 bd ee 5e ca 3d
       -0.055090394 0.09692151 -0.0439569 0.09881388
0001c0 32 7d 4f bd 40 87 29 bd 00 93 0c bd 19 20 31 bd
       -0.050656505 -0.04138875 -0.034319878 -0.0432435
0001d0 ff 93 8c 3d be 62 84 bd ed 25 3a 3d 9e 7b f8 3c
       0.068641655 -0.06464146 0.045446325 0.030332383
0001e0 4a a4 68 3d 4f 11 9f bc e6 ee 8a bc 3c 55 c3 bc
       0.056797303 -0.019417433 -0.016959619 -0.023844354
0001f0 a8 5a a9 3d 4f 1e ab 3d ed b4 01 bd 1d d4 4b bd
       0.082692444 0.0835539 -0.031666685 -0.049762834

mu.4.weight f4 [4, 128]
000000 4a 69 ce bb b3 bd 1f 3c 8c 44 d0 3b b3 79 13 3b
       -0.0062991725 0.009749818 0.0063558277 0.0022502958
000010 15 54 e4 3a cc b5 05 3c c6 28 40 3b 4b 0f 10 3c
       0.0017420078 0.0081610195 0.0029321178 0.008792709
000020 1f 0f 82 3b 2b 54 06 ba 16 4e 7d bb d5 f4 81 3a
       0.0039690877 -0.00051242363 -0.003865128 0.0009914885
000030 98 81 1e bb 66 83 b6 3c f1 b6 bc 3b db 19 22 3c
       -0.002418613 0.022279453 0.005759113 0.00989386
000040 31 84 4d 3b 52 13 16 3c 85 0c a7 bb 3f ef 80 3c
       0.003135931 0.00915988 -0.005097928 0.015739081
000050 65 bf a1 ba c9 53 5c 3b dd 0c 8e 3b e3 9b 56 3b
       -0.0012340365 0.0033619276 0.0043350295 0.0032746724
000060 04 00 d5 bb 21 21 ef bb 2e 3c b8 3b f6 5b ac 3a
       -0.006500246 -0.0072976504 0.0056224084 0.0013149965
000070 6a c8 62 bb 9a df 67 b7 64 f1 16 3b ba 93 54 39
       -0.003460432 -1.3820734e-05 0.0023032064 0.00020272928
000080 84 1b 21 3b 4b 7a ad bb aa 6b 8a 3b ac b3 81 3b
       0.002458305 -0.0052941195 0.0042242603 0.003958186
000090 84 fc 23 bb 32 df 85 3a 70 e4 e2 3a 2c 81 0a 3c
       -0.0025022337 0.0010213612 0.0017310511 0.008453649
0000a0 6f b2 c6 3b 9e 74 14 3b b0 97 80 3c 40 28 85 3c
       0.0060637514 0.0022652517 0.01569733 0.016254544
0000b0 8f 0d c3 3b 6a 43 b2 3b 83 81 2e 3b 36 f5 eb 3a
       0.005952544 0.0054401653 0.0026627488 0.0018002156
0000c0 fe 4f e8 3b c8 c0 56 39 da a5 c1 3a 79 a3 d2 3b
       0.007089614 0.00020480447 0.0014774159 0.006428179
0000d0 a0 38 f1 3a ac 62 25 bb 6a 25 aa 3b b6 45 1a 39
       0.0018403716 -0.0025235815 0.0051924484 0.00014712554
0000e0 72 3d c9 3b 0f f9 9a 3b a3 82 98 bb 86 f0 66 bb
       0.006141358 0.004729397 -0.004654245 -0.0035238578
0000f0 07 00 00 3c 34 47 05 3a ef 61 83 39 c4 be 45 ba
       0.0078125065 0.00050841575 0.00025059233 -0.000754338
000100 2d 56 09 3c 26 d2 1b 3c 41 09 19 3b fd 7c 4c 3c
       0.008382362 0.0095105525 0.0023351463 0.012480971
000110 b7 dd 88 3a 55 07 07 3c bc 8b 74 3c cd 6a cb 3a
       0.0010442053 0.008241494 0.014925893 0.00155195
000120 1c e4 af 3a d3 46 f3 3a a4 c3 2f 3c e3 79 6b 3b
       0.0013419422 0.0018560536 0.010727797 0.0035930804
000130 49 fd 55 3c fd 59 84 3b ef 43 46 3b ed aa b5 3b
       0.013060876 0.0040390478 0.0030252894 0.0055440576
000140 3a 21 c4 bb 54 dd 70 bb 1d 9f 68 3c f3 70 0c ba
       -0.005985406 -0.0036753016 0.014198092 -0.0005357407
000150 f1 67 51 3b 56 68 11 bb 57 1c 06 3c e9 3a 0e 3b
       0.0031952823 -0.0022187433 0.008185468 0.0021702594
000160 01 03 81 b9 d4 c7 ca 3b 87 de 85 bb 8f c4 4c 3b
       -0.00024607035 0.006188372 -0.004085365 0.0031245088
000170 88 65 05 3c 0a bf b5 ba 44 31 89 3c 6a b1 2c 3c
       0.008141883 -0.0013866138 0.016747124 0.010540346
000180 89 c2 14 3c bd 87 02 3a ae 6e c4 3b 85 53 c5 b9
       0.009079584 0.0004979333 0.0059946394 -0.00037636995
000190 f9 ab d1 3b d4 ae 1a ba 62 3e 16 3a 88 98 f8 b7
       0.0063986746 -0.0005900685 0.00057313417 -2.9634932e-05
0001a0 a4 94 01 3c 40 12 b2 ba fa 22 10 3b 48 f3 c9 3b
       0.007908974 -0.0013585761 0.0021993504 0.0061630346
0001b0 94 30 7d 3b 58 15 19 3b ef c1 1c 3c 58 ef 0c 3c
       0.003863369 0.002335867 0.009567722 0.008601986
0001c0 09 12 07 3c 9d 06 29 3c 49 1b 01 3c f3 6c 25 3b
       0.008244046 0.010316518 0.00788004 0.002524194
0001d0 7d eb da 3b e2 f4 92 3a f2 2d 11 3b bb f9 97 b8
       0.0066809044 0.0011211897 0.002215263 -7.246757e-05
0001e0 bc dd 39 3c 4d a7 01 ba ce 26 74 3b 7c 8c 38 3c
       0.0113443695 -0.0004945889 0.0037254575 0.011263963
0001f0 4f a1 4b 3b ac 95 e1 3a 4f 8d c6 3b 25 e3 1a 3c
       0.003107149 0.0017210743 0.0060593258 0.00945357
000200 0b 34 c5 3b 36 04 5a bc 54 f4 44 b9 98 89 bf 3b
       0.006018167 -0.013306668 -0.00018783036 0.00584526
000210 cd 4c 26 bc 46 e7 01 bc b8 2d f7 bb 9c 8f 83 bc
       -0.010150147 -0.007928675 -0.007543292 -0.01605969
000220 47 4c d2 bb b3 be b1 3a 7a 99 2e bc 6a 8d 37 bc
       -0.0064177844 0.0013560861 -0.010656709 -0.011203149
000230 8c bb c5 bb 67 94 3f bb 3e 2f 5e bb 86 11 f9 39
       -0.00603432 -0.0029232742 -0.003390267 0.00047506037
000240 44 d6 09 bb 1a 8b 2d 3c 6b 5e 99 bb 70 2a 64 3c
       -0.0021032253 0.010592246 -0.004680445 0.0139261335
000250 a2 25 3e bc ed bc 41 bc bc 46 08 3c 29 8b 9d 3b
       -0.011605652 -0.011824829 0.008317646 0.004807849
000260 39 51 1d 3b 28 45 a3 3b 87 08 c5 bb 34 56 7a 3b
       0.0024004711 0.0049826093 -0.0060129794 0.0038198354
000270 34 37 c9 ba 3a 32 df bb 06 b2 93 bb f4 3b 1b bc
       -0.0015351535 -0.0068114074 -0.004507306 -0.009474743
000280 8d 59 b7 bb ad 64 81 bb 81 9d 00 3c 31 fd e0 bb
       -0.005595392 -0.003948769 0.007850052 -0.0068661203
000290 18 e7 bc ba ad c1 0e 3c d9 91 39 bb d9 50 89 3c
       -0.0014412133 0.008713168 -0.0028315692 0.016762184
0002a0 58 8f e7 bb 75 fd c2 ba 68 af de 3b 86 0a 42 bb
       -0.0070666485 -0.0014876561 0.0067958124 -0.0029608323
0002b0 60 f2 4b bc 63 ac ef 3b f3 86 02 3a 68 2b ff ba
       -0.012447923 0.0073142513 0.00049792154 -0.0019467892
0002c0 04 7d c0 3b 58 79 98 bb ee 39 ed bb be df 8f 3b
       0.005874278 -0.004653137 -0.007239572 0.004390686
0002d0 ba 6e 72 ba 75 52 bd 3b 4e 01 19 bc b6 a9 12 bc
       -0.0009248067 0.005777652 -0.00933869 -0.008951595
0002e0 9c 8d 8c 3c 3d 71 37 bc e9 92 1e bc 79 11 0c 3c
       0.017157368 -0.011196432 -0.009678581 0.008549088
0002f0 40 00 89 3b ba 25 80 bb 09 0a 25 bc b8 ae d4 bb
       0.004180938 -0.0039107474 -0.010073193 -0.0064905547
000300 45 9b a0 bc 92 15 7b ba 7b 05 35 bc e0 38 1e 3a
       -0.019605288 -0.00095781044 -0.01104867 0.0006035697
000310 ef 27 4d bb 5c d7 ac ba a5 bb 91 3b 24 2e 6a bc
       -0.003130432 -0.0013186741 0.004447418 -0.014293227
000320 22 0d 01 bc a9 ea 1b bc a1 43 c2 3b b5 74 24 bc
       -0.007876666 -0.009516397 0.005928472 -0.010037591
000330 2f b7 69 3c 31 31 40 bb d6 cf 24 bc 6e 16 01 bc
       0.014264866 -0.0029326195 -0.010059318 -0.007878883
000340 26 b4 b7 ba c8 e3 f3 ba 3b c0 aa 38 76 c4 af 3b
       -0.001401548 -0.0018607313 8.1420374e-05 0.005363996
000350 14 26 75 3b 2e dd f2 bb 2a 54 e9 3b 07 88 0c bb
       0.003740673 -0.0074116206 0.007120629 -0.0021443383
000360 fa 94 03 3c c1 02 80 bb 39 bd 8c 3c b9 cb 69 bb
       0.008031124 -0.0039065783 0.017180072 -0.0035674407
000370 75 86 47 3b 77 41 17 bc e8 59 8f 3c fc d1 fa bb
       0.0030445133 -0.009231917 0.017498925 -0.0076544266
000380 04 0b 08 3c 62 c1 73 bb 68 34 b5 bb 4a 29 4a b9
       0.008303408 -0.0037194123 -0.005529929 -0.00019279603
000390 46 fa 2c 3c cb 5f e8 39 89 ee 20 bc 05 93 3c ba
       0.010557717 0.0004432186 -0.009822496 -0.00071935385
0003a0 41 b9 02 bc 37 cf dc bb 0a ea 83 3b 6f eb ff bb
       -0.007978738 -0.006738569 0.0040257024 -0.0078100483
0003b0 8c 17 c8 bb a0 3b 5c bc 1a 4f a9 3c 77 49 8b 3b
       -0.0061063226 -0.01344195 0.020667601 0.004250701
0003c0 0f 8e cc 3b 0c 22 d7 3b 92 4c a1 bb f8 d0 35 bb
       0.0062425206 0.006565338 -0.004922458 -0.0027742963
0003d0 4f ac ef 3a f1 98 ab bb 65 ca 1a bc 42 85 5d bb
       0.0018285605 -0.005236738 -0.009447669 -0.0033801352
0003e0 ff ea ea bb ae f8 8e bb d8 6a 34 3c a9 ee 40 bc
       -0.007169127 -0.004363141 0.011011802 -0.011775651
0003f0 a3 f5 a7 bb f5 53 33 bc cb 4d f5 ba 5f dd 17 3b
       -0.0051257177 -0.01094531 -0.0018715201 0.002317272

mu.4.bias f4 [4]
000000 1e 12 1f 3b 89 6d 1d bc db 54 76 3b b6 bf ad 3b
       0.0024272273 -0.009608635 0.00375872 0.0053023947
