experiments/data/sawyer_clutter_200steps_10H/sac/2021-06-22_11-48-17_clutter_200steps_10H/policy_2400.pt (torch_old, 75801 bytes, 6 tensors)

mu.0.weight f4 [128, 12]
000000 21 15 69 be b3 37 3d 3e 83 3a bd bd c4 75 86 be
       -0.22761966 0.18478279 -0.09239676 -0.26261723
000010 f2 b3 8e 3d 60 73 3d 3e 42 23 ca 3d dd 06 36 be
       0.069679156 0.18501043 0.09870006 -0.17776056
000020 48 bd 44 be 33 1f 2b bd e0 29 0a 3e a5 3b b1 bd
       -0.1921283 -0.0417778 0.13492537 -0.086539544
000030 d1 ad 59 3e 91 74 38 3e b8 90 3a be 6d 88 85 3e
       0.21257712 0.18013217 -0.18219268 0.26080647
000040 1b 68 7b 3e 38 34 22 be 9b c0 4d 3e e4 0c 86 be
       0.24551432 -0.15840232 0.20093004 -0.2618171
000050 4d 02 65 be c2 5f 3e 3c 9d 23 85 be a9 37 54 3e
       -0.22364159 0.01161951 -0.26003733 0.20724358
000060 c4 ef 60 be ca 6f 62 3e 38 5c 4d 3c 61 49 ef bd
       -0.21966463 0.22112957 0.012534194 -0.11683918
000070 76 89 b0 bd 5e f7 61 be 21 ec 54 be ad 07 1a be
       -0.086199686 -0.2206702 -0.20793201 -0.1504199
000080 8c 5b 58 bd 60 9e 81 be 2b ab 57 3e be 27 b5 bd
       -0.05282168 -0.25316143 0.21061389 -0.08845471
000090 33 a0 18 be ce 33 9c bd 13 ce d1 3d 6a fb 9a 3d
       -0.14904861 -0.076270685 0.10244384 0.07567485
0000a0 37 af 6f 3e 32 cd a4 bd af 0f b5 bd 05 ad 36 3d
       0.23406683 -0.080469504 -0.08840882 0.044598598
0000b0 ab 26 21 be ce eb 01 3e 0f 49 0e bd 5d 55 b3 bd
       -0.15737407 0.12687609 -0.034737643 -0.08756516
0000c0 72 09 7b 3d da b1 01 bc 74 1e f8 3d 38 55 85 3e
       0.061288305 -0.007915938 0.121151835 0.2604158
0000d0 bf e3 35 3d 20 44 53 3e 5c 34 16 3e ce 66 30 be
       0.04440665 0.20631456 0.14668411 -0.17226717
0000e0 1d 12 ed bd d6 84 67 be 49 63 a1 bd 7c f9 63 3e
       -0.115757205 -0.22609267 -0.07880265 0.2226314
0000f0 b2 59 62 3e 1f 1e 95 be c8 70 dc 3d 23 d6 49 be
       0.22104529 -0.29124543 0.10763699 -0.19710593
000100 5f 3b cc 3c c4 57 16 3e fb 38 4a bd 3d c1 d4 bd
       0.024930654 0.14681917 -0.049370747 -0.1038842
000110 ca 49 cd bd 30 8b 8e 3d df b2 5b be e5 8b bd bd
       -0.1002384 0.06960142 -0.21454953 -0.092551984
000120 1a 41 08 3e 76 a4 02 3e f6 56 16 be 6d db 05 3e
       0.13306084 0.1275805 -0.1468161 0.13071986
000130 41 8b 83 3e a3 e0 94 be dc 44 a8 3d ac b2 80 bd
       0.2569218 -0.29077634 0.08216259 -0.06284079
000140 34 c2 b8 3d 9e 3a 8f be 62 79 6f 3e 05 91 93 be
       0.09021416 -0.2797441 0.23386148 -0.2882158
000150 9a 98 59 3e 8b 04 fb 3c c5 d8 b4 bc 5a 74 4d 3e
       0.21249619 0.030641815 -0.02207602 0.20063916
000160 7f 3e ab bc 0a 40 5c 3e 23 43 67 be 40 ee ee 3d
       -0.020903824 0.21508804 -0.22584204 0.11666536
000170 b0 af 8c be 43 b8 72 3e ad 1d d0 bd 73 72 8c bd
       -0.2747779 0.23703103 -0.1016191 -0.06857767
000180 89 12 eb 3c 06 d1 6c 3e f6 88 ef bc 0f e7 3a be
       0.028695362 0.23126611 -0.029240113 -0.18252204
000190 7f 79 31 be 9e 4b 42 be 3c 8e fb bd 53 10 8d be
       -0.17331503 -0.18974158 -0.122829884 -0.27551517
0001a0 06 4f 1c be 4f 4f 06 be 43 42 e1 bd 01 c3 39 be
       -0.1526452 -0.13116191 -0.109989665 -0.18140794
0001b0 e1 e1 53 bd 35 6b 24 be d0 d9 d4 bc 35 94 40 be
       -0.051729087 -0.16056521 -0.025982767 -0.18806536
0001c0 ee f5 81 bd 28 46 bf bd a2 7d 1e 3d 45 b4 8a bc
       -0.063457355 -0.09339553 0.03869403 -0.016931662
0001d0 8c 43 13 3e c0 6f 49 3b a7 96 75 bd 10 85 3a bd
       0.14381236 0.0030736774 -0.059958126 -0.045537055
0001e0 4e 0e 7a be 1b a4 9a bd 7c 23 01 3e 0f 0d 3c 3e
       -0.2441952 -0.07550832 0.12611192 0.18364356
0001f0 57 30 0f 3e 5b 94 87 3e 55 4c 51 3e a0 c0 c2 bc
       0.13983284 0.26480374 0.20439275 -0.023773491
000200 5a 4e 3f 3e c0 eb 89 3e 80 43 2d 3e cd c1 90 be
       0.18682232 0.26937675 0.1692028 -0.28272858
000210 6c c2 3f 3e fc 47 2c be fb 25 08 3e a3 e0 5c 3e
       0.1872651 -0.16824335 0.13295738 0.21570067
000220 33 a3 36 3e e9 e0 94 be 02 bb b2 3d d3 38 5e bd
       0.17835693 -0.29077843 0.08727075 -0.05425341
000230 28 a0 2c 3e 20 08 03 3d c5 bb 61 3e 51 83 a2 bd
       0.1685797 0.03199017 0.22044285 -0.07935203
000240 19 62 11 3e 4a 5d df bd a7 e4 3b 3e 7d 89 e3 bc
       0.14197578 -0.10906465 0.18348943 -0.02777552
000250 02 bc 11 3e 46 c6 0e be 11 6b 32 3e 59 a6 12 be
       0.14231876 -0.13942823 0.17423655 -0.14321269
000260 48 66 73 bd 32 5f f1 bc f5 46 9c bd 3a 62 89 3e
       -0.059423715 -0.029464338 -0.076307215 0.26832753
000270 30 73 71 bd 76 29 27 3e 0d 3a 4a be 04 ab 8b 3e
       -0.058947742 0.1632441 -0.19748707 0.27278912
000280 bc 76 d4 3d f6 f9 aa bc 1f f2 12 be 0e 4c 19 bd
       0.10374209 -0.020871144 -0.14350174 -0.037426047
000290 7f 78 cb bd 79 b1 33 3d e5 bf eb 3c 79 cc 4f be
       -0.09935092 0.043870423 0.028778026 -0.20292844
0002a0 64 81 80 3e 95 9c 14 be 77 c9 64 3e 9c a9 9c 3d
       0.25098717 -0.14512856 0.22342478 0.07649538
0002b0 97 c4 e5 3c a2 8d b8 bd bf 15 58 bc dc 51 24 be
       0.028047843 -0.09011389 -0.013188778 -0.16046852
0002c0 d3 5c 41 bd ac 2b 78 be 57 8b 5b be af cb 2f 3e
       -0.047207665 -0.2423541 -0.21439873 0.17167543
0002d0 40 2a 52 3e 57 61 bf bd 63 c6 61 3e 95 ef 34 3e
       0.2052393 -0.09344738 0.22048335 0.17669518
0002e0 5e a7 24 be d6 61 2a 3c ea 74 38 3e 4b e2 81 3e
       -0.1607947 0.0103993025 0.18013349 0.2536796
0002f0 1c 8e 80 3e 4a 57 77 3d 8f 1b 80 bd c3 e5 52 3d
       0.2510842 0.06038598 -0.062552564 0.05148865
000300 00 04 2b bd a4 a2 64 bc 1f fe 02 3e b3 f9 1d 3e
       -0.04175186 -0.013954792 0.12792252 0.15427284
000310 9d 95 4b 3e 8c 3d cd 3d 1e d9 3e 3e 15 c0 e4 bd
       0.19881292 0.10021505 0.18637511 -0.11169449
000320 23 34 60 3d 82 c4 76 3e 30 2e 54 be 24 b7 7b bd
       0.05473722 0.240984 -0.20720744 -0.061453953
000330 65 f8 82 3e 51 2a b0 3d 6b e6 0a be f0 b8 ad bd
       0.25580135 0.08601821 -0.1356446 -0.0848254
000340 fb 92 24 3e c0 87 d1 3d de d3 a9 bd 6b aa 9c bc
       0.16071694 0.102309704 -0.082923636 -0.01912423
000350 a6 5e 90 bc 40 65 a9 bd 8d 29 d1 bd 69 a9 a0 bd
       -0.017623257 -0.08271265 -0.10213003 -0.078448124
000360 ed 91 64 be 16 33 ed 3d 7c 6f 41 bd 0a 98 5f 3e
       -0.22321291 0.115820095 -0.04722546 0.21835342
000370 b2 9a 16 3c f0 05 19 3e f8 7d 3e be 54 50 40 3e
       0.009192156 0.14943671 -0.18602741 0.18780643
000380 e6 2f 59 3e 25 3b 3f be 03 62 a3 bd c3 43 fa 3d
       0.21209678 -0.18674906 -0.079776786 0.12219956
000390 ff 72 56 bd c8 1a 4a be fe 99 a7 bd c9 f8 bd bd
       -0.052355763 -0.19736779 -0.081836686 -0.09275968
0003a0 2c a9 54 3e 68 d3 94 bd c2 ad 60 be c9 c7 cc 3c
       0.20767659 -0.07266885 -0.21941283 0.024997609
0003b0 df e8 68 3e 69 1c 49 bd f2 03 15 be 58 7e 39 3d
       0.22745083 -0.04909936 -0.14552286 0.045286506
0003c0 43 c6 3f bd 17 22 da bd 29 e1 74 be 0b 12 9e 3d
       -0.046819936 -0.10651033 -0.23914017 0.07718285
0003d0 48 44 4b 3e f4 dc f5 3d f6 05 69 3e 98 53 62 3e
       0.19850266 0.12005034 0.2275618 0.22102201
0003e0 1a ec 6d be 67 1e b0 bb 77 61 67 3e 82 c7 0d 3e
       -0.23234597 -0.005374718 0.22595774 0.13845637
0003f0 37 68 36 3e f5 f6 4f be 9d 69 d1 bd 22 3f 05 be
       0.17813192 -0.2030905 -0.10225222 -0.13012365

mu.0.bias f4 [128]
000000 ad f9 2c bd cf a1 7f bc 58 0e 7e bd 95 8b 27 3e
       -0.042230297 -0.015602543 -0.062025398 0.1636184
000010 ba 23 54 be f0 8c a4 bc 58 72 53 be 73 79 bf 3d
       -0.20716754 -0.020086735 -0.20649087 0.093493365
000020 2e e5 75 ba 3a 0c 2f be 59 9d 06 be 2f 1d e2 3d
       -0.0009380159 -0.17094508 -0.13145961 0.110407226
000030 ea 77 d2 bd b0 37 39 3e b3 73 d3 bc b8 d6 81 3e
       -0.10276778 0.1808765 -0.025812006 0.2535913
000040 9f 6e 8b 3e df 2f da b9 84 9f 14 bd 17 55 53 be
       0.27232835 -0.00041615867 -0.03628494 -0.20637928
000050 bc 5d a2 bc 67 3c 81 3e e0 66 1c be 2d 2b 95 3d
       -0.019820087 0.25241396 -0.15273619 0.07283626
000060 11 c7 92 be fd a1 3f be 0f 3f 6e be c5 bf 32 3e
       -0.286675 -0.18714137 -0.23266242 0.17455967
000070 56 e7 84 3e 3e f0 7d 3e 3c 62 dc 3d 7d 41 68 be
       0.25957745 0.24798676 0.10760924 -0.22681232
000080 93 e0 22 bd 54 22 76 3e 1e 35 50 be 4e da 8c 3e
       -0.039764952 0.24036533 -0.20332763 0.27510303
000090 ca 3e 87 bd d8 bb 72 3e c3 bf 18 be ac be 9b bd
       -0.06603773 0.23704469 -0.14916901 -0.07604727
0000a0 97 f5 18 3e 61 b3 7e be 4d 83 51 be a3 13 7d bd
       0.14937435 -0.24873115 -0.20460244 -0.061786305
0000b0 97 da 72 3e fd cf b2 3b 02 71 89 be 3d fa 31 bc
       0.23716198 0.005456923 -0.2684403 -0.010862884
0000c0 c4 14 f7 3d 7e 3f ef 3d 26 20 ed 3d 2d 28 19 3e
       0.120645076 0.11682032 0.115783975 0.14956732
0000d0 cd 88 b9 bd 5e aa 37 3e 16 1c 5d bd 7f 9f ee bd
       -0.09059296 0.17936084 -0.053981863 -0.11651515
0000e0 89 0e 57 3e 60 87 46 be 4b 1a 9c 3d 59 a2 5d 3e
       0.21001638 -0.19387579 0.076222025 0.21643962
0000f0 92 2f 85 3e ea 3b 79 3e 8f 26 5c be d8 59 74 3e
       0.26012856 0.24339262 -0.21499084 0.23862398
000100 9f b0 22 3e 8a 86 0f 3e d6 11 80 3c fb 42 60 3e
       0.15887688 0.14016166 0.015633505 0.21900551
000110 ff ca c2 3d e9 7e 8b be 78 7f 8d 3e 41 78 a3 bd
       0.09511375 -0.27245262 0.27636313 -0.07981921
000120 5a 77 74 bd 88 ec c6 3d 8f f7 1e be 9a 41 82 3d
       -0.059684135 0.097130835 -0.15524124 0.06360169
000130 25 ef 32 3e a6 7c 41 be 0e 47 24 bd 7e 55 35 be
       0.17474039 -0.18895206 -0.040106826 -0.17708394
000140 0d 6d 3f 3e cc 2a 70 3d e1 eb 8a bd 47 23 c0 bb
       0.18693943 0.058634564 -0.067832716 -0.0058635804
000150 b2 4d 39 be cd 16 11 3e 75 58 6e be b5 dc fe bd
       -0.18096045 0.14168854 -0.23275931 -0.1244444
000160 78 d7 54 bd fb 81 e2 bc 03 c9 8a 3d 88 4e 41 be
       -0.0519633 -0.02764987 0.06776621 -0.18877614
000170 fb 1e 50 3e 02 61 fe bc c0 7b 63 be b1 08 d1 bd
       0.20324318 -0.031052116 -0.22215176 -0.10206736
000180 d9 e9 3e 3e c4 1c 95 3c 64 89 68 be f9 1b 40 be
       0.18643893 0.018202193 -0.2270866 -0.1876067
000190 55 24 ae 3d 25 7c 60 3e 9f 32 0f be 0e b1 9d 3c
       0.085030235 0.21922357 -0.13984154 0.019249465
0001a0 89 df 66 3e 4f 35 79 be 1f ea b8 3d ed b9 55 3c
       0.2254621 -0.24336742 0.0902903 0.013044816
0001b0 19 4a 21 3e 6b 6c c0 bd d8 0e fb bd e3 3d 4d be
       0.15750922 -0.09395679 -0.122586906 -0.20043139
0001c0 fc 12 a3 3c 77 25 f3 3b c3 08 72 3e 29 31 41 be
       0.019906513 0.0074202376 0.23636155 -0.1886641
0001d0 eb 38 97 be 6e 55 54 3d dc ab 51 3d 9f 15 ba bd
       -0.29535612 0.051839285 0.05118929 -0.09086155
0001e0 7e d9 3e 3e fd c2 3d 3e 92 06 e7 bd 89 d1 38 3c
       0.18637654 0.18531413 -0.1128055 0.011280426
0001f0 a0 b4 82 3e 75 f1 88 be 88 d1 31 be b9 8c 52 bd
       0.2552843 -0.26746717 -0.17365086 -0.051403735

mu.2.weight f4 [128, 128]
000000 06 a3 80 3d 38 a5 03 bc ea ad 46 3d 70 3a 97 3d
       0.06281094 -0.008034997 0.0485057 0.07384193
000010 0d 02 3f 3d 8d 51 40 3c 38 dd 20 3d ef 00 0b 3c
       0.046632815 0.011738193 0.03927347 0.008484109
000020 12 0d 5c 3d c6 32 aa 3d 98 71 8b bc 2b 5b ab 3c
       0.053723402 0.083104655 -0.01702194 0.020917496
000030 0b 59 91 3c 9b 74 c1 bc ee 7e 81 bc 07 b3 90 bc
       0.017742654 -0.023615172 -0.015807595 -0.017663492
000040 c6 c9 af bd d0 7a 2a 3d 25 06 16 3d 10 57 90 bd
       -0.08583407 0.04162103 0.036626954 -0.07047856
000050 ee d5 55 b9 1d d7 6a bd 3d bf a0 3d b7 74 1d bd
       -0.00020392958 -0.057334054 0.07848976 -0.038441386
000060 7f ff ab 3c fa 9d 85 3d ad 38 8a 3d 31 5b 1d 3d
       0.020995853 0.06524272 0.06749091 0.038417045
000070 0e 3c 9f bd 2c b9 e5 bc d9 87 81 bd 4c 1c 32 bc
       -0.077751264 -0.028042398 -0.06324739 -0.010871004
000080 47 2b 2b 3d 06 aa e2 bc c1 68 5f bc 57 5e ce 3c
       0.04178932 -0.027668964 -0.013635815 0.02519147
000090 56 da c2 3b 2c a1 5c 3d 3e 01 14 3d 17 11 3e 3d
       0.005946438 0.053864643 0.036133997 0.046403017
0000a0 3b 2d b7 bd 49 de 4f bd 65 fc 6d bd 8f 3e ba bd
       -0.08944174 -0.050749097 -0.05810203 -0.09093963
0000b0 5a 3f 3d bc 10 cd 64 bc 89 fb eb bc 13 16 3f bd
       -0.011550749 -0.013964906 -0.028806465 -0.04665191
0000c0 2b 4b 27 3d 91 61 aa bd 4d 2f 0c bd ae a6 5d 3c
       0.04084317 -0.083193906 -0.034224797 0.013528509
0000d0 d6 c6 16 bd fd 24 2b 3c 00 25 cc 3c 20 72 cb bc
       -0.03681072 0.01044583 0.024919987 -0.024834692
0000e0 ac 82 31 bd ff 6a b3 bd cf 96 98 3b 4d 71 af 3c
       -0.04333751 -0.08760642 0.0046566497 0.02141633
0000f0 f2 ed b6 3c d0 2a 5e 3d 51 ac 75 3d 9c 74 42 bc
       0.022330258 0.054240048 0.059978787 -0.011868622
000100 cb 97 46 bd b2 09 ba bd f4 67 86 bd c6 b4 67 3d
       -0.048484605 -0.090838805 -0.06562796 0.056568883
000110 5a 35 8e 3a 04 ae 98 3d 77 d3 c7 bd 2b fd 96 bd
       0.001084964 0.07455066 -0.097571306 -0.07372507
000120 93 58 2d 3d b6 43 9e bd ee b5 97 bd db 08 4e bd
       0.0423208 -0.077277586 -0.07407747 -0.050301414
000130 75 d6 0a bc a1 c9 8e bd 42 b2 26 3d 21 27 92 bd
       -0.008473982 -0.069720514 0.040697344 -0.071363695
000140 0a a0 8d bb 17 45 16 3d ed 29 95 3d 17 d3 22 3d
       -0.0043220567 0.036686983 0.07283387 0.039752092
000150 cf e2 6a 3d 19 9b 27 3d ff 32 a1 3d 2f c8 88 bd
       0.057345208 0.040919397 0.07871055 -0.06678807
000160 c4 37 7a bd 2c d6 80 3d cf a6 13 bd 51 67 0b bd
       -0.06108834 0.0629085 -0.036047753 -0.034034077
000170 7f fd bf bc 4a a6 bb bd 73 ed 52 bd ad 30 f3 b9
       -0.023436306 -0.091625765 -0.05149598 -0.00046384838
000180 6d 7b 62 bc a8 4e 5e 3b 79 c6 3e 3d 1d 89 ac 3c
       -0.013823372 0.0033921394 0.046575997 0.021061474
000190 f8 07 7e bd d8 94 0f bd 8e c4 94 3d 7c ea af 3c
       -0.06201932 -0.035054058 0.07264052 0.021474116
0001a0 85 6f 58 3a ce 10 a5 3d ae e1 b6 bd cf c8 76 3c
       0.0008256364 0.08059846 -0.08929764 0.015062525
0001b0 9c 06 9e 3d e5 d3 c9 3c 97 9e 80 3d c8 b5 b5 bd
       0.077161044 0.024637172 0.062802486 -0.08872563
0001c0 f6 a6 3b bd ba e0 74 bd 8a 04 9f bd b6 c7 96 3c
       -0.045813523 -0.05978463 -0.07764538 0.018405776
0001d0 2b 32 a5 bd 2d 20 81 3c 42 5b 81 3d 46 f0 08 bd
       -0.080662094 0.015762413 0.06316234 -0.033432268
0001e0 93 51 7f bd 2c e8 a4 bd 0a 3d 12 3d 1b 99 3c 3d
       -0.062333655 -0.08052096 0.035702743 0.04604445
0001f0 45 7f 9d 3c 29 f9 95 bd ca 3d 31 bb b1 33 90 3c
       0.019225726 -0.07322914 -0.0027044886 0.017602773
000200 89 37 c5 3c 73 99 6e bd 36 91 af bb a9 cf ba 3c
       0.024074333 -0.05825181 -0.0053578867 0.022804098
000210 ca eb b9 bd 55 28 89 bd 20 7d 73 bc 44 09 b7 bd
       -0.09078176 -0.06697146 -0.014861375 -0.08937314
000220 9c b1 cb 3c 0e a1 01 3d 53 5b 4a bd a0 c6 9b bd
       0.024864964 0.031647734 -0.0494035 -0.07606244
000230 4f 37 57 3d 64 73 af bd 4c d8 08 3d 29 b9 98 3d
       0.05254298 -0.08566931 0.0334094 0.074571915
000240 75 b6 2b ba 5d 11 42 3d 7c aa 31 bb 75 ac 3b 3d
       -0.00065503205 0.04737984 -0.0027109673 0.045818765
000250 b6 d3 d0 ba ce 60 11 3d 34 c2 94 bd 4f 41 87 3c
       -0.0015932235 0.03549271 -0.07263604 0.016510634
000260 82 0a 8f bc 65 82 8b 3d e0 d7 73 3c 41 58 80 bb
       -0.017461065 0.0681198 0.014883012 -0.0039167707
000270 cd 76 7c bd c6 49 e9 3c 3b a2 ee 3c 00 a1 b0 3c
       -0.061636735 0.02847756 0.029130092 0.021561146
000280 22 e4 8a 3c c2 5c c0 bd b6 f8 03 bd 1a 69 75 3c
       0.016954485 -0.09392692 -0.03221961 0.014978671
000290 64 36 92 bd 18 42 9c 3d 5c a4 86 3d fa c9 82 bc
       -0.071392804 0.07629794 0.06574318 -0.01596545
0002a0 02 ac 99 3d 1b 3c 0b bd f6 ec 93 3d 5a c7 85 3c
       0.07503511 -0.033992868 0.07222931 0.01633041
0002b0 08 a9 a4 bd 36 fc b0 bc ef d7 15 3d e0 78 c8 bd
       -0.08040053 -0.021604639 0.036582883 -0.0978868
0002c0 2d 9b 83 3d 27 10 71 bd a9 4d 66 bd 71 d7 2a bd
       0.06426082 -0.058853295 -0.056226406 -0.041709367
0002d0 35 a8 a8 3d a6 18 42 3c 7d b8 0f bd b0 1b e2 3c
       0.08235208 0.011846697 -0.03508805 0.027601093
0002e0 16 5f a7 bc 76 ab ba bc f6 42 d2 bc 5c 56 32 3d
       -0.020431083 -0.022786837 -0.025666695 0.04353939
0002f0 07 93 f3 3c 88 70 06 3d fb 13 86 3c ae d7 97 3d
       0.029733194 0.032822162 0.01636695 0.074141845
000300 9b a0 8f bd e9 28 b0 3d 9e 38 22 bc 53 7b 75 bd
       -0.07013055 0.08601553 -0.009901194 -0.059932064
000310 f5 65 26 3c bd a1 de bc cd 31 87 bd 8f c9 22 3a
       0.010156144 -0.027176732 -0.066012956 0.0006209844
000320 56 15 6a 3d 15 0b 13 bd 0c 5d b1 3d 9b 7e ab bd
       0.057149254 -0.03589924 0.086603254 -0.083737575
000330 91 83 8d 3d 79 15 01 bd e3 70 ac 3d 63 70 a1 3d
       0.0690986 -0.03151462 0.08419969 0.07882764
000340 fc 64 d2 3c 1c f1 18 3d 7a 7d 31 bd c0 ed aa bd
       0.025682919 0.037339315 -0.043332554 -0.083461285
000350 8e 0c a4 3d 8b 9e af bd ec 35 06 3d 10 20 bb bd
       0.08010207 -0.085751615 0.032766268 -0.09136975
000360 67 40 c0 bd 50 ee 8f bd 3e f2 8c 3d ad 12 b9 3d
       -0.09387284 -0.070278764 0.068821415 0.09036765
000370 de 08 5c 3b e9 ab 01 3d dd 61 da 3c 1d 36 82 3d
       0.0033574621 0.031658087 0.026657993 0.063579775
000380 fa d7 76 bd 0a 48 3e bd 65 2b b7 bd c4 b4 09 bd
       -0.060264565 -0.04645542 -0.08943824 -0.033619657
000390 56 d9 af 3d 6e 78 98 bd 17 17 78 bd 4f 92 8c bd
       0.085863754 -0.07444845 -0.060568895 -0.06863844
0003a0 ff 80 f1 bc ba b8 b1 bd 2c 70 26 3d 6c e7 8c 3d
       -0.029480455 -0.08677812 0.04063432 0.06880078
0003b0 0b 4c 27 bd 36 61 6d bd 76 c3 26 3d e2 a0 a3 bd
       -0.040844005 -0.057954036 0.04071375 -0.0798967
0003c0 c6 1c 5c 3d 99 c9 8f bd 2a 49 93 3d 59 56 85 3d
       0.053738378 -0.070208736 0.07191689 0.0651061
0003d0 03 dd 5e 3d e0 42 6e 3b ae 04 a4 3d b4 68 d1 bd
       0.054409992 0.0036355779 0.08008705 -0.10225049
0003e0 06 e4 5c bd b5 70 a5 bc ef a5 b7 bd 11 40 c6 bb
       -0.053928398 -0.020195344 -0.08967196 -0.006050118
0003f0 0b a9 2f bd 95 0f 87 3d d4 ee ea bc 6f 57 f2 3c
       -0.04288582 0.06594769 -0.028678335 0.029582707

mu.2.bias f4 [128]
000000 7b 40 be 3a 1e 86 d7 3c 0e be 5c 3d 3a 08 15 3d
       0.0014515066 0.02630907 0.053892188 0.0363848
000010 cc 35 98 3d 5f 39 af 3d 22 3a a6 bd 7d 3b ab 3a
       0.07432136 0.085558645 -0.08116557 0.0013063994
000020 6e e9 c2 bd 14 b7 85 3d 5b 52 bb bd 41 d4 71 bd
       -0.095171794 0.0652906 -0.091465674 -0.05904031
000030 db b5 63 bd 43 cd 9a 3d 9f a7 09 3d d3 ea 99 3d
       -0.055593353 0.07558682 0.03360712 0.07515492
000040 f6 19 05 bc 1b ca 05 bd 63 94 35 3b 72 67 1e bd
       -0.008123865 -0.032663446 0.0027706854 -0.038672872
000050 50 13 07 bd 1f d7 9a bd 94 a6 36 bd 76 61 0e bc
       -0.032977402 -0.07560562 -0.044592455 -0.008690229
000060 89 b4 90 3c fc 04 01 3d 14 a9 a5 3d ff b9 9b 3d
       0.01766421 0.031498894 0.0808889 0.07603835
000070 2e 50 9c bd 37 d7 51 bd 03 45 ac 3d 4a 58 2c 3c
       -0.076324806 -0.051230635 0.084116004 0.010519097
000080 27 7a c3 bd a6 80 85 bc 8c f5 86 3d d0 b2 6c bd
       -0.09544783 -0.016296696 0.06589803 -0.057787716
000090 f5 73 2d bd 0f 2e b2 bd 4e 6c 08 bc bf 04 48 3c
       -0.042346913 -0.08700191 -0.008326603 0.012208163
0000a0 a8 29 ff bc 0f 4d 3e 3d 6d 90 8c 3c 38 34 2a 3d
       -0.031147793 0.046460208 0.017158711 0.041553706
0000b0 38 ea 2f 3d 1b cd a1 bb 71 30 6c bd b8 a7 f2 bc
       0.042947978 -0.0049377806 -0.057663385 -0.02962099
0000c0 5c 9f 24 3d 34 62 94 bd 19 5a a1 3d f5 f9 93 3c
       0.04019104 -0.07245293 0.07878513 0.018063525
0000d0 a9 53 3b 3d 23 e1 a4 3d be ce 31 3d e5 eb 91 bd
       0.04573408 0.08050754 0.043410055 -0.071250714
0000e0 c5 e0 82 3d 72 35 84 bd 17 bf a7 bd 22 65 2d bd
       0.06390528 -0.064555064 -0.08190744 -0.042332776
0000f0 2a f2 74 bd 61 be b0 3c df 0d 69 bd 4b 66 4a 3b
       -0.05980126 0.021575155 -0.056897994 0.0030883725
000100 ad bb b1 bd 45 17 23 bd 14 e0 87 3c 29 63 f5 bc
       -0.086783744 -0.039817113 0.016586341 -0.02995451
000110 ee f6 2b bc 20 83 9d 3b a8 da 03 3d 67 be b4 bd
       -0.010495884 0.004806891 0.03219095 -0.08825379
000120 00 5b a4 bd 28 fe 9f 3a db 1b 4f 3d 53 7a 22 bd
       -0.080251694 0.0012206482 0.050563674 -0.03966744
000130 de ad 91 bb 5a 0d 45 bd cc 84 3f 3d 04 45 fd 3c
       -0.0044457754 -0.048108436 0.046757504 0.030916698
000140 db 18 93 3b 6a 15 8b bc 57 08 57 3d 70 43 20 3d
       0.004489047 -0.016977984 0.052498188 0.039126813
000150 f2 f8 a3 bc 00 48 36 3c 16 47 a1 bd 34 26 33 3d
       -0.020016167 0.011125565 -0.07874887 0.043737605
000160 b8 fe a9 3d 27 62 93 bd 05 4a ce bc 87 9e 0e bd
       0.08300537 -0.071964554 -0.02518178 -0.034819152
000170 24 25 9f bd b2 31 84 bd 63 79 c3 3c fe af 63 3d
       -0.07770756 -0.06454791 0.023861593 0.05558776
000180 f3 3d 8b 3d 3a c3 5e 3d 1b 44 4b 3d d7 f0 52 bd
       0.06798925 0.0543854 0.049625497 -0.051499214
000190 93 b2 8e 3d 88 2b a7 3c aa 18 4b bc 2d a2 5d 3c
       0.06967654 0.0204065 -0.012396017 0.013527435
0001a0 16 6d 33 bd 94 dc 92 bc ee ce 40 bd cb c6 7b bd
       -0.043805204 -0.017927445 -0.047072344 -0.06146888
0001b0 83 6e 99 3d e4 db 93 bc ba 1e d1 bc 45 93 94 3d
       0.074917816 -0.018049188 -0.025527347 0.07254652
0001c0 0c 98 eb 3c 62 c9 a1 bd a9 d0 8e bd d1 11 0d 3d
       0.028759025 -0.07899739 -0.069733925 0.03444082
0001d0 7c 59 89 bd 0b 19 ea bc 1b 47 bf bd b6 8f a5 3d
       -0.06706521 -0.028576395 -0.09339734 0.08084051
0001e0 05 e0 b5 bd b3 76 bf bc 1a 87 4b 3d e7 9c 1e 3d
       -0.08880619 -0.02337203 0.04968939 0.038723852
0001f0 7c 1f ec 3c 28 54 fb 3b 73 f2 8a 3d b4 fa a7 3d
       0.028823607 0.0076699443 0.06784525 0.08202115

mu.4.weight f4 [4, 128]
000000 5e 06 38 3b c3 b9 52 bc 06 7e 4f bb 2b 22 6d bb
       0.0028079967 -0.012861672 -0.003166081 -0.0036183696
000010 fb b2 9d bb cf c2 d6 3a c7 0a b1 ba c1 51 c6 3c
       -0.004812596 0.0016384962 -0.001350724 0.024208905
000020 84 8c 60 3a 75 ff 03 3b 0e 96 c6 3b 9b 2b fc ba
       0.00085658603 0.0020141278 0.0060603684 -0.001923907
000030 6f d5 2a ba 74 bd cb 3b 99 2e e7 3b de e9 22 3c
       -0.00065167894 0.006217653 0.0070551154 0.009943454
000040 60 eb f7 b8 6b 65 3d bb 2c 89 4d bc 9c 9c 79 ba
       -0.0001182172 -0.002889956 -0.012544911 -0.0009521933
000050 84 e5 0e bc 78 4d bf 3a 98 8e 2b bb b6 13 65 bb
       -0.008721713 0.0014595231 -0.0026177522 -0.0034954376
000060 7e 61 29 bb a3 85 89 bb cc 43 76 ba a2 7e b6 39
       -0.0025845463 -0.004196839 -0.0009394258 0.00034808094
000070 c1 7c 47 bb ea f7 2c bb 31 9e 16 bc aa 71 0e bc
       -0.003043935 -0.0026392885 -0.009192989 -0.008694092
000080 d2 5f cd 3b eb c5 71 bb 49 e5 35 bb 7f 2c 15 ba
       0.006267526 -0.003689165 -0.0027755073 -0.00056905294
000090 28 70 52 bb 8f 37 30 3b 58 97 a4 bb 5d 66 a9 bb
       -0.0032110307 0.0026888584 -0.0050229244 -0.0051696734
0000a0 45 f0 e4 ba 2c 8a 29 bb 3f 5e 03 bc ab bc 09 bb
       -0.0017466625 -0.002586971 -0.0080180755 -0.0021016996
0000b0 1f c0 da bb f9 68 b7 ba 9b 6f 3f 3b a8 a2 0a 3b
       -0.0066757347 -0.0013993076 0.002921081 0.002115408
0000c0 95 3d b9 b9 e9 3b 37 ba 7e 97 15 bb 96 58 93 ba
       -0.00035331832 -0.00069898233 -0.0022825892 -0.0011241611
0000d0 bf d4 46 3b 46 dd ac bb a3 dd bf bb f5 66 1f ba
       0.003033921 -0.0052754013 -0.0058552786 -0.00060807104
0000e0 90 f5 f9 ba 19 fb 13 bb 6d 1f 78 ba 1e b8 d9 38
       -0.0019070376 -0.0022580086 -0.0009465132 0.00010381661
0000f0 87 1a 8a ba ea 3d 1e bb ee 9f bd bb ea c6 80 b9
       -0.001053647 -0.002414579 -0.0057868874 -0.00024562265
000100 04 ad 9b ba 8d 7d 34 bc e2 5f c6 39 f2 fe 3d 3c
       -0.0011877124 -0.011016262 0.0003783694 0.011596428
000110 d0 4a eb 3a a0 68 f1 b9 fb f3 6a bb 80 80 61 bb
       0.0017951373 -0.00046045054 -0.003585099 -0.0034408867
000120 37 2d 07 3b 97 30 0f bb a9 d9 40 3c b2 e2 29 3b
       0.0020626315 -0.002184903 0.011770644 0.0025922474
000130 a3 19 02 3b 8e 76 c3 bc d4 cf c7 bb de 7e c0 bb
       0.0019851706 -0.023860242 -0.006097773 -0.0058744987
000140 d1 02 92 bb 14 98 b3 bb bb a4 86 3b e5 21 30 bc
       -0.004455902 -0.0054807756 0.004108993 -0.010750269
000150 3d e6 7f bb 75 49 0a bc da dd 4d ba a2 c9 68 bb
       -0.0039047145 -0.008440365 -0.0007853188 -0.0035520573
000160 21 fa d3 bb 68 40 0f bb 22 73 20 3b 28 ad 51 ba
       -0.0064690267 -0.0021858457 0.0024482687 -0.00079985196
000170 b1 dc 11 3a 4f 0f 14 3b 73 ac 6c bb cc 00 77 ba
       0.00055641966 0.0022592132 -0.003611353 -0.0009422421
000180 0f 75 8d bc fa 8a 38 bb 54 ac b2 bb 19 5f ae 3b
       -0.017267732 -0.0028159008 -0.005452672 0.005321395
000190 68 0b ea bb 56 fa 80 3b 37 be 02 bb 0d 89 12 bb
       -0.007142473 0.0039360924 -0.0019949803 -0.002235952
0001a0 74 4b 90 b9 a1 38 8b ba 01 45 05 3a 23 9e f3 39
       -0.00027522037 -0.0010621735 0.000508383 0.00046466393
0001b0 29 25 4a bb d8 78 ef bb 84 8d 24 ba 2d d8 83 bb
       -0.0030844903 -0.007308107 -0.0006277191 -0.004023573
0001c0 d5 17 60 bb 34 08 72 ba 17 37 b9 3a 77 be 8d bb
       -0.0034193892 -0.000923279 0.0014130798 -0.0043256837
0001d0 9e 21 f9 3a aa 62 0b bb 65 65 6d 3b 65 09 8f bb
       0.0019007211 -0.0021268525 0.0036223766 -0.0043651336
0001e0 8a 1d 04 bb 10 0b af ba dc 90 9c bb a3 89 43 bb
       -0.0020159208 -0.0013354737 -0.004778011 -0.0029836677
0001f0 56 3e f0 38 46 6f 5b bb 28 bf 0f bc 34 c9 a9 ba
       0.00011455703 -0.0033483072 -0.008773603 -0.001295364
000200 ba c9 84 bb ac 3e 01 bc f0 d1 4a 3a 8a 0d 2e 3b
       -0.004052368 -0.007888477 0.00077369716 0.0026558363
000210 8d 08 35 39 25 5d 7f 3b b2 d3 ae 3b 9d e8 48 3c
       0.0001726469 0.003896543 0.0053352946 0.012262491
000220 93 5b a6 b7 60 2d 01 3c 7c 25 7e 3b f2 00 85 ba
       -1.9831385e-05 0.007884353 0.0038779667 -0.0010147376
000230 94 9e 01 3b fb 66 09 3c ff 2d 9b bb 5b db 9b 3b
       0.0019778358 0.008386369 -0.004735708 0.004756374
000240 92 71 38 3b 20 e6 09 3c 78 e9 1a bc 37 d1 51 3b
       0.0028143865 0.0084166825 -0.009455077 0.003201557
000250 2b 85 e7 ba 16 92 1f 39 0d cc 65 bb 46 bd bf 39
       -0.0017663589 0.00015217843 -0.003506425 0.0003657138
000260 a2 b5 16 3c 21 7d 9f 3a a6 15 86 3b fc a4 3b 3b
       0.009198578 0.0012168029 0.004091936 0.0028632274
000270 4e 83 e2 3b 07 d3 5b 3b 2d 43 e1 39 4d 02 5e 3b
       0.0069126254 0.003354253 0.00042965394 0.0033875883
000280 36 c9 fe bb 57 91 44 3b 91 74 a2 3a 6a 2a a2 bb
       -0.007775451 0.0029993856 0.0012394359 -0.004948904
000290 a8 de 30 3a 79 83 b6 3b 6b 2d 95 3b d2 13 f6 bb
       0.00067470456 0.005569872 0.0045525334 -0.007509687
0002a0 93 69 e1 39 ea f1 3d 3b 7d 17 51 3b 1b 09 14 3b
       0.00042994003 0.0028983303 0.003190487 0.0022588435
0002b0 c3 e9 f9 39 63 f8 f9 39 58 cb 9c ba fa 36 2a b9
       0.00047667147 0.00047678043 -0.0011962457 -0.00016232944
0002c0 3d 0d 3d 39 38 bf b2 ba d5 6f 16 bb a7 b2 3c 3c
       0.00018029376 -0.001363731 -0.002295484 0.011517203
0002d0 24 b3 b7 ba b7 cd b6 3b 9a 13 9e 3b 3f f2 a6 bb
       -0.001401518 0.0055787223 0.004824114 -0.005094796
0002e0 5b 89 48 3b 8e 68 91 3b 87 27 90 b7 7a 50 3b bb
       0.0030599448 0.0044375127 -1.7184544e-05 -0.0028581903
0002f0 45 71 bc 3b 46 f7 bd 3b 5f f1 c1 3b 38 29 e9 bb
       0.0057508075 0.0057972996 0.0059186663 -0.0071155094
000300 08 02 a0 3b 0d 5d 3a bb 33 40 cd 3b 43 46 ab bb
       0.0048830546 -0.002843681 0.0062637567 -0.0052268817
000310 47 dc 63 3c 87 94 f5 ba 80 1f d2 3b 24 af 66 3a
       0.013907499 -0.0018736281 0.0064124465 0.00087999017
000320 f6 bc 0a bb 56 4f f3 3a fe c1 c3 bb 18 dc ac 3a
       -0.0021169758 0.0018563073 -0.0059740534 0.0013188152
000330 11 a3 83 39 2e db 06 bd 9a fa 8d 3b 04 8f 9b bb
       0.0002510776 -0.03292387 0.0043328525 -0.0047472734
000340 ff c3 ba 3b d2 57 b4 3b 08 3e f0 b9 ea d6 e9 bb
       0.005699634 0.005503633 -0.00045822584 -0.0071362155
000350 cf 74 91 3a 64 50 3f 3b 59 58 b6 3b 56 4b 91 3b
       0.0011097434 0.0029192204 0.005564731 0.0044340296
000360 4c c9 5b 3b 2c a3 b9 3b 45 33 5b 3a 9e 27 58 bb
       0.003353673 0.0056652036 0.0008361827 -0.0032982598
000370 90 cf 67 3a b2 38 83 bb 01 81 4a 3c a1 3a 19 3c
       0.000884288 -0.0040045613 0.0123598585 0.009352357
000380 aa 74 50 ba 7c 00 93 3a d3 18 8f 3b d6 29 90 bb
       -0.00079519546 0.0011215354 0.004366973 -0.0043995185
000390 86 e4 f3 3a 9a c8 66 bb b6 a0 cb 3b 15 58 7a b8
       0.0018607534 -0.0035214783 0.0062142266 -5.9686678e-05
0003a0 86 2a 6b 3b 2b 98 92 ba c7 1f c1 ba d9 8e 2b bb
       0.00358835 -0.0011184266 -0.0014734202 -0.0026177673
0003b0 33 61 f9 ba 44 8f 96 bc b5 68 ff ba ec 51 47 3a
       -0.001902616 -0.018378861 -0.0019486161 0.0007603455
0003c0 5f 1d f1 3b 3d 04 e1 3b 7f 0d cf b9 ac 33 02 3c
       0.0073582376 0.0068669603 -0.00039492172 0.00794689
0003d0 eb 61 94 bb 17 c3 2a ba 60 67 0b bc 21 38 c0 3b
       -0.0045282743 -0.0006514056 -0.008508533 0.005866066
0003e0 0e 5e 00 bc 51 61 06 3c 80 60 10 3b 7a 45 32 3a
       -0.007834924 0.008201913 0.0022030175 0.0006800514
0003f0 64 68 ad 37 e5 48 56 3b f3 97 e1 ba 72 b1 ac 3b
       2.0671818e-05 0.0032697257 -0.0017211422 0.0052701766

mu.4.bias f4 [4]
000000 7d 48 1f bb ae 75 33 3b 9e a2 d0 3b 0a 6b cf bb
       -0.002430468 0.0027383375 0.0063670417 -0.0063298987
