experiments/data/sawyer_clutter_200steps_10H/sac/2021-06-22_11-48-17_clutter_200steps_10H/policy_3000.pt (torch_old, 75801 bytes, 6 tensors)

mu.0.weight f4 [128, 12]
-0.22573406 0.18668732 -0.089883335 -0.26433533 0.07162745 0.18036418 0.10180096 -0.18281059
-0.18944521 -0.04772099 0.13786267 -0.09248209 0.21464795 0.18180235 -0.1800418 0.2608137
0.24746872 -0.16500756 0.20442201 -0.26494294 -0.2212135 0.006867074 -0.25736263 0.20233311
-0.21897914 0.22223836 0.013448549 -0.1175691 -0.08601662 -0.22259364 -0.20640852 -0.15183486
-0.052458093 -0.2557167 0.21090627 -0.09055658 -0.15267345 -0.07414039 0.09967947 0.074242644
0.23117799 -0.08032905 -0.08845396 0.043580797 -0.15732975 0.12644204 -0.036026016 -0.08782599
0.06033478 -0.008145301 0.12049337 0.25894716 0.043729514 0.20725387 0.14589414 -0.17211206
-0.11632487 -0.22582935 -0.07947184 0.22247665 0.21853383 -0.2924994 0.10606019 -0.19700038
0.022031406 0.14519134 -0.047155373 -0.10724164 -0.098384395 0.06488228 -0.21523735 -0.09582922
0.13461137 0.1292827 -0.14540371 0.1326469 0.2581241 -0.29269224 0.08419348 -0.06374845
0.091455795 -0.28199515 0.23525713 -0.28918898 0.21251637 0.031132026 -0.020935785 0.19917645
-0.01988962 0.21528125 -0.22530468 0.11669683 -0.27390406 0.23698641 -0.09983223 -0.068431675
0.030020904 0.23301679 -0.026924316 -0.18403219 -0.17292392 -0.1923185 -0.11936301 -0.27853575
-0.15134211 -0.13561875 -0.10789951 -0.18546808 -0.0522191 -0.15817574 -0.025263749 -0.18608871
-0.06370573 -0.09290435 0.038924903 -0.017179621 0.14399621 0.0030623388 -0.05949538 -0.04509602
-0.24492817 -0.0761267 0.12467961 0.18381664 0.13973753 0.26391762 0.20355023 -0.024600327
0.18646197 0.26907247 0.16890731 -0.2831888 0.18800797 -0.16711079 0.13340966 0.21767394
0.17943537 -0.29297155 0.08982027 -0.055305157 0.17022002 0.029691495 0.22154954 -0.08045537
0.14154203 -0.10727473 0.18348907 -0.025843762 0.14271607 -0.1408014 0.17652015 -0.14499536
-0.05829284 -0.032360524 -0.075336844 0.26689383 -0.05888755 0.16211879 -0.19893627 0.2737056
0.103961766 -0.023054823 -0.1425022 -0.03718408 -0.09935564 0.042975605 0.028583914 -0.20345004
0.2515724 -0.14376836 0.2246461 0.07617017 0.028667217 -0.09154938 -0.011776923 -0.16160786
-0.04694862 -0.24480374 -0.2135215 0.16969334 0.20642415 -0.09557894 0.21830574 0.17685394
-0.16238503 0.013197137 0.17947046 0.25732538 0.24983367 0.06416243 -0.06391464 0.054948192
-0.04052799 -0.011846188 0.12998772 0.15335688 0.20268883 0.09435058 0.19080503 -0.11703537
0.058301814 0.23511119 -0.20331435 -0.06678452 0.25692368 0.08690119 -0.13344218 -0.0888691
0.15974775 0.100648366 -0.07816186 -0.022275178 -0.016173461 -0.083732106 -0.10016521 -0.082194105
-0.22482917 0.115664214 -0.04663763 0.21628699 0.008591179 0.14903173 -0.18608555 0.1864818
0.21180958 -0.18734916 -0.080276236 0.12096805 -0.054197356 -0.19498278 -0.08272221 -0.091866836
0.20636566 -0.07261814 -0.2188582 0.023641037 0.22643524 -0.049672775 -0.14666536 0.044850957
-0.04899914 -0.10766329 -0.2416388 0.077530816 0.1976639 0.11731522 0.2262776 0.2190854
-0.23212108 -0.008487655 0.22459832 0.13559164 0.17947033 -0.20384766 -0.10179846 -0.1317636
00000000: d426 67be f62a 3f3e c114 b8bd f656 87be
00000010: 6ab1 923d 63b1 383e 067d d03d b332 3bbe
00000020: edfd 41be 1677 43bd df2b 0d3e 4067 bdbd
00000030: accc 5b3e 652a 3a3e e15c 38be 6089 853e
00000040: 7168 7d3e bef7 28be 0154 513e 9aa6 87be
00000050: cb85 62be 3105 e13b 09c5 83be 6930 4f3e
00000060: 113c 60be 7492 633e 4e57 5c3c 11c8 f0bd
00000070: 7b29 b0bd 96ef 63be c15c 53be 997a 1bbe
00000080: 4cde 56bd 4ded 82be d0f7 573e ba75 b9bd
00000090: 6e56 1cbe ebd6 97bd c024 cc3d 870c 983d
000000a0: ecb9 6c3e 8f83 a4bd 5a27 b5bd c781 323d
000000b0: 0d1b 21be 067a 013e 0490 13bd 1dde b3bd
000000c0: 9a21 773d de73 05bc 3ac5 f63d b994 843e
000000d0: b81d 333d 5c3a 543e 4665 153e 253e 30be
000000e0: bc3b eebd cf3f 67be 22c2 a2bd ebd0 633e
000000f0: 55c7 5f3e 7bc2 95be 1636 d93d 78ba 49be
00000100: 357b b43c 0aad 143e fe25 41bd 81a1 dbbd
00000110: c27d c9bd 00e1 843d 2e67 5cbe 1c42 c4bd
00000120: 90d7 093e af62 043e b6e4 14be 97d4 073e
00000130: d828 843e c2db 95be a26d ac3d 8c8e 82bd
00000140: 2d4d bb3d ab61 90be 3fe7 703e 9410 94be
00000150: e49d 593e 9708 ff3c 8681 abbc e9f4 4b3e
00000160: 8eef a2bc b072 5c3e 45b6 66be bffe ee3d
00000170: 273d 8cbe 91ac 723e d774 ccbd e825 8cbd
00000180: 66ee f53c f49b 6e3e 6290 dcbc ef72 3cbe
00000190: f812 31be 24ef 44be 9874 f4bd 3d9c 8ebe
000001a0: 6df9 1abe a4df 0abe 6bfa dcbd 58eb 3dbe
000001b0: b2e3 55bd d2f8 21be ecf5 cebc 0a8e 3ebe
000001c0: 2678 82bd a344 bebd b86f 1f3d 47bc 8cbc
000001d0: be73 133e 85b1 483b 6db1 73bd 9bb6 38bd
000001e0: 73ce 7abe 51e8 9bbd 0658 ff3d 6e3a 3c3e
000001f0: 5b17 0f3e 3620 873e 796f 503e a086 c9bc
00000200: e3ef 3e3e dec3 893e 0af6 2c3e 1ffe 90be
00000210: 2985 403e 171f 2bbe 8b9c 083e ebe5 5e3e
00000220: e8bd 373e 5e00 96be b1f3 b73d a987 62bd
00000230: 284e 2e3e 943b f33c e2dd 623e c9c5 a4bd
00000240: 65f0 103e dbb2 dbbd 8fe4 3b3e 4cb6 d3bc
00000250: 2924 123e 3e2e 10be b3c1 343e aa79 14be
00000260: 79c4 6ebd 788c 04bd 344a 9abd 4fa6 883e
00000270: 1234 71bd 7802 263e f3b5 4bbe 2423 8c3e
00000280: e8e9 d43d 78dd bcbc 19ec 11be 554e 18bd
00000290: f87a cbbd 3007 303d d028 ea3c 3555 50be
000002a0: 19ce 803e 0338 13be a109 663e 1bff 9b3d
000002b0: 83d7 ea3c 3e7e bbbd fff3 40bc 887c 25be
000002c0: 324d 40bd d5ad 7abe 61a5 5abe 17c4 2d3e
000002d0: da60 533e e4be c3bd 8a8b 5f3e 3319 353e
000002e0: 4348 26be ce38 583c 1bc7 373e 27c0 833e
000002f0: 66d4 7f3e 9867 833d aee5 82bd 5b11 613d
00000300: ad00 26bd 8416 42bc 801b 053e 9609 1d3e
00000310: a98d 4f3e e03a c13d 6562 433e 3db0 efbd
00000320: e2cd 6e3d fdc0 703e a331 50be 53c6 88bd
00000330: 808b 833e 40f9 b13d 11a5 08be 0101 b6bd
00000340: ea94 233e bb20 ce3d 5313 a0bd 6f7a b6bc
00000350: 357e 84bc bd7b abbd 6b23 cdbd 6255 a8bd
00000360: 9e39 66be 5ce1 ec3d 1907 3fbd 567a 5d3e
00000370: 04c2 0c3c c69b 183e 368d 3ebe 16f5 3e3e
00000380: 9ce4 583e 75d8 3fbe de67 a4bd 19be f73d
00000390: 0cfe 5dbd 91a9 47be 436a a9bd ae24 bcbd
000003a0: 8551 533e d2b8 94bd 5d1c 60be d9aa c13c
000003b0: a4de 673e ae75 4bbd 722f 16be a3b5 373d
000003c0: 52b3 48bd 927e dcbd 2970 77be 7ac8 9e3d
000003d0: 6868 4a3e f642 f03d 51b5 673e ec57 603e
000003e0: 26b1 6dbe ce0f 0bbc 1afd 653e 89d8 0a3e
000003f0: 12c7 373e 71bd 50be b67b d0bd 0aed 06be

mu.0.bias f4 [128]
-0.039104715 -0.012920132 -0.061452348 0.16015297 -0.20742251 -0.02316227 -0.20461747 0.09283327
0.0011328043 -0.17106079 -0.13260193 0.11186577 -0.101743855 0.18072756 -0.024585016 0.2526112
0.27380553 -0.00068751484 -0.037621427 -0.20847821 -0.022158189 0.25265807 -0.14928876 0.07499983
-0.2887653 -0.18249643 -0.22972745 0.17632902 0.25909674 0.2473904 0.10864153 -0.22238414
-0.038147923 0.24167201 -0.20420714 0.27440754 -0.06764047 0.23797318 -0.14902768 -0.07533691
0.14511178 -0.24733336 -0.20390762 -0.059210707 0.23757297 0.0046468526 -0.26881415 -0.007633846
0.12317118 0.11578693 0.11697348 0.14692616 -0.09147283 0.17803103 -0.052920744 -0.11566838
0.21130332 -0.19320801 0.07792808 0.21518128 0.26177633 0.24496627 -0.21362941 0.237441
0.1581908 0.13532302 0.01360413 0.21783447 0.09654562 -0.2739981 0.2733757 -0.07678047
-0.05820837 0.098753795 -0.15664254 0.06593349 0.17413133 -0.19079998 -0.039800182 -0.17610568
0.18611836 0.0590877 -0.06834173 -0.004585182 -0.1823904 0.13949232 -0.23257506 -0.12649986
-0.054393694 -0.026754128 0.064485826 -0.18947707 0.20413074 -0.028769733 -0.22183132 -0.100905664
0.18935923 0.01782814 -0.22846831 -0.18505383 0.08623834 0.22016834 -0.14048298 0.0200033
0.22501327 -0.24134892 0.08940816 0.0137872305 0.15769775 -0.09554528 -0.124587744 -0.19876792
0.018657072 0.0071732504 0.23485467 -0.18886462 -0.29591975 0.052377224 0.0514384 -0.08969851
0.18912396 0.18633029 -0.11171983 0.011985554 0.2533935 -0.2697319 -0.17350987 -0.05212913
00000000: 442c 20bd f6ae 53bc 75b5 7bbd 24ff 233e
00000010: 9166 54be cdbe bdbc 3e87 51be 5f1f be3d
00000020: 9b7a 943a 8f2a 2fbe cdc8 07be e119 e53d
00000030: 155f d0bd a510 393e 8466 c9bc 4156 813e
00000040: 3d30 8c3e 573a 34ba ed18 1abd 507b 55be
00000050: 1785 b5bc 665c 813e 27df 18be 8399 993d
00000060: 0cd9 93be 58e0 3abe ac3d 6bbe 988f 343e
00000070: 54a8 843e e953 7d3e 737f de3d abb8 63be
00000080: ff40 1cbd de78 773e ad1b 51be 257f 8c3e
00000090: 1687 8abd 3eaf 733e b69a 18be 3d4a 9abd
000000a0: 2f98 143e f544 7dbe 29cd 50be ed86 72bd
000000b0: 5446 733e a044 983b 02a2 89be 5725 fabb
000000c0: 2c41 fc3d b321 ed3d cb8f ef3d d073 163e
000000d0: 1b56 bbbd c44d 363e 6cc3 58bd 8be3 ecbd
000000e0: e65f 583e 52d8 45be c298 9f3d 7b58 5c3e
000000f0: 8c07 863e 70d8 7a3e abc1 5abe bc23 733e
00000100: c5fc 213e 1e92 0a3e dbe3 5e3c 0010 5f3e
00000110: b6b9 c53d 7b49 8cbe e6f7 8b3e 143f 9dbd
00000120: e66b 6ebd 6e3f ca3d e766 20be 2308 873d
00000130: 7c4f 323e 1261 43be 8405 23bd 0c55 34be
00000140: d095 3e3e f205 723d c0f6 8bbd 4b3f 96bb
00000150: 8dc4 3abe 13d7 0e3e 2828 6ebe 2e89 01be
00000160: eccb 5ebd 792b dbbc 2511 843d 4706 42be
00000170: a607 513e 81ae ebbc c027 63be a1a7 cebd
00000180: 63e7 413e 520c 923c 99f3 69be c07e 3dbe
00000190: ba9d b03d cf73 613e c5da 0fbe f6dd a33c
000001a0: e169 663e 2c24 77be a01b b73d d6e3 613c
000001b0: 857b 213e 3ead c3bd dc27 ffbd d189 4bbe
000001c0: b7d6 983c 960d eb3b be7d 703e ba65 41be
000001d0: cb82 97be 8089 563d 12b1 523d dab3 b7bd
000001e0: b6a9 413e 5ecd 3e3e 5ecd e4bd 0f5f 443c
000001f0: cbbc 813e 4d1a 8abe 92ac 31be 5b85 55bd

mu.2.weight f4 [128, 128]
0.06230632 -0.007837242 0.0485057 0.07346005 0.04662555 0.011253356 0.03927347 0.008117002
0.053723402 0.0824212 -0.017365562 0.020869136 0.017677803 -0.0235652 -0.015807595 -0.018097159
-0.086321816 0.04162103 0.036437567 -0.07055876 -0.00043944552 -0.05759612 0.07837153 -0.038582228
0.020484716 0.064845875 0.06749091 0.038209874 -0.07786424 -0.028106214 -0.06324739 -0.01173993
0.04166203 -0.028070573 -0.013861907 0.025021603 0.0057909554 0.053311598 0.035851102 0.046247397
-0.08992071 -0.051180877 -0.058297224 -0.09093963 -0.011962595 -0.014075481 -0.028806465 -0.04665191
0.04063945 -0.08355775 -0.034616757 0.013065885 -0.03689989 0.009869295 0.02461985 -0.02499338
-0.04333751 -0.08760642 0.004245152 0.02141633 0.021795874 0.05393673 0.059439793 -0.012190333
-0.048495833 -0.09156841 -0.0660785 0.056111444 0.0005252291 0.07455066 -0.097658604 -0.07404668
0.04180781 -0.07778159 -0.07414256 -0.050330624 -0.008910517 -0.06990674 0.040328614 -0.071374364
-0.0047527305 0.036326848 0.072180286 0.03940435 0.05732848 0.04042064 0.07819493 -0.06709713
-0.061485495 0.0629085 -0.03622382 -0.0340594 -0.023436306 -0.09175722 -0.05200681 -0.0006990147
-0.013823372 0.0033921394 0.046575997 0.02089043 -0.062390078 -0.035263658 0.07196765 0.021238888
0.00040443486 0.080238335 -0.08939622 0.0149351 0.076533616 0.024637172 0.06227469 -0.08934441
-0.046341036 -0.060461994 -0.07804748 0.018098215 -0.08086025 0.0151875615 0.06316234 -0.033432268
-0.0626987 -0.080734074 0.035373688 0.045500178 0.018805727 -0.0732645 -0.0027044886 0.017261941
0.024640061 -0.059547823 -0.0042137825 0.02085494 -0.09078176 -0.060243033 -0.01404073 -0.089715086
0.026078232 0.031558346 -0.050753016 -0.07577342 0.052361995 -0.08578235 0.033255696 0.07514625
-0.0018804544 0.049924355 -0.0033135174 0.045310862 -0.0017858725 0.03649828 -0.072146796 0.016813688
-0.017582696 0.06830701 0.0090361275 -0.003644658 -0.059844557 0.030046312 0.029815832 0.018409923
0.017163796 -0.09329066 -0.0326155 0.015394015 -0.0712671 0.07589548 0.06515833 -0.015982067
0.07435894 -0.035365824 0.072182074 0.016472928 -0.079306535 -0.022547962 0.031876355 -0.09629371
0.063562594 -0.05867346 -0.056948513 -0.03981007 0.081851564 0.012948504 -0.034627125 0.02488518
-0.017525518 -0.023194896 -0.025816394 0.045610722 0.030196333 0.03298307 0.016483864 0.074795015
-0.06876236 0.08643823 -0.012001387 -0.060783427 0.008789891 -0.026360422 -0.06327565 0.0009572886
0.056577925 -0.0360481 0.085067585 -0.08269961 0.069252014 -0.031701267 0.08310528 0.07851717
0.026992671 0.037309602 -0.041322023 -0.08377898 0.08059328 -0.08474805 0.029972743 -0.090820745
-0.09513307 -0.068426184 0.06892698 0.08394434 0.0042275507 0.031793997 0.027260335 0.06331473
-0.05884492 -0.029844841 -0.08928377 -0.03216654 0.08519478 -0.07404186 -0.061085492 -0.068239346
-0.02984357 -0.08715542 0.041930027 0.0687172 -0.042093597 -0.057105415 0.041091572 -0.079889506
0.05110862 -0.07020657 0.07362088 0.0665159 0.053407054 0.00457352 0.08097832 -0.10154125
-0.055279113 -0.021044908 -0.08897934 -0.0067617125 -0.03825872 0.06537159 -0.028175727 0.031004375
00000000: e934 7f3d c767 00bc eaad 463d 3972 963d
00000010: 6ffa 3e3d ff5f 383c 38dd 203d 2dfd 043c
00000020: 120d 5c3d 72cc a83d 3942 8ebc c0f5 aa3c
00000030: 0ad1 903c ce0b c1bc ee7e 81bc 7e40 94bc
00000040: 7ec9 b0bd d07a 2a3d 8f3f 153d 1c81 90bd
00000050: 6165 e6b9 e9e9 6bbd 4181 a03d 6608 1ebd
00000060: 90cf a73c eacd 843d ad38 8a3d f581 1c3d
00000070: 4977 9fbd 013f e6bc d987 81bd d658 40bc
00000080: cea5 2a3d 42f4 e5bc 0d1d 63bc 1bfa cc3c
00000090: 0ec2 bd3b 435d 5a3d 9bd8 123d e96d 3d3d
000000a0: 5928 b8bd 0aa3 51bd 12c9 6ebd 8f3e babd
000000b0: c3fe 43bc d99c 66bc 89fb ebbc 1316 3fbd
000000c0: 8d75 263d 5320 abbd 4dca 0dbd 4b12 563c
000000d0: 5724 17bd d3b2 213c 91af c93c ebbe ccbc
000000e0: ac82 31bd ff6a b3bd eb1a 8b3b 4d71 af3c
000000f0: 438d b23c c3ec 5c3d 2477 733d f6b9 47bc
00000100: 91a3 46bd 3888 bbbd 2a54 87bd 1dd5 653d
00000110: 87af 093a 04ae 983d 3c01 c8bd c9a5 97bd
00000120: ab3e 2b3d f44b 9fbd 0ed8 97bd 7c27 4ebd
00000130: 6bfd 11bc 442b 8fbd 9e2f 253d b92c 92bd
00000140: cbbc 9bbb 76cb 143d 42d3 933d 7566 213d
00000150: 45d1 6a3d 1d90 253d aa24 a03d 386a 89bd
00000160: 37d8 7bbd 2cd6 803d 6e5f 14bd df81 0bbd
00000170: 7ffd bfbc 36eb bbbd 1805 55bd 153e 37ba
00000180: 6d7b 62bc a84e 5e3b 79c6 3e3d 6822 ab3c
00000190: bd8c 7fbd a070 10bd c663 933d 2dfd ad3c
000001a0: 540a d439 ff53 a43d 5e15 b7bd 5ab2 743c
000001b0: a8bd 9c3d e5d3 c93c bf13 7f3d 34fa b6bd
000001c0: 19d0 3dbd ffa6 77bd 5bd7 9fbd b542 943c
000001d0: 0f9a a5bd 40d5 783c 425b 813d 46f0 08bd
000001e0: 2d68 80bd e857 a5bd 00e4 103d 655e 3a3d
000001f0: 780e 9a3c b30b 96bd ca3d 31bb ea68 8d3c
00000200: f4d9 c93c 6be8 73bd c513 8abb fbd7 aa3c
00000210: caeb b9bd 66c1 76bd 170b 66bc 8bbc b7bd
00000220: 04a2 d53c 5343 013d 65e2 4fbd 182f 9bbd
00000230: 8879 563d a8ae afbd 2037 083d 47e6 993d
00000240: 9479 f6ba 7b7d 4c3d 9927 59bb e297 393d
00000250: f013 eaba 387f 153d b3c1 93bd dcbc 893c
00000260: 9609 90bc 8ce4 8b3d 440c 143c 37db 6ebb
00000270: 911f 75bd af23 f63c 5540 f43c 68d0 963c
00000280: 179b 8c3c 2c0f bfbd d597 05bd 2e37 7c3c
00000290: 7cf4 91bd 176f 9b3d bb71 853d d3ec 82bc
000002a0: 8049 983d c1db 10bd 32d4 933d 3cf2 863c
000002b0: 776b a2bd 81b6 b8bc c890 023d a335 c5bd
000002c0: 1b2d 823d 9553 70bd d842 69bd e20f 23bd
000002d0: cba1 a73d f625 543c 2cd5 0dbd 01dc cb3c
000002e0: ad91 8fbc 3903 bebc e77c d3bc 4fd2 3a3d
000002f0: 4d5e f73c 4119 073d 2b09 873c 212e 993d
00000300: 48d3 8cbd 8706 b13d 77a1 44bc 0bf8 78bd
00000310: 7a03 103c d0f1 d7bc aa96 81bd 8df2 7a3a
00000320: 41be 673d 2ca7 13bd ea37 ae3d 6a5e a9bd
00000330: 00d4 8d3d 30d9 01bd 1a33 aa3d 9ccd a03d
00000340: bc1f dd3c f4d1 183d 4841 29bd 5094 abbd
00000350: 170e a53d 6390 adbd 6689 f53c 3a00 babd
00000360: 21d5 c2bd 0723 8cbd 9729 8d3d 03eb ab3d
00000370: 4487 8a3b 6c3a 023d 1151 df3c 27ab 813d
00000380: 5f07 71bd 2b7d f4bc 69da b6bd 10c1 03bd
00000390: 9a7a ae3d 42a3 97bd c834 7abd 12c1 8bbd
000003a0: 817a f4bc 8a7e b2bd d2be 2b3d 9abb 8c3d
000003b0: 566a 2cbd 5ee7 69bd a34f 283d 1c9d a3bd
000003c0: 4657 513d 76c8 8fbd 8bc6 963d 7d39 883d
000003d0: 5bc1 5a3d 77dd 953b f6d7 a53d dcf4 cfbd
000003e0: 5a6c 62bd 5f66 acbc cd3a b6bd 5b91 ddbb
000003f0: 2db5 1cbd 8ae1 853d c8d0 e6bc e3fc fd3c

mu.2.bias f4 [128]
0.00085325877 0.02717408 0.05486991 0.037213728 0.076442204 0.08441215 -0.08186692 -0.0019951004
-0.094557695 0.06477516 -0.09179977 -0.05708611 -0.05279454 0.0745115 0.03550543 0.07512858
-0.006623359 -0.031271014 0.0038854145 -0.03762393 -0.033210088 -0.07560562 -0.043158863 -0.008892701
0.015183226 0.032978322 0.082739316 0.077344954 -0.07565502 -0.048498534 0.08231279 0.010519097
-0.09666613 -0.014572633 0.066090636 -0.057783555 -0.04025723 -0.08661015 -0.007741399 0.012482624
-0.02628211 0.047077682 0.018207721 0.042314824 0.043405432 -0.0077202152 -0.05637585 -0.028933961
0.04133191 -0.072276026 0.07783946 0.019665336 0.0461765 0.08150805 0.044141762 -0.07070579
0.06540577 -0.0649924 -0.081641585 -0.042332776 -0.057698674 0.022941269 -0.054706212 0.0030896675
-0.086651266 -0.03896983 0.017741835 -0.02995451 -0.009380305 0.004656446 0.033299062 -0.08748889
-0.080251694 0.00035655344 0.05260602 -0.037921563 -0.0038219872 -0.049734797 0.04528245 0.03011957
0.006037378 -0.014567421 0.052498188 0.038983524 -0.01957728 0.011766427 -0.07707456 0.045331407
0.084440775 -0.068454705 -0.023918001 -0.035106916 -0.07770756 -0.06427703 0.022110952 0.057348456
0.067763 0.054426003 0.049932398 -0.052575245 0.06880233 0.02116236 -0.012535627 0.01582011
-0.043227788 -0.01565255 -0.046925932 -0.06262528 0.07372906 -0.019537235 -0.027828991 0.0709136
0.028746294 -0.07865707 -0.06950108 0.036537107 -0.06723606 -0.026695453 -0.094564535 0.08013077
-0.08840665 -0.023701435 0.051895577 0.03796062 0.030022154 0.007200928 0.06587655 0.08314201
00000000: 3aad 5f3a 2d9c de3c 45bf 603d 6c6d 183d
00000010: bb8d 9c3d 47e0 ac3d d8a9 a7bd 3bc0 02bb
00000020: 77a7 c1bd d7a8 843d 8501 bcbd 20d3 69bd
00000030: 163f 58bd 7c99 983d 246e 113d 03dd 993d
00000040: c308 d9bb 0916 00bd 70a2 7e3b 8d1b 1abd
00000050: 4d07 08bd 1fd7 9abd 59c7 30bd b1b2 11bc
00000060: 11c3 783c 4714 073d 3b73 a93d 0867 9e3d
00000070: 05f1 9abd 66a6 46bd 9c93 a83d 4a58 2c3c
00000080: e4f8 c5bd 0ec2 6ebc 875a 873d 73ae 6cbd
00000090: c4e4 24bd aa60 b1bd 90ab fdbb eb83 4c3c
000000a0: 944d d7bc 87d4 403d 5c28 953c 4f52 2d3d
000000b0: e5c9 313d dcf9 fcbb 5dea 66bd ea06 edbc
000000c0: a64b 293d 7405 94bd 4b6a 9f3d 3319 a13c
000000d0: 9223 3d3d b1ed a63d fecd 343d 32ce 90bd
000000e0: 76f3 853d bc1a 85bd b433 a7bd 2265 2dbd
000000f0: 7255 6cbd 54ef bb3c 9f13 60bd 057c 4a3b
00000100: 3876 b1bd d49e 1fbd 5357 913c 2963 f5bc
00000110: daaf 19bc 1a95 983b 9964 083d 602d b3bd
00000120: 005b a4bd cbef ba39 6979 573d a453 1bbd
00000130: 4e7a 7abb b7b6 4bbd 177a 393d 51bd f63c
00000140: 33d5 c53b 31ac 6ebc 5708 573d 30ad 1f3d
00000150: 8860 a0bc f9c7 403c 44d9 9dbd 6dad 393d
00000160: 49ef ac3d fb31 8cbd afef c3bc 45cc 0fbd
00000170: 2425 9fbd ada3 83bd 0722 b53c 37e6 6a3d
00000180: 54c7 8a3d cded 5e3d ea85 4c3d 2459 57bd
00000190: 3ce8 8c3d b05c ad3c 3b62 4dbc 2d99 813c
000001a0: 9f0f 31bd c739 80bc 6835 40bd af41 80bd
000001b0: 43ff 963d 8d0c a0bc a0f9 e3bc 263b 913d
000001c0: 597d eb3c f516 a1bd 9556 8ebd efa7 153d
000001d0: 0fb3 89bd 6cb0 dabc 0dab c1bd 9a1b a43d
000001e0: 8c0e b5bd 8329 c2bc 7590 543d 987c 1b3d
000001f0: 05f1 f53c c3f5 eb3b 49ea 863d 5c46 aa3d

mu.4.weight f4 [4, 128]
0.0028310635 -0.012204309 -0.0026223739 -0.0029330018 -0.0053517213 0.0020392986 -0.0015091719 0.025745783
0.0012767479 0.0028231335 0.006177946 -0.0020961757 -0.00025991417 0.006141455 0.008115164 0.009714142
-0.00056015374 -0.0031532873 -0.01456087 -0.00070510106 -0.008266527 0.0014595231 -0.0028427239 -0.0038075284
-0.001806535 -0.0037165403 -0.0006078238 0.0005555582 -0.0029567454 -0.0025801347 -0.008241622 -0.008694092
0.0061261463 -0.004133749 -0.0028929007 0.00067877484 -0.0027751948 0.003943415 -0.005510204 -0.0041801906
-0.0009672708 -0.0021809451 -0.008120617 -0.0015832926 -0.0057507227 -0.00127616 0.0029967227 0.0017287746
-0.00042074808 -0.00043381847 -0.0021523198 -0.0011762461 0.0049880464 -0.0049117254 -0.006456536 -0.00066729274
-0.0020795057 -0.0020878275 -0.00012298739 0.00010381661 -0.0016975517 -0.0021444832 -0.0062134997 0.00040345435
-0.0012252653 -0.011081175 0.0010728341 0.011596428 0.0013755132 0.00016914943 -0.0034386795 -0.003897867
0.0020626315 -0.0014264424 0.011794125 0.0028482107 0.0020362018 -0.028020998 -0.005365594 -0.00616908
-0.004639237 -0.0058120205 0.004108993 -0.010588033 -0.0042210254 -0.008311351 -0.001409866 -0.0030552924
-0.006912603 -0.0011799634 0.003783489 -0.00031979245 0.00055641966 0.0021773921 -0.0035927172 -0.0008595341
-0.016009176 -0.0027668688 -0.005319274 0.0050207083 -0.0067718383 0.005181689 -0.0021625927 -0.0017999068
-0.000145083 -0.0006168565 0.0008259992 0.0015287169 -0.0028068845 -0.012018448 0.000724391 -0.00360775
-0.0033746655 -0.0004997804 0.0017093198 -0.003057435 0.0031500473 -0.001676419 0.004240284 -0.0047014467
-0.0023437461 -0.0013428102 -0.00473521 -0.0018525643 0.000859231 -0.0023441247 -0.008109075 -0.0006236528
-0.004017632 -0.0064712157 -0.0004396642 0.001322597 -0.00086002646 0.0038105268 0.00562283 0.0055395
0.00030165893 0.0072095185 0.0035169355 -0.0011467505 0.0003700462 0.00838152 -0.005499215 0.0045197452
0.002561536 0.0067028743 -0.008002681 0.0018715046 -0.0016311066 0.00015217843 -0.004153313 0.0006259039
0.008462932 5.627377e-05 0.0030360147 0.0018244894 0.005736165 0.0028081737 0.000318722 0.0033875883
-0.0068264594 0.0027302892 0.0006495674 -0.0052258563 -0.0010091484 0.0050984295 0.004232301 -0.007438858
-0.00032928708 0.0018974998 0.0027864166 0.0011605509 -0.0007660604 0.0006144416 -0.0013014254 0.00014669207
0.0007948935 -0.0012422928 -0.0020129213 0.009466788 -0.0020947156 0.003967255 0.004850875 -0.004885167
0.0022969637 0.004968055 0.0010970061 -0.0028581903 0.004728133 0.004065705 0.005013064 -0.006498616
0.004989113 -0.0027446165 0.004627154 -0.0052268817 0.012376659 -0.002149345 0.005452287 0.0010066532
-0.0021169758 0.001086098 -0.0062547866 6.319956e-05 0.00029400206 -0.028837755 0.004157118 -0.004039584
0.005346702 0.0053038057 -0.00045822584 -0.0069406778 0.0007270178 0.0016312638 0.004265294 0.003565161
0.0031583968 0.0038505106 -0.00035243368 -0.0016190254 0.000884288 -0.0029332286 0.011863054 0.007729912
-7.203808e-05 0.001058593 0.0041120476 -0.00431902 0.0018023442 -0.004005644 0.0058465935 -0.00086590706
0.0024531847 -0.002402494 -0.0010194527 -0.002484795 -0.0013855386 -0.017612556 -0.0024113583 0.0005258983
0.0068609947 0.0059356526 -0.00044917056 0.0051710648 -0.0044062585 -0.001639112 -0.0074510714 0.0054187095
-0.00803909 0.008191171 0.0012035875 -0.0004072013 -0.00096474664 0.0024954104 -0.001960931 0.0035437148
00000000: 5d89 393b 95f4 47bc 22dc 2bbb 9b37 40bb
00000010: 7e5d afbb c1a5 053b 68cf c5ba d2e8 d23c
00000020: 8d58 a73a 5204 393b 5e70 ca3b fe5f 09bb
00000030: 1745 88b9 423e c93b 77f5 043c 1128 1f3c
00000040: 48d7 12ba 62a7 4ebb b790 6ebc 88d6 38ba
00000050: 5470 07bc 784d bf3a fe4c 3abb ba87 79bb
00000060: 41c9 ecba 3391 73bb 5d56 1fba e1a2 113a
00000070: f5c5 41bb 7a17 29bb de07 07bc aa71 0ebc
00000080: d7bd c83b 6674 87bb d296 3dbb cfef 313a
00000090: 0be0 35bb c337 813b f18e b4bb fbf9 88bb
000000a0: 7290 7dba 30ee 0ebb 560c 05bc 7c86 cfba
000000b0: 8f70 bcbb d344 a7ba aa64 443b 0d98 e23a
000000c0: da97 dcb9 2172 e3b9 ef0d 0dbb 452c 9aba
000000d0: c472 a33b 8af2 a0bb 5991 d3bb 42ed 2eba
000000e0: 5148 08bb efd3 08bb 2df6 00b9 1eb8 d938
000000f0: 6280 deba 758a 0cbb 9d9a cbbb ba86 d339
00000100: 1599 a0ba d18d 35bc 579e 8c3a f2fe 3d3c
00000110: 904a b43a b45d 3139 785b 61bb 5b73 7fbb
00000120: 372d 073b 77f7 baba 253c 413c 0ca9 3a3b
00000130: cc71 053b 4b8c e5bc ddd1 afbb fe25 cabb
00000140: be04 98bb c372 bebb bba4 863b 6e79 2dbc
00000150: 8750 8abb 552c 08bc 41cb b8ba 4d3b 48bb
00000160: 1e83 e2bb 00a9 9aba 6af4 773b d1a9 a7b9
00000170: b1dc 113a 94b2 0e3b cb73 6bbb 5b52 61ba
00000180: ad25 83bc 5b54 35bb 4e4d aebb c184 a43b
00000190: 4ce6 ddbb 28cb a93b 49ba 0dbb daea ebba
000001a0: 6c21 18b9 8ab4 21ba de87 583a 3a5f c83a
000001b0: b5f3 37bb 06e9 44bc 0fe5 3d3a 0070 6cbb
000001c0: 7e29 5dbb b203 03ba 410b e03a 3f5f 48bb
000001d0: 0671 4e3b 4abb dbba 15f2 8a3b 980e 9abb
000001e0: 8999 19bb 3c01 b0ba d229 9bbb bed1 f2ba
000001f0: 043e 613a e39f 19bb eddb 04bc a27c 23ba
00000200: 57a6 83bb 7e0c d4bb bb82 e6b9 fe5a ad3a
00000210: 6673 61ba 08ba 793b b73f b83b b284 b53b
00000220: fa27 9e39 d33d ec3b 637c 663b 904e 96ba
00000230: c302 c239 a552 093c c232 b4bb 5f1a 943b
00000240: 71df 273b c9a3 db3b ad1d 03bc 464d f53a
00000250: dbca d5ba 1692 1f39 8418 88bb b313 243a
00000260: 1ca8 0a3c 8007 6c38 e0f7 463b b523 ef3a
00000270: 71f6 bb3b 5609 383b 251a a739 4d02 5e3b
00000280: 7eb0 dfbb a7ee 323b bb47 2a3a a93d abbb
00000290: 6745 84ba ba10 a73b 1daf 8a3b aac1 f3bb
000002a0: 2aa4 acb9 87b5 f83a 509c 363b a01d 983a
000002b0: 71d1 48ba 7a12 213a 9794 aaba 5ad1 1939
000002c0: 6660 503a 6ed4 a2ba 37eb 03bb 961a 1b3c
000002d0: 7f47 09bb bfff 813b 17f4 9e3b c013 a0bb
000002e0: a888 163b 11cb a23b 6bc9 8f3a 7a50 3bbb
000002f0: 74ee 9a3b 9b39 853b a144 a43b 58f2 d4bb
00000300: b77b a33b 06df 33bb 629f 973b 4346 abbb
00000310: 78c7 4a3c 06dc 0cbb 19a9 b23b adf1 833a
00000320: f6bc 0abb 675b 8e3a f4f4 ccbb 018a 8438
00000330: 4a24 9a39 283d ecbc 6f38 883b 7d5e 84bb
00000340: 6333 af3b 8ccb ad3b 083e f0b9 a06e e3bb
00000350: 5795 3e3a 21d0 d53a e1c3 8b3b 7aa5 693b
00000360: 1bfd 4e3b d958 7c3b d9c6 b8b9 7a35 d4ba
00000370: 90cf 673a 693b 40bb 415d 423c 344b fd3b
00000380: 2613 97b8 7dc0 8a3a 5bbe 863b 9186 8dbb
00000390: a33c ec3a c741 83bb c894 bf3b 0afe 62ba
000003a0: 9cc5 203b 2973 1dbb 289f 85ba f1d7 22bb
000003b0: f69a b5ba 3548 90bc e107 1ebb 70dc 093a
000003c0: 32d2 e03b dd7f c23b a77e ebb9 0972 a93b
000003d0: 6062 90bb 79d7 d6ba 1e28 f4bb 6e8f b13b
000003e0: 63b6 03bc 4334 063c b2c1 9d3a a27d d5b9
000003f0: 0de7 7cba 0a8a 233b f782 00bb ab3d 683b

mu.4.bias f4 [4]
-0.0012580723 0.0013909263 0.008719361 -0.007000115
00000000: e7e5 a4ba be4f b63a a7db 0e3c 3861 e5bb
