experiments/data/sawyer_clutter_200steps_10H/sac/2021-06-22_13-24-50_clutter_200steps_10H/policy_1800.pt (torch_old, 75801 bytes, 6 tensors)

mu.0.weight f4 [128, 12]
000000 a2 8c 88 be 85 c0 1b be 67 fa 80 be 5b f6 ea bd
       -0.26669794 -0.15210159 -0.25191042 -0.1147277
000010 c8 52 32 3e be 01 24 be c7 29 b8 3c bb ab bb 3d
       0.17414391 -0.1601629 0.022480858 0.09163614
000020 95 06 49 3e e2 ea 87 be 74 62 73 3e a0 29 14 3e
       0.19631417 -0.2654639 0.23768026 0.14469004
000030 ae 93 0c 3e 5a a0 2a bd b9 79 5d 3d 69 5f 88 3e
       0.1372821 -0.04165683 0.054071162 0.26635292
000040 33 b4 2e bc 6c 28 29 3e 74 85 12 3e 60 48 52 be
       -0.01066308 0.16519326 0.14308721 -0.20535421
000050 87 5f ff 3d a0 6f 83 3e ac ff 4e 3d 0b c8 45 3e
       0.12469392 0.256711 0.050536796 0.19314592
000060 3f 30 da bc 3a be 95 be a1 19 73 3e 43 93 8c 3e
       -0.026634334 -0.29246694 0.23740245 0.27456102
000070 51 0c 10 3e fd ca e2 bd c8 a5 f0 3c 77 2b 3a 3e
       0.14067198 -0.11073873 0.029375926 0.18180643
000080 d7 b6 42 3e c4 47 32 3c 7f 8d 7e be a9 8c ef bd
       0.1901506 0.010881368 -0.24858664 -0.11696751
000090 64 c8 85 be 1a ee 8b 3e 0c 4c 5c 3d 32 2f 7f be
       -0.26129448 0.27330095 0.05378346 -0.24920347
0000a0 48 31 f5 3d a9 f7 38 3d 1f 7c 78 3e 47 8d 35 bd
       0.1197229 0.045158062 0.24266098 -0.044324186
0000b0 bb 7a 4e 3e cb ef 98 bd df 50 89 be ee 8c 27 be
       0.20164005 -0.07467612 -0.26819512 -0.16362354
0000c0 0d 5f b5 3d da d4 1d be cc 28 78 be 24 8b 9b bb
       0.0885602 -0.15413228 -0.24234313 -0.0047468115
0000d0 94 60 3d be 7b 08 87 3e 2e d9 0b be 79 86 1e be
       -0.18493873 0.26373658 -0.13657066 -0.15480985
0000e0 ec f9 87 3d 74 ac 15 be 96 79 55 3e e3 e9 4e 3e
       0.06639466 -0.14616567 0.20847163 0.20206408
0000f0 df 97 95 3d 4b ec b9 bc 2a 00 87 be 8e 3e 0f 3e
       0.07304358 -0.022695681 -0.26367313 0.13988706
000100 e3 57 08 3e 60 f9 ee bd 56 54 64 3e 20 46 57 3c
       0.13314776 -0.11668658 0.22297797 0.013139278
000110 36 06 a8 3d 76 d3 59 bd 2e f9 95 3e 04 2e 17 3e
       0.0820431 -0.05318018 0.29291672 0.14763647
000120 49 da 5a bd 37 35 ae 3c 53 34 80 be c1 f0 f5 3d
       -0.05343083 0.02126561 -0.2503992 0.12008811
000130 b6 30 68 be cc 7a 94 be b2 8f 17 3b 93 88 04 3e
       -0.22674832 -0.28999937 0.002312642 0.12942724
000140 46 a5 92 3d 93 c8 60 be 57 78 b3 bc 84 73 08 be
       0.0716043 -0.21951513 -0.021907968 -0.13325316
000150 75 28 a4 3d ee 9b 96 be 35 71 98 3d 10 af 6c 3e
       0.08015529 -0.2941584 0.074434675 0.23113656
000160 85 2f 2f bd a0 2f 8d bd eb 5f 9e 3e 75 80 8b be
       -0.042769928 -0.068938494 0.30932555 -0.27246442
000170 da 70 03 be 75 ab 9e bc 1a 49 1b be 7a f1 98 3c
       -0.12836018 -0.019368866 -0.15164605 0.018669832
000180 0d 93 1d 3e 57 8b 22 3e d9 86 79 3e 6b be 03 be
       0.15388127 0.15873466 0.24367847 -0.12865607
000190 24 36 16 be 70 90 84 be 36 57 2d be 31 85 98 3e
       -0.1466909 -0.25891447 -0.169278 0.29789117
0001a0 b6 f8 89 3e 59 de 10 be c3 2e 7f be d0 3a 12 be
       0.26947564 -0.14147319 -0.24920182 -0.14280248
0001b0 2b 9f e4 bd 3a 39 8a bd 6c 7b 8c bc bd a4 b1 bd
       -0.111631714 -0.06749196 -0.017148696 -0.086739995
0001c0 e9 18 6b 3d 9e 6b 71 be 54 95 b1 bd 09 37 90 be
       0.057396803 -0.23576209 -0.0867106 -0.28166988
0001d0 a2 b8 f1 3d c5 6c 99 bd b2 96 d8 3d 88 cd 7b 3e
       0.11802794 -0.07491449 0.10575618 0.24590123
0001e0 4b 2f 5e 3e 63 09 e8 bd f4 99 cd bd bf 23 74 be
       0.21697728 -0.113299154 -0.1003913 -0.23841761
0001f0 b7 8f 26 3e 06 b0 6e 3e 09 d7 0f be 07 c7 8e 3e
       0.1626576 0.23309335 -0.14046873 0.2788622
000200 b6 e0 26 be ac a5 5e 3d 75 f1 43 be b2 d9 84 3e
       -0.16296658 0.054357216 -0.19135077 0.25947338
000210 95 2a 91 3e ff 3c 18 be 33 19 0d bd 7e 6e 31 be
       0.283528 -0.14867018 -0.03444786 -0.17327306
000220 00 b6 40 3e ca 09 1c be 89 f1 40 be ad 34 15 be
       0.18819427 -0.15238109 -0.18842138 -0.14570875
000230 93 2a 25 be 79 a4 8e 3e cb 35 7e be 0d 4f 77 3e
       -0.16129522 0.27859858 -0.24825208 0.24151249
000240 75 c3 56 3e 50 45 23 3d 32 9e 6a be a4 40 b3 3d
       0.20972998 0.039861023 -0.22911909 0.087525636
000250 37 a1 78 bd 2d c7 98 be c8 ed 91 3e 2b cd 0a 3e
       -0.06070062 -0.2983946 0.28501725 0.13554828
000260 ee a0 19 3e d5 85 01 3e 5d ea 46 be 2d 0a d8 3d
       0.15002796 0.12648709 -0.1942534 0.10548816
000270 43 95 f2 bd 71 6a 44 bd 80 c9 9a 3c b5 aa 88 be
       -0.11844876 -0.047953073 0.01889491 -0.2669274
000280 d4 ff 9f bd 1d 92 8a 3e 67 b9 8c bd c2 74 f0 3c
       -0.07812467 0.270646 -0.068713 0.02935255
000290 5a 83 c4 bb 86 b5 85 3e 4d 50 5c 3c cc 08 7c 3e
       -0.0059971036 0.26115054 0.01344688 0.2461273
0002a0 1c 62 82 ba df 85 c3 3d 9a 9f f3 bc 34 46 b0 bc
       -0.0009947452 0.09547018 -0.02973919 -0.02151785
0002b0 77 35 21 be e2 c2 da 3d 9d ed 60 be 92 65 15 3e
       -0.15743051 0.10681702 -0.21965642 0.14589527
0002c0 1c c5 5a 3d 8f ee 85 bd 46 7f 76 bd 28 5c 04 be
       0.053410634 -0.06539642 -0.06017997 -0.1292578
0002d0 26 28 b9 bc c5 d9 18 3e 77 4b 7d be 8e cf 8b 3e
       -0.022602152 0.14926822 -0.24735819 0.2730679
0002e0 28 bd 29 3e 5b 49 6f be ed e7 49 3e 61 73 91 be
       0.16576064 -0.23367827 0.19717379 -0.2840834
0002f0 b8 7e 93 3e 97 1b 53 be ed 27 45 3e 7d 6b e3 bc
       0.28807616 -0.20615993 0.19253512 -0.027761215
000300 55 5d 28 3e 62 1c c9 bd d2 a2 8b 3e 2b 30 fb 3d
       0.16441853 -0.09819867 0.2727266 0.12265047
000310 12 52 b8 3d c2 28 50 bc 65 2b 8e be ac f5 1a be
       0.09000029 -0.01270503 -0.27767482 -0.15132779
000320 ee 00 24 bd f7 e2 29 3d b8 61 b4 bd 3e d1 9a 3d
       -0.04003995 0.041476216 -0.08807701 0.07559441
000330 d8 c9 5d 3d 01 a1 3f 3e 19 f6 19 be cd 1b 0c 3e
       0.05414757 0.18713762 -0.15035285 0.1368248
000340 89 3b 94 3d 74 37 02 3e af 5e 64 be f1 eb 0a bc
       0.07237918 0.12716466 -0.22301744 -0.008479104
000350 7b c3 89 be 51 38 6f 3e 84 73 75 be fc 88 58 3e
       -0.26906952 0.23361327 -0.23969847 0.21146005
000360 ff 81 34 3c 40 08 a2 3d f6 7a f0 bd 0e 73 47 3e
       0.011017322 0.0791173 -0.11742203 0.19477484
000370 41 84 67 be a6 66 57 be b1 0a 90 be 68 af 7c 3e
       -0.22609045 -0.21035251 -0.28133157 0.24676287
000380 2c fe 87 bd 70 5b 63 3e 71 2d 3d be 8c b1 20 3e
       -0.06640276 0.2220285 -0.18474366 0.15692729
000390 84 5e 24 bd 06 87 32 3d 61 5a 49 3e e3 d2 1d be
       -0.0401292 0.0435858 0.19663383 -0.15412478
0003a0 9a 31 0f be cd 51 a9 bc aa 04 8b 3e ab e0 45 3e
       -0.13983765 -0.020668888 0.27151996 0.19323985
0003b0 99 af 8c bb 3f 6c f6 bd 7a 82 3d be 94 2e 36 be
       -0.004293394 -0.12032365 -0.18506804 -0.17791206
0003c0 ea f5 7f 3e 7b c4 87 3d 5a 29 c0 3d 75 8f b5 3d
       0.24996153 0.066292726 0.09382887 0.08865253
0003d0 4a 86 3f 3e 71 1d 7e 3b 99 b4 a3 3d 1f ef 64 3e
       0.18703571 0.0038774873 0.07993431 0.22356842
0003e0 5b ec 66 3c b4 d8 90 be fc 37 39 bb 96 ef 4e 3e
       0.0140944375 -0.2829033 -0.002826213 0.20208582
0003f0 0b 51 e0 bd db 33 06 3e 69 eb 35 3e c5 d3 bd 3d
       -0.10952958 0.13105719 0.17765583 0.092689075

mu.0.bias f4 [128]
000000 97 fa 7a bd eb 59 88 3e 25 1e 62 be c9 07 7d 3e
       -0.061274137 0.26631102 -0.22081812 0.24710001
000010 2f fd 91 3d eb b0 f2 bd 3c 92 57 3e 52 66 a3 3c
       0.07128369 -0.11850151 0.21051878 0.019946251
000020 34 eb 12 3d bb 02 dd 3d 0a ef b9 bd eb 6b 60 be
       0.03586884 0.107915364 -0.09078796 -0.21916167
000030 96 7a 14 be a9 d7 50 3d 82 75 97 bd 09 c1 95 3e
       -0.14499888 0.05098692 -0.0739546 0.29248837
000040 f0 da 13 be d0 eb 0b be e4 4f 1b be 70 37 71 be
       -0.14438987 -0.13664174 -0.15167195 -0.23556304
000050 8a 5c b8 3c b2 43 3d 3d ca c5 0c 3e 46 2c 28 bd
       0.022505064 0.046207137 0.13747326 -0.041057847
000060 5b 75 0e be 20 92 89 bd 48 a2 9f 3d 81 26 93 3e
       -0.13911955 -0.06717324 0.077946246 0.28740314
000070 44 ad 0d be 7a 24 21 bc 3a 3b 77 be b6 f4 bc 3d
       -0.13835627 -0.009835357 -0.24143687 0.092263624
000080 d2 9e da bd 83 0b 86 3e 34 f1 82 be e5 ba c8 3d
       -0.10674824 0.26180658 -0.25574648 0.09801272
000090 9e 90 f6 bb 23 ed ad 3c 99 9f e3 bd d2 3d c9 3d
       -0.007524564 0.02123124 -0.11114425 0.098262444
0000a0 56 bf 2d bb e5 dd 63 3e 93 95 1e be 78 5d 6d bd
       -0.002651175 0.22252615 -0.15486746 -0.057950467
0000b0 8b 16 ce bd 24 f5 37 be a2 99 11 3e c6 00 25 3e
       -0.100628935 -0.17964607 0.14218763 0.16113576
0000c0 99 60 27 bd 71 68 85 be e5 59 e6 bd 2a 44 17 3e
       -0.040863607 -0.26056245 -0.11247615 0.14772096
0000d0 58 b0 2d be f7 6b 83 3e 24 46 2c 3e 41 a5 6d 3e
       -0.16961801 0.25668308 0.16823632 0.2320757
0000e0 15 43 4f 3e 8e 50 7e 3e e6 95 c9 bd ca 51 22 3d
       0.20240434 0.24835417 -0.09843044 0.03962878
0000f0 c4 2f 86 bd f8 6c 17 3d a8 4c 43 be 81 df 49 3e
       -0.06552079 0.036969155 -0.19072211 0.19714166
000100 e2 47 11 3d 16 28 d7 3d 13 64 5a be 0b 8d 7b be
       0.035468943 0.10505693 -0.21327238 -0.24565522
000110 fc 33 7f 3e 8e c8 82 be 3f e6 72 3e 4a a6 61 be
       0.24922174 -0.25543636 0.23720644 -0.2203609
000120 1c d8 52 be bd f1 ac 3d d4 84 34 be 59 41 61 bb
       -0.20590252 0.084445454 -0.17628795 -0.0034371226
000130 aa ec 8d be a7 81 4b be 52 80 2f 3e d1 e1 8c be
       -0.27719623 -0.19873677 0.17138794 -0.27516034
000140 2a b6 4a 3d ec bc b4 bb 87 35 9f 3d d7 5d 74 3e
       0.04949013 -0.0055156853 0.077738814 0.23863922
000150 7b 2b b7 3d 74 e7 53 be 9f 8f 72 be 29 51 67 be
       0.0894384 -0.20693761 -0.236876 -0.22589554
000160 b1 47 cc ba bb 5a 8a be 77 fc 91 3d b6 6e 5b bb
       -0.001558533 -0.27022347 0.07128232 -0.0033482737
000170 be a9 24 3e 0b 4e b2 bd 14 58 25 3e 14 e4 5b be
       0.16080377 -0.08706292 0.1614688 -0.21473724
000180 95 2c 7f 3e 84 e5 8e 3e 79 76 73 be 52 07 59 3e
       0.2491935 0.27909482 -0.23775662 0.21194199
000190 6d 9b 22 3e d0 9f ab bd 73 d0 63 bd 60 37 8c 3e
       0.15879603 -0.08380091 -0.055618715 0.27385998
0001a0 40 4f 8a be c0 42 de bd 12 73 ef bd 85 42 29 3e
       -0.27013588 -0.10852575 -0.1169187 0.16529281
0001b0 4f d7 f6 bd eb b0 85 3c f6 5e db bd b2 e0 e2 bc
       -0.120527856 0.016319713 -0.10711472 -0.027695034
0001c0 dc 8c 4c 3e fe cb e3 bd 9e 17 6f 3e 10 05 40 3d
       0.19975609 -0.11122893 0.23348853 0.046879828
0001d0 ad 4d 85 3e 78 02 07 3e 70 5e 32 3e 14 4e 52 be
       0.26035824 0.13184536 0.17418838 -0.20537597
0001e0 68 49 1d be 9b 4b 52 3e d7 7d 3a be 11 97 7c 3e
       -0.15360034 0.20536654 -0.18212067 0.24667002
0001f0 c7 32 a7 bd e7 dd 62 be 91 b3 c8 3d 04 d5 6c 3e
       -0.08163982 -0.22154962 0.097998746 0.23128134

mu.2.weight f4 [128, 128]
000000 aa 95 cc 3d 9c c4 8d 3b 10 c6 19 3d a7 32 f3 bc
       0.09989484 0.004326416 0.037542403 -0.029687239
000010 d7 b7 b9 3d 8b 06 9e bd f7 bf 90 3c b4 3c ad 3d
       0.09068268 -0.07716092 0.017669661 0.08458844
000020 4a e7 5e bd 73 ea 93 bd 57 c8 c3 bd 6d 79 62 bd
       -0.054419793 -0.07222452 -0.09559696 -0.055291582
000030 8a cb c2 bc 23 8d 74 bc a5 69 3a ba 13 ed 63 bd
       -0.023778696 -0.014926228 -0.0007111079 -0.055646013
000040 80 50 e1 3c aa 2d 24 3d 62 0b a0 bd 43 d3 c8 bc
       0.027504206 0.04008261 -0.07814671 -0.0245148
000050 a9 3e af 3d a8 c9 b8 3d a8 ac 87 3c a1 1a eb 3b
       0.08556873 0.09022838 0.016561821 0.0071748053
000060 ed 93 81 bd ee 95 c2 3c 45 4e 89 3d e6 8a 8a 3c
       -0.06327043 0.023753133 0.06704382 0.016911935
000070 35 19 fb bc a3 a7 2e 3d f8 d9 d9 3c 35 94 1c 3b
       -0.030651668 0.04264034 0.026593193 0.002389205
000080 0d e1 4c bd c3 70 b5 bc 62 26 28 bc 45 f3 9a bd
       -0.050019313 -0.022148496 -0.010263057 -0.07565931
000090 1a 92 bc bd f7 1f a7 bd 4f bc 5e 3c 21 d7 23 3d
       -0.09207554 -0.08160394 0.013594701 0.040000085
0000a0 a8 f6 53 bd f5 54 ca 3b 58 2a 09 bd 0f c3 3e bd
       -0.0517489 0.0061746784 -0.033487648 -0.04657274
0000b0 dc 57 2e bd 35 7e a5 bd 98 7c 72 3d d5 88 88 bc
       -0.042564258 -0.08080713 0.059200853 -0.01666681
0000c0 42 f5 50 bb 79 c6 82 bc 72 ed 38 3d f7 98 c2 3b
       -0.0031884466 -0.01596378 0.04514832 0.005938645
0000d0 30 5b 3f bd 7e ca 1d bb e1 5c 5a bd 31 1b 37 3c
       -0.046717823 -0.0024076994 -0.053311232 0.0111759165
0000e0 b5 7d c0 3c 64 d9 26 3c b4 f2 f7 3c 7b ac 8a 3d
       0.023497442 0.010183666 0.030267097 0.06771179
0000f0 cf 74 c1 bb 96 c2 6e 3d c4 72 31 bd 1b 03 af bb
       -0.0059038172 0.05829104 -0.04332234 -0.0053409464
000100 74 98 d2 3b 0a 5b c7 3d f9 49 40 bd 79 03 07 bd
       0.0064268652 0.09734161 -0.046945546 -0.032962296
000110 84 a8 43 bd 7b 5f 0a bc ce 95 10 3d 2b 97 ed 3c
       -0.04776813 -0.008445616 0.035299115 0.029002747
000120 70 99 c1 bc 4f 79 c5 bc 05 a1 4d bc 73 ce 46 3d
       -0.023632735 -0.024105696 -0.012550597 0.04853673
000130 6e 4a 93 bd 5d 65 c6 bb 30 19 84 bd 3b a7 16 3d
       -0.07191931 -0.006054564 -0.06450117 0.036780577
000140 ae ac 0c 3d bd 68 52 3d 56 ee 96 bb 3c c9 e8 b9
       0.034344368 0.051369417 -0.0046060486 -0.0004440042
000150 35 ca c1 bd 52 5c 99 bd 36 d6 89 3d 91 eb 04 3c
       -0.09462396 -0.07488312 0.067303106 0.008112804
000160 1e 2b 64 3d 89 5e b4 3d 42 67 16 3c ba bc 21 3d
       0.055705182 0.08807094 0.009179892 0.039486624
000170 76 64 9a 3c f4 56 76 bd 0e 77 8c bd 83 fd 81 bd
       0.018846732 -0.06014152 -0.068586454 -0.06347182
000180 8d 90 d5 3c 13 b3 a8 3d fb 0c fb 3c 00 ef 57 ba
       0.026069904 0.08237281 0.030645838 -0.0008237213
000190 ec 3a a6 bd 80 73 6f 3d 09 41 ec 3c 6e 22 0f 3d
       -0.08116707 0.05845976 0.028839605 0.034944944
0001a0 07 67 01 bc 1b 7c 84 3d 26 2b b1 bd 4e 98 7d 3d
       -0.007898099 0.06468984 -0.08650808 0.061912827
0001b0 bb 33 84 bd e6 f4 82 bd ef 68 41 3c e4 80 56 3d
       -0.06455179 -0.06394367 0.011804803 0.052369013
0001c0 21 58 fc 3b 2c 27 48 bd fc 98 35 3c 6e b3 b3 3d
       0.0077009355 -0.048865482 0.011083838 0.08774458
0001d0 0c 06 90 bd b6 3a 1f bd 9d cc 11 3c ef e5 79 3d
       -0.07032403 -0.03887435 0.008898881 0.061010297
0001e0 76 16 73 3d 21 eb d3 3c 71 77 29 bd 05 a0 dc 3b
       0.059347592 0.025868954 -0.041373674 0.006732943
0001f0 61 bd f4 3b 99 e0 7b 3d 7b dc 68 bc ec 94 92 3d
       0.007468865 0.06149349 -0.014212723 0.07157311
000200 43 23 80 bd bd 67 c5 bb fd ed 63 3c 77 5a 93 3d
       -0.06256726 -0.0060243295 0.013911721 0.07194989
000210 91 ed 4a 3c 54 4f c0 3d e1 af 06 3d cd 53 17 3d
       0.012385742 0.09390131 0.032882575 0.036945153
000220 7c e9 b0 3d 17 0c ed 38 23 30 0f bd 4d 60 9d 3d
       0.086382836 0.000113032926 -0.034958016 0.076843835
000230 62 6f 29 3c 6f 5c 07 3c c0 1c 83 bd 88 e6 93 bc
       0.010341497 0.008261784 -0.06401968 -0.018054262
000240 11 0b 9b 3c 55 b1 46 3d 18 a3 f7 bc 8b 38 60 3a
       0.018926175 0.04850896 -0.030229136 0.00085533474
000250 a8 32 49 bc 85 3c 2a 3d 72 04 8c bb 2b 33 bf 3d
       -0.012280144 0.041561622 -0.004272991 0.093359314
000260 c3 f5 a3 bd 7f f2 03 bd 42 66 cf bb c9 40 f0 3c
       -0.0800586 -0.032213684 -0.0063293288 0.029327767
000270 e9 73 32 bd a1 a5 58 3d b4 f4 90 bc fd b7 fa 3c
       -0.04356757 0.05289233 -0.017694809 0.03060531
000280 8d 10 6f 3d 59 22 c4 3c f9 23 a6 3c 01 18 bc bb
       0.058365393 0.02394216 0.020280825 -0.005740166
000290 0c 2d 24 3c fb 39 56 3c 5f 6a 30 3d c7 82 fb 3c
       0.010020506 0.013075347 0.043070193 0.030702008
0002a0 85 4c b8 3d c7 90 0e 3d e6 89 85 bd 1e 4c 07 3d
       0.0899897 0.03480604 -0.06520443 0.033031575
0002b0 53 d4 cb 3b 6e 56 fe bc 36 b4 0a 3d ae 56 b1 bd
       0.0062203794 -0.031047072 0.03386327 -0.08659111
0002c0 99 c9 df 3c 8c a3 cb 3c 14 7b fa bc f8 11 b8 3d
       0.027317809 0.024858259 -0.030576266 0.08987802
0002d0 2b 10 16 bd 6b ef af 3d 6e 0e 95 3c 50 74 03 bd
       -0.036636513 0.08590587 0.018195357 -0.032093346
0002e0 4e 20 e8 bc a1 82 78 bd f2 b4 cb 3d c8 2f b5 bd
       -0.028335717 -0.060671452 0.09946622 -0.08847004
0002f0 34 3e 1a 3d ae ec 57 3d 34 c3 9b bd 38 fd 52 bd
       0.037656978 0.05271595 -0.076055914 -0.05151102
000300 22 89 2b 3d 22 7c 46 bc 52 90 d5 3c 4e 8e 31 bd
       0.041878827 -0.0121145565 0.026069794 -0.043348603
000310 85 9d c5 3d 25 a4 b4 bd 0b 7a 50 3d cc bf 7a 3c
       0.09649185 -0.088203706 0.05089764 0.015304517
000320 b5 df 9b bd 26 57 80 3d 92 54 58 bd 3a a8 92 3d
       -0.07611028 0.06266622 -0.052815028 0.07160993
000330 ae c6 9d bd c3 89 19 3d e2 38 99 bd f0 fc ae bc
       -0.07703911 0.037484895 -0.07481553 -0.021360844
000340 91 76 98 3d 8b 25 ff bc 47 a7 5e 3d 4e e8 a3 bc
       0.0744449 -0.031145832 0.054358747 -0.020008232
000350 f7 91 7e bd 4d 77 32 bd 01 20 15 3d 59 98 97 bd
       -0.06215092 -0.043570805 0.036407474 -0.07402105
000360 46 96 3c bd 6d 17 db 3c d1 16 ab bc 17 e4 8d bd
       -0.04604175 0.026744569 -0.020884903 -0.0692827
000370 6a 4e bd 3d 88 12 72 bd d4 cb 88 3d 51 c7 7b bd
       0.09243472 -0.059099704 0.06679502 -0.06146938
000380 8d ec 6e bc c8 53 d2 3b 8d 7d 9e bd 25 fa 22 3d
       -0.014582765 0.006418679 -0.07738791 0.039789338
000390 17 fe 91 bc 86 f9 65 bb 34 ef a2 3d 8c 04 8d 3c
       -0.017821355 -0.0035091355 0.079557806 0.017214082
0003a0 f2 ee ab bc 18 ff 9b bb 17 af 06 bc 65 59 c2 bc
       -0.020987961 -0.004760634 -0.008220456 -0.023724267
0003b0 7d d1 80 bd 2f 7d 75 3d 7a c0 84 3d 88 00 1b bd
       -0.06289957 0.059933838 0.064820245 -0.037842304
0003c0 c8 18 a6 bd a9 f0 f4 bb c3 6e 46 bd 17 3b b4 3d
       -0.081101954 -0.007474978 -0.048445474 0.08800333
0003d0 74 f0 f9 3c 09 c4 0c bd f2 e3 ab bc 57 7c bc bd
       0.030510165 -0.03436664 -0.020982716 -0.092034034
0003e0 5d b2 1f 3d e6 d7 be 3c f0 3e 50 3d af f1 2b 3d
       0.03898846 0.023296308 0.050841272 0.041978534
0003f0 2a 82 62 3d bd 14 17 bb 00 24 90 bd 57 18 40 bd
       0.055299915 -0.0023053132 -0.070381165 -0.046898212

mu.2.bias f4 [128]
000000 24 70 fc 3b 9e ac d3 3b 9d a6 b7 bb d9 e1 7e bd
       0.007703798 0.0064597866 -0.0056045786 -0.062227104
000010 45 29 52 bd 6d 8d 01 bc 65 b5 aa 3d b2 49 9f 3d
       -0.05130889 -0.007907254 0.083353795 0.07777728
000020 59 bb 9f bd 7a 8f 4a 3d f2 21 87 bc 07 b4 b5 3b
       -0.077994056 0.049453236 -0.016495679 0.0055451426
000030 8f be 88 3d dd 90 46 3c f7 d3 76 bd d2 fd 12 bd
       0.06676971 0.012119499 -0.06026074 -0.035886593
000040 21 7a b7 bc 47 2a 19 bc 5f 32 b9 3d 76 ae c8 3d
       -0.022397103 -0.009348459 0.09042811 0.09798901
000050 15 9b ba bb 85 30 37 bd d4 2b 83 3d 28 dd 56 bd
       -0.0056947568 -0.044724006 0.06404844 -0.052457005
000060 14 ba 9f bd 41 d4 57 bd 8e fe 41 3b 7f 49 fe bb
       -0.077991635 -0.052692655 0.002960119 -0.0077602263
000070 91 c1 23 bd 79 50 b2 3c 8d 86 71 3d af 15 a5 bd
       -0.03997952 0.021766888 0.05896621 -0.080607764
000080 63 d1 23 bd 25 b6 5b bd f4 da 56 3c 91 54 84 3c
       -0.03999461 -0.053640503 0.013113726 0.016153606
000090 78 07 27 3b fe 00 a5 bd 52 b2 d1 3c d7 ab 7e bd
       0.002548663 -0.0805683 0.025597725 -0.062175598
0000a0 4b b5 77 bd 94 c1 a3 bc c5 5d 80 3d b3 e8 14 bb
       -0.06047563 -0.019989766 0.06267885 -0.0022721707
0000b0 aa 04 9d 3c 2f 98 61 bd 87 fc 36 3d 12 6a 66 bd
       0.019167263 -0.055076774 0.044674423 -0.0562535
0000c0 4b 6b 74 bd 7a da 85 bd 86 0e aa 3c 98 b1 42 3d
       -0.059672635 -0.06535812 0.020758878 0.047532648
0000d0 47 ff 85 3d 37 49 94 bd 55 de ac bd 0a 0e 98 bd
       0.06542831 -0.07240527 -0.08440844 -0.07424553
0000e0 de 03 9a 3d aa fe 8c bd 83 69 02 bd 3c ed 15 bd
       0.07520269 -0.06884511 -0.031838905 -0.036603197
0000f0 27 9d 64 3c 4c 18 02 bd 7c d7 bb 3d 6e 86 3d bd
       0.013953484 -0.031761453 0.0917196 -0.04627078
000100 6f 19 56 bd fb 16 a9 bd 34 05 82 3c 9b cd d3 bc
       -0.05227035 -0.08256336 0.015871622 -0.025854876
000110 ff fd b8 3b f8 bc b4 3d 03 1c 5e bd a6 c5 5d 3d
       0.005645513 0.088251054 -0.054225933 0.05414357
000120 4b 3e e3 bb 4b 5b 95 bd 17 b9 85 bd 9e e0 95 3d
       -0.006934916 -0.072928034 -0.06529444 0.07318233
000130 d0 4b 20 bb 68 26 8a bd de 6a 8d 3d a2 59 c8 3c
       -0.002445925 -0.06745607 0.06905149 0.024456803
000140 81 27 b2 bb ec a5 b5 3c 87 3d c1 bd 1d 25 d1 bc
       -0.005436838 0.022173844 -0.094355635 -0.025530392
000150 0d d1 59 bd b7 82 8a bc 33 57 42 3d 43 5d ea bc
       -0.053177882 -0.016908033 0.04744644 -0.028608924
000160 9e bc b7 3b 6f 6f 38 3d 6d 9d 18 bd 5d 1a 39 bd
       0.0056072017 0.045028146 -0.037259508 -0.045191158
000170 3b 8b 97 bd 97 60 01 3b e6 97 12 3d 29 13 a3 bc
       -0.07399603 0.001974141 0.035789393 -0.019906597
000180 b4 8a 98 bd ca 8e fd bc 10 15 1e bd 1f 01 b7 3d
       -0.074483305 -0.030951876 -0.038594306 0.08935761
000190 62 09 b9 bc 0e 30 28 3d 7d cc 6a 3d 3f a1 57 3d
       -0.022587482 0.041061454 0.05732392 0.05264401
0001a0 1c 69 a4 bb c5 ae a8 bd fd 3a 6d bd 30 83 2b 3d
       -0.005017413 -0.0823646 -0.057917584 0.041873157
0001b0 01 2f b1 3d 72 3d fd bc b1 54 84 bd ee 2f 9f bd
       0.086515434 -0.030913088 -0.06461466 -0.07772814
0001c0 68 3b 5c 3d b0 8a c1 bc 94 45 3d 3d 42 a5 3e b9
       0.05376759 -0.023625702 0.046208933 -0.00018181375
0001d0 53 5f 07 3d 84 b4 3a 3d 03 27 8d 3c f7 b3 9d bd
       0.033049893 0.04558231 0.017230516 -0.07700341
0001e0 8d 77 6d 3c 68 54 06 bd ac 32 b8 bd a5 84 f4 bb
       0.014493835 -0.03279534 -0.0899404 -0.0074621015
0001f0 78 cf b6 bd de be 9a bd 1d 7a be 3c 25 56 a6 bd
       -0.0892629 -0.07555936 0.023251588 -0.081218995

mu.4.weight f4 [4, 128]
000000 30 fd da bb cf 8d 51 bc f4 30 a8 bb b3 48 13 bb
       -0.0066830143 -0.012790157 -0.005132789 -0.0022473752
000010 be 7c 8f bb 4d f0 2a bc fa b5 ca bc 83 b7 e6 ba
       -0.004378884 -0.010433269 -0.024744976 -0.0017602298
000020 57 62 9d bb 76 69 3f 3c cb 38 2c bc e1 ae 84 bc
       -0.004802983 0.011682859 -0.010511587 -0.01619667
000030 5c 42 a0 ba e3 9a 8c bc 34 5f 6e 39 fe 55 6a ba
       -0.0012226808 -0.0171637 0.00022732915 -0.00089392054
000040 c3 6f 2f bc 55 24 2c bc 30 1b 81 bc 0d 61 9e bc
       -0.010707798 -0.010506709 -0.015760034 -0.019333387
000050 61 12 2c bc 88 f7 39 bc 31 ff 54 bc 74 5a 5d 3b
       -0.010502429 -0.01135052 -0.0130002955 0.0033775838
000060 9d 73 df 3a b3 4f 0a bb a7 35 d7 3a d9 ba 1a 3b
       0.0017048005 -0.0021104633 0.0016419188 0.0023609905
000070 61 a0 b8 bb 6f 10 0b bc 9d 93 54 bb 93 d3 b8 3b
       -0.005634353 -0.008487805 -0.0032436617 0.005640456
000080 78 10 4f 3a f0 3c f2 bb f2 f1 fe 3a 61 c9 0a bc
       0.00078988774 -0.007392518 0.0019450767 -0.008470864
000090 e0 39 8a bc 5e c4 97 bb 03 74 03 ba b9 30 01 b9
       -0.0168733 -0.004631563 -0.00050145405 -0.0001232055
0000a0 87 b0 79 ba d9 ce 54 bb 75 fe e6 ba 6d 03 89 bb
       -0.0009524901 -0.0032471924 -0.0017623442 -0.0041813166
0000b0 2c b0 ec bb 76 ed 30 bc eb 9c da bb 70 2a 01 bc
       -0.0072231498 -0.010798803 -0.006671538 -0.007883653
0000c0 64 b9 05 bc 34 0b 95 ba 33 11 0b bc fb c4 e1 b9
       -0.008161876 -0.0011371137 -0.008487987 -0.00043062106
0000d0 a9 40 93 bb f4 8c a7 bc fa d8 35 3b b1 e2 34 bc
       -0.004493792 -0.020452954 0.0027747736 -0.011040376
0000e0 f9 a7 3c bc de 93 a3 bb 7d 33 86 bc 06 b7 48 bc
       -0.011514657 -0.0049919924 -0.016381973 -0.012250667
0000f0 02 51 7d ba 1c 28 1a bc a9 de 50 bc fe 71 8c bc
       -0.0009663255 -0.009408977 -0.012748399 -0.0171442
000100 17 98 6d 3c f1 3f 75 bb 4a 7c 9f bc 23 5b 08 3c
       0.014501593 -0.0037422145 -0.019468445 0.00832251
000110 22 95 38 bc 36 e6 86 bc 1f 46 36 bb da ae 2c bc
       -0.011266025 -0.016467195 -0.0027812792 -0.010539735
000120 cd bf 82 3b 08 35 92 3b 94 d1 87 bc 40 04 eb ba
       0.0039901496 0.004461888 -0.016579427 -0.0017930344
000130 ab 8e 9e bb 8a 4d ab bb 0a 06 6b bb cd fd a0 3b
       -0.0048387847 -0.0052277492 -0.0035861754 0.004913068
000140 a2 88 c6 ba 8e 34 2a bb 58 40 4b 3b cc 98 a8 bb
       -0.0015146921 -0.0025971266 0.0031013694 -0.005145168
000150 08 74 ff 3a f6 54 84 bc 75 d8 53 bc 2e 52 fd bb
       0.0019489536 -0.016153794 -0.012930025 -0.007730744
000160 b3 3f e4 3a 60 0d b1 bb dd fe a1 3b 5c bc 0c bc
       0.0017414003 -0.0054032058 0.004943712 -0.00858983
000170 fb 8c e1 bb f9 9b 6a bc 23 b6 d5 bc 0e 2b ad 3b
       -0.0068832613 -0.014319413 -0.026087826 0.0052846735
000180 77 d5 4c bb 80 dc 39 39 86 39 23 3c 97 85 7e bc
       -0.0031255165 0.00017725118 0.009962445 -0.01553478
000190 61 96 65 3b 7b 40 04 bc 37 bf 0a bc 97 ff d6 bb
       0.003503226 -0.008072014 -0.008468441 -0.0065612304
0001a0 ab 8e 67 bd 2a 92 05 3c c9 8d 69 bc 98 f4 c8 bb
       -0.056532543 0.008152524 -0.014254996 -0.0061326735
0001b0 55 d9 fa bb ab 05 b9 bc 93 9c 31 bc d0 e6 5e bc
       -0.0076553025 -0.02258571 -0.010840553 -0.013604835
0001c0 2e fc 60 3b f2 fb cf bc 83 d9 bf bb e7 3e 4d bc
       0.0034329998 -0.025388692 -0.005854787 -0.012527204
0001d0 f5 c4 25 bc 63 ae ac bb c1 f9 76 bb 2f fc 04 3c
       -0.010117759 -0.005269812 -0.0037685486 0.008116766
0001e0 40 2a 38 bb b0 9e c3 bc 9b 53 a6 bb 22 0a 9b bb
       -0.0028101355 -0.023879379 -0.0050758845 -0.0047314325
0001f0 42 fc 56 3b 5b fc 2a 3b 27 18 36 bd a6 3e 56 bb
       0.0032804166 0.0026090357 -0.044456627 -0.003269115
000200 ef a7 10 bb 48 9c 14 bc b4 5f 96 bb 85 a9 12 3b
       -0.0022072752 -0.0090704635 -0.0045890454 0.0022378874
000210 07 00 11 bc 68 0d 2e bc b9 52 a0 bb b2 da bd bb
       -0.008850104 -0.0106233135 -0.004892674 -0.005793893
000220 11 ab 0b bb 4c 5e 6d ba 49 a8 67 bb 2c 4d bc bb
       -0.002131168 -0.0009054884 -0.0035348109 -0.0057465043
000230 09 b9 a7 bb 7c 47 cd bb 8e f9 a4 bb 9a 7e 38 bb
       -0.0051184935 -0.006264625 -0.005034632 -0.0028151632
000240 03 64 ae 3b 3a 07 a3 3a 37 de b0 bb ec 43 7e bb
       0.005321981 0.0012438067 -0.005397584 -0.0038797809
000250 33 68 b7 bb b7 69 d0 bb 52 1d c5 bb 3d 79 06 3b
       -0.0055971383 -0.0063602584 -0.006015458 0.002051904
000260 3f ab 4e bb b7 a6 d3 3b 3a 6c 81 bb f6 9d f4 b9
       -0.0031535176 0.006459083 -0.003949669 -0.00046656997
000270 cf eb 7f bb 68 8d 00 bb 14 cc c7 ba f1 db a2 bb
       -0.0039050465 -0.0019615535 -0.0015243315 -0.0049700667
000280 18 dc d2 39 79 f2 16 ba 25 5c 61 3a 81 27 f6 3a
       0.00040218304 -0.0005758177 0.00085967995 0.0018780084
000290 85 3a e9 bb 5d 15 2f bb 43 bb 9a 3b 40 5b 51 3a
       -0.007117572 -0.0026715614 0.0047220304 0.00079863146
0002a0 50 48 b5 bb d6 6e 86 bb f4 d8 af ba 2e a4 06 bb
       -0.005532302 -0.004102568 -0.0013416097 -0.0020544636
0002b0 a1 20 65 3b 2f 75 1e 3c 59 85 66 bb 4d 85 e9 3b
       0.0034962075 0.009671493 -0.0035174696 0.0071264864
0002c0 76 bb a4 bb d4 d5 1d bc eb 79 a8 b9 fa 07 22 ba
       -0.00502723 -0.0096335 -0.00032134293 -0.0006180998
0002d0 1b 37 f5 bb a6 42 36 bb b8 0b 56 ba 9d 6f 4a bc
       -0.0074833757 -0.0027810722 -0.00081651984 -0.012355712
0002e0 eb d3 0a bb 51 f5 19 3b 81 43 61 3b 7e d9 0a bc
       -0.0021183442 0.0023492167 0.003437251 -0.008474706
0002f0 35 25 82 bb 83 f1 c9 ba 30 51 96 bb 6e 70 aa bb
       -0.0039717206 -0.0015407059 -0.004587315 -0.005201391
000300 9a d9 ea 3a 19 08 5d 3c 59 35 ab bb ad ca 89 3b
       0.0017917634 0.0134907 -0.0052248654 0.004205069
000310 97 28 b6 bb 48 d2 1e bc 9c e1 5b 3c 8f 12 37 bc
       -0.005559038 -0.00969369 0.013420489 -0.011173858
000320 73 95 4d bb 17 24 ab 3b ec c3 c0 38 a7 d8 b4 bb
       -0.0031369596 0.005222808 9.191767e-05 -0.005518991
000330 d1 8c 30 bc 8d 17 2a bb 37 74 d5 3b f2 3a 6d bb
       -0.010775761 -0.0025953979 0.006514098 -0.0036198464
000340 5c b2 9e 3b 60 f8 85 bb 60 f7 9b bb a0 d5 27 3c
       0.0048430394 -0.0040884465 -0.004759714 0.010243803
000350 a4 eb d8 ba 4a 2e 08 bc 11 2a 66 bb 82 e0 09 3c
       -0.0016549719 -0.008311817 -0.0035120288 0.008415343
000360 23 7a b2 bb 2b ac 97 bb e0 3e 4f 3b 00 19 2b bc
       -0.0054466887 -0.0046286783 0.003162317 -0.010442972
000370 46 7b 57 bb 0b 64 dd bb be 4a d8 ba 6e 07 a0 ba
       -0.0032879873 -0.006756311 -0.0016501767 -0.0012209245
000380 3e fd cf bb dd a7 28 bb c1 1e 8b 3a 61 eb ab bb
       -0.0063473275 -0.002573482 0.0010614024 -0.005246565
000390 69 d4 08 3c bf f0 83 3b 71 c9 53 bb b9 ac 02 bb
       0.008351424 0.004026502 -0.0032316113 -0.0019939377
0003a0 c0 53 10 bc a2 0c 74 3c 86 0f 43 bb 52 54 89 3b
       -0.00880903 0.01489559 -0.0029763891 0.00419096
0003b0 fe 8a 7f ba ac c4 9f bb c9 a3 8b bb f1 11 ca bb
       -0.00097481895 -0.00487574 -0.004261468 -0.0061666896
0003c0 56 10 6d bb 02 b4 29 bc ff a1 86 3c a1 01 cc bb
       -0.0036173067 -0.010357859 0.016434668 -0.00622578
0003d0 39 06 55 3b cb 15 fc bb 4e 9d df bb c7 1d fe bb
       0.003250493 -0.0076930276 -0.006824172 -0.0077550146
0003e0 0b 05 13 ba 09 73 8a ba b5 31 7e b9 d1 b1 07 3a
       -0.00056083564 -0.0010562848 -0.00024241845 0.0005176338
0003f0 ab 63 5d 3c 23 07 29 3b d9 25 df bc e5 36 53 bb
       0.013512532 0.0025791607 -0.027239727 -0.0032228765

mu.4.bias f4 [4]
000000 5a a1 20 bc 08 5e 2f bb d5 a3 3d 3c 84 24 11 ba
       -0.009804094 -0.0026758928 0.011574705 -0.0005536752
