experiments/data/sawyer_clutter_200steps_10H/sac/2021-06-11_10-39-49_clutter_200steps_10H/policy_4200.pt (torch_old, 75801 bytes, 6 tensors)

mu.0.weight f4 [128, 12]
000000 32 bc 8f 3c e0 82 2a 3e cd ed d3 bd 9c 6a 79 3d
       0.017545793 0.16651487 -0.10348091 0.060892686
000010 7b 48 02 be 4c 5d 87 3e 19 5d af bd 97 a8 26 be
       -0.12722962 0.26438367 -0.08562679 -0.1627525
000020 16 7e 1a be 29 31 42 be ab 21 05 be 54 28 82 be
       -0.1508716 -0.18964066 -0.13001125 -0.25421393
000030 63 be 2c 3e a2 bb 83 3e 65 44 54 3b 05 75 fd 3d
       0.16869502 0.2572909 0.00323894 0.12375835
000040 bc 18 80 be 97 be 5b 3e 90 ee 50 3e 6c f7 cb 3d
       -0.2501887 0.21459423 0.20403504 0.09959301
000050 fb b3 47 be 41 c4 c9 3d 3e 4e 91 bd ae ba 0a be
       -0.19502251 0.098518856 -0.07095002 -0.13547775
000060 2e 5e 0d be ef 3e 8a be 28 c7 7d be c7 d2 b4 bd
       -0.13805458 -0.2700114 -0.24783003 -0.08829265
000070 b8 4b 21 3d e2 72 02 3d 52 6e 49 bd 0e e1 0a be
       0.03937885 0.031847842 -0.049177475 -0.13562414
000080 86 ac 57 3c b2 4d 2a 3e ec e2 dd bd 5d a8 0f be
       0.013163691 0.16631201 -0.108342975 -0.14029069
000090 91 1c 05 be 89 2f 86 3e 35 b7 d2 bd 69 62 8c bd
       -0.12999178 0.2620814 -0.1028885 -0.06854708
0000a0 7d 5c 7e 3e 2b 41 02 3e 6d bb 50 3d 27 bc 5d 3d
       0.24839969 0.12720172 0.050959993 0.054134514
0000b0 bb 77 68 3d da 4e 7c 3e ff 6a 7f be 23 f9 dc 3d
       0.05675481 0.24639454 -0.2494316 0.107897066
0000c0 a0 f6 a3 bd 83 e7 c1 3d 9f fe 95 bd 7f 7d e5 bd
       -0.08006024 0.094679855 -0.07323956 -0.11205577
0000d0 cf f8 81 bd 0c 0b 96 3e 92 28 aa bd ce 6e b6 bd
       -0.063462846 0.29305303 -0.083085194 -0.08907853
0000e0 af c7 58 3d 93 06 01 3e 9a 65 97 3d e8 25 26 3d
       0.052924808 0.12600164 0.07392426 0.040563494
0000f0 d2 4d 7c be 22 3d 45 3e db 32 fa bd cc 95 86 be
       -0.24639061 0.19261602 -0.12216731 -0.2628616
000100 e3 7a fd bd f1 5d 87 3e 0a d9 2c 3e 37 8e 44 3e
       -0.123769544 0.2643886 0.16879669 0.19194876
000110 96 fd 50 be 06 49 09 be 77 91 ed bb 07 72 2f 3c
       -0.20409235 -0.13406762 -0.007250007 0.010708339
000120 bc ca 1d 3e 4b 75 14 3c 8c 6d c8 bd 61 34 38 3e
       0.15409368 0.009061168 -0.097865194 0.17988731
000130 ae ee 70 3e 8b 5e 87 3e 64 16 0f be 15 82 e9 3d
       0.23528549 0.26439318 -0.13973385 0.11401764
000140 f4 0a 72 bd cf 67 41 3e ff 22 30 3e b6 ac 10 3d
       -0.059092477 0.18887256 0.1720085 0.03532096
000150 f7 8a 0f 3e 50 3a 9b 3d 2b bd ab 3c 27 cc 05 be
       0.14017855 0.075794816 0.020964226 -0.13066159
000160 d8 90 30 3e 7a 9a 11 be a3 7a 12 be e3 9c 23 be
       0.17242754 -0.14219084 -0.14304595 -0.15977816
000170 7f 51 36 3b 3c 78 83 be 23 63 88 be 8e 04 73 be
       0.0027819572 -0.2567767 -0.26638135 -0.23732206
000180 9a a4 92 bd 1b e8 88 3e 4f 1a 76 be 7c 56 d3 ba
       -0.071603015 0.26739582 -0.24033473 -0.0016123797
000190 ce 66 4e be c5 65 d4 3d 9f b8 5a be 3e 5f 3a 3e
       -0.20156404 0.103709735 -0.2135949 0.18200395
0001a0 e8 f9 83 3e df 4e 7e be 1c 0b e6 3d 3a a0 02 be
       0.257766 -0.24834774 0.11232588 -0.12756434
0001b0 c5 db 73 3e b3 d9 3d bd a0 87 18 be f2 87 39 be
       0.23814304 -0.046350192 -0.14895487 -0.18118265
0001c0 3c d8 63 3d f0 26 c2 bd 2c 6d 26 3d 8f c1 6d be
       0.05562614 -0.09480083 0.04063146 -0.23218368
0001d0 3d 43 90 3c 72 d3 81 bb 90 b9 41 3e 74 8a 3e 3d
       0.017610187 -0.003961974 0.18918443 0.046518758
0001e0 99 bb 35 bd 8c 31 e9 bc a4 1b 44 3e 71 2d 8a 3e
       -0.04436836 -0.028466009 0.19151169 0.26987794
0001f0 0c 10 45 3e 6c 28 4e bd c2 e6 1c be a6 39 bc bd
       0.19244403 -0.050331518 -0.15322402 -0.09190683
000200 e5 1e 8e be 9f d4 54 be d2 f7 5d be f8 07 0a be
       -0.27757946 -0.20784234 -0.21676567 -0.13479602
000210 43 ae 63 be 93 60 69 bd c7 55 a6 bd 12 bc f1 3d
       -0.22234444 -0.056976866 -0.081218295 0.1180345
000220 aa a3 0a 3e 1e 4b 8d 3e b0 42 8d be 3b 4d 5f 3e
       0.13538995 0.27596372 -0.2758994 0.21806805
000230 c8 9c ba 3d af 19 3e be f2 46 7f be ae f2 88 be
       0.09111935 -0.18564485 -0.24929407 -0.2674765
000240 5f b0 8c be 0e 54 86 bd 44 b9 99 3d a1 c4 9d bd
       -0.2747831 -0.06559001 0.0750604 -0.077035196
000250 25 f4 c2 bd 1c 8f 8e bd b0 61 5b 3e 97 7d 71 3e
       -0.09519223 -0.0696089 0.21423984 0.23583065
000260 f1 82 8d bd 55 4b 28 be 5f 49 10 3e b4 78 09 be
       -0.06909741 -0.16434987 0.14090489 -0.13424951
000270 4e 4f 8b 3e 74 52 0b bd 9f 40 98 bd 85 99 6d be
       0.27208942 -0.03401418 -0.074342005 -0.23203094
000280 16 a8 57 3c 52 a6 09 bd 8a 2b 4e be 0c 3a 28 3e
       0.013162633 -0.03360588 -0.20133796 0.16428393
000290 9d da 2c bd 6c 6b ef bd 9e f3 1b bc cc 9c 2d be
       -0.042200673 -0.11690411 -0.009518532 -0.16954345
0002a0 1f 3f 0a 3d f0 78 67 bc a8 8c 0a 3e ce 90 c5 bd
       0.033751603 -0.014127955 0.13530219 -0.0964676
0002b0 6f 86 e1 bd 97 b9 44 3e ab 75 29 be 07 c5 d5 bd
       -0.11011969 0.19211422 -0.16548793 -0.104379706
0002c0 45 68 7d 3e e2 f4 b3 3d 0e 90 31 3e 68 29 eb 3d
       0.24746807 0.08786942 0.17340109 0.11482507
0002d0 57 28 23 3e 9a 47 70 be bb e9 2f 3d b6 be 04 bd
       0.15933357 -0.23464814 0.042947512 -0.03240844
0002e0 e7 ce 9e bc 34 13 bf 3b 65 11 87 be c0 54 64 3e
       -0.019385768 0.0058311466 -0.26380458 0.22297955
0002f0 c8 df 09 be af a6 06 be 54 8e bc bd 78 78 c9 3d
       -0.13464272 -0.13149522 -0.092068344 0.09837431
000300 03 4d 91 be 71 e5 82 3d 53 a7 e5 bd 88 70 06 be
       -0.28379068 0.06391419 -0.11213555 -0.13128865
000310 9b 6e 6c be c2 bf fb 3d 06 b4 1f bd 8e a3 6f bc
       -0.23089068 0.12292434 -0.038990043 -0.014626397
000320 b9 e4 2d be 85 39 69 bd 52 d1 9d 3d d2 15 79 bd
       -0.16981782 -0.05693962 0.0770594 -0.060811825
000330 04 46 7d 3e 1d ca 11 bb 2d 12 7b 3e 69 8d fc bd
       0.2473374 -0.0022245713 0.24518652 -0.12331659
000340 03 af 50 be f8 4c 32 bd 8c e7 63 be da 5c 12 be
       -0.20379262 -0.043530434 -0.22256297 -0.14293233
000350 5a 25 8a 3e 28 c8 6b 3e 80 5f 4b 3e c5 5e 56 be
       0.26981622 0.23025572 0.19860649 -0.20934589
000360 27 bd 33 be 71 37 f0 bc 84 30 1b bd b7 5c 17 be
       -0.17552625 -0.029323312 -0.037888065 -0.14781462
000370 f9 b5 a2 bd 02 3f 91 be 30 34 eb 3d 1b bc b5 3d
       -0.07944865 -0.28368384 0.11484563 0.08873769
000380 6b e9 8d be 58 7a 01 be 28 6b 85 be 6d 8f 8a be
       -0.27717146 -0.12644327 -0.26058316 -0.2706255
000390 55 59 a5 bc e3 27 44 3e f7 f6 29 3d 20 e5 59 3e
       -0.020184198 0.1915584 0.04149529 0.2127881
0003a0 95 c9 82 bd b5 91 0e 3e d8 7e b4 bc 60 52 5b be
       -0.06386105 0.1392277 -0.02203314 -0.21418142
0003b0 7d 97 07 bc f5 46 e0 bd 8e 00 89 bd 1a 75 ba bd
       -0.008275864 -0.10951034 -0.06689559 -0.091043666
0003c0 9c 04 68 be 68 aa 4a be 4d 1f 5c be f5 df 82 3e
       -0.22658008 -0.19791567 -0.21496315 0.2556149
0003d0 a2 4c 4c 3d b2 5f 88 be e9 8a a1 bc 06 0d 12 be
       0.04987777 -0.2663551 -0.019719558 -0.1426278
0003e0 19 a1 00 be 58 a3 56 3e 64 4f 43 3d 88 00 a8 bd
       -0.12561454 0.20960748 0.047683135 -0.08203226
0003f0 4c 52 37 3d d2 c4 d7 3b 61 db 80 3e 8e ad 94 3e
       0.04475622 0.006584742 0.25167373 0.29038662

mu.0.bias f4 [128]
000000 8f 5b 83 3e 20 bc 24 3e 67 9f 90 3e 17 27 d9 3c
       0.2565579 0.16087389 0.28246614 0.026507897
000010 34 55 de bd 72 83 30 3e 7c 74 66 3d e5 18 75 3e
       -0.10856095 0.17237642 0.056263432 0.23935278
000020 7c d4 46 be b7 67 35 be 83 d1 bb bc 62 be 67 be
       -0.19416994 -0.17715345 -0.022927051 -0.22631219
000030 06 3c 11 be 38 bf 20 3e c1 17 1e bd b1 83 8b be
       -0.14183053 0.15697944 -0.038596872 -0.2724891
000040 1b ee e1 3c d6 2e 73 be 94 2f 89 3e 87 e4 ac bc
       0.027579358 -0.23748335 0.26794112 -0.021105064
000050 22 12 72 be f5 ef 20 3e 9b b7 d8 bd 40 23 8f 3e
       -0.2363973 0.15716536 -0.10581895 0.2795658
000060 2c 77 85 3e ed ea c4 3d 07 9b 26 3d 51 17 75 be
       0.26067483 0.09615121 0.04067519 -0.23934676
000070 fe 72 a4 bd 36 a5 6a 3e 38 4a 2d be 45 1d 97 bd
       -0.080297455 0.22914585 -0.16922843 -0.073786296
000080 7d 59 fc bd be 5f 47 3e 09 1b 82 3d 7f 7f b7 3d
       -0.12321756 0.19470116 0.06352813 0.08959865
000090 90 28 89 bc 7e 56 88 bd fb e4 8e bd 93 b7 24 bd
       -0.016742975 -0.06657122 -0.06977268 -0.040214133
0000a0 5f 07 e9 bd 85 b8 86 3e f9 ae 8a bd a3 92 7a be
       -0.11378359 0.26312652 -0.06771655 -0.2447
0000b0 49 b8 84 be a1 64 a0 bd 19 01 1c 3c 05 d4 69 3c
       -0.25921848 -0.078316934 0.009521746 0.014271741
0000c0 cf 31 02 3e a9 a5 07 3e b7 81 55 3d 3f 0d 6b 3e
       0.12714313 0.13246788 0.05212566 0.22954272
0000d0 66 02 43 be ce b3 91 3e bf 54 8a be 26 a7 ca 3b
       -0.19043884 0.28457493 -0.2701778 0.0061844764
0000e0 d6 32 a0 3c fe 5f 6b ba f9 e0 6a be da 03 8d 3e
       0.01955549 -0.00089788425 -0.22937383 0.27542
0000f0 14 ac 1d 3e d8 26 86 3d 24 c8 22 be 5b 16 0f 3e
       0.15397674 0.065503776 -0.1589666 0.13973372
000100 f1 27 0f 3e 5c 2a 83 bc 10 26 91 3d ea 37 1e 3e
       0.1398008 -0.01601141 0.07087338 0.15451017
000110 6e 24 88 3d 87 98 80 3e de 59 62 be 57 de 41 be
       0.066475734 0.2511637 -0.22104594 -0.18932472
000120 03 43 c9 bc 22 72 7f bd 03 a3 6f 3e 9b 50 47 be
       -0.024568086 -0.062364705 0.23402028 -0.19464342
000130 38 29 81 3e ca 1f 4f be fc 89 8b 3d d8 f1 bc 3d
       0.2522676 -0.2022697 0.06813428 0.092258155
000140 00 a1 4c 3e 2b 82 4b 3e f7 e0 f0 ba 9b 55 0a 3b
       0.19983292 0.19873874 -0.0018377592 0.0021108154
000150 ed b9 83 3e 4f e3 38 3e d0 52 77 3d 77 a6 1e 3e
       0.25727788 0.18055461 0.06038171 0.15493189
000160 df b6 28 be e3 7f fa 3d e4 a2 89 be 6f 03 77 3e
       -0.1647601 0.12231424 -0.26882088 0.24122404
000170 71 21 64 3d 70 6f e8 bd cf 12 38 be 74 fa 17 3d
       0.055695955 -0.1134938 -0.17975925 0.037104085
000180 e2 aa d6 bd 61 60 36 3e 33 87 36 3e 2b 32 eb 3d
       -0.10481812 0.17810203 0.17825012 0.11484178
000190 b3 f0 8f 3e 74 fd 8f be 03 c3 8b 3e e4 5c f2 3d
       0.28113326 -0.28123057 0.2729722 0.11834124
0001a0 eb 5f d3 bd e8 b7 a7 bd 84 d0 70 3e a5 9d 23 3e
       -0.10321029 -0.08189374 0.23517042 0.15978105
0001b0 31 26 8f 3d 98 43 b2 3c 7c d9 56 be 25 ef 5d 3e
       0.06989706 0.021760747 -0.20981401 0.21673258
0001c0 ef 4d 1b be 08 4a e1 3d ac fd 24 be a7 3d 96 3e
       -0.15166448 0.110004485 -0.16112393 0.29343912
0001d0 6b 41 6f be bd 23 e9 bd ad 4b 5e 3e ec f8 19 be
       -0.23364799 -0.1138377 0.21708556 -0.15036362
0001e0 1d f7 90 be 99 39 4d 3e 0c 9a 1b bd 7b 93 6d be
       -0.28313532 0.20041503 -0.037988707 -0.2320079
0001f0 19 4e 9a bd bb f1 7b be c2 6f fd bd 0f e8 87 3e
       -0.07534427 -0.24603932 -0.12374832 0.26544234

mu.2.weight f4 [128, 128]
000000 5d f4 1a bb 8c d7 10 3c ef 70 64 3d ed 84 09 bd
       -0.0023644187 0.008840453 0.055771764 -0.033574034
000010 0d f9 96 bd 26 2d c2 3d 25 99 35 bd 8e 5d 1e bc
       -0.073717214 0.09481268 -0.044335503 -0.00966586
000020 3e 07 88 bd 2e 5b 17 3d 1d 51 7f bc 7f 71 f4 ba
       -0.06642006 0.03695219 -0.015583304 -0.0018649547
000030 ed 81 81 bc c2 1b 7a 3d da 1c f1 bc cc 66 55 b9
       -0.015809024 0.06106163 -0.029432703 -0.00020351558
000040 b9 a2 5b bd c5 3c 47 3d e8 4e f5 bb 56 99 75 bd
       -0.05362198 0.04864194 -0.007486213 -0.059960686
000050 66 68 03 bd 98 15 b2 3c 5e 8c c9 bc c7 09 ab 3b
       -0.032081984 0.021738812 -0.024603065 0.0052196714
000060 a0 63 ed 3c b3 32 a1 3c 32 10 42 3d e3 c1 12 3c
       0.028978169 0.019677496 0.047378726 0.008957359
000070 c7 03 3e bd eb 4c 7b bd 36 62 55 3d e8 42 77 bd
       -0.04639032 -0.06135265 0.052095614 -0.06036654
000080 28 0b 70 bd 03 b8 90 bd ad db 2d bc df 0d 09 bc
       -0.05860439 -0.070663475 -0.010611457 -0.0083651235
000090 65 a2 c3 bc fe 90 61 bd b3 07 6d bd 04 94 8f bd
       -0.023881147 -0.055069916 -0.05786867 -0.070106536
0000a0 8d c2 2a 3d 2a f1 89 bd 75 10 10 3d 1a 3e 81 bc
       0.041689444 -0.067354515 0.035171945 -0.015776683
0000b0 8e 95 be bc 36 55 b0 3d c6 e5 b2 3d b4 f2 93 3c
       -0.023264673 0.08610003 0.08735232 0.018060066
0000c0 2e ed 20 3d 8e 87 99 bd 06 f1 cd bc 8d 51 18 3c
       0.039288692 -0.07496558 -0.025139343 0.009296787
0000d0 c0 ac 96 bc d7 98 47 3d 69 36 21 bd 72 4e db bb
       -0.01839292 0.048729744 -0.03935853 -0.006692701
0000e0 bf 75 ae 3c 3a a8 3e bc b9 1b 9d bc 76 d4 b2 bc
       0.02129638 -0.011636788 -0.019178258 -0.021829825
0000f0 46 92 55 3c b1 1b c8 bc 96 6d 78 bd 9c 4c 8a 3d
       0.013035363 -0.024427267 -0.060651384 0.06752893
000100 71 66 9c bd d0 b6 6e 3d de b8 58 3d c7 1c 6b bd
       -0.07636727 0.058279812 0.052910678 -0.05740049
000110 ab af 8d 3c 17 a6 a1 3d df 21 a8 bd 70 e1 60 3d
       0.01729568 0.07893007 -0.082095854 0.054902494
000120 ae 00 bd bc 31 9b ca 3b 4d 17 9e 3d 52 15 4d 3d
       -0.023071613 0.006183051 0.07719288 0.05006916
000130 92 74 57 bd d7 d1 50 bd 73 3a 09 3c a4 16 a6 bd
       -0.052601404 -0.05098137 0.008375752 -0.08109787
000140 5b b0 9e bc af 4e 83 3c 04 2c aa 3d d7 4e c9 3c
       -0.019371202 0.01602873 0.083091766 0.024573727
000150 38 b4 ac 3b 59 a7 9c 3d 14 d7 b1 bd 15 6d 96 bd
       0.005270507 0.076491065 -0.08683601 -0.073450245
000160 16 dd be 3c 35 1e 32 3c 26 ca 72 3d 45 15 d6 3c
       0.023298781 0.01087146 0.059274815 0.026133189
000170 c7 a5 1c 3d 4e 10 2b 3d 27 b7 a2 3d 15 c2 78 3d
       0.038244035 0.041763596 0.0794509 0.060731966
000180 64 09 8b bd 45 29 46 3c ce 2e 11 3d f8 e6 82 bd
       -0.067889005 0.0120948 0.035445027 -0.0639171
000190 46 96 70 bd fb 6f 0c 3d 83 3d 52 3d 7f 38 51 bd
       -0.058737062 0.03428648 0.051328193 -0.05107927
0001a0 61 52 8d bd 09 e9 aa bc 8a b6 59 3d 95 3f 51 bd
       -0.06900478 -0.020863073 0.0531526 -0.051086027
0001b0 54 6f 3b 3d d8 72 9f 3d 82 8b 92 3d 45 3c a2 3c
       0.045760468 0.077855766 0.07155515 0.01980413
0001c0 e6 5b fc bb 7f 28 1c 3c 59 c2 40 bc e4 fe aa bc
       -0.007701385 0.009531139 -0.011765086 -0.020873494
0001d0 54 31 7f 3d eb d3 c3 3c 2c e9 9a bd ce 2c 10 3b
       0.062302902 0.023904761 -0.07564005 0.0021999362
0001e0 c5 eb 71 bc c8 ed 32 bd 99 1a b2 3d fe 24 66 3d
       -0.0147656845 -0.043683797 0.08696479 0.056187622
0001f0 91 27 9a bc b9 44 dd 3c d6 26 2a 3c d8 3b 5b bd
       -0.018817695 0.027010309 0.010385236 -0.05352387
000200 d8 de 2d 3d 64 56 7c 3d e1 45 49 3c 2d ca 5f bb
       0.04244885 0.061605826 0.012284727 -0.0034147606
000210 6b 33 8a bc b8 33 8b bc c5 84 96 bd 31 c6 94 bd
       -0.016870221 -0.016992435 -0.073495425 -0.072643645
000220 c8 4b da 3c fe 34 bd 3c c5 8d 7a 3d fe 73 52 bd
       0.026647463 0.023096558 0.06117036 -0.05138015
000230 b0 38 7c bc 91 4e 74 3d 4f 37 67 bc 96 15 6a bd
       -0.015394375 0.05964524 -0.014112308 -0.057149492
000240 82 46 49 bd 6d 55 b2 bd 40 10 36 3c 84 65 d0 bc
       -0.049139507 -0.087077 0.011112273 -0.025439031
000250 f2 20 4c 3d 83 21 2f 3d 15 73 97 3d 59 01 99 bd
       0.049836107 0.04275657 0.07394997 -0.0747096
000260 f2 88 89 bc b8 29 11 3c f0 e9 35 3d e0 fc 9e bd
       -0.016788933 0.008860044 0.044412553 -0.07763076
000270 b2 d7 99 3c 57 a7 36 bc ea 66 49 3d 08 c4 89 3d
       0.01877961 -0.011148295 0.049170412 0.06726843
000280 86 ba cb 3c f6 64 50 bd 11 4b 16 3d 55 eb 03 3c
       0.024869215 -0.050877534 0.036692683 0.008051713
000290 13 d7 9e 3d 51 45 83 bd bc 8b a8 3c ab 7f 17 3d
       0.07755866 -0.064097054 0.020574443 0.036986988
0002a0 73 de 4d bd a9 ad cf 3a c8 3f b8 bd cc 2e 12 3d
       -0.050260972 0.0015844601 -0.0899654 0.03568916
0002b0 eb cf 7c 3d 9f 8b 81 bd 36 ad 2d 3d 24 22 bb bc
       0.061721724 -0.06325459 0.042401515 -0.022843428
0002c0 0d 92 08 bd 1f ca 81 3d f1 6d 61 3d 82 2e 5f bd
       -0.03334241 0.0633738 0.05503649 -0.054487713
0002d0 12 54 b0 3d 85 32 48 bd de bd b2 3d 74 63 18 3c
       0.08609785 -0.048876304 0.087276205 0.009301055
0002e0 76 ab b1 bd 5c 10 98 bd 98 51 a9 bd 58 6b a6 3d
       -0.08675282 -0.07424995 -0.08267516 0.08125943
0002f0 98 98 2e bc 0c 40 74 bd a6 31 2f bd eb 0d 07 3d
       -0.010656498 -0.059631392 -0.042771958 0.032972258
000300 34 87 82 bd c3 0f 55 3d 96 77 28 bd 37 6b 9b 3d
       -0.06373444 0.052016985 -0.04112967 0.07588809
000310 96 75 76 3d 70 a5 85 bd cc 0d 03 bd 5b a5 08 bd
       0.060170732 -0.06525695 -0.03199558 -0.03336082
000320 1a ff 1e 3d e0 1c b2 bd cf 8d ef bb 95 68 a5 bd
       0.038817503 -0.08696914 -0.007310606 -0.08076588
000330 95 50 12 bd d0 ec f6 3c 71 37 b8 bc 32 35 26 3c
       -0.03572138 0.030142218 -0.022487374 0.010144519
000340 0f 3a 6e bd d0 9e b0 3c 5e d9 d4 3c 52 70 b6 bd
       -0.058160838 0.021560103 0.025982555 -0.08908142
000350 6b fa 39 bb 8e b6 86 bc 56 65 ec bc a2 b2 09 bd
       -0.002837802 -0.01644447 -0.028856914 -0.033617623
000360 ca 8b 86 bd 27 8d a2 3d 79 32 b8 3d 4b 83 92 bd
       -0.065696314 0.07937079 0.08994002 -0.071539484
000370 92 d1 a0 bd 30 6c ab bd 53 8c 80 3d 8b f2 84 3d
       -0.07852472 -0.083702445 0.06276765 0.06491574
000380 49 42 79 3b 62 8e 75 bd bf 96 90 3b 64 32 8a 3d
       0.0038033894 -0.05995024 0.0044125016 0.067478925
000390 b1 43 b1 3c e2 1e 22 3d a5 bc 6a 3b 92 6e 21 bb
       0.021638723 0.039580233 0.0035818007 -0.0024632555
0003a0 40 4c 10 3d 7d fd ae 3b d0 0e f9 bc ef ee 3b 3d
       0.035228968 0.0053402768 -0.030402571 0.04588216
0003b0 01 f3 6e 3c 82 69 e3 3c 3a 7c 40 bd fd 49 df bc
       0.014584304 0.027760271 -0.04699347 -0.02725696
0003c0 24 ed 6f 3d 04 00 7f bd d4 68 4a 3d e4 cc c7 bd
       0.058575764 -0.062255874 0.04941638 -0.09755877
0003d0 a5 d2 84 3c 55 59 e2 3c 74 64 2c 3d b7 23 64 bd
       0.016213724 0.027630487 0.042087987 -0.055698123
0003e0 c5 cf 2b bd d3 d3 9a 3d de 2b 58 bc 2b 2f 22 3d
       -0.04194619 0.075599335 -0.0131940525 0.039595764
0003f0 da 3c 64 bd 45 b6 38 bd 3f 19 5a ba 9f e1 43 bd
       -0.055722095 -0.0450957 -0.0008319802 -0.04782259

mu.2.bias f4 [128]
000000 8f 00 36 3d 81 03 99 bd 39 8e 79 3d 7d 96 1f 3d
       0.044434126 -0.074713714 0.06092665 0.038961876
000010 d7 3f 39 bc 9f 7b 6d 3c a1 21 9a 3b 12 b0 2b bd
       -0.0113067245 0.014494806 0.004703716 -0.04191596
000020 78 96 3e bd 0d 9c e7 bc bd af 15 3d ed 51 99 3c
       -0.046530217 -0.028272653 0.03654455 0.018715823
000030 cf cf 0c 3d 0e e8 ba bc 16 80 80 3d 4c 19 c3 3c
       0.03437787 -0.02281573 0.062744305 0.023815773
000040 3e e2 82 3d cb 7c 92 bd 95 fd 2d 3d 82 13 9f 3d
       0.063908085 -0.071527086 0.042478163 0.07767393
000050 ab ff 49 3c 4e f1 87 bd 64 ff e4 bb b1 b4 a5 3d
       0.012329022 -0.06637822 -0.0069884527 0.08091105
000060 43 2c 22 3c 7c d9 fb ba 21 8c b9 3d ec 9c 90 bc
       0.009898248 -0.0019214596 0.090599306 -0.017652951
000070 5f e0 a8 3c 30 49 20 bd 02 43 1e ba 32 2a 31 bc
       0.020614801 -0.039132297 -0.00060372066 -0.010813283
000080 8b 4b 5d bd 0b 16 86 bc ba dc e1 3c c9 c0 df bc
       -0.05402712 -0.016367933 0.027571071 -0.027313607
000090 8d 4a bc bc ad ca cb 3c 9b 57 8f bd 18 74 f4 b9
       -0.022984767 0.024876917 -0.06999131 -0.00046625803
0000a0 aa c5 d2 bb 74 5f 3f bd 96 b3 51 bd d4 ec dd bc
       -0.006432255 -0.04672189 -0.051196657 -0.027090468
0000b0 d9 61 4f 3d 83 ae 8b bd 36 4a 9e 3c 15 03 c0 bc
       0.050630424 -0.06820395 0.019322496 -0.02343897
0000c0 40 63 08 3d 63 12 32 bb 04 c2 ae 3d f2 a3 df 3c
       0.033297777 -0.0027171604 0.08533099 0.027299855
0000d0 8e 27 b1 bd a5 13 82 bc e2 47 29 3d f7 e0 85 3d
       -0.086501226 -0.015878508 0.04132832 0.06537049
0000e0 01 18 48 bb 6e c3 c6 bd 3b 56 47 3b 82 c8 b8 bb
       -0.0030531886 -0.09705244 0.0030416388 -0.005639137
0000f0 9a bf 92 bd 1b cf 7c bc ec 62 ad bc a2 ca d7 bc
       -0.07165451 -0.015430237 -0.021165334 -0.02634174
000100 36 e3 94 3b d7 45 85 bd ba ed bd 3c b1 56 04 bc
       0.004543687 -0.065074615 0.023184646 -0.0080773095
000110 fd 1f 14 3d 9c 4a 11 bd d4 85 ab 3d fe 92 1d bd
       0.03616332 -0.035471544 0.08375135 -0.03847026
000120 18 3d 81 3c 40 97 a1 3c af ca ee bc 81 87 9b 3c
       0.015776202 0.019725442 -0.029149381 0.018985512
000130 1c 1d 90 bb c4 7c b0 3c 51 71 17 3d d1 a2 31 bb
       -0.0043980014 0.021543868 0.0369733 -0.0027105103
000140 5e 10 12 bd 90 cb 63 bd 6f ba 3e 3c ba 4b c5 3c
       -0.03566014 -0.055614054 0.011641129 0.02408396
000150 68 5f 2b bd 2f d4 19 3d 2c 57 85 bd 9f 9c 29 3d
       -0.041839033 0.03755587 -0.06510767 0.04140913
000160 74 23 97 bd b6 00 0d 3c 73 13 ae 3d 00 97 92 3d
       -0.07379809 0.0086061265 0.084998034 0.07157707
000170 9d 95 36 3d 5d 28 c2 3c 1a 36 92 bd 74 f6 73 bd
       0.044576276 0.023700887 -0.07139225 -0.059561208
000180 5b d6 47 3a b3 c4 11 bd 74 88 ae bd 74 9f af bd
       0.0007623189 -0.035587978 -0.0852212 -0.08575335
000190 7e 44 e3 3c a5 9b 34 bd de b5 38 3d ab 8c 27 bd
       0.02774262 -0.044093747 0.045095317 -0.040905636
0001a0 ba 2f 82 bc 39 70 94 bd 51 f9 14 bd 73 65 ed bb
       -0.015891898 -0.07247967 -0.03637058 -0.0072447597
0001b0 50 19 54 3d 0b 39 9f 3d e0 f4 fa 3c 4d 46 98 3d
       0.051781952 0.07774552 0.030634344 0.07435284
0001c0 c0 59 a9 bd 1d da 32 3d bf 02 27 3d 7f b6 ef 3b
       -0.082690716 0.04366504 0.040774103 0.0073154564
0001d0 99 57 74 bc bf ae 25 3c aa f1 06 bd e4 ed a0 bd
       -0.014913463 0.0101124635 -0.032945313 -0.07857874
0001e0 ed c0 39 bd 7b ce 3b 3d f9 0e 4d bd 25 01 5e 3d
       -0.045350004 0.045851212 -0.050063107 0.05420031
0001f0 8c cd 88 3b 3e ab 6b bd 5b 1e 87 3d 99 3e 3d 3d
       0.0041748937 -0.057536356 0.06597587 0.046202276

mu.4.weight f4 [4, 128]
000000 5d e7 6b 3b df b6 f8 3b 0d e6 36 3c c3 68 c3 3b
       0.0035996058 0.0075901593 0.011163247 0.0059634163
000010 54 fe 28 3c 4a 80 44 bc 20 87 21 bc 18 d5 90 3a
       0.010314543 -0.011993477 -0.0098588765 0.0011049835
000020 c3 48 0a 3a dd 82 17 3c f7 08 f4 3b 62 2f f9 3b
       0.00052751246 0.009247509 0.0074473578 0.0076045254
000030 0e 2e 7b 38 89 8f eb 3b 74 6f 25 3c 0b df 2d 3b
       5.9885955e-05 0.0071887416 0.010097373 0.002653065
000040 e0 3f 70 3c b0 a2 49 3b 56 0a 8a 3b 3c 18 ff 3b
       0.0146636665 0.0030767135 0.004212658 0.0077848714
000050 b4 ce ed 3b cb 4d b9 ba 49 2c 40 3a 6b 97 25 bb
       0.007257307 -0.0014137564 0.0007330818 -0.0025267254
000060 79 c1 fc b9 6e dd be ba 76 7c 04 3c 8e 4f 2b 3c
       -0.00048209334 -0.0014561841 0.008086314 0.010455979
000070 4c 3c 36 3b 10 63 9d 3c 6f db f9 39 b3 eb 00 3b
       0.0027806936 0.019212276 0.00047656472 0.0019671738
000080 bb 76 a3 3b 66 15 fd b8 eb 0f 25 3c 55 36 b5 3b
       0.004988519 -0.00012067966 0.010074596 0.0055301585
000090 44 9e 08 3c 27 fa 5c 3c e4 4c 25 3c 99 0f 21 3c
       0.008338515 0.013487375 0.010089133 0.009830379
0000a0 36 fe 45 bb 07 cb 5a 3a 64 22 63 3c 47 64 0f bb
       -0.0030211336 0.00083462935 0.01386318 -0.0021879838
0000b0 4f 8f 57 ba 02 a4 33 3c 89 19 ba 3b 3f 83 2f 3a
       -0.0008222954 0.0109643955 0.0056793136 0.00066952774
0000c0 40 f0 9e bb f1 d2 f0 3a d4 5b 06 3c f4 64 0b 3c
       -0.0048504174 0.0018373412 0.0082006045 0.008507956
0000d0 41 ad 9d 3a 72 de 7c bb 03 24 6f 3b 1c b2 e7 3b
       0.0012029783 -0.0038584736 0.003648997 0.007070793
0000e0 08 bd 31 ba 94 9a 0b 3c de dc d7 3b 76 e9 c7 3a
       -0.0006780182 0.008520741 0.0065876087 0.0015252072
0000f0 b7 9e ad 3b 40 89 ef 3b bd b3 37 3c 59 3e 4f 3c
       0.0052984613 0.0073100626 0.011212287 0.012649142
000100 6c 64 14 bb 0c 60 6e 3b 88 5e d3 ba 10 24 a0 3b
       -0.0022642864 0.0036373166 -0.0016126195 0.0048871115
000110 1b d3 bb 3b 60 50 a9 3b 92 ca 47 3c 9a ba 9b 3a
       0.005731953 0.005167052 0.012194293 0.0011881173
000120 d8 b6 66 3c 64 f8 50 3c f4 9b 98 3b 80 f5 a6 3a
       0.014081679 0.012754533 0.004657263 0.001273796
000130 fc 6b 17 3c c2 5d ae 3b 87 f6 86 bb dd ef c2 ba
       0.009242054 0.0053212354 -0.004118744 -0.001487251
000140 1b f9 3a b9 a2 69 8b bb d3 b4 d1 3b 43 20 43 3a
       -0.00017831141 -0.004254536 0.0063997298 0.0007443467
000150 6c 6a ab 3b ed 37 75 3c b9 4b b5 39 29 3a 8d 3c
       0.0052311923 0.014966947 0.00034579428 0.017239647
000160 dd 33 21 bb 40 92 de 3b 22 9f 44 3c f1 fd 02 3c
       -0.0024597563 0.0067923367 0.012000831 0.007995115
000170 4f 03 10 3c 1d 4f 13 3b e4 37 80 3c f5 42 7e 38
       0.008789851 0.0022477575 0.01565165 6.0620678e-05
000180 7e a6 57 bb b5 29 ab 3b b6 fe 18 3c c5 4f e2 bb
       -0.0032905634 0.0052234777 0.009338072 -0.006906482
000190 63 a6 4a 3b 0a 8d 45 3b 96 48 b7 3a 73 a7 05 3c
       0.0030921928 0.003014388 0.0013983424 0.008157599
0001a0 3c 5a 46 3c 0b ab c0 3b 68 8c a9 ba 8c 22 b1 3b
       0.0121064745 0.005879765 -0.0012935521 0.0054057296
0001b0 39 e3 4a 3c 1f bd 74 3c 80 84 f6 3b 7c 6a 0d 3a
       0.012383276 0.014937668 0.0075231194 0.00053945906
0001c0 e2 53 7d 3c 83 75 10 3c 5b bf 26 3b e8 4b f7 3a
       0.015461894 0.0088170795 0.0025443647 0.0018867226
0001d0 ea 7b c8 b9 ce 75 16 3c 5c a6 aa 3c 70 bc 88 bb
       -0.00038239296 0.00918336 0.02083128 -0.004172854
0001e0 ca b4 a9 3a 08 dc 56 3c 60 dc 24 3c 74 ac 48 3c
       0.0012947556 0.013113983 0.010062307 0.012248147
0001f0 6f 8c 68 3b bf 1c 9d 39 f0 01 be 3b f9 77 50 bb
       0.0035484096 0.0002996679 0.005798571 -0.003180979
000200 5d 9b 02 bc 85 78 2b bc f6 bb 30 bb 52 d7 28 38
       -0.007971612 -0.010465746 -0.0026967502 4.0254854e-05
000210 b0 33 b4 bb 0d c9 dc ba 8f 8d 7f 3b 0e 56 00 b8
       -0.0054993257 -0.0016844586 0.0038994288 -3.0597723e-05
000220 da fc 12 ba f8 e2 53 bc ec 54 a3 bb 49 07 b9 bb
       -0.0005607136 -0.012932532 -0.0049844887 -0.0056466204
000230 9e eb d8 bb 9f 04 ca bb 90 4f 87 bc cb 48 8e 3b
       -0.0066198846 -0.0061651017 -0.01651743 0.0043421737
000240 cb f1 5d bb fd a8 a7 bb d6 6e b1 bb 16 6d 84 bb
       -0.0033866044 -0.0051165805 -0.005414824 -0.0040413244
000250 71 3c a3 ba 2e e1 6a ba bb 6b 18 bc 18 5d 5b bb
       -0.0012453926 -0.0008959946 -0.009303029 -0.0033472236
000260 b5 86 af 3a b7 61 46 bb d2 99 31 bc 47 10 6b 3a
       0.0013391586 -0.0030270645 -0.010839896 0.0008966964
000270 e2 9f b5 38 2a a8 2f 3b 1f aa f2 3a 11 2e 81 3a
       8.660533e-05 0.0026803114 0.0018513835 0.0009855648
000280 e3 1a 4c 3b db 84 b7 bb 52 65 f2 ba 46 73 1c bc
       0.0031143955 -0.0056005544 -0.001849333 -0.009548968
000290 8d 19 0e b9 92 a4 15 bc 17 2a 9e ba 14 3d 50 bc
       -0.00013551694 -0.009133475 -0.0012066987 -0.012709875
0002a0 be 72 4f 3b f0 e4 58 bb 64 96 4c bc a7 95 e6 bb
       0.0031654085 -0.0033095442 -0.012487028 -0.007036883
0002b0 27 6c 9d b9 8c 9f 20 bc d0 29 c0 3b b9 3c b9 3b
       -0.00030025953 -0.009803664 0.0058643594 0.0056529907
0002c0 14 b9 99 3a 30 07 a5 bb a9 de 9e bb 99 4b 41 bd
       0.0011728131 -0.005036257 -0.0048483205 -0.047191236
0002d0 bb 79 fd 3b 0f b1 7b 3b 65 6b 85 3a 42 b2 14 bb
       0.0077354587 0.0038405096 0.0010179101 -0.0022689258
0002e0 77 bd 6c bb b1 59 1e 3c 06 ad 38 bb a3 6e 4a bb
       -0.0036123672 0.009664939 -0.0028179302 -0.0030888699
0002f0 4c c2 2e bc 0b 73 ad bb 9a 38 10 bd 60 c9 00 bb
       -0.010666441 -0.005293255 -0.03521023 -0.001965128
000300 c6 c7 ab 3b ee ee 71 38 5d 05 c0 bb 7f 81 1f bb
       0.0052423207 5.7681398e-05 -0.0058600144 -0.002433866
000310 7a 7d 3a ba 42 15 2b bc 2a 62 5b bc a5 87 12 bc
       -0.00071140344 -0.01044208 -0.013390103 -0.008943473
000320 1e 40 5d 3b 8d 87 b9 bb 82 ea ef ba 52 52 74 ba
       0.003376014 -0.005661911 -0.0018304142 -0.0009320128
000330 a0 92 30 3a 07 a4 a4 bb 97 26 6b bb c6 09 aa bb
       0.0006735716 -0.0050244364 -0.0035881156 -0.0051891534
000340 b2 22 6a bb dc 0a 85 3a c2 c6 41 3a c2 cc 3f 3a
       -0.0035726246 0.0010150331 0.0007391983 0.0007316583
000350 b3 87 51 bc b0 cc 6c 3b 89 b0 14 3c 80 81 2b bc
       -0.012788701 0.0036132745 0.009075292 -0.010467887
000360 9c d3 c7 bc 2a 26 96 bb 17 01 8a bc de 43 ad bb
       -0.024392895 -0.004582186 -0.016846223 -0.0052876314
000370 65 89 2d bc b7 3d 9d bb 63 22 a6 bb 9a 96 1b 39
       -0.010591839 -0.0047986167 -0.005070017 0.00014838055
000380 72 2f 65 ba eb f7 a0 bb 96 15 7b bb 84 a7 07 ba
       -0.00087427266 -0.0049123666 -0.0038312427 -0.0005174803
000390 b6 66 e6 ba 87 3f e9 bb 52 60 7c bb 5a 22 0a bb
       -0.0017578218 -0.0071181688 -0.003850956 -0.0021077604
0003a0 44 eb c4 bb 06 39 1c bb c6 81 95 3a a1 33 0b bc
       -0.006009491 -0.00238377 0.0011406473 -0.008496196
0003b0 7e 63 2d bb 9d 9f 9e 3a be e6 f9 bb ce 99 f6 3a
       -0.0026457007 0.0012102012 -0.0076263836 0.0018814148
0003c0 31 25 c4 ba 91 1c 69 bb bd ac d6 ba 26 80 b8 bb
       -0.0014964697 -0.0035570005 -0.0016378384 -0.005630511
0003d0 5b 43 30 bc 3c a1 e3 3a 4b 4a 3c bc 4f 43 26 bc
       -0.010758246 0.0017366777 -0.011492322 -0.010147884
0003e0 bf fd d2 bb 54 a9 0a bc 77 1e 4f bb 3f 18 91 bb
       -0.0064389403 -0.0084632225 -0.0031603852 -0.004427939
0003f0 5c 16 15 bc cb 0f 4c 36 e8 eb 5f bc 4b e3 af bb
       -0.009099569 3.0407562e-06 -0.013667084 -0.0053676716

mu.4.bias f4 [4]
000000 75 53 b9 3b 10 96 36 bc 33 2c 4d 3c 37 fa 81 bb
       0.005655701 -0.011144176 0.012522745 -0.0039665955
