experiments/data/sawyer_clutter_200steps_10H/sac/2021-06-11_10-39-49_clutter_200steps_10H/policy_1800.pt (torch_old, 75801 bytes, 6 tensors)

mu.0.weight f4 [128, 12]
00000000: fa47 893c 81ca 283e db13 d2bd 4c1c 833d
00000010: 9a0f 09be 3b6b 883e f66c abbd f923 2bbe
00000020: ab26 1abe 7408 45be f36f 0abe 2bac 81be
00000030: 9612 2f3e 87f7 883e 1f8e 423b 68f8 0b3e
00000040: e53d 80be 6aae 613e 8485 523e c342 d33d
00000050: 88f8 48be e0c5 d53d e49e 93bd a507 07be
00000060: 70fb 0cbe d5af 89be 86bd 7dbe 4bc1 b0bd
00000070: 3d5d 2f3d 6ad1 083d 01d3 40bd faef 07be
00000080: f3b2 673c dc83 2f3e 07cb dabd 3fbb 0bbe
00000090: 26fd 06be 7a0b 873e 2779 e1bd 6e17 90bd
000000a0: d51d 783e fae2 063e dde2 323d 6ec3 5c3d
000000b0: 76dd 463d 8e2a 7b3e 5089 82be 618b dd3d
000000c0: 53b3 a9bd cdf4 b33d d8f7 a9bd cf2b ebbd
000000d0: 52db 92bd f3fd 913e a67e c6bd 1250 babd
000000e0: 0570 153d 451a fe3d 8ac3 743d 83c9 1e3d
000000f0: cca8 7dbe bb9e 4d3e 161e 05be 8ed5 80be
00000100: 77fd f8bd e5f4 8b3e 3832 2a3e 243c 493e
00000110: b7e7 52be 6045 05be d17a 34bc 992d 883c
00000120: 2f46 1d3e 229f 213c d4d1 c9bd ecf8 3d3e
00000130: 227a 6e3e c3ad 863e eeee 11be 4111 ed3d
00000140: 3d43 82bd f419 463e d5c5 2d3e c055 1e3d
00000150: c4f9 143e 3dc6 973d cc15 b93c 0c5b 0cbe
00000160: 1c67 323e d8a5 0fbe 0ca2 12be 2c00 29be
00000170: 3a17 853b 53ff 86be 8387 88be ec5c 76be
00000180: b4b6 8cbd 02b6 8e3e ff5e 7dbe d357 073c
00000190: 94be 51be 97fb e93d 05dd 5ebe c9eb 423e
000001a0: 6471 813e 6dc0 75be 058a e33d b376 f1bd
000001b0: ea28 743e c8d5 47bd 0125 1cbe c5c1 3cbe
000001c0: e8e0 5f3d 2529 b7bd 505c 153d bcf0 6cbe
000001d0: fe04 7a3c 240d a5bb 6611 3d3e 505e 463d
000001e0: 1ab1 21bd ca34 f8bc ef6c 403e b4e7 873e
000001f0: 1cad 3a3e f022 62bd 94bb 22be 7d58 c3bd
00000200: 5064 95be 805e 59be ca5a 67be acd6 12be
00000210: 0bfb 66be e61e 61bd e523 a1bd f484 003e
00000220: f76f 0d3e 7aec 8f3e 545c 89be a069 633e
00000230: 2a09 c63d 98e1 39be aaf4 7abe 69ae 85be
00000240: 9b59 8bbe 3aa2 89bd d584 973d b303 a2bd
00000250: f405 a9bd 53bc 86bd d1c8 613e 0bb5 6a3e
00000260: af60 73bd 01bf 27be 775a 193e bef7 04be
00000270: 022a 8d3e 1f93 26bd f8d3 98bd 4f99 72be
00000280: 9f5d 223c d5e2 32bd b654 4cbe f750 1d3e
00000290: 4340 29bd 8cd4 03be 0234 49bc cff4 36be
000002a0: 45d1 173d 3b5b 44bc e92f 0c3e e8cf c0bd
000002b0: f77c dfbd 2df0 463e 9e59 28be 1f58 d0bd
000002c0: f73d 7f3e f155 b83d 2bb5 333e 85bb ef3d
000002d0: e16e 2b3e 0cda 74be 4805 1c3d f345 bdbc
000002e0: 2390 ebbc 2b34 d23b 8c98 89be a432 5e3e
000002f0: 3066 0dbe 37e4 0bbe 1a49 cfbd 12ab bc3d
00000300: 1118 91be 113e 823d 4a22 f1bd 0558 0cbe
00000310: 6b21 7abe 4ea2 f33d f525 48bd 7a80 c6bc
00000320: 42d1 3abe e0d9 7ebd f178 853d b958 8dbd
00000330: 73e8 773e ae93 13bb 3d7c 753e d8a4 f6bd
00000340: ee03 52be 9b9a 32bd 4861 6dbe 70f1 16be
00000350: c791 863e eae2 683e a906 463e ee3d 54be
00000360: f639 30be c3c3 d2bc 6179 38bd 89d6 1abe
00000370: b599 b5bd 1b8c 90be fbbc d93d ce17 a73d
00000380: a423 91be 448e 07be 50fb 8abe f09f 8cbe
00000390: 9821 4cbc f103 453e ab0d 593d 694f 5a3e
000003a0: 145c 5abd a1b5 0d3e c0ab a0bc fedd 59be
000003b0: 5347 d2bb 30a2 e1bd bbde 83bd 361f b2bd
000003c0: e705 62be 9788 46be fa1b 64be 6da3 803e
000003d0: 9e91 183d 2593 8bbe ebd5 01bd 5955 17be
000003e0: 6a69 0cbe 4bce 523e a605 0e3d 5632 b5bd
000003f0: 3fb3 343d ea2b 153c 7003 7f3e 568f 963e
0.016757954 0.16483499 -0.102576934 0.064018816 -0.13384858 0.2664431 -0.08370392 -0.16712941
-0.15053813 -0.19241506 -0.13519268 -0.25326666 0.17096934 0.26751348 0.0029686762 0.13668978
-0.25047222 0.2203919 0.20558745 0.10315468 -0.19626057 0.10438132 -0.0720804 -0.1318651
-0.13767791 -0.26891962 -0.24779329 -0.08630618 0.04281353 0.033402838 -0.04707623 -0.13275138
0.014141786 0.17140144 -0.10683256 -0.13645647 -0.13182506 0.26375943 -0.11009436 -0.07035719
0.2423013 0.13172522 0.043673385 0.053897314 0.048551045 0.24527952 -0.25495386 0.108176
-0.082861565 0.087869264 -0.082992256 -0.11482965 -0.07170738 0.2851406 -0.09692125 -0.090973035
0.036483783 0.12407354 0.059756793 0.038766395 -0.24771422 0.20080082 -0.12999758 -0.2516293
-0.121577196 0.27335277 0.1662072 0.19651848 -0.20596205 -0.13014746 -0.01101561 0.016623305
0.15358804 0.0098646 -0.09854475 0.18551987 0.23288777 0.26304445 -0.142513 0.115755565
-0.06360481 0.19345838 0.16969998 0.038655996 0.14548403 0.07410858 0.022593401 -0.13706607
0.17422146 -0.14028108 -0.14319628 -0.16503972 0.0040616067 -0.26366672 -0.26665887 -0.24058884
-0.06870785 0.27873236 -0.2474327 0.008260685 -0.20482856 0.1142494 -0.21764 0.19035257
0.25281823 -0.23999186 0.111103095 -0.11790218 0.23843732 -0.048787862 -0.15248491 -0.18433292
0.054657847 -0.089433946 0.03646499 -0.23138708 0.015259979 -0.005036967 0.18463668 0.048429787
-0.039475538 -0.03029861 0.18791555 0.26543963 0.18230098 -0.0552091 -0.15891868 -0.09538362
-0.29178095 -0.21227455 -0.22593227 -0.14339703 -0.22556703 -0.054961108 -0.078681745 0.12550718
0.13812242 0.28110105 -0.26828253 0.22208261 0.09669717 -0.18152463 -0.24507394 -0.26109627
-0.272168 -0.067203954 0.073983826 -0.07910862 -0.082530886 -0.06578889 0.22049262 0.22920625
-0.059418377 -0.16381456 0.14975916 -0.12985131 0.27571112 -0.04066765 -0.07462305 -0.23691295
0.009910016 -0.043673355 -0.1995419 0.15362917 -0.04132105 -0.12874049 -0.012280466 -0.17866825
0.03706481 -0.011984642 0.13690151 -0.09414655 -0.10912507 0.19427557 -0.16440436 -0.10173058
0.24925981 0.09000767 0.17549579 0.117056884 0.16741516 -0.23911303 0.038090974 -0.023104643
-0.028755253 0.0064149103 -0.26874197 0.21699005 -0.13808513 -0.13661276 -0.10121365 0.092123166
-0.28338674 0.063594945 -0.11774118 -0.13705452 -0.2442681 0.118961915 -0.048864324 -0.024231184
-0.18243888 -0.0622195 0.06517208 -0.06901688 0.24209766 -0.0022518444 0.23973174 -0.1204316
-0.20509312 -0.043604475 -0.23181641 -0.14740539 0.26283094 0.22742811 0.19338478 -0.2072675
-0.1720961 -0.025728112 -0.04503763 -0.15120901 -0.08867208 -0.28231892 0.10631748 0.08158837
-0.28347504 -0.13237864 -0.2714486 -0.27465773 -0.012459181 0.19239785 0.05299155 0.21319355
-0.05331047 0.13838817 -0.019613147 -0.2127609 -0.006417194 -0.11017263 -0.06438967 -0.08697359
-0.22072564 -0.19388042 -0.22276297 0.25124684 0.037248246 -0.272607 -0.03169815 -0.14778651
-0.13712087 0.20586507 0.034673356 -0.088474914 0.044116255 0.009104708 0.24903655 0.29406232

mu.0.bias f4 [128]
00000000: 8a84 843e c097 2d3e e972 923e 053b ca3c
00000010: 1729 e3bd 0a1d 343e b4f5 613d 5bc5 7c3e
00000020: 6860 41be 70ac 38be eecf 68bc f756 6abe
00000030: 8778 17be 08ff 223e c2cc 10bd 60ae 88be
00000040: 59b2 133d 4fae 7fbe 4c71 8b3e 2381 b7bc
00000050: 4eb6 6abe 079d 213e 90bb e1bd 90c0 903e
00000060: 3573 843e 8128 c73d 25bc 193d 86cf 73be
00000070: 902e bfbd 9408 6f3e db24 28be 6097 94bd
00000080: e210 ebbd b18d 473e 9ec7 733d fff7 ba3d
00000090: dcf4 8abc 9f29 88bd 923a 79bd a9a8 0ebd
000000a0: 52eb e0bd 6d03 873e 1994 7cbd d907 80be
000000b0: 132a 7dbe 4209 9abd bf8e aa3b 5afd 523c
000000c0: 131a 073e 35f7 023e 61e0 5c3d ff0a 663e
000000d0: 15b0 43be f26b 923e fc05 83be aeff d53b
000000e0: 3d92 4c3c d59d 4a3a 21e3 6ebe 4089 8e3e
000000f0: 379c 163e 314d 8d3d 7405 22be 9c34 113e
00000100: 5edf 0e3e d286 50bc 03da 833d f014 1e3e
00000110: 47bc 8d3d d9f7 7c3e f680 5ebe 72b4 42be
00000120: 76b1 bebc b371 6abd c60a 773e ddf4 43be
00000130: c1ae 823e ed65 4dbe 640f 833d 6b9a b33d
00000140: e6a5 4d3e dfec 453e 4f33 48b9 fa0a 2abc
00000150: 4697 7e3e 2c1e 373e acb1 843d 8471 253e
00000160: 1f5d 2cbe 7ee5 f83d d7cd 89be 0e93 793e
00000170: bae9 733d 0b96 e7bd 5ae4 39be 3237 203d
00000180: 0530 c7bd b9f6 363e ec10 383e d653 e53d
00000190: caf3 8c3e 31cc 8fbe a79d 8c3e c2aa fb3d
000001a0: 776d cfbd 4e3d a0bd dd3f 713e 95a0 263e
000001b0: 59ad 913d 238c b63c 4909 57be a4c4 5f3e
000001c0: 9a56 19be fa4d ea3d 3cac 2ebe f91c 963e
000001d0: 3e98 64be 0995 dbbd 1fbb 603e a5d8 20be
000001e0: c87c 90be 0024 4a3e 4076 03bd 50ca 6cbe
000001f0: 6e33 acbd 03f1 76be a157 f4bd 759b 883e
0.2588237 0.1695242 0.28603294 0.024686346 -0.11091822 0.17589203 0.05516596 0.2468466
-0.18884432 -0.1803453 -0.014209731 -0.22884737 -0.14792071 0.15917599 -0.035351522 -0.26695538
0.036058757 -0.24968837 0.27234876 -0.022400444 -0.22921106 0.15782557 -0.11022103 0.28271914
0.25869146 0.097245224 0.037532944 -0.23809633 -0.09335053 0.23343116 -0.16420309 -0.07255435
-0.114778295 0.19487645 0.05951654 0.09129333 -0.016962461 -0.066485636 -0.060846873 -0.034828816
-0.10982384 0.263698 -0.061664674 -0.25005987 -0.24723081 -0.07521297 0.005205005 0.0128777865
0.1319354 0.12789614 0.053924922 0.22465132 -0.19110139 0.2859798 -0.25590503 0.0065307235
0.012486038 0.0007729207 -0.2332883 0.27839088 0.14708029 0.06899489 -0.15822393 0.14180225
0.13952395 -0.012727456 0.06438067 0.15437675 0.06920677 0.24703921 -0.21728882 -0.19014147
-0.02327798 -0.05723734 0.24125203 -0.19136377 0.25523952 -0.20058413 0.0639942 0.08769687
0.20082816 0.1932864 -0.000190926 -0.010378594 0.24862394 0.17882603 0.06479201 0.16156584
-0.16832398 0.12153147 -0.26914856 0.24372503 0.05954907 -0.11307915 -0.18153515 0.03911514
-0.09725956 0.17867555 0.17975205 0.11197631 0.27529746 -0.28085473 0.2746403 0.12288429
-0.10128301 -0.07824193 0.23559518 0.16272195 0.071131416 0.02228362 -0.20999636 0.21852356
-0.14974442 0.11440654 -0.1705789 0.2931898 -0.22323701 -0.107217856 0.21946381 -0.15707643
-0.282202 0.19740295 -0.032095194 -0.23124051 -0.08408247 -0.24115376 -0.119307764 0.26681104

mu.2.weight f4 [128, 128]
00000000: cdb4 81ba 168d 163c 27c6 683d 5168 06bd
00000010: 04f8 92bd 51cb c13d 510e 36bd 0ef6 1fbc
00000020: 9121 81bd c5b1 163d 068c a2bc 85ad 9c3b
00000030: 1f43 a0bc 70ef 653d ac9a ffbc 41bf 4dbb
00000040: 3630 5fbd da0f 433d 20eb 41bc c2dc 5fbd
00000050: 5ce3 07bd 700a b13c 8611 d3bc 2d19 a53b
00000060: fe20 e23c e67a b83c accf 3e3d 2aee 463c
00000070: 44e9 46bd cf5f 87bd 689c 493d d440 7bbd
00000080: 56fc 77bd 2767 92bd ce79 31bc ed85 06bc
00000090: 9a3c babc 7638 64bd 3ad6 64bd 9be1 92bd
000000a0: 4cfc 263d d81a 8fbd ffc8 033d 984c 2bbc
000000b0: cdfd b3bc bce8 b13d f121 b43d 06d5 673c
000000c0: e139 113d ec25 9abd 90e9 f9bc a151 d43b
000000d0: d273 adbc 5d56 4e3d d171 2bbd f2ea a5ba
000000e0: 50b4 ac3c b370 5cbc 3b88 99bc 90f2 a5bc
000000f0: aa2b 143c 784d afbc 8591 80bd b1f2 8f3d
00000100: aca6 99bd 8f40 6f3d 0dc1 4a3d 1c91 60bd
00000110: 59a2 ac3c 08b2 9c3d 543c a2bd 296d 493d
00000120: fdbc acbc 60c9 a93b 1746 923d 54df 4d3d
00000130: b2d0 5abd fd53 61bd c33a 763b 4ce8 9dbd
00000140: 8124 a1bc 4523 723c 2447 ad3d 6bc5 8c3c
00000150: 0ee9 db3b 5eb6 a23d 50a0 a5bd 6c5f 90bd
00000160: 3e71 dc3c c866 023c 018c 6e3d 1ec3 cf3c
00000170: 09fb 1c3d 57d2 2e3d 9852 913d 1bf5 7b3d
00000180: 5412 90bd c402 2b3c d84f 0d3d 8c19 89bd
00000190: 0410 7bbd 47fd 1a3d 3bd2 443d b587 50bd
000001a0: 75bf 8dbd 5b8b a8bc e6e8 4c3d 254a 47bd
000001b0: 8f8a 463d c2af 9e3d 07f9 943d 6e2a a03c
000001c0: a285 01bc 510e 203c 495a 8fbc 6996 b4bc
000001d0: ac44 883d 77c7 d43c 084e a0bd a481 fe3b
000001e0: df87 95bc 7afb 53bd ae57 aa3d 35ac 513d
000001f0: 0fd9 afbc c554 e33c 2c6e 103c 4e2c 5fbd
00000200: 56a5 273d 8419 7e3d 5110 313c 2c4c 53ba
00000210: 081b 9cbc 9faf 92bc e922 8ebd ab7d 96bd
00000220: ab2f fa3c 07dd af3c 62c9 743d 1861 48bd
00000230: e861 6ebc 755c 703d 3111 68bc 2f4a 54bd
00000240: a7cb 4dbd c1ad b2bd 8416 0b3c 8310 d9bc
00000250: bf16 443d e637 233d 2a0d 9e3d 2035 8bbd
00000260: 8f17 9bbc 5fef 063c e662 2f3d bb82 9dbd
00000270: e597 983c 31c7 62bc d7b4 3c3d 6fb0 953d
00000280: 3964 e63c 8eb8 4cbd 17d7 273d 3c3e ea3b
00000290: f426 9b3d f554 82bd 4a1b b33c 9f9f 103d
000002a0: cdc9 43bd 9c81 1e3b 9591 b2bd f485 173d
000002b0: b71f 803d 0f56 82bd ec80 503d 40d6 d9bc
000002c0: 7060 00bd 9e50 783d 934a 503d 831c 57bd
000002d0: 58dd b83d 08d4 18bd e1b3 b53d 443b 533c
000002e0: 84ec adbd c07f 8dbd ec02 a9bd 2c43 a93d
000002f0: f64f e8bb 8a6c 76bd 1d74 29bd 2ab1 133d
00000300: 6904 73bd b0d2 5b3d 41b4 09bd 33bd 9d3d
00000310: eff0 833d 3d08 8abd 586e 00bd 72d3 ddbc
00000320: ffad 173d 75c1 a9bd 8f34 62bc 0084 94bd
00000330: b8b7 1fbd 6be6 143d b701 b0bc 7409 b83b
00000340: 5b6f 6ebd 1c23 993c 13c1 ce3c d439 b4bd
00000350: a575 f6bb a81b bfbc b546 04bd 4c01 05bd
00000360: 3054 80bd 4beb a13d 91e5 b33d 0f6e 91bd
00000370: e0cd 97bd 6c7d abbd 38c2 963d 9652 8b3d
00000380: 2e7a 563b 0486 76bd 1c2c 2f3b 0013 943d
00000390: d21f bd3c 5d20 0e3d 5d29 313b 3d65 45bb
000003a0: 0e51 103d 2d41 2d3c f750 efbc 0133 453d
000003b0: ca74 593c 4c52 cf3c 95ac 46bd 0888 d4bc
000003c0: 7c04 793d 8968 88bd e886 543d e17e c0bd
000003d0: 3a37 613c e178 ea3c 266c 303d d67f 56bd
000003e0: 1ac9 22bd 3e35 9f3d c0ec 02bc da85 363d
000003f0: 6406 74bd c6de 3ebd 7289 9abb 0010 21bd
-0.0009895802 0.009188911 0.056829598 -0.032814328 -0.071762115 0.09462608 -0.044447247 -0.009763254
-0.063052304 0.036790628 -0.019842159 0.0047814273 -0.019563256 0.05613655 -0.031201683 -0.0031394514
-0.054489337 0.04762254 -0.011835843 -0.05465389 -0.03317581 0.021611422 -0.025765192 0.0050384016
0.027603623 0.02251954 0.04658477 0.012141744 -0.048562303 -0.06610071 0.049221426 -0.06134112
-0.06054338 -0.07148581 -0.010832263 -0.008210641 -0.022733975 -0.055717908 -0.055868365 -0.07171937
0.040767953 -0.06987542 0.032174107 -0.010455273 -0.021971608 0.08686969 0.08795536 0.01414991
0.03545559 -0.07526764 -0.03050688 0.0064794575 -0.021173391 0.05037533 -0.04185659 -0.001265852
0.021082073 -0.013454604 -0.018741718 -0.020257264 0.009043613 -0.021399245 -0.06277756 0.070287116
-0.07502493 0.058411177 0.049500514 -0.054825887 0.021073507 0.07651144 -0.07921663 0.04917637
-0.02108621 0.0051814765 0.07142275 0.05026181 -0.053421684 -0.055011738 0.0037571646 -0.07710323
-0.019670727 0.014778917 0.084608346 0.01718398 0.006711132 0.0794494 -0.08087218 -0.0704945
0.026909467 0.007959075 0.058238987 0.025361594 0.038325343 0.042681064 0.07095832 0.061513048
-0.07034746 0.010437671 0.034499973 -0.06694326 -0.06129457 0.0378392 0.048052054 -0.05091067
-0.06921283 -0.020574262 0.050026797 -0.048654694 0.048471984 0.07748367 0.07274061 0.019551482
-0.007905396 0.009769038 -0.017499106 -0.022044377 0.06653723 0.025974018 -0.07827383 0.007766919
-0.018253265 -0.0517535 0.08317505 0.05118962 -0.021465806 0.027750382 0.0088153295 -0.05448561
0.04092916 0.062036052 0.010807113 -0.0008060362 -0.019055858 -0.017906008 -0.06940252 -0.07348188
0.030540308 0.021467699 0.059762366 -0.04892072 -0.01454971 0.058681924 -0.014164255 -0.05182856
-0.050243046 -0.08724547 0.008489255 -0.026497131 0.047873255 0.03984823 0.077173546 -0.06797242
-0.018932132 0.008235781 0.042818926 -0.076909505 0.018627116 -0.013841436 0.0460709 0.07309043
0.028123962 -0.049980693 0.04097661 0.007148532 0.07575789 -0.063638605 0.021863598 0.035308477
-0.047799874 0.002418614 -0.08719174 0.036992982 0.06256049 -0.063640706 0.0509042 -0.02659142
-0.03134197 0.060623758 0.05085237 -0.052517425 0.09026593 -0.037311584 0.088722 0.012892548
-0.084923774 -0.06909132 -0.082525104 0.08264765 -0.00708961 -0.060162105 -0.0413705 0.03605763
-0.059330378 0.053667724 -0.03361917 0.077021025 0.06442439 -0.067398526 -0.031355232 -0.027078364
0.03703117 -0.08288852 -0.013806476 -0.072517395 -0.038993567 0.036352556 -0.021485193 0.0056163613
-0.058211666 0.0186935 0.02523855 -0.08800092 -0.0075213485 -0.023328617 -0.032293994 -0.03247194
-0.062660575 0.07906207 0.08784021 -0.0710107 -0.074123144 -0.08373532 0.07361263 0.068028614
0.0032726633 -0.0601864 0.0026729172 0.072301865 0.023086462 0.034698833 0.002703271 -0.0030120157
0.03523355 0.010574621 -0.029213412 0.048144344 0.013272474 0.025307797 -0.04850443 -0.025943771
0.060795292 -0.066605635 0.05188647 -0.093992 0.013746077 0.028622093 0.04307189 -0.052368008
-0.039742567 0.07773827 -0.007991016 0.044561245 -0.059576407 -0.046599172 -0.004716092 -0.0393219

mu.2.bias f4 [128]
00000000: 030d 2a3d a494 9abd 34bd 7a3d 6aff 303d
00000010: c81e 30bc 9f7b 6d3c d18b 9c3b e87a 25bd
00000020: 87ee 3cbd e0b4 18bd f8a1 133d 98f7 923c
00000030: ddfd 153d 61f9 aabc bae2 513d 12af c83c
00000040: b0cb 803d 2242 95bd 6bde 203d 1547 9a3d
00000050: 1cb0 5e3c 800a 84bd f658 07bc 3c67 ae3d
00000060: 0b49 803c 9f1c fdba d67b a23d 546c 82bc
00000070: 86b0 b03c 0d62 0fbd a82a 643b b027 f1bb
00000080: 719a 5dbd 25a8 8ebc 5384 ef3c d20c 13bd
00000090: ea03 e7bc 4b1d 763c f94c 8fbd a244 5f3a
000000a0: 6932 0cbb 7146 3ebd 15f2 56bd c4f3 d0bc
000000b0: 61cf 553d fe46 86bd 4bef 983c 9749 b1bc
000000c0: 52cc 0f3d 590c 20bb 970a a53d c296 05bc
000000d0: 3c7d 9fbd b3e6 81bc 4823 353d 4769 8a3d
000000e0: d28b 15b9 98ff c3bd 3b82 dc3b b79e 94bb
000000f0: 460d 8ebd b1bf 3ebc 2181 10bd b01b c8bc
00000100: 79c6 cb3b c6b2 83bd e772 d43c fb04 1dbc
00000110: 8b9b 083d df2b 30bd 8477 8c3d 43fb 3fbd
00000120: d788 a33c b052 733c 7ab5 12bd b03e 843c
00000130: 710f f23a b133 ce3c 413d 1b3d 20d1 25ba
00000140: 5e10 12bd 24e8 5abd 8182 403c b178 cc3c
00000150: 9cbe 43bd 36ce 223d ab9a 6fbd f06b e13c
00000160: a39d 91bd a326 2e3c 106d a63d d320 923d
00000170: ce72 0e3d acb3 c13c cc0a 8fbd 5749 74bd
00000180: f07e 0838 292c 1ebd ebfd afbd be1e adbd
00000190: 0e93 e73c bf8d 3dbd cd49 2f3d 9abb 22bd
000001a0: 897d 89bc 49ba 96bd 2613 edbc e019 e2ba
000001b0: dfdc 653d c839 973d 703c bc3c a1de 953d
000001c0: e7c2 a9bd a0d9 373d b944 293d 3e08 dc3b
000001d0: 5648 7bbc aeb8 2e3c a514 28bd 2596 aebd
000001e0: 71bf 3cbd 95a0 363d 39e9 4abd 8df1 623d
000001f0: 4a3d 533b 8e1e 6abd 5cd6 673d f4f4 463d
0.041516315 -0.07547882 0.061215594 0.04321233 -0.010749526 0.014494806 0.0047774096 -0.040400416
-0.046125915 -0.03728187 0.036043137 0.017940328 0.036619056 -0.020870866 0.051241614 0.024497543
0.0628885 -0.072880045 0.039274614 0.07533089 0.013591792 -0.06447315 -0.008260956 0.08515784
0.01565983 -0.0019310898 0.07933776 -0.015920796 0.021568548 -0.035005618 0.0034815464 -0.0073594674
-0.054102365 -0.017414162 0.029237902 -0.0359009 -0.028200109 0.015021632 -0.06997103 0.0008517002
-0.0021392351 -0.046453897 -0.05247696 -0.025506862 0.052199725 -0.065565094 0.018668791 -0.021641536
0.035106964 -0.0024421422 0.080586605 -0.008153619 -0.077875584 -0.015857076 0.0442231 0.06758361
-0.00014261834 -0.09570235 0.006729392 -0.004535522 -0.069361255 -0.0116423825 -0.035279397 -0.024427265
0.006218728 -0.06430583 0.025933696 -0.009583707 0.033351462 -0.04301059 0.06858733 -0.04687048
0.019962711 0.014851257 -0.0358176 0.016143173 0.0018467737 0.025171133 0.037900213 -0.00063254125
-0.03566014 -0.053444043 0.011749865 0.024959894 -0.0477892 0.03974744 -0.058497112 0.027517289
-0.07110145 0.010629329 0.08126271 0.07135167 0.034777455 0.023645245 -0.06984481 -0.059640255
3.2543147e-05 -0.038616333 -0.08593353 -0.08453129 0.028268363 -0.046277758 0.04279499 -0.039729692
-0.016783493 -0.0735975 -0.028939795 -0.0017250143 0.056118842 0.07384068 0.022978038 0.07317854
-0.08289128 0.044885278 0.041325305 0.0067148497 -0.01533707 0.010664148 -0.041035313 -0.085247315
-0.04608101 0.044586737 -0.049538825 0.055406142 0.0032232576 -0.057158045 0.056600913 0.04857345

mu.4.weight f4 [4, 128]
00000000: 9c7c 8e3a 6845 bf3b a5f5 473c 7049 a73b
00000010: 1e1e 2c3c 4a80 44bc 3214 24bc 5ca7 14ba
00000020: 8677 4abb f66d a53a fa9e b93b bebc e83b
00000030: 992d 8ebb e929 763a 6b6f 40bb 0694 fb3a
00000040: 097f 5a3c 8240 0bbb 8bf8 393b 4b72 a43b
00000050: a871 f73b d713 a7bb 0741 1fbb 40f6 d9bb
00000060: 86d4 a1bb 8821 66bb 3ca0 a63a 9e3e 603c
00000070: 920c 1e3a b37d b33c c565 303a 113a 24bb
00000080: eb77 a23b cef4 15bb 66a0 293c e649 973a
00000090: 5f00 a83b c992 033c 2bcf 093c 30db 233c
000000a0: f699 34bc 887e fc39 389c 5d3b 8217 003b
000000b0: b97d f6ba 818e 603c 0f7c ab3b 9e8c 163a
000000c0: 7ed4 d7bb 0dcc 4cbb dd23 8e3b cebc 303b
000000d0: d1e4 673b 29cb dbbb 687d 483a 2c21 d83b
000000e0: 2c5f 26bb 6a9a 0b3c 22a0 e0b8 6999 de3a
000000f0: bb42 833b b595 0d3c 1df1 4e3c dd87 763c
00000100: 24e5 33bb 8c86 7a3b 270f 7cbb f0d2 7a3a
00000110: cd53 3bba b384 a1ba 4132 133c e922 6fbc
00000120: 94d5 643c ee81 803c 6305 383a ef51 313a
00000130: a497 e13b 0b22 ea3b 7cfd bebb 65f9 a2bb
00000140: 1bf9 3ab9 e2d3 44bb 0f19 c13b dc13 0a3a
00000150: 54e4 25bb 6535 b43c 2e14 89ba a27e 0f3b
00000160: 038e 64bb e1c2 a53b 73c3 03bc 0512 ba3b
00000170: ac5d 7eba d6e5 953b 60e8 7e3c ad19 41b9
00000180: 9468 0bbb dd94 3f3b b8f5 0b3c 10b4 e5bb
00000190: 455b 59b8 bd7c 673a fb81 433a ee73 fc3b
000001a0: 0167 413c 96c0 d83b b93a 96bb 4556 753a
000001b0: 4cf6 403c 8844 533c 493c 2c3b 6556 8db9
000001c0: 83e6 8a3c 4100 9b3b 4924 903b abfb 03ba
000001d0: 6175 02bc f759 1e3c f0d6 893c 89a6 87bb
000001e0: 3934 e8ba ce03 3a3c 36fc 713c 8f1a 4c3c
000001f0: 1734 f0bb a3a6 4839 4414 45bb 8eb4 3dbb
00000200: d308 8cbb 696b 20bc a647 9fb9 e416 023b
00000210: 3acd b4bb 0dc9 dcba 429a 093b d3a6 8dbb
00000220: 4d55 853b 101d 82bb aab7 00bb 3295 b5bb
00000230: dd79 10ba 70c3 24bb 7992 14bc 0d20 cb3b
00000240: dd0f c33a 2fe8 a13a 8b99 35bb f804 a339
00000250: 845b fc36 1024 64ba 820b 03bc 4774 29bb
00000260: 98d1 01ba 11ca c5ba ee73 8abb 47e6 8d3b
00000270: 606a dc3a 6d38 2d3c d49b 263b 7116 5d3b
00000280: 8084 593b 1323 19bb 945c 9bba d752 b0bb
00000290: d2af 6239 b82f 65bb e0b5 3c39 6b05 05bc
000002a0: 529e 2f3c bb7f 5ebb 1d3a 4cbb 3f5f 86bb
000002b0: 9469 993a 0593 90bb d65e d33b fb9a cb3b
000002c0: c584 3b3b a43e b339 3ecf 13ba fe40 8538
000002d0: 6bab 0d3c 4a81 0b3c ce7b 2b3b f7c4 e9ba
000002e0: 9bbf b4ba 06ac 293c 37d4 a139 e598 55bb
000002f0: a9ff e1bb a75d c3ba 7813 8abc 8812 7e3b
00000300: aee5 aa3b 4dc1 19ba d1d9 b7ba 508c d73a
00000310: 46ad 5f3b 4b48 9abb 9496 7abb 1aae 4cbc
00000320: 42f0 853b 7c38 16b9 ca23 abb8 fe1c 06b8
00000330: b8f5 893b 59ba eab9 66f1 fab9 75c0 c6bb
00000340: b222 6abb 0cec e83a 51c5 083a 091b ad3a
00000350: d7ec 8bbb dd4b 1b3c 8b19 1f3c ef88 cfbb
00000360: 3bb5 d1bc 76e4 b0bb 2c28 e9ba 25c3 61bb
00000370: 0cda c7bb ea6c 91bb db8b ddba 9553 c738
00000380: 28b8 f2ba 309e a2ba 0e24 4dba 465f c0b9
00000390: d7df 243a 69c2 6bba ccfb 11bb 4bd6 b1b8
000003a0: 22cb 36bb 3cb8 ad39 7ebe ac3b 11a4 f8bb
000003b0: 886b 0db9 6cc9 8b3b a429 34bb 7cf9 4e3b
000003c0: 3c6a 343b 049e af3a 1887 5f39 2ba4 b0bb
000003d0: 233a 50bb 8121 e33a 40af e039 8f6c 65bb
000003e0: 253f 3cba d8ff 80bb 2932 843a b497 beba
000003f0: 7cb3 e5ba 1e69 c73a 9d2c 9dbb 554d b8bb
0.0010870877 0.0058371313 0.012204562 0.00510519 0.010505227 -0.011993477 -0.010014581 -0.00056706904
-0.0030893995 0.0012621272 0.0056647034 0.007102578 -0.0043389318 0.00093904004 -0.0029363285 0.0019193895
0.013335952 -0.0021248166 0.0028376903 0.0050185076 0.0075513907 -0.0050988006 -0.0024300234 -0.0066516697
-0.004938665 -0.00351152 0.0012712548 0.013686804 0.0006029095 0.021910524 0.0006729032 -0.0025059024
0.004958143 -0.002288151 0.010353183 0.0011542409 0.0051269974 0.008030602 0.008411209 0.010000989
-0.011023035 0.0004815946 0.0033815037 0.0019545262 -0.0018805779 0.013705851 0.005233295 0.00057429995
-0.0065866103 -0.0031249553 0.0043377713 0.0026968005 0.0035384188 -0.006707568 0.00076480815 0.0065957513
-0.0025386317 0.008520702 -0.000107109794 0.0016982976 0.0040057576 0.00864165 0.012630728 0.015047041
-0.002744981 0.003822717 -0.003846118 0.00095681753 -0.0007145971 -0.0012322873 0.008984149 -0.014595726
0.013966937 0.015686955 0.00070198457 0.0006764223 0.006884532 0.0071451715 -0.0058285575 -0.004973578
-0.00017831141 -0.0030033519 0.00589288 0.00052672415 -0.0025313096 0.021998117 -0.0010458285 0.0021895547
-0.0034874685 0.0050586318 -0.008042204 0.0056784176 -0.0009703289 0.0045745177 0.015558332 -0.0001841548
-0.002127205 0.0029233017 0.008542471 -0.0070099905 -5.1821833e-05 0.0008830538 0.0007458028 0.0077042496
0.011804343 0.006614755 -0.004584637 0.00093588635 0.011777472 0.012894757 0.002628105 -0.00026957985
0.01695562 0.004730255 0.004398857 -0.0005034755 -0.007962556 0.009665004 0.016826123 -0.0041397256
-0.0017715759 0.011353446 0.014769604 0.012457504 -0.0073304283 0.00019135563 -0.0030071894 -0.002894673
-0.004273513 -0.009791234 -0.00030380226 0.001985007 -0.005517629 -0.0016844586 0.0020996486 -0.0043228655
0.0040690065 -0.0039707497 -0.0019640722 -0.005541467 -0.0005511323 -0.0025140904 -0.009068125 0.006198889
0.0014882047 0.0012352521 -0.0027709927 0.00031093485 7.520839e-06 -0.00087028835 -0.007998349 -0.002585666
-0.00049521914 -0.0015090128 -0.0042252457 0.0043304297 0.001681637 0.010572535 0.002542247 0.00337353
0.0033190548 -0.0023366853 -0.0011853152 -0.005380969 0.00021618538 -0.003497107 0.00017996831 -0.0081189675
0.010718899 -0.0033950645 -0.0031162568 -0.0041007097 0.0011704438 -0.0044120573 0.0064505143 0.0062135435
0.0028613072 0.0003418821 -0.00056384865 6.35404e-05 0.008646826 0.008514712 0.0026166323 -0.0017835189
-0.0013790013 0.010355955 0.00030866425 -0.0032592353 -0.006896932 -0.001490523 -0.016854987 0.003876837
0.0052153682 -0.0005865291 -0.0014026706 0.0016445015 0.0034130379 -0.004708325 -0.0038236724 -0.012492681
0.004087479 -0.00014326157 -8.160582e-05 -3.197509e-05 0.0042102 -0.00044770798 -0.00047863572 -0.006065423
-0.0035726246 0.0017770543 0.0005217391 0.001320691 -0.004270177 0.009478536 0.00971068 -0.0063334624
-0.025599113 -0.0053983284 -0.0017788461 -0.003444859 -0.0060989913 -0.0044380324 -0.0016902642 9.504628e-05
-0.0018518018 -0.0012406763 -0.0007825502 -0.00036692078 0.0006289458 -0.0008993508 -0.0022275327 -8.479933e-05
-0.0027892073 0.00033134397 0.005271732 -0.0075879176 -0.00013486866 0.0042659547 -0.002749064 0.003158181
0.002752914 0.0013398533 0.00021317264 -0.005390664 -0.0031772933 0.001732871 0.0004285518 -0.0035007333
-0.000718104 -0.003936749 0.001008575 -0.0014541061 -0.0017524804 0.0015213822 -0.004796578 -0.005624453

mu.4.bias f4 [4]
00000000: 1c33 25bb 20a9 29bb 7889 253c 90ae a9bb
-0.0025207466 -0.002588816 0.010103576 -0.00517828
