experiments/data/sawyer_clutter_200steps_10H/sac/2021-06-11_10-39-49_clutter_200steps_10H/policy_2400.pt (torch_old, 75801 bytes, 6 tensors)

mu.0.weight f4 [128, 12]
0.015545796 0.1689053 -0.101735875 0.06774507 -0.13401861 0.26827803 -0.08592345 -0.16469643
-0.15072879 -0.1895307 -0.13527124 -0.251179 0.16765891 0.26539096 0.002250312 0.1364211
-0.25113267 0.22001734 0.20639125 0.1035472 -0.19269963 0.10551439 -0.071584314 -0.12993075
-0.1343306 -0.2716001 -0.24576505 -0.0921388 0.044756815 0.029367505 -0.04701924 -0.13560921
0.014233666 0.16762209 -0.105990656 -0.14058623 -0.13332152 0.2628171 -0.10818577 -0.06940287
0.24424103 0.13003936 0.04523458 0.054403916 0.05084139 0.24730337 -0.25441733 0.10852853
-0.08022348 0.090048485 -0.08196472 -0.11205363 -0.06896432 0.287669 -0.09553428 -0.089126654
0.039772812 0.12526113 0.060042154 0.041653834 -0.2533497 0.19680184 -0.12940793 -0.25589126
-0.12402449 0.27002537 0.16548285 0.19274002 -0.20169947 -0.13333072 -0.010485671 0.013843347
0.1553116 0.009088866 -0.0960057 0.18193091 0.23709574 0.26398566 -0.13999361 0.11465408
-0.058901086 0.191876 0.17193171 0.037284676 0.14276128 0.07667624 0.023799373 -0.13205059
0.17238769 -0.1392471 -0.14547296 -0.16494253 0.004442657 -0.26122326 -0.26738846 -0.23951048
-0.067857325 0.27018705 -0.24481608 0.0016209417 -0.20342584 0.10820666 -0.21448886 0.18675521
0.2547041 -0.24646556 0.11105688 -0.122645706 0.23645662 -0.047022175 -0.15126297 -0.18759535
0.052555792 -0.09180851 0.034435876 -0.23425807 0.015617513 -0.009770678 0.18412219 0.04414748
-0.044750497 -0.031400762 0.18800469 0.27439356 0.18868741 -0.050356634 -0.15350313 -0.09161912
-0.27941376 -0.20907465 -0.21759915 -0.136572 -0.22591217 -0.054484293 -0.08030735 0.12274127
0.13891292 0.2792735 -0.27018833 0.22049725 0.095306344 -0.18251513 -0.24691586 -0.26201808
-0.27034846 -0.071510024 0.07396206 -0.08180057 -0.0870435 -0.07136124 0.21803455 0.22562341
-0.06164464 -0.17080493 0.1471734 -0.13727862 0.27449948 -0.03983638 -0.07406303 -0.23111774
0.012509889 -0.03880912 -0.20101124 0.15802488 -0.038574647 -0.1235039 -0.011279509 -0.17476732
0.03830122 -0.013638586 0.13870302 -0.098156646 -0.105834164 0.19206609 -0.16238688 -0.10278556
0.25104412 0.089131065 0.17693324 0.11496077 0.16271992 -0.24053442 0.041438892 -0.025805492
-0.029306032 0.0025291075 -0.2682054 0.21571071 -0.13505885 -0.1391353 -0.09748709 0.09123616
-0.286788 0.063153714 -0.115554504 -0.13042113 -0.23741277 0.12321496 -0.043543164 -0.017434828
-0.17247036 -0.05761994 0.07403385 -0.06264426 0.24580038 -0.007031205 0.24316627 -0.12569275
-0.20588459 -0.047399856 -0.22854362 -0.15023911 0.26453957 0.22241768 0.1949981 -0.21398771
-0.17390074 -0.027748855 -0.041961618 -0.14794973 -0.08650789 -0.28241396 0.10764389 0.082850836
-0.2781928 -0.13111012 -0.26835048 -0.27378318 -0.009894175 0.19148202 0.050825942 0.20355912
-0.06183613 0.13318801 -0.028648252 -0.2249759 -0.009221548 -0.11844764 -0.070088014 -0.098350994
-0.22573592 -0.1957988 -0.2215768 0.2576667 0.04146326 -0.2664238 -0.025513893 -0.14381805
-0.12954359 0.20795357 0.04435544 -0.08217756 0.041664295 0.0065358463 0.24924803 0.2907383
00000000: cbb3 7e3c 83f5 2c3e e65a d0bd edbd 8a3d
00000010: 2d3c 09be bd5b 893e a2f8 afbd 2ea6 28be
00000020: a658 1abe 5614 42be 8b84 0abe 899a 80be
00000030: c7ae 2b3e 53e1 873e f879 133b f9b1 0b3e
00000040: 7694 80be 3a4c 613e 3a58 533e 8e10 d43d
00000050: 0d53 45be ee17 d83d cc9a 92bd 910c 05be
00000060: f68d 09be 2b0f 8bbe d5a9 7bbe 44b3 bcbd
00000070: ec52 373d 1f94 f03c 3f97 40bd 24dd 0abe
00000080: 5234 693c 20a5 2b3e a111 d9bd d6f5 0fbe
00000090: 7085 08be f78f 863e 8090 ddbd 1823 8ebd
000000a0: 521a 7a3e 0a29 053e e547 393d a4d6 5e3d
000000b0: 103f 503d 183d 7d3e fd42 82be 3544 de3d
000000c0: 354c a4bd 576b b83d 1edd a7bd 607c e5bd
000000d0: 2a3d 8dbd 5a49 933e 7aa7 c3bd 0988 b6bd
000000e0: d1e8 223d 7444 003e c3ee 753d 369d 2a3d
000000f0: 0db7 81be 6c86 493e 8383 04be 2e04 83be
00000100: 8d00 febd c440 8a3e 5674 293e a45d 453e
00000110: 4e8a 4ebe d987 08be 18cc 2bbc 35cf 623c
00000120: 010a 1f3e 78e9 143c a39e c4bd 194c 3a3e
00000130: 3ac9 723e 2129 873e 7c5a 0fbe c2cf ea3d
00000140: 4442 71bd 247b 443e de0e 303e d1b7 183d
00000150: 0330 123e 6f08 9d3d e7f6 c23c 4538 07be
00000160: 6686 303e cb96 0ebe ddf6 14be b2e6 28be
00000170: b593 913b 0ebf 85be 24e7 88be 3c42 75be
00000180: c8f8 8abd f555 8a3e 11b1 7abe c775 d43a
00000190: dd4e 50be 749b dd3d f8a2 5bbe c23c 3f3e
000001a0: 9368 823e 7861 7cbe ca71 e33d ac2d fbbd
000001b0: af21 723e 539a 40bd aee4 1abe ff18 40be
000001c0: be44 573d 1a06 bcbd a20c 0d3d 59e1 6fbe
000001d0: 99e0 7f3c 3215 20bc 878a 3c3e fdd3 343d
000001e0: 4c4c 37bd 169e 00bd 4d84 403e 507d 8c3e
000001f0: 4637 413e c242 4ebd ed2f 1dbe cea2 bbbd
00000200: 520f 8fbe aa17 56be 50d2 5ebe 88d9 0bbe
00000210: 8555 67be ec2a 5fbd 2e78 a4bd c65f fb3d
00000220: 303f 0e3e f0fc 8e3e 2056 8abe 08ca 613e
00000230: f92f c33d 3fe5 3abe 83d7 7cbe 3c27 86be
00000240: 1d6b 8abe d973 92bd 6c79 973d 0f87 a7bd
00000250: dd43 b2bd d825 92bd 7344 5f3e d309 673e
00000260: 177f 7cbd 7de7 2ebe a0b4 163e c492 0cbe
00000270: 328b 8c3e 792b 23bd 5cae 97bd 21aa 6cbe
00000280: 47f6 4c3c 50f6 1ebd e4d5 4dbe 46d1 213e
00000290: 7300 1ebd 9def fcbd b1cd 38bc 34f6 32be
000002a0: bde1 1c3d 6074 5fbc 2a08 0e3e 5a06 c9bd
000002b0: 95bf d8bd f9ac 443e bf48 26be 3c81 d2bd
000002c0: db88 803e 598a b63d fd2d 353e 8d70 eb3d
000002d0: 0da0 263e a84e 76be d4bb 293d 0a66 d3bc
000002e0: 3413 f0bc 62bf 253b 3852 89be 45e3 5c3e
000002f0: de4c 0abe 7c79 0ebe 50a7 c7bd 06da ba3d
00000300: e0d5 92be bc56 813d d7a7 ecbd 1e8d 05be
00000310: 551c 73be 2058 fc3d 515a 32bd 7cd3 8ebc
00000320: 129c 30be e302 6cbd 0f9f 973d a24b 80bd
00000330: 18b3 7b3e 0666 e6bb 9400 793e 9ab5 00be
00000340: 69d3 52be 5a26 42bd 5707 6abe 48d8 19be
00000350: bb71 873e 76c1 633e 95ad 473e 981f 5bbe
00000360: 0913 32be 9151 e3bc f2df 2bbd 2280 17be
00000370: 0c2b b1bd 9098 90be 6674 dc3d b3ad a93d
00000380: 496f 8ebe bb41 06be 3c65 89be 4f2d 8cbe
00000390: 2e1b 22bc dd13 443e dd2e 503d cd71 503e
000003a0: e247 7dbd 7062 083e bdaf eabc 1560 66be
000003b0: fa15 17bc ad94 f2bd 4e8a 8fbd 3f6c c9bd
000003c0: 5127 67be 7b7f 48be 07e5 62be e4ec 833e
000003d0: 61d5 293d b368 88be 8302 d1bc 0a45 13be
000003e0: 13a7 04be c8f1 543e 0dae 353d b54c a8bd
000003f0: 2ea8 2a3d a72a d63b e03a 7f3e a7db 943e

mu.0.bias f4 [128]
0.26060292 0.16744778 0.2821835 0.025478857 -0.10990977 0.17302898 0.05613965 0.24563858
-0.1932518 -0.17834646 -0.024192302 -0.23004386 -0.14576289 0.15984808 -0.03504863 -0.2695676
0.029968804 -0.24451075 0.27296495 -0.0123330215 -0.23360224 0.15438819 -0.1077441 0.28279456
0.25948104 0.09186452 0.04283419 -0.23926267 -0.08656993 0.2310945 -0.16432221 -0.07106264
-0.118537255 0.19590615 0.060075086 0.09351687 -0.016037123 -0.068499826 -0.0667407 -0.034329623
-0.10985369 0.2625781 -0.064476684 -0.24552205 -0.25328258 -0.07851161 0.007034172 0.00995536
0.13341625 0.13186793 0.053522255 0.22472829 -0.1974407 0.28075373 -0.26393813 0.0028473095
0.016286504 -0.0040456257 -0.23321334 0.27615377 0.14657731 0.063688554 -0.1597172 0.13973594
0.1358101 -0.014253982 0.067364454 0.15597607 0.06859389 0.25128448 -0.21722206 -0.18909948
-0.018522182 -0.05984482 0.23763134 -0.18907836 0.2554704 -0.20068352 0.06870576 0.09144344
0.20029458 0.2023989 0.0013438333 -0.008405564 0.25292653 0.18092723 0.06090354 0.15678705
-0.16454639 0.12750274 -0.26845518 0.2385749 0.05730082 -0.106337525 -0.1843294 0.03836841
-0.097224005 0.17933264 0.1822704 0.11169625 0.2777638 -0.2807375 0.27135676 0.12206851
-0.1022652 -0.08512482 0.23565748 0.16097902 0.07829404 0.023144308 -0.20800298 0.21684293
-0.1515058 0.112791136 -0.16538392 0.28869325 -0.22978763 -0.11086074 0.217087 -0.15075216
-0.28190938 0.19713384 -0.034617223 -0.23091263 -0.08120597 -0.2396352 -0.12321738 0.26390788
00000000: bf6d 853e 6e77 2b3e 5b7a 903e 09b9 d03c
00000010: 6018 e1bd 822e 313e b1f2 653d ae88 7b3e
00000020: cde3 45be 74a0 36be ef2e c6bc 9e90 6bbe
00000030: de42 15be 37af 233e 278f 0fbd c404 8abe
00000040: 2381 f53c 0761 7abe 10c2 8b3e 7110 4abc
00000050: 6d35 6fbe f017 1e3e f0a8 dcbd 73ca 903e
00000060: b3da 843e 7723 bc3d e772 2f3d 4601 75be
00000070: 934b b1bd 09a4 6c3e 1544 28be 4a89 91bd
00000080: a9c3 f2bd 9f9b 483e 4b11 763d c685 bf3d
00000090: 4960 83bc a349 8cbd 59af 88bd 389d 0cbd
000000a0: f9fa e0bd a370 863e 5a0c 84bd 226a 7bbe
000000b0: 41ae 81be b2ca a0bd e97e e63b ce1b 233c
000000c0: 459e 083e 6308 073e 273a 5b3d 2c1f 663e
000000d0: e52d 4abe f4be 8f3e e622 87be ed99 3a3b
000000e0: 466b 853c 2b91 84bb 7acf 6ebe 0764 8d3e
000000f0: 5d18 163e 256f 823d e88c 23be f016 0f3e
00000100: ce11 0b3e 8989 69bc 60f6 893d 31b8 1f3e
00000110: f47a 8c3d 5ca8 803e 766f 5ebe 4ba3 41be
00000120: d5bb 97bc d81f 75bd a155 733e c29d 41be
00000130: 04cd 823e fb7f 4dbe 9bb5 8c3d b346 bb3d
00000140: 061a 4d3e a841 4f3e 9023 b03a 7eb7 09bc
00000150: 967f 813e fd44 393e fe75 793d c98c 203e
00000160: d97e 28be 1490 023e f572 89be fb4c 743e
00000170: 44b4 6a3d 7dc7 d9bd d9c0 3cbe 3228 1d3d
00000180: 611d c7bd faa2 373e 17a5 3a3e 01c1 e43d
00000190: 0f37 8e3e d3bc 8fbe 46ef 8a3e 0eff f93d
000001a0: 6b70 d1bd ec55 aebd 3250 713e afd7 243e
000001b0: a058 a03d 2299 bd3c bcfe 54be 130c 5e3e
000001c0: 5624 1bbe 0aff e63d 675a 29be 9acf 933e
000001d0: 734d 6bbe f50a e3bd 0e4c 5e3e c65e 1abe
000001e0: 6d56 90be 74dd 493e caca 0dbd 5c74 6cbe
000001f0: 514f a6bd ee62 75be 6559 fcbd ef1e 873e

mu.2.weight f4 [128, 128]
-0.005629501 0.0070972494 0.05466545 -0.03293319 -0.07283465 0.092397615 -0.044704698 -0.012627968
-0.06465453 0.03537171 -0.022833966 0.00030675135 -0.018716965 0.054283082 -0.03103024 -0.0051105903
-0.057111923 0.04604874 -0.01482566 -0.059064187 -0.035111554 0.019178418 -0.026408704 0.004401361
0.02645949 0.017509952 0.042663883 0.008537682 -0.04812575 -0.066889666 0.045676105 -0.06249228
-0.060462017 -0.07255664 -0.010856839 -0.010307302 -0.02512065 -0.056888975 -0.0583926 -0.07275352
0.04073957 -0.07133978 0.0319305 -0.015262734 -0.025581693 0.084569745 0.086670555 0.012796133
0.033790886 -0.07756498 -0.03357562 0.0064598536 -0.02051847 0.04909975 -0.0418287 -0.0063079856
0.021672219 -0.0128093185 -0.019435002 -0.02107649 0.010051878 -0.026002608 -0.06283445 0.069221675
-0.0754627 0.056032 0.050706346 -0.058447763 0.01768372 0.075974725 -0.084026985 0.05083356
-0.02585416 0.0044085397 0.06938281 0.0478636 -0.05668169 -0.0560064 0.0031727063 -0.08006728
-0.023081375 0.011853468 0.08245236 0.019071672 0.00345431 0.07639409 -0.08618046 -0.07334754
0.025136726 0.006226412 0.058482926 0.023648893 0.035583675 0.03977751 0.07299478 0.06095216
-0.07260939 0.0101853 0.03316124 -0.066133715 -0.061801128 0.033317525 0.045304827 -0.055497162
-0.070461154 -0.021967307 0.04997333 -0.049455505 0.04318221 0.07591285 0.0722819 0.017643725
-0.007977913 0.0071393107 -0.015684163 -0.02562892 0.06363537 0.0218535 -0.08087098 -0.00015085866
-0.017382497 -0.050735194 0.083787434 0.052755117 -0.021515725 0.024438776 0.0061024297 -0.054682992
0.043254435 0.064511575 0.013436104 -0.00039112408 -0.01560774 -0.015990688 -0.0717247 -0.07295447
0.029975394 0.021304553 0.06198116 -0.048394177 -0.016478274 0.059317958 -0.013925272 -0.05211525
-0.04796077 -0.086777665 0.010178255 -0.02300118 0.052033532 0.04279492 0.07804894 -0.069644466
-0.018803751 0.013537756 0.046570946 -0.07791087 0.019169189 -0.014057656 0.04819674 0.07105749
0.025399543 -0.04956564 0.04069496 0.011253973 0.07664375 -0.064524874 0.022633424 0.037403975
-0.047625937 0.0014184725 -0.089740485 0.041764222 0.06588818 -0.06202532 0.05068096 -0.023948282
-0.032245006 0.06071703 0.052093603 -0.053937413 0.09066939 -0.04091787 0.08784003 0.013931693
-0.08654272 -0.07124318 -0.08271024 0.08423701 -0.008880271 -0.056144424 -0.041259494 0.038014695
-0.058237504 0.056430433 -0.036299434 0.07737867 0.06430447 -0.06670573 -0.030867776 -0.029877016
0.03875449 -0.08772211 -0.010651461 -0.07375939 -0.036357477 0.03422101 -0.021329714 0.011546826
-0.058225803 0.021283805 0.028155206 -0.08853479 -0.0041877637 -0.018613843 -0.02717018 -0.030294843
-0.060486183 0.080602355 0.09036771 -0.06827159 -0.07387012 -0.081056096 0.068404265 0.06703023
0.003618103 -0.05998383 0.003956997 0.06978654 0.022241766 0.03758242 0.0042453054 -0.0025750757
0.033941504 0.010207364 -0.030565541 0.048982248 0.015043567 0.025001517 -0.049020384 -0.024437008
0.06031795 -0.061306216 0.051265363 -0.092885695 0.016507119 0.03437615 0.04373826 -0.052072234
-0.040916234 0.07534659 -0.010525492 0.041166913 -0.056324773 -0.045514897 -0.0028437814 -0.04137137
00000000: ad77 b8bb 0b90 e83b e1e8 5f3d f4e4 06bd
00000010: 552a 95bd f63a bd3d 461c 37bd 89e5 4ebc
00000020: 9869 84bd ede1 103d 4c0e bbbc 78d3 a039
00000030: 5254 99bc f057 5e3d 2133 febc bd76 a7bb
00000040: 31ee 69bd 9b9d 3c3d 53e7 72bc 4aed 71bd
00000050: 22d1 0fbd 0f1c 9d3c 1157 d8bc 4b39 903b
00000060: 93c1 d83c 0871 8f3c 53c0 2e3d a2e1 0b3c
00000070: 821f 45bd 73fd 88bd de16 3b3d e8f7 7fbd
00000080: 05a7 77bd 9398 94bd e2e0 31bc f5df 28bc
00000090: d2c9 cdbc 6a04 69bd 142d 6fbd ccff 94bd
000000a0: 89de 263d 971a 92bd 8ec9 023d 8c10 7abc
000000b0: b390 d1bc e732 ad3d 5580 b13d dfa6 513c
000000c0: 5068 0a3d 63da 9ebd 9786 09bd 2ead d33b
000000d0: 5a16 a8bc d21c 493d 9254 2bbd 38b3 cebb
000000e0: f089 b13c 2dde 51bc 2736 9fbc 9aa8 acbc
000000f0: a2b0 243c 6c03 d5bc 59af 80bd 18c4 8d3d
00000100: 308c 9abd cf81 653d 75b1 4f3d ec66 6fbd
00000110: 73dd 903c a398 9b3d 5716 acbd da36 503d
00000120: 1acc d3bc 8375 903b 9318 8e3d 9f0c 443d
00000130: 0f2b 68bd f866 65bd 2eed 4f3b 50fa a3bd
00000140: 2715 bdbc 0c35 423c c8dc a83d 323c 9c3c
00000150: b461 623b 8174 9c3d 627f b0bd 3c37 96bd
00000160: 89eb cd3c ee06 cc3b cb8b 6f3d 53bb c13c
00000170: 30c0 113d beed 223d 4a7e 953d f9a8 793d
00000180: 3bb4 94bd 3fe0 263c 15d4 073d 1d71 87bd
00000190: 2e23 7dbd f577 083d 8e91 393d fe50 63bd
000001a0: f04d 90bd c8f4 b3bc d6b0 4c3d db91 4abd
000001b0: d4df 303d 3278 9b3d 8808 943d 9389 903c
000001c0: cbb5 02bc e1f0 e93b 137c 80bc bef3 d1bc
000001d0: 4353 823d 1c06 b33c af9f a5bd d02f 1eb9
000001e0: bd65 8ebc b5cf 4fbd bf98 ab3d c015 583d
000001f0: bf41 b0bc d433 c83c e4f6 c73b 46fb 5fbd
00000200: 902b 313d a51e 843d 1b23 5c3c c90f cdb9
00000210: 9bb7 7fbc e7fe 82bc 66e4 92bd 2769 95bd
00000220: f58e f53c e386 ae3c f5df 7d3d f938 46bd
00000230: 72fd 86bc 63f7 723d d326 64bc cd76 55bd
00000240: 8372 44bd 7db8 b1bd b2c2 263c f86c bcbc
00000250: 1d21 553d ba49 2f3d 1fd8 9f3d c2a1 8ebd
00000260: 530a 9abc 77cd 5d3c 2dc1 3e3d bc8f 9fbd
00000270: b408 9d3c 1552 66bc f269 453d 9786 913d
00000280: b412 d03c 5705 4bbd c2af 263d 9562 383c
00000290: 66f7 9c3d 9e25 84bd bb69 b93c e934 193d
000002a0: 6a13 43bd 0aec b93a dcc9 b7bd f610 2b3d
000002b0: 62f0 863d 430e 7ebd d796 4f3d 302f c4bc
000002c0: 5713 04bd 6cb2 783d 1a60 553d 7aed 5cbd
000002d0: e0b0 b93d 7f99 27bd 79e5 b33d c141 643c
000002e0: 4f3d b1bd f2e7 91bd fc63 a9bd 7484 ac3d
000002f0: 8e7e 11bc b2f7 65bd b7ff 28bd 4cb5 1b3d
00000300: 738a 6ebd 9923 673d b7ae 14bd b578 9e3d
00000310: 10b2 833d 049d 88bd 6bde fcbc a5c0 f4bc
00000320: 07bd 1e3d a6a7 b3bd 7783 2ebc 2a0f 97bd
00000330: 94eb 14bd 542b 0c3d a7bb aebc e62e 3d3c
00000340: 2e7e 6ebd 605b ae3c bfa5 e63c ba51 b5bd
00000350: 8239 89bb 0f7c 98bc ff93 debc e42c f8bc
00000360: 5cc0 77bd d912 a53d b512 b93d fad1 8bbd
00000370: 3849 97bd bd00 a6bd 8917 8c3d 2547 893d
00000380: b21d 6d3b 9bb1 75bd b2a9 813b 3fec 8e3d
00000390: 5d34 b63c 06f0 193d 341c 8b3b 9ac2 28bb
000003a0: 3f06 0b3d ca3c 273c 9664 fabc 9ca1 483d
000003b0: 4b79 763c fbcf cc3c 99c9 48bd 1f30 c8bc
000003c0: f40f 773d 3a1c 7bbd a1fb 513d db3a bebd
000003d0: f039 873c 02ce 0c3d e426 333d b249 55bd
000003e0: c897 27bd 504f 9a3d 1d73 2cbc a39e 283d
000003f0: ceb4 66bd d46d 3abd bc5e 3abb 0775 29bd

mu.2.bias f4 [128]
0.040572386 -0.07496911 0.060956396 0.042654082 -0.011081907 0.014494806 0.0033779107 -0.038961913
-0.047297176 -0.034974147 0.033774257 0.021372907 0.03335417 -0.022681074 0.05371716 0.023598557
0.0634403 -0.07425904 0.04044121 0.075508006 0.012483684 -0.07160456 -0.008201886 0.0813425
0.011553383 -0.0016887835 0.08242673 -0.019299725 0.02019868 -0.03984924 -0.00038662128 -0.009876041
-0.05409861 -0.016431162 0.028541056 -0.03142834 -0.028619353 0.01804236 -0.071809605 0.0015326253
-0.00517811 -0.046933 -0.052730404 -0.021383023 0.050633818 -0.06048241 0.019341944 -0.02324851
0.03318901 -0.0053842277 0.08028693 0.03205404 -0.08455025 -0.016681945 0.042348124 0.06785164
-0.0021948956 -0.099794745 0.002955198 -0.004924104 -0.07076732 -0.010886088 -0.024483012 -0.02391977
0.00582984 -0.06594668 0.02334221 -0.009229418 0.03165887 -0.040370937 0.07868692 -0.050751332
0.015034869 0.019045241 -0.0366376 0.016726071 -0.0033652966 0.026925974 0.03639435 -0.0007133914
-0.03566014 -0.056113955 0.012686267 0.025967361 -0.047808472 0.036969043 -0.060536973 0.029716576
-0.07149931 0.0117019145 0.08373668 0.07158139 0.03595995 0.019520974 -0.0718511 -0.059837528
6.602687e-05 -0.03814739 -0.087006375 -0.08453129 0.02648942 -0.046649296 0.043625552 -0.04132257
-0.015692078 -0.07351617 -0.033129036 -0.0068099196 0.052967202 0.0738979 0.023829635 0.07367132
-0.08200106 0.044702984 0.041379113 0.004582578 -0.015092548 0.009700422 -0.037480205 -0.08470029
-0.047231108 0.045920227 -0.04759611 0.05525026 0.001658267 -0.05839365 0.058650915 0.047158547
00000000: 3b2f 263d 6889 99bd 6aad 793d 0cb6 2e3d
00000010: e390 35bc 9f7b 6d3c f05f 5d3b 8796 1fbd
00000020: afba 41bd 0d41 0fbd e056 0a3d 3c16 af3c
00000030: 629e 083d a9cd b9bc 8606 5c3d c351 c13c
00000040: fdec 813d 2015 98bd afa5 253d f1a3 9a3d
00000050: 5e88 4c3c 69a5 92bd 3461 06bc e696 a63d
00000060: 674a 3d3c 2c5a ddba 58cf a83d 751a 9ebc
00000070: b477 a53c f538 23bd 6eb3 cab9 1ecf 21bc
00000080: 8196 5dbd a59a 86bc efce e93c 01bb 00bd
00000090: 2273 eabc 92cd 933c ea10 93bd 5fe2 c83a
000000a0: 23ad a9bb d13c 40bd d6fb 57bd 732b afbc
000000b0: 6865 4f3d 67bc 77bd ff72 9e3c a973 bebc
000000c0: 33f1 073d 2d6e b0bb 796d a43d 194b 033d
000000d0: ae28 adbd 93a8 88bc 3a75 2d3d cdf5 8a3d
000000e0: 3dd8 0fbb 3061 ccbd ffab 413b 615a a1bb
000000f0: 75ee 90bd 905b 32bc 9990 c8bc 65f3 c3bc
00000100: 3e08 bf3b 0e0f 87bd 2a38 bf3c fc36 17bc
00000110: bbac 013d ff5b 25bd 9c26 a13d a1e0 4fbd
00000120: d054 763c c404 9c3c 4f11 16bd 1d05 893c
00000130: 4f8c 5cbb dc93 dc3c 3e12 153d e302 3bba
00000140: 5e10 12bd bfd7 65bd 0fda 4f3c 81b9 d43c
00000150: d1d2 43bd da6c 173d 9ef5 77bd 2d70 f33c
00000160: 3b6e 92bd 63b9 3f3c 237e ab3d 4499 923d
00000170: be4a 133d 73ea 9f3c ab26 93bd 3218 75bd
00000180: e877 8a38 7040 1cbd 6630 b2bd be1e adbd
00000190: 5700 d93c 5513 3fbd b5b0 323d db41 29bd
000001a0: ac8c 80bc a58f 96bd 50b2 07bd bf25 dfbb
000001b0: 23f4 583d c857 973d 5e36 c33c fde0 963d
000001c0: 2cf0 a7bd 7a1a 373d 257d 293d 7329 963b
000001d0: bc46 77bc 85ee 1e3c d884 19bd 5877 adbd
000001e0: 6875 41bd d916 3c3d 23f4 42bd 194e 623d
000001f0: 355a d93a 2e2e 6fbd f13b 703d 5229 413d

mu.4.weight f4 [4, 128]
0.0036309636 0.007976979 0.010367387 0.0066752676 0.010281056 -0.011993477 -0.00984873 -0.00028682762
-0.001892319 0.0046704845 0.0045361486 0.011211107 -0.0014537651 0.00820004 0.0018942034 0.0019349238
0.015594509 0.0016001414 0.003880096 0.007871351 0.0063396962 -0.00026407393 -0.002162575 -0.0018209043
-0.0026919574 -0.0036592197 0.0036574786 0.010264369 0.0017883363 0.02406282 0.0024156414 0.0007754678
0.004926624 -0.0014056581 0.009254363 0.001613562 0.0050493726 0.009839798 0.008540095 0.008603994
-0.0056812502 0.0007463683 0.004073666 0.0053399624 -0.00044016683 0.012546831 0.005647686 0.0006411287
-0.0046039945 0.00047268698 0.007501491 0.0009777797 0.0034686266 -0.006329433 0.003219328 0.008276046
-0.0008867554 0.0081211105 0.008511347 0.0014340772 0.0031503488 0.010222678 0.0022168611 0.017258592
-0.0024695892 0.0048525 -0.0013074564 0.0022950028 0.001169138 -0.00018816309 0.0079617 -0.012798165
0.012554092 0.015990714 0.001542217 0.0006652738 0.010064479 0.0076013184 -0.003878533 -0.003187195
-0.00017831141 -0.0027101191 0.0069334772 0.0015590258 0.0007554028 0.02032481 5.2347725e-05 0.010845371
-0.0030168053 0.007321867 -0.0032976614 0.0062876595 0.0020466836 0.0038697054 0.013891492 -0.00014770529
-0.002502647 0.0036815482 0.007361753 -0.0070099905 0.0013066422 0.0015516133 0.0019283833 0.0067904876
0.010949458 0.0053962297 -0.0027492705 0.0064586 0.011084543 0.013920008 0.0039637173 -1.0945982e-05
0.017503666 0.012244209 0.004534103 4.2915868e-05 -0.0057863435 0.009112588 0.019699918 -0.0040518246
0.0011579335 0.01255824 0.013950302 0.010905524 -0.0030644613 0.00046613958 0.00028202205 -0.0030861332
-0.005308726 -0.011344756 -0.005003314 0.00096881756 -0.0056063393 -0.0016844586 0.0025584125 -0.0033562724
0.0021372614 -0.010487237 -0.0061188056 -0.00535463 -0.0033073525 -0.0043803994 -0.0143297305 0.0047187265
-0.0029739083 -0.0014194942 -0.004081895 -0.0033613641 -0.0016032523 -0.00078203157 -0.010350259 -0.0031290252
-0.00034035117 -0.002442121 -0.008371693 0.0015807449 0.0003158515 0.004423091 0.0028718638 0.004398951
0.0029554404 -0.0049220356 -0.0035737727 -0.009623355 -0.0008192543 -0.00864853 -0.002021873 -0.014742823
0.00731021 -0.0031815101 -0.0036656498 -0.005980068 0.00091885775 -0.0119179925 0.0065035596 0.006506147
0.001356587 -0.0018657993 -0.0035338849 -0.04384791 0.0054648416 0.007744029 0.0021007755 -0.0015452253
-0.0022789019 0.008794138 -0.0011527437 -0.00443791 -0.011319177 -0.00550894 -0.041966084 -0.0018483034
0.0054540113 -0.00022215451 -0.0022427277 0.00080881285 0.0005048929 -0.008656233 -0.012464726 -0.013773428
0.0020603375 -0.007259151 -0.0017715021 -0.0014239245 0.002486841 -0.0051393597 -0.0020845698 -0.005985839
-0.0035726246 0.0012422268 0.00045995542 0.0011550365 -0.007962465 0.0037183014 0.00971315 -0.009177585
-0.025332458 -0.0053558084 -0.008764561 -0.0053070346 -0.008792194 -0.008102407 -0.00621628 4.635595e-05
-0.0017503706 -0.004311282 -0.004883476 -0.00036692078 -0.0015663166 -0.0053153303 -0.0033114017 -0.0032565726
-0.007462165 -0.0032784962 0.0032516944 -0.007817357 -0.0029146217 1.5046785e-05 -0.0068155373 0.0026412837
-0.0028027492 0.0008170323 -0.0006435099 -0.0064543267 -0.0073226886 0.0015843613 -0.007804731 -0.0040357457
-0.0042714677 -0.009653486 -0.0045934967 -0.0066707167 -0.004503115 0.00050957716 -0.010018703 -0.0053341254
00000000: 76f5 6d3b e0b1 023c f9db 293c 34bc da3b
00000010: e071 283c 4a80 44bc 915c 21bc 5a61 96b9
00000020: b007 f8ba dd0a 993b f9a3 943b caae 373c
00000030: 438c beba 7659 063c eb46 f83a 459d fd3a
00000040: 1d80 7f3c d6bb d13a 3549 7e3b d7f6 003c
00000050: 3abd cf3b 6773 8ab9 fdb9 0dbb 69ab eeba
00000060: 8d6b 30bb 85cf 6fbb 4fb2 6f3b e22b 283c
00000070: 9c66 ea3a 641f c53c bd4f 1e3b c348 4b3a
00000080: 846f a13b 0f3e b8ba 9d9f 173c 287e d33a
00000090: 3575 a53b 1b37 213c c1eb 0b3c c4f7 0c3c
000000a0: c829 babb eea7 433a 637c 853b dafa ae3b
000000b0: 31c6 e6b9 3991 4d3c 3910 b93b 6b11 283a
000000c0: 1bdd 96bb f9d2 f739 11cf f53b d828 803a
000000d0: e651 633b 2267 cfbb 5cfb 523b 4198 073c
000000e0: 2675 68ba 680e 053c 2d73 0b3c a5f7 bb3a
000000f0: 1576 4e3b 057d 273c c248 113b e461 8d3c
00000100: d5d8 21bb b801 9f3b f55e abba c267 163b
00000110: c33d 993a a54d 45b9 ca71 023c 65af 51bc
00000120: aeaf 4d3c f5fe 823c 3724 ca3a c565 2e3a
00000130: 7ce5 243c 7b14 f93b fc2e 7ebb 42e0 50bb
00000140: 1bf9 3ab9 419c 31bb 3932 e33b 3a58 cc3a
00000150: 3906 463a 3780 a63c f18f 5b38 c8b0 313c
00000160: 98b5 45bb 46ec ef3b 941d 58bb b608 ce3b
00000170: a721 063b e29a 7d3b 2499 633c 56e1 1ab9
00000180: 7303 24bb 2146 713b dc3a f13b 10b4 e5bb
00000190: a343 ab3a 815f cb3a cec1 fc3a bd82 de3b
000001a0: 5b65 333c dbd2 b03b 1b2d 34bb aaa2 d33b
000001b0: f19b 353c bf10 643c 12e2 813b a2a4 37b7
000001c0: d963 8f3c ef9b 483c d092 943b 9000 3438
000001d0: 5e9b bdbb f74c 153c b961 a13c 2bc5 84bb
000001e0: cdc5 973a 14c1 4d3c cf8f 643c 15ad 323c
000001f0: 21d5 48bb 3264 f439 5cdc 9339 b940 4abb
00000200: d2f4 adbb 5bdf 39bc d7f2 a3bb 3ff8 7d3a
00000210: 62b5 b7bb 0dc9 dcba 0aab 273b e8f4 5bbb
00000220: 4c11 0c3b a9d2 2bbc 4380 c8bb e475 afbb
00000230: 2bc0 58bb 7489 8fbb 3fc7 6abc 8c9f 9a3b
00000240: e7e5 42bb 520e baba 6bc1 85bb 554a 5cbb
00000250: 3824 d2ba 4001 4dba 2294 29bc 5510 4dbb
00000260: 2971 b2b9 fe0b 20bb 6d29 09bc ff30 cf3a
00000270: df98 a539 94ef 903b e135 3c3b 1325 903b
00000280: 10b0 413b 0749 a1bb f535 6abb 47ab 1dbc
00000290: 3ac3 56ba 90b2 0dbc 6681 04bb e28b 71bc
000002a0: 7c8a ef3b e280 50bb 663b 70bb 72f4 c3bb
000002b0: 80df 703a af43 43bc d01b d53b 8431 d53b
000002c0: 82cf b13a d68d f4ba c098 67bb de99 33bd
000002d0: 6a12 b33b a0c1 fd3b 2aad 093b 2889 caba
000002e0: a159 15bb 4a15 103c a917 97ba e36b 91bb
000002f0: 1274 39bc 5784 b4bb a1e4 2bbd c542 f2ba
00000300: 90b7 b23b 26f2 68b9 bafa 12bb 8306 543a
00000310: ca5a 043a dfd2 0dbc da38 4cbc f2a9 61bc
00000320: ba06 073b 2cde edbb bf31 e8ba faa2 baba
00000330: 45fa 223b 1368 a8bb 479d 08bb db24 c4bb
00000340: b222 6abb 37d2 a23a 2c26 f139 9864 973a
00000350: 0075 02bc bfae 733b e723 1f3c 955d 16bc
00000360: 0486 cfbc c77f afbb 3c99 0fbc a2e6 adbb
00000370: 220d 10bc f5bf 04bc f0b1 cbbb 536e 4238
00000380: b16c e5ba a845 8dbb 9105 a0bb 465f c0b9
00000390: dd4c cdba 392c aebb 1a04 59bb 396c 55bb
000003a0: 2d85 f4bb 0adc 56bb 611a 553b 5f14 00bc
000003b0: 3d03 3fbb 7371 7c37 df54 dfbb 6319 2d3b
000003c0: 54ae 37bb 1c2e 563a 38b1 28ba d17e d3bb
000003d0: 2af3 efbb 58aa cf3a d4be ffbb 4a3e 84bb
000003e0: abf7 8bbb a829 1ebc 0b85 96bb 0796 dabb
000003f0: de8e 93bb 2595 053a 7c25 24bc e3c9 aebb

mu.4.bias f4 [4]
0.0013811996 -0.0082637165 0.008860478 -0.001784065
00000000: 5e09 b53a 8a64 07bc 8a2b 113c 4ad7 e9ba
