experiments/data/sawyer_clutter_200steps_10H/h_sac/2021-06-23_14-31-29_clutter_200steps_10H/model_2400.pt (torch_old, 358080 bytes, 12 tensors)

log_std f4 [1, 12]
0	0xbfca2b65	-1.5794493
1	0xbfbc517e	-1.471237
2	0xbf8aafbf	-1.0834883
3	0xbf5ef25e	-0.8708857
4	0xbf625f69	-0.88426834
5	0xbf36b1cb	-0.7136504
6	0xbf487ca7	-0.78315204
7	0xbf3508c2	-0.7071649
8	0xbf6d7cbf	-0.9276847
9	0xbf72a8a8	-0.947886
10	0xc003b23a	-2.057753
11	0xc00733f8	-2.112547

mu.0.weight f4 [200, 14]
0	0xbe985325	-0.29750934
1	0xbc409e27	-0.011756456
2	0xbdfe6612	-0.12421812
3	0x3e449d08	0.19200528
4	0x3cd28b6f	0.025701253
5	0xbee26bde	-0.4422292
6	0x3e82e7fb	0.25567612
7	0x3e81cf0f	0.25353286
8	0x3ddb55bd	0.10709713
9	0xbe18e7f5	-0.14932235
10	0xbe8bf951	-0.2733865
11	0xbe41a081	-0.18908884
12	0x3e8bc5d0	0.27299356
13	0x3f1c3c6c	0.61029696
14	0x3d392b10	0.045207083
15	0x3df6c4a8	0.12049228
16	0x3eaf1f1f	0.3420343
17	0x38a96fc3	8.079365e-05
18	0x3c933079	0.01796745
19	0x3cc94cfb	0.02457284
20	0x3ea934b5	0.33048025
21	0xbe652205	-0.22376259
22	0xbb62c13c	-0.003460004
23	0x3e894b30	0.26815176
24	0x3e2931f2	0.16522959
25	0x3d95fd64	0.07323721
26	0xbbdcd0f4	-0.0067387763
27	0xbf5b1f07	-0.8559422
28	0xbf0be1e9	-0.54641587
29	0x3e36e634	0.17861253
30	0x3ebbaebb	0.36656746
31	0x3e5b8aca	0.21439663
32	0x3ea1ae24	0.3157817
33	0xbe7b1897	-0.24521099
34	0xbb33fb92	-0.002746318
35	0xbe0b7155	-0.13617451
36	0xbea6f454	-0.32608283
37	0x3d9c34ce	0.07627259
38	0x3e964b09	0.29354122
39	0xbed5041a	-0.41604692
40	0x3f16cd06	0.5890659
41	0x3dabf6d2	0.083966866
42	0xbe0ff0f8	-0.14056766
43	0x3e0d60e1	0.13806488
44	0xbdee765e	-0.116436705
45	0xbe56f999	-0.20993651
46	0x3e826c4f	0.25473258
47	0x3e570c3e	0.21000764
48	0xbdd38afd	-0.10329244
49	0xbd54cdb6	-0.051953994
50	0x3b79fb2c	0.0038144095
51	0x3e2b1da9	0.16710533
52	0xbe0846b8	-0.13308227
53	0xbe04fa65	-0.12986143
54	0x3f045570	0.5169287
55	0xbee1175d	-0.43963137
56	0x3da9a838	0.08284038
57	0xbdf00171	-0.11719025
58	0x3e995a03	0.29951486
59	0x3e90febe	0.28319353
60	0xbe607758	-0.21920526
61	0x3e901dab	0.28147635
62	0x3d3bb0d6	0.04582294
63	0xbe0184c2	-0.126483
64	0x3c125eb6	0.008933714
65	0xbe1ed893	-0.15512304
66	0xbcb4c668	-0.022067264
67	0x3e361b31	0.1778381
68	0xbdbe7ca2	-0.093011156
69	0x3f1c5b9c	0.61077285
70	0xbebd1d58	-0.3693645
71	0x3c946a08	0.018116966
72	0xbe6c5922	-0.23080876
73	0x3e8399c0	0.2570324
74	0xbdf359b2	-0.118823424
75	0x3eb9d01b	0.36291584
76	0x3e817833	0.25287017
77	0xbc54f431	-0.012997673
78	0xbd1080b0	-0.035278976
79	0xbde9fe99	-0.11425514
80	0x3eb540ce	0.35401005
81	0x3e9af756	0.30266827
82	0x3f0d8e1d	0.5529497
83	0xbd517973	-0.051141214
84	0x3e582cc0	0.21110821
85	0x3e58d1cd	0.21173783
86	0x3cbd14e1	0.023081245
87	0xbe8c24f1	-0.27371934
88	0x3e7c4b59	0.24638118
89	0x3ea90ab6	0.33015984
90	0x3cc9420f	0.024567632
91	0x3e7fcda1	0.24980785
92	0x3da4d5f4	0.08048621
93	0x3e4aa382	0.19788936
94	0xbde4888b	-0.11158856
95	0x3dda035a	0.106451705
96	0x3df6c224	0.12048748
97	0x3ded3a63	0.11583402
98	0x3e5b870d	0.21438237
99	0x3e84da20	0.25947666
100	0xbedb63f1	-0.42849687
101	0xbec26257	-0.37965652
102	0x3e0ea622	0.13930562
103	0xbe73344a	-0.23750415
104	0x3e81b7bf	0.253355
105	0xbe5f8665	-0.21828611
106	0x3eab32d9	0.3343723
107	0xbe275f2e	-0.16344902
108	0x3ddeaaf6	0.10872452
109	0x3d5121db	0.051057678
110	0xbcaaf738	-0.020869836
111	0xbe1dac89	-0.15397848
112	0xbe451d39	-0.19249429
113	0xbf03d1a8	-0.51491785
114	0xbf08ea35	-0.5348237
115	0xbe4a1386	-0.1973401
116	0x3d843c65	0.06456832
117	0xbce29b9f	-0.027662097
118	0x3e2ac7e1	0.1667781
119	0x3e46c8c4	0.19412524
120	0xbe663822	-0.2248235
121	0xbd99651d	-0.07489989
122	0xbd44da9f	-0.048060056
123	0xbe63d835	-0.22250445
124	0xbf42509b	-0.75904244
125	0xbd7583ef	-0.059940275
126	0xbec67f59	-0.38769034
127	0xbc49a0e2	-0.012306424
128	0x3eae0096	0.33984822
129	0xbc7c8a44	-0.0154138245
130	0xbe26bf1e	-0.16283843
131	0x3ee5dbb2	0.44894177
132	0xbe18f831	-0.14938428
133	0xbe8803ca	-0.2656539
134	0x3e2c6ec9	0.16839136
135	0x3e606580	0.21913719
136	0xbe2aea60	-0.1669097
137	0x3e4d1921	0.20029117
138	0x3f09b61a	0.5379349
139	0x3e229118	0.15875661
140	0x3d9880d9	0.07446451
141	0x3e1dc9d0	0.15409017
142	0x3edeb431	0.4349685
143	0x3e0c6468	0.13710177
144	0xbd8b4014	-0.06799331
145	0x3eb9a189	0.36256054
146	0x3e46f8bb	0.1943082
147	0xbe1935d1	-0.14961936
148	0xbe8e07d8	-0.2774036
149	0x3d9e9b72	0.077444926
150	0x3e5c8e5d	0.21538682
151	0xbd86485a	-0.06556769
152	0xbf0871aa	-0.5329844
153	0x3eacce82	0.33751303
154	0xbcc134cf	-0.023584751
155	0xbe6500f0	-0.22363639
156	0x3e578e63	0.2105041
157	0x3d87aa81	0.06624318
158	0x3e231acb	0.1592819
159	0xbeb1fd2c	-0.34763467
160	0x3e854a4c	0.26033247
161	0x3d1c30c0	0.03813243
162	0xbec4c7a4	-0.38433564
163	0x3d24895b	0.040170055
164	0xbea1e3a9	-0.31619003
165	0xbe896765	-0.26836696
166	0x3ebdda2a	0.37080508
167	0xbeb10144	-0.34571278
168	0xbe196675	-0.1498049
169	0x3dd8b34f	0.105810754
170	0x3e5c0ddc	0.21489662
171	0xbe260f4c	-0.16216773
172	0x3ea3fae3	0.3202735
173	0x3c650dfb	0.013980384
174	0xbdc47f51	-0.09594596
175	0xbea6cdbc	-0.32578838
176	0x3d405c15	0.046962816
177	0xbe61b50c	-0.2204172
178	0x3e4c03e3	0.19923358
179	0x3dd86669	0.10566408
180	0x3e2f54f4	0.17122251
181	0x3f03f460	0.5154476
182	0x3c44c2d7	0.012009344
183	0xbe0a6816	-0.13516268
184	0xbe5efdc2	-0.21776488
185	0xbdc78fc6	-0.097442195
186	0xbe782c1b	-0.24235575
187	0xbe6b5f52	-0.2298558
188	0xbe39073c	-0.18069166
189	0x3ea93b82	0.33053213
190	0x3d87934f	0.06619894
191	0x3d87617c	0.066103905
192	0x3e418e42	0.18901923
193	0x3e29fe0d	0.16600819
194	0xbe95f81d	-0.29290858
195	0x3ecdcb6f	0.4019427
196	0xbe077f58	-0.13232172
197	0x3d92fd86	0.07177262
198	0x3dddc3d4	0.10828367
199	0xbf1522b4	-0.5825608
200	0xbd6324fb	-0.05545519
201	0xbdc0360c	-0.093853086
202	0xbe22aa3d	-0.15885253
203	0xbee399f3	-0.4445339
204	0x3da5d9f1	0.0809821
205	0xbd725d00	-0.059170723
206	0xbe65c4cc	-0.22438353
207	0xbe066170	-0.13123107
208	0x3e836f2d	0.25670758
209	0xbec6528b	-0.3873485
210	0x3f0d3a10	0.5516672
211	0xbf123844	-0.57117105
212	0x3eccd324	0.40004838
213	0xbea8653c	-0.32889736
214	0x3cb0f046	0.021598946
215	0xbe65f4de	-0.2245669
216	0xbe7d23ac	-0.24720639
217	0xbe7c627b	-0.24646942
218	0x3e1cf755	0.15328725
219	0x3d3521d5	0.044221718
220	0xbe12cfa8	-0.14337027
221	0xbc25bc83	-0.0101157455
222	0x3d933f3c	0.071897954
223	0xbe025a8d	-0.12729855
224	0x3f027fc7	0.5097622
225	0x3e37acf5	0.17937072
226	0xbd84187a	-0.06449981
227	0xbd6d47be	-0.057929747
228	0x3e2aafbf	0.16668604
229	0xbe860486	-0.26175326
230	0xbe01e873	-0.12686329
231	0x3db6d024	0.089264184
232	0xbe6838e5	-0.22677954
233	0xbe03fd49	-0.1288959
234	0x3ea05522	0.3131495
235	0x3e925894	0.28583205
236	0x3dd105a4	0.10206154
237	0x3dad5a2f	0.08464467
238	0x3e1898ba	0.1490201
239	0x3d8a4ee9	0.06753332
240	0x3dba629d	0.0910084
241	0x3ee4bed7	0.4467685
242	0x3cfb77c8	0.030696765
243	0x3e6f4dba	0.23369494
244	0xbd8d9bd1	-0.06914485
245	0xbe0dfc8c	-0.1386587
246	0x3e3fee21	0.18743183
247	0x3db9ed1b	0.090784274
248	0x3d140641	0.036138777
249	0xbecc0c11	-0.39852956
250	0x3e876627	0.26445124
251	0xbeea8f0f	-0.4581227
252	0x3d0761b4	0.03305216
253	0xbed45695	-0.41472307
254	0xbe574cd5	-0.21025403
255	0x3f09c5cc	0.5381744

mu.0.bias f4 [200]
0	0x3deb02f6	0.11475174
1	0xbe9c7b09	-0.30562618
2	0xbe54ab81	-0.20768549
3	0xbda69254	-0.081333786
4	0x3cb77cc2	0.022398356
5	0x3e82df59	0.25561026
6	0x3e7fdf48	0.24987519
7	0xbd6b634d	-0.057467747
8	0x3ea0e8a6	0.31427497
9	0x3cb0dcaf	0.021589605
10	0x3dd7f00c	0.10543832
11	0x3e90afd0	0.28259134
12	0x3e7acaa8	0.2449137
13	0x3e007ed3	0.1254838
14	0x3ee7ee97	0.45299217
15	0xbd5672ea	-0.052355684
16	0x3e73dde4	0.23815113
17	0x3e2cca1b	0.16873972
18	0xbe187b5b	-0.14890806
19	0x3d980cad	0.07424293
20	0xbe3de7de	-0.18545482
21	0x3e77dc5f	0.24205159
22	0x3de940e5	0.11389331
23	0xbe9bf393	-0.3045927
24	0x3e37d775	0.17953284
25	0x3ea691a8	0.32533002
26	0x3ec4f2c6	0.3846647
27	0x3e991fc9	0.29907063
28	0xbbb249c3	-0.005440922
29	0x3e0e19c1	0.13877012
30	0xbdda38b9	-0.1065535
31	0xbb190621	-0.00233496
32	0x3d359e7b	0.044340592
33	0xbded79a1	-0.115954645
34	0xbea621f7	-0.32447788
35	0xbd99aee8	-0.07504064
36	0xbe2a1b76	-0.16612038
37	0xbcadba23	-0.021206921
38	0xbec2c7bb	-0.38043007
39	0xbe6ca338	-0.23109138
40	0x3c98c369	0.018647866
41	0xbe265899	-0.16244735
42	0x3db90af9	0.09035296
43	0xbe60e8df	-0.21963833
44	0x3dd256fb	0.102704965
45	0x3e55154a	0.20808902
46	0xbe5a16ed	-0.21297808
47	0xbe047b1f	-0.12937592
48	0x3ec3f24d	0.38270798
49	0x3bf91baa	0.0076021748
50	0x3e8942e7	0.26808855
51	0xbdc32513	-0.09528556
52	0x3e56dc25	0.20982416
53	0x3e68e579	0.22743787
54	0xbe7e036b	-0.24805991
55	0xbdf9c689	-0.12196071
56	0xbd4949cc	-0.049142644
57	0x3dede6fb	0.11616322
58	0x3eaf2b49	0.3421271
59	0x3da9293d	0.08259819
60	0x3e56aecf	0.20965122
61	0x3d20148c	0.039082095
62	0xbcaf17df	-0.021373687
63	0x3e38bae5	0.18040045
64	0x3dc8ad28	0.09798652
65	0x3e4eb52b	0.20186298
66	0x3e9c02e4	0.30470955
67	0x3daf4bb7	0.08559363
68	0x3da5bdc2	0.08092834
69	0x3d8ef073	0.06979456
70	0xbde980b0	-0.11401498
71	0x3da639c4	0.08116487
72	0xbe140cb9	-0.14457978
73	0x3e8ea444	0.278597
74	0xbe6f364d	-0.23360558
75	0x3e2f247c	0.17103761
76	0xbe01d923	-0.12680487
77	0x3cb38dd3	0.021918213
78	0x3dc54199	0.096316524
79	0xbe1f7dda	-0.15575352
80	0x3d75f352	0.0600465
81	0x3ecf7077	0.4051549
82	0x3ddb4993	0.107073925
83	0xbe861006	-0.261841
84	0xbe912cc5	-0.2835447
85	0x3e8a70db	0.27039227
86	0x3ea24077	0.31689808
87	0xbd001537	-0.031270232
88	0x3ba1b1d9	0.004934531
89	0xbe138275	-0.14405234
90	0xbec11efa	-0.37718946
91	0x3e85900b	0.2608646
92	0xbd793798	-0.060844034
93	0xbea8c139	-0.32959917
94	0xbd14c46a	-0.036320128
95	0xbe9626b9	-0.29326418
96	0x3d0854b6	0.03328391
97	0x3ead81fb	0.3388823
98	0xbdc2003d	-0.09472702
99	0x3d0d3233	0.0344717
100	0x3e1b3fa8	0.15161002
101	0xbe3328ad	-0.17495985
102	0xbe306e11	-0.17229487
103	0x3c3e1198	0.011600874
104	0x3d999c5a	0.07500525
105	0xbe4f62cc	-0.20252532
106	0x3e766a6b	0.24064033
107	0xbe529f7c	-0.20568651
108	0xbdf77e78	-0.12084669
109	0xbd5f6240	-0.054537058
110	0x3e88abf7	0.266937
111	0x3e08ad7a	0.13347426
112	0xbe86f260	-0.26356792
113	0xbe1a4b69	-0.15067829
114	0xbdd2199e	-0.10258792
115	0xbd40079a	-0.04688225
116	0xbe2f7fd6	-0.1713861
117	0x3e053ce0	0.13011503
118	0xbeaaaaac	-0.33333337
119	0x3e77b952	0.24191788
120	0x3ea0dde6	0.31419295
121	0x3e2a4fd0	0.16632009
122	0x3d29cc48	0.041454583
123	0x3e0860dd	0.133182
124	0xbe63f209	-0.22260298
125	0xbe4c88db	-0.19974081
126	0x3d812fd0	0.06307948
127	0xbe388868	-0.18020785
128	0x3d9e7780	0.077376366
129	0x3e8f502f	0.27990863
130	0x3dafb523	0.08579471
131	0x3cd7db96	0.026349824
132	0xbd2e8124	-0.042603627
133	0xbe274957	-0.1633657
134	0xbdeee136	-0.11664049
135	0xbe5b0b85	-0.21391113
136	0xbe38378f	-0.17989944
137	0x3e44ab66	0.19206008
138	0x3d5c3a5c	0.053766593
139	0xbe541d75	-0.20714362
140	0x3d9a62d4	0.07538381
141	0xbdbc7a63	-0.09203031
142	0x3d9baf5b	0.07601806
143	0x3dc6522d	0.096836425
144	0xbe1dbd9f	-0.15404366
145	0xbd26bec0	-0.040709257
146	0xbebe35af	-0.37150332
147	0xbe0b3105	-0.13592918
148	0xbc8701fa	-0.016480435
149	0xbe59cd31	-0.2126968
150	0x3e191d12	0.14952496
151	0x3d9c993d	0.076464154
152	0x3e0c168f	0.1368048
153	0x3e2176f0	0.15768027
154	0xbd015f9e	-0.03158533
155	0xbdcb41dc	-0.09924671
156	0x3e29646c	0.16542214
157	0x3e028ede	0.12749812
158	0x3ea5a7c3	0.32354555
159	0x3dff52ac	0.1246694
160	0xbd43eeae	-0.047835045
161	0xbdd4bddd	-0.10387776
162	0x39fff12b	0.00048817074
163	0xbe806e17	-0.25083992
164	0x3e45f761	0.19332649
165	0x3e8484d2	0.25882584
166	0xbdefed96	-0.11715238
167	0x3e183869	0.14865269
168	0xbdad8846	-0.08473258
169	0xbced942a	-0.029001314
170	0xbe5feee1	-0.21868469
171	0x3d3008bf	0.04297709
172	0x3bc65776	0.0060529066
173	0x3e0ebe30	0.13939738
174	0xbd866115	-0.06561486
175	0xbe8e8bed	-0.2784113
176	0x3bf1f29a	0.0073836567
177	0x3e81f95d	0.25385562
178	0xbe92fc20	-0.2870798
179	0xbe38b3a0	-0.18037271
180	0x3e6e505b	0.2327284
181	0x3d7d64f6	0.061863862
182	0x3dcee535	0.101023115
183	0xbe1b5c5b	-0.1517195
184	0x3e476d5a	0.19475308
185	0xbdbe4f86	-0.09292512
186	0x3e32724f	0.17426418
187	0xbe4a9ab2	-0.19785574
188	0x3ddd8069	0.10815508
189	0xbe1f6faf	-0.15569948
190	0x3e2d2baf	0.16911195
191	0x3d33e3cd	0.04391842
192	0x3e618256	0.22022375
193	0xbce0d6ef	-0.027446238
194	0x3e1eceb7	0.15508543
195	0x3e1e182a	0.15438905
196	0x3db01a9a	0.08598824
197	0xbe6332fd	-0.22187419
198	0x3d0b35b7	0.033986773
199	0xbd84a92d	-0.0647758

mu.2.weight f4 [200, 200]
0	0xbe0ba4bd	-0.13637061
1	0x3dd3395e	0.10313676
2	0x3e5e8306	0.21729669
3	0xbe61126f	-0.21979688
4	0xbe65dbdf	-0.22447155
5	0xbd3d53fd	-0.046222676
6	0xbd4b984e	-0.049705796
7	0xbcf1e814	-0.029529609
8	0x3d064969	0.032784853
9	0xbcc9e3b2	-0.024644706
10	0x3e099402	0.13435367
11	0x3d3477af	0.04405945
12	0x3d5a1579	0.053243134
13	0x3e2479be	0.16062066
14	0xbc3559a3	-0.011068734
15	0x3d167a52	0.036737747
16	0x3d0c9d92	0.03432996
17	0xbea94f8a	-0.33068496
18	0xbd9479dd	-0.07249806
19	0xbc47d137	-0.012195877
20	0xbd952289	-0.07281978
21	0x3dbb241e	0.09137748
22	0xbda9265e	-0.08259271
23	0xbdfcd7fe	-0.12345885
24	0xba9fee6b	-0.0012201791
25	0xbbba6663	-0.005688475
26	0xbde1bd96	-0.11022489
27	0x3add7d0e	0.0016898231
28	0xbe23f070	-0.16009688
29	0x3d901855	0.07035891
30	0x3e151617	0.14559208
31	0x3e01830c	0.12647647
32	0x3cfb33dd	0.030664379
33	0xbe5c3484	-0.21504408
34	0xbe112fbf	-0.1417837
35	0xbd8c0b53	-0.068380974
36	0xbca475c3	-0.020075684
37	0x3cfaf4f3	0.030634379
38	0x3e81e444	0.25369465
39	0x3cac7e3e	0.02105629
40	0xbcb4ac33	-0.022054767
41	0x3e141ba3	0.14463668
42	0x3ba53b7a	0.0050424905
43	0x3da30060	0.07959056
44	0x3bdc815d	0.0067292885
45	0x3e3472cc	0.17621917
46	0x3eb4c418	0.35305858
47	0x3c9e4850	0.01932159
48	0xbd49bbda	-0.049251415
49	0xbdf9e62f	-0.12202107
50	0xbcf92b90	-0.03041628
51	0x3e77c863	0.24197535
52	0xb9cfcca9	-0.000396346
53	0x3cd58f9d	0.026069457
54	0xbe2edbff	-0.1707611
55	0xbc8d3958	-0.017239258
56	0x3d60bb2c	0.054866
57	0x3e231af7	0.15928255
58	0x3d3ce350	0.04611522
59	0x3ddf0007	0.10888677
60	0x3d51ea9c	0.05124913
61	0xbcb0b643	-0.021571284
62	0x3b653b47	0.003497796
63	0x3e4c0792	0.19924763
64	0x3e598d2b	0.21245258
65	0x3b66eac3	0.0035235144
66	0xbe5ba8f1	-0.21451165
67	0xbdc3ecd7	-0.09566658
68	0xbdbb26fd	-0.09138296
69	0x3ca99aa9	0.02070363
70	0x3d5d75c7	0.0540674
71	0x3dbdadaf	0.09261643
72	0xbd37c739	-0.044867728
73	0x3dcf8234	0.10132256
74	0x3dbc7cab	0.09203466
75	0xbe2ceaa0	-0.16886377
76	0xbc96dcd6	-0.01841585
77	0x3da2c8bf	0.079484455
78	0x3e139e51	0.14415862
79	0x3c8dfe91	0.0173333
80	0xbd4817d8	-0.048850864
81	0xbe30aca1	-0.17253353
82	0x3e394851	0.18093993
83	0xbdce3735	-0.10069124
84	0xbea97009	-0.3309329
85	0xbdbb0676	-0.09132092
86	0x3c442954	0.011972744
87	0x39f2c788	0.000463065
88	0xbcf88cfc	-0.030340664
89	0x3ccc02ed	0.024903739
90	0xbdb36a64	-0.08760527
91	0xbe865691	-0.2623792
92	0x3d0c0634	0.034185603
93	0xbdf18d5c	-0.1179454
94	0xbe8aea95	-0.27132097
95	0x3e2aebfe	0.16691586
96	0xbdebfe9c	-0.11523172
97	0xbc9b5b45	-0.01896442
98	0xbe885082	-0.26623923
99	0x3e02a001	0.12756349
100	0x3dc4aaba	0.09602876
101	0xbc7b104b	-0.015323709
102	0xbe25a9e0	-0.16178083
103	0xbdbb1de7	-0.09136563
104	0x3cfead75	0.03108857
105	0x3dca58d9	0.098802276
106	0xbd951d4c	-0.072809786
107	0xbb9bca77	-0.0047543603
108	0xbd40c38d	-0.04706149
109	0xbdf7dbf9	-0.12102503
110	0xbe53ad72	-0.20671633
111	0xbe4fe585	-0.20302399
112	0x3daa7780	0.08323574
113	0xbe3b669d	-0.18300863
114	0xbded5133	-0.11587753
115	0x392d462d	0.00016524708
116	0xbe190ccb	-0.14946286
117	0x3d0c437b	0.034244042
118	0xbd67db97	-0.0566059
119	0xbe8152d6	-0.2525851
120	0x3cff48fd	0.031162733
121	0x3de6f9b8	0.11278099
122	0x3d5556b1	0.05208463
123	0xbe0d2422	-0.13783315
124	0xbe5de965	-0.21671064
125	0xbcc2dfd1	-0.023788365
126	0x3eacb948	0.33735108
127	0x3d21f287	0.039537933
128	0x3e3f46aa	0.186793
129	0xbd835a8d	-0.064137556
130	0x3c081d76	0.008307805
131	0xbe023ca1	-0.1271844
132	0xbd8e92b0	-0.06961572
133	0xbccae612	-0.02476791
134	0x3cc862c5	0.02446116
135	0xbe12532d	-0.14289542
136	0xbc330d43	-0.010928455
137	0xbdecafb7	-0.115569524
138	0x3d905d83	0.07049086
139	0x3d6bb1f7	0.057542767
140	0x3d63085f	0.055427905
141	0xbe43d7d6	-0.19125304
142	0x3bbaa142	0.005695493
143	0xbd5e90fc	-0.054337487
144	0xbe787edb	-0.24267142
145	0xbd4e6935	-0.050393302
146	0x3db2e2e8	0.08734685
147	0x3c903957	0.017605467
148	0x3d219fc7	0.039459016
149	0xbd4db724	-0.050223485
150	0x3e0a6c6d	0.13517924
151	0xbe3e040c	-0.18556231
152	0xbd4d91d6	-0.050187908
153	0x3b9f1bc5	0.0048556053
154	0xbcd2c518	-0.025728747
155	0x3d4bb96b	0.049737375
156	0xbe56fa82	-0.20993999
157	0x3d6a5ed2	0.057219334
158	0x3e4cf755	0.20016225
159	0x3d0765a9	0.033055935
160	0xbd379d61	-0.044827823
161	0xbc9e2316	-0.01930384
162	0x3dd1c082	0.10241796
163	0x3e78bb11	0.2429011
164	0x3c8f7681	0.017512562
165	0xbda85495	-0.08219258
166	0x3dd81303	0.10550501
167	0xbe8d8110	-0.2763753
168	0x3dd01578	0.10160345
169	0xbe25ba4c	-0.16184348
170	0x3dc015c4	0.093791515
171	0xbd889d91	-0.066706784
172	0xbda2d769	-0.079512425
173	0x39d33e56	0.000402915
174	0x3d89a1aa	0.06720288
175	0xbd2d0cd9	-0.04224858
176	0x3c717c1d	0.014739064
177	0x3e925679	0.28581598
178	0x3d1297ca	0.03578929
179	0xba592188	-0.00082828896
180	0x3dcf4710	0.10120976
181	0x3de4c1cb	0.111697756
182	0x3e0957b8	0.13412368
183	0xbd85f000	-0.06539917
184	0x3d58eebf	0.05296206
185	0x3e0e0c3c	0.13871855
186	0x3e2a112d	0.16608115
187	0xbeb656da	-0.35613137
188	0x3d89dbc2	0.067313686
189	0xbea18f25	-0.31554523
190	0x3de6fddc	0.112788886
191	0x3e0d3fae	0.13793823
192	0x3e606054	0.21911746
193	0x3e29b570	0.16573119
194	0x3d0eb085	0.03483631
195	0xbdca6806	-0.09883122
196	0x3e03b4e8	0.12861979
197	0xbe695b15	-0.22788651
198	0xbeb2abca	-0.3489669
199	0x3dd3d8d4	0.10344091
200	0xbe39b5fe	-0.18135831
201	0xbe902963	-0.28156576
202	0x3d26d866	0.040733717
203	0xbf14905b	-0.5803277
204	0x3df64f81	0.12026883
205	0xbddbc0a9	-0.107301064
206	0xbebf154b	-0.37320933
207	0xbcf02602	-0.029314999
208	0x3dba2440	0.090889454
209	0x3dbd20da	0.092347816
210	0x3d37e767	0.044898417
211	0xbddf978d	-0.10917578
212	0xbc2fbdb1	-0.010726378
213	0x3e0f4b4a	0.13993564
214	0x3e0faeaa	0.14031473
215	0x3e8daa03	0.2766877
216	0x3d6b7fe5	0.057495017
217	0x3de63d4c	0.1124216
218	0x3d1e19f9	0.03859899
219	0x3dc01297	0.09378546
220	0xbda59282	-0.08084585
221	0xbc0509a2	-0.008119972
222	0xbc3ded2f	-0.0115921935
223	0x3ef09260	0.46986675
224	0xbde0b297	-0.10971563
225	0x3bb1975f	0.005419656
226	0xbdd7b720	-0.10532975
227	0xbdd6769c	-0.10471842
228	0xbe325c1c	-0.1741795
229	0xbe7187b7	-0.23586927
230	0xbe7db233	-0.24775009
231	0xbd08ecd6	-0.03342899
232	0xbe8fdb57	-0.2809703
233	0xbe2256d1	-0.1585343
234	0xbe346973	-0.1761835
235	0x3de242a0	0.11047864
236	0xbca2ff7f	-0.01989722
237	0xbe31cd44	-0.17363459
238	0xbd70fce4	-0.058834925
239	0x3e0a2191	0.13489367
240	0x3da685d7	0.08130997
241	0x3cd3df85	0.025863418
242	0x3de326d2	0.11091389
243	0x3e193cae	0.14964554
244	0x3e0b46c9	0.13601221
245	0xbc8c04f7	-0.017092211
246	0x3e5f7c19	0.21824683
247	0x3da40f37	0.080107145
248	0x3d6e6dae	0.058210067
249	0x3d0a9b96	0.033839785
250	0xbdf4d39b	-0.11954423
251	0x3e494b5f	0.19657658
252	0xbc96fb03	-0.018430239
253	0x3d8f445a	0.06995459
254	0xbe2f5e88	-0.17125905
255	0x3d959c54	0.07305208

mu.2.bias f4 [200]
0	0x3cb4bc03	0.022062307
1	0xbdc36e7b	-0.09542557
2	0x3d004792	0.031318255
3	0xbc88b02d	-0.01668557
4	0xbc922aef	-0.017842738
5	0xbdc850de	-0.09781049
6	0x3c5252a2	0.012837084
7	0x3c792120	0.0152056515
8	0xbbff5d5a	-0.007793111
9	0xbc701767	-0.014654017
10	0x3d90425e	0.070439085
11	0xbd44e990	-0.048074305
12	0x3d6f535f	0.05842912
13	0xbd29f19e	-0.04149019
14	0xbcd94cd9	-0.026525902
15	0x3d978ce4	0.0739992
16	0xbd2f5bdc	-0.042812213
17	0x3dbbf2a9	0.09177143
18	0x3d629da5	0.055326123
19	0x3b9e03a6	0.0048222123
20	0xbd01b03a	-0.031662203
21	0x3bd78305	0.006576898
22	0xbd9d2486	-0.07672982
23	0x3d82de98	0.06390113
24	0x3d892e98	0.0669834
25	0x3ce29070	0.027656764
26	0x3d52f1d7	0.051500168
27	0xbd5c42f4	-0.05377479
28	0x3dd69436	0.10477488
29	0x3da7f8ba	0.08201738
30	0x3b910fb9	0.004426923
31	0x3d86d948	0.06584412
32	0x3c80cb53	0.015721953
33	0x3d904b1e	0.070455775
34	0xbcd216a8	-0.025645569
35	0x3c298535	0.0103467
36	0xbd9cc6b4	-0.07655087
37	0x3ca4987d	0.020092243
38	0xbdd7a0f8	-0.10528749
39	0x3da8f3d7	0.08249634
40	0xbadb3ed4	-0.0016727098
41	0x3d002d2a	0.03129307
42	0xbd8634ea	-0.06553061
43	0x3c0b1bb5	0.008490493
44	0xbc9e217b	-0.019303074
45	0xbd1853b5	-0.037189204
46	0x3bc8cc67	0.0061278823
47	0xbca63175	-0.020287255
48	0x3d172508	0.03690055
49	0xbd7c7b78	-0.061641186
50	0xbc6f928f	-0.014622345
51	0x3d8a1e1d	0.06744025
52	0xbc70aaac	-0.014689129
53	0x3d5edad4	0.05440791
54	0x3c5497c7	0.01297564
55	0xbc657de6	-0.014007067
56	0x3d161caf	0.03664845
57	0xbd68cf06	-0.056838058
58	0x3c255c43	0.010092798
59	0xbdacdbf2	-0.08440389
60	0xbced9376	-0.029000979
61	0xbce66f70	-0.02812931
62	0x3d7d2b55	0.061808903
63	0xbc49b14f	-0.01231034
64	0xbd9e9fe9	-0.07745344
65	0xbd9cceee	-0.07656656
66	0xbd3a6a3d	-0.045511473
67	0xbd812967	-0.06306725
68	0x3bd56610	0.006512411
69	0xbd0520d3	-0.032502007
70	0xbd809072	-0.06277551
71	0x3bed2eaa	0.007238229
72	0xbd0a58ab	-0.033775967
73	0xba9bfabe	-0.0011900289
74	0x3d635cb0	0.055508316
75	0x3d0058aa	0.031334557
76	0xbcea3d2b	-0.02859362
77	0x3d3ab1ed	0.04557984
78	0xbcf47853	-0.029842531
79	0x3d82db9a	0.06389542
80	0x3d562493	0.052280974
81	0x3d9549c4	0.0728946
82	0xbd198677	-0.03748175
83	0x3da83e43	0.082150005
84	0x3d07b706	0.03313353
85	0x3d0415cd	0.032247353
86	0x3da9a99c	0.082843035
87	0xbd325e42	-0.043546923
88	0xbd99490a	-0.07484634
89	0x3c66b9ec	0.014082413
90	0xbd659b83	-0.05605651
91	0xbc85c04c	-0.016327046
92	0xbdb0303f	-0.08602952
93	0xbd3ad05f	-0.045608874
94	0x3c841d7e	0.016127344
95	0xbd4b1baa	-0.04958693
96	0x3cf5b415	0.029993096
97	0xba897cc3	-0.0010489452
98	0xbd1391e3	-0.0360278
99	0xbd87472d	-0.066053726
100	0x3c4d2b14	0.012522478
101	0x3d68ac8e	0.056805186
102	0x3ca01af6	0.019544106
103	0x3b0eec5c	0.0021808362
104	0x3d6bce27	0.05756965
105	0xbd71fb29	-0.059077416
106	0x3d75b446	0.059986375
107	0xbd01d5b1	-0.031697933
108	0x3bc754ee	0.0060831225
109	0xbe0160d4	-0.12634593
110	0x3c8f7361	0.017511072
111	0x3d1319bd	0.035913218
112	0x3d3ec15f	0.04657113
113	0xbc43074f	-0.011903598
114	0xbba67c1b	-0.0050807125
115	0xb8497c29	-4.8037768e-05
116	0xbd66e806	-0.05637362
117	0x3d08d777	0.03340861
118	0xbd58fd7d	-0.05297612
119	0xbbaa044f	-0.005188502
120	0x3de10f4a	0.10989244
121	0x3d8a263c	0.06745574
122	0xbd524a86	-0.051340602
123	0x3d956e94	0.07296482
124	0x3cf92b7b	0.03041624
125	0xbb93f64f	-0.0045154463
126	0x3cb13ad8	0.021634504
127	0xbca89fdb	-0.020584038
128	0xbc3fd7a8	-0.011709131
129	0xbd4a3568	-0.04936734
130	0xbb69278a	-0.0035576546
131	0x3c6471fd	0.013943193
132	0x3ad2d155	0.0016084114
133	0x3db65154	0.08902231
134	0xbc39c49b	-0.011338378
135	0x3d057c0d	0.032589007
136	0xbd22ed32	-0.03977699
137	0xbcc8da9c	-0.024518304
138	0x3cc97a00	0.024594307
139	0xbc6a57fd	-0.014303205
140	0xbbedd0da	-0.007257563
141	0x3cace4af	0.021105139
142	0xbc060684	-0.008180264
143	0xbca9efd9	-0.020744251
144	0x3cc7e2fb	0.024400225
145	0x3d4f1d6b	0.050565165
146	0x3d4b388f	0.049614485
147	0xbde54803	-0.11195376
148	0x3cf74acf	0.030187039
149	0x3c4410c1	0.011966885
150	0x3d071146	0.032975458
151	0x3e0e58a7	0.13901006
152	0x3d94ff10	0.07275212
153	0xbc6c3137	-0.014416031
154	0xbd98affe	-0.07455443
155	0xbd9368ea	-0.07197745
156	0xbcc28532	-0.023745153
157	0x3dd8f808	0.10594183
158	0xbd9ed4b4	-0.07755414
159	0x3c6609bd	0.014040408
160	0x3da8c6c2	0.08241035
161	0x3da4de8a	0.080502585
162	0xbd555df7	-0.052091565
163	0x3db14632	0.08655967
164	0x3c74628b	0.014916073
165	0x3dc47ca9	0.095940895
166	0x3ccc9b71	0.024976464
167	0xbb373166	-0.0027953028
168	0x3d099ed1	0.033598725
169	0x3dea1dae	0.11431442
170	0x3c9a7d2b	0.018858513
171	0x3dc0448c	0.09388074
172	0x3d983212	0.07431425
173	0x3d12dcb8	0.035855025
174	0x3d2eb9e2	0.04265774
175	0xbcd0a880	-0.025470972
176	0x3c485836	0.012228062
177	0xbde11ae4	-0.10991457
178	0x3cc08e45	0.02350534
179	0xbceb313b	-0.028709998
180	0xbd6ef1fc	-0.058336243
181	0xbdac53a1	-0.084143884
182	0xbd73a1a3	-0.05948032
183	0x3cfecf6e	0.03110477
184	0x3d3a3eb5	0.04546996
185	0x3d919f48	0.071104586
186	0x3e0a2b70	0.13493133
187	0xbdb264f7	-0.08710664
188	0x3d511ab9	0.051050875
189	0x3d11f16a	0.03563062
190	0x3d7e32c8	0.062060148
191	0x3e003b61	0.12522651
192	0x3d53a85a	0.051674224
193	0x3de236e5	0.110456266
194	0x3d361c33	0.044460487
195	0x3d9b89b2	0.07594623
196	0x3926a376	0.00015891888
197	0x3d004f93	0.031325888
198	0x3db37fd6	0.08764617
199	0xbc01f73b	-0.0079324795

mu.4.weight f4 [12, 200]
0	0x3ecc92cd	0.3995575
1	0x3e14c37f	0.14527701
2	0xbddfd057	-0.109284095
3	0xbc9a8ad2	-0.018865023
4	0x3daa3041	0.08309985
5	0x3dbd6d21	0.0924933
6	0xbe350e3d	-0.17681213
7	0x3e3514e6	0.17683753
8	0xbe049068	-0.12945712
9	0xbe414b2d	-0.18876334
10	0x3e21746e	0.1576707
11	0xbd3e7da9	-0.046506558
12	0x3e1890e6	0.14899024
13	0x3e165178	0.14679515
14	0x3ddd87a7	0.10816889
15	0x3da2a912	0.07942404
16	0x3d9cd10b	0.07657059
17	0xbd7cb3ab	-0.061694782
18	0x3d80a7e0	0.062820196
19	0x3de658e4	0.11247423
20	0xbe1cea25	-0.15323694
21	0x3e7a4ee9	0.24444164
22	0xbe27f67b	-0.16402619
23	0xbe21f673	-0.15816669
24	0xbafb8767	-0.0019190133
25	0x3d27b19a	0.04094086
26	0x3e3b0e09	0.18267073
27	0x3d2eb316	0.04265126
28	0xbc838c44	-0.016058095
29	0x3d90e00d	0.07073984
30	0x3da75b5b	0.081717215
31	0x3e022a4d	0.12711449
32	0xbc8a9cc2	-0.016920451
33	0xbe426ef6	-0.1898764
34	0xbe2a734b	-0.16645543
35	0xbd68c853	-0.05683167
36	0xbd24785b	-0.040153842
37	0x3dbb0bf1	0.09133137
38	0x3d420677	0.047369447
39	0xbdf92328	-0.12164909
40	0xbe728b1b	-0.23685877
41	0xbd92b035	-0.07162515
42	0xbcc0dd8e	-0.023543146
43	0xbde46c2f	-0.11153447
44	0xbd429a5c	-0.04751049
45	0xbe854dd0	-0.2603593
46	0xbeafc01c	-0.34326255
47	0x3db095d3	0.08622327
48	0xbc113b36	-0.008864215
49	0x3d5a20b8	0.05325386
50	0xbdd293a2	-0.10282065
51	0xbe2e6b09	-0.17033018
52	0xbe00ea34	-0.12589341
53	0xbe5ca6ce	-0.21548006
54	0x3b945c1e	0.004527583
55	0xbd2cff5e	-0.042235725
56	0x3cadfa81	0.021237614
57	0xbde8bbf7	-0.113639764
58	0xbbf4b537	-0.0074678916
59	0xbee58118	-0.44825053
60	0x3dee121d	0.116245486
61	0x3db4edd3	0.08834424
62	0xbda1180f	-0.07865917
63	0xbdf77426	-0.120827004
64	0xbe6479c9	-0.22312082
65	0x3d8e4c95	0.069482006
66	0xbd134656	-0.03595575
67	0xbe03172d	-0.1280181
68	0xbdb3e18a	-0.087832525
69	0xbd6719f6	-0.056421243
70	0x3e4f8485	0.20265396
71	0x3e83029d	0.2558793
72	0x3e091b0f	0.13389228
73	0x3db5ec09	0.08882911
74	0xbdaf6c31	-0.08565558
75	0x3c6e2bb0	0.014536783
76	0x3db962ba	0.09052034
77	0xbe015779	-0.12631024
78	0x3e3b355d	0.18282075
79	0xbdc20933	-0.09474411
80	0xbe0c0ccd	-0.13676758
81	0xbd66da5b	-0.056360584
82	0x3df9bdb7	0.12194388
83	0xbe6c8220	-0.23096514
84	0xbd5bd0c6	-0.0536659
85	0xbbba35e5	-0.0056826943
86	0x3dce8622	0.100841776
87	0xbe31f7a9	-0.17379631
88	0x3eaa7cc1	0.33298305
89	0xbb332a8f	-0.00273386
90	0xba06b954	-0.00051393104
91	0x3e749675	0.2388552
92	0x3db14f3b	0.0865769
93	0x3dd8386e	0.10557638
94	0x3c2b6e9e	0.010463385
95	0xbdeab29d	-0.11459849
96	0xbe26e829	-0.162995
97	0x3d1a40d3	0.037659477
98	0x3e153fcc	0.14575118
99	0xbce56eb9	-0.028006898
100	0x3e884f46	0.2662298
101	0xbdeb5900	-0.11491585
102	0x3c72b4fa	0.014813656
103	0xbd5e7980	-0.05431509
104	0xbcc3940f	-0.02387431
105	0xbd566874	-0.052345708
106	0xbcb4949e	-0.022043522
107	0x3e11f9f4	0.14255506
108	0x3ce05e01	0.027388575
109	0xbd6a92e9	-0.05726901
110	0xbed024ba	-0.4065302
111	0xbde65ecb	-0.11248549
112	0xbdbefefa	-0.09325977
113	0xbb2bd26b	-0.0026217948
114	0x3d87a902	0.066240326
115	0xbbea740d	-0.0071549476
116	0xbe196a1b	-0.14981882
117	0x3c0ddf0b	0.008659135
118	0xbea5f78c	-0.32415426
119	0xbd6001d8	-0.05468926
120	0xbe62063a	-0.22072688
121	0x3e4d1662	0.2002807
122	0xbdce69b5	-0.10078756
123	0x3e4c52a0	0.19953394
124	0xbc764b00	-0.01503253
125	0x3e3b4a02	0.1828995
126	0xbe02c25c	-0.12769455
127	0xbd0fee86	-0.035139583
128	0x3e0a1a1d	0.13486524
129	0x3e35b6f0	0.17745566
130	0x3df5fca9	0.12011082
131	0xbde875d6	-0.113506004
132	0xbe265891	-0.16244723
133	0x3d4ac948	0.049508363
134	0xbdc2bbc6	-0.09508471
135	0xb8b56d0c	-8.651064e-05
136	0xbd6e03df	-0.05810916
137	0x3e29f022	0.1659551
138	0xbd9ee8a5	-0.07759217
139	0xbda1a818	-0.078933895
140	0xbd3f6bd5	-0.046733696
141	0x3d23a776	0.039954625
142	0xbc72b930	-0.01481466
143	0x3e4143e6	0.18873557
144	0x3d14467f	0.036200043
145	0x3e169611	0.14705683
146	0x3db7b5c4	0.08970216
147	0x3e23912b	0.15973346
148	0xbd1dbc55	-0.038509686
149	0x3e4540e9	0.19263043
150	0xbdebe047	-0.11517387
151	0xbccb3ac6	-0.024808299
152	0xbe49a299	-0.19690932
153	0x3e5f2c0b	0.21794145
154	0x3bac2a86	0.0052540926
155	0x3d878ec8	0.0661903
156	0xbe6e465a	-0.23269024
157	0xbcc93ece	-0.02456608
158	0xbc461b66	-0.012091493
159	0x3e703d7d	0.23460956
160	0x3e0875b9	0.13326158
161	0xbe64b384	-0.22334105
162	0x3e512a58	0.20426309
163	0x3cc85530	0.024454683
164	0x3e2df9bc	0.16989797
165	0xbe28ef09	-0.16497435
166	0x3d174415	0.036930162
167	0x3e441779	0.19149579
168	0xbe929e2a	-0.28636295
169	0xbda74f3a	-0.08169408
170	0x3a3b28be	0.0007139555
171	0xbd8400ec	-0.06445488
172	0xbe0675eb	-0.1313092
173	0x3c3a26be	0.011361776
174	0xbe2a5e52	-0.16637543
175	0x3d870561	0.06592823
176	0xbd94bc36	-0.07262461
177	0xbccc09ce	-0.024907019
178	0x3d0b09a1	0.03394473
179	0x3d13bf4c	0.036071107
180	0xbd068cbd	-0.032849062
181	0xbd0d993e	-0.03456997
182	0xbc2cfd25	-0.010558401
183	0xbb638452	-0.003471632
184	0x3e136257	0.14392982
185	0x3dd68e32	0.1047634
186	0x3e024f59	0.12725581
187	0xbde95db2	-0.11394824
188	0xbc06edb1	-0.008235381
189	0x3d309c3b	0.043117743
190	0x3dd1ca73	0.10243692
191	0xbbdcfba3	-0.0067438646
192	0x3b1a887a	0.0023579882
193	0x3d5394fa	0.051655747
194	0xbd7d3321	-0.06181634
195	0x3e4e8773	0.20168857
196	0x3e568eee	0.20952961
197	0x3da060af	0.07830941
198	0xbdfa7a7e	-0.12230395
199	0xbde59f78	-0.11212057
200	0xbdcb1666	-0.099163815
201	0x3e1286f2	0.1430929
202	0x3cb0da01	0.021588327
203	0x3deb797f	0.11497783
204	0x3dc9becc	0.09850845
205	0xbe182d6f	-0.14861082
206	0xbd001f7a	-0.03128002
207	0x3d992b6f	0.074789874
208	0xbbbcc779	-0.0057610837
209	0x3dabb6ae	0.08384453
210	0xbd724df1	-0.059156362
211	0xbcd175b7	-0.025568826
212	0x3ddd890a	0.10817154
213	0x3e20c3e8	0.15699732
214	0x3d523ac5	0.05132558
215	0x3d0e4dd3	0.034742188
216	0x3cdf50b5	0.027260164
217	0x3c860e9a	0.016364384
218	0xbd4d8d3f	-0.05018353
219	0x3d24a42e	0.040195636
220	0xbdbd4b91	-0.09242929
221	0x3df10e53	0.1177031
222	0xbd551ba0	-0.0520283
223	0xbdd6fbef	-0.10497271
224	0xbc1d704d	-0.009609294
225	0x3e3e399f	0.18576668
226	0xbdb8d5de	-0.09025167
227	0x3c869e46	0.016432893
228	0x3d659e5a	0.05605922
229	0x3dc89fa2	0.097960725
230	0xbdc8cc10	-0.09804547
231	0x3e4abdbb	0.19798939
232	0xbdb8784b	-0.09007319
233	0xbd87f787	-0.06639009
234	0xbe0a1be4	-0.13487202
235	0xbda2f2ad	-0.07956443
236	0x3e000c66	0.1250473
237	0x3d884c81	0.06655217
238	0xbc2aff88	-0.0104369
239	0x3d260ac5	0.040537614
240	0xbc72204f	-0.014778211
241	0x3ca66a59	0.020314382
242	0x3cd4c3dd	0.025972301
243	0xbdd2e68c	-0.102978796
244	0xbdea1456	-0.1142966
245	0xbe1768fb	-0.1478614
246	0xbe73dae6	-0.23813972
247	0x3d7633c4	0.06010796
248	0xbd8f7546	-0.0700479
249	0x3d5b8a56	0.053598724
250	0x3e40b5fa	0.18819419
251	0xbe04efee	-0.12982151
252	0xbdf08ffa	-0.11746211
253	0xbdc96645	-0.098339595
254	0xbdf347fc	-0.11878964
255	0xbe4d2b38	-0.20036018

mu.4.bias f4 [12]
0	0x3d2feb29	0.042948876
1	0xbd910df7	-0.07082742
2	0xbd825f91	-0.06365884
3	0x3d6dc1e7	0.058046248
4	0x3ce8a528	0.028399065
5	0x3d21118f	0.039323386
6	0xbaf361e9	-0.0018568608
7	0xbd56eb6a	-0.052470602
8	0xbd1853c3	-0.037189256
9	0xbd440204	-0.047853485
10	0x3bb58c66	0.0055404184
11	0x3b44a32f	0.0030004492

reward_fun.0.weight f4 [200, 14]
0	0x3d458bfa	0.048229195
1	0xbcc82a45	-0.024434218
2	0x3e05b024	0.13055474
3	0xbe56f8ee	-0.20993397
4	0xbd1250fd	-0.035721768
5	0x3e13ebb9	0.1444539
6	0x3e423af5	0.18967803
7	0x3e7fe77e	0.24990651
8	0xbd85a57a	-0.06525703
9	0xbdb53e52	-0.08849777
10	0x3e7d8a11	0.247597
11	0xbe818d27	-0.25303003
12	0x3e3cde7b	0.18444245
13	0x3e5e5358	0.2171148
14	0x3e23a3e6	0.15980491
15	0xbe312707	-0.17300044
16	0xbe887366	-0.26650542
17	0x3e49ed68	0.1971947
18	0xbd5086f8	-0.050909966
19	0xbe4484b0	-0.19191241
20	0x3d054d2d	0.032544304
21	0xbe8219d3	-0.25410327
22	0xbc15512a	-0.009113589
23	0xbe001a9d	-0.12510152
24	0xbec6fa13	-0.38862666
25	0x3d46b3ce	0.04851132
26	0x3e59b70d	0.21261235
27	0x3e61a71a	0.220364
28	0x3ddd6f45	0.108122386
29	0xbe90bd04	-0.28269207
30	0xbe3932b7	-0.18085752
31	0xbe5bab2d	-0.21452017
32	0xbea69d4d	-0.32541886
33	0x3e2a50ba	0.16632357
34	0x3e000b4d	0.12504311
35	0xbe0c188a	-0.13681236
36	0xbe87c3fe	-0.26516718
37	0xbe642aa6	-0.22281894
38	0x3d662426	0.056186818
39	0xbe88f27c	-0.267475
40	0x3d12d5a0	0.03584826
41	0x3e16bfff	0.14721678
42	0xbe17a372	-0.14808443
43	0xbe558b2c	-0.20853871
44	0xbea76dc8	-0.32700944
45	0x3dbd8b24	0.092550546
46	0x3e8fcc86	0.28085726
47	0xbe7bd232	-0.24591902
48	0x3e0f8ad1	0.14017798
49	0xbdab348f	-0.08359634
50	0xbd56fd2e	-0.052487545
51	0xbe39f12c	-0.18158406
52	0x3abcfc1b	0.0014418395
53	0x3e3f8b91	0.18705584
54	0xbdab7566	-0.08372001
55	0xbd467476	-0.04845091
56	0xbbdc1eeb	-0.006717553
57	0xbd62bba8	-0.055354744
58	0x3d750ec8	0.05982855
59	0x3e075c4c	0.13218802
60	0x3e64ff6d	0.22363062
61	0x3e2ef46c	0.17085427
62	0x3e1b97a8	0.15194571
63	0xbdabfca8	-0.083978
64	0x3e5e250b	0.21693818
65	0xbe4583b1	-0.19288518
66	0xbe86372d	-0.2621397
67	0xbe065193	-0.13117056
68	0xbe2fb1c2	-0.17157653
69	0x3d402a40	0.046915293
70	0x3d31166a	0.043234266
71	0x3b86d67b	0.0041149235
72	0xbc31e9cb	-0.010858963
73	0x3cff5c90	0.031172067
74	0xbe69bc91	-0.22825839
75	0xbdf9219b	-0.12164613
76	0xbe52f6a3	-0.20601897
77	0xbeb1f925	-0.34760395
78	0xbe257f23	-0.1616178
79	0x3e9c6a8f	0.30550048
80	0xbe846a9b	-0.25862584
81	0x3d90f2b0	0.07077539
82	0xbdb279d9	-0.08714647
83	0xbe30a375	-0.17249854
84	0x3ed90a43	0.42390642
85	0xbe9a49c8	-0.30134416
86	0x3e1f1e66	0.1553894
87	0x3e6ff51f	0.2343335
88	0xbc975a53	-0.018475687
89	0x3d829d17	0.06377619
90	0x3d6134b4	0.054981902
91	0x3dc456da	0.09586878
92	0xbe85e894	-0.26154006
93	0xbe82b4d7	-0.25528595
94	0xbea1f1d3	-0.3162981
95	0xbdffdb02	-0.12492944
96	0xbdcc0a1f	-0.09962868
97	0xbdad3750	-0.08457816
98	0xbdde79e7	-0.10863095
99	0xbecd7dc7	-0.40135023
100	0x3d2a7ccc	0.04162292
101	0xbe81b371	-0.25332215
102	0x3e3ad30c	0.1824457
103	0xbe26e682	-0.16298869
104	0x3dd36b13	0.10323157
105	0xbe008942	-0.1255236
106	0x3e98403f	0.29736516
107	0xbe852fa3	-0.26012906
108	0xbe11c216	-0.14234194
109	0xbe3b927d	-0.183176
110	0xbe242227	-0.16028653
111	0x3da5aa4c	0.08089122
112	0x3e79c8df	0.24393032
113	0xbb8b1a39	-0.0042450693
114	0x3d9c0a3b	0.07619139
115	0x3e82e39d	0.2556428
116	0x3dace3e9	0.08441908
117	0xbe5a18e2	-0.21298555
118	0x3e6acc91	0.22929598
119	0xbe054589	-0.13014807
120	0x3dd0190e	0.10161029
121	0xbbf57c09	-0.007491593
122	0xbe2eec8b	-0.17082421
123	0x3e206606	0.15663919
124	0xbd3ab00d	-0.04557805
125	0xbe244c93	-0.16044836
126	0x3e97fe4b	0.29686198
127	0xbe227694	-0.15865546
128	0xbd57e892	-0.05271203
129	0x3e839188	0.2569697
130	0x3dbfebcd	0.09371147
131	0xbc84ebd6	-0.016225737
132	0x3d6fc686	0.058538936
133	0xbe158ff6	-0.14605698
134	0x3d35dfe7	0.044402983
135	0x3b2ecec8	0.0026673544
136	0xbe708018	-0.23486364
137	0x3e852348	0.2600348
138	0x3e43787f	0.19088934
139	0x3e1a54d1	0.15071417
140	0xbea31f88	-0.31859994
141	0x3e921cf9	0.2853773
142	0xbdbb22ee	-0.09137522
143	0xbdb4e748	-0.08833176
144	0xbdd2ac7c	-0.10286805
145	0xbcff6b15	-0.03117899
146	0xbd91ebaf	-0.07125031
147	0xbd80dfee	-0.06292711
148	0x3e2c152e	0.16804954
149	0xbe66be40	-0.22533512
150	0x3e65cca9	0.22441353
151	0x3e0184a5	0.12648256
152	0x3d71317f	0.058885094
153	0x3eca90fe	0.39563745
154	0xbd1aa4af	-0.03775471
155	0xbe3adab5	-0.18247493
156	0xbe959ef3	-0.2922283
157	0xbe38af2d	-0.18035574
158	0x3b4587cb	0.0030140753
159	0x3df0c25f	0.11755823
160	0xbcf65269	-0.030068593
161	0x3c114e8f	0.0088688275
162	0xbda3eb79	-0.08003897
163	0xbe44d9dc	-0.19223732
164	0x3e59ae81	0.21257974
165	0xbeca80fd	-0.39551535
166	0x3e4174de	0.18892238
167	0x3ed75b7f	0.42061993
168	0x3d052e9b	0.03251515
169	0xbe9e1b91	-0.30880406
170	0xbc8a0020	-0.016845763
171	0xbdf6d556	-0.12052409
172	0x3dd5ee5c	0.10445854
173	0x3dc75040	0.09732103
174	0xbe0c02d4	-0.13672954
175	0x3e56625c	0.20935959
176	0xbe16dc75	-0.14732535
177	0xbcce5356	-0.025186222
178	0x3d37bef3	0.044859838
179	0x3e6aff4b	0.22948949
180	0xbea8cd0e	-0.32968944
181	0x3e6411a7	0.22272359
182	0xbd0a7441	-0.033802275
183	0x3d321c2e	0.043483905
184	0x3e595d9f	0.2122712
185	0x3d914444	0.07093099
186	0xbe93c988	-0.28864694
187	0xbd60f7b4	-0.054923728
188	0x3d8326e5	0.06403903
189	0x3e7bfac0	0.24607372
190	0x3e4ea2bb	0.20179264
191	0x3e7c204e	0.24621698
192	0x3dfe5a7d	0.12419603
193	0x3e3d7fe3	0.18505816
194	0xbe0f459e	-0.139914
195	0xbef7566c	-0.48308122
196	0xbe53b4de	-0.20674464
197	0xbe6b9bfc	-0.23008722
198	0x3e8e0db3	0.27744827
199	0xbebcd820	-0.3688364
200	0x3df576c4	0.11985543
201	0x3e260a83	0.16214947
202	0xbe1592d2	-0.14606789
203	0xbe02bb75	-0.12766822
204	0x3db1a9bb	0.08674952
205	0x3dce6747	0.10078292
206	0xbdfd4d4a	-0.12368257
207	0xbd863f6e	-0.06555067
208	0x3e9373a2	0.28799158
209	0xbe912325	-0.28347126
210	0x3d382e84	0.044966236
211	0x3b54c65f	0.0032466871
212	0x3e001fd2	0.12512138
213	0xbd7d9b0f	-0.061915454
214	0xbd79f53a	-0.061024882
215	0x3c94fbf4	0.018186547
216	0xbe6b352d	-0.22969504
217	0x3e724c32	0.23661879
218	0x3e8ac8d9	0.2710636
219	0xbe0d87e8	-0.13821375
220	0xbe5f6cc3	-0.21818833
221	0x3dac523a	0.08414121
222	0x3ea1a4c1	0.3157101
223	0xbd5090c9	-0.050919328
224	0x3da1dc11	0.079033025
225	0xbe291b17	-0.1651424
226	0x3e9c2d05	0.30503097
227	0x3e432977	0.19058786
228	0xbde0b4f2	-0.109720126
229	0xbe3e5fc6	-0.18591222
230	0xbdfecd93	-0.12441554
231	0xbe050d53	-0.12993364
232	0xbe55005e	-0.20800921
233	0x3c94edd4	0.018179812
234	0x3e91c5b8	0.2847116
235	0x3e54d5aa	0.20784631
236	0x3e63b99e	0.22238776
237	0x3eaaffe4	0.33398354
238	0xbc03a88a	-0.008035788
239	0xbe9454fb	-0.28971085
240	0xbcb64187	-0.022248043
241	0x3c89622c	0.016770445
242	0x3e56aff1	0.20965554
243	0xbe349283	-0.17634015
244	0xbdc6749f	-0.096902125
245	0x3e450868	0.19241488
246	0xbeadd914	-0.3395468
247	0x3e8e737e	0.2782249
248	0xbdae0503	-0.0849705
249	0xbe6a98ae	-0.22909805
250	0x3e93860b	0.28813204
251	0xbe03bc23	-0.12864737
252	0xbd3ec91a	-0.046578504
253	0x3e838dd9	0.2569416
254	0xbe2e04f7	-0.16994081
255	0xbeb2789a	-0.34857637

reward_fun.0.bias f4 [200]
0	0xbe46a48e	-0.1939871
1	0x3d407144	0.04698302
2	0x3d238059	0.039917324
3	0x3d1aa1d4	0.037751988
4	0x3e756a27	0.23966275
5	0xbe22885b	-0.15872328
6	0xbe6a2ceb	-0.22868697
7	0x3e3b1871	0.18271042
8	0x3d26791c	0.040642843
9	0xbe8cd5b6	-0.27506799
10	0xbe198201	-0.14990999
11	0xbe22a3e0	-0.15882826
12	0x3e50dca7	0.20396672
13	0x3e1ad2ea	0.1511952
14	0xbe5edf01	-0.21764757
15	0x3e437b8c	0.19090098
16	0xbdf2e23f	-0.11859559
17	0xbe493548	-0.19649231
18	0xbdb41d70	-0.08794677
19	0xbe3d9e76	-0.1851748
20	0xbdcaf8af	-0.09910714
21	0x3d54f52f	0.051991638
22	0x3e249940	0.16074085
23	0xbdbf47cc	-0.09339866
24	0x3e784126	0.24243602
25	0x3e2e55c0	0.17024899
26	0x3c20727e	0.009792922
27	0xbea29a08	-0.31758142
28	0xbe592ea6	-0.21209201
29	0x3e82de53	0.25560245
30	0xbd3dc612	-0.046331473
31	0x3d671fb4	0.05642672
32	0xbdc4a03e	-0.09600876
33	0xbe5c6c09	-0.21525587
34	0x3e8ce0c6	0.2751524
35	0x3e229600	0.15877533
36	0x3dc29f41	0.095030315
37	0x3e8044d1	0.25052503
38	0xbd86bd67	-0.065790944
39	0x3cdb071b	0.026736787
40	0xbe831930	-0.25605154
41	0x3da7e8d3	0.081987046
42	0xbe9863f5	-0.2976376
43	0x3dcda1d3	0.10040631
44	0x3eb956a3	0.3619891
45	0xbdb01c1d	-0.08599112
46	0x3e20c4e3	0.15700106
47	0x3c8ffb38	0.017575845
48	0xbd76eb59	-0.06028304
49	0x3dc83f25	0.09777669
50	0x3d4311af	0.047624286
51	0xbe4407e9	-0.19143642
52	0x3e180b19	0.14847983
53	0xbd6c7280	-0.057726383
54	0xbd83dbf5	-0.06438438
55	0xbe639b97	-0.22227322
56	0x3e47b12d	0.19501181
57	0x3b5a1add	0.0033280172
58	0x3dca9544	0.098917514
59	0x3df1f02a	0.11813386
60	0xbd4f159a	-0.05055771
61	0x3e6e112f	0.23248743
62	0xbd922bcf	-0.07137262
63	0xbe1c3ec8	-0.15258324
64	0x3dcf32d4	0.101171166
65	0xbe72a9cb	-0.23697583
66	0x3e7541e0	0.2395091
67	0x3e0fb98e	0.14035627
68	0xbce475f2	-0.027888272
69	0x3e5c10c0	0.21490765
70	0x3b88678e	0.0041627353
71	0xbea73b75	-0.3266255
72	0xbe7324e5	-0.23744543
73	0x3e2dbe07	0.16967021
74	0x3e2bc2ba	0.16773501
75	0x3d69fc2c	0.057125255
76	0xbe8b37e0	-0.27191067
77	0x3e5992b8	0.21247375
78	0x3dcff1ef	0.10153567
79	0xbccf8f31	-0.025336834
80	0x3cd854bd	0.026407594
81	0xbe31f99e	-0.17380378
82	0x3e06a706	0.13149652
83	0x3e8619cf	0.26191565
84	0xbe3c422d	-0.18384619
85	0x3da4bffc	0.080444306
86	0x3d91ab90	0.07112801
87	0x3e7766cb	0.24160306
88	0xbe308c17	-0.1724094
89	0x3d70bdeb	0.05877487
90	0xbdb000c0	-0.08593893
91	0x3cec3eba	0.028838504
92	0xbe8cca70	-0.27498198
93	0xbe44cd26	-0.19218883
94	0x3e352326	0.1768919
95	0xbd890b2c	-0.06691584
96	0x3dff4be8	0.1246565
97	0xbe35cc76	-0.17753777
98	0x3d20c777	0.039252724
99	0xbdae788a	-0.08519085
100	0x3c70d5cf	0.014699413
101	0xbd5bb2b2	-0.053637214
102	0x3d3a4720	0.045477986
103	0x3dcf8aaf	0.10133874
104	0x3e766133	0.24060516
105	0x3c6e7e1f	0.014556437
106	0x3dc904fa	0.09815402
107	0x3dfac716	0.12245004
108	0x3daa6f53	0.08322015
109	0x3d6ab7b9	0.057304118
110	0x3e40e7dd	0.18838449
111	0x3ce45600	0.02787304
112	0xbdd41468	-0.10355455
113	0x3e60b00e	0.2194216
114	0xbe23bf05	-0.15990837
115	0xbe13526e	-0.14386913
116	0xbe0c0133	-0.13672332
117	0x3c74b9e8	0.014936902
118	0xbd4b5451	-0.049640957
119	0x3cf2f495	0.029657641
120	0xbe182659	-0.14858378
121	0xbe400fa3	-0.18755965
122	0xbdd40e62	-0.10354306
123	0x3d6d79ee	0.05797761
124	0xbde47cc6	-0.11156611
125	0xbb97bb65	-0.0046304935
126	0x3e374f81	0.17901422
127	0xbcb3b4fb	-0.021936884
128	0x3dc90f46	0.09817366
129	0xbe21c49c	-0.15797657
130	0xbea60f2a	-0.32433444
131	0xbcaad095	-0.020851413
132	0x3e3c3150	0.18378186
133	0xbd2c0ecd	-0.042006303
134	0xbdb3b7fb	-0.08775326
135	0xbd9679a8	-0.07347423
136	0xbd6fd276	-0.05855032
137	0xbe868461	-0.26272872
138	0x3dc4f649	0.09617288
139	0x3da886e2	0.08228852
140	0x3ea670ad	0.3250784
141	0xbdd051bb	-0.10171839
142	0x3e92a30d	0.28640023
143	0xbe673cf1	-0.22581841
144	0xbe5b980a	-0.21444717
145	0x3e8c9693	0.2745863
146	0xbd88e26e	-0.06683813
147	0x3e5787af	0.21047853
148	0x3dc69c83	0.09697821
149	0xbe6d8134	-0.23193818
150	0xbe2b476f	-0.16726469
151	0x3e8be8b5	0.2732598
152	0x3d799550	0.06093341
153	0x3e31d540	0.17366505
154	0x3c45d7b3	0.0120753525
155	0x3be6c168	0.007042099
156	0xbe1238e2	-0.14279512
157	0xbdd07951	-0.10179389
158	0xbd2fa13a	-0.042878367
159	0x3e678f2f	0.22613214
160	0xbe04104c	-0.12896842
161	0x3cb1d553	0.021708166
162	0xbe4d5c72	-0.20054796
163	0xbdd28ec5	-0.102811374
164	0x3d6ea75b	0.05826507
165	0xbe07d039	-0.13263024
166	0x3d0c51e7	0.034257796
167	0xbc8fd565	-0.01755781
168	0xbe4e89f7	-0.20169817
169	0x3df03f9a	0.11730881
170	0x3df73464	0.120705396
171	0xbe9120e7	-0.28345415
172	0x3c84e590	0.016222745
173	0x3be7ecb4	0.0070777778
174	0xbda65ad0	-0.0812279
175	0xbe12d363	-0.1433845
176	0xbc2e1618	-0.010625385
177	0x3e863050	0.26208735
178	0x3e2d199e	0.16904303
179	0x3ce45180	0.027870893
180	0xbe3155ae	-0.1731784
181	0x3d816609	0.0631829
182	0x3cafe32b	0.021470627
183	0x3e09f06b	0.13470618
184	0x3e5aba65	0.21360166
185	0xbdbe6698	-0.09296912
186	0x3e829371	0.25503114
187	0x3e64b7af	0.22335695
188	0xbe75ae69	-0.23992313
189	0x3dbd8c16	0.09255235
190	0x3e5d7f89	0.21630682
191	0x3c7b8912	0.015352504
192	0xbe9cc176	-0.3061635
193	0x3e0c6505	0.13710411
194	0xbd638210	-0.05554396
195	0xbe1cb733	-0.1530426
196	0x3e298fe1	0.16558792
197	0x3e015ef8	0.12633884
198	0x3e811b70	0.25216246
199	0x3d39b017	0.045333948

reward_fun.2.weight f4 [200, 200]
0	0xbdf0de5e	-0.11761163
1	0x3d77ee09	0.060529742
2	0x3cc84d38	0.024450883
3	0xbe0b71d4	-0.1361764
4	0x3d478abb	0.048716288
5	0x3d3d0407	0.04614642
6	0x3de8ef34	0.113737494
7	0x3c6f9377	0.014622561
8	0xbe17016e	-0.14746639
9	0xbe022eca	-0.12713161
10	0xbdbc7bf9	-0.092033334
11	0x3da48d9d	0.08034823
12	0x397bf511	0.0002402852
13	0xbc9d152a	-0.01917513
14	0xbe8a01bb	-0.26954445
15	0x3dd9ca9f	0.1063435
16	0xbc4cb63d	-0.012494621
17	0x3d7d8ab0	0.06189984
18	0xbde81964	-0.11332968
19	0x3dd58cd8	0.104272544
20	0xbe4c117f	-0.19928549
21	0xbc72925f	-0.014805405
22	0xbdaecf01	-0.085355766
23	0xbd0ec9b7	-0.03486034
24	0x3d4f9d9f	0.05068743
25	0xbc400284	-0.01171935
26	0xbe01a8ef	-0.126621
27	0x3d9b0b54	0.0757052
28	0xbbd79da5	-0.006580072
29	0xbc8f8cd7	-0.017523212
30	0x3dab6675	0.083691515
31	0xbdc41034	-0.09573403
32	0x3c97eb0a	0.018544693
33	0x3e14ceb5	0.14531977
34	0x3dac378f	0.084090345
35	0x3d10d5f1	0.03536028
36	0x3d77f444	0.060535684
37	0x3b364f4f	0.0027818268
38	0x3df2e3bb	0.118598424
39	0x3d1cf1b7	0.038316455
40	0xbd8fc1f8	-0.070194185
41	0xbbfff593	-0.007811257
42	0xbd137a1d	-0.03600513
43	0xbd8f18ed	-0.06987176
44	0xbd56516a	-0.052323736
45	0x3d05db30	0.032679737
46	0xbd8f5035	-0.0699772
47	0xbe03ba9d	-0.12864156
48	0x3d2869f9	0.04111669
49	0xbd830912	-0.063982144
50	0xbc7de94e	-0.015497519
51	0xbe08291e	-0.13296935
52	0x3d1a8c43	0.03773142
53	0xbcd92ef9	-0.026511656
54	0xbe48cce0	-0.19609404
55	0x3c9d3d61	0.019194307
56	0xbbff54c4	-0.0077920873
57	0xbd33b170	-0.04387039
58	0x3ce09019	0.027412461
59	0x3ba3bf29	0.0049971533
60	0x3e0ba0a7	0.13635503
61	0xbd3253d8	-0.04353699
62	0x3d0d38b2	0.034477897
63	0xbd7db68f	-0.06194168
64	0xbd935694	-0.07194248
65	0xbd15725e	-0.036486022
66	0xbcb63db4	-0.02224622
67	0xbd8e7233	-0.069553755
68	0xba9ac5a9	-0.0011808175
69	0xbd2d0478	-0.04224059
70	0x3d53d6af	0.05171841
71	0x3d05019f	0.03247225
72	0x3cdc4eca	0.026893038
73	0xbd95c2aa	-0.0731252
74	0x3d6351d3	0.055497956
75	0x399aaee9	0.00029503487
76	0x3d8259c2	0.06364776
77	0x3c76c620	0.015061885
78	0x3db1a2d7	0.08673637
79	0xbcfa90c1	-0.030586602
80	0x3c4f1e88	0.012641557
81	0x3d92ca87	0.07167535
82	0x3cafd287	0.021462692
83	0xbd8bf8f1	-0.06834591
84	0xbdff57d2	-0.12467922
85	0xbda55be1	-0.08074165
86	0x3cc8e9da	0.024525572
87	0xbccaf3eb	-0.024774512
88	0x3ddd80ff	0.1081562
89	0x3d59e5a4	0.053197518
90	0xbdddd666	-0.10831909
91	0x3d8315d0	0.06400645
92	0x3e1fe58e	0.15614912
93	0xbd9ee2f4	-0.077581316
94	0x3d17df43	0.037078153
95	0x3e18d7fe	0.14926144
96	0x3da0c36e	0.07849775
97	0xbd53ddbe	-0.05172514
98	0x3dd4f63b	0.10398527
99	0xbc0d31d0	-0.008617833
100	0xbcec9045	-0.028877387
101	0xbd45bb04	-0.048274055
102	0x3d8e0c2e	0.06935917
103	0x3d74d3ee	0.059772424
104	0xbcb4db9d	-0.022077376
105	0xbbf31a21	-0.0074188863
106	0x3d58fe03	0.05297662
107	0x3d92e7c9	0.07173116
108	0x3d3dff09	0.0463858
109	0x3dc578a3	0.0964215
110	0x3cf04b34	0.029332735
111	0xbcdd6c7a	-0.027029265
112	0x3cff8580	0.031191587
113	0xbd86e29e	-0.065861925
114	0xbd2cb9af	-0.04216927
115	0xbea0587f	-0.31317517
116	0xbce45ff7	-0.02787779
117	0x3db966f3	0.09052839
118	0x3d9834d9	0.07431955
119	0x3d72aa0c	0.0592442
120	0xbd8879b5	-0.06663839
121	0x3c85f534	0.016352274
122	0x3d890667	0.06690674
123	0xbdc01986	-0.09379868
124	0x3da53ffb	0.08068844
125	0x3c169f6c	0.009193283
126	0x3d95aada	0.07307978
127	0xbbc7ab0d	-0.006093389
128	0xbda9c4f5	-0.0828952
129	0x3e024519	0.12721671
130	0xbd2871b6	-0.04112407
131	0x3d035e8f	0.0320726
132	0x3ccd0c44	0.025030263
133	0xbd2477e8	-0.040153414
134	0x3d87165d	0.06596062
135	0x3c81e77e	0.015857454
136	0x3c98a6ab	0.018634161
137	0xbd7084c8	-0.05872038
138	0xbd9005d9	-0.07032365
139	0x3dc17f5d	0.09448121
140	0x3db00d2e	0.08596264
141	0x3d74b817	0.059745874
142	0xbd1fb203	-0.038988125
143	0xbd9bd0ef	-0.0760821
144	0xbd605b6e	-0.054774694
145	0x3d67adca	0.056562223
146	0x3d00b984	0.03142692
147	0x3db58e11	0.08864988
148	0x3dc71b60	0.09722018
149	0xbdeaca85	-0.11464409
150	0x3cf9c913	0.030491387
151	0xbd17d139	-0.037064765
152	0x3c39243d	0.011300144
153	0x3dab6d00	0.083703995
154	0xbd094d78	-0.033521146
155	0xbd68b5d7	-0.05681404
156	0xbe206dbb	-0.15666859
157	0x3cc9e21e	0.024643954
158	0xbc981132	-0.018562887
159	0xbd83e4fe	-0.06440161
160	0x3df5ea48	0.12007576
161	0x3d14871d	0.036261667
162	0x3cd5ded5	0.026107231
163	0x3d8ed9c1	0.06975127
164	0xbd53d4f2	-0.051716752
165	0x3c9d23c7	0.019182099
166	0xbd8edd20	-0.0697577
167	0xbd2021b3	-0.039094638
168	0x3d6b3a3d	0.057428587
169	0x3d9ea312	0.07745947
170	0x3d15f0c2	0.036606558
171	0xbcab2402	-0.020891193
172	0xbdbbbe9c	-0.09167215
173	0x3c8ecdda	0.017432142
174	0xbe274405	-0.16334541
175	0xbe205812	-0.15658596
176	0x3d915b75	0.07097522
177	0xbcd54f98	-0.02603893
178	0xbd27bfb8	-0.04095432
179	0x3bdbe790	0.006710954
180	0x3d279545	0.04091384
181	0x3b4b9792	0.0031065685
182	0x3c682bc2	0.014170589
183	0xbcd7c378	-0.026338324
184	0x3db330e5	0.0874956
185	0x3da315b1	0.07963122
186	0xbdb38be1	-0.08766914
187	0x3ceb7eb6	0.028746944
188	0xbdb487b3	-0.08814945
189	0x3d95af9c	0.073088855
190	0xbc7e251f	-0.01551178
191	0x3ca98eec	0.020698033
192	0x3dccc327	0.0999816
193	0xbd6908cb	-0.05689315
194	0xbd81aab8	-0.0633139
195	0xbe93ab90	-0.2884183
196	0x3c572f21	0.013133795
197	0xbd49981d	-0.049217332
198	0xbcadf23d	-0.021233672
199	0x3d5e5fe9	0.054290686
200	0x3dc53ae1	0.09630371
201	0xbcbf1fce	-0.023330595
202	0x3c41c0d5	0.01182576
203	0xbe25a27b	-0.16175263
204	0xbd1d2fa3	-0.038375508
205	0xbe1c5800	-0.15267944
206	0xbc1faae4	-0.009745333
207	0x3da2b93e	0.079454884
208	0x3d9371d5	0.07199446
209	0xbd6aa6fe	-0.057288162
210	0xbd0b4e8a	-0.034010448
211	0xbcccd26f	-0.025002686
212	0x3d4ede83	0.050505172
213	0xbe35b082	-0.17743114
214	0xbe76953a	-0.24080363
215	0xbd57b719	-0.05266485
216	0xbdfc201c	-0.12310812
217	0xbe2230d5	-0.1583894
218	0x3d24a86b	0.04019968
219	0x3cfcaecd	0.03084507
220	0xbc999dcd	-0.018752003
221	0xbcfcd7ad	-0.030864561
222	0x3d2f6884	0.042824283
223	0x3d80be77	0.06286328
224	0xbedabf15	-0.4272391
225	0xbcdaac97	-0.026693625
226	0xbd8cb2e3	-0.068700574
227	0x3e091887	0.13388263
228	0x3df4a5a4	0.11945656
229	0xbc982cec	-0.018576108
230	0xbea78307	-0.32717153
231	0xbe4dc758	-0.20095575
232	0x3ca7e1ec	0.02049347
233	0xbe4ddb6d	-0.20103236
234	0xbe6690f5	-0.22516234
235	0xbd9771a0	-0.07394719
236	0x3d9ea077	0.0774545
237	0xbe28fde9	-0.16503109
238	0xbe3b1a96	-0.1827186
239	0xbdad764d	-0.0846983
240	0x3d9fb6c5	0.077985324
241	0x3d6f062d	0.0583555
242	0x3d8d6e79	0.069058366
243	0x3db71ebd	0.0894141
244	0xbea36278	-0.31911063
245	0xbc0d17e0	-0.008611649
246	0xbd8a1c53	-0.06743684
247	0x3df3ac3d	0.11898086
248	0x3dda3e83	0.106564544
249	0x3d41ab25	0.047282357
250	0xbd4b9a44	-0.049707666
251	0x3dc25036	0.09487955
252	0xbde4de50	-0.11175215
253	0xbe50bc3e	-0.20384309
254	0xbd84e568	-0.06489068
255	0x3dd5cd6c	0.10439572
