experiments/data/sawyer_clutter_200steps_10H/h_sac/2021-06-23_14-31-29_clutter_200steps_10H/policy_3600.pt (torch_old, 75801 bytes, 6 tensors)

mu.0.weight f4 [128, 12]
000000 d5 55 38 be a4 75 77 3e 24 29 02 3e be 6f f6 bb
       -0.18001492 0.2416597 0.12711006 -0.007520645
000010 2e 79 4f be 5f ab 37 be 9e 2f 84 bd 17 f6 01 3d
       -0.2026107 -0.17936467 -0.06454395 0.03172883
000020 72 33 50 3d 51 f9 5e be be c8 b2 bd bd cf 5e 3d
       0.050830312 -0.21774794 -0.08729695 0.054397333
000030 60 98 19 3d ac 7b e9 bd 85 19 ea bb 86 69 d2 3d
       0.03749883 -0.11400542 -0.0071441554 0.10274033
000040 43 d8 47 3d ec e8 63 3c 2b 5b 20 be 11 76 f1 3d
       0.048790228 0.013910513 -0.15659778 0.117900975
000050 30 4d 0d bd a9 42 33 3d 80 41 10 3e 59 f1 52 3e
       -0.03449744 0.043764744 0.14087486 0.2059988
000060 cc bd 39 be f0 32 e1 3b 63 44 9e 3d 26 5f 2c be
       -0.18138808 0.0068725273 0.077278875 -0.16833171
000070 63 a9 95 3e ea e2 58 3e 47 dc e8 bd 77 05 73 bd
       0.29230794 0.21180311 -0.113701396 -0.059331384
000080 41 51 6a 3e f0 d8 4c 3e c4 c0 08 be bf fc aa bd
       0.22882558 0.2000463 -0.13354784 -0.08348989
000090 b8 0f 81 bd ad 4c 45 bc 1a 8b 00 be f7 6d 8a be
       -0.06301826 -0.012042207 -0.12553063 -0.27037022
0000a0 05 c4 4c be 80 cf 04 3e 03 f8 93 3e 45 0a 0d bd
       -0.1999665 0.1296978 0.28900155 -0.034433622
0000b0 70 0d 9b 3d 08 82 3b be c1 11 e9 bc 92 9c c5 3c
       0.075709224 -0.18311322 -0.028450849 0.02412251
0000c0 e9 f0 6d 3e 27 35 07 3b 5e 93 ed bd 23 7c 89 bc
       0.23236431 0.0020631047 -0.11600374 -0.016782826
0000d0 1d 18 8d 3c 6c 01 0e be 18 ea 3d be da 5f ba 3d
       0.017223412 -0.1386773 -0.18546331 0.091003135
0000e0 c7 84 59 3e 8d 14 4b bc b9 dc 20 3e c6 7f 8a 3e
       0.21242057 -0.012395036 0.15709199 0.27050608
0000f0 85 0d 8e 3d 78 54 a3 3e c7 0e 31 3e a9 57 68 be
       0.069361724 0.31900382 0.17290793 -0.2268969
000100 ca 65 76 3d 1e 04 51 be e6 ca bc bc f6 47 69 be
       0.060155667 -0.20411727 -0.023045968 -0.22781357
000110 3c 1e 5a be d7 5f ad 3d 8f 38 13 be 1b 94 52 3d
       -0.21300596 0.084655456 -0.14377044 0.051410776
000120 89 3d ee bd 54 1d 38 be b9 f9 a3 bb bc 37 48 3e
       -0.11632831 -0.17979938 -0.0050041345 0.19552511
000130 03 f5 06 3e c8 93 81 3e b8 9a 6f 3c fc b4 9a 3e
       0.13179402 0.2530806 0.01462429 0.30216205
000140 d1 61 64 be ff 44 81 be ae 22 61 3d 7e 80 b5 3c
       -0.22302939 -0.25247952 0.054964714 0.022155996
000150 dd 6d 92 3e 14 2e 9a 3e 48 bb 48 be 5b ee 7c be
       0.28599444 0.3011328 -0.19602692 -0.247003
000160 88 17 39 3e 31 0c 5f be cd 6b ae bd 3a ce 0e 3e
       0.18075383 -0.21781994 -0.08516655 0.13945857
000170 38 41 ab 3d be 06 14 be d1 60 fe 3c 2d 16 36 3d
       0.08362049 -0.14455697 0.031052025 0.044454742
000180 ec b2 0e 3e 1c 19 9c bc 77 74 aa 3d 00 ed 66 be
       0.13935441 -0.019054942 0.08322995 -0.22551346
000190 ec 5e c7 bd 49 72 89 3d aa dd 58 3e 24 69 75 bd
       -0.09734902 0.06711251 0.21178308 -0.059914723
0001a0 dc fd 89 3e 3f aa 62 3e 37 d8 12 be 7a db 74 3c
       0.26951492 0.22135256 -0.14340292 0.014944905
0001b0 dc f4 91 3c e9 7f 08 3e 6f 78 78 3e 78 f2 5a be
       0.017816953 0.13330044 0.24264692 -0.21381557
0001c0 2d 43 3c be cc 68 85 3d ff 08 66 bd ae 45 53 be
       -0.18385 0.06514129 -0.056160923 -0.2063205
0001d0 ef f1 8d be 87 8f 80 be 96 c2 22 3e d7 62 61 3e
       -0.27723643 -0.25109503 0.15894541 0.2201036
0001e0 c5 e1 8d 3e 84 c1 6e 3c c6 1c e8 bc ea 19 f5 bd
       0.2771131 0.014572505 -0.028334033 -0.11967833
0001f0 8e 80 c8 bd 7a 82 98 be 5c 79 5e 3e 1b 6c e3 3d
       -0.09790145 -0.29787046 0.21725982 0.11104604
000200 44 70 55 3e 46 9a 4b be 68 d0 10 be d0 68 b2 bd
       0.20843607 -0.1988307 -0.14142 -0.08711398
000210 ec ad 11 be 55 7a 5a be b0 ed 7d 3e 85 cd ec 3d
       -0.14226502 -0.21335728 0.24797702 0.11562637
000220 60 bc 33 3d e3 f0 80 3e 80 07 56 be db ec 7a bd
       0.04388082 0.25183782 -0.20901299 -0.06126104
000230 2e 25 69 bd 2b d0 f2 3d 76 4d 85 3d 32 30 0e 3b
       -0.056920223 0.11856111 0.06508915 0.0021696207
000240 7c bf 8b be f7 24 a3 3d a2 ff 42 be 40 18 7c be
       -0.27294528 0.07966035 -0.19042829 -0.24618626
000250 f0 c1 90 3e 76 c4 41 3e 95 a9 63 be 34 11 86 3e
       0.28272963 0.189226 -0.22232659 0.26185
000260 15 37 0e be b3 7a 93 bd 4d aa a4 bc 5a f0 13 be
       -0.138882 -0.072011374 -0.020100737 -0.14447156
000270 9a 96 94 bd 0e ba 39 3e 59 25 7e be 67 a9 5b be
       -0.072552875 0.1813738 -0.24818935 -0.2145134
000280 ab a8 98 3e 7b f3 91 3e f0 fe 50 3e f7 de 1f 3e
       0.29816183 0.28506073 0.20409751 0.15612398
000290 03 e0 2d 3e 63 97 5c be ab 0b 4c be 7a 6c f4 3d
       0.16979985 -0.21542124 -0.19926326 0.11934753
0002a0 0e 66 8c be ea 3b 27 3e d8 c2 7b 3e 01 99 48 bd
       -0.27421612 0.16331449 0.24586046 -0.04897404
0002b0 32 7a 9f bd 99 05 9e bd 2b 06 4e be d5 05 57 3e
       -0.07786979 -0.077159114 -0.2011954 0.20998318
0002c0 ec 77 9c bc e5 da 10 3e d9 15 64 3e 91 48 82 3d
       -0.019100152 0.14146002 0.22273959 0.06361497
0002d0 63 74 60 3e 26 a3 70 bd 40 17 8a be 9b b4 d4 bd
       0.21919398 -0.05874934 -0.26970863 -0.1038601
0002e0 5f 23 b5 3d 4e c4 f0 bd 1a e5 c8 bd 92 49 8a be
       0.08844637 -0.11756192 -0.09809323 -0.27009255
0002f0 96 ae f3 bd 14 90 95 be b6 97 04 3e 17 91 9e bd
       -0.11898534 -0.29211485 0.12948498 -0.077425174
000300 b3 4a 56 be ef 67 9c bb c6 4e 3e be aa e1 0e 3e
       -0.20926933 -0.004773132 -0.18584737 0.13953272
000310 38 32 3a 3e 88 c4 13 be af 31 4d be 16 71 7f be
       0.1818322 -0.1443044 -0.20038484 -0.24945483
000320 f9 60 0c 3e f9 7b 5a 3e 65 0e 88 3e db 5c 4e 3c
       0.13708867 0.21336354 0.26573482 0.012595381
000330 7b ae 14 be 3f 75 41 be 8a d1 17 ba bd 58 7e 3e
       -0.14519684 -0.18892382 -0.00057914166 0.24838538
000340 c5 58 3c bc ef 3c 6b 3e de 7f 1d 3e 1b 22 3b 3e
       -0.011495774 0.22972463 0.15380809 0.18274729
000350 7b 54 b7 bd c7 cf 86 3e a8 f7 15 3e 74 d3 b3 3d
       -0.0895166 0.26330397 0.14645255 0.08780566
000360 10 e7 7e 3e 0c 54 79 3e 3c 36 39 be 69 00 4b be
       0.24892831 0.24348468 -0.18087095 -0.19824375
000370 7d 7d ea bd 3e 6d 61 be 7a f6 71 bd db 07 27 3d
       -0.11449716 -0.22014329 -0.05907295 0.040778976
000380 82 60 89 be 97 df c0 bb c5 64 87 be f4 67 72 be
       -0.26831442 -0.005886029 -0.2644407 -0.23672467
000390 51 0a 36 bd a5 79 98 be 65 f1 80 3e 7f 44 1f 3d
       -0.044443432 -0.29780307 0.2518417 0.038883682
0003a0 2f 80 89 be 0d 99 7a 3d e7 2d 49 be 83 40 2d be
       -0.2685561 0.061181117 -0.19646417 -0.1691914
0003b0 07 f5 f9 3d fd 49 38 be b9 6c 18 3e a2 f2 3d 3e
       0.122049384 -0.17996974 0.14885224 0.18549588
0003c0 5c 0f 3a 3e 7d ec 83 3d b9 b8 69 3e f7 0e a2 3c
       0.18169922 0.06441591 0.22824372 0.019782526
0003d0 ce 15 af bd bc a5 88 3e 8c 23 c9 3d 70 3f 34 3e
       -0.08549081 0.26688945 0.09821233 0.17602324
0003e0 70 fd 8b 3e b7 c9 74 3e 36 5d 99 3d 57 5f 70 3e
       0.27341795 0.23905073 0.07488482 0.2347387
0003f0 c3 0b cf 3d 76 f4 46 be 8b 74 d9 bd 24 b8 4f 3c
       0.10109665 -0.19429192 -0.10617932 0.01267818

mu.0.bias f4 [128]
000000 d8 35 6c be a4 eb 6e be 58 b9 94 3e da 09 59 bd
       -0.23067415 -0.23332077 0.29047656 -0.05298791
000010 fe a0 fe 3d 0d 98 51 3e 84 8e 84 be 83 14 77 3e
       0.124330506 0.20468159 -0.2588998 0.24128918
000020 9b c2 8e be 6c ab 93 3e ac cf 83 be e4 ee 09 be
       -0.27882847 0.28841722 -0.2574438 -0.13470036
000030 70 28 ee bd 8d 0a f5 3c 59 db 55 be 23 85 0a 3e
       -0.116288066 0.029912258 -0.20884456 0.1352735
000040 25 6a 01 be 05 79 73 be 61 b9 0c be fa 84 54 bd
       -0.12638147 -0.23776634 -0.13742591 -0.05188463
000050 6e bd ae 3d 75 5e df bd 12 ad c0 bd 11 37 88 be
       0.085322246 -0.10906688 -0.094080105 -0.26604512
000060 c8 14 3a be 59 2e 5b be 8b ac 5f be 03 9c 49 be
       -0.1817199 -0.21404399 -0.21843164 -0.1968842
000070 aa 92 28 be 5f 1a d0 3d 5f ef 51 3e dc c3 81 be
       -0.16462198 0.1016128 0.20501469 -0.2534474
000080 d1 84 6a 3c b4 28 9f be 0c 85 26 3e e4 e2 8b 3e
       0.014313892 -0.31085742 0.16261691 0.2732154
000090 0e ce 13 bd 53 cf c0 bd 0a 56 88 be 08 65 9a 3c
       -0.03608518 -0.09414544 -0.26628143 0.018847004
0000a0 d5 90 9b 3d 84 e3 1d be 27 8a 66 3e 2b 97 15 3d
       0.07595984 -0.15418822 0.22513638 0.036521118
0000b0 fa dd d6 3d e9 d9 31 be 5d b9 9c 3d 7b 0e cb bd
       0.104915574 -0.17368282 0.07652543 -0.09914871
0000c0 cb 32 a0 3e e1 51 5e be 67 13 44 be ff 15 60 3d
       0.31288752 -0.21710922 -0.19148026 0.054708477
0000d0 6a 0c 33 be f6 3a 7b 3e e9 ad 8c 3e 64 fe 14 3e
       -0.17485204 0.2453421 0.27476433 0.14550167
0000e0 e6 c8 91 bd 42 2e e1 3d 26 42 85 3d ef e8 2a be
       -0.071183965 0.10995151 0.065067574 -0.1669042
0000f0 0c b4 9c bd c4 dc 42 3c 5f b1 90 3e 6c 20 68 3e
       -0.07651529 0.011893455 0.28260323 0.22668618
000100 1a 1f c2 3d 96 4d 02 be 41 2c 08 bd 0e 20 f5 bb
       0.094785884 -0.12724909 -0.03324533 -0.007480628
000110 f1 f7 52 3e 9d 06 34 3e 73 a1 ce bd 9a a3 2b bd
       0.20602395 0.17580648 -0.10089388 -0.04190407
000120 d8 02 49 3c 22 ac cf bd bb 5a 32 3e f0 35 42 be
       0.012268744 -0.101402536 0.17417423 -0.18965888
000130 08 0a 30 bd 47 a8 62 3e 55 80 53 3e 1f 54 fb 3d
       -0.042978317 0.22134505 0.20654424 0.12271904
000140 46 1d f0 3c df fb 7e 3e 20 f0 64 be 67 f3 60 be
       0.029310834 0.24900769 -0.22357225 -0.2196785
000150 ed fd 54 be 9c bd 37 bd f4 c3 ef 3d 6d 87 84 be
       -0.2079999 -0.04485856 0.11707297 -0.25884572
000160 fa af 0c 3c 79 ee 42 bd 0a 25 89 be 83 64 ea bd
       0.008586878 -0.047590706 -0.2678607 -0.11444952
000170 c2 90 d1 bd 31 63 6e 3d 90 bf e8 bd e9 78 15 be
       -0.102326885 0.058200065 -0.11364663 -0.14596905
000180 35 8d e0 3d 22 3c 82 be 4b a2 52 3e 23 47 1a 3e
       0.10964433 -0.25436503 0.20569722 0.15066199
000190 eb 9c 6d 3e 93 68 80 3e 8d 87 4a be 55 f3 85 be
       0.2320439 0.25079784 -0.19778271 -0.2616221
0001a0 0a d7 6d 3e 6e 5f ed bd 65 4b 89 be e8 f4 db 3d
       0.23226562 -0.115904674 -0.26815334 0.107400715
0001b0 cd 3d 2c bd c0 60 96 3e 4a 9f 84 be 5e d8 e4 bc
       -0.042051125 0.2937069 -0.25902778 -0.027935203
0001c0 6e 56 36 3e 12 f1 47 3e 1d e3 16 be 01 9e 09 3e
       0.17806408 0.19525555 -0.14735074 0.1343918
0001d0 2b 65 78 3e 8d 2f 15 3d 69 4c 4a bd ac cc 81 be
       0.24257343 0.0364223 -0.049389277 -0.25351465
0001e0 52 2a 49 3e 6c cd 88 3e 37 c0 e8 3c e4 a1 ac 3d
       0.1964505 0.26719224 0.028411968 0.08429316
0001f0 76 57 48 bd 96 ff 0f 3e 10 e3 eb bc b6 8f 52 3d
       -0.048911534 0.14062342 -0.028794795 0.051406585

mu.2.weight f4 [128, 128]
000000 2e bf 03 3d 26 58 90 3c 67 a5 b3 bd 0f 40 42 bd
       0.032164745 0.017620157 -0.08771782 -0.047424372
000010 26 8c c2 3c 54 1a a2 3c 6e fb 36 3d f1 31 72 3d
       0.023748469 0.019787945 0.044673376 0.05912966
000020 cd f9 2e 3d ff 9e 36 3b 5d 66 02 bd f7 47 09 37
       0.042718697 0.0027865765 -0.031835902 8.182592e-06
000030 01 20 32 bd ac a5 8e bd d2 ba 89 3d 9d 04 55 bd
       -0.043487553 -0.06965193 0.06725086 -0.052006353
000040 75 c0 3d 3d 7b 41 6f bd 43 0d ff bc 18 a1 3d 3d
       0.04632612 -0.058412056 -0.031134253 0.04629621
000050 5a d6 6e bd 9c 65 2e 3a f5 90 e0 bc 1c 62 24 3c
       -0.05830989 0.0006652714 -0.02741287 0.010033157
000060 49 51 96 3d 8f fa 5f bd 44 a5 59 3b be 47 3a bd
       0.07339723 -0.05468231 0.0033210078 -0.045478575
000070 8d 15 40 bd ab de 89 bd 6b 9c 3d 3d 12 42 83 3d
       -0.046895552 -0.06731924 0.04629175 0.06409086
000080 ff a7 2a bd cd 99 a8 3c 36 80 58 bd f7 a5 9c 3d
       -0.04166412 0.02058115 -0.052856646 0.07648843
000090 b0 62 98 bd 5f 4a 03 3d ea fe 21 bd ed 94 56 3b
       -0.07440698 0.032053348 -0.039549746 0.0032742575
0000a0 6e bb 88 3d 93 46 f0 3c 51 10 9a 3d f8 0a 4e bd
       0.066763744 0.029330527 0.07522643 -0.05030343
0000b0 c4 71 8e bc e4 b3 55 3d 88 0d b8 bd 32 03 3c bb
       -0.017388232 0.05217351 -0.08986956 -0.0028688428
0000c0 ee bb 09 bd 19 f4 19 bd 70 8c 85 bd 5a d5 b7 3c
       -0.03362649 -0.037586305 -0.06520927 0.022440601
0000d0 57 fe 7f 3d c2 f7 8e 3d 0c 13 af 3d 3e d2 29 bd
       0.062498417 0.0698085 0.08548555 -0.04146027
0000e0 20 e1 a9 3d e2 38 3b 3d 4a aa 6d bd d7 04 80 bc
       0.08294892 0.045708545 -0.05802373 -0.015627308
0000f0 36 64 a6 bd 9c bd 63 bd 9d 5d 29 3d 3a fe 80 bd
       -0.081245825 -0.055600747 0.041349042 -0.0629849
000100 63 3a 87 bb 4e f2 97 bd 2d da c5 bc e6 c4 35 bd
       -0.0041268333 -0.07419263 -0.024151886 -0.04437723
000110 b6 e1 28 bb 10 01 2d 3d 02 ba 22 3d fd 60 46 bd
       -0.00257693 0.04223734 0.039728172 -0.04843234
000120 34 8d 63 bd 8b 0f 1e bb 0c 2a 3f bd 3b 92 95 3c
       -0.055554584 -0.002411815 -0.04667096 0.018258205
000130 b6 c1 81 bd 53 b6 4b 3c a4 ed 85 bd fc e5 96 3c
       -0.063357756 0.012433606 -0.06539467 0.018420212
000140 ae cc a5 bd 33 79 22 3d 0e 69 92 3d 78 6a 12 3d
       -0.0809568 0.039666366 0.07148944 0.035746068
000150 26 31 87 bd b5 4f ac bd 89 5c b0 bc 39 fd 8d 3c
       -0.06601171 -0.084136404 -0.0215285 0.01733266
000160 6c cc 56 3d 62 08 4b bc 2e c8 cb bb 3a a7 80 bd
       0.052441046 -0.012392135 -0.0062189316 -0.06281896
000170 ae 24 5d bc 9b f4 9e bd fa da ac bd 2d 4f 8a bc
       -0.013497515 -0.077614985 -0.08440204 -0.016883457
000180 21 e7 20 3d 71 e3 56 bd 27 d8 9b bd f3 e0 89 bc
       0.03928292 -0.052463 -0.07609587 -0.016830897
000190 33 41 9f bd da 5d 86 bd bb f5 47 3d c9 53 94 bd
       -0.07776108 -0.065608695 0.04881833 -0.07242543
0001a0 dd b1 95 bd 39 ed af bb 2a 2b 36 3d 78 a8 a0 bc
       -0.07309315 -0.0053688553 0.04447476 -0.019611582
0001b0 df 8c 91 3d 30 d7 df 3c 48 01 8c bd 4a 9d ac bd
       0.07106947 0.02732429 -0.06836182 -0.08428438
0001c0 7c a5 79 bc 38 9e a2 3d 64 4e 4a bd 2b 4f 7c 3d
       -0.015237208 0.07940334 -0.049391165 0.061598938
0001d0 b4 ab 5d bc a7 68 3b bd b2 d5 dc bc 14 8d 3b bd
       -0.013529707 -0.0457541 -0.026957367 -0.04578884
0001e0 e3 33 91 bd 33 be 6a 3d 7c 40 b3 3c 0d b4 95 3c
       -0.07089975 0.057310294 0.021881334 0.018274331
0001f0 82 78 de 3b 50 dc 94 bd b2 1c 9b 3d a2 fc f8 bc
       0.006789268 -0.07268584 0.075738326 -0.030393902
000200 ed 1c 9a bd be a5 7b bd 20 92 68 bb da 5f 17 3d
       -0.075250484 -0.06143736 -0.0035487488 0.036956646
000210 b1 14 25 bd c6 e9 c2 3c 83 bc 2e bd 9e 1a 78 bd
       -0.040302936 0.023793112 -0.042660248 -0.06057226
000220 6e f6 68 3d 9b 2d 86 3d 6c 9d 82 3d 53 b8 bc bc
       0.05687564 0.06551667 0.06377682 -0.023037111
000230 53 e0 93 bd 05 40 8f bb 38 e3 45 3d 76 ab 80 3d
       -0.07220521 -0.0043716454 0.048312396 0.062827036
000240 d5 c9 6f bb ca ed c0 bc fe fc 8e 3d 13 83 87 3d
       -0.0036588807 -0.023550887 0.06981848 0.06616797
000250 08 40 df bb 39 e1 9b 3d b3 74 85 3d 0c ac 7a 3c
       -0.006813053 0.07611317 0.06516399 0.015299808
000260 94 6e e0 3c 49 d4 12 3c e2 8a b9 bd b8 a7 74 3d
       0.027396478 0.008961746 -0.09059693 0.05973026
000270 78 64 7f bc a2 10 f2 bc c8 44 3a bd 73 dc 82 bd
       -0.015587918 -0.029548947 -0.04547575 -0.063897036
000280 26 ef 27 bd 87 7c 89 3c 2a 22 72 bd 82 de cc bc
       -0.040999554 0.016783012 -0.059114613 -0.025008444
000290 82 da 49 3d df 8e 84 3d 5e 8d b8 3c c5 8a 80 bd
       0.04928065 0.06472563 0.022528347 -0.06276468
0002a0 15 1d 8b 3d ae bb 41 3d ad 2b 07 bd 28 14 0b 3c
       0.06792656 0.047298126 -0.033000637 0.008488692
0002b0 0b fd d1 bc 2e 84 38 3c d9 d8 5d bd 0c 37 96 3c
       -0.025633356 0.011261983 -0.05416188 0.018336795
0002c0 ab de cf bc 63 d4 9f bd e2 4b 29 3d 34 e9 54 bd
       -0.025374731 -0.078041814 0.041332133 -0.051980212
0002d0 b0 59 81 3d 87 1a 97 3d da f9 74 3d 13 1c 8a 3c
       0.06315935 0.073781066 0.05980859 0.01685909
0002e0 1d 3a 2e bd 5c 67 87 3d 47 c0 55 bd da 09 83 3d
       -0.04253589 0.06611511 -0.052185323 0.063983634
0002f0 3b bd c5 bd 1f f9 e9 3c 67 b8 16 bd 0d 95 18 bc
       -0.096552335 0.028561173 -0.036796954 -0.00931288
000300 dd 87 23 bd 21 7e ee 3c 92 94 a4 bd 1d 9d 70 bd
       -0.03992449 0.029112877 -0.0803615 -0.058743585
000310 32 7e 6a 3b 30 f2 82 bd 32 18 6e bd 61 b6 ac bd
       0.0035780785 -0.0639385 -0.058128543 -0.084332235
000320 07 13 bb bd 2b 08 c0 bc 78 b5 59 3d 24 4d 27 bd
       -0.091344886 -0.023441395 0.053151578 -0.04084505
000330 69 58 50 3d bc 31 6f bd 62 6e aa bd 6b 17 c7 3c
       0.050865564 -0.05839704 -0.08321835 0.024303159
000340 0f 4e 8f 3d 0f ff 64 bc 3a 8d 8c bc f6 a6 f0 3c
       0.0699731 -0.013976826 -0.017157186 0.029376488
000350 15 b1 ae 3d f5 72 81 bd 42 39 5e 3d 7b d0 f3 3b
       0.085298695 -0.063207544 0.054253824 0.0074406243
000360 be dd 56 bd 55 3b 36 bd 07 c5 97 3d c7 9b 03 bd
       -0.052457564 -0.044490177 0.07410627 -0.032130983
000370 2e f7 50 bd 59 c1 03 3b 25 bd 1c bd 37 6f fa bc
       -0.05101698 0.0020104258 -0.03826632 -0.03057061
000380 8d 11 38 3d 89 a3 22 bd e9 39 c4 3c 53 2a 89 3d
       0.044938613 -0.03970674 0.023953395 0.06697526
000390 03 86 76 3d 15 2e af bb 66 3f 88 3d 89 c3 44 3d
       0.060186397 -0.0053460696 0.06652717 0.04803804
0003a0 f1 a2 cc 3c 12 0c 2b bd f7 0c 99 3c b5 c8 f3 3c
       0.02498004 -0.041759558 0.01868294 0.02975879
0003b0 56 9e 43 bd bb c1 8a 3d 9d 65 98 bd e7 05 8f 3d
       -0.047758423 0.067752324 -0.07441256 0.06983548
0003c0 9b bd 19 bc 47 a9 92 3d 84 84 95 bd 57 5e 64 bb
       -0.009383584 0.07161193 -0.07300666 -0.003484627
0003d0 88 c8 34 3d 48 4b b6 bd 48 22 81 bd 9d c6 29 bd
       0.044136554 -0.089010775 -0.06305367 -0.041449178
0003e0 e5 a7 8a 3d 20 77 26 3d 01 bb 8d bd 2c 4f 38 bd
       0.067703046 0.04064095 -0.06920434 -0.04499738
0003f0 dc b4 f2 3c ab 92 06 3d b9 3e c9 bb 9d 94 20 3d
       0.029627256 0.032854717 -0.0061415103 0.03920423

mu.2.bias f4 [128]
000000 1d 70 a0 bd db ac e8 3b 84 29 55 bd f0 8f f2 bc
       -0.07833884 0.007100684 -0.052041546 -0.02960965
000010 8c fb bc 3d 09 bb 1e bd 8f 78 a6 3d 53 19 23 bd
       0.09227666 -0.03875259 0.081284635 -0.039819073
000020 3b 53 c7 bb 14 7c 3a bd 63 d0 91 3d 8f 44 bf 3d
       -0.00608292 -0.045528486 0.07119825 0.093392484
000030 50 24 84 3c 37 ad 50 bc c0 c2 90 bd 8c b0 7a bd
       0.016130596 -0.01273661 -0.070683956 -0.061203524
000040 17 20 93 3c 03 10 14 3d a2 62 82 bd 00 77 5c 3d
       0.017959638 0.036148082 -0.06366469 0.053824425
000050 54 5d 80 3d b7 b6 9e bd aa f8 05 bd 5b 96 3c bb
       0.06267801 -0.07749694 -0.032707848 -0.0028776142
000060 a9 8c 40 3c 18 c6 a5 3d bb bb 2f 3d 46 9a 9b bc
       0.011752286 0.08094424 0.042903643 -0.018994462
000070 33 e7 f5 3c 9c 37 3f 3d c5 5b db ba fb e4 b8 3d
       0.030017471 0.046683893 -0.0016735723 0.090280496
000080 29 4b 70 3b 43 2a 9f 3d 64 dc 27 bc 39 12 84 bd
       0.0036665893 0.07771733 -0.010245416 -0.06448788
000090 2f a1 f0 3c ae c2 21 3d 76 bf 24 3d 13 33 74 bd
       0.029373733 0.0394923 0.040221654 -0.05961902
0000a0 37 9d 1b bc d6 db ca 3c 05 bf 02 3d f5 36 dd ba
       -0.009497932 0.02476303 0.03192045 -0.001687734
0000b0 9f 21 2a 3d 75 69 76 3c 35 58 a1 bc b2 25 9a 3d
       0.04153597 0.015039791 -0.01969538 0.07526721
0000c0 5a 92 c2 bc 2a 29 15 bd d8 b3 97 3d c0 6f 88 bd
       -0.023751426 -0.03641621 0.07407349 -0.066619396
0000d0 8e 0d 3f bd 17 82 88 3d b3 05 a1 bc 93 b5 84 3d
       -0.046643786 0.06665438 -0.019656038 0.06479945
0000e0 3b 7d 8b bd 94 ad 6c bc 5d 79 a1 3d e8 b4 ca 3d
       -0.06810995 -0.014445681 0.07884476 0.098977864
0000f0 b5 0c a6 3d e9 0f 5e bd fb 7c 83 3d ff 2c 57 3d
       0.081078924 -0.05421439 0.064203225 0.052533146
000100 95 98 83 bd 0c 94 b4 bd 2c a4 c5 bd b2 0c c4 38
       -0.06425587 -0.088173 -0.09650454 9.348373e-05
000110 52 57 25 3d a9 f1 b2 bd b8 55 2b bd 71 9a 93 bd
       0.04036648 -0.08737499 -0.041829795 -0.07207192
000120 c9 a0 5d bd 3f 79 ea 3c a6 25 36 bd 15 d9 57 3d
       -0.054108415 0.028622268 -0.044469498 0.05269726
000130 2d 1f cd 3c ed 19 91 3c 64 1a 12 3d 98 46 94 3d
       0.02503928 0.017712558 0.0356697 0.07240027
000140 12 bf 7f bd ab 09 2e 3d 20 36 a5 3d 04 ee 0c 3c
       -0.06243808 0.04248969 0.08066964 0.008601669
000150 2d 88 d0 3b 52 23 b6 bd 84 3e 9d 3d 96 ac 14 3d
       0.0063638897 -0.088934556 0.076779395 0.036297403
000160 b3 dd 17 bd d8 03 7e bd 6e dd 75 bd 9b 7b da bc
       -0.037076663 -0.062015384 -0.060025625 -0.026670268
000170 01 8f a6 3d a0 a2 c0 bb 02 79 98 bc b2 37 97 bd
       0.081327446 -0.0058787614 -0.018612389 -0.0738367
000180 ec 10 b4 3d ea 9e 31 bc cb 44 20 bc 29 4c ac 3d
       0.0879229 -0.010841111 -0.0097820265 0.08412964
000190 5f b8 84 3d d4 cd 54 bd 48 a3 38 bd 9f b4 3c bd
       0.064804785 -0.051954105 -0.045077592 -0.04607069
0001a0 aa 20 7d bd 71 66 d9 bc 94 b9 bd 3d f4 ec 22 3b
       -0.06179873 -0.026538106 0.09263912 0.0024860473
0001b0 6f 42 c0 3d bf b5 dc 3c 20 15 6b 3d 39 ce b6 3d
       0.09387671 0.026942132 0.057393193 0.089260526
0001c0 d0 76 58 bd 66 c1 0f 3d 73 98 f7 bb 32 98 1e bd
       -0.052847683 0.03509655 -0.007556015 -0.038719364
0001d0 a2 58 bf 3d 95 64 a6 bc 28 34 92 3d e3 8a 82 bd
       0.09343077 -0.020311633 0.07138854 -0.06374147
0001e0 83 c3 03 bd be 84 bd 3d b3 4e 9f bd 10 f0 92 bd
       -0.032168876 0.09253834 -0.077786826 -0.071746945
0001f0 d8 29 76 3d 5d 90 8d 3d 98 ab 82 3d a4 ae 0c 3d
       0.0600985 0.06912301 0.06380385 0.034346238

mu.4.weight f4 [4, 128]
000000 96 20 bc 3b ec b9 ac 3b 55 6d 31 3c a7 45 03 39
       0.0057411892 0.005271187 0.010829289 0.00012519081
000010 73 d1 9d 3c c2 50 3f 3c 0a 7d 97 3c 83 cf a5 3c
       0.019264912 0.011676969 0.01849224 0.02024055
000020 d5 0d e2 3c 94 c6 46 3c ca 3f d5 3c 73 e1 0e 3d
       0.027594486 0.012132306 0.026031394 0.034882974
000030 14 68 a4 3c 1c aa a2 3c f5 6d 3f bb b9 00 28 3c
       0.02006916 0.019856505 -0.0029209827 0.010254079
000040 65 38 3b 3c f3 6c 0f 3c 73 64 ad 3b a0 e0 d1 3b
       0.01142702 0.008754003 0.0052915155 0.006404951
000050 ec ae 04 3d 9d 0c 85 3c 42 bf b6 bb c8 65 3f 3c
       0.03239338 0.016241366 -0.005576999 0.011681981
000060 b7 04 15 3b 3f 7c a0 3c 7b 95 82 3c a4 47 51 bb
       0.0022738406 0.019590495 0.015940418 -0.003193357
000070 eb e5 0f 3b 81 15 54 3c 37 90 fc 3c 2b 8c 62 3c
       0.002195711 0.01294458 0.030830486 0.013827364
000080 1a d0 9c 3b d5 38 d9 3c b5 76 ef 3c e5 8a 09 3c
       0.00478555 0.026516357 0.029231409 0.008394931
000090 fb b5 83 3b ee 6f a8 3b ec 89 30 3c 72 67 45 3c
       0.0040194965 0.005140296 0.010775071 0.012048589
0000a0 a9 41 cd 3c 3d a3 81 ba 4e 96 6a 3a 83 d5 4d 39
       0.025055723 -0.0009890568 0.0008948789 0.00019629863
0000b0 b6 34 12 3c 36 fe a7 3b 98 d5 89 3b dc f9 ad 3b
       0.0089237 0.00512674 0.0042063706 0.0053093266
0000c0 68 36 f5 3c 0c d3 08 3d c3 14 a8 3c 7e d1 9c 3b
       0.02993317 0.033404395 0.020517712 0.0047857156
0000d0 cd c0 28 3c 3a 3d 20 3d 71 74 49 3c 66 a7 70 3c
       0.010299874 0.03912089 0.012295828 0.014688348
0000e0 d8 15 b3 3c 69 de ae 3b 47 d8 ac 3c dc 08 6f 3c
       0.021861002 0.005336572 0.021099223 0.014589515
0000f0 2d 4f 67 3c b2 78 00 3d 3a 45 4e 3c 5e 4d 94 3c
       0.014117998 0.031365104 0.012589747 0.018103298
000100 9d 90 fd 3b d2 9e 8e ba ed 87 33 3b 41 36 91 3c
       0.0077381865 -0.0010881072 0.002739425 0.017726066
000110 73 15 a8 3c d8 4f d6 3b 10 b0 65 3c 6b a2 ee 3b
       0.02051804 0.00654028 0.014019027 0.0072825453
000120 f9 f9 40 3c b7 cf 2f 3c bf 0e 60 3c 7f 7e 4f 3c
       0.011778348 0.010730675 0.013675391 0.012664436
000130 6c b3 4a 3c 20 f8 97 3c b8 6f 66 3c ca 4b 83 3c
       0.012371879 0.018550932 0.014064722 0.01602735
000140 57 c8 bf 3c 99 e9 2a 3c 70 c8 a4 3c 8d ff ad 3c
       0.02341096 0.010431671 0.020115107 0.02124002
000150 73 dc e4 3c 71 1f ff 3b 5c 51 b0 3c 53 08 bf 3c
       0.02793715 0.0077857305 0.02152317 0.023319399
000160 f7 20 f4 3b 85 f3 4b 3c 74 d8 89 3b da c2 e3 3b
       0.007450219 0.012448196 0.0042067114 0.0069507184
000170 b4 c0 67 3b 39 3a dc 3c 74 07 fd 3c c9 10 00 bb
       0.0035362663 0.026883231 0.030887343 -0.0019541255
000180 24 fb 02 3c 0b 2d 0e 3d cf 6f 4d 3c 10 df 75 3c
       0.007994447 0.034710925 0.012538864 0.0150067955
000190 2c 0e 83 3c 36 6b 9d 3b f2 b4 2d 3c fe 4f 18 3c
       0.015997969 0.0048040403 0.010602223 0.009296415
0001a0 93 fc 0c 3c d0 58 3f 3b 30 67 c0 3c 7a 83 75 3c
       0.00860514 0.0029197223 0.023486704 0.01498496
0001b0 fa ae 79 3c ca 09 bf 3c 71 07 3b 3c d5 65 86 3c
       0.015239472 0.023320097 0.011415348 0.01640598
0001c0 7a cd 8f 3b 18 3d 34 3a 41 4a d3 3c 92 24 f8 3b
       0.0043885084 0.0006875559 0.025792243 0.007572719
0001d0 e8 53 32 3d 2d c1 66 3c 86 81 19 3c fb 67 47 3b
       0.04353705 0.014084143 0.00936926 0.0030426967
0001e0 8c be 97 3b cf 72 86 3c 3e e8 54 bb 7b 7d 22 3c
       0.0046308693 0.016412167 -0.003248706 0.009917612
0001f0 cf 9e 45 bb 73 16 93 3b 6a 59 70 3c 99 f8 5c 3c
       -0.0030154472 0.00448876 0.0146697555 0.013487005
000200 bd 2e 1d bb 5a 18 79 3b 8c 65 22 3a f7 78 4e bc
       -0.0023984157 0.00380089 0.0006194941 -0.012602082
000210 1b d9 5c bb 90 ef e1 ba c5 e5 7a ba 67 a6 90 bb
       -0.003369874 -0.0017237533 -0.00095709815 -0.004414368
000220 32 98 a7 3a 6f 35 82 bb 13 21 5b bc 82 d7 b5 bb
       0.0012786447 -0.003973655 -0.013374585 -0.005549372
000230 bf ae e3 ba 16 e0 10 3c 90 1d 4c ba 64 91 2e 3b
       -0.0017370804 0.008842489 -0.00077863876 0.0026636953
000240 40 20 99 ba 3c 20 51 3b 13 49 f8 39 c5 ff 4e bb
       -0.0011682585 0.0031910082 0.0004735669 -0.0031585556
000250 46 7d 8b bc e9 7d ac bb 59 9c 47 3a 55 1a d5 bb
       -0.017027508 -0.005264033 0.0007614545 -0.006503383
000260 fc 71 ad ba 36 3f a6 bc bb 17 d5 b9 6f f6 96 3b
       -0.0013232823 -0.020293813 -0.00040644206 0.004607014
000270 cc 83 c3 ba 1a 73 34 bb e6 17 ce 3b 8d f4 35 bb
       -0.0014916598 -0.0027534426 0.00628947 -0.0027764172
000280 71 db 8f bc df 76 d5 bb ad 41 21 bc d7 70 e4 3a
       -0.017560693 -0.0065144147 -0.0098423185 0.0017428648
000290 e5 6e 00 3c 14 e8 c2 3b 1d 2c 3e 3c 66 1f 4b bc
       0.007838939 0.005948076 0.011607197 -0.012397623
0002a0 24 b9 8a bb 44 f9 52 3a 52 a1 0c bb 5c 11 2d bb
       -0.0042334963 0.0008048008 -0.002145846 -0.0026408052
0002b0 e1 74 5d 3c 8a 94 20 ba 6d 7e ea bb 3b 27 d3 ba
       0.013516636 -0.00061256497 -0.0071561844 -0.0016109714
0002c0 1b f8 bf ba df 59 db bb 05 bc bf ba da 59 4e ba
       -0.0014646085 -0.006694063 -0.0014628178 -0.00078716653
0002d0 28 84 76 bb e0 7d 67 bc db 22 5a bb 57 78 1f 3b
       -0.0037615392 -0.014129132 -0.0033284936 0.0024333203
0002e0 c4 76 a0 3a 22 7f 6f 39 b4 fc 4c 3a 51 36 d1 b9
       0.0012242426 0.00022840177 0.0007819638 -0.00039904055
0002f0 c2 5f c2 bb 9a 15 05 bb c5 bf ba bb ec 6d e3 bb
       -0.0059318254 -0.0020307065 -0.0056991302 -0.006940594
000300 6b b9 86 3a 59 83 69 39 79 7a c1 3a c6 0a 49 bb
       0.0010278648 0.00022269542 0.0014761231 -0.0030676587
000310 9a 3d b9 bb 8f e0 5b 3b 09 ad a2 ba b8 ae 32 bc
       -0.0056530954 0.0033550595 -0.0012411188 -0.010905914
000320 64 9f ad 3c 11 6c 42 3a 02 71 3b bb 39 b6 44 39
       0.021194167 0.0007416616 -0.0028601293 0.000187599
000330 17 db 5e bb 72 4e 03 3b 38 88 b1 ba 33 b1 ba 3a
       -0.00340051 0.002003577 -0.0013544625 0.0014243483
000340 1a be de 37 38 34 50 bb 4f 8a 4e ba 3e 09 65 bc
       2.6552985e-05 -0.0031769406 -0.0007878886 -0.013979254
000350 95 1c 82 3b a8 c5 90 3b 33 a6 82 39 d1 e7 c5 bb
       0.0039706924 0.0044180937 0.0002491936 -0.0060395976
000360 31 9e de 3a fa 35 1f 3b 5e 58 ad bb b7 d9 c4 3a
       0.00169844 0.0024293647 -0.005290075 0.0015018497
000370 2a 27 e8 bb 95 28 b8 bb 26 fb 3c bc 56 66 d5 bb
       -0.007084747 -0.005620072 -0.011534488 -0.0065124435
000380 94 d3 0c bb 8a c5 68 bb 4f 6e a5 ba 79 b6 97 bb
       -0.0021488415 -0.0035518133 -0.0012621375 -0.0046299067
000390 ce 31 01 b9 cc 45 5a b9 a4 39 5b 3c 81 8f c4 bb
       -0.00012320952 -0.00020816101 0.013380442 -0.0059985523
0003a0 a3 88 ef b9 02 25 11 3a dc 63 6a ba 5d 00 6c 3c
       -0.00045687435 0.00055368256 -0.0008941272 0.0144043835
0003b0 1d b9 a2 3b ca df 8e bb b9 09 f2 bb 9d 06 d9 ba
       0.004965915 -0.004360174 -0.007386413 -0.0016557757
0003c0 c9 84 60 bb 0b 9c 2a bb c9 c3 54 3a b8 c1 4f 3b
       -0.0034258834 -0.002603295 0.00081163325 0.0031701159
0003d0 9d 07 65 bc ef 88 01 3c d3 f0 58 bb dc fc 5e b9
       -0.013978866 0.007906183 -0.0033102527 -0.00021265767
0003e0 91 99 66 3b 72 b8 80 3b 09 f4 82 bb 8f ca 5f ba
       0.0035186748 0.0039282376 -0.0039963764 -0.00085369585
0003f0 34 cd 3e 3b 8e 6c 9f bb 6c cd 4c bb b6 79 ab ba
       0.002911401 -0.0048652356 -0.003125037 -0.0013082537

mu.4.bias f4 [4]
000000 d4 fc 8b 3c b6 71 39 bb 32 75 8f 3c 14 05 ac 38
       0.017088331 -0.0028296537 0.017511938 8.202545e-05
