experiments/data/sawyer_clutter_200steps_10H/mpc/2021-06-11_09-04-18_clutter_200steps_10H/model_4800.pt (torch_old, 358080 bytes, 12 tensors)

log_std f4 [1, 12]
-1.7648941 -1.385956 -1.2672259 -0.8316398 -1.0706551 -0.7431855 -1.1587738 -0.9530522
-1.3768337 -1.2999324 -2.1345956 -2.2464285
00000000: 0de8 e1bf 0267 b1bf 7534 a2bf 59e6 54bf
00000010: 3a0b 89bf 6841 3ebf b352 94bf 3bfb 73bf
00000020: 163c b0bf 2f64 a6bf 379d 08c0 7cc5 0fc0

mu.0.weight f4 [200, 14]
0.29129067 -0.26613337 -0.6740158 -0.46075746 -0.1921346 0.16734831 0.0628861 0.08151187
-0.23831025 0.01799081 -0.21072246 -0.3660923 -0.23031817 -0.45711842 -0.01854761 -0.30368367
-0.28891098 -0.1426037 0.101323634 0.1776331 0.23464847 0.25672907 -0.18795495 0.007673142
-0.041502807 -0.43489155 0.66884565 -0.19162266 -0.04736817 0.13738084 0.07088357 -0.08824265
0.019617677 0.09477872 -0.29484686 -0.33315745 0.07146389 0.061228618 0.39534768 -0.29480165
-0.2248724 0.2981791 0.17097057 0.37572807 0.05371914 -0.14144027 -0.36150917 -0.22876152
0.36225736 -0.16812076 0.24919662 0.28124633 -0.17280446 -0.3916998 -0.8693007 -0.39862695
-0.14282839 -0.29951975 0.36432242 0.036940698 -0.42077082 -0.09337099 -0.32949248 -0.34069964
-0.04570314 0.2992014 -0.19751818 0.4153592 0.35621488 0.29873553 -0.25316802 -0.28986362
0.23728535 -0.22391759 0.12517084 0.37348714 -0.012832796 0.24809633 -0.024384877 0.12177035
-0.24024846 0.23048985 0.281388 0.8162554 0.120341085 0.06601408 -0.08619404 0.0673469
0.15018883 0.22496589 0.16345836 0.30068153 -0.2678053 0.15791719 -0.12019812 0.5264154
-0.4843436 -0.67810273 -0.3610655 -0.23505774 -0.1690917 0.11139113 0.23808004 -0.0034746656
-0.18289456 0.033667002 0.19156 -0.041193042 -0.53693074 -0.33340573 0.08504299 0.6299559
0.047594216 -0.63238186 0.34398052 -0.32127997 0.08740269 -0.010640752 -0.42490375 0.13842015
0.14082707 0.3524515 0.110721916 -0.12860149 0.6419716 -0.6224322 -0.34286186 -0.4478265
0.28401908 0.19983327 0.087404385 -0.19667779 -0.1024289 -0.33223784 0.26819193 0.22740436
-0.4999184 -0.31408262 0.14650247 -0.025538873 0.18052897 -0.13827705 0.07623886 0.167372
0.08369003 0.12606642 -0.13341951 -0.38591334 0.16593069 -0.34946346 0.44788638 0.37783742
-0.6344854 0.12385028 0.14800426 -0.025864227 -0.23026669 -0.33237487 -0.13301787 -0.1731051
0.1429039 0.3995475 0.18327942 0.15050627 0.012736227 -0.575958 -0.6119946 0.19707884
0.11956404 -0.37987322 -0.06527275 0.13513911 0.29204473 -0.107888445 -0.39477628 -0.15581483
-0.45418525 0.20198521 -0.41352198 -0.32174605 0.11675156 0.67272264 -0.32140088 -0.31107298
-0.3391943 0.116321206 -0.39672923 0.3656284 0.11092667 -0.17771769 -0.10972286 0.040285077
-0.241402 0.2667534 0.26842055 0.081126325 -0.3422807 0.5614005 0.24880135 0.3354912
-0.31290913 -0.23026411 0.3089309 -0.018085867 -0.1134183 -0.26886663 -0.02608445 0.32925957
-0.12095188 -0.55157834 -0.105231956 0.2551211 -0.05295414 0.20240021 -0.2799794 0.2583149
-0.38150004 0.3012204 -0.22604322 0.030599816 -0.14784887 0.20262867 0.24192521 0.05437198
0.24644358 0.02807652 -0.28330347 0.21269818 -0.38655153 0.06266222 0.074987814 0.29124808
-0.336389 0.30520782 -0.36774492 0.021929955 -0.10292075 -0.0015720801 -0.20005636 -0.1562044
-0.1366936 0.42360565 0.3067088 -7.0121794e-05 -0.110979065 -0.013881499 -0.09496052 0.035274033
0.30762562 0.28553578 0.45735338 -0.6067681 0.24051073 0.23011553 0.1546773 0.09994036
00000000: 0d24 953e a242 88be 4d8c 2cbf 67e8 ebbe
00000010: efbe 44be 5b5d 2b3e 6dca 803d b2ef a63d
00000020: 9a07 74be 7761 933c a1c7 57be 7370 bbbe
00000030: 87d8 6bbe 6d0b eabe 28f1 97bc 6d7c 9bbe
00000040: 24ec 93be b406 12be c482 cf3d 74e5 353e
00000050: b047 703e fe71 833e 4377 40be fb6e fb3b
00000060: d9fe 29bd 1baa debe 7839 2b3f bb38 44be
00000070: 2005 42bd 90ad 0c3e 682b 913d 90b8 b4bd
00000080: 40b5 a03c 581b c23d 2bf6 96be 9d93 aabe
00000090: a95b 923d dcca 7a3d 036b ca3e 3ef0 96be
000000a0: f344 66be eeaa 983e e912 2f3e 6e5f c03e
000000b0: 9a08 5c3d b8d5 10be bb17 b9be 7640 6abe
000000c0: cc79 b93e d927 2cbe 662d 7f3e 85ff 8f3e
000000d0: a7f3 30be e08c c8be 7e8a 5ebf d518 ccbe
000000e0: 9b41 12be a75a 99be 7888 ba3e 214f 173d
000000f0: 466f d7be 4a39 bfbd 3db3 a8be 2f70 aebe
00000100: 3733 3bbd ed30 993e 3542 4abe f6a9 d43e
00000110: cc61 b63e ddf3 983e 3d9f 81be 0169 94be
00000120: eefa 723e a74a 65be c92c 003e b539 bf3e
00000130: a640 52bc f70c 7e3e cbc2 c7bc bc62 f93d
00000140: b103 76be 8805 6c3e 1712 903e 1df6 503f
00000150: 6375 f63d 6432 873d 8086 b0bd 2ced 893d
00000160: 1acb 193e 755d 663e a161 273e eef2 993e
00000170: c71d 89be 0bb5 213e 6f2a f6bd 29c3 063f
00000180: e2fb f7be 2498 2dbf 94dd b8be fab2 70be
00000190: 6026 2dbe 0821 e43d 41cb 733e 37b7 63bb
000001a0: b648 3bbe 69e6 093d 4e28 443e 09ba 28bd
000001b0: 4b74 09bf 28b4 aabe 052b ae3d ca44 213f
000001c0: 27f2 423d c7e3 21bf 371e b03e cf7e a4be
000001d0: 2e00 b33d 8c56 2ebc fc8c d9be 03be 0d3e
000001e0: f934 103e 8674 b43e 2cc2 e23d 1cb0 03be
000001f0: 4058 243f b757 1fbf 978b afbe 8449 e5be
00000200: f36a 913e 18a1 4c3e 1201 b33d e765 49be
00000210: 3ec6 d1bd 141b aabe 7450 893e b0dc 683e
00000220: 4ef5 ffbe 70cf a0be be04 163e e636 d1bc
00000230: 96dc 383e 8098 0dbe 1f23 9c3d 9163 2b3e
00000240: ae65 ab3d 8e17 013e 209f 08be 6f96 c5be
00000250: bce9 293e e0ec b2be 5d51 e53e e873 c13e
00000260: a36d 22bf 37a5 fd3d 6e8e 173e 37e1 d3bc
00000270: 08cb 6bbe 0a2d aabe d635 08be 7742 31be
00000280: 6655 123e 7d91 cc3e 9aad 3b3e 511e 1a3e
00000290: 9cab 503c fc71 13bf aeab 1cbf 09cf 493e
000002a0: fedd f43d be7e c2be b8ad 85bd e861 0a3e
000002b0: e386 953e 9ef4 dcbd 1e20 cabe ec8d 1fbe
000002c0: f88a e8be 36d5 4e3e 27b9 d3be e6bb a4be
000002d0: 711b ef3d 8d37 2c3f a88e a4be f544 9fbe
000002e0: e0aa adbe d039 ee3d 1820 cbbe a533 bb3e
000002f0: 862d e33d a0fb 35be 61b6 e0bd f701 253d
00000300: 1632 77be e793 883e 6b6e 893e 8f25 a63d
00000310: 6a3f afbe f1b7 0f3f c8c5 7e3e 81c5 ab3e
00000320: a035 a0be 5bca 6bbe 312c 9e3e d028 94bc
00000330: db47 e8bd e3a8 89be 0eaf d5bc b694 a83e
00000340: 9fb5 f7bd 3d34 0dbf da83 d7bd 3c9f 823e
00000350: 71e6 58bd 0042 4f3e 7659 8fbe da41 843e
00000360: f953 c3be 8f39 9a3e e077 67be 77ac fa3c
00000370: b265 17be e47d 4f3e 3ebb 773e 27b5 5e3d
00000380: b55b 7c3e bb00 e63c 270d 91be 8dcd 593e
00000390: 15ea c5be 0d55 803d 3693 993d 781e 953e
000003a0: 2e3b acbe 3344 9c3e 1049 bcbe 73a6 b33c
000003b0: 1dc8 d2bd 410e ceba 93db 4cbe 0cf4 1fbe
000003c0: 68f9 0bbe d7e2 d83e f008 9d3e 5a0e 93b8
000003d0: fe48 e3bd 3a6f 63bc a97a c2bd 817b 103d
000003e0: 1b81 9d3e bf31 923e 392a ea3e 2755 1bbf
000003f0: 7248 763e 68a3 6b3e ba63 1e3e 88ad cc3d

mu.0.bias f4 [200]
0.18186146 0.08256912 -0.13394381 0.16038454 -0.047282845 0.062129457 0.04165259 0.0527694
0.0060164756 -0.27538764 0.19707826 -0.28038508 0.018072052 0.008279914 0.0892954 -0.18641469
0.2180825 -0.20893651 0.3884335 0.20062245 0.35893983 0.16688937 -0.09341848 -0.0054593803
-0.034198437 0.23628148 -0.15241686 0.12538683 0.2977953 -0.18206547 -0.3435464 0.27246416
0.28318998 -0.09628398 0.31616676 0.048222262 0.19648091 -0.29010674 -0.09903101 -0.19448854
-0.31867218 -0.07815866 0.29538608 -0.19309752 -0.21409827 0.27133003 -0.011258346 0.047519185
0.1507465 -0.047999296 -0.18135317 -0.06252096 0.004704671 0.16647984 -0.06415212 -0.20877092
-0.24114396 -0.13726836 -0.0075904857 0.14945091 0.27833122 0.0878402 0.1445933 -0.14617896
-0.09134444 0.11890316 -0.29767153 0.3226028 0.042759005 -0.17666045 -0.038768273 -0.09029775
0.22904767 -0.07320607 0.06763032 0.4410931 -0.2301087 0.06130179 -0.10844744 -0.08787492
-0.23536238 0.051171836 0.06737624 0.05297138 -0.04647198 -0.07758201 -0.109022334 0.23354661
0.006190904 0.2604794 0.2523844 -0.047927108 -0.21826926 0.13152069 0.15389346 -0.35435578
0.023793953 0.1371276 0.13433819 -0.13279456 -0.18520115 0.30270392 0.14811228 0.45879388
-0.15249434 0.11418916 -0.13418652 0.16389887 0.15507485 -0.15686597 0.09499797 0.15722285
-0.0592804 -0.03009003 0.14515874 -0.23379754 -0.05476512 -0.14981683 0.22762732 0.1115353
0.1453783 0.076402165 -0.41685146 0.12984614 -0.1957882 -0.293583 -0.1309408 -0.16440623
0.011017464 -0.17984238 0.09887786 0.17492479 0.18791056 -0.24018006 0.13105777 -0.3746487
-0.19053777 0.19324224 0.0713647 -0.13875188 -0.12014124 0.009658586 -0.017904565 -0.09416615
-0.09465268 -0.31137297 -0.14654835 0.031562105 -0.21549803 0.09025726 0.0039963643 -0.02591988
-0.057195913 0.07594852 -0.26997203 -0.020844938 0.017689133 0.16303053 -0.03992567 -0.060133856
0.37304083 -0.013374501 0.15724391 -0.2203303 0.124999076 0.1456942 -0.116804175 0.22460629
0.22916307 -0.09887442 -0.15695259 -0.32291287 -0.18447627 0.16836227 0.27333036 0.117638625
0.34679547 -0.2366227 -0.00979494 0.12895215 0.05253783 -0.17331402 0.27234766 0.04270535
-0.32484424 -0.0846869 0.07818341 0.13723624 -0.04547359 -0.050317857 0.17131492 0.1412146
0.14184333 -0.052251622 -0.12169585 -0.1148706 -0.18445961 -0.26605842 -0.26602584 -0.3082506
00000000: e439 3a3e 001a a93d 9128 09be d83b 243e
00000010: a8ab 41bd 757b 7e3d e89b 2a3d ba24 583d
00000020: db25 c53b 9cff 8cbe e2ce 493e a28e 8fbe
00000030: d70b 943c 7aa8 073c 82e0 b63d 7ee3 3ebe
00000040: 0551 5f3e 74f3 55be c1e0 c63e f96f 4d3e
00000050: f6c6 b73e 0ce5 2a3e 3052 bfbd 9ae4 b2bb
00000060: a913 0cbd c6f3 713e 2a13 1cbe 6865 003e
00000070: a078 983e 5f6f 3abe 50e5 afbe 6c80 8b3e
00000080: 47fe 903e 8930 c5bd 9ce0 a13e b584 453d
00000090: 4b32 493e df88 94be c5d0 cabd 0128 47be
000000a0: 0029 a3be a611 a0bd d83c 973e 5bbb 45be
000000b0: 943c 5bbe c5eb 8a3e ed74 38bc 7aa3 423d
000000c0: 4a5d 1a3e e99a 44bd a5b4 39be fd0a 80bd
000000d0: a429 9a3b b179 2a3e 3062 83bd 0bc8 55be
000000e0: 71ee 76be 1490 0cbe 9cb9 f8bb a909 193e
000000f0: 6e81 8e3e 90e5 b33d 4410 143e f0af 15be
00000100: cb12 bbbd 8083 f33d 6768 98be 322c a53e
00000110: 1124 2f3d 7ae6 34be 7bcb 1ebd 07ee b8bd
00000120: 798b 6a3e 10ed 95bd c481 8a3d f4d6 e13e
00000130: 9da1 6bbe 9617 7b3d b119 debd c4f7 b3bd
00000140: d602 71be 8f99 513d 8efc 893d 85f8 583d
00000150: 6759 3ebd 51e3 9ebd 1a47 dfbd d826 6f3e
00000160: 11dd ca3b 8e5d 853e 8738 813e 374f 44bd
00000170: fa81 5fbe 5cad 063e 3f96 1d3e 1f6e b5be
00000180: 89eb c23c 2d6b 0c3e f38f 093e 4cfb 07be
00000190: 5fa5 3dbe 02fc 9a3e bfaa 173e 08e7 ea3e
000001a0: 7a27 1cbe 02dc e93d 3168 09be 1bd5 273e
000001b0: f1cb 1e3e 79a1 20be 4c8e c23d 07ff 203e
000001c0: 01d0 72bd 5e7f f6bc 7ea4 143e 9f68 6fbe
000001d0: 6451 60bd 9569 19be 2317 693e 9f6c e43d
000001e0: 0dde 143e bd78 9c3d 8e6d d5be 63f6 043e
000001f0: b47c 48be 8350 96be 5815 06be 1b5a 28be
00000200: 9882 343c 9a28 38be 7a80 ca3d 7c1f 333e
00000210: a06b 403e c3f1 75be 0234 063e f4d1 bfbe
00000220: 551c 43be 4be1 453e a827 923d f914 0ebe
00000230: 9c0c f6bd 0c3f 1e3c 98ac 92bc 2fda c0bd
00000240: 44d9 c1bd 476c 9fbe c510 16be 4447 013d
00000250: 84ab 5cbe ccd8 b83d eff3 823b ee55 d4bc
00000260: 4346 6abd e68a 9b3d c639 8abe 01c3 aabc
00000270: cde8 903c 7af1 263e 1989 23bd eb4e 76bd
00000280: 35ff be3e b920 5bbc 8c04 213e 449e 61be
00000290: 84ff ff3d dc30 153e 0737 efbd 31ff 653e
000002a0: b9a9 6a3e ac7e cabd 2eb8 20be d654 a5be
000002b0: 59e7 3cbe 2967 2c3e f5f1 8b3e 85ec f03d
000002c0: 2d8f b13e 394d 72be f57a 20bc 080c 043e
000002d0: e831 573d 3b79 31be 2771 8b3e ceeb 2e3d
000002e0: fc51 a6be 5370 adbd a01e a03d a887 0c3e
000002f0: 8442 3abd 191a 4ebd 2e6d 2f3e 8f9a 103e
00000300: 613f 113e cc05 56bd ac3b f9bd 4741 ebbd
00000310: fbe2 3cbe cf38 88be 8a34 88be 06d3 9dbe

mu.2.weight f4 [200, 200]
0.04336449 -0.022484392 -0.003923002 0.044129573 4.8836413e-05 -0.9119682 0.14532202 -0.36762762
-0.1485496 -0.43522942 0.27783695 -0.30554554 0.08758448 -0.06879586 0.04119184 -0.13115121
0.21921349 -0.0097522475 0.093426496 0.011078724 0.050545838 -0.07216999 -0.4048796 0.06852225
0.2584007 -0.08005857 0.16198537 0.075477675 -0.24076754 -0.18873288 -0.22214362 -0.19541933
0.03665218 0.13842325 0.2032096 0.045822747 -0.05100679 0.12508282 -0.01526982 0.029843722
-0.06231275 0.0803226 -0.5116508 -0.13124275 0.357694 -0.23367353 0.06044117 0.115748405
-0.009947559 -0.076961346 0.15495518 -0.19082914 -0.055198852 -0.15386705 0.16050678 0.30110487
0.2419796 0.35643566 0.080473155 0.007701155 -0.08359899 0.11853073 -0.1762832 0.119008705
0.12688884 -0.044890016 -0.15432976 0.026434034 -0.043052673 -0.15110306 0.31663632 0.23249571
-0.046565343 0.050204482 0.10039733 0.05526683 0.032019224 0.08818371 -0.027550468 -0.20735905
-0.093286045 -0.3968833 -0.01921897 -0.089350015 -0.24957597 0.1111264 -0.08462849 -0.28349364
-0.15999117 0.14098252 0.11089443 0.17111643 -0.047698524 -0.048718315 0.046868347 -0.24583398
0.09589617 0.09259981 0.12974752 0.11491375 -0.2327966 -0.089236826 0.13281035 -0.009462487
-0.10225185 -0.0044603087 -0.13770078 0.081474386 -0.25577876 0.1963655 0.27254418 0.030313296
-0.6904951 -0.29742977 -0.07456092 -0.080955334 0.09014555 0.028566308 0.0646302 0.057076998
-0.012966085 -0.12712912 -0.10778521 -0.24460009 0.09309921 -0.405537 -0.21615902 0.23283371
0.14971311 -0.008837753 -0.047179148 0.21728857 -0.14566614 -0.27109733 0.06899417 0.06615587
0.112324886 0.044126526 -0.17276806 -0.2957053 0.013810035 0.031759094 -0.30075634 0.05591723
0.047956217 0.23477829 -0.46098453 -0.32189512 -0.3239782 -0.035178736 0.07424453 -0.0814845
-0.08027532 -0.09470152 0.025799358 0.053258695 -0.07413929 -0.2049945 -0.19244999 -0.14130327
-0.046606556 0.3215828 -0.09734512 -0.25841415 0.135924 0.083744146 -0.24975803 -0.03042643
0.15917388 -0.25434294 -0.06477467 -0.29671326 0.22131926 -0.19849771 -0.030360064 -0.051027223
-0.10125698 0.17560197 -0.3875108 -0.049522832 -0.26771146 0.029896665 -0.14715493 -0.039400954
-0.4307367 -0.04550511 0.08354097 -0.13052657 0.4634825 -0.12844774 -0.27282828 0.091232724
-0.13051628 -0.01889263 0.09386982 -0.11937048 -0.0537537 0.026764058 -0.117221326 0.20874833
0.12267438 0.081805214 0.055086236 -0.52317023 0.060840078 -0.03548221 -0.15975016 0.14632142
0.007116657 0.0568689 0.050401505 -0.0078074005 0.06663228 -0.0070270267 -0.1517714 0.050865557
0.032458838 -0.118454 -0.042970072 0.051132478 -0.13905072 -0.031112596 -0.05546191 -0.09981301
0.13779144 0.0027296222 -0.18056378 -0.25346592 -0.00914367 0.04785986 0.012577533 0.047516193
0.030598339 -0.008472631 -0.04069128 0.18660934 -0.08007665 0.036080252 0.15590419 0.30892837
-0.009205484 -0.03615122 0.1949792 -0.35373175 0.0018375246 0.12592669 0.13174294 -0.016157292
0.15797047 -0.016827237 -0.42963704 -0.16842526 -0.19793615 -0.12971269 -0.06572558 0.0021837624
00000000: f79e 313d 3031 b8bc 878c 80bb 36c1 343d
00000010: b3d5 4c38 bf76 69bf 4ccf 143e b039 bcbe
00000020: 631d 18be 64d6 debe a540 8e3e 7770 9cbe
00000030: 7e5f b33d d8e4 8cbd c6b8 283d 814c 06be
00000040: 8079 603e e4c7 1fbc 6456 bf3d 8983 353c
00000050: 2709 4f3d dccd 93bd 614c cfbe 6555 8c3d
00000060: 194d 843e bff5 a3bd 7edf 253e 0a94 9a3d
00000070: c48b 76be 3143 41be 9e79 63be 011c 48be
00000080: 9920 163d d3be 0d3e 2d16 503e a2b0 3b3d
00000090: 7fec 50bd b615 003e 442e 7abc d27a f43c
000000a0: a73b 7fbd 2d80 a43d 8cfb 02bf 8064 06be
000000b0: ab23 b73e 1d48 6fbe 2991 773d 800d ed3d
000000c0: 16fb 22bc e99d 9dbd 92ac 1e3e b768 43be
000000d0: 3118 62bd 538f 1dbe e45b 243e 6b2a 9a3e
000000e0: 80c9 773e bc7e b63e 1ccf a43d f859 fc3b
000000f0: f335 abbd 3dc0 f23d 9583 34be d6ba f33d
00000100: 26ef 013e 98de 37bd 9f08 1ebe 308c d83c
00000110: 0058 30bd c3ba 1abe 281e a23e 5b13 6e3e
00000120: 4dbb 3ebd 37a3 4d3d 1e9d cd3d 795f 623d
00000130: 9726 033d a999 b43d 85b1 e1bc ee55 54be
00000140: c10c bfbd 4a34 cbbe 1a71 9dbc 24fd b6bd
00000150: d890 7fbe 3d96 e33d b451 adbd 1426 91be
00000160: bad4 23be b95d 103e 9e1c e33d 2539 2f3e
00000170: 875f 43bd db8c 47bd 06f9 3f3d e7bb 7bbe
00000180: 3665 c43d f8a4 bd3d 89dc 043e e657 eb3d
00000190: 3b62 6ebe ccc1 b6bd 70ff 073e 8c08 1bbc
000001a0: 6b69 d1bd c827 92bb 6f01 0dbe 0bdc a63d
000001b0: 6ff5 82be 0a14 493e e98a 8b3e 9753 f83c
000001c0: 49c4 30bf b748 98be 65b3 98bd e9cb a5bd
000001d0: 3b9e b83d e403 ea3c d75c 843d 92c9 693d
000001e0: b46f 54bc 232e 02be 7ebe dcbd 7278 7abe
000001f0: ccaa be3d 8ca2 cfbe ca58 5dbe f66b 6e3e
00000200: 654e 193e 39cc 10bc ec3e 41bd e580 5e3e
00000210: 8129 15be 45cd 8abe d14c 8d3d bb7c 873d
00000220: 970a e63d 04be 343d 1cea 30be af66 97be
00000230: 7c43 623c d315 023d bcfc 99be 7709 653d
00000240: bd6d 443d b869 703e 2a06 ecbe 70cf a4be
00000250: 78e0 a5be 9417 10bd 840d 983d 58e1 a6bd
00000260: 6367 a4bd dff2 c1bd 2d59 d33c ca25 5a3d
00000270: 57d6 97bd 14ea 51be 9c11 45be ceb1 10be
00000280: 84e6 3ebd 80a6 a43e e15c c7bd dc4e 84be
00000290: a92f 0b3e 0d82 ab3d 92c0 7fbe d940 f9bc
000002a0: 7afe 223e 3d39 82be 95a8 84bd cdea 97be
000002b0: 84a1 623e fc42 4bbe abb5 f8bc ec01 51bd
000002c0: d25f cfbd 01d1 333e d167 c6be 74d8 4abd
000002d0: 7a11 89be dae9 f43c c8af 16be e562 21bd
000002e0: 8589 dcbe 9163 3abd 8717 ab3d c2a8 05be
000002f0: 944d ed3e ce87 03be 26b0 8bbe 39d8 ba3d
00000300: 0fa6 05be b7c4 9abc d23e c03d 8378 f4bd
00000310: d72c 5cbd 4c40 db3c bc11 f0bd 1fc2 553e
00000320: b53c fb3d 7e89 a73d 1ba2 613d 7cee 05bf
00000330: 7233 793d cb55 11bd 8c95 23be 48d5 153e
00000340: d932 e93b 5def 683d cf71 4e3d 39d5 ffbb
00000350: 8176 883d f942 e6bb f669 1bbe 6758 503d
00000360: 8ff3 043d 0398 f2bd 6301 30bd 4a70 513d
00000370: 5063 0ebe d8df febc 072c 63bd c36a ccbd
00000380: 3319 0d3e 76e3 323b b6e5 38be 49c6 81be
00000390: 55cf 15bc b308 443d ff11 4e3c 57a0 423d
000003a0: 5ea9 fa3c cad0 0abc e6ab 26bd 8516 3f3e
000003b0: 3aff a3bd e3c8 133d 59a5 1f3e dc2b 9e3e
000003c0: 99d2 16bc 4d13 14bd a1a8 473e 541c b5be
000003d0: 18d9 f03a edf2 003e 9fe7 063e 4c5c 84bc
000003e0: 03c3 213e 46d9 89bc 63f9 dbbe ac77 2cbe
000003f0: c6af 4abe 67d3 04be 229b 86bd 741d 0f3b

mu.2.bias f4 [200]
-0.038597815 0.021221424 -0.060829166 0.023420313 -0.08278737 -0.08888364 0.008535177 0.038043868
-0.026502438 0.053910587 -0.035405077 0.042268597 -0.029457506 -0.025636984 0.053281706 0.04770926
0.11170587 0.029191446 0.06555585 0.112678476 0.10418886 -0.017409205 0.040075224 -0.00460255
-0.015707152 0.028687665 -0.052938424 -0.08730243 0.016850494 0.038183015 0.043749407 -0.04929712
0.10348236 -0.06530886 0.06529952 -0.034964778 0.027589764 -0.013522456 0.061835565 -0.033284362
-0.011739678 0.051478714 0.037250735 0.13497123 0.085231245 -0.073303096 0.09416207 -0.01196583
0.050098892 -0.07568946 0.073186286 0.12298814 0.08396418 0.023700584 -0.03922176 0.004354094
0.12899013 0.036245115 0.029007606 -0.0075452556 -0.07903163 0.059684064 -0.07031379 -0.013396398
-0.026661778 0.095136754 0.011128218 0.042032015 -0.058814403 -0.028852254 -0.029687067 -0.053185713
-0.018310612 0.08579742 -0.086669646 -0.048781563 -0.077889085 -0.024290342 0.027642934 0.024282597
0.031357594 -0.062287517 0.04603572 -0.061162826 -0.012433197 0.10597828 0.0030519427 -0.013241638
0.080743596 -0.053368773 0.09025046 -0.049125325 0.0015308803 0.048289355 0.041871425 -0.027836926
-0.01867888 0.10538086 -0.013599353 0.07216676 0.0735186 0.059758134 -0.016513098 0.042632863
-0.021695683 0.09165539 0.016769515 0.04925179 0.02119552 0.014385974 -0.032683805 -0.000573539
-0.0026992934 0.09167749 0.0979213 0.022146674 0.12406429 0.010889612 0.026658718 0.07228163
0.018329905 0.049792964 0.093971215 0.049148735 0.030626955 0.01032062 0.115601726 0.014902622
-0.07626214 0.022717277 0.058139663 0.042698853 0.008938823 0.031093745 0.050371673 -0.07578821
-0.0995319 0.08124537 0.1631616 -0.010435412 -0.0064294934 0.002291959 -0.0012656623 0.0118902065
-0.05645122 -0.05827842 0.046672996 0.044739965 0.027129244 0.09300912 -0.038670883 -0.03011221
-0.02198746 -0.029194778 0.050118886 0.040108357 -0.0039829123 0.033217743 0.044835802 0.06696745
-0.06189497 0.024021685 -0.045731686 0.090539284 0.010363793 0.015858246 -0.02982882 0.013484243
-0.008760847 0.11073399 -0.024119416 0.061405443 0.062835485 -0.012559235 0.009530514 0.042782646
0.043654684 -0.028726982 0.11703406 0.037358716 0.123187505 -0.03269141 -0.011202836 -0.005132115
-0.015656848 -0.008314056 -0.06718397 0.04846522 0.06108726 0.075956896 -0.04530364 -0.06795404
0.01894535 0.045230493 0.10758619 0.0014170128 0.01666026 -0.0119604785 -0.026356421 -0.002405514
00000000: be18 1ebd 8dd8 ad3c 0128 79bd f5db bf3c
00000010: 6d8c a9bd a008 b6bd 21d7 0b3c e3d3 1b3d
00000020: a41b d9bc 59d1 5c3d ea04 11bd d621 2d3d
00000030: de50 f1bc a704 d2bc eb3d 5a3d c96a 433d
00000040: 0cc6 e43d e622 ef3c 2542 863d f9c3 e63d
00000050: f860 d53d c09d 8ebc eb25 243d fdd0 96bb
00000060: 49ac 80bc 6502 eb3c f6d5 58bd 9ecb b2bd
00000070: 0c0a 8a3c cb65 1c3d 9432 333d c7eb 49bd
00000080: 8fee d33d a7c0 85bd c1bb 853d 3a37 0fbd
00000090: ee03 e23c 4b8d 5dbc 4a47 7d3d 2f55 08bd
000000a0: c757 40bc 58db 523d 3a94 183d e635 0a3e
000000b0: b88d ae3d ef1f 96bd 0bd8 c03d 540c 44bc
000000c0: 7f34 4d3d 1303 9bbd b1e2 953d 35e1 fb3d
000000d0: 69f5 ab3d ba27 c23c ffa6 20bd caac 8e3b
000000e0: fd15 043e c275 143d 5ca1 ed3c 313e f7bb
000000f0: 56db a1bd 4777 743d ad00 90bd 917c 5bbc
00000100: cd69 dabc 0fd7 c23d 2153 363c c329 2c3d
00000110: 5fe7 70bd 905b ecbc 4b32 f3bc 43d9 59bd
00000120: 2300 96bc 8fb6 af3d db7f b1bd 2dcf 47bd
00000130: 5084 9fbd 8afc c6bc 6f73 e23c 4cec c63c
00000140: d270 003d 3221 7fbd f38f 3c3d df85 7abd
00000150: 9cb4 4bbc 240b d93d 1a03 483b 75f3 58bc
00000160: e65c a53d 3799 5abd 3cd5 b83d a337 49bd
00000170: d2a7 c83a 0fcb 453d 5f81 2b3d 440a e4bc
00000180: 7304 99bc ecd1 d73d d2cf 5ebc 2bcc 933d
00000190: eb90 963d f2c4 743d 7a46 87bc cc9f 2e3d
000001a0: 25bb b1bc d2b5 bb3d 3960 893c 3fbc 493d
000001b0: 3aa2 ad3c 26b3 6b3c 74df 05bd 8d59 16ba
000001c0: a1e6 30bb 68c1 bb3d f68a c83d f16c b53c
000001d0: 6b15 fe3d 586a 323c 6263 da3c 6408 943d
000001e0: 9928 963c b5f3 4b3d fb73 c03d 2f50 493d
000001f0: 61e5 fa3c d117 293c 99c0 ec3d 212a 743c
00000200: 532f 9cbd 9519 ba3c db23 6e3d fee4 2e3d
00000210: 2474 123c 4fb8 fe3c 8752 4e3d d936 9bbd
00000220: 61d7 cbbd f963 a63d d613 273e 4af9 2abc
00000230: 80ae d2bb b134 163b 94e4 a5ba 24cf 423c
00000240: 6539 67bd 5ab5 6ebd 2f2c 3f3d 4141 373d
00000250: 263e de3c 917b be3d 5c65 1ebd e2ad f6bc
00000260: 0c1f b4bc e329 efbc 7649 4d3d a948 243d
00000270: 1783 82bb 540f 083d bfa5 373d 3b26 893d
00000280: 9485 7dbd 20c9 c43c 2651 3bbd a96c b93d
00000290: e6cc 293c 27e9 813c 925b f4bc 04ed 5c3c
000002a0: a889 0fbc 81c8 e23d 1596 c5bc 4684 7b3d
000002b0: e4af 803d 40c5 4dbc df25 1c3c db3c 2f3d
000002c0: 41cf 323d d954 ebbc 8eaf ef3d 7405 193d
000002d0: bb49 fc3d 6ee7 05bd 1a8c 37bc 4d2b a8bb
000002e0: ca42 80bc ae37 08bc c097 89bd 7783 463d
000002f0: a236 7a3d 4a8f 9b3d 4f90 39bd 7d2b 8bbd
00000300: 4733 9b3c 9c43 393d 2656 dc3d 0fbb b93a
00000310: 197b 883c e2f5 43bc 6ce9 d7bc d4a5 1dbb

mu.4.weight f4 [12, 200]
0.14272729 0.14284101 0.08188771 -0.3833963 0.32213125 0.17130157 -0.08714076 -0.047664013
-0.27495712 -0.15261391 -0.025979746 0.05697135 0.11470705 -0.19526082 0.34023127 -0.012588922
0.080719076 -0.13854131 0.23545662 0.031846933 0.095190056 -0.07020155 0.22166911 -0.14149022
-0.179935 0.5532341 0.1688823 -0.035091292 0.13654277 -0.1681552 -0.106444746 0.18397325
-0.14227194 -0.047819655 -0.010078553 -0.034209024 0.03575748 -0.15245198 -0.029746735 0.23335879
0.13712089 0.016177863 -0.009947449 -0.30292064 -0.25674173 -0.038876593 0.041420855 0.2378747
-0.09529407 -0.0024916905 0.088577144 0.08463138 -0.096941225 -0.0017104233 0.038230248 -0.040940955
0.34807053 0.09022863 0.017101446 0.038637664 0.018020066 -0.0436382 0.025152808 0.124329135
0.3903444 0.06011361 0.08047675 -0.020155411 -0.06614352 -0.11660377 -0.16360813 0.29932496
-0.1732885 -0.022276605 0.14247191 -0.046303395 -0.139132 0.14227973 0.06570728 -0.20730692
0.31754512 0.06669039 0.07590658 0.21861055 -0.11779292 0.027046312 0.012151163 0.19767144
0.027635349 0.07557777 0.15749274 -0.067291 -0.15804103 0.10407218 0.1443265 -0.20084059
-0.046283055 0.038385164 0.12564172 -0.13970116 0.12048474 0.14287911 -0.04770056 -0.1424745
0.09646981 0.036707237 0.2015253 0.07048242 -0.24899934 -0.07055788 0.25623578 0.14886035
0.28894478 -0.09990844 -0.21604688 -0.05695017 -0.045216683 -0.2013142 -0.10093294 -0.089625195
-0.061428137 0.044524066 0.12154695 0.09832365 0.119499326 0.14493786 -0.14025676 0.13590984
-0.056445982 -0.15435801 0.025786797 -0.032908704 -0.17204244 -0.15401676 0.09251308 0.0547213
0.054474104 -0.10711522 0.012267687 -0.043011293 -0.09443396 0.064603664 0.2814159 -0.067765355
0.028388977 -0.012559261 -0.00963243 -0.27423546 0.09009753 -0.045132905 0.043344233 -0.17097566
0.13240753 -0.012410202 -0.16732737 -0.063453875 -0.05317997 -0.008894596 -0.074323066 -0.18283194
0.21726602 -0.18461904 0.2641074 0.54235816 0.09992749 -0.23576312 0.23301014 0.02136238
0.18384525 -0.10025421 0.28565475 -0.06710625 -0.1379665 -0.14503929 0.18345043 0.10382298
-0.12734745 -0.21857119 -0.31388032 0.07350945 -0.23765942 0.014241483 0.002763997 -0.11906186
0.16323903 0.060710747 0.06893209 -0.19153067 0.11991587 0.2073383 0.22830582 0.05835959
0.07630059 0.1342351 0.039714478 -0.00932416 0.2400097 0.23823127 -0.15058157 -0.017448187
-0.0005277916 -0.14758278 -0.1400203 0.04589707 0.4665105 0.0737515 0.13828795 -0.1431325
0.096977234 -0.04988865 0.049363084 -0.15400061 -0.09303761 0.051651962 -0.36574364 0.09044291
-0.41907427 0.012088366 0.21686801 0.18308292 0.10841091 0.029167857 -0.60153425 0.09742676
-0.19367486 0.5283186 0.034062818 0.42859975 0.26708457 -0.09210295 -0.022439647 -0.10563994
0.17182212 0.026769131 0.09640985 0.049897224 0.030869119 0.18887663 -0.07591411 -0.13980979
0.20425393 -0.13149804 0.08531375 0.01290317 -0.052591275 0.0020506466 -0.19268021 0.18321826
-0.27036166 -0.07111186 0.16823667 0.16011229 -0.11689009 0.17751957 -0.44734618 0.15359631
00000000: 1a27 123e ea44 123e beb4 a73d 854c c4be
00000010: 63ee a43e ae69 2f3e db76 b2bd 573b 43bd
00000020: 2ec7 8cbe d246 1cbe 7ad3 d4bc ca5a 693d
00000030: 88eb ea3d 74f2 47be cb32 ae3e c441 4ebc
00000040: 0b50 a53d c6dd 0dbe 8a1b 713e ee71 023d
00000050: 01f3 c23d d5c5 8fbd 3afd 623e d0e2 10be
00000060: e140 38be c0a0 0d3f 7bef 2c3e e3bb 0fbd
00000070: ded1 0b3e e030 2cbe b4ff d9bd 7c63 3c3e
00000080: bcaf 11be 8bde 43bd 8420 25bc c31e 0cbd
00000090: 6f76 123d 5f1c 1cbe 6daf f3bc 9bf5 6e3e
000000a0: 6b69 0c3e 7087 843c a0fa 22bc 6a18 9bbe
000000b0: a773 83be 103d 1fbd eaa8 293d 6d95 733e
000000c0: 8a29 c3bd a14b 23bb ef67 b53d 3853 ad3d
000000d0: 1f89 c6bd 4830 e0ba 5297 1c3d b4b1 27bd
000000e0: 4d36 b23e cac9 b83d 5518 8c3c 8742 1e3d
000000f0: d19e 933c f8bd 32bd 430d ce3c 46a0 fe3d
00000100: 39db c73e b039 763d ffd0 a43d f61c a5bc
00000110: 4176 87bd f5cd eebd e488 27be 1f41 993e
00000120: 8a72 31be 6d7d b6bc 28e4 113e a1a8 3dbd
00000130: 9e78 0ebe c7b1 113e 8a91 863d 4448 54be
00000140: 4695 a23e f994 883d e974 9b3d 72db 5f3e
00000150: 6a3d f1bd 3a90 dd3c ac15 473c 626a 4a3e
00000160: 8763 e23c 85c8 9a3d c745 213e ddcf 89bd
00000170: 82d5 21be cc23 d53d 53ca 133e 28a9 4dbe
00000180: 4d93 3dbd c339 1d3d 39a8 003e d20d 0fbe
00000190: b4c0 f63d e74e 123e aa61 43bd d6e4 11be
000001a0: f791 c53d 545a 163d a65c 4e3e 1659 903d
000001b0: aff9 7ebe a680 90bd 5631 833e d96e 183e
000001c0: 92f0 933e cc9c ccbd 653b 5dbe 9544 69bd
000001d0: 2135 39bd 4f25 4ebe eeb5 cebd 6a8d b7bd
000001e0: 129c 7bbd de5e 363d 9bed f83d e95d c93d
000001f0: 10bc f43d 976a 143e 789f 0fbe f32b 0b3e
00000200: e733 67bd 0710 1ebe d53e d33c 47cb 06bd
00000210: e52b 30be 92b6 1dbe 7f77 bd3d 7123 603d
00000220: 3d20 5f3d 395f dbbd 69fe 483c 9c2c 30bd
00000230: 9866 c1bd ed4e 843d bf15 903e 90c8 8abd
00000240: 0090 e83c 5cc5 4dbc 57d1 1dbc 9768 8cbe
00000250: 0e85 b83d 48dd 38bd b989 313d 3e14 2fbe
00000260: d795 073e 2954 4bbc de57 2bbe 1bf4 81bd
00000270: 3dd3 59bd a4ba 11bc b136 98bd 4c38 3bbe
00000280: fc7a 5e3e c60c 3dbe 1639 873e fcd7 0a3f
00000290: c9a6 cc3d e36b 71be 369a 6e3e 2800 af3c
000002a0: ee41 3c3e 1452 cdbd 5741 923e 006f 89bd
000002b0: 1747 0dbe 2e85 14be 6eda 3b3e 24a1 d43d
000002c0: 5f67 02be 20d1 5fbe ecb4 a0be 1f8c 963d
000002d0: fe5c 73be 1c55 693c 2d24 353b b4d6 f3bd
000002e0: 2228 273e d5ab 783d 452c 8d3d 9e20 44be
000002f0: 7496 f53d 7e50 543e 00c9 693e 770a 6f3d
00000300: 7c43 9c3d ed74 093e a6ab 223d 5dc4 18bc
00000310: 1ac5 753e e6f2 733e 0e32 1abe 80ef 8ebc
00000320: 7f5b 0aba f11f 17be 7b61 0fbe 91fe 3b3d
00000330: 77da ee3e 070b 973d 5b9b 0d3e 5391 12be
00000340: 009c c63d 0b58 4cbd f230 4a3d 56b2 1dbe
00000350: 818a bebd 0291 533d c042 bbbe 223a b93d
00000360: e790 d6be 480e 463c a612 5e3e 177a 3b3e
00000370: 8a06 de3d 6ef1 ee3c 26fe 19bf ae87 c73d
00000380: b452 46be e33f 073f 7485 0b3d 6d71 db3e
00000390: 4fbf 883e 79a0 bcbd 5ad3 b7bc c159 d8bd
000003a0: 23f2 2f3e f04a db3c 8772 c53d 0861 4c3d
000003b0: 3ce1 fc3c e068 413e db78 9bbd 4c2a 0fbe
000003c0: f127 513e 6ca7 06be fab8 ae3d d167 533c
000003d0: f369 57bd 2464 063b f64d 45be 919d 3b3e
000003e0: d86c 8abe 18a3 91bd 3c46 2c3e 7af4 233e
000003f0: 1264 efbd b1c7 353e 8f0a e5be 5a48 1d3e

mu.4.bias f4 [12]
-0.016629023 0.042975616 0.03673243 0.025862545 -0.07306757 -0.04870492 -0.06803133 -0.022590958
-0.037925858 0.01951509 0.0028259496 0.003851464
00000000: 9739 88bc 3307 303d bf74 163d b0dd d33c
00000010: 73a4 95bd cf7e 47bd 0354 8bbd ac10 b9bc
00000020: 2558 1bbd 1cde 9f3c 9133 393b d868 7c3b

reward_fun.0.weight f4 [200, 14]
0.004835383 -0.20179103 0.098934636 -0.28850096 -0.25514156 0.23893255 -0.1189677 -0.27683637
-0.23779835 -0.18751487 -0.4773504 -0.11902779 0.15479009 0.02691291 0.0021787775 0.16578005
-0.18862748 -0.18329379 -0.17084533 -0.17496313 -0.042951446 0.09586782 0.109205164 0.18204564
0.29964375 -0.1740841 0.022217995 0.032112636 -0.0155228535 -0.097244024 -0.11878347 0.1378275
0.26414376 0.16527316 0.20099147 0.08506417 0.06362606 0.15781817 0.15293367 -0.025990296
-0.23171185 -0.1682856 -0.0011219758 -0.20438102 0.25224662 0.008115795 0.24040309 -0.095073484
-0.048332807 0.12893161 0.00011836312 -0.19717088 0.017913612 -0.39664423 -0.16958378 -0.40937123
-0.018240497 0.23986979 -0.057398695 0.17558853 0.1815697 0.35657454 0.20800771 -0.0091434745
0.1914109 -0.1385298 -0.30491558 -0.16156349 -0.14721207 0.062625535 -0.20039721 -0.21419811
0.19394174 -0.22208744 0.2567551 -0.002155067 0.21679205 -0.23157974 -0.1177105 -0.24013421
0.21711424 -0.041298684 0.2872514 -0.102191 0.08498614 0.18464002 -0.2604844 -0.1929297
-0.2841292 0.15720622 -0.0725127 0.17794569 -0.2630715 -0.22454952 -0.19269805 -0.0411202
-0.1367773 -0.0024129504 0.016043155 -0.076103374 -0.05077826 -0.28379083 0.18817136 -0.06667736
0.16824779 -0.00854735 -0.033770647 -0.13582644 0.26099005 0.18375815 0.046961967 0.103179544
0.31663638 -0.0022975695 -0.08012218 -0.26771742 0.28885698 -0.11642778 0.20078106 0.09437612
0.16370896 -0.08912343 -0.0950756 0.31174564 0.26286748 -0.22703874 0.041525375 0.18233922
0.21021272 -0.16611788 0.16815162 -0.1113666 0.15669923 -0.08324198 0.15138827 -0.06617765
0.070563 -0.15324509 0.17203654 -0.05884273 0.39958856 0.17766003 0.24704327 0.112919204
-0.1409274 -0.19440843 0.113656625 0.09268511 0.053385362 0.10119101 0.16020389 0.04032814
-0.093773365 0.038729537 0.19573474 0.15818594 0.19082615 -0.00520037 -0.20115058 -0.03541183
0.024755523 -0.10680118 0.14899741 -0.09682104 -0.045280505 -0.24272333 -0.21591318 0.44684273
-0.23002277 -0.3115031 0.17608666 0.13975547 0.09612452 0.053300753 -0.22326073 -0.18782571
0.048200063 -0.14032944 -0.009733532 -0.17242813 -0.13508508 -0.26103404 -0.36049718 -0.157007
0.031096831 0.37143302 -0.22350949 -0.028183661 0.121419445 -0.19192146 0.27760696 -0.07320482
0.10540155 -0.045559943 -0.52742857 0.07793934 -0.1531495 0.018886173 -0.2397242 -0.14538287
0.22846735 0.17897768 -0.13750152 -0.027887082 0.08056659 -0.29124835 0.28161982 -0.025907805
0.103597246 -0.048939727 0.09729902 -0.17668006 0.109625064 -0.19604443 -0.22306976 0.19090539
0.13152263 0.30891493 0.17169732 -0.1356386 -0.42249286 -0.26620835 0.10932003 -0.21253474
0.15717705 0.26597136 -0.30228248 -0.03939328 0.086645044 0.20688328 -0.14251982 -0.08638677
-0.18280813 -0.29474986 0.07956783 0.15683556 -0.16265053 -0.27283445 -0.16984007 -0.028720079
-0.11627932 0.14491259 -0.29461992 -0.24773382 -0.038308483 -0.21437703 -0.009031192 0.033158146
0.048649937 0.15862668 -0.2307628 -0.4969678 -0.16509253 0.061822087 -0.048598323 -0.055170055
00000000: 2272 9e3b 4fa2 4ebe 3e9e ca3d 66b6 93be
00000010: eaa1 82be bcaa 743e 56a5 f3bd 7fbd 8dbe
00000020: 6981 73be e603 40be 4667 f4be d8c4 f3bd
00000030: 4b81 1e3e 7778 dc3c d2c9 0e3b 3fc2 293e
00000040: 9027 41be 5eb1 3bbe 14f2 2ebe 8929 33be
00000050: dbed 2fbd 5956 c43d f5a6 df3d 2c6a 3a3e
00000060: e86a 993e 1a43 32be 8302 b63c 8a88 033d
00000070: 9153 7ebc e027 c7bd bf44 f3bd a722 0d3e
00000080: da3d 873e 5e3d 293e b5d0 4d3e 2036 ae3d
00000090: 614e 823d 169b 213e a59a 1c3e 9ae9 d4bc
000000a0: df45 6dbe 0f53 2cbe 430f 93ba 4249 51be
000000b0: 7826 813e 1df8 043c 3a2c 763e e3b5 c2bd
000000c0: 9ff8 45bd a606 043e b739 f838 2ae7 49be
000000d0: 91bf 923c f414 cbbe 5fa7 2dbe 1b99 d1be
000000e0: 186d 95bc 6da0 753e e51a 6bbd 7bcd 333e
000000f0: 68ed 393e f090 b63e f9ff 543e 83ce 15bc
00000100: 3801 443e c2da 0dbe e51d 9cbe e670 25be
00000110: c3be 16be d141 803d ed34 4dbe c056 5bbe
00000120: aa98 463e e46a 63be 6875 833e 063c 0dbb
00000130: bcfe 5d3e 3d23 6dbe 3412 f1bd bee5 75be
00000140: 3253 5e3e cf28 29bd 9e12 933e 8449 d1bd
00000150: 370d ae3d 4612 3d3e 365e 85be 5d8f 45be
00000160: 6279 91be abfa 203e 8a81 94bd 6537 363e
00000170: 4fb1 86be 4ff0 65be a352 45be a86d 28bd
00000180: 590f 0cbe 9722 1ebb ef6c 833c 16dc 9bbd
00000190: ddfc 4fbd 084d 91be feaf 403e 248e 88bd
000001a0: 2649 2c3e 2f0a 0cbc 1753 0abd 1616 0bbe
000001b0: 7da0 853e 192b 3c3e 315b 403d cc4f d33d
000001c0: 2a1e a23e d292 16bb 1917 a4bd 4212 89be
000001d0: 10e5 933e b071 eebd 8d99 4d3e 4448 c13d
000001e0: 52a3 273e 5886 b6bd ffb6 c2bd 209d 9f3e
000001f0: 9196 863e d87c 68be 8316 2a3d 22b7 3a3e
00000200: 0142 573e ce1a 2abe f02f 2c3e 2c14 e4bd
00000210: c375 203e c57a aabd 8705 1b3e 2688 87bd
00000220: 5683 903d 48ec 1cbe 592a 303e 1305 71bd
00000230: df96 cc3e 83ec 353e e9f8 7c3e 2f42 e73d
00000240: 464f 10be 0113 47be cec4 e83d b1d1 bd3d
00000250: 9caa 5a3d 3b3d cf3d 7d0c 243e 1f2f 253d
00000260: 400c c0bd dda2 1e3d b06e 483e 7ffb 213e
00000270: ee67 433e de67 aabb 6bfa 4dbe ff0b 11bd
00000280: 18cc ca3c 94ba dabd c792 183e 1c4a c6bd
00000290: 0d78 39bd 778c 78be 5818 5dbe 92c8 e43e
000002a0: 178b 6bbe 567d 9fbe 1050 343e 0f1c 0f3e
000002b0: efdc c43d e451 5a3d 769e 64be 6255 40be
000002c0: 6e6d 453d 85b2 0fbe 6479 1fbc 0091 30be
000002d0: be53 0abe 41a6 85be 1693 b8be 71c6 20be
000002e0: c8be fe3c 782c be3e acdf 64be 6ce1 e6bc
000002f0: c2aa f83d 0f87 44be 8022 8e3e 69ec 95bd
00000300: c5dc d73d 109d 3abd 8f05 07bf a99e 9f3d
00000310: 39d3 1cbe 2db7 9a3c 437a 75be 3fdf 14be
00000320: 58f3 693e ed45 373e 33cd 0cbe 7373 e4bc
00000330: 1900 a53d 811e 95be 7930 903e 9b3c d4bc
00000340: cb2a d43d 0675 48bd b544 c73d 9eeb 34be
00000350: 1b83 e03d dfbf 48be 666c 64be b47c 433e
00000360: dead 063e 192a 9e3e 6cd1 2f3e d8e4 0abe
00000370: fc50 d8be 764c 88be 2ee3 df3d b5a2 59be
00000380: 05f3 203e 662d 883e c5c4 9abe d95a 21bd
00000390: f572 b13d 36d9 533e b7f0 11be 8ceb b0bd
000003a0: 0e32 3bbe 74e9 96be 75f4 a23d 8099 203e
000003b0: dc8d 26be f5b0 8bbe 8eea 2dbe 5f46 ebbc
000003c0: da23 eebd f763 143e 6cd8 96be efad 7dbe
000003d0: 5be9 1cbd a785 5bbe 91f7 13bc d6d0 073d
000003e0: 2845 473d 086f 223e 154d 6cbe 9072 febe
000003f0: 040e 29be 2839 7d3d 090f 47bd fff9 61bd

reward_fun.0.bias f4 [200]
0.17476952 0.16830699 -0.033996258 -0.06220611 -0.09898826 -0.28972977 0.2050879 -0.047604267
0.10379449 0.23442684 -0.11125664 0.027751748 0.23508194 -0.068986386 0.109956175 -0.25464296
-0.23338327 -0.16014004 -0.07384512 -0.12573814 0.10693204 0.047174394 -0.30430135 -0.0991223
0.183543 -0.24537043 0.07253865 -0.18763085 0.17725803 0.17954193 -0.082827985 -0.17508414
-0.040364668 -0.20817538 0.30118188 0.07763271 -0.2544643 -0.21205571 0.041445505 0.07699716
-0.19957565 0.070598945 0.1627574 -0.23360187 0.11903646 0.14289536 0.20916532 -0.19827445
-0.038497724 0.05118259 0.027616687 0.10536206 -0.23828621 -0.12279566 0.12033612 -0.057723958
-0.22937621 0.26779875 -0.1351306 0.17412376 0.26857266 -0.19297746 0.03548196 -0.17812784
0.22520424 0.004888603 -0.050707836 -0.20370312 0.19017796 0.09604001 -0.06978774 -0.13517596
-0.20194484 0.22042431 -0.1078609 -0.07989213 -0.033248115 0.1336211 -0.041756053 0.077475876
-0.14512068 -0.014850956 0.2598666 -0.1713314 0.25008562 0.15639345 0.12204706 0.21641882
-0.082489744 0.14035077 0.082996026 -0.22279803 0.16865452 0.20009506 -0.21637172 0.23560932
-0.18279721 -0.2283724 0.12255072 -0.092823334 -0.2258455 0.06533447 0.30500963 0.026738746
0.15494037 -0.16450879 -0.06290988 0.23771247 -0.05005305 0.10868497 0.0389592 -0.023067735
-0.15817162 0.095452964 0.113450885 0.017993873 -0.1727922 -0.31181425 -0.12445114 0.05237616
-0.061480314 0.22833443 0.2582833 -0.14026634 0.0557483 -0.009923445 -0.22214861 -0.015019569
-0.28546545 0.18361658 -0.20696834 -0.033114687 -0.020787891 -0.0648685 -0.2003536 0.1113554
-0.21987052 0.026737953 -0.19582346 -0.14720097 -0.061769057 0.1726833 0.07941113 0.16910069
-0.22082564 0.23634087 -0.15960099 -0.12988998 -0.029765898 -0.09792909 -0.14482415 0.19803129
-0.31376085 -0.18555054 0.14567761 0.2001771 -0.28876254 0.17924936 -0.12591884 -0.046960037
-0.09393423 -0.15863818 -0.30002686 -0.2015627 0.2008195 -0.057413813 0.28266436 -0.13677385
-0.08322228 -0.19965066 0.1086355 -0.102335155 0.15167253 -0.017997881 -0.036839057 0.2870055
0.12163688 -0.2663006 0.07196628 -0.09694889 0.122104004 0.12371238 -0.083550036 0.20468026
-0.18549252 -0.12999955 -0.1602089 0.1186417 0.075625926 -0.11898447 0.12215714 -0.23932518
0.15546499 0.048990574 -0.17872818 0.1463224 -0.072183564 -0.03471368 0.20156886 0.24212824
00000000: c8f6 323e ab58 2c3e a93f 0bbd d6cb 7ebd
00000010: 5bba cabd 7657 94be 9002 523e b1fc 42bd
00000020: 3592 d43d 970d 703e 85da e3bd a257 e33c
00000030: 52b9 703e bc48 8dbd b430 e13d 9060 82be
00000040: 06fc 6ebe c0fb 23be 1c3c 97bd 80c1 00be
00000050: 2fff da3d f039 413d 63cd 9bbe a200 cbbd
00000060: b2f2 3b3e 6342 7bbe 258f 943d 4d22 40be
00000070: 2183 353e d7d9 373e b8a1 a9bd 4249 33be
00000080: 6c55 25bd ed2b 55be 8334 9a3e e6fd 9e3d
00000090: 2549 82be 2225 59be c3c2 293d b0b0 9d3d
000000a0: 8f5d 4cbe 2e96 903d e0a9 263e 5435 6fbe
000000b0: 63c9 f33d 2953 123e 6f2f 563e 7508 4bbe
000000c0: caaf 1dbd d6a4 513d 643c e23c 10c8 d73d
000000d0: 4d01 74be 4a7c fbbd c972 f63d f56f 6cbd
000000e0: 99e1 6abe eb1c 893e ad5f 0abe 804d 323e
000000f0: 5b82 893e e29b 45be 8855 113d 2567 36be
00000100: f19b 663e 9330 a03b 05b3 4fbd 8d97 50be
00000110: 03be 423e a0b0 c43d e0ec 8ebd 916b 0abe
00000120: a1ca 4ebe e9b6 613e 2de6 dcbd 7c9e a3bd
00000130: 2d2f 08bd f8d3 083e 6508 2bbd acab 9e3d
00000140: 849a 14be 6d51 73bc 3c0d 853e 8071 2fbe
00000150: 390b 803e 9b25 203e cff3 f93d e59c 5d3e
00000160: 62f0 a8bd 1db8 0f3e d2f9 a93d 2b25 64be
00000170: c5b3 2c3e b8e5 4c3e 8c90 5dbe 9243 713e
00000180: 312f 3bbe 74da 69be dffb fa3d 291a bebd
00000190: 0b44 67be 14ce 853d 392a 9c3e 370b db3c
000001a0: b0a8 1e3e fe74 28be e5d6 80bd e66a 733e
000001b0: 6d04 4dbd 3a96 de3d af93 1f3d 8cf8 bcbc
000001c0: bef7 21be d87c c33d f058 e83d e367 933c
000001d0: 70f0 30be 1ea6 9fbe 3de0 febd 6288 563d
000001e0: c8d2 7bbd 80d0 693e b53d 843e fba1 0fbe
000001f0: 5458 643d f295 22bc ed7a 63be a314 76bc
00000200: 8728 92be fc05 3c3e 82ef 53be 44a3 07bd
00000210: 5e4b aabc c7d9 84bd 7e29 4dbe 4d0e e43d
00000220: bd25 61be 8d09 db3c f285 48be dabb 16be
00000230: 8d01 7dbd e4d3 303e 4da2 a23d bb28 2d3e
00000240: 1e20 62be 5703 723e 716e 23be e101 05be
00000250: 9dd7 f3bc 0c8f c8bd c84c 14be b7c8 4a3e
00000260: 43a5 a0be f600 3ebe 832c 153e 3afb 4c3e
00000270: afd8 93be 258d 373e def0 00be 2b59 40bd
00000280: 9760 c0bd 0c72 22be 1f9d 99be 7466 4ebe
00000290: a1a3 4d3e bf2a 6bbd 62b9 903e 720e 0cbe
000002a0: 7170 aabd 3971 4cbe 4a7c de3d 1895 d1bd
000002b0: 0b50 1b3e 4b70 93bc 8de4 16bd 63f2 923e
000002c0: c21c f93d 8d58 88be 0f63 933d 248d c6bd
000002d0: aa11 fa3d eb5c fd3d 481c abbd b497 513e
000002e0: c0f1 3dbe 9a1e 05be cd0d 24be 6bfa f23d
000002f0: c4e1 9a3d 21ae f3bd 862d fa3d a911 75be
00000300: 3732 1f3e 57aa 483d 8504 37be 8ad5 153e
00000310: fad4 93bd ef2f 0ebd 1168 4e3e 77f0 773e

reward_fun.2.weight f4 [200, 200]
0.014061411 0.03171539 0.03984996 -0.30107805 0.05658061 -0.015342804 -0.011381271 0.046613306
-0.053582564 0.068522826 -0.023849605 0.019695643 -0.06324965 -0.07156413 -0.0044970084 0.014878415
-0.00034933139 0.07040567 -0.14636543 -0.04197438 0.067326166 0.23853533 -0.11731825 -0.16328728
0.059366554 -0.398252 -0.16210589 -0.29901233 -0.099645495 -0.041092712 0.01830255 0.10670946
0.034450278 -0.04936212 -0.10034834 0.01580276 -0.0076371655 0.1782827 -0.011660388 -0.20041612
-0.051626552 -0.15658131 0.026610553 -0.029062875 0.033412088 0.021056285 -0.04474423 0.04403426
0.040248662 -0.013976773 -0.039940827 0.059970465 -0.043721713 0.020331828 0.01936249 -0.21148056
0.034470048 -0.0036323583 0.01568736 0.24129969 0.0459718 0.09205906 0.1124547 0.008306589
0.1654196 -0.003292887 -0.060096238 0.005663156 0.04937994 -0.16043067 -0.1265379 -0.10411237
-0.06166197 0.018726809 0.019933969 0.16614437 0.045437887 0.046091605 -0.06575088 -0.017845305
0.03241239 -0.039730098 0.037960567 0.08857847 -0.0205038 0.02191675 -0.087288894 -0.08335734
0.07625214 0.09583833 -0.05651822 -0.061789718 0.08155911 -0.053787533 -0.1845554 0.18789534
-0.08976573 -0.19299781 0.043449834 0.051112648 0.084099375 -0.014402286 0.06497015 0.1228044
-0.097501494 -0.061230745 -0.18198675 -0.03637528 -0.06136598 0.072703004 -0.20054808 -0.021169532
0.026076742 -0.07393967 0.10490043 0.09822558 -0.32295382 -0.13489966 0.3828896 -0.16093251
0.101860754 0.034881458 0.02732531 0.10805193 0.0767256 0.104946434 0.15429553 0.0763836
0.0024696707 -0.13573116 0.0021478676 -0.057704497 -0.10834313 -0.33828744 -0.08017019 0.09340216
-0.24965209 0.08852469 0.017386818 -0.13449347 -0.013285807 -0.08550814 -0.10055644 0.09152891
-0.090649396 0.069179766 0.034513667 0.038803242 0.037598938 -0.14245854 0.036191966 0.10198525
-0.27600297 -0.04135012 0.044181768 -0.057648197 0.07548242 -0.007139613 0.042056415 -0.1440515
0.0012226915 -0.06310498 -0.18360347 -0.047264535 0.088423364 -0.19369176 0.05899428 0.13105266
-0.11465867 -0.26581657 0.032987077 0.002469814 0.0533871 -0.087360874 -0.029631581 -0.10907247
0.043038767 -0.05685306 -0.059149545 0.09039055 -0.07153082 -0.19615407 0.0033235536 0.086018346
0.00040474156 -0.17324495 -0.1810334 -0.57931775 0.01267017 -0.03214249 0.06025225 0.0696503
0.083332345 -0.01547699 -0.011223038 -0.15114327 -0.002771626 -0.050879885 -0.09068806 0.006324477
-0.03158604 0.08373191 0.012666481 -0.0062210867 0.10066286 -0.058848128 -0.10547177 0.042571772
0.04649893 -0.019173285 0.066415004 0.06342502 -0.022722533 -0.049767155 -0.031163746 -0.10477275
-0.004181752 0.023363054 0.05163028 0.006438476 -0.024230195 -0.085759126 -0.022303369 0.0047016996
0.048341777 -0.07535525 -0.05479849 -0.015083558 -0.011809023 0.017383266 0.007805127 0.027424661
0.051160634 0.009175711 -0.032318737 0.013787016 -0.01269391 -0.013028085 -0.012789105 -0.029357264
0.024339799 0.0050764265 0.02782608 0.0052422583 -0.01653127 -0.04766943 0.027855339 0.017614214
0.08903884 0.04566812 0.08972039 0.08300602 -0.053033154 -0.021627296 0.005118023 -0.07126915
00000000: d561 663c ffe7 013d b639 233d e726 9abe
00000010: 12c1 673d 6260 7bbc 8378 3abc 98ed 3e3d
00000020: 6479 5bbd b255 8c3d 3f60 c3bc c258 a13c
00000030: 0889 81bd 3790 92bd a45b 93bb 98c4 733c
00000040: 7726 b7b9 d930 903d d2e0 15be 54ed 2bbd
00000050: 4de2 893d 9b42 743e 8d44 f0bd c834 27be
00000060: 582a 733d b0e7 cbbe 16ff 25be 2518 99be
00000070: f012 ccbd d550 28bd 3bef 953c 7d8a da3d
00000080: bc1b 0d3d ef2f 4abd 6e83 cdbd ca74 813c
00000090: 3041 fabb bd8f 363e 360b 3fbc e239 4dbe
000000a0: 5d76 53bd da56 20be 60fe d93c 4415 eebc
000000b0: 1ddb 083d 3b7e ac3c ba45 37bd 455d 343d
000000c0: c8db 243d d6fe 64bc fe98 23bd 97a3 753d
000000d0: 8a15 33bd ef8e a63c 169e 9e3c 5c8e 58be
000000e0: 7730 0d3d dc0c 6ebb c782 803c 4417 773e
000000f0: ed4c 3c3d 7689 bc3d a64e e63d 5c18 083c
00000100: c163 293e 7acd 57bb 7927 76bd ff91 b93b
00000110: 9f42 4a3d f047 24be 2793 01be de38 d5bd
00000120: 4391 7cbd f768 993c 904c a33c c021 2a3e
00000130: 141d 3a3d 8dca 3c3d 66a8 86bd 5130 92bc
00000140: dbc2 043d 07bc 22bd 8a7c 1b3d a168 b53d
00000150: 96f7 a7bc c28a b33c 85c4 b2bd 41b7 aabd
00000160: 152a 9c3d e346 c43d a67f 67bd 3717 7dbd
00000170: 7608 a73d 5150 5cbd 17fc 3cbe a367 403e
00000180: 18d7 b7bd 38a1 45be 74f8 313d 7f5b 513d
00000190: 4b3c ac3d 91f7 6bbc 120f 853d e080 fb3d
000001a0: ddae c7bd 17cd 7abd bc5a 3abe 3ffe 14bd
000001b0: e55a 7bbd 50e5 943d 7a5c 4dbe ba6b adbc
000001c0: e49e d53c af6d 97bd 09d6 d63d 7e2a c93d
000001d0: 345a a5be 2323 0abe 1b0a c43e 7ecb 24be
000001e0: 5f9c d03d dcdf 0e3d 54d9 df3c 554a dd3d
000001f0: 5022 9d3d 28ee d63d a6ff 1d3e 016f 9c3d
00000200: 33da 213b 1cfd 0abe 3dc3 0c3b 8d5b 6cbd
00000210: 01e3 ddbd 0334 adbe 4530 a4bd a249 bf3d
00000220: cca4 7fbe 6f4c b53d cd6e 8e3c a8b8 09be
00000230: b7ac 59bc e41e afbd 89f0 cdbd 8273 bb3d
00000240: 64a6 b9bd 1fae 8d3d 345e 0d3d 26f0 1e3d
00000250: 5801 1a3d a7e0 11be 073e 143d a5dd d03d
00000260: 4350 8dbe be5e 29bd f1f7 343d 8420 6cbd
00000270: 8796 9a3d 6af3 e9bb 5943 2c3d 3d82 13be
00000280: b842 a03a 2f3d 81bd 8c02 3cbe 7598 41bd
00000290: 4f17 b53d 2257 46be fca3 713d ab32 063e
000002a0: 2ad2 eabd 1c19 88be 751d 073d 9adc 213b
000002b0: 6fac 5a3d 42ea b2bd eebd f2bc 6361 dfbd
000002c0: 6b49 303d c1de 68bd cb46 72bd ae1e b93d
000002d0: c07e 92bd 9ddc 48be facf 593b 632a b03d
000002e0: 7e33 d439 2067 31be d260 39be 2b4e 14bf
000002f0: 8b96 4f3c d8a7 03bd 10cb 763d d1a4 8e3d
00000300: 26aa aa3d 3393 7dbc d5e0 37bc 4dc5 1abe
00000310: 2ba4 35bb 6d67 50bd a9ba b9bd 8f3d cf3b
00000320: 5d60 01bd a37b ab3d 1287 4f3c 42da cbbb
00000330: 5428 ce3d bc0a 71bd 9501 d8bd bd5f 2e3d
00000340: a975 3e3d 4b11 9dbc 9704 883d fae4 813d
00000350: 9b24 babc a5d8 4bbd 1d4b ffbc 1893 d6bd
00000360: 1407 89bb e063 bf3c 467a 533d daf9 d23b
00000370: 677e c6bc 7ba2 afbd 8eb5 b6bc b710 9a3b
00000380: 0702 463d da53 9abd 6274 60bd 0721 77bc
00000390: a27a 41bc 5a67 8e3c 27c2 ff3b afa9 e03c
000003a0: d08d 513d b955 163c a760 04bd f0e2 613c
000003b0: 1efa 4fbc c073 55bc 6589 51bc a57e f0bc
000003c0: 4264 c73c 2758 a63b 85f3 e33c 40c7 ab3b
000003d0: 966c 87bc 0541 43bd e130 e43c af4b 903c
000003e0: ff59 b63d 7f0e 3b3d 53bf b73d 0fff a93d
000003f0: 4b39 59bd ba2b b1bc 17b5 a73b 8ff5 91bd
