experiments/data/sawyer_clutter_200steps_10H/h_sac/2021-06-09_12-22-10_clutter_200steps_10H/policy_2400.pt (torch_old, 75801 bytes, 6 tensors)

mu.0.weight f4 [128, 12]
0	0xbd7ad045	-0.061233778
1	0xbd9d5ac3	-0.07683327
2	0x3c504245	0.012711112
3	0xbcf474d9	-0.029840874
4	0x3c6e90ba	0.014560873
5	0xbe735e1b	-0.23766367
6	0x3e15f396	0.14643702
7	0x3e110600	0.14162445
8	0x3e175f9b	0.14782564
9	0xbe7b2267	-0.24524842
10	0xbe65fa87	-0.2245885
11	0xbd56413d	-0.05230831
12	0x3e53d206	0.20685586
13	0xbdf7ad77	-0.12093633
14	0xbe407b49	-0.1879703
15	0x3cc17e95	0.02361993
16	0xbe7d934d	-0.24763222
17	0x3b8b131a	0.0042442204
18	0x3c843042	0.016136292
19	0xbe55a39d	-0.20863195
20	0x3e6641b6	0.22486004
21	0xbe3b093e	-0.18265244
22	0xbdd28b00	-0.102804184
23	0x3e6ddee8	0.23229563
24	0x3e9233eb	0.28555235
25	0xbe904f10	-0.2818532
26	0x3e81a642	0.25322157
27	0x3e862093	0.26196727
28	0x3e4603cc	0.19337386
29	0x3db362cd	0.08759079
30	0x3ca059d7	0.019574089
31	0x3e2406dc	0.16018242
32	0x3e1594c1	0.14607526
33	0xbe238ecc	-0.15972441
34	0x3dcf9630	0.10136068
35	0x3dbb4d45	0.09145597
36	0xbe62bac9	-0.22141565
37	0x3d53bc48	0.05169323
38	0x3e1c55f3	0.15267162
39	0x3d7b1628	0.061300427
40	0xbe364479	-0.17799558
41	0xbd96725e	-0.073460326
42	0x3e896cec	0.26840913
43	0xbdd2c7ac	-0.10291991
44	0xbaa6d4d7	-0.0012728226
45	0xbe53db4d	-0.20689125
46	0x3d7e7e0b	0.062131923
47	0x3e8b1694	0.27165663
48	0x3e6f0ea2	0.23345426
49	0xbe83cb6c	-0.25741136
50	0x3e79f2a3	0.24408965
51	0xbd406c0f	-0.046978053
52	0xbe90a00f	-0.28247115
53	0xbdde4644	-0.10853246
54	0x3d22a7b4	0.039710715
55	0xbe422a15	-0.18961366
56	0xbe0ed352	-0.139478
57	0xbe52095b	-0.20511381
58	0x3e4e6fff	0.2015991
59	0x3e31a432	0.17347792
60	0x3e417712	0.18893078
61	0x3e6fcf57	0.23418938
62	0xbe45df46	-0.19323453
63	0x3e027bfd	0.1274261
64	0xbe75970c	-0.23983401
65	0xbe8303a9	-0.2558873
66	0x3d439dee	0.047758035
67	0xbe232487	-0.15931903
68	0x3dd89bb9	0.10576577
69	0x3dfc2201	0.12311173
70	0xbc354c83	-0.011065605
71	0x3d4b9730	0.04970473
72	0xbd1ebf70	-0.038756788
73	0xbe13723d	-0.14399047
74	0x3c2cb179	0.01054036
75	0xbe8901a1	-0.26759055
76	0x3e9559f0	0.2917018
77	0x3bf4a0ff	0.0074654813
78	0x3e77f93d	0.2421617
79	0xbd623f13	-0.055235934
80	0x3df5d568	0.12003595
81	0x3dc7ca34	0.09755364
82	0xbe7b7aa8	-0.24558508
83	0x3ca356e9	0.019938903
84	0xbe059525	-0.13045175
85	0x3d2eb68d	0.042654563
86	0xbd3c5bd7	-0.045986023
87	0x3e240af1	0.16019799
88	0xbdfdf2da	-0.12399836
89	0xbda66eea	-0.08126624
90	0xbe37fe48	-0.17968094
91	0xbe27bfcb	-0.16381757
92	0xbe88efa4	-0.2674533
93	0xbd842bd3	-0.06453671
94	0xbe2630d6	-0.16229567
95	0x3c579812	0.013158815
96	0x3e4ad7ef	0.19808935
97	0x3e6b6e4e	0.22991297
98	0xbe2c6063	-0.16833644
99	0x3e619fb4	0.22033578
100	0xbc7bb0cb	-0.015361975
101	0xbe4d99df	-0.20078228
102	0x3dc28c5b	0.09499427
103	0xbd90a9c2	-0.07063629
104	0x3e59ebaa	0.21281305
105	0xbda95023	-0.08267238
106	0x3e01a16c	0.12659234
107	0x3e84a182	0.2590447
108	0xbe83c74b	-0.25737986
109	0x3d41b973	0.047296
110	0x3e576e63	0.21038203
111	0x3e578d9c	0.21050113
112	0x3dea23ee	0.11432634
113	0x3962d4e5	0.00021632349
114	0xbe1448b0	-0.14480853
115	0x3d945855	0.072434105
116	0xbd98047d	-0.07422731
117	0x3d8f80cc	0.07006988
118	0x3d98e585	0.074656524
119	0x3dd94ea1	0.106107004
120	0xbe896dd1	-0.26841596
121	0xbd894e67	-0.06704407
122	0x3e75bf94	0.23998863
123	0x3db50db8	0.08840507
124	0x3dcb9793	0.0994102
125	0xbe39a68b	-0.18129937
126	0xbdd8553a	-0.10563131
127	0x3dbc3ff2	0.09191884
128	0x3da0e402	0.07855989
129	0x3e0816b0	0.13289905
130	0x3e1b4576	0.15163216
131	0xbe1e63d2	-0.15467766
132	0x3e51bcf6	0.20482239
133	0xbe8db619	-0.27677992
134	0xbdbf128b	-0.09329709
135	0x3e553f3d	0.20824905
136	0x3deea515	0.11652581
137	0x3cd1fac3	0.025632268
138	0xbd563b6a	-0.052302755
139	0x3e559486	0.20857438
140	0x3e8350bb	0.2564753
141	0xbd728f68	-0.059218794
142	0xbe1e90ea	-0.15484968
143	0xbe23c651	-0.1599362
144	0x3e0058a9	0.12533821
145	0x3b73e2ca	0.0037214034
146	0xbe8fdb25	-0.28096882
147	0xbe80ea72	-0.25178868
148	0xbe7cbb2f	-0.2468078
149	0xbe7f7d16	-0.2495006
150	0xbe6fb8c0	-0.2341032
151	0xbe563df0	-0.20922065
152	0x3c1f5be9	0.009726503
153	0x3db14486	0.08655648
154	0xbe25e12e	-0.1619918
155	0xbe89a705	-0.26885238
156	0xbe83ebce	-0.25765842
157	0xbdbf0a75	-0.093281664
158	0x3e1845b0	0.14870334
159	0x3e63f627	0.22261868
160	0x3dace592	0.084422246
161	0xbe3ee017	-0.18640171
162	0x3dcfdf4f	0.101500146
163	0x3e058ae3	0.13041262
164	0x3e61684b	0.22012441
165	0xbe806e5b	-0.25084195
166	0xbe1ea6a9	-0.15493263
167	0xbd494515	-0.049138147
168	0x3e883bba	0.26608068
169	0xbe352325	-0.17689188
170	0x3e490b78	0.19633281
171	0xbce7e977	-0.028309567
172	0x3c45876b	0.012056212
173	0x3c71c24f	0.014755799
174	0xbd0eb060	-0.034836173
175	0x3e372207	0.17884074
176	0x3e86c635	0.26323095
177	0x3d199b64	0.037501708
178	0xbd64ffa8	-0.055907875
179	0xbce373cf	-0.027765183
180	0x3e631793	0.22176962
181	0xbe77750c	-0.24165744
182	0xbb9bd6be	-0.004755824
183	0x3e7351ee	0.23761722
184	0xbe8ffa68	-0.28120732
185	0x3dbd867e	0.09254168
186	0x3e24e898	0.16104352
187	0x3e0ad0c2	0.13556197
188	0xbc11e504	-0.008904699
189	0xbe2392dd	-0.15973993
190	0x3e1e6d67	0.15471421
191	0xbe67673d	-0.22597976
192	0xbe2f696a	-0.17130056
193	0x3cc7e86d	0.024402821
194	0x3dd22b59	0.10262174
195	0xbe92f611	-0.2870336
196	0xbe4ac9d4	-0.19803554
197	0xbe850ecf	-0.2598786
198	0xbe1c07e7	-0.1523739
199	0x3d7e26c5	0.062048692
200	0xbe0c107f	-0.13678168
201	0x3dda9afb	0.106740914
202	0x3e0234e8	0.12715495
203	0x3e49814c	0.19678229
204	0xbc66cd0e	-0.014086975
205	0xbdcd3c7e	-0.100213036
206	0x3da11feb	0.07867416
207	0xbdd02aa9	-0.10164387
208	0xbd8438ee	-0.06456171
209	0xbe553230	-0.20819926
210	0xbd986e4d	-0.07442913
211	0x3e0d6326	0.13807353
212	0x3e561bc1	0.20909025
213	0xbe9b52f9	-0.3033674
214	0x3dbb1a50	0.09135878
215	0x3e476788	0.19473088
216	0x3e7fcf04	0.24981314
217	0xbe01b27d	-0.12665744
218	0x3d7e91b7	0.062150683
219	0x3e730a8c	0.23734492
220	0xbb9ebdf1	-0.00484442
221	0x3c944896	0.018101018
222	0x3cddb763	0.027064985
223	0x3e5312ad	0.20612593
224	0x3e757949	0.23972048
225	0xbd9c47b0	-0.07630861
226	0xbc94dec7	-0.018172635
227	0xbe0200ac	-0.12695569
228	0xbd03e1cb	-0.032197755
229	0xbded6e7f	-0.11593341
230	0x3e1bdfa3	0.1522203
231	0xbc0f6ad2	-0.008753495
232	0xbe08d214	-0.13361388
233	0xbdfa7fba	-0.12231393
234	0xbe1fb5b9	-0.15596665
235	0x3e608ef9	0.2192954
236	0xbe7e18f3	-0.24814205
237	0xbe1a276b	-0.150541
238	0x3e0ec926	0.1394392
239	0xbe76a595	-0.24086602
240	0xbdfdf10d	-0.123994924
241	0xbe8c4da3	-0.27402982
242	0x3c251a96	0.010077139
243	0x3d95f5d5	0.07322279
244	0x3e13f6eb	0.1444966
245	0xbdb02e0e	-0.08602534
246	0xbc37b768	-0.011213161
247	0x3e8d5e46	0.27610987
248	0xbe792f1a	-0.24334374
249	0x3e8a8fa8	0.27062726
250	0x3e14065b	0.1445555
251	0xbe1ef173	-0.15521793
252	0xbe56da1c	-0.2098164
253	0x3c522432	0.012826012
254	0xbd96b78c	-0.073592275
255	0xbc8dec60	-0.017324626

mu.0.bias f4 [128]
0	0xbe4c0a7a	-0.19925871
1	0x3e58dfd9	0.21179141
2	0xbe041f5b	-0.12902586
3	0xbe1233d8	-0.1427759
4	0x3e1433ba	0.14472857
5	0xbdb56247	-0.088566355
6	0xbb6e3f65	-0.0036353704
7	0xbe884f98	-0.26623225
8	0x3e2d1343	0.16901879
9	0x3da56fcd	0.08077965
10	0xbdb9a32a	-0.09064324
11	0xbc91cc3a	-0.017797578
12	0xbe142bb8	-0.14469802
13	0x3e5a8c56	0.21342596
14	0x3b25b0a0	0.0025282279
15	0x3e8f5496	0.2799422
16	0xbd30608f	-0.043060835
17	0xbe47f96f	-0.19528745
18	0xbe841f9f	-0.25805375
19	0xbe947dfc	-0.29002368
20	0x3d1efe7d	0.038816918
21	0x3e294b34	0.16532594
22	0xbd48847a	-0.048954464
23	0xbe0acb79	-0.13554181
24	0xbd16686f	-0.03672069
25	0xbe8d7867	-0.27630922
26	0x3da36a7a	0.07979293
27	0xbe18d862	-0.14926293
28	0xbd1d0548	-0.038335115
29	0xbda8fceb	-0.08251365
30	0xbe51ddb5	-0.20494731
31	0x3dfa0ddf	0.12209677
32	0x3e52ddc6	0.20592412
33	0xbe77e059	-0.24206676
34	0x3ddc8beb	0.10768875
35	0xbdf153ed	-0.11783586
36	0xbe441ca6	-0.19151554
37	0x3e57fb3f	0.21091937
38	0xbe4def6d	-0.20110865
39	0x3e3c87f5	0.18411238
40	0xbdcba1f3	-0.09942999
41	0x3d6dd171	0.058061067
42	0xbe10e83a	-0.14151087
43	0xbde9d77e	-0.11418055
44	0x3d8036ae	0.06260429
45	0xbe37a610	-0.17934442
46	0xbdafe977	-0.08589452
47	0xbe7dbb50	-0.24778485
48	0xbdb2ad26	-0.08724432
49	0xbe682a14	-0.22672302
50	0x3d3908b5	0.04517432
51	0x3e6d059b	0.2314667
52	0x3d83faac	0.06444296
53	0xbda423cb	-0.080146395
54	0x3e853f04	0.2602464
55	0x3e6d8d78	0.23198497
56	0xbd21e921	-0.03952897
57	0x3e78dbe1	0.24302627
58	0x3e52af9b	0.205748
59	0x3e80accb	0.2513183
60	0xbae10954	-0.0017168918
61	0xbe7bfbf9	-0.24607839
62	0xbe650291	-0.2236426
63	0x3e8a4f31	0.27013543
64	0xbdc9cd11	-0.098535664
65	0x3e8df3ee	0.27725166
66	0x3d9764d9	0.07392282
67	0xbd8b9bbe	-0.06816815
68	0x3e2be651	0.16787077
69	0x3d80339f	0.06259846
70	0xbe405dc2	-0.18785766
71	0xbe3c8ba9	-0.18412651
72	0x3dc8bba7	0.09801417
73	0xbe705706	-0.23470697
74	0xbcc57da5	-0.024107764
75	0xbcae95b0	-0.021311611
76	0x3d5acb4a	0.053416528
77	0x3e29a59d	0.16567083
78	0x3dc79a25	0.097461976
79	0xbc97e3ae	-0.018541183
80	0x3e247ffa	0.16064444
81	0xbe885a67	-0.26631472
82	0xbd75e8d2	-0.060036488
83	0x3e90f11b	0.2830895
84	0xbd536826	-0.051612996
85	0xbd6aaa05	-0.05729105
86	0x3d4d26a0	0.050085664
87	0xbdd00f53	-0.10159173
88	0xbcd020b2	-0.025406215
89	0xbe0f96ad	-0.14022322
90	0x3dc694d9	0.09696359
91	0x3e5f9317	0.21833454
92	0xbe1abd7a	-0.15111342
93	0xbe62e13f	-0.22156237
94	0x3daa22f9	0.08307452
95	0x3d55a2fa	0.05215738
96	0xbd0394bc	-0.032124266
97	0xbe855984	-0.26044858
98	0xbd55ca7f	-0.05219507
99	0xbd31492f	-0.043282684
100	0xbde658ad	-0.11247382
101	0xbd136898	-0.03598842
102	0xbe59e2be	-0.21277902
103	0xbde1638d	-0.11005316
104	0xbe8346e9	-0.25640038
105	0xbe1c42a5	-0.15259798
106	0x3e955dad	0.2917303
107	0xbe5cde8d	-0.21569271
108	0x3c4a4d07	0.012347466
109	0xbe40d6fa	-0.18832007
110	0xbe8be5fe	-0.27323908
111	0x3e509e32	0.20372847
112	0x3ddc4239	0.107548185
113	0x3e2d74bd	0.16939063
114	0xbdcd2c45	-0.10018209
115	0xbc9543bc	-0.018220775
116	0xbe2f869a	-0.1714119
117	0xbe03c111	-0.12866618
118	0xbdce2cf6	-0.10067169
119	0x3e625d43	0.22105889
120	0x3d5649c3	0.05231644
121	0xbd4d7ceb	-0.05016796
122	0x3ca06371	0.019578667
123	0x3d70eb16	0.058817945
124	0x3d0d0575	0.034429032
125	0xbe8375fe	-0.25675958
126	0x3e739937	0.23788916
127	0xbd7bd982	-0.06148673

mu.2.weight f4 [128, 128]
0	0xbc48e549	-0.012261697
1	0xbd448368	-0.04797688
2	0xbd2dc458	-0.042423576
3	0xbd86334d	-0.065527536
4	0xbc1cdf2d	-0.009574694
5	0x3d8c5e4f	0.068539254
6	0x3d9a5b37	0.07536929
7	0xbdc18479	-0.09449095
8	0x3d56887b	0.05237625
9	0x3d79f77e	0.061027043
10	0x3d7b326b	0.06132738
11	0xbda8922f	-0.08231007
12	0xbd0f134e	-0.03493052
13	0xbda046c9	-0.07826001
14	0xbd65c18c	-0.056092784
15	0x3d35dc19	0.044399355
16	0xbd142085	-0.036163826
17	0xbd4ffa39	-0.05077574
18	0x3d8f4aa7	0.06996661
19	0xbdbc3543	-0.09189846
20	0x3c6b3d69	0.014357903
21	0xbd52b783	-0.05144454
22	0x3cbf330d	0.023339773
23	0x3d9578a7	0.07298403
24	0x3ca6899b	0.020329287
25	0x3d43c553	0.047795605
26	0x3d409a1b	0.047021966
27	0x3d8c893e	0.06862114
28	0xbd2c51ec	-0.042070314
29	0x3d850b67	0.064963154
30	0x3d9c07d3	0.0761868
31	0x3cd8ccb4	0.026464798
32	0x3d915e56	0.07098071
33	0xbd13c51e	-0.036076657
34	0xbc2c0166	-0.01049838
35	0x3d43f8b2	0.047844596
36	0xbd8cbf94	-0.06872478
37	0x3d3e7591	0.04649884
38	0x3d5be988	0.05368951
39	0x3d33a4e1	0.043858413
40	0xbd7cb518	-0.061696142
41	0x3caf11d3	0.021370804
42	0x3d089fab	0.033355396
43	0xbd8f3df3	-0.06994238
44	0x3b62c008	0.0034599323
45	0x3d846b2f	0.06465756
46	0x3d5c4a1b	0.05378161
47	0xbd88c1f1	-0.066776164
48	0xbac256ef	-0.0014826934
49	0xbca5b3fd	-0.020227427
50	0xbda44c6a	-0.08022387
51	0xbd93579a	-0.07194443
52	0xba911841	-0.001106985
53	0xbd3d0622	-0.046148427
54	0x3c662c32	0.014048623
55	0xbd524901	-0.051339153
56	0x3d04d988	0.032434016
57	0xbd94d4be	-0.0726714
58	0x3da8fbc0	0.082511425
59	0xbce058c4	-0.027386077
60	0xbcc41fc4	-0.023940928
61	0x3da276f1	0.079328425
62	0xbdbbb47c	-0.09165284
63	0x3c5416fc	0.012944933
64	0x3d8d938e	0.069129094
65	0xbcf0111a	-0.02930503
66	0xbd0fe9bb	-0.035135012
67	0x3d3e46ad	0.04645412
68	0x3d7c56c8	0.0616062
69	0xbcb218ee	-0.021740403
70	0x3d45e36f	0.0483126
71	0xbd493bbe	-0.04912924
72	0x3d393def	0.04522508
73	0x3da61ecf	0.08111345
74	0xbd0b98d8	-0.03408131
75	0xbd7d1b1a	-0.061793424
76	0x3d01de3f	0.03170609
77	0x379e432e	1.886635e-05
78	0xbd6ba71c	-0.057532415
79	0x3cfc4b7d	0.030797714
80	0x3d0bb486	0.034107707
81	0x3d1f0886	0.038826488
82	0x3da26161	0.0792873
83	0x3d96b66c	0.07359013
84	0xbc64b550	-0.013959244
85	0x3cd875b3	0.02642331
86	0x3c9fdab3	0.019513464
87	0x3cd7df58	0.026351616
88	0xbd8544a1	-0.065072306
89	0xbd853b6b	-0.06505474
90	0xbdb7018f	-0.08935844
91	0x3da7eb4e	0.08199178
92	0xbd21cc1b	-0.03950129
93	0x3d2d4ade	0.042307727
94	0x3c817935	0.015804866
95	0xbd8e33e8	-0.06943494
96	0x3d89c627	0.06727248
97	0xbd85237c	-0.06500909
98	0xbdac214d	-0.08404789
99	0x3cffcce1	0.031225624
100	0xbd809d58	-0.06280011
101	0xbc9a5283	-0.018838173
102	0xbd64da70	-0.05587238
103	0x3c008602	0.00784445
104	0x3d564ec0	0.052321196
105	0xbd75d295	-0.06001528
106	0x3d94e8c6	0.072709605
107	0xbdb6fa86	-0.08934502
108	0x3d5ce54a	0.053929605
109	0x3d7812ec	0.06056492
110	0xbd752993	-0.0598541
111	0xbdaf0349	-0.085455485
112	0xbd17816e	-0.03698867
113	0x3d8558e8	0.06511098
114	0x3d5a701c	0.053329572
115	0xbac851ad	-0.001528313
116	0x3d40f5a8	0.047109276
117	0x3cbab342	0.022790555
118	0x3be07815	0.0068502524
119	0x3d60c241	0.054872755
120	0xbcf40da4	-0.02979166
121	0x3cc01095	0.023445407
122	0xbdbdc7a9	-0.09266598
123	0xbca210ed	-0.019783461
124	0x3d74a340	0.059726
125	0xbccd0a46	-0.025029313
126	0xbd7c387a	-0.061577298
127	0xbc550653	-0.013001996
128	0xbd80250e	-0.062570676
129	0x3ca6a463	0.020342058
130	0xbbdd42ff	-0.0067523713
131	0x3d9e8f75	0.07742206
132	0x3d14b026	0.0363008
133	0x3cc7b159	0.024376558
134	0x3cdc90bb	0.026924482
135	0x3d8fb51a	0.07016964
136	0x3d70725c	0.05870281
137	0x3cacb1cf	0.02108088
138	0x3da917f7	0.08256524
139	0xbcc246ac	-0.02371534
140	0x3d41cf95	0.047317106
141	0xbd42e8ff	-0.047585484
142	0x3d198045	0.037475843
143	0x3d1476d4	0.036246136
144	0xbd61b0b8	-0.055100173
145	0xbceb3278	-0.028710589
146	0x3ce877fb	0.028377524
147	0x3d81da1e	0.06340431
148	0xbda6fba6	-0.08153467
149	0x3d583dd9	0.052793358
150	0xbdadc737	-0.08485263
151	0xbd2ab7c4	-0.04167916
152	0x3b7aa526	0.0038245409
153	0xbd862b1f	-0.065511934
154	0xbc830493	-0.015993392
155	0x3d97dbd7	0.07414978
156	0xbcec8597	-0.028872294
157	0x3d394dd2	0.04524023
158	0xbd1b625c	-0.0379356
159	0xbd95b4d7	-0.07309883
160	0xbcc4162e	-0.023936357
161	0x3d52168f	0.051291045
162	0xbd56bf98	-0.05242881
163	0x3d183914	0.03716381
164	0x3cbde099	0.023178386
165	0x3c2c9f20	0.010535985
166	0x3d8c595c	0.068529814
167	0xbd47f30a	-0.048815764
168	0x3acf43e7	0.0015813083
169	0x3d966590	0.0734359
170	0x3d818883	0.06324866
171	0x3ce94834	0.028476812
172	0xbcb1482f	-0.021640865
173	0x3d286ff9	0.04112241
174	0x3d001028	0.031265408
175	0x3d186a4d	0.03721075
176	0xbb901b9f	-0.004397824
177	0x3d956e09	0.07296378
178	0xbb2197d4	-0.0024657147
179	0xbdada7ec	-0.08479294
180	0xbd8589ab	-0.06520399
181	0xbd40def9	-0.047087643
182	0xbd0e62fc	-0.034762368
183	0xbd047959	-0.03234229
184	0xbb28f44e	-0.0025780383
185	0xbda713b1	-0.08158053
186	0xbd2923de	-0.04129397
187	0xbda05678	-0.078289926
188	0xbdafa186	-0.0857573
189	0xbd9271e4	-0.07150629
190	0xbd6545da	-0.05597482
191	0x3d918d94	0.07107082
192	0x3b8dea0b	0.0043308786
193	0xbd8a3ce6	-0.06749897
194	0x3d51cc1e	0.051220052
195	0xbdb72b0f	-0.0894376
196	0x3d43a93a	0.04776881
197	0xbd52d3d1	-0.051471535
198	0xbd66116b	-0.056168955
199	0xbd616e72	-0.05503697
200	0x3d354708	0.044257194
201	0xbb70eb36	-0.003676129
202	0xbd46142c	-0.04835908
203	0x3db3276a	0.08747752
204	0x3bb5f2ca	0.0055526244
205	0x3d0194bd	0.03163599
206	0xbc870895	-0.016483584
207	0xbdb37673	-0.08762827
208	0x3d6bd975	0.05758043
209	0xbce56e4c	-0.028006695
210	0x3d848b1d	0.06471846
211	0xbda8320f	-0.08212673
212	0xbd0c5bc1	-0.03426719
213	0x3b8d2cfa	0.00430834
214	0xbcdb7cca	-0.026792902
215	0x3d9e06c4	0.07716134
216	0x3d007507	0.031361606
217	0x3bd66f26	0.0065440116
218	0xbd8082e4	-0.062749654
219	0x3c80dadd	0.015729362
220	0xbd117e12	-0.03552062
221	0x3d40f648	0.047109872
222	0x3ce2d8cd	0.02769127
223	0x3d1a0c78	0.037609547
224	0x3d899d2a	0.0671943
225	0x3db5c669	0.08875734
226	0xbd900805	-0.070327796
227	0x3cf15d93	0.029463565
228	0x3cccef13	0.025016343
229	0x3d7995f4	0.060934022
230	0x3cd78b60	0.026311576
231	0xbd1fb017	-0.03898629
232	0x3d88d316	0.066808864
233	0xbcda35f4	-0.026637055
234	0xbc31fe77	-0.010863892
235	0xbd02880d	-0.03186803
236	0x3d9d7bc8	0.07689625
237	0xbc783ba9	-0.015150943
238	0x3be18c04	0.0068831462
239	0xbd3c6dbe	-0.046003096
240	0xbcb56dd5	-0.022147099
241	0xbd912c95	-0.070885815
242	0xbc4faa18	-0.012674831
243	0x3b0202cc	0.0019838093
244	0xbd53a7ad	-0.05167358
245	0x3c3f86e7	0.011689878
246	0x3ce19fe0	0.027542055
247	0x3d65f960	0.056146026
248	0x3d9a7f8d	0.0754386
249	0xbd230465	-0.039799113
250	0xbd2b25ac	-0.041783974
251	0x3da10b6b	0.07863506
252	0x3d858f7a	0.065215066
253	0x3c2b3804	0.010450367
254	0xbd8a59f4	-0.067554384
255	0x3d062090	0.032745898

mu.2.bias f4 [128]
0	0xbcb13bd9	-0.021634983
1	0xbd1066ab	-0.03525416
2	0xba6cef2c	-0.0009038325
3	0xbcb18419	-0.021669434
4	0xbd95fcda	-0.07323618
5	0xbce243a0	-0.027620137
6	0xbc5aac05	-0.013346677
7	0xbd1ef529	-0.03880802
8	0xbda5d678	-0.08097547
9	0x3d9a4473	0.07532587
10	0xbc7cb859	-0.015424811
11	0xbd6c4264	-0.057680503
12	0x3d301c11	0.042995516
13	0x3d92f50a	0.07175644
14	0xbc8944d7	-0.016756458
15	0x3d4834d9	0.048878524
16	0x3d06147f	0.03273439
17	0x3acae465	0.0015479444
18	0x3cd9c595	0.026583472
19	0x3d681f2f	0.056670364
20	0x3a0c11cb	0.00053432275
21	0x3ba5b2c4	0.005056711
22	0xbc92e147	-0.017929686
23	0xbd677ca3	-0.056515347
24	0x3d845636	0.06461756
25	0xbd3d1376	-0.046161138
26	0x3d95f715	0.07322518
27	0xbd343938	-0.04399988
28	0x3cf77dda	0.030211378
29	0xbcf43571	-0.02981064
30	0xbd96c3dd	-0.07361577
31	0x3d4cbd7b	0.04998539
32	0xbc988604	-0.018618591
33	0x3c66e6cc	0.014093112
34	0x3c7bea5b	0.015375699
35	0x3d5e9f42	0.0543511
36	0xbd666486	-0.05624821
37	0xbda15730	-0.07877958
38	0xbcb5de42	-0.022200707
39	0xbd70fc8a	-0.05883459
40	0xbd17aae2	-0.0370282
41	0x3daf2677	0.085522585
42	0x3d3c1330	0.045916736
43	0xbd8d40a0	-0.06897092
44	0xbd4fcbe4	-0.050731555
45	0xbd807bb4	-0.062735945
46	0x3ca68721	0.020328106
47	0xbc42d3df	-0.011891334
48	0x3d99f172	0.07516755
49	0xbbf76105	-0.0075494074
50	0xbdbf92fe	-0.093542084
51	0x3cd084f7	0.025454028
52	0x3d1c6272	0.038179822
53	0x3d8f48e1	0.069963224
54	0xbc9b7970	-0.018978804
55	0x3d5c0573	0.053716134
56	0xbd01e0a9	-0.031708393
57	0x3d8d18a6	0.06889467
58	0xbd82780e	-0.06370555
59	0x3d95b8d0	0.07310641
60	0xbda4a6b7	-0.08039611
61	0xbd7aef7d	-0.06126355
62	0x3cc22aa4	0.023701973
63	0xbb90f4cd	-0.004423714
64	0xbb66e5d0	-0.0035232194
65	0x3dab54b9	0.08365769
66	0x3d634fb1	0.05549592
67	0xbd8889d3	-0.06666913
68	0x3d9dcd2a	0.077051476
69	0x3d10fa8c	0.03539519
70	0x3d3293ec	0.0435981
71	0x3d4f7187	0.050645377
72	0x3c219cfb	0.009864087
73	0x3d814034	0.06311074
74	0xbd664c35	-0.05622502
75	0x3d3689d8	0.04456505
76	0x3cf63078	0.030052409
77	0x3b247226	0.0025092452
78	0xbd8b6c97	-0.06807821
79	0xbd98d274	-0.07462016
80	0xbcc320fb	-0.023819437
81	0x3c6987db	0.014253582
82	0xbd9b44fa	-0.075815156
83	0x3d947791	0.07249368
84	0xbd1b8fec	-0.03797905
85	0xbb80e6e1	-0.003933773
86	0x3d03eb39	0.032206748
87	0xbc8881ad	-0.016663397
88	0xbc02a709	-0.007974395
89	0xbd8a93eb	-0.06766494
90	0xbcd37201	-0.025811197
91	0xbd2c455e	-0.04205834
92	0x3d86b66b	0.06577762
93	0x3c9b7081	0.018974544
94	0xba8724d6	-0.001031066
95	0xbcd1a284	-0.025590189
96	0xbd35aa12	-0.044351645
97	0xbd062312	-0.03274829
98	0xbd650b9b	-0.05591927
99	0x3ce94f8b	0.028480312
100	0xbd8ad818	-0.06779498
101	0x3da6228c	0.08112058
102	0xbcbde2cb	-0.023179432
103	0x3d8d6ab9	0.06905121
104	0x3d8cbd51	0.06872047
105	0x3c850674	0.016238429
106	0x3d182f69	0.03715459
107	0xbcb71c35	-0.022352317
108	0x3b231628	0.0024885032
109	0x3db1823b	0.086674176
110	0xbd474742	-0.04865194
111	0x3d82e6cd	0.06391678
112	0x3d8d2d6f	0.068934314
113	0xbd39b12c	-0.04533498
114	0xbd82f2eb	-0.06393989
115	0x3d2905ae	0.041265182
116	0x3d6764b3	0.05649252
117	0x3da6feb9	0.08154053
118	0x3d477d93	0.04870374
119	0x3c74bb22	0.014937194
120	0x3d69de1d	0.05709659
121	0xbcc779c2	-0.02435005
122	0xbd187e49	-0.03722981
123	0xbcde7ff4	-0.027160622
124	0x3d7f46ec	0.062323496
125	0x3c483736	0.012220195
126	0xbd9bbf0a	-0.07604797
127	0x3d10355c	0.035207137

mu.4.weight f4 [4, 128]
0	0x3b5a87e6	0.0033345162
1	0x3bb307cc	0.005463576
2	0x3bc7691b	0.0060855276
3	0xbb0f74a5	-0.0021889594
4	0x3bd055e0	0.0063578933
5	0xbb708727	-0.003670165
6	0x3bb6f403	0.0055832877
7	0x3bcca7ec	0.006245604
8	0x3b251583	0.0025189824
9	0x38861ccd	6.3949825e-05
10	0x3b933acc	0.004493093
11	0xbbb4fd69	-0.005523373
12	0x3ae6b556	0.001760165
13	0x3ab240bc	0.0013599615
14	0xbb00969a	-0.0019621016
15	0xbbe6b8f5	-0.0070410916
16	0x3a975ab4	0.0011547417
17	0xbab3d916	-0.0013721313
18	0xbaa98ace	-0.0012935044
19	0x3b902cfa	0.004399893
20	0x3bb687cd	0.005570388
21	0x3854d0b8	5.0739123e-05
22	0xbbb92067	-0.0056496146
23	0xbc42e9e7	-0.011896587
24	0xbbdd5fae	-0.0067557907
25	0x3b9e13af	0.004824124
26	0x3b246000	0.0025081635
27	0xbca2275a	-0.019794155
28	0xbb79daf7	-0.0038124898
29	0xbd14c74c	-0.036322877
30	0x3a7dc271	0.0009680158
31	0xbbeb7333	-0.0071853637
32	0x3bd94b66	0.0066313026
33	0x3b5af85a	0.003341219
34	0x3afa2e97	0.0019087371
35	0x3bbebd14	0.0058208797
36	0xbc30b333	-0.010784912
37	0x3bf9547b	0.007608948
38	0x3aa212cc	0.0012365221
39	0x3acb650a	0.0015517783
40	0x3ba411c0	0.005006999
41	0xbaaee11c	-0.0013342234
42	0x3ba5137e	0.005037724
43	0xbc0aa869	-0.008463004
44	0x3957f6ae	0.00020595893
45	0x3baee2f2	0.0053371126
46	0xbc5f0e1f	-0.013614207
47	0x3bf7aed3	0.0075586825
48	0x3ba87692	0.005141088
49	0x3a679454	0.00088340533
50	0x3b25a392	0.0025274497
51	0xbae179e7	-0.0017202467
52	0x3b924fe4	0.00446509
53	0x3bba4f2d	0.005685708
54	0xb8c5a263	-9.423939e-05
55	0xba1dfe19	-0.0006026938
56	0x3b1da8af	0.0024056842
57	0xbaedd554	-0.0018145242
58	0x3c0b61ac	0.0085071735
59	0xbb237b95	-0.0024945487
60	0xbae564ed	-0.0017501392
61	0xbb1b66e7	-0.0023712458
62	0x3bb23069	0.0054379
63	0xbbdc0ba4	-0.006715255
64	0x3c022220	0.007942706
65	0xbc00175e	-0.007818071
66	0xbc38d284	-0.01128066
67	0x3b1ae69d	0.0023635991
68	0x3b8969e5	0.004193532
69	0xbc60e2a1	-0.013725908
70	0x3afa7aba	0.0019110062
71	0x3bd2cefd	0.0064333663
72	0x39a7ba2f	0.0003199144
73	0xbc064c1c	-0.008196857
74	0x3b49dfd7	0.0030803585
75	0x3b0f0196	0.0021821014
76	0x3bb718ff	0.0055876966
77	0xbb150677	-0.002273945
78	0xbafe10c4	-0.0019383659
79	0x3bc7707b	0.0060864068
80	0xbb7c2e31	-0.003847968
81	0xb983a712	-0.00025110744
82	0x3c8c14c5	0.017099747
83	0x3a614f71	0.00085949065
84	0x3a6459cf	0.0008710892
85	0xbb9fe620	-0.004879728
86	0xbba401fe	-0.0050051203
87	0xbbb0a522	-0.005390779
88	0xbc61fe54	-0.013793547
89	0x3b781d0c	0.003785911
90	0xb9312938	-0.0001689539
91	0x3c264511	0.010148303
92	0x3b14f32f	0.0022727957
93	0xbc2c725f	-0.010525315
94	0x3b8c27ca	0.004277204
95	0x3bcd856c	0.0062720086
96	0xbd06eb4f	-0.03293925
97	0x3cbc9e48	0.023024693
98	0x3baad906	0.0052138595
99	0x3bc21d7c	0.005923925
100	0xbbd54836	-0.0065088524
101	0x3b4b1616	0.0030988506
102	0xbbecd931	-0.0072280397
103	0x3ba8547a	0.0051370235
104	0x3bcd5685	0.0062664174
105	0xba717eda	-0.0009212323
106	0xbb96fc59	-0.004607719
107	0x3bb9e397	0.005672883
108	0xbaea2982	-0.0017865153
109	0x3bec5d9c	0.0072133075
110	0x3b91669b	0.0044372804
111	0x3a11dd53	0.0005564291
112	0x3afcec35	0.0019296469
113	0xbb3d20ff	-0.0028858779
114	0x3bbd3ec7	0.005775306
115	0xbbe4ce33	-0.0069825887
116	0x3be6fe87	0.007049385
117	0xb994f009	-0.000284076
118	0xbb0ab021	-0.002116211
119	0xbb1740fb	-0.0023079503
120	0xbac9d2cb	-0.0015397904
121	0x3bf4c2a9	0.0074694944
122	0x3b244c56	0.0025069914
123	0x3b47d141	0.0030489715
124	0x3c13c229	0.009018459
125	0x3b07d23a	0.002072467
126	0xbc9dca9b	-0.019261649
127	0xbb985b61	-0.004649565
128	0xbba215a7	-0.004946429
129	0xbae97cd1	-0.0017813687
130	0xbc133e58	-0.008987032
131	0x3a060343	0.00051121804
132	0xbacb279d	-0.0015499477
133	0x3c50fad8	0.012755118
134	0xbbf49c97	-0.007464956
135	0x3c42f0d4	0.011898238
136	0xbb679b4f	-0.0035340374
137	0x3b54480f	0.0032391583
138	0xbb3f9f29	-0.0029239154
139	0xbc2879a1	-0.010282905
140	0xbbf1fe1e	-0.0073850295
141	0xbba4d023	-0.0050296946
142	0xbcd05c50	-0.025434643
143	0xbae46356	-0.0017424624
144	0xbb86b8c2	-0.0041113803
145	0xb98d8c34	-0.00026998075
146	0x3b8e0091	0.0043335636
147	0xbc1adae8	-0.009451605
148	0xbb5232ec	-0.0032073809
149	0x3b766354	0.0037595825
150	0xbd38cf2f	-0.04511946
151	0x39f39e04	0.00046466303
152	0x3c4d1f1e	0.012519626
153	0xbbbd501e	-0.005777373
154	0xbbeb30ae	-0.007177434
155	0xbc91a8da	-0.01778071
156	0x3b0921e6	0.0020924746
157	0xba9ae294	-0.0011816793
158	0x3c8381c9	0.016053097
159	0x3c0accef	0.008471712
160	0xbc373ffd	-0.01118469
161	0x3b38536d	0.0028125898
162	0xbc1dc3dd	-0.009629217
163	0xbbac1cdd	-0.005252464
164	0xbc349a5f	-0.011023133
165	0xbb6315bc	-0.0034650406
166	0xbbcb53e9	-0.006205071
167	0xbbe35f4a	-0.0069388496
168	0x3b9cf149	0.0047895056
169	0xbc898a83	-0.01678968
170	0xbaa71e9c	-0.0012750211
171	0x3b807ea4	0.0039213467
172	0xba47c406	-0.00076204573
173	0xbc11f08c	-0.0089074485
174	0xba14f691	-0.0005682493
175	0x3bf421fc	0.0074503403
176	0xbc3397a8	-0.010961451
177	0xbafaea45	-0.0019143304
178	0xbab3609d	-0.0013685409
179	0xbb24adce	-0.002512801
180	0xbbdaaa82	-0.006673158
181	0x3a85672d	0.0010177844
182	0x3bff898d	0.0077983798
183	0x3b493826	0.0030703633
184	0xbc3a4bcc	-0.01137061
185	0x3a475945	0.000760455
186	0x3a9bbc64	0.0011881706
187	0x3a538235	0.00080684136
188	0xbbaa4ed1	-0.005197384
189	0x3b35d1fa	0.0027743564
190	0x3c4dbed0	0.0125577
191	0xbc02b086	-0.007976657
192	0xbb635f26	-0.0034694164
193	0xb86e56f3	-5.68246e-05
194	0xbccd6c11	-0.025075944
195	0xbbd8087e	-0.006592809
196	0xbb43b071	-0.0029859806
197	0xbcbb06e9	-0.022830443
198	0xbd17d1df	-0.037065383
199	0x3b4e2db7	0.0031460354
200	0xbbb700dd	-0.0055848197
201	0xbc196efe	-0.0093648415
202	0xbb49664f	-0.0030731147
203	0xbbc343f0	-0.0059590265
204	0x3941d4da	0.00018485208
205	0x3b64db15	0.0034920622
206	0xbc0ef23e	-0.008724747
207	0xbb957898	-0.004561495
208	0xbc505229	-0.012714901
209	0xbc5aa956	-0.013346037
210	0x3c51a137	0.012794784
211	0xbc342b16	-0.010996601
212	0xbba9259d	-0.0051619546
213	0x3b151167	0.0022745968
214	0x3c4281a3	0.011871728
215	0xbabf851c	-0.0014611813
216	0xbae76f1c	-0.0017657015
217	0x3be6e441	0.007046253
218	0xbc503faa	-0.012710491
219	0xbbb1eff6	-0.005430217
220	0xbbc4dcc1	-0.006007761
221	0xba99ff67	-0.001174909
222	0xbb2bd170	-0.0026217364
223	0xbb322ec7	-0.0027188526
224	0x3993889e	0.00028139813
225	0x3ca44550	0.020052582
226	0xbbf3f857	-0.007445376
227	0xbb891c2e	-0.0041842675
228	0x3baa29f4	0.0051929895
229	0xbc08a635	-0.008340408
230	0xbc7e267c	-0.015512105
231	0xbb98e228	-0.004665632
232	0x3ba2a181	0.0049631004
233	0xbb14b514	-0.0022690939
234	0xbcf519b2	-0.029919479
235	0x3a30f9a0	0.0006751064
236	0xbc5fdb37	-0.013663105
237	0xbbcc7547	-0.0062395665
238	0xbbd5ebdd	-0.0065283612
239	0xbc13343c	-0.008984622
240	0xbb7961ef	-0.0038052758
241	0x3b78dd14	0.003797357
242	0x3be341c5	0.0069353306
243	0x3c16e753	0.009210425
244	0xbb1a24e3	-0.0023520521
245	0x3b29f7b8	0.0025935005
246	0x3a9c2bc0	0.0011914894
247	0xbc3fe499	-0.011712217
248	0xbc854e4c	-0.016272686
249	0xbbaf6df3	-0.005353683
250	0xb9f4ee18	-0.000467167
251	0xbaa249e7	-0.0012381644
252	0x3c1c3f7f	0.009536623
253	0xbb943643	-0.00452307
254	0xbc9b1da7	-0.018935038
255	0xbbce4c22	-0.006295697

mu.4.bias f4 [4]
0	0x3b911264	0.004427241
1	0xbc0cdc62	-0.008597465
2	0xbbbe5f31	-0.0058096875
3	0x3be03969	0.0068427813
