experiments/data/sawyer_clutter_200steps_10H/sac/2021-06-09_10-25-52_clutter_200steps_10H/policy_1200.pt (torch_old, 75801 bytes, 6 tensors)

mu.0.weight f4 [128, 12]
000000 90 f1 90 bd d0 15 8e be 0a ed 84 bd 35 6b 1f 3d
       -0.070773244 -0.27751017 -0.06490524 0.0389206
000010 fd 9b 3f bb fe ee 7f be c0 69 1d bd ea 01 10 3d
       -0.0029237263 -0.24993512 -0.03843093 0.035158075
000020 25 b9 ea bc 54 5d b8 bc 98 f5 d5 bd 24 55 47 3e
       -0.028652737 -0.02250544 -0.10447234 0.19466072
000030 67 eb 34 3e dd ed 59 3e 8f 81 37 3d 01 42 f1 3d
       0.17667924 0.21282144 0.04480129 0.11780167
000040 62 00 5c bd f9 e0 90 be ed 12 ab 3d dd 74 88 be
       -0.053711303 -0.2829664 0.08353219 -0.2665166
000050 36 eb 73 be ac 3d 89 3e 9b 2e 38 3d 0b 73 4b 3d
       -0.23820195 0.26804864 0.04496632 0.04967026
000060 fa a8 a6 bd 1f a8 97 3d 08 65 d0 3d 4f 81 52 3e
       -0.081376985 0.074051134 0.1017552 0.2055714
000070 19 fe 55 be 8e 4b 12 be 42 fb 97 3b b4 21 dd 3d
       -0.20897712 -0.14286634 0.0046381066 0.10797444
000080 91 b0 83 3e 10 fb 4a be 2d e1 16 be 20 e8 a1 bd
       0.25720647 -0.19822335 -0.14734335 -0.079056025
000090 43 c3 87 be 9a f7 35 bc 15 3a 0c be c2 4e 6a be
       -0.2651616 -0.011106396 -0.13694032 -0.22881606
0000a0 8d 88 67 be 51 09 0c 3e ca a7 4b bc 3d d4 de 3d
       -0.22610684 0.13675429 -0.012430141 0.10880325
0000b0 5f 5f 40 3e 52 bb 1f 3e 22 95 83 bc 28 f5 2e 3e
       0.18786381 0.15598801 -0.016062323 0.17085707
0000c0 11 96 24 be 51 e4 84 be 61 a7 02 3e 86 95 39 3d
       -0.16072871 -0.25955442 0.12759162 0.045308612
0000d0 4f 87 0f 3e 0b 1d 0c be 12 c6 58 be c2 80 6c be
       0.1401646 -0.13682954 -0.21169308 -0.23095992
0000e0 e8 81 39 be d3 b4 78 3e 53 ec 04 bc 26 dc 25 38
       -0.18115962 0.24287729 -0.008112985 3.9544095e-05
0000f0 00 01 cc 3d 2c 5a c3 3d c0 f0 7f 3d 65 39 8e 3e
       0.09961128 0.09538683 0.062485456 0.27778164
000100 8b 0f 55 be df d1 1d bc a7 ab 8b 3e 79 b3 16 3e
       -0.2080671 -0.009632557 0.27279398 0.14716901
000110 ad 5a 90 be fb da 38 bd 4b f3 1e be 6e 4e 8d 3e
       -0.2819418 -0.04513071 -0.15522496 0.275989
000120 6b 46 d6 bd 55 ea cd 3c ee f5 8b 3e cb 1e 4e 3e
       -0.1046265 0.025136152 0.27336067 0.20128934
000130 ce 5e 8c be 38 00 60 3d 45 a0 f8 bd d3 83 34 3e
       -0.2741608 0.05468771 -0.12139944 0.17628412
000140 c2 20 57 3e b3 98 90 bd d2 4c 2a bd 2f 96 72 be
       0.2100859 -0.07060375 -0.041577168 -0.23690103
000150 de ef 50 be 36 1a e0 bd c8 fb 1f 3e dc d1 39 3e
       -0.20404002 -0.10942499 0.1562339 0.18146461
000160 33 1d 0d 3e ff 52 c9 3d 70 10 97 3d 18 a3 e6 3b
       0.1378067 0.098302834 0.07376182 0.0070384853
000170 31 c1 0f 3e a2 3c 1e bc 0a 69 15 be 40 eb 07 be
       0.1403854 -0.009658011 -0.1459085 -0.13273335
000180 b2 42 ff bd 33 0a 0f be 83 bd 52 3e 66 bf 79 be
       -0.12463893 -0.13968734 0.20580105 -0.24389419
000190 cb d9 11 bc 0a 17 2e be f0 db ea bb fe 6e 35 3e
       -0.008902024 -0.17000976 -0.007167332 0.17718121
0001a0 0f bb 73 3d 60 8d 72 bd 2c 6c 73 3e b9 07 50 be
       0.059504565 -0.059216857 0.23771733 -0.20315446
0001b0 17 17 75 3d b2 fa 53 3e 09 c9 d6 3b d7 f5 ab bd
       0.059836473 0.20701101 0.006554727 -0.083964996
0001c0 61 1c 39 be 69 5d a5 3d 92 a8 56 bc b0 f0 16 bd
       -0.18077232 0.08074457 -0.013101714 -0.03685063
0001d0 08 d9 84 be 81 eb 72 3d 14 c2 9d 3d 4a 43 66 be
       -0.25946832 0.059306625 0.07703033 -0.22486606
0001e0 85 69 6d 3e a0 52 21 be b9 68 60 3d dc 37 15 be
       0.23184784 -0.15754175 0.05478737 -0.1457209
0001f0 e3 13 31 be 73 b4 2b be c0 07 7e 3d ef 08 7a be
       -0.17292742 -0.16768055 0.06201911 -0.2441747
000200 f5 66 0c be 99 32 3c be f5 2d a7 bd ce ab 31 3e
       -0.1371115 -0.18378676 -0.081630625 0.17350695
000210 e7 c5 eb bd 64 06 a6 3d 8f 54 46 3e 17 f4 89 be
       -0.11512356 0.08106688 0.19368194 -0.26944038
000220 7c 62 8b bd 13 cd 79 be ed 82 8c be b3 ab 2b bd
       -0.06805894 -0.24394636 -0.27443638 -0.041911792
000230 de 23 cf bd 3d d2 ea bd 24 4e 5e 3e bf 8e e7 bd
       -0.10114263 -0.11465881 0.21709496 -0.113065235
000240 03 ea 62 3e 71 5f 57 3e d1 0e 0a be 59 ed e5 3c
       0.22159581 0.21032502 -0.13482215 0.028067278
000250 33 2f 0d bd cd e2 1b be 60 e6 17 be 6e 93 72 be
       -0.03446884 -0.15223236 -0.14833975 -0.23689052
000260 cd cb 31 be 4d 3a 81 3d 2a 7a 03 3c aa 7b 91 3e
       -0.173629 0.06309948 0.008024732 0.2841466
000270 a7 1b 1f be 76 29 1d be 6d 36 88 be 93 bc 1f bd
       -0.15537892 -0.15347847 -0.26604024 -0.038998198
000280 e0 78 8e 3e 04 57 32 be 8a 10 13 bd 8f ea 4c 3e
       0.27826595 -0.17416006 -0.035904445 0.20011352
000290 30 da 5c be c8 16 2a be 08 d5 87 3d 57 3a 19 bd
       -0.21567607 -0.16610253 0.06632429 -0.037409153
0002a0 9a de 07 be bb 15 ef 3d 9c 4c 05 be 12 fc 71 3d
       -0.1326851 0.11674067 -0.13017505 0.059078284
0002b0 84 93 c1 bd d1 dd 4f 3e e3 cb 56 3e 2f 65 0a be
       -0.094519645 0.2029946 0.20976214 -0.13515161
0002c0 f5 9e d6 bd b6 b1 86 be ac 37 3e be 8d 56 93 3e
       -0.104795374 -0.26307458 -0.18575925 0.2877697
0002d0 e7 b3 78 3e 95 9d e6 3d 40 07 90 be cb 83 a9 bc
       0.24287377 0.11260525 -0.2813053 -0.020692727
0002e0 59 aa 6e 3e ad a0 8b 3e 07 3b 90 3e c4 5e 4c be
       0.2330717 0.27271023 0.28170034 -0.19958025
0002f0 f3 b4 4b 3e 8a 1f 9e bd 9d 0c 1f be 3e b6 99 bd
       0.19893245 -0.07720859 -0.15532155 -0.07505463
000300 18 d1 90 be 78 03 3d be 4d b1 bc 3d 37 f2 9c 3d
       -0.28284526 -0.18458354 0.09213505 0.07663386
000310 8f f0 21 3d 8c 73 76 3c e4 27 10 bd 61 50 c8 3d
       0.039536055 0.015042197 -0.035194293 0.09780956
000320 70 f3 b1 3d 3c 8c 70 3e 3c f2 3f 3d d3 6e 3b 3d
       0.0868901 0.23490995 0.046861872 0.045759987
000330 06 50 38 3d dd ee c6 bc 03 48 20 be a6 a7 78 bd
       0.04499819 -0.02428382 -0.1565247 -0.060706757
000340 cd b6 3b 3e 68 46 5d 3e 4e ba 31 be 3f 74 79 be
       0.18331452 0.21608889 -0.17356226 -0.2436075
000350 38 55 cd 3c 85 8b 72 bd f8 7c 5d 3e c3 d8 08 be
       0.02506505 -0.059215087 0.21629703 -0.13363938
000360 b5 1e 81 3d 7b 57 2c 3e 73 bf d2 3d bd d9 65 be
       0.06304685 0.16830246 0.10290422 -0.22446342
000370 5e d3 97 3c 74 7e 33 be bf 42 8d 3e 02 02 8d be
       0.018533405 -0.17528707 0.27589986 -0.27540594
000380 73 e8 84 3e b2 3f 81 be ce d3 b9 3c 41 f5 6e be
       0.25958595 -0.25243908 0.022684004 -0.23335744
000390 d2 31 31 be 3f 76 6d be 80 a7 a6 bb 5a 5e 4e be
       -0.17304161 -0.23189639 -0.0050858855 -0.2015318
0003a0 70 2c e3 3d a0 b2 0e be 46 c9 2e be 47 53 3e be
       0.1109246 -0.13935328 -0.17068967 -0.18586455
0003b0 16 06 41 be 54 0d 66 3e 55 f9 57 be 17 4b 25 3d
       -0.18849978 0.22466022 -0.21091206 0.040354814
0003c0 2c b6 5f bd 56 51 01 3e 3c eb fd bd 98 5d 41 3e
       -0.054617092 0.12628683 -0.12398383 0.1888336
0003d0 bb 3d 45 3e 0c 35 40 bd a5 29 33 3d 5e 5e 0e 3e
       0.1926183 -0.04692559 0.043740887 0.13903186
0003e0 08 93 14 be de e3 90 3e a8 a5 fb bd 7b 79 6b be
       -0.14509213 0.2829885 -0.12287456 -0.2299556
0003f0 44 25 85 3c 42 f7 9c 3d da 40 7a be 19 cc 73 3e
       0.016253121 0.07664348 -0.24438801 0.23808326

mu.0.bias f4 [128]
000000 45 bc 5d bd 3c a3 4b be e5 3c 06 be 8d e5 9e bd
       -0.054134626 -0.19886488 -0.13109167 -0.07758627
000010 35 25 a0 bd f3 b3 8b be 65 f2 ab 3d d1 86 7a be
       -0.07819597 -0.27285728 0.083958425 -0.24465491
000020 fa d0 60 3d 6c c4 07 bd 47 60 fe 3c f2 12 81 3e
       0.054886796 -0.033146307 0.031051768 0.25209767
000030 fe 52 b5 3d eb ab 4e be 43 2b 72 3e 56 d0 49 bd
       0.0885372 -0.20182769 0.23649316 -0.04927095
000040 a0 0d 6c be 37 b5 c0 bd e3 6a 61 3c 54 86 11 3e
       -0.23052073 -0.09409564 0.013758394 0.14211398
000050 8e 69 8b 3e 36 bf 0a 3e b1 83 6b 3e 33 7c 24 be
       0.2722897 0.13549504 0.22999455 -0.16063003
000060 f6 a2 6c be 34 8f 1f bd 9d 43 24 be 6d 13 4c 3d
       -0.2310904 -0.03895493 -0.16041417 0.049823213
000070 fa 65 22 3b f0 0b 2b 3d 5a 19 93 bd 65 4f 2e 3e
       0.002478002 0.04175943 -0.0718257 0.17022474
000080 a5 b1 55 3e 1c 80 0b 3e da 61 13 bd 5f f9 83 3e
       0.20868547 0.13623089 -0.03598199 0.25776193
000090 bf 57 e3 bd d6 bc 46 3e 86 e6 73 be f1 3e 94 be
       -0.111007206 0.19407973 -0.23818406 -0.2895427
0000a0 90 6e 0f 3e 5c 36 0d 3e e8 d3 6c bd 31 96 8e 3e
       0.1400702 0.13790268 -0.057819277 0.27848962
0000b0 1e 71 5d be 6d 57 b9 3d 28 9b 3e 3e 07 8d 4a 3e
       -0.21625182 0.09049878 0.18613875 0.1978036
0000c0 fb 8c e0 3c d4 cb 8b be b3 ee e2 bc fa 72 14 3d
       0.027410975 -0.27303946 -0.027701711 0.036242463
0000d0 96 c6 c6 3d 6e 9e 46 3e 14 9a 80 3e 68 ee 2b 3e
       0.09705846 0.19396374 0.25117552 0.16790164
0000e0 86 ed 6a 3e a0 4d c5 bc 4b bd 1f bd 2a 11 4d 3e
       0.2294217 -0.024084866 -0.038998883 0.20026079
0000f0 09 e8 0e 3e 68 69 83 bd 5a c3 8c 3d f8 e6 5f 3e
       0.13955702 -0.06416589 0.06873198 0.21865451
000100 10 e0 1d 3e 4b 68 f1 3d 99 7e 95 bd 6c 7f 33 bd
       0.15417504 0.117874704 -0.07299537 -0.04382269
000110 e3 bc 5b 3d 04 bf b6 bd 49 ea cc bd 2f 45 86 be
       0.053646933 -0.08923152 -0.10005624 -0.26224658
000120 27 90 68 bc 68 5c 51 3e 82 9b 89 be be ad 47 be
       -0.014194525 0.20445406 -0.26876456 -0.19499871
000130 8f 77 1b 3e 5b 57 86 3e 27 68 f5 bd 7f a1 ad 3c
       0.15182327 0.26238522 -0.11982756 0.021195171
000140 f1 8a 14 be 9d 01 83 3e 65 80 79 3e 82 a2 7c 3e
       -0.14506127 0.25587168 0.24365385 0.24671367
000150 6f db 3f 3e e7 72 a9 bd fe f3 8c be 22 20 89 3e
       0.18736051 -0.08273869 -0.275299 0.26782328
000160 2c a7 09 be ce d1 66 3d 56 fd 22 be 01 b6 5b 3e
       -0.13442677 0.05635243 -0.15916952 0.21456148
000170 e9 28 2b 3e 26 b9 50 be bb 62 dd 3c b1 d3 98 bd
       0.16714825 -0.20383129 0.027024617 -0.07462252
000180 70 05 b0 3d 01 5a 54 3e 44 ba 60 be 8b d1 41 bd
       0.08594787 0.20737459 -0.21946055 -0.047318976
000190 fe 45 0e be 32 90 25 3e 91 2d 4a 3d f8 c9 49 3e
       -0.13893887 0.16168287 0.04935986 0.19705951
0001a0 e3 83 59 be b3 f0 84 be 0f 77 8a be ff 41 23 bb
       -0.21241717 -0.2596489 -0.2704396 -0.0024911163
0001b0 ab 93 12 bd 6b 1e 66 3e 5b 05 2c 3b 94 f8 50 bb
       -0.03578536 0.22472541 0.002624831 -0.0031886445
0001c0 0b 2d 10 3e c2 dd 2d be 87 d8 7d 3e f9 d4 3a 3d
       0.14079683 -0.16979125 0.2478963 0.045613263
0001d0 b0 75 88 3e 0e 6b 5c be 85 84 54 3d 6b 07 51 3e
       0.26652288 -0.21525213 0.051884193 0.20412986
0001e0 3c 15 08 3e 62 d8 3c bd 2e 13 07 3c c2 a0 65 3e
       0.1328935 -0.046104796 0.008244319 0.22424605
0001f0 b8 2d 36 3d c9 c3 71 bd 82 72 15 3e 45 fc fc bd
       0.044477195 -0.059024606 0.14594463 -0.12352804

mu.2.weight f4 [128, 128]
000000 6a 1d 9c 3d 62 8a ff bc 2c 05 5b 3d 42 df 4e bd
       0.07622798 -0.031193916 0.05347173 -0.050505884
000010 d3 ab 78 3d fb e1 74 bd ff c2 ab 3a 8a c3 80 bc
       0.06071074 -0.059785824 0.0013104378 -0.01571824
000020 88 b0 5d bd 44 6b ad 3d 0f 1f a0 3d 99 0d 8c bc
       -0.05412343 0.08467725 0.07818424 -0.017096328
000030 8e 23 ae 3d 1b 61 ac bc 76 4c 92 3d 8b f1 06 3d
       0.08502875 -0.021042397 0.0714349 0.032945197
000040 a0 b1 55 bb 9b c1 20 bd 46 12 9d 3c 0b 95 00 bc
       -0.0032607093 -0.039247137 0.019173753 -0.007848035
000050 69 e1 a5 bd 46 86 45 3d a4 d0 42 3d 76 6d 27 bd
       -0.08099634 0.048223756 0.047562256 -0.040875874
000060 dc 85 0d bd 94 9b 59 bd 3b 20 22 3d 71 bb 0d 3d
       -0.034551486 -0.053126886 0.03958152 0.034602586
000070 55 5f 47 3d d1 f0 98 3d b5 57 84 bd bb 50 a9 bc
       0.0486749 0.07467807 -0.06462041 -0.020668378
000080 de de e9 bc e1 0f 05 3d 2b 07 8e ba 2f 49 3a bd
       -0.028548654 0.032485846 -0.0010835876 -0.04547995
000090 53 2b 98 bc 83 d8 8e 3d ec 26 07 bd bb 9e 70 3c
       -0.018575346 0.0697489 -0.032996103 0.014686282
0000a0 c9 83 53 3d 94 b0 99 bd 59 a8 4e 3d 2a 47 5d bd
       0.051639352 -0.07504383 0.050453518 -0.054022945
0000b0 eb a2 a5 bd d3 ac ae bd 6f 9a 96 bd b2 57 3e bd
       -0.08087715 -0.08529057 -0.073536746 -0.04647035
0000c0 b4 61 9b bd 4a 4c 67 3d e7 85 7e bd 35 e4 af 3d
       -0.07586995 0.05646924 -0.062139418 0.08588449
0000d0 2e 6b 8b 3d e7 30 72 3c 23 1f 6a 3d e6 97 27 3d
       0.06807552 0.014782167 0.0571586 0.040916346
0000e0 3f c8 9d 3d 41 63 9f bd 8c 6a 3c bc 70 23 70 bd
       0.077042095 -0.07782603 -0.011500012 -0.058627546
0000f0 b1 d7 0c 3d 53 4b af 3d d8 4a 94 3d 7a 26 b1 3d
       0.034385387 0.08559289 0.07240838 0.08649917
000100 31 d7 2e 3d ac 26 25 bd fd 6d df 3b c6 65 4d 3d
       0.04268569 -0.040320083 0.0068185315 0.050145887
000110 1f 01 46 3d 7a de 7c 3d 51 c9 a7 bd fa 5a ae ba
       0.048340913 0.061735608 -0.08192695 -0.001330226
000120 50 31 84 3d 67 96 82 3c 75 fe 27 3d 76 9f 79 3d
       0.06454718 0.015940858 0.041014154 0.06094309
000130 fd f0 a0 bd dd 88 c3 bc b8 9f ff bb ba 84 0a 3d
       -0.07858465 -0.023868972 -0.0078010224 0.033817984
000140 f3 6a 75 3d 94 cc 22 3b 60 70 2f 3d c0 e2 a0 3d
       0.059916448 0.0024841176 0.04283178 0.07855749
000150 a7 13 c1 bc b2 99 21 bd 5f 4b f9 bc 32 5d fd bb
       -0.023568941 -0.039453216 -0.030431448 -0.007732057
000160 93 98 ad 3b 0b ac 56 3d d7 61 12 3d 19 df d7 bb
       0.0052977293 0.052410167 0.03573784 -0.0065878746
000170 49 51 0e bd 1e ac 09 3d 28 dd 18 ba 10 b7 d1 bd
       -0.03474549 0.03361141 -0.00058312947 -0.102399945
000180 3a 71 80 3d 6b 15 95 bd e6 3d 95 3d c7 a1 9f bd
       0.06271596 -0.07279476 0.07287197 -0.077945285
000190 e3 82 14 bd 27 3b 18 3d 28 e9 5f bd 59 ff 66 bd
       -0.036257636 0.037165787 -0.054665715 -0.056395862
0001a0 12 11 cf bc c0 62 cd bc a2 b6 47 bd d4 03 b1 39
       -0.025276694 -0.025071502 -0.048758157 0.00033762923
0001b0 37 c6 dd 3c 53 54 48 3d ff 18 c3 3d 18 88 7c 3d
       0.027072055 0.048908543 0.09526252 0.061653227
0001c0 cf 1e 01 bd 8b 9b a5 3d 3a ce 5d bd 42 9a 15 bd
       -0.031523522 0.08086308 -0.05415175 -0.036524065
0001d0 ce 8a 29 bd a9 51 9f 3b a3 cc 14 3d 3a fa 54 3c
       -0.04139214 0.0048620296 0.03632797 0.012999112
0001e0 a0 b3 41 3d da 60 64 3d e1 56 97 bd 18 d2 1f bd
       0.047290444 0.055756427 -0.07389618 -0.03901872
0001f0 ad 1c 2e 3c 87 e7 6f 3c bb 83 c8 3c 60 4b 9c 3d
       0.010626954 0.014642603 0.024476876 0.07631564
000200 ab 91 20 3c c7 d8 ee bc e4 5c cc 3c a8 cf 02 bd
       0.009800355 -0.029156102 0.024946637 -0.031936318
000210 c7 c6 94 bb ec ea 95 3d fb 20 a9 bd b1 ce 5f bd
       -0.0045402977 0.073201984 -0.08258244 -0.054640476
000220 7a 59 a3 3d 0d ca 91 bc 23 df 6e bd ce ec 92 3c
       0.07976051 -0.01779654 -0.05831827 0.017935183
000230 f9 69 85 bd 6e 4d fb bc af 4a f4 bc 3a 77 a2 3c
       -0.06514353 -0.03067657 -0.029820768 0.019832242
000240 68 5e 38 3d 82 c4 38 b9 6e cf 59 3d 43 10 10 bd
       0.045011908 -0.00017620812 0.053176336 -0.03517176
000250 b2 09 19 3c 7f c4 83 bd 38 d3 5a bd ef 04 80 3c
       0.00934069 -0.06433963 -0.05342409 0.015627353
000260 af 8d af 3d d0 b0 14 3c 57 28 c0 bb 51 2d b3 3c
       0.08571946 0.0090753585 -0.005864184 0.021872194
000270 bd d6 a2 39 1c fa 4b 3c d1 ed cc bc b3 24 8c 3d
       0.0003105904 0.012449767 -0.025015743 0.06842937
000280 e7 92 6e bd 30 72 23 3d 50 23 8e bd f6 e5 9e 3d
       -0.058245566 0.03990382 -0.06940329 0.07758705
000290 17 b0 ed 3c 82 fa 95 3d 8e 6f 1c 3d 9d 72 ba bb
       0.02901463 0.07323171 0.038192324 -0.0056899325
0002a0 52 47 e9 3c 35 98 1a 3d cb 00 77 3b 9f 53 7c 3b
       0.028476391 0.037742812 0.0037689682 0.003850199
0002b0 1d 22 77 3d bd c1 bf bc fe f7 a4 3d 45 33 45 bd
       0.060335267 -0.023407811 0.08055113 -0.048144598
0002c0 65 c2 92 bd 14 3e 6b 3c 02 c5 8e 3d d8 8f df bc
       -0.07165984 0.014358062 0.0697117 -0.02729027
0002d0 19 1d 58 bd e9 43 73 3d f2 98 ac 3d 06 b4 de 3a
       -0.052762125 0.059390936 0.084276095 0.0016990907
0002e0 2d 38 a8 bd c0 ae 9e bd cc b5 d0 3c 36 37 7d bd
       -0.0821384 -0.07748175 0.025477313 -0.06182023
0002f0 cb 7c 71 3c f5 fc d8 3c 56 2a b1 3d 51 da 3e 3d
       0.014739226 0.026487807 0.08650653 0.04659492
000300 5d 0b 8d bc 96 8c 82 3d d2 da 8f 3c 5e 31 8e 3c
       -0.017217332 0.06374471 0.017560396 0.017357524
000310 81 4e 1b bd 2d e5 63 3c bc 0d 5c bd 90 a2 b1 bb
       -0.037916664 0.01390962 -0.053724036 -0.0054209903
000320 24 1f 5a 3d ce 94 ba bd a7 04 ef bb 28 05 aa 3c
       0.053252354 -0.091104135 -0.007294256 0.020754412
000330 85 3e 2d bd df e0 8f 3d a1 fd 9d 3d ce 08 39 3d
       -0.04229595 0.07025313 0.077143915 0.045174412
000340 0e 22 9d bd 27 f0 8d 3d 0e de 6a bc 9e a4 26 bd
       -0.07672511 0.06930571 -0.0143351685 -0.040684335
000350 96 78 97 bd 6d 39 70 3b 7a 00 a9 3d fb 7c 5a 3d
       -0.07396047 0.0036655322 0.08252044 0.053341847
000360 8b 27 93 bd a8 b3 2e 3d 07 a7 99 bd 29 24 4f 3d
       -0.071852766 0.042651802 -0.07502561 0.050571594
000370 9e 8c 4c bd a0 0c a4 bd d1 f6 1a 3d a4 4c 5a 3d
       -0.04993879 -0.080102205 0.03783304 0.053295746
000380 bc 47 fe bc 77 ad 25 bd 1b 9f 12 3c 9d 2c d9 bc
       -0.031040065 -0.040448632 0.0089490665 -0.026510531
000390 96 d4 06 3d c8 35 b9 3d 28 63 c0 bd d7 ff aa 3d
       0.03291758 0.09043461 -0.093939126 0.08349579
0003a0 60 18 36 bd 56 0c 79 bd 3c 21 ee bb bb 4d 07 bd
       -0.04445684 -0.06080278 -0.0072671454 -0.033033114
0003b0 05 f1 bc bc 54 3f 87 bc 8e 07 2f 3d 13 23 60 3c
       -0.023064146 -0.01650969 0.042731814 0.013680237
0003c0 be 1d 0a bd 35 15 2f bd 49 c7 60 3d ad 04 15 bc
       -0.03371977 -0.042744834 0.054877553 -0.009095353
0003d0 bb eb ea bc f9 68 a4 3d 71 de 2b 3d f3 d5 29 3c
       -0.028676858 0.080278344 0.041960184 0.010365951
0003e0 34 ce 88 bd 49 41 85 3d 38 6d 78 3d 5c 27 be bc
       -0.06679955 0.06506593 0.060651034 -0.023212127
0003f0 1f 68 0a bb a9 fe 6c 3d f7 d6 06 3d 6c 54 8c 3d
       -0.002111919 0.05786005 0.03291985 0.0685204

mu.2.bias f4 [128]
000000 65 50 39 3d 2d 71 1c bd 24 7d b3 3c f5 ca b6 3c
       0.045242686 -0.03819387 0.021910258 0.022313574
000010 2e 2c 92 3d 25 65 1a bd a8 3e 8a bd 7d 4e 6d bd
       0.07137333 -0.037694115 -0.06750232 -0.05793618
000020 0f 52 05 3d 74 d5 9a bd 4a 50 71 3a f0 07 40 3d
       0.03254896 -0.07560244 0.00092053844 0.04688257
000030 9d 9a 27 bd b2 61 a9 bc 9f b6 b4 3d 5c 7e 32 3d
       -0.040918935 -0.020676468 0.08823895 0.043577537
000040 e8 4a 9e bd ce 12 88 bd 16 5b 8c 3d 22 ac 90 bc
       -0.07729131 -0.06644212 0.06853311 -0.017660204
000050 7d dd b0 bd fe 12 50 3c 1a 28 02 bd d8 2a 4e bd
       -0.086359955 0.012699841 -0.031776525 -0.050333828
000060 08 f4 3a 3d d1 66 7e 3d a5 65 89 bc 30 d2 db bc
       0.045642883 0.062109772 -0.0167721 -0.026833624
000070 42 33 1b bd 36 2e 2b bd d3 60 24 bd b9 30 8f bd
       -0.03789068 -0.041792117 -0.0401314 -0.06991715
000080 4c 80 73 3d c8 2b 8f 3c 35 a5 19 3d 03 7a 70 bc
       0.059448525 0.017476931 0.03751107 -0.014677527
000090 03 cf 5d 3d 4e b7 03 3d b2 53 ea 3c 1e 7a 82 bd
       0.0541525 0.032157235 0.028604362 -0.06370948
0000a0 d0 ad 93 3c e1 7d bf ba 59 80 d8 3c 38 96 69 bd
       0.018027216 -0.0014609658 0.026428388 -0.057028025
0000b0 ff a7 47 bd 8d 96 90 bc d0 13 0a 3d ce e5 4a bd
       -0.048744198 -0.017649913 0.0337103 -0.049535565
0000c0 4b 5a 52 bd c0 30 7c bd f0 ee 44 3d ec 14 67 bc
       -0.05135564 -0.06156993 0.04807943 -0.014104109
0000d0 89 d3 8f 3d 2c 02 c9 3c d8 2e a0 3d 64 a6 ff bc
       0.07022769 0.024537168 0.07821435 -0.03120727
0000e0 a1 30 9d 3d b6 59 80 bc 90 ff 50 bc 0c 19 c1 3c
       0.07675291 -0.015667778 -0.012756243 0.023571514
0000f0 fc 9b c6 3c c1 a1 96 bd b7 01 ad 3c 12 33 c3 3c
       0.024244301 -0.07355071 0.021118982 0.023828063
000100 25 bc 5d bd 8f 16 a9 bd 75 75 74 bc 26 71 89 bd
       -0.054134507 -0.08256256 -0.014920582 -0.067110345
000110 4b 33 27 bd 14 b2 01 3d 81 02 8f bc 4d db 86 bd
       -0.0408204 0.03166397 -0.017457249 -0.06584797
000120 8e d1 04 3c 27 ab 2f 3d 09 7a 89 3b 3b cc 6c bd
       0.008106602 0.042887833 0.004195456 -0.057811957
000130 f9 a7 ad bc bf 01 ea 3c 7a a3 49 3a 1e 7e 8e bd
       -0.02119826 0.028565286 0.00076919014 -0.06957649
000140 c2 b8 36 bc c4 21 bf 3c 73 df 54 bd 12 61 a9 3d
       -0.011152448 0.02333153 -0.05197091 0.08270468
000150 a7 51 96 bd a4 b7 32 bd 57 0f 2d bd a5 f0 bf 3c
       -0.07339793 -0.043632165 -0.042250957 0.023430178
000160 21 66 ab 3d f3 20 4e bd 67 45 3e bd 38 40 84 bd
       0.08369089 -0.05032439 -0.046452906 -0.06457561
000170 58 bb 20 3d 06 7b 71 bd 13 9d 71 3d fe 29 91 3d
       0.039241165 -0.058955215 0.05898769 0.070880875
000180 81 f1 82 3d 16 42 33 3b 6a 0a 75 3d b3 cf 59 bc
       0.063937195 0.0027352623 0.059824385 -0.013294148
000190 a1 e3 08 3c ef c0 43 3d 78 c0 17 3d 12 b0 a7 bd
       0.008355052 0.047791418 0.037048787 -0.081878796
0001a0 3b 0f cb bc 18 38 a0 3d cc 87 b3 bd ab 5c eb bc
       -0.024787536 0.07823199 -0.087661356 -0.028730711
0001b0 1c 5d 25 bd 34 e3 fc 3c a8 12 06 3d b5 d4 4a 3d
       -0.040372 0.030870058 0.032732636 0.04951926
0001c0 6b b9 2a bc c1 e4 58 3d 70 9b a6 3d b4 d6 28 bd
       -0.010420184 0.05295253 0.08135116 -0.04122038
0001d0 5b 0e e1 bc c8 a2 d9 bc 12 89 90 3d b1 05 82 3d
       -0.027472666 -0.026566878 0.07057394 0.06348742
0001e0 14 45 30 bc b6 4b fd 3c dc 28 94 3d ec 78 c9 3c
       -0.010758657 0.03091989 0.07234356 0.024593793
0001f0 c3 1c 79 3d 16 d5 0e 3d 1a c4 78 bd 1d df 6d 3d
       0.060818445 0.034871183 -0.060733892 0.058074106

mu.4.weight f4 [4, 128]
000000 55 8e aa 3b 3d 33 69 3b 3a c0 05 bb 11 1a 73 3b
       0.0052049556 0.003558352 -0.0020408765 0.0037094394
000010 ac 23 d3 3b f7 e5 16 3b 74 3c 88 3b f4 be ef 3a
       0.0064434614 0.0023025253 0.004157597 0.0018291161
000020 eb 9b d1 3a ed 06 aa bb 3a b0 83 bb 0b 7d 12 bc
       0.0015991902 -0.005188814 -0.0040188106 -0.008940945
000030 6f ee 3f bb 15 97 97 3b 0b e6 b1 3b d1 49 83 bb
       -0.0029286405 0.0046261647 0.0054290346 -0.0040066023
000040 7e 71 13 3b 4e 76 8b bb 20 81 aa 3a de 76 85 3a
       0.0022498067 -0.0042560464 0.0013008453 0.001018252
000050 80 0f ce 3b fd 71 10 ba 96 36 61 ba 9d 91 8e b8
       0.006288469 -0.00055101496 -0.0008591203 -6.79821e-05
000060 02 35 19 3b 38 81 cf 3b fd 98 df bb 49 ff b4 bb
       0.0023377542 0.0063325427 -0.0068236575 -0.0055235964
000070 58 8e a2 3b e3 dc 25 3b 94 65 86 bb 4d 6f 35 bb
       0.0049608164 0.002530866 -0.0041014645 -0.0027684749
000080 bb 9f bb 3b df 7d 34 bb 18 40 4a 3b 55 df 49 3b
       0.0057258285 -0.0027540845 0.0030860957 0.0030803282
000090 7e 58 2d 3b d4 a3 69 bb 6c 98 05 3b 3d b8 15 3b
       0.002645045 -0.0035650628 0.002038504 0.002284541
0000a0 86 a5 b3 ba ef ee 43 39 97 a3 6d 3b ae 86 31 b9
       -0.0013705946 0.00018685659 0.0036260837 -0.00016930207
0000b0 8d 4b 15 3b 66 51 07 bb 09 a8 33 3a 9f b8 13 3b
       0.0022780627 -0.0020647882 0.00068533473 0.0022540463
0000c0 a3 7c 1a 3b 8c 32 c2 3a 61 12 c4 ba 4e 89 6e 3b
       0.0023572824 0.001481609 -0.0014959091 0.0036397758
0000d0 a7 69 71 3a de 7e 4f bb 66 85 cf 39 ff e6 e8 b9
       0.0009209164 -0.0031661312 0.00039581506 -0.00044422594
0000e0 79 c6 75 ba 7e e1 6b 3b 2f 27 07 bb 67 4b a2 38
       -0.0009375583 0.0035992558 -0.002062272 7.738807e-05
0000f0 44 36 1f bb 1a 02 86 ba 32 59 40 ba 19 aa a9 bb
       -0.002429382 -0.0010224015 -0.000733751 -0.005177748
000100 97 0a d4 3a 4f 39 20 ba 13 92 c6 ba 9f 0e 80 3b
       0.0016177472 -0.0006112055 -0.0015149735 0.003907993
000110 04 65 4a 3b 5d 59 72 bc a3 7a 7d 3a 8c 54 0a bc
       0.0030882964 -0.014791814 0.00096694584 -0.008443009
000120 a8 52 aa 3a 29 52 1a ba c6 c1 e4 b9 6b 82 1b bb
       0.0012994604 -0.00058868766 -0.0004363192 -0.0023728858
000130 d2 89 4c bc b9 67 86 3b 16 91 36 3b 59 12 83 39
       -0.012484031 0.00410172 0.0027857474 0.00024999937
000140 18 00 cc 3b 30 98 c2 3b 33 c3 7b 3b 2e 8f 96 3b
       0.006225597 0.0059385523 0.0038415908 0.004594705
000150 71 e1 e3 39 13 0c ff 3a b0 c0 88 b8 60 11 b9 3b
       0.0004346478 0.0019458554 -6.520876e-05 0.005647823
000160 39 05 82 3b 53 11 9b ba 12 47 9d ba e4 ba 04 ba
       0.0039679077 -0.0011830725 -0.001199933 -0.0005063249
000170 63 69 05 bc 86 ea 4b 3b fd a9 31 bb b2 da 3e 3b
       -0.008142802 0.0031115129 -0.0027109378 0.0029122052
000180 e1 ac ff ba 8c 4b d1 3b e3 de b6 ba 0e 11 a1 ba
       -0.0019506478 0.0063871797 -0.0013951923 -0.0012288408
000190 c6 85 96 3a 8e 31 4d 3c a0 26 e0 bb e3 2c 33 bb
       0.0011483959 0.012524022 -0.006840542 -0.0027339987
0001a0 60 0e 3b bb 51 49 cb 3b 2d 40 89 3c 3f 7f fb ba
       -0.0028542504 0.0062038084 0.016754234 -0.0019187703
0001b0 38 0a 15 ba 4e 76 54 39 46 6d 33 3a ea c2 db 3a
       -0.00056854216 0.00020261967 0.0006844591 0.0016766463
0001c0 ec 7b 42 b9 14 15 96 3b df 14 25 3b 0e b5 47 bb
       -0.00018547446 0.0045801494 0.0025189442 -0.0030472907
0001d0 ca e6 94 bb 04 3f 79 bb dc fb dd bb 9b 1d 96 3b
       -0.0045441138 -0.0038031945 -0.0067744087 0.004581166
0001e0 0b 9b 23 3b 7a 35 f7 bb 0e b0 e8 bb 15 bd 20 bc
       0.002496424 -0.0075442167 -0.0071010655 -0.009810706
0001f0 f6 fc 7a 3b f2 0a 57 bc e3 35 19 3c 9d 93 16 bc
       0.003829775 -0.013125168 0.0093512265 -0.009190467
000200 3a 3e da ba 75 ff 62 bb 05 82 f5 ba 8d 15 d9 3a
       -0.0016650625 -0.0034637128 -0.0018730765 0.0016562209
000210 d5 0a 16 ba 81 1f 94 bb 40 e9 50 bb c9 93 bc bb
       -0.000572366 -0.004520357 -0.003187731 -0.005754922
000220 12 db d6 ba ab c3 ce 3b 01 33 b1 3a e4 38 31 bc
       -0.0016392192 0.0063099465 0.0013519229 -0.010816786
000230 fa 3a fd bb ed 70 bf 3b f0 0b 61 3a cc da e1 bb
       -0.007727978 0.005842319 0.00085848477 -0.0068925377
000240 94 f2 f0 bb 3e 9b 79 3c 52 b6 07 bc 82 97 e1 ba
       -0.0073531363 0.0152347665 -0.008283215 -0.001721129
000250 27 e4 42 ba 57 75 45 bb 0c 45 3d bc 2e 29 14 ba
       -0.000743451 -0.0030129754 -0.011552107 -0.0005651888
000260 5d 51 df b9 49 ca b0 3b 6b 8d 25 bb a1 bf 29 bc
       -0.00042594495 0.005395208 -0.0025261294 -0.010360629
000270 26 69 6b bb 1c 5e dd 3a d1 1e cd bb 55 8d df bb
       -0.0035920828 0.0016889009 -0.006259777 -0.006822268
000280 4b 7f ef ba 7e 75 be bb 16 03 c9 bb 6d 28 88 3b
       -0.0018272189 -0.005812346 -0.006134401 0.0041552098
000290 99 f3 20 bc 34 86 5d 3b d4 0b 19 bc 05 9a 3d ba
       -0.009823703 0.0033801915 -0.009341199 -0.00072327285
0002a0 5c 5a ab bb 41 cc 29 3b 82 b4 8f bb 95 78 8c b9
       -0.0052292775 0.0025909098 -0.004385532 -0.00026792721
0002b0 bb e8 21 3c 27 f0 8c ba 04 ee 17 3b e6 93 82 3a
       0.009882147 -0.0010752723 0.002318264 0.000996229
0002c0 7b 54 2d 3b 6a ad 00 bb da 41 1c bb 6a 64 e8 bb
       0.002644806 -0.0019634613 -0.0023842962 -0.0070920484
0002d0 fd 95 98 bb 2c 9d 17 bc 3d 59 e2 bb c3 7c 6a bb
       -0.004656552 -0.009253781 -0.0069076107 -0.003577993
0002e0 cb 5e 69 bb 84 2f 0d bb 1e a0 49 3a 73 9d cf bb
       -0.003560948 -0.0021543214 0.0007691401 -0.006335908
0002f0 f9 35 3c bb 6c ec 18 bc ce fc b6 b8 7e 50 90 bb
       -0.0028718694 -0.009333711 -8.725525e-05 -0.0044041267
000300 24 54 38 36 59 0d 19 bc 59 84 a8 39 24 17 9f 3a
       2.7467113e-06 -0.009341561 0.00032142064 0.0012137634
000310 0e 6c 0a bb 0f 40 2f bc d8 0c 08 bc eb 21 5b bc
       -0.0021121535 -0.010696425 -0.008303843 -0.013374786
000320 b8 94 b5 bb 4a c1 08 bc 63 f4 9d bb 9f ca a6 3b
       -0.0055414103 -0.008346865 -0.004820393 0.0050900723
000330 7d 18 e4 bb 25 0f f9 bb 02 e7 a3 bb ef 77 b3 ba
       -0.006960927 -0.0076006823 -0.0050019035 -0.0013692359
000340 43 b0 42 ba fe ef 1a 3b cc a7 0e bb 11 68 18 bc
       -0.0007426778 0.0023641582 -0.0021767495 -0.009302155
000350 c0 7c b5 bb c5 d7 bf ba 25 60 88 bb 1b 80 d4 b9
       -0.005538553 -0.0014636448 -0.004161852 -0.00040531237
000360 5c 3a 95 bb 45 6f ff ba 9d 22 27 bb e6 e0 07 3b
       -0.004554076 -0.0019488117 -0.002550281 0.0020733415
000370 fc c5 2b bc c6 49 a1 bb a5 ee c1 ba 88 c3 ad 39
       -0.010484215 -0.0049221246 -0.0014795853 0.00033142813
000380 16 1b 93 bb fe b1 be bb ef 59 9b b9 fd 4c 0c bc
       -0.004489313 -0.005819558 -0.0002963091 -0.008563277
000390 f6 90 c1 bb 7d 8e 7e bc 35 ac 24 3b 5f 12 3c bb
       -0.0059071733 -0.015536902 0.0025127057 -0.0028697473
0003a0 98 d4 8a bb 29 9e 1c bb 55 a7 11 3c 5d 29 be ba
       -0.004236769 -0.0023897982 0.008889993 -0.0014508177
0003b0 2d c8 c9 bb 0d 5f ce 3b 59 30 91 3b cc a7 39 3c
       -0.006157896 0.006297952 0.0044308123 0.01133151
0003c0 48 81 99 3b 33 b1 ee bb 40 e5 77 3b 67 b2 3b bb
       0.004684601 -0.0072843074 0.0037825853 -0.0028640272
0003d0 26 ba 6c bb d0 eb 50 bb 42 77 33 bc 59 6c 06 bc
       -0.0036121695 -0.0031878836 -0.010953726 -0.008204543
0003e0 49 36 13 bb 06 eb a3 bb b3 0b d4 3a d4 a1 92 bb
       -0.0022462776 -0.005002382 0.0016177803 -0.004474858
0003f0 e9 85 ec bb 09 e1 20 bc 09 3c 1d bc c2 c4 7a ba
       -0.007218112 -0.009819278 -0.009596833 -0.00095660624

mu.4.bias f4 [4]
000000 4b 20 b2 3b 7d 44 ac ba f4 62 e8 bb ec c2 b1 3b
       0.0054359785 -0.001314297 -0.0070918743 0.005424848
