experiments/data/sawyer_clutter_200steps_10H/h_sac/2021-06-24_09-19-12_clutter_200steps_10H/model_2400.pt (torch_old, 358080 bytes, 12 tensors)

log_std f4 [1, 12]
-1.4776744 -1.3851426 -1.0917542 -0.9038598 -0.927767 -0.77277106 -1.0727577 -0.8261151
-1.289585 -1.0554382 -2.245632 -2.2323334
00000000: 6f24 bdbf 5a4c b1bf 9abe 8bbf 5b63 67bf
00000010: 2382 6dbf 53d4 45bf 2050 89bf 477c 53bf
00000020: 1f11 a5bf 9918 87bf 6fb8 0fc0 8dde 0ec0

mu.0.weight f4 [200, 14]
-0.20063634 0.11021189 -0.20125842 0.28731567 -0.1556382 0.12717591 0.21496274 -0.1469195
0.20575131 0.20959571 0.26090497 0.37849355 0.03976266 -0.6633205 -0.18144745 0.028074658
-0.4589424 0.08882588 0.20051919 0.25927258 -0.43159518 0.0460893 0.056958124 0.0022028976
0.23688355 0.029700983 -0.23597561 -0.3484204 0.3790641 0.44936848 0.3489391 0.14646986
0.19882599 0.1708418 -0.00918836 -0.31790948 0.05708063 0.2925967 0.024294952 0.26986897
0.1891613 0.23475167 -0.44008914 -0.21537827 0.0912758 0.33258894 -0.26190746 0.09042839
-0.31088668 0.060999468 -0.11402003 -0.15874293 0.25723228 -0.29307938 0.24507429 -0.019807266
0.23665817 0.09655268 0.011872216 0.26870042 0.22003765 0.43854395 -0.067686245 0.19054818
-0.16051233 0.043965578 0.20480499 0.13655318 -0.43719918 0.0064918133 -0.020637972 0.00036036753
0.17181765 0.03953763 0.23349394 -0.26917037 -0.045202423 -0.24633649 -0.115944706 -0.08620246
-0.1060303 -0.13843688 -0.01571349 0.71155214 -0.66466725 0.03603393 0.08777189 0.5186878
-0.36892325 -0.07723139 0.20116585 -0.16478427 -0.24630362 -0.35584527 -0.0028604832 0.11809945
-0.07945452 0.18581495 0.12283582 -0.058492936 -0.116910264 0.38818857 0.041599423 0.37809545
-0.39433247 0.377186 0.030158577 0.20457155 0.28838697 0.19215815 0.33459786 -0.07485038
0.46455002 0.5841587 0.13058421 0.20882732 0.3174067 0.008066734 0.039495748 0.27008787
0.086508825 0.10095093 -0.020103902 0.3974822 0.028271068 0.00916953 -0.2288777 0.32693237
-0.4028723 0.3764172 -0.053259823 0.1556714 -0.061502807 -0.3089512 0.08854323 0.1852157
0.113687254 0.02874709 -0.008813377 -0.24971856 -0.17358018 0.055720825 -0.034961745 0.40016997
-0.06869485 -0.41587254 -0.00786363 0.20111726 0.14993455 -0.03993644 -0.33701053 -0.063189335
0.4081594 -0.12594135 -0.22014068 0.45625135 -0.35151032 0.22048989 -0.10448893 -0.350766
-0.082540244 0.09823466 0.18563345 -0.15795559 -0.15534678 0.20541088 0.5819257 -0.14056876
0.37586695 0.25391144 0.5283193 -0.18508191 0.23994836 0.3020649 0.20185106 0.31394756
-0.13093293 -0.038909305 -0.13017577 0.27206567 0.2632767 0.15885743 -0.2735356 -0.7915434
-0.23716423 -0.29630375 0.12619765 0.36429513 0.18848585 -0.31511965 0.35571182 0.09206667
0.17318831 -0.37609982 -0.3792217 -0.2792057 -0.29306883 -0.372723 0.032153968 0.22075376
0.34831968 0.11455804 -0.12084629 -0.04069795 -0.2486194 -0.3735062 -0.11817094 -0.26783377
0.30135003 -0.12954244 -0.16456902 -0.32135457 0.30922428 -0.13795906 0.45981708 -0.15875238
-0.1717553 -0.17854767 0.16995123 -0.30406466 0.09694068 0.055085674 -0.41294616 0.4937305
0.5349186 -0.404681 -0.24376807 0.32967123 -0.038455576 -0.041882433 0.13654546 0.006503376
0.2063456 0.31159115 0.21673879 0.13385136 -0.030451344 0.31278345 -0.11270251 0.1238759
-0.13819443 0.20203164 -0.20732881 0.26202753 0.14736985 0.01001984 -0.04142384 -0.10292625
0.2379162 -0.09894307 0.49693224 -0.6068674 0.5102652 -0.034129344 0.015076185 -0.106443055
00000000: 9d73 4dbe c5b6 e13d b016 4ebe 0a1b 933e
00000010: 9f5f 1fbe 673a 023e 311f 5c3e 1172 16be
00000020: 79b0 523e 42a0 563e 5695 853e e8c9 c13e
00000030: 2cde 223d 5fcf 29bf 5ccd 39be d3fc e53c
00000040: 80fa eabe 58ea b53d e754 4d3e 60bf 843e
00000050: 0bfa dcbe 22c8 3c3d ec4c 693d 7d5e 103b
00000060: 9a91 723e 7a4f f33c 97a3 71be 2964 b2be
00000070: b114 c23e a013 e63e 25a8 b23e 32fc 153e
00000080: 0a99 4b3e 27f1 2e3e c68a 16bc 08c5 a2be
00000090: 61cd 693d 3ccf 953e 3506 c73c 442c 8a3e
000000a0: 80b3 413e be62 703e 5d53 e1be 1f8c 5cbe
000000b0: ceee ba3d 1949 aa3e bc18 86be 8532 b93d
000000c0: 8a2c 9fbe 94da 793d 5583 e9bd 828d 22be
000000d0: f3b3 833e 800e 96be c1f4 7a3e d942 a2bc
000000e0: 8556 723e 69bd c53d af83 423c 1a93 893e
000000f0: 8d51 613e d588 e03e 169f 8abd 101f 433e
00000100: 585d 24be 4015 343d 66b8 513e 99d4 0b3e
00000110: 92d8 dfbe 47b9 d43b f710 a9bc b6ef bc39
00000120: f7f0 2f3e 36f2 213d 0919 6f3e b3d0 89be
00000130: 2d26 39bd a23f 7cbe 6b74 edbd ea8a b0bd
00000140: 6a26 d9bd 66c2 0dbe 94b9 80bc 4828 363f
00000150: a227 2abf 5098 133d c0c1 b33d b9c8 043f
00000160: 82e3 bcbe 7e2b 9ebd 6cfe 4d3e 35bd 28be
00000170: 0437 7cbe 5a31 b6be f276 3bbb 20de f13d
00000180: 0db9 a2bd 4646 3e3e 5991 fb3d 4a96 6fbd
00000190: a66e efbd a7c0 c63e 2864 2a3d ba95 c13e
000001a0: f2e5 c9be 861e c13e 1f0f f73c 347b 513e
000001b0: 75a7 933e 1bc5 443e 6950 ab3e 284b 99bd
000001c0: 80d9 ed3e 6d8b 153f deb7 053e d4d6 553e
000001d0: 2283 a23e 562a 043c 4bc6 213d f548 8a3e
000001e0: 8a2b b13d 5cbf ce3d f0b0 a4bc c982 cb3e
000001f0: ba98 e73c cc3b 163c ea5e 6abe ae63 a73e
00000200: 4745 cebe c1b9 c03e f926 5abd 5368 1f3e
00000210: 5eea 7bbd da2e 9ebe 2756 b53d 2fa9 3d3e
00000220: ddd4 e83d 047f eb3c fb65 10bc 39b6 7fbe
00000230: 01bf 31be 853b 643d 0c34 0fbd 14e3 cc3e
00000240: e3af 8cbd 3fed d4be 74d6 00bc aff1 4d3e
00000250: 7188 193e 6494 23bd a58c acbe 6969 81bd
00000260: 45fa d03e c5f6 00be 8f6c 61be c799 e93e
00000270: 29f9 b3be 1ac8 613e 4bfe d5bd 9a97 b3be
00000280: dc0a a9bd 412f c93d b216 3e3e 1cbf 21be
00000290: 3a13 1fbe 3b57 523e 15f9 143f 42f1 0fbe
000002a0: a271 c03e ae00 823e ef3f 073f 1d86 3dbe
000002b0: 06b5 753e 40a8 9a3e 0bb2 4e3e bcbd a03e
000002c0: 4813 06be 5d5f 1fbd cc4c 05be 314c 8b3e
000002d0: 34cc 863e 86ab 223e dc0c 8cbe 97a2 4abf
000002e0: 2edb 72be 20b5 97be f539 013e e484 ba3e
000002f0: 6f02 413e 5d57 a1be dc1f b63e 738d bc3d
00000300: 4758 313e 2890 c0be 5929 c2be 0df4 8ebe
00000310: 1e0d 96be 8dd5 bebe e1b3 033d 460d 623e
00000320: f556 b23e 689d ea3d 427e f7bd e5b2 26bd
00000330: 1696 7ebe 343c bfbe 9b03 f2bd 8221 89be
00000340: 8d4a 9a3e c6a6 04be c884 28be 9688 a4be
00000350: a552 9e3e 2445 0dbe 256d eb3e fc8f 22be
00000360: 9fe0 2fbe 33d5 36be b207 2e3e 5dae 9bbe
00000370: d688 c63d 84a1 613d ae6d d3be 3eca fc3e
00000380: 6df0 083f 5932 cfbe 569e 79be abca a83e
00000390: 9883 1dbd ea8c 2bbd 93d2 0b3e 461a d53b
000003a0: 434c 533e e088 9f3e c6f0 5d3e 5510 093e
000003b0: 1975 f9bc 2725 a03e 93d0 e6bd a6b2 fd3d
000003c0: d782 0dbe 62e1 4e3e 014e 54be 7928 863e
000003d0: 1fe8 163e 412a 243c 0bac 29bd ffca d2bd
000003e0: 4ea0 733e aaa2 cabd e76d fe3e a95b 1bbf
000003f0: bda0 023f 36cb 0bbd 1a02 773c d1fe d9bd

mu.0.bias f4 [200]
-0.30203938 -0.18286392 -0.16145009 0.331682 0.025298804 0.16332048 0.014744741 0.027853709
0.1483276 0.16859856 0.085196435 -0.2060945 0.009460755 -0.21203104 -0.3268066 0.075078264
0.037957966 -0.012902152 0.05194982 0.06457521 0.1265535 -0.15324596 -0.073320664 -0.061509788
0.14565329 -0.021715418 0.20394476 -0.26851374 0.17277937 0.22570214 0.0604844 -0.13853396
0.005407298 -0.19539504 0.22974034 -0.055768862 0.036092408 0.25757232 -0.35207677 0.12631574
0.27043656 0.23616584 0.12353255 -0.036651675 0.08767289 -0.26279014 -0.0906063 0.25710413
-0.17058939 0.28901047 0.05887466 0.45204827 0.03934398 0.1390615 0.2784235 -0.058239896
0.34985608 0.09785783 -0.2119866 0.21246521 0.34375608 -0.33122745 0.052617922 -0.089080594
-0.15003583 0.0077710454 0.16008194 0.25417584 -0.12100663 -0.103245534 0.05197423 -0.27291825
-0.32784015 -0.31030932 0.32619074 0.2647787 -0.25116062 0.11649125 0.19417514 -0.096209005
-0.11587118 0.10377975 -0.2823283 0.050615687 0.07804154 -0.111491 -0.21096838 -0.0041145682
0.11826741 0.019559875 0.13705735 -0.18392584 -0.14174691 0.04369535 0.1040762 -0.11679285
-0.015469406 0.013540329 0.019984294 -0.056638993 -0.23100847 0.08014183 0.13636467 -0.056211054
-0.09838315 -0.19502749 0.23692016 0.018689226 -0.23114671 0.2253776 -0.23133658 -0.22847652
0.107956715 0.027148413 -0.025313497 0.03590462 -0.020814007 -0.057208575 -0.3510499 -0.030657932
0.120879 -0.072875634 -0.11501305 -0.07997799 0.08766412 -0.15314497 0.15280756 -0.018597033
0.14246094 -0.07333721 -0.028305637 0.028628718 -0.06356254 0.15938796 0.21536224 -0.029943293
0.2938465 -0.073252805 -0.21900533 0.24318168 0.13425693 0.22860174 0.18474048 -0.040918846
0.13640104 0.063833594 0.17086539 -0.23659112 0.26187474 0.30877778 0.113789454 -0.030673899
0.13918343 0.15517846 0.04765707 0.2093645 -0.11544059 -0.1505147 -0.03158858 -0.19516326
-0.009728468 0.17688152 -0.21539606 -0.0059817284 -0.051708795 -0.0632375 0.24080786 -0.42531988
0.24234213 0.14586294 0.10851142 0.11890493 -0.16026409 -0.060285326 0.2538795 -0.34199855
0.21673249 0.22154056 0.066276096 0.03159797 -0.17228179 -0.14975543 0.1876376 0.03581275
-0.06242395 -0.09889188 0.24247663 -0.07824885 -0.20390476 -0.060325775 -0.23298074 -0.1057974
0.09898736 0.06859443 0.13793063 -0.13328601 -0.03371566 -0.07865172 0.1270731 -0.20349069
00000000: e8a4 9abe ae40 3bbe 2c53 25be 39d2 a93e
00000010: 703f cf3c 7c3d 273e ed93 713c 762d e43c
00000020: 31e3 173e 1aa5 2c3e 787b ae3d 700a 53be
00000030: 4801 1b3c aa1e 59be 3253 a7be a2c2 993d
00000040: d079 1b3d 8c63 53bc 56c9 543d 0240 843d
00000050: 3e97 013e 82ec 1cbe 2529 96bd b0f1 7bbd
00000060: 2326 153e 88e4 b1bc e5d6 503e a27a 89be
00000070: 13ed 303e 761e 673e 7dbe 773d d9db 0dbe
00000080: b42f b13b a315 48be 0d41 6b3e e46d 64bd
00000090: a2d5 133d 85e0 833e 6843 b4be ea58 013e
000000a0: a976 8a3e 75d5 713e a2fe fc3d 1120 16bd
000000b0: d88d b33d 6e8c 86be cc8f b9bd 27a3 833e
000000c0: fcae 2ebe 2ef9 933e 8e26 713d df72 e73e
000000d0: 2727 213d 2366 0e3e 868d 8e3e f58c 6ebd
000000e0: 5620 b33e b069 c83d 0413 59be 7b90 593e
000000f0: cc00 b03e a596 a9be e485 573d e36f b6bd
00000100: fea2 19be 41a4 fe3b 85ec 233e 5623 823e
00000110: 53d2 f7bd 6572 d3bd eee2 543d f1bb 8bbe
00000120: aada a7be dde0 9ebe 7902 a73e 1391 873e
00000130: 2098 80be f792 ee3d d9d5 463e 3a09 c5bd
00000140: df4d edbd 7a8a d43d 568d 90be 6552 4f3d
00000150: 3ed4 9f3d 6555 e4bd 1808 58be 80d3 86bb
00000160: 2f36 f23d 083c a03c c358 0c3e 0e57 3cbe
00000170: 1a26 11be e5f9 323d e725 d53d 1731 efbd
00000180: 6473 7dbc 42d8 5d3c 1ab6 a33c 4afe 67bd
00000190: 7c8d 6cbe 6621 a43d 2ea3 0b3e 903d 66bd
000001a0: 1b7d c9bd 49b5 47be 339b 723e 261a 993c
000001b0: b9b1 6cbe 63c9 663e 7fe3 6cbe c0f5 69be
000001c0: 6918 dd3d 5966 de3c 405e cfbc b910 133d
000001d0: 2382 aabc 8a53 6abd d0bc b3be 5826 fbbc
000001e0: 698f f73d d23f 95bd f68b ebbd 80cb a3bd
000001f0: 3f89 b33d 09d2 1cbe 9679 1c3e ce58 98bc
00000200: 48e1 113e d231 96bd 39e1 e7bc c686 ea3c
00000210: 142d 82bd 9936 233e eb87 5c3e a34b f5bc
00000220: 0c73 963e 9105 96bd ef42 60be 9e04 793e
00000230: a67a 093e 9316 6a3e 9c2c 3d3e 859a 27bd
00000240: b7ac 0b3e 30bb 823d 56f7 2e3e f144 72be
00000250: 7214 863e 1f18 9e3e 720a e93d d447 fbbc
00000260: 1a86 0e3e 1ae7 1e3e 0f34 433d a663 563e
00000270: 1e6c ecbd 8720 1abe 0763 01bd e1d8 47be
00000280: 2764 1fbc 6e20 353e c990 5cbe 6002 c4bb
00000290: 9acc 53bd aa82 81bd 5696 763e 87c3 d9be
000002a0: 8928 783e 185d 153e 3c3b de3d 6e84 f33d
000002b0: 451c 24be bfed 76bd 7efc 813e 6f1a afbe
000002c0: 1fef 5d3e 87db 623e c3bb 873d df6c 013d
000002d0: a36a 30be 7d59 19be 1224 403e 64b0 123d
000002e0: 41b0 7fbd d387 cabd cb4b 783e ef40 a0bd
000002f0: 69cc 50be 2918 77bd 8192 6ebe 4fac d8bd
00000300: e3b9 ca3d 3d7b 8c3d b03d 0d3e 217c 08be
00000310: 6f19 0abd 2714 a1bd 731f 023e dd5f 50be

mu.2.weight f4 [200, 200]
0.11110432 -0.041656934 -0.026876736 0.028046595 0.04649656 -0.045324154 0.068554446 0.14703043
0.031752188 -0.15319173 0.024166822 -0.029656852 -0.20956649 0.029413817 -0.16542153 0.007843779
-0.044225693 0.22818778 0.090967596 0.16303687 -0.16617468 -0.16329576 -0.09054739 0.059859496
0.1419139 -0.091871515 0.22929 -0.033502445 -0.07284086 -0.020177884 0.08296237 -0.3388866
-0.1597601 -0.31768835 -0.13676085 0.0809571 0.16706602 0.06753053 -0.24628533 0.02198141
0.07402025 -0.037293136 -0.0054100584 -0.027949909 -0.016984943 -0.07157945 -0.06366197 0.25917727
-0.08276024 0.12898928 0.22171319 0.058689006 -0.0744895 0.012159312 0.026513807 -0.1713569
0.08923703 0.045726866 -0.0011994174 0.018798819 0.119199365 -0.14971241 -0.04262111 0.08385858
0.0011615807 -0.03182689 0.13598615 -0.011209773 -0.15197757 -0.2578977 0.11920401 0.040806912
-0.18774824 0.07602565 -0.0026753799 -0.2399362 0.008312717 -0.2063188 0.051167823 0.02871785
0.09210536 0.019565707 -0.10448413 -0.15305635 -0.14425565 -0.016127363 0.098181054 -0.0039554755
0.010000258 0.052999243 -0.04533919 -0.18987 0.07487451 -0.21868983 0.032418072 -0.24506386
0.09042478 -0.06047032 0.016248206 -0.029012702 0.024106616 0.0089812875 0.18622662 -0.14578855
-0.196443 -0.025857568 -0.00680996 -0.076887615 0.060164176 0.019662622 -0.23206301 -0.12845708
0.1453117 0.06651627 -0.30327755 -0.022153515 -0.04759537 0.041593727 -0.21856278 0.10607837
-0.099860944 0.0793638 0.06294787 -0.04174435 -0.08321936 0.04301926 -0.08327162 0.093890585
0.020615086 0.0995933 -0.11750916 0.025803758 0.14429934 0.066288374 0.04267703 -0.10421058
0.107929885 0.12913862 -0.075872004 -0.14255796 -0.08041432 -0.102700494 -0.07189413 0.09440891
0.0063212453 -0.04621287 0.18270668 -0.028644716 0.29349586 -0.013998214 0.091136634 0.14631389
-0.063354544 -0.06592283 -0.0958379 -0.021175863 -0.18393318 -0.06623953 0.035794117 0.049437556
-0.038671404 0.1340143 -0.07812472 0.11969968 0.21133839 0.12712015 0.17961061 -0.082670584
0.035595573 -0.07925833 0.008480895 0.013646308 -0.00387879 -0.024345025 -0.070905544 -0.15799768
0.18629323 0.059548743 -0.17063086 0.030999955 0.05767766 -0.14907406 0.07207912 0.0704996
-0.046387374 -0.06831809 0.07860432 -0.061560564 -0.27183723 -0.116340175 -0.16038111 0.022475472
0.016564254 -0.03146482 0.23229265 0.05983824 -0.04578519 0.20071173 0.13104212 -0.11372073
0.062081132 0.18938603 0.026764031 -0.0664548 0.029555088 -0.06212002 0.1612139 -0.14723873
-0.18734972 -0.028062573 0.13010003 0.29200184 -0.2221415 0.09359701 -0.025503289 0.064454645
0.043453246 -0.007410352 0.13703743 -0.08587928 0.040303648 -0.12509595 0.06323858 0.022941288
0.031215046 0.17785063 0.043152474 0.18551585 -0.09066544 0.098334335 -0.10136398 0.001810454
0.030889822 0.11649438 0.036698222 0.10634645 -0.04634063 -0.06632432 -0.1019384 0.0985798
0.04556949 0.03877751 0.0048458227 0.007375486 0.011956293 -0.06341251 -0.042663716 -0.10962393
-0.020119846 -0.068193145 0.0106902085 -0.023901125 0.03912512 0.039070636 0.10196102 -0.06975818
00000000: a98a e33d 76a0 2abd 9a2c dcbc f9c1 e53c
00000010: 2d73 3e3d d2a5 39bd 4666 8c3d 258f 163e
00000020: 950e 023d 4bde 1cbe 80f9 c53c edf2 f2bc
00000030: 9998 56be 3ff5 f03c 4364 29be 3283 003c
00000040: 0026 35bd 0faa 693e 384d ba3d 23f3 263e
00000050: b229 2abe 0137 27be e970 b9bd 3b2f 753d
00000060: e151 113e 2227 bcbd ffca 6a3e dc39 09bd
00000070: 972d 95bd 174c a5bc 2de8 a93d 8b82 adbe
00000080: 2798 23be 0ca8 a2be 090b 0cbe d6cc a53d
00000090: 5b13 2b3e 724d 8a3d 3932 7cbe 5c12 b43c
000000a0: ee97 973d b0c0 18bd dc46 b1bb 35f7 e4bc
000000b0: 0224 8bbc 3f98 92bd 3561 82bd e2b2 843e
000000c0: 337e a9bd c415 043e c808 633e e263 703d
000000d0: f38d 98bd da37 473c 7c33 d93c 2f78 2fbe
000000e0: e7c1 b63d 184c 3b3d c535 9dba fbff 993c
000000f0: cc1e f43d 364e 19be 7993 2ebd 0cbe ab3d
00000100: 2e40 983a ea5c 02bd f43f 0b3e 32a9 37bc
00000110: 02a0 1bbe 2b0b 84be 3b21 f43d 2625 273d
00000120: 1341 40be 56b3 9b3d 6d55 2fbb d6b1 75be
00000130: 1032 083c 3c45 53be 5a95 513d b241 eb3c
00000140: bca1 bc3d 4348 a03c c7fb d5bd ceba 1cbe
00000150: c1b7 13be 881d 84bc 2613 c93d ef9c 81bb
00000160: 1fd8 233c bc15 593d 96b5 39bd 486d 42be
00000170: cf57 993d 3af0 5fbe d0c8 043d 05f2 7abe
00000180: a130 b93d baaf 77bd f51a 853c 0cac edbc
00000190: 3d7b c53c 4026 133c 31b2 3e3e 9849 15be
000001a0: 5b28 49be 40d3 d3bc 1626 dfbb 4177 9dbd
000001b0: b66e 763d 8213 a13c eda1 6dbe 418a 03be
000001c0: 97cc 143e af39 883d 3247 9bbe 4a7b b5bc
000001d0: 5df3 42bd 2f5e 2a3d ecce 5fbe 9e3f d93d
000001e0: e583 ccbd 7d89 a23d d0ea 803d 20fc 2abd
000001f0: e96e aabd f734 303d 508a aabd b549 c03d
00000200: f8e0 a83c 92f7 cb3d a4a8 f0bd 6762 d33c
00000210: 35c3 133e 33c2 873d 1cce 2e3d 5b6c d5bd
00000220: 580a dd3d ea3c 043e c862 9bbd b7fa 11be
00000230: 43b0 a4bd a354 d2bd 3b3d 93bd 7559 c13d
00000240: 7322 cf3b b549 3dbd 7617 3b3e 53a8 eabc
00000250: 1745 963e c458 65bc d8a5 ba3d 4fd3 153e
00000260: 07c0 81bd 8c02 87bd a946 c4bd 0179 adbc
00000270: fb58 3cbe 97a8 87bd da9c 123d 097f 4a3d
00000280: e865 1ebd 0b3b 093e daff 9fbd 1b25 f53d
00000290: 1769 583e c92b 023e d8eb 373e 324f a9bd
000002a0: aacc 113d 3152 a2bd 74f3 0a3c c494 5f3c
000002b0: 4c33 7ebb 386f c7bc ed36 91bd 25ca 21be
000002c0: a7c3 3e3e 62e9 733d dbb9 2ebe 9ef3 fd3c
000002d0: 693f 6c3d dfa6 18be 389e 933d 1862 903d
000002e0: b000 3ebd 5bea 8bbd 4dfb a03d ee26 7cbd
000002f0: 402e 8bbe c243 eebd f23a 24be 7b1e b83c
00000300: c2b1 873c 41e1 00bd 20de 6d3e f118 753d
00000310: 4089 3bbd 6087 4d3e e82f 063e 6ae6 e8bd
00000320: c948 7e3d 69ee 413e 3e40 db3c 7419 88bd
00000330: 831d f23c 9071 7ebd 4215 253e c0c5 16be
00000340: 9bd8 3fbe 7be3 e5bc f138 053e 4481 953e
00000350: 1079 63be caaf bf3d 46ec d0bc cc00 843d
00000360: 08fc 313d 8ad2 f2bb 8a53 0c3e 7ae1 afbd
00000370: 7015 253d 2719 00be 3b83 813d 5eef bb3c
00000380: b2b6 ff3c 7a1e 363e a6c0 303d def7 3d3e
00000390: cdae b9bd 8363 c93d eb97 cfbd c14c ed3a
000003a0: a70c fd3c 9b94 ee3d e050 163d 2bcc d93d
000003b0: accf 3dbd 0cd5 87bd 14c5 d0bd 35e4 c93d
000003c0: 13a7 3a3d 2bd5 1e3d b5c9 9e3b 10ae f13b
000003d0: 54e4 433c 6bde 81bd 26c0 2ebd 8382 e0bd
000003e0: 60d2 a4bc d9a8 8bbd fc25 2f3c 4bcc c3bc
000003f0: a941 203d 8808 203d f0d0 d03d 60dd 8ebd

mu.2.bias f4 [200]
0.06842057 0.030824775 -0.03673699 -0.05835854 -0.08054468 0.09328596 0.053136658 0.10738882
-0.043489143 0.0541408 0.003621221 0.0341667 0.0020577277 0.10029805 -0.04012033 0.022646267
-0.05350457 -0.049471565 -0.08181321 -0.02242646 0.0131146265 0.044338364 -0.006391 -0.03634555
0.02197599 -0.04766416 -0.02194117 0.0069108377 0.029002108 0.077659234 0.024052236 0.070671216
0.112637304 0.07313688 0.06392422 0.024740783 0.075628184 -0.086239874 0.070682846 -0.0137523245
0.0031019163 0.063692726 -0.045567203 0.051396426 0.08766991 0.02911642 -0.02171879 0.031198516
0.014136982 -0.04109533 0.045472723 -0.032060143 0.036459215 0.057846412 -0.04076879 0.041000396
0.052187227 -0.0054065324 0.005397809 0.01987125 -0.0113797765 -0.05507959 0.0288293 0.038579296
0.0016749589 -0.016953992 -0.017886383 0.08365297 0.031001411 -0.004154796 -0.03297269 -0.040239107
0.023889026 0.0637092 -0.019609444 0.06985204 -0.017930454 0.08701154 0.018605532 -0.004448283
0.061513614 -0.005101717 -0.03328556 0.013307845 -0.02512248 -0.017426549 0.016523326 0.043561924
0.05052587 0.069805436 0.014449305 -0.040361732 -0.016858667 0.050164085 0.028832406 0.044030998
-0.03606746 0.011193774 0.048407294 -0.0075298785 0.06178802 0.01892239 0.030408464 -0.046292275
0.050700422 0.028670799 -0.061585274 0.091457486 -0.05206418 -0.02357077 -0.068543926 0.08068142
0.059169143 -0.03913127 0.066347905 0.06503924 0.036254913 0.03519796 0.09159237 0.060958274
-0.06223611 -0.0011074092 0.086243525 0.059774734 0.08990335 -0.05387921 0.039373994 0.08173995
-0.047104053 -0.08219541 -0.058417235 0.076700166 -0.011785909 0.055013623 0.026161693 0.045272928
-0.06038284 -0.030650081 0.052375708 0.013095306 -0.062164154 -0.06759061 -0.043212004 -0.0036093928
-0.0055896165 0.009044179 0.034657136 -0.0054220227 -0.018148977 0.0072078165 0.0010789012 0.08775012
0.04360373 0.092291765 -0.10924863 -0.0281683 0.05157316 0.051812854 -0.026727168 0.087634735
0.014763048 0.06812801 0.042094167 0.046673637 0.10266165 0.04052006 -0.0572439 -0.00908601
-0.014005037 0.026120089 0.059861545 0.0077081374 0.05081265 0.056624863 0.061337456 0.15566693
0.043834582 0.000782357 0.07558286 -0.03444471 -0.040575583 0.050696574 0.042273264 0.033611435
-0.15394084 -0.033859715 -0.035201926 0.070172995 -0.008891438 0.10371943 -0.027883248 -0.00040023055
0.014551065 0.056461982 0.031314358 -0.0013785936 0.004778023 0.08729286 0.032181975 -0.022116974
00000000: 1520 8c3d 3d84 fc3c 8779 16bd 5d09 6fbd
00000010: 9cf4 a4bd b60c bf3d d3a5 593d abee db3d
00000020: ac21 32bd bec2 5d3d 0252 6d3b 62f2 0b3d
00000030: f1da 063b 1069 cd3d 3755 24bd aa84 b93c
00000040: 9c27 5bbd b2a2 4abd af8d a7bd b2b7 b7bc
00000050: bbde 563c 259c 353d 986b d1bb 12df 14bd
00000060: fe06 b43c 7f3b 43bd f8bd b3bc 4f74 e23b
00000070: d495 ed3c ce0b 9f3d 3209 c53c 12bc 903d
00000080: 63ae e63d cac8 953d b4ea 823d 2fad ca3c
00000090: f3e2 9a3d 889e b0bd 2bc2 903d 6e51 61bc
000000a0: 8549 4b3b 5571 823d ada4 3abd 0f85 523d
000000b0: 488c b33d 8f85 ee3c 9beb b1bc 0894 ff3c
000000c0: cd9e 673c 9453 28bd 9b41 3a3d 7f51 03bd
000000d0: 4256 153d 5cf0 6c3d 2dfd 26bd 08f0 273d
000000e0: 46c2 553d 4829 b1bb 1be0 b03b 08c9 a23c
000000f0: 3e72 3abc 239b 61bd 6d2b ec3c 5305 1e3d
00000100: 4b8a db3a 19e3 8abc 7786 92bc 4052 ab3d
00000110: acf6 fd3c f424 88bb 5f0e 07bd c3d1 24bd
00000120: ebb2 c33c f879 823d fca3 a0bc 960e 8f3d
00000130: e3e2 92bc 1b33 b23d a16a 983c e7c2 91bb
00000140: b3f5 7b3d 4e2c a7bb 7056 08bd 2609 5a3c
00000150: a9cd cdbc 1fc2 8ebc ed5b 873c fd6d 323d
00000160: 37f4 4e3d 27f6 8e3d c7bc 6c3c 5852 25bd
00000170: 301b 8abc db78 4d3d f031 ec3c d959 343d
00000180: 79bb 13bd 1766 373c ba46 463d 33bd f6bb
00000190: 6f15 7d3d 2103 9b3c 2c1b f93c f89c 3dbd
000001a0: 3fab 4f3d 06df ea3c d740 7cbd 104e bb3d
000001b0: 4041 55bd 7d17 c1bc c260 8cbd 4d3c a53d
000001c0: 585b 723d 1c48 20bd 69e1 873d 4b33 853d
000001d0: 0880 143d bc2b 103d c894 bb3d 62af 793d
000001e0: 4beb 7ebd 7d26 91ba 72a0 b03d 5ad6 743d
000001f0: 3f1f b83d 72b0 5cbd a046 213d 4667 a73d
00000200: 2ef0 40bd 1156 a8bd e946 6fbd fa14 9d3d
00000210: af19 41bc f755 613d 0c51 d63c 1b70 393d
00000220: ff53 77bd e115 fbbc e987 563d b28d 563c
00000230: d79f 7ebd f26c 8abd 12ff 30bd 908b 6cbb
00000240: 1a29 b7bb 092e 143c a4f4 0d3d 39ab b1bb
00000250: 2aad 94bc 8c2f ec3b eb69 8d3a 56b6 b33d
00000260: d399 323d 7703 bd3d bfbd dfbd 35c1 e6bc
00000270: 613e 533d b739 543d eff2 dabc d779 b33d
00000280: b6e0 713c b386 8b3d ef6a 2c3d db2c 3f3d
00000290: 4540 d23d 5df8 253d 9478 6abd 7ddd 14bc
000002a0: 6275 65bc ccf9 d53c 6131 753d 8b94 fc3b
000002b0: ed20 503d 79ef 673d fc3c 7b3d 2767 1f3e
000002c0: e48b 333d 1717 4d3a 30cb 9a3d e515 0dbd
000002d0: 9532 26bd 36a7 4f3d bb26 2d3d 25ac 093d
000002e0: aba2 1dbe 7cb0 0abd e52f 10bd dcb6 8f3d
000002f0: 65ad 11bc da6a d43d 696b e4bc 09d6 d1b9
00000300: 9767 6e3c ae44 673d 7c43 003d edb1 b4ba
00000310: f690 9c3b 99c6 b23d 3fd1 033d a82e b5bc

mu.4.weight f4 [12, 200]
0.1566813 -0.12946673 0.121668085 0.18643759 0.18071777 0.020887697 -0.035681482 -0.049186815
0.060794245 0.034494605 0.15556756 0.05628447 -0.119258985 0.050266616 0.015439347 -0.1823695
0.07094895 0.03892836 -0.16254452 -0.13197061 -0.00515133 -0.1071591 -0.060784962 0.38605738
0.006685013 -0.036736723 -0.10510022 0.054663517 0.06865043 0.07890861 0.12848043 -0.001878962
0.25278425 -0.083074935 0.098021515 0.014338522 -0.097079895 -0.074476786 -0.06580812 0.13829982
-0.117271915 0.3009165 -0.060986586 0.17704684 -0.13390918 0.017475648 -0.04502647 -0.14516065
0.087383874 -0.024622742 -0.048087005 0.08185931 -0.13546377 -0.11955535 0.51525545 -0.04540227
-0.1710955 0.2372393 0.091426656 0.120157234 -0.05837668 -0.00019690413 -0.137312 -0.05865321
-0.029594861 0.033586506 -0.03468153 -0.050860796 -0.08423724 0.035632335 0.18691531 -0.19366375
-0.035695374 -0.0086793015 0.15702014 0.19318502 0.18543291 -0.024169262 -0.0717852 -0.14072157
0.0077467705 0.15414187 -0.009360305 0.10051682 -0.02550227 0.15237395 -0.004861498 -0.037214506
0.10880525 0.07811736 -0.031928264 0.21532172 -0.019070918 -0.04142222 0.10139848 0.15881455
-0.2931868 0.001238822 -0.04988105 -0.12572004 -0.040437527 0.015903214 0.15128672 0.12129094
-0.061307237 -0.088085465 0.09881766 0.0404229 -0.12665367 -0.042481042 0.108952545 -0.061129585
-0.083235316 0.00674909 -0.06813197 -0.08590071 0.041943572 -0.09016169 0.071152486 -0.108448915
0.13738766 0.0047894632 -0.03632495 -0.15125999 0.042259943 -0.036906406 0.1290273 -0.11078411
-0.21331309 0.1083752 0.08558742 -0.01967141 0.03180894 0.015744442 -0.041855462 0.2338596
0.025062114 0.12462786 0.10646967 -0.009877396 0.059229095 0.040375926 -0.025797928 -0.18754378
-0.02222156 0.12205984 -0.17311773 0.071157634 -0.14327788 0.04614387 0.038250696 -0.18266147
-0.0720785 0.13952051 0.10930281 0.07693962 -0.020445269 0.012896391 0.05648905 -0.053526837
-0.063678525 0.04818825 -0.17203513 0.0061669494 -0.049988966 0.2195084 -0.31819656 -0.0953032
-0.10466717 0.106748454 -0.0663574 -0.087552555 0.09396135 -0.17190643 -0.090073265 0.11490435
-0.01858732 0.12697303 0.068572104 0.01390056 -0.19040309 0.2165974 0.13646345 -0.14339592
-0.11430884 -0.03265909 -0.10534534 -0.10682294 -0.06906235 0.08452812 -0.29109114 -0.037276536
-0.038198788 0.29141682 -0.08691246 0.05550668 -0.042378325 0.015697865 0.03603325 -0.1787207
0.21950583 0.32094356 -0.0040036184 -0.010797383 0.0917055 -0.024568316 -0.1478832 0.15701765
-0.032303974 -0.18823078 -0.09640923 0.04291133 -0.00819235 -0.026085587 -0.04454405 -0.05979579
-0.04518053 0.17927943 -0.15314257 0.03801118 0.030881885 0.4055874 0.06875034 -0.21974258
0.0024968896 0.014430482 -0.13048923 -0.1590716 0.025609149 0.072353005 0.17646712 0.120823726
-0.02888461 -0.115232505 0.17224833 -0.018486917 0.022237085 0.23487146 -0.096725345 0.22993578
0.031192446 0.17129424 -0.010199527 0.20439659 -0.018301422 0.020561472 -0.06648559 0.05385369
0.03719487 -0.11430263 0.0076496582 0.10838772 0.03946005 0.034568608 0.44719955 0.04243334
00000000: 1071 203e ed92 04be 1e2d f93d 7fe9 3e3e
00000010: 140e 393e ad1c ab3c bf26 12bd 1d78 49bd
00000020: 6303 793d 374a 0d3d 1a4d 1f3e 8b8a 663d
00000030: 0e3e f4bd 5ee4 4d3d 51f5 7c3c 12bf 3abe
00000040: af4d 913d 5873 1f3d 1272 26be 4e23 07be
00000050: 7dcc a8bb 3b76 dbbd a7f9 78bd 50a9 c53e
00000060: f40d db3b 3f79 16bd c93e d7bd dae6 5f3d
00000070: 9998 8c3d d69a a13d 6090 033e 8147 f6ba
00000080: f06c 813e 3123 aabd 81bf c83d 1fec 6a3c
00000090: d3d1 c6bd 4987 98bd 68c6 86bd 789e 0d3e
000000a0: 422c f0bd ba11 9a3e 12cd 79bd c44b 353e
000000b0: 7d1f 09be 1729 8f3c ad6d 38bd fea4 14be
000000c0: 51f6 b23d a2b5 c9bc e1f6 44bd dba5 a73d
000000d0: 04b7 0abe 6fd9 f4bd c8e7 033f bbf7 39bd
000000e0: a933 2fbe dcee 723e e63d bb3d ff14 f63d
000000f0: 631c 6fbd 0d78 4eb9 849b 0cbe 593e 70bd
00000100: ec70 f2bc 0192 093d 380e 0ebd 6953 50bd
00000110: 9384 acbd 36f3 113d ba66 3f3e ca4f 46be
00000120: 5035 12bd a133 0ebc e3c9 203e 4bd2 453e
00000130: 20e2 3d3e 9efe c5bc 1e04 93bd 5119 10be
00000140: 9fd8 fd3b 5ed7 1d3e f75b 19bc c3db cd3d
00000150: 23ea d0bc eb07 1c3e 334d 9fbb 3d6e 18bd
00000160: 49d5 de3d fffb 9f3d 36c7 02bd 4c7d 5c3e
00000170: 9d3a 9cbc 59aa 29bd 02aa cf3d 48a0 223e
00000180: 951c 96be f85f a23a 1250 4cbd c1bc 00be
00000190: d2a1 25bd 7547 823c e8ea 1a3e 6267 f83d
000001a0: 4c1d 7bbd 2766 b4bd ea60 ca3d 7c92 253d
000001b0: 80b1 01be 9a00 2ebd 8322 df3d 0463 7abd
000001c0: 4777 aabd 7827 dd3b c688 8bbd b6ec afbd
000001d0: 06cd 2b3d b1a6 b8bd 65b8 913d 771a debd
000001e0: 5aaf 0c3e eef0 9c3b 79c9 14bd e6e3 1abe
000001f0: c318 2d3d 2c2b 17bd bc1f 043e c8e2 e2bd
00000200: bf6e 5abe d1f3 dd3d 7548 af3d f025 a1bc
00000210: 174a 023d 7dfa 803c a270 2bbd e478 6f3e
00000220: 104f cd3c e43c ff3d c50c da3d cdd4 21bc
00000230: 359a 723d 3a61 253d 2d56 d3bc 7a0b 40be
00000240: fd09 b6bc 82fa f93d c645 31be 18bb 913d
00000250: 70b7 12be 5b01 3d3d c3ac 1c3d 9c0b 3bbe
00000260: e59d 93bd 77de 0e3e 27da df3d 8592 9d3d
00000270: d67c a7bc 624b 533c 1061 673d f53e 5bbd
00000280: e369 82bd 0b61 453d fa29 30be 1f14 ca3b
00000290: 3bc1 4cbd cfc6 603e a9ea a2be 532e c3bd
000002a0: be5b d6bd ef9e da3d 63e6 87bd c14e b3bd
000002b0: cf6e c03d 3d08 30be 5578 b8bd f952 eb3d
000002c0: 6f44 98bc 3805 023e 886f 8c3d 2dbf 633c
000002d0: 07f9 42be b5cb 5d3e 13bd 0b3e 61d6 12be
000002e0: c11a eabd 8ac5 05bd 4cbf d7bd fcc5 dabd
000002f0: 9070 8dbd 141d ad3d e609 95be 48af 18bd
00000300: 5576 1cbd 9634 953e 29ff b1bd f95a 633d
00000310: e594 2dbd cf98 803c 9a97 133d 8f02 37be
00000320: 23c6 603e b752 a43e c930 83bb 82e7 30bc
00000330: 18d0 bb3d 7e43 c9bc b26e 17be 3cc9 203e
00000340: 2c51 04bd 92bf 40be 3472 c5bd cac3 2f3d
00000350: 3539 06bc 71b1 d5bc d273 36bd 6eec 74bd
00000360: 380f 39bd 0795 373e 68d1 1cbe 9cb1 1b3d
00000370: 02fc fc3c 27a9 cf3e facc 8c3d 3304 61be
00000380: dba2 233b d46d 6c3c f89e 05be aae3 22be
00000390: 47ca d13c d02d 943d ccb3 343e 6e72 f73d
000003a0: 6b9f ecbc 05ff ebbd de61 303e e071 97bc
000003b0: 8c2a b63c 2582 703e f017 c6bd 4974 6b3e
000003c0: 4d87 ff3c c267 2f3e eb1b 27bc 574d 513e
000003d0: ddec 95bc 8870 a83c 9929 88bd b095 5c3d
000003e0: a659 183d 7f17 eabd fca9 fa3b 62fa dd3d
000003f0: dda0 213d d097 0d3d 57f7 e43e 95ce 2d3d

mu.4.bias f4 [12]
0.05994735 -0.057032373 -0.050159406 0.006487011 0.07506752 -0.003834679 -0.047575608 -0.0265364
-0.046671193 0.073425055 0.048789233 -0.012794166
00000000: 5a8b 753d c79a 69bd f373 4dbd fe90 d43b
00000010: 00bd 993d 3d4f 7bbb a4de 42bd dd62 d9bc
00000020: 4b2a 3fbd e05f 963d 38d7 473d 9f9e 51bc

reward_fun.0.weight f4 [200, 14]
0.1283592 0.07463036 -0.05260084 -0.11763796 -0.17663643 -0.2610054 -0.061103083 -0.05939081
-0.020935858 -0.26753014 0.14185974 0.13294822 0.35755593 -0.07955227 0.0712276 -0.32169983
-0.12376638 0.17010014 -0.109670416 -0.25221303 0.2540041 0.10526753 -0.085201986 -0.28207633
-0.10593871 0.022255082 0.19980751 0.034522846 -0.06740964 -0.06702891 -0.35262248 -0.04798569
-0.0055626268 -0.23447682 0.20173782 -0.008277786 -0.26813546 0.08938576 0.042778913 -0.11856644
-0.22153191 -0.13921799 0.14501919 0.17412159 0.31167597 -0.21005362 -0.11532316 0.18913609
0.1198424 0.027432235 0.20603278 -0.22396544 -0.06097067 -0.15730944 -0.12168288 0.12398808
0.20903733 0.23219825 0.12297737 -0.24860415 -0.0059825014 -0.06155661 -0.04536878 -0.25250557
0.088529356 0.12242352 -0.23664062 -0.2491572 0.12521063 0.12752326 0.20682146 0.06597115
0.10690606 -0.22697127 0.21791227 0.2517141 0.24744225 0.13531762 0.15315136 -0.0032201975
0.17603056 -0.10816926 -0.081480704 -0.15089163 0.28924146 0.2565867 -0.32908264 0.013087185
0.036456354 -0.10313605 0.009369806 0.0071707405 0.20275976 0.039398007 -0.23115398 0.20306945
-0.3276155 0.12129741 -0.09498749 0.16859235 0.30029562 0.13624214 -0.20372072 0.20860614
-0.1731545 -0.0074138264 0.041409187 -0.07726586 0.29960752 -0.13791084 0.41281223 -0.03035542
0.091536865 0.08891845 0.24446128 0.114874616 -0.28047767 0.1152907 -0.29964846 -0.029408928
0.1805266 0.17734037 0.078136265 -0.27750778 0.14300215 0.046788506 -0.17859523 0.13887686
0.16884066 -0.15745653 0.11631678 -0.24591558 0.22700772 0.17336848 0.055039387 0.26288408
-0.026222512 -0.02865662 -0.09620188 -0.48255178 0.049885917 0.18346839 0.0052816453 -0.2641517
-0.034617923 -0.22472428 0.037448026 -0.14173472 -0.14616017 -0.19905697 -0.18834718 -0.19337234
-0.09026814 -0.15626498 -0.0025509265 -0.18537956 -0.25060388 0.10181802 -0.006446366 -0.22668815
0.06526602 -0.01924387 0.061457355 0.17366631 0.14940943 0.30955568 0.45328495 0.4148744
-0.3242254 -0.24355824 0.08109077 -0.29396647 0.038274817 0.16732466 0.07188471 -0.15411624
0.08648742 0.17632121 -0.21234086 0.22991402 -0.17288919 -0.01183117 0.026856985 0.027464107
0.0642945 0.23990126 -0.021906601 0.29987356 0.12724072 0.09268039 0.03161633 0.25279295
0.1518201 -0.157254 0.093331635 0.0720481 0.2986649 -0.33051893 -0.1381543 -0.23862574
-0.080511 0.13853677 0.075109504 0.11539739 -0.0704066 0.19023094 0.0027033766 0.19631857
-0.3116721 -0.013485629 -0.017769424 -0.081380084 -0.1482255 0.20935717 0.2112562 0.02863549
0.085955724 -0.11632565 0.08444152 0.016871896 -0.24964866 0.12513578 0.046562344 0.069339246
0.03687892 0.37545097 -0.14222685 -0.14097129 0.20284332 -0.15285707 -0.013003421 0.23829697
0.11933189 0.23590522 0.06454356 -0.044005033 -0.43844092 0.16111846 -0.23453395 0.2530779
0.16619511 -0.26164362 0.17708135 -0.05560097 0.085763454 0.21966244 0.17221701 -0.037266415
-0.07725705 -0.026132584 0.16922285 0.452433 0.16163543 0.07402849 0.2792642 0.026499845
00000000: 9870 033e cdd7 983d fa73 57bd 2cec f0bd
00000010: 2ee0 34be 80a2 85be 3a47 7abd c743 73bd
00000020: ad81 abbc b6f9 88be ae43 113e 9423 083e
00000030: 9211 b73e 4dec a2bd c7df 913d d7b5 a4be
00000040: 3a79 fdbd bb2e 2e3e e29a e0bd 1122 81be
00000050: d30c 823e 8196 d73d 617e aebd 4f6c 90be
00000060: 65f6 d8bd 4a50 b63c 579a 4c3e d467 0d3d
00000070: 110e 8abd 7446 89bd ef8a b4be a58c 44bd
00000080: b246 b6bb b11a 70be 5c94 4e3e 8d9f 07bc
00000090: 0d49 89be e20f b73d f138 2f3d f6d2 f2bd
000000a0: 43d9 62be 298f 0ebe e97f 143e ee4c 323e
000000b0: fe93 9f3e 4c18 57be 8d2e ecbd e4ac 413e
000000c0: ef6f f53d 91b9 e03c 42fa 523e 3257 65be
000000d0: 62bc 79bd ba15 21be e034 f9bd 76ed fd3d
000000e0: e20d 563e 61c5 6d3e 8fdb fb3d 1692 7ebe
000000f0: dc08 c4bb c922 7cbd 9dd4 39bd 6948 81be
00000100: e14e b53d 2fb9 fa3d eb51 72be 1123 7fbe
00000110: 3737 003e 7595 023e 01c9 533e e21b 873d
00000120: 90f1 da3d 286b 68be 6524 5f3e ace0 803e
00000130: 8061 7d3e b490 0a3e b6d3 1c3e f309 53bb
00000140: 5b41 343e d887 ddbd 5bdf a6bd 5683 1abe
00000150: 7517 943e 555f 833e 857d a8be a26b 563c
00000160: 4253 153d fe38 d3bd d183 193c 88f8 ea3b
00000170: 41a0 4f3e ce5f 213d a1b3 6cbe 70f1 4f3e
00000180: 38bd a7be c76a f83d cd88 c2bd 79a3 2c3e
00000190: 59c0 993e 0f83 0b3e 2a9c 50be d99c 553e
000001a0: 6a4f 31be afef f2bb ae9c 293d 903d 9ebd
000001b0: 2866 993e 8038 0dbe 205c d33e eeab f8bc
000001c0: ae77 bb3d e01a b63d 0f54 7a3e 6243 eb3d
000001d0: c59a 8fbe 881d ec3d 866b 99be feea f0bc
000001e0: f7db 383e b798 353e e805 a03d 8015 8ebe
000001f0: 286f 123e 4ea5 3f3d abe1 36be bc35 0e3e
00000200: 91e4 2c3e 493c 21be 7e37 ee3d 4bd1 7bbe
00000210: b674 683e 8287 313e fb70 613d be98 863e
00000220: 98d0 d6bc 4ac1 eabc 7e05 c5bd 0711 f7be
00000230: 2d55 4c3d 23df 3b3e a711 ad3b e43e 87be
00000240: 86cb 0dbd 1f1e 66be 1a63 193d e822 11be
00000250: 03ab 15be 97d5 4bbe 15de 40be 6603 46be
00000260: 81de b8bd ed03 20be 722d 27bb 24d4 3dbe
00000270: 274f 80be f785 d03d 0a3c d3bb f020 68be
00000280: 31aa 853d 52a5 9dbc b5ba 7b3d 95d5 313e
00000290: c9fe 183e 157e 9e3e f714 e83e 6b6a d43e
000002a0: df00 a6be 5567 79be eb12 a63d c682 96be
000002b0: 0ec6 1c3d 2857 2b3e 4a38 933d a6d0 1dbe
000002c0: 5120 b13d 8c8d 343e e26f 59be 956e 6b3e
000002d0: dd09 31be 86d7 41bc 2e03 dc3c 68fc e03c
000002e0: d6ac 833d ada8 753e 7975 b3bc 0789 993e
000002f0: 644b 023e 37cf bd3d 2080 013d 146e 813e
00000300: ba76 1b3e 3107 21be a824 bf3d f48d 933d
00000310: 9bea 983e c739 a9be 5278 0dbe 4e5a 74be
00000320: f3e2 a4bd 95dc 0d3e 03d3 993d 7855 ec3d
00000330: 5631 90bd e6cb 423e 222b 313b bc07 493e
00000340: 7c93 9fbe d4f2 5cbc 2f91 91bc 9aaa a6bd
00000350: 6dc8 17be ba61 563e 8c53 583e fa94 ea3c
00000360: 8e09 b03d 243c eebd adef ac3d ee36 8a3c
00000370: e6a3 7fbe 9823 003e 28b8 3e3d bc01 8e3d
00000380: 5a0e 173d 1c3b c03e eaa3 11be c75a 10be
00000390: 29b6 4f3e 9086 1cbe 4d0c 55bc 1f04 743e
000003a0: 4764 f43d 2391 713e 6a2f 843d 9f3e 34bd
000003b0: 547b e0be 3dfc 243e ab29 70be 6d93 813e
000003c0: 0d2f 2a3e 27f6 85be d054 353e d8bd 63bd
000003d0: c0a4 af3d 31ef 603e a859 303e aba4 18bd
000003e0: f238 9ebd 0014 d6bc c148 2d3e 4ca5 e73e
000003f0: c283 253e 409c 973d b8fb 8e3e 3416 d93c

reward_fun.0.bias f4 [200]
-0.12187964 0.069575794 -0.010813182 -0.30222878 -0.15147285 0.12639417 -0.26238066 -0.21404977
-0.047616 -0.21883452 -0.119828485 0.021397071 -0.05547056 -0.17444032 -0.09063623 0.23931141
-0.038266975 -0.092809446 0.08924436 -0.09648639 0.03081865 0.1720427 -0.12281367 -0.111158915
-0.028513275 -0.14487599 0.2476745 0.20360056 -0.11704118 0.27978584 0.046002243 -0.024632713
0.10880583 -0.055065986 0.086094044 -0.0066024032 0.052614205 -0.23287572 0.15276077 0.09659095
0.05553755 0.008955414 -0.11912408 -0.22538112 -0.060850654 0.18699278 0.116485566 -0.20834894
0.00068103406 0.05747155 0.10942542 -0.27682957 -0.15915245 -0.060498435 -0.052420955 -0.13367614
0.21767394 0.069305025 0.17515683 0.022494705 -0.20519231 -0.17244773 0.031130435 0.08879258
-0.2622282 -0.10516129 -0.11196133 -0.156148 0.18177342 -0.082023405 0.05225457 0.24092473
0.1302706 -0.014558945 -0.08313573 0.25868076 -0.08799012 -0.25288585 -0.022346651 0.098602526
0.24368602 -0.23297703 -0.25702202 -0.23529892 0.19971217 -0.046481162 0.22842579 -0.04068186
0.16867076 0.17839573 0.029052384 0.13493533 0.13688931 0.26663792 0.21962613 -0.259263
-0.18719311 -0.014969591 -0.14358667 0.18576029 0.21526174 -0.3038531 0.23280583 0.22997089
0.21514359 0.03447566 -0.20170212 -0.04108034 -0.12231952 -0.04283544 -0.0026271057 0.111763865
-0.1560698 -0.02102023 0.18202098 0.21314192 -0.049514916 -0.051477484 0.10995292 0.026426552
0.21508089 -0.29140478 0.06831124 0.11802842 -0.11366729 -0.030883089 -0.25689304 0.33395523
0.1399037 0.06599799 0.19071198 -0.12697199 0.054740034 -0.030755276 0.14523157 -0.15514825
0.03788078 -0.28034723 -0.2552662 0.080700226 0.18760283 0.094261505 0.02198714 -0.13220806
0.13389221 0.20843117 -0.012806606 0.03724349 0.20282078 0.05593714 0.14551243 -0.07856447
-0.21893911 0.11129854 0.24871887 -0.16231692 0.12292039 0.045135006 -0.22553313 -0.019022804
0.21617222 -0.16252941 0.16211998 -0.045094967 -0.20920661 0.03130533 0.1649975 0.20424885
0.0017673848 0.054627474 -0.1769327 0.022101035 0.0493044 -0.07277725 0.16000798 0.2595864
0.2392906 -0.1251129 0.0129899345 -0.12326343 0.16131365 0.10637976 -0.24048145 -0.058943827
-0.0071709096 0.2539643 0.034995124 -0.30197603 -0.26161468 0.21359676 0.17200549 -0.11949926
0.0017297982 -0.13954039 -0.17065139 -0.046481006 0.24804682 -0.11755566 -0.09655986 -0.17635565
00000000: 089c f9bd c17d 8e3d c629 31bc bbbd 9abe
00000010: b31b 1bbe 796d 013e c256 86be dd2f 5bbe
00000020: ff08 43bd 2816 60be a368 f5bd e948 af3c
00000030: 1935 63bd 7ca0 32be 7d9f b9bd 0d0e 753e
00000040: d5bd 1cbd e112 bebd bfc5 b63d a89a c5bd
00000050: 6577 fc3c f62b 303e bc85 fbbd 49a7 e3bd
00000060: ac94 e9bc 5f5a 14be 629e 7d3e aa7c 503e
00000070: 49b3 efbd 1740 8f3e d96c 3c3d 8bca c9bc
00000080: 97d5 de3d df8c 61bd 1352 b03d f958 d8bb
00000090: fe81 573d f976 6ebe 526d 1c3e 7ad1 c53d
000000a0: 587b 633d bbb9 123c 53f7 f3bd 4fca 66be
000000b0: 893e 79bd 097b 3f3e fc8f ee3d 6d59 55be
000000c0: 6c87 323a 4a67 6b3d 6f1a e03d 9bbc 8dbe
000000d0: dcf8 22be 35cd 77bd 5bb7 56bd 66e2 08be
000000e0: ebe5 5e3e cbef 8d3d 505c 333e d146 b83c
000000f0: ef1d 52be 2396 30be 4105 ff3c e2d8 b53d
00000100: c642 86be cd5e d7bd fb4b e5bd 43e5 1fbe
00000110: d022 3a3e e3fb a7bd e308 563d f9b4 763e
00000120: a865 053e a488 6ebc 1143 aabd ce71 843e
00000130: 2a34 b4bd 417a 81be 5310 b7bc 1ff0 c93d
00000140: d488 793e 8891 6ebe 6498 83be 33f2 70be
00000150: 5981 4c3e 0863 3ebd 73e8 693e 06a2 26bd
00000160: 07b8 2c3e 5fad 363e 44ff ed3c 7d2c 0a3e
00000170: b62c 0c3e c484 883e ace5 603e 1fbe 84be
00000180: 8daf 3fbe 0443 75bc 6208 13be f237 3e3e
00000190: 936d 5c3e a292 9bbe a764 6e3e 7d7d 6b3e
000001a0: 9a4e 5c3e 5a36 0d3d 008b 4ebe dc43 28bd
000001b0: a882 fabd 3774 2fbd 852b 2cbb 74e4 e43d
000001c0: c3d0 1fbe 9e32 acbc b563 3a3e e041 5a3e
000001d0: 27d0 4abd 0eda 52bd ff2e e13d 7f7c d83c
000001e0: 2a3e 5c3e 0233 95be c3e6 8b3d e2b8 f13d
000001f0: 65ca e8bd 88fe fcbc 7c87 83be 2efc aa3e
00000200: ea42 0f3e f429 873d 004a 433e f204 02be
00000210: 1637 603d 7df2 fbbc 96b7 143e 2fdf 1ebe
00000220: e028 1b3d ac89 8fbe 40b2 82be 2946 a53d
00000230: f51a 403e 2d0c c13d 601e b43c 8d61 07be
00000240: 0a1b 093e fb6e 553e ccd2 51bc a18c 183d
00000250: 40b0 4f3e 581e 653d 3601 153e 69e6 a0bd
00000260: 9331 60be 7df0 e33d 29b0 7e3e 6836 26be
00000270: afbd fb3d 7cdf 383d 28f2 66be b6d5 9bbc
00000280: 405c 5d3e 1c6e 26be c802 263e 80b5 38bd
00000290: 423a 56be 053a 003d 1bf5 283e 9c26 513e
000002a0: 98a7 e73a 0fc1 5f3d d92d 35be 3b0d b53c
000002b0: 69f3 493d 3d0c 95bd 22d9 233e 82e8 843e
000002c0: 9808 753e 991d 00be bcd3 543c 8a71 fcbd
000002d0: 682f 253e a2dd d93d c540 76be 156f 71bd
000002e0: f3f9 eabb 9c07 823e 0c57 0f3d 9a9c 9abe
000002f0: 5cf2 85be 1cb9 5a3e 3522 303e 07bc f4bd
00000300: 65ba e23a ade3 0ebe 3dbf 2ebe de62 3ebd
00000310: fcff 7d3e 06c1 f0bd 2dc1 c5bd 9396 34be

reward_fun.2.weight f4 [200, 200]
0.093143106 -0.03819782 0.06255506 0.01787001 -0.025073215 0.0035123245 -0.030330932 0.07551883
-0.053906545 0.02830423 0.013915388 0.06493036 -0.054876406 0.039450653 0.08125377 -0.08280733
0.018131763 0.04335583 0.021451462 0.029801149 -0.058232214 0.005424909 0.021176618 0.0049735103
0.07643423 0.10371014 0.052019246 -0.045509353 -0.043201152 0.025260353 -0.006640144 -0.06279909
0.02771301 -0.0073240674 -0.10235665 -0.005864115 0.017879602 -0.005967453 -0.07541694 -0.05634422
0.08384985 -0.028263055 0.06443952 0.033157103 0.011324464 0.04786941 0.013951764 0.080465145
0.040724587 0.095188275 0.035158057 -0.043164477 0.005899799 -0.05883118 0.094459705 0.028111715
0.028361876 0.017015312 -0.07017891 0.03639852 -0.060340323 -0.0066654715 -0.110012464 0.0056690215
0.033013932 0.06938397 -0.023630014 0.094498046 0.007279891 0.003198649 0.021535324 0.05381025
0.049339596 -0.005829624 0.026962642 -0.009752782 0.08647748 0.04154687 0.02845988 0.0048367307
0.014661018 0.083667524 0.014418822 0.027140325 -0.07106332 0.08360902 -0.011574108 0.049466584
0.04948164 -0.052220512 0.023540463 0.063817516 0.0075537157 -0.005048339 0.026668346 0.02067529
0.12138183 -0.06869452 0.0022710562 0.015148154 -0.03549245 0.039733373 -0.070371695 0.049586467
-0.014478505 0.028345525 -0.0019089796 -0.018803282 0.014016341 0.03372469 0.06875713 0.016109351
-0.03032747 -0.056736313 -0.0023251504 0.004362291 -0.13447167 0.058621615 -0.04531519 0.08438966
0.010088813 0.10309713 -0.03783204 -0.01674438 0.048470322 0.015139798 0.13780808 -0.06628907
0.05916637 0.09823733 0.096816495 -0.035868797 0.027341217 -0.046228185 -0.046382185 0.02405806
-0.05864287 -0.008419359 -0.105736695 0.015062346 -0.06523972 0.026723871 0.0008731359 0.06598658
-0.06003494 0.016391871 -0.049660034 0.05469134 -0.06715643 0.05771689 -0.046344027 -0.00585738
0.09705703 -0.04994611 -0.0039863535 0.0046457984 -0.07429062 0.07421554 0.076305635 0.08182933
-0.08533129 -0.060155123 0.061079115 -0.008078394 0.013646462 -0.025161168 -0.004452887 0.055672392
-0.020669822 0.011602157 0.07802347 -0.0022448278 -0.043335892 0.053238526 -0.045065276 -0.022337245
0.031963866 0.008835393 -0.066532746 0.037775815 0.017518306 -0.0057773166 -0.04329146 0.080410786
-0.027461434 0.0458531 -0.0016087646 -0.07604357 -0.032464985 -0.003213435 -0.08219175 0.0016843298
0.015945224 0.043891087 -0.009895564 -0.03194089 0.004670625 0.0498733 -0.009864547 0.018875329
-0.35258043 -0.026372472 -0.090515114 -0.20236921 -0.12385125 -0.049609967 0.045923796 -0.0092399595
0.022413664 -0.16162266 -0.01757346 -0.089094475 -0.07533207 0.062278055 -0.03354466 0.0131816035
-0.062327806 -0.027834399 0.0059728753 0.011669529 -0.020650333 -0.0006047813 0.005371397 -0.26733816
-0.33315173 -0.024786389 0.12096182 -0.07907684 -0.062435884 0.014235693 0.10320168 -0.060614787
0.079048894 -0.08826452 -0.042717468 0.02125349 -0.022173945 -0.02080695 0.049513582 -0.011318727
0.009370498 0.018948926 0.18250342 0.014057137 -0.10477555 -0.09907511 0.050682988 -0.0110212285
-0.07739491 -0.018087408 3.9132137e-05 0.036697064 -0.024969125 0.07176104 -0.036016855 0.12242019
00000000: d0c1 be3d 5175 1cbd de1c 803d 2164 923c
00000010: 5866 cdbc 072f 663b 9378 f8bc 9ea9 9a3d
00000020: 1ccd 5cbd 46de e73c 5efd 633c 35fa 843d
00000030: 15c6 60bd 0297 213d 6068 a63d e496 a9bd
00000040: 1089 943c e295 313d faba af3c 8a21 f43c
00000050: e784 6ebd 6fc3 b13b 967a ad3c d4f8 a23b
00000060: 8d89 9c3d fb65 d43d 2212 553d 0468 3abd
00000070: b1f3 30bd cdee ce3c 9195 d9bb cf9c 80bd
00000080: 6506 e33c bbfe efbb 5da0 d1bd c327 c0bb
00000090: 3e78 923c a08a c3bb 3274 9abd 32c9 66bd
000000a0: 78b9 ab3d ec87 e7bc def8 833d becf 073d
000000b0: 3f8a 393c b712 443d f195 643c e9ca a43d
000000c0: d3ce 263d 12f2 c23d e501 103d 3ccd 30bd
000000d0: 1a53 c13b f7f8 70bd 1774 c13d 8a4a e63c
000000e0: 2a57 e83c b263 8b3c f6b9 8fbd 9d16 153d
000000f0: 6a27 77bd 076a dabb 374e e1bd 33c3 b93b
00000100: 9e39 073d 2f19 8e3d bb93 c1bc 3188 c13d
00000110: 278c ee3b 6da0 513b d96a b03c 2368 5c3d
00000120: 5118 4a3d 6e06 bfbb c2e0 dc3c 22ca 1fbc
00000130: 1b1b b13d 0d2d 2a3d b224 e93c 707d 9e3b
00000140: c434 703c e159 ab3d ec3c 6c3c 6355 de3c
00000150: a589 91bd 353b ab3d 54a1 3dbc 799d 4a3d
00000160: 43ad 4a3d 2de5 55bd eed7 c03c c2b2 823d
00000170: 2985 f73b 896c a5bb 9377 da3c 3a5f a93c
00000180: 0997 f83d b6af 8cbd 00d6 143b f72f 783c
00000190: 8860 11bd 76bf 223d 091f 90bd 2e1b 4b3d
000001a0: 4037 6dbc e034 e83c ba36 faba 5709 9abc
000001b0: cca4 653c e722 0a3d 8ad0 8c3d c2f7 833c
000001c0: 5071 f8bc 5664 68bd 8d61 18bb 8df1 8e3b
000001d0: f1b2 09be 381d 703d 6c9c 39bd 7cd4 ac3d
000001e0: 8c4b 253c 9724 d33d c5f5 1abd 832b 89bc
000001f0: d188 463d ea0c 783c 901d 0d3e 90c2 87bd
00000200: 7058 723d a730 c93d ba47 c63d 29eb 12bd
00000210: b0fa df3c c459 3dbd 3ffb 3dbd 6915 c53c
00000220: 8233 70bd 5af1 09bc 7b8c d8bd 0fc8 763c
00000230: 679c 85bd 05ec da3c 29e3 643a f923 873d
00000240: 32e7 75bd 3f48 863c 5268 4bbd 0704 603d
00000250: 4f89 89bd 8c68 6c3d 3cd3 3dbd 44ef bfbb
00000260: d6c5 c63d 4b94 4cbd f59f 82bb c83b 983b
00000270: ae25 98bd 51fe 973d 2146 9c3d 2396 a73d
00000280: 2cc2 aebd 3865 76bd 182e 7a3d 3e5b 04bc
00000290: 6995 5f3c cb1e cebc 86e9 91bb bc08 643d
000002a0: c253 a9bc f916 3e3c c5ca 9f3d f61d 13bb
000002b0: fa80 31bd a410 5a3d 5e96 38bd 99fc b6bc
000002c0: 8bec 023d 53c2 103c 5242 88bd d0ba 1a3d
000002d0: 8d82 8f3c a54f bdbb 6352 31bd 69ae a43d
000002e0: cdf6 e0bc 76d0 3b3d 2fdd d2ba bbbc 9bbd
000002f0: 01fa 04bd 7e98 52bb 2654 a8bd bbc4 dc3a
00000300: 8f9f 823c 24c7 333d 0121 22bc 73d4 02bd
00000310: 0b0c 993b f247 4c3d e99e 21bc 6fa0 9a3c
00000320: 6c85 b4be 150b d8bc fd5f b9bd e039 4fbe
00000330: b9a5 fdbd d233 4bbd 971a 3c3d 3363 17bc
00000340: dc9c b73c 6980 25be 37f6 8fbc 2a77 b6bd
00000350: b347 9abd 4617 7f3d 2066 09bd a7f7 573c
00000360: 714b 7fbd f704 e4bc 1cb8 c33b 8d31 3f3c
00000370: e32a a9bc 308a 1eba 8b02 b03b 8ce0 88be
00000380: dd92 aabe d30c cbbc d5ba f73d 0af3 a1bd
00000390: c5bc 7fbd d33c 693c 675b d33d 3647 78bd
000003a0: 63e4 a13d 07c4 b4bd 83f8 2ebd cd1b ae3c
000003b0: 22a6 b5bc 5673 aabc c1ce 4a3d 2f72 39bc
000003c0: b886 193c c73a 9b3c 2de2 3a3e e84f 663c
000003d0: 9094 d6bd e4e7 cabd f798 4f3d 6292 34bc
000003e0: 3981 9ebd 0b2c 94bc d021 2438 a94f 163d
000003f0: 0d8c ccbc 74f7 923d 6986 13bd 70b7 fa3d
