experiments/data/sawyer_clutter_200steps_10H/h_sac/2021-06-24_09-19-12_clutter_200steps_10H/policy_6000.pt (torch_old, 75801 bytes, 6 tensors)

mu.0.weight f4 [128, 12]
00000000: 6196 0fbe 490c 563e 2907 a9bd ba38 32be
00000010: 35e2 f73d 16ed 3c3c fa6c 68bb a739 b1bd
00000020: 7f4d 3abc a681 82bd 2899 c23c 43a2 90be
00000030: c9be 7fbe 95e8 583e 88dd de3b 31ff 703e
00000040: da14 10bc 3539 85be 261b 863e a033 52be
00000050: 5552 083e fb71 2a3e ba35 ecbd 3a8e adbd
00000060: 008d 09be 3f8e 8a3e ff1f 80bd 6c95 fdbc
00000070: 31a7 b9bd 4212 1c3e 2ce0 6d3e 2825 4cbe
00000080: 2722 90be c389 5d3d 089e d93d 370e 8dbe
00000090: 6924 f03d f73f 93bd 9a06 583d 6081 f93c
000000a0: 2906 21be f8ea 30be 9341 293d 70c1 283e
000000b0: 3cff f3bd 0c82 54be 9278 3e3d 4f94 523e
000000c0: d74f c03d 2f4a ee3d 30c2 4abe 9410 0f3e
000000d0: 4488 7f3e 6dc6 173b 2cba 303d ec6d b2bd
000000e0: df12 073e 19ea 2cbd 0d80 c83d 2a0e 91be
000000f0: fc6a c3bd 125c ad3d 7bb2 a63c e76a 7fbe
00000100: 317a 983d 6b10 983d 5a94 4fbe ea34 053e
00000110: 110e 7dbd 9198 2fbe 78a1 68be 5ca6 883e
00000120: 03f9 34be 0d42 62be 8aa2 44bd ec22 6cbe
00000130: 87ff 20be ad55 d43d 1994 803e 2ce4 b73d
00000140: 236f b13d 90b3 873d f9a4 483e 29be 53be
00000150: b833 d7bd 8d08 4ebd 7183 633e 8a12 79bd
00000160: e395 73be 4512 0bbe 141c 85be 294a 7b3e
00000170: d713 49be 6297 933e 0bba f53d f1a0 ef3b
00000180: a81a 89be 3584 e7bd 0dae 0ebe e4cd c83d
00000190: b85e 1dbe a8d5 a8bc cf99 6dbe b1ac 913e
000001a0: 1709 713e e53a 75be 8b65 80be 6f38 5cbd
000001b0: e727 75be aae3 5a3e fdba 733e 40b4 a6bd
000001c0: 057f 1f3d efdf 37be 28a2 7f3e 4843 7ebe
000001d0: f070 6bbe db84 7cbe 22bf b6bc 1880 0fbe
000001e0: fe5d bd3d 25ba 8f3e 43cd 873e 2943 8e3e
000001f0: c5de 1d3d 31e9 88be ee43 6cbe 8755 c2bd
00000200: fce6 93be ec77 09bd a351 d3bc 65d7 3cbe
00000210: 441a 8ebe 09a9 823e af43 50be 2276 80be
00000220: a136 a6bd 8eac 0cbe 382b 283c a5e8 86bd
00000230: 2bed 123e 1f8b 81be 4ab0 16be 1a23 c83d
00000240: 4be7 143d 9670 8b3d 3331 e7bd 68bd 0dbe
00000250: a9a4 82be 332a cebd 47a3 02be dd10 9c3d
00000260: 95df 3abe 608f 40be 7457 78be a097 d4bc
00000270: 530d 7ebe b80a cb39 d3f3 6bbe f0b6 873e
00000280: 2a4f 4c3e 0926 d23d c102 0ebe 96e9 62be
00000290: 07cb 03bd ab06 113e 0133 89be eaae acbd
000002a0: d8e4 5c3e 45ab 14be 8a24 b03d 1f16 083e
000002b0: 0456 fb3d 755b 903d 2b6b 77be b60f 813d
000002c0: 9553 7fbe 8ef3 0dbe 282d cb3d 5f0e 1e3e
000002d0: 845a 9abd 44b5 08be d87c d3bd d13b 13bc
000002e0: 0be3 52bd a009 073e 6309 2bbc 9899 82be
000002f0: 3336 82be 9527 0bbe a4ed 953e 281a 7ebe
00000300: c277 763e 4944 c0bd c9fe 4abe d58c 86bb
00000310: 71d9 893e 9dd6 82be 81fe 15bd 3d63 2cbd
00000320: cf2b 00bd e9c0 79bd ff61 8dbd 9f5b 5c3e
00000330: b82e 78bd 15ff 92be ffac 6a3e eacb 283d
00000340: 3098 4d3e 114f f23d a9e8 13be 6491 0f3d
00000350: 2e1c 32be 1401 6d3e 8101 563e a032 05be
00000360: 4f9b ef3d 044d b23d 92c0 053e f583 cbbd
00000370: 996e 93bd 9f30 cabc 192f febd 7fcb 3ebd
00000380: e163 913d acb9 5a3e 22f2 5f3e af94 2abe
00000390: 5c75 2fbe f975 5c3d 2aa5 b7bd 6c1a 153e
000003a0: 9ca9 47be ff05 5c3e e925 6abd 2410 66be
000003b0: da81 4e3e d573 1c3e 47ec b93d 283a 093c
000003c0: e8b0 61be 5b0b 13be 000e 15be 98c3 4dbe
000003d0: 8ecc 803e bd5a 97be 0449 e53d f66c 2a3e
000003e0: d29c 903e 0997 163c 3197 773e cb92 263e
000003f0: bf09 02be 9286 353e 5fe5 d9bd 9ae8 e73d
-0.14022209 0.20903124 -0.08253319 -0.17404452 0.121036924 0.011531135 -0.0035465346 -0.086535744
-0.011371016 -0.06372385 0.023754671 -0.28248796 -0.24975123 0.21182473 0.006801311 0.23534848
-0.008794034 -0.26020208 0.26192588 -0.20527506 0.13312657 0.16645043 -0.11533685 -0.08474393
-0.13432693 0.2706165 -0.06256103 -0.030955039 -0.09065092 0.1524134 0.23230046 -0.19936049
-0.28151056 0.054086458 0.10625845 -0.27549908 0.11725695 -0.07189935 0.05274067 0.030457199
-0.15725006 -0.17277133 0.041322302 0.1648004 -0.119139165 -0.20752734 0.046501704 0.20564388
0.09390228 0.11635243 -0.19800639 0.13971168 0.24954325 0.0023159042 0.043146297 -0.08712372
0.13190793 -0.04221544 0.09790049 -0.2833112 -0.0954189 0.08464827 0.020348778 -0.24943124
0.07445181 0.074250065 -0.20271435 0.13008466 -0.061780993 -0.17148043 -0.22717845 0.26689422
-0.17673115 -0.22095509 -0.04800657 -0.23060197 -0.15722476 0.10367904 0.2511299 0.08979067
0.08663776 0.06626046 0.19594182 -0.20678009 -0.105079114 -0.050301123 0.2221811 -0.060808696
-0.23787646 -0.13581188 -0.25997984 0.24540009 -0.19636475 0.28826433 0.119983755 0.007312887
-0.2677815 -0.11304513 -0.13933583 0.098048955 -0.15368164 -0.020609692 -0.23203205 0.28452066
0.23538624 -0.23948248 -0.2507747 -0.053764757 -0.23941003 0.2137591 0.23801799 -0.08139849
0.038939495 -0.17956518 0.24964201 -0.24830353 -0.22992301 -0.24660055 -0.022307936 -0.14013708
0.09246443 0.28071705 0.2652379 0.27785614 0.038542528 -0.2674041 -0.23072788 -0.09488969
-0.28887165 -0.033561632 -0.025795763 -0.18441541 -0.27754414 0.2551959 -0.20338319 -0.25090128
-0.081158884 -0.137377 0.01026421 -0.06587342 0.14348285 -0.25301453 -0.14715686 0.0977232
0.03635339 0.068085834 -0.11288681 -0.13841784 -0.2551625 -0.100666426 -0.12757598 0.07620404
-0.18249352 -0.18804693 -0.2425211 -0.025951207 -0.2480977 0.00038727163 -0.2304223 0.26506758
0.19952074 0.10261161 -0.13868238 -0.22159418 -0.032176044 0.141627 -0.26796725 -0.084318
0.21571672 -0.14518459 0.08600719 0.13289689 0.122722656 0.07048694 -0.24161975 0.06301825
-0.24934228 -0.1386244 0.09920722 0.1543517 -0.07536796 -0.13350397 -0.103265464 -0.008986429
-0.051486056 0.13187265 -0.01043925 -0.25507808 -0.25431976 -0.13589318 0.29282868 -0.24814665
0.24069121 -0.09388024 -0.19823755 -0.004106144 0.26923707 -0.25554362 -0.036619667 -0.04208683
-0.03129178 -0.06097499 -0.06903457 0.21519326 -0.06059143 -0.28710237 0.22917555 0.041210093
0.20077586 0.11831487 -0.14444222 0.035050765 -0.17393562 0.23144943 0.20899011 -0.13007593
0.11699545 0.08706096 0.13061741 -0.09937278 -0.07198829 -0.024681387 -0.12411327 -0.046580788
0.070991285 0.2135989 0.2186971 -0.16658281 -0.17134613 0.053823445 -0.089670494 0.1456086
-0.19498295 0.21486662 -0.05716506 -0.22467095 0.20166722 0.15278561 0.090782695 0.008375682
-0.2204014 -0.143598 -0.14556122 -0.20094144 0.25156063 -0.29561415 0.11195567 0.16643128
0.28244644 0.009191283 0.24178769 0.16266935 -0.1269903 0.17727116 -0.10639452 0.11323662

mu.0.bias f4 [128]
00000000: 2d04 c13d 4951 24be 33f8 5c3d e260 1b3e
00000010: 959d 633e 018e 81be 63bb 2a3e fb46 8b3e
00000020: 3803 09be fcc4 3a3e bf19 3abe d227 8fbe
00000030: f6ab bf3d b9a4 65be e2e5 f2bd 101b 3ebe
00000040: c329 6f3e 3b72 c7bc b6f7 243e cc2b 3c3e
00000050: b6f2 4abe 09fc d33b ba86 49be 8024 e1bd
00000060: 4bf9 8abe b88e 04be a7b0 4c3e 1b88 62be
00000070: e217 923e a2b3 ea3d db32 c7bd 9d8d c8bd
00000080: 543a 8fbe 8dac cabd e702 ccbd 1fff 84be
00000090: 3bfe 2fbe e992 3bbe e698 59be 24ee 713e
000000a0: 45a1 0bbd ba1a 2abe cf99 873d cb57 b63d
000000b0: f233 71be f738 39bd 9faf 72bd 84d2 35be
000000c0: 269b f63c 454c 553e 526d df3d 180e 4d3e
000000d0: 8de0 7c3e 7007 82bb 1e90 873e 7fe3 6abe
000000e0: af57 853e d0b0 553d 627a 04be 0940 babc
000000f0: 63c7 153e 02ef 2ebe 4837 543e 05a0 6a3e
00000100: 7763 493e 884b 4e3e e6ae 8a3e ff55 923d
00000110: 8803 a0bd 3fe1 09be 0196 22be 13a0 e93d
00000120: cbcf b8bd 2982 63be 4217 463c 2176 613e
00000130: 0551 7ebe 89f4 ec3d 409e ffbd f468 07be
00000140: 50ed 81be 9262 1dbe 24b7 9fbd c53f 40be
00000150: a2bb 4cbe b496 363d 3739 883e 8d77 debd
00000160: dba9 93bc b9db 93be 94d6 50bd 3c52 81be
00000170: a33d 453d f887 653e 2c3f 343e ea1c ccbd
00000180: 9f29 393e 9a1e 44bd 4c33 10be f676 ba3d
00000190: e45a 2c3d 980e 72bd e74e 46be 40ca 343e
000001a0: b835 0b3c e103 84be 6e44 c53d ce04 50bd
000001b0: b139 3b3e 5d36 e8bb d5fb 2bbe 7150 5dbe
000001c0: 24d6 413e 2d54 883e 7e72 e8bd b3b2 3dbd
000001d0: 2d6f 70be 5d65 4cbe 5c33 d9bb 8b84 cf3d
000001e0: d64c eabd 8f1b acbd 6524 c13c fc7e 1f3e
000001f0: ecd7 563e bbd1 dd3c d28d e83d 4434 82bd
0.094246246 -0.16046633 0.05394764 0.15173677 0.22228082 -0.25303653 0.16673045 0.2720259
-0.13380134 0.18239206 -0.18173884 -0.27960068 0.09358971 -0.22426118 -0.11860253 -0.18565011
0.23355775 -0.024346462 0.16110119 0.18376082 -0.1981915 0.006469254 -0.196803 -0.1099329
-0.2714332 -0.12945068 0.19989263 -0.22122233 0.28533846 0.114600435 -0.09726497 -0.097926356
-0.27974188 -0.09896193 -0.09961491 -0.25975892 -0.17186825 -0.1831776 -0.21249732 0.23626
-0.034089345 -0.16611758 0.066211335 0.08903464 -0.23554972 -0.04522034 -0.059249517 -0.17756087
0.030103277 0.20829876 0.10909523 0.20024908 0.24695034 -0.003968172 0.2647714 -0.22938345
0.2604346 0.052170575 -0.1293731 -0.022735612 0.14626841 -0.17083362 0.20724213 0.22912605
0.19666849 0.20146 0.27086562 0.07145309 -0.078131735 -0.13464831 -0.15877534 0.11407485
-0.09024008 -0.22217621 0.012090506 0.22017719 -0.24835594 0.11570079 -0.12481356 -0.1322363
-0.25376368 -0.15369633 -0.07798603 -0.18774326 -0.19993451 0.044577315 0.2660615 -0.10862646
-0.01802533 -0.28878573 -0.050985888 -0.25258052 0.048154484 0.22415149 0.17602223 -0.099664524
0.18082283 -0.047880746 -0.14082068 0.09104721 0.042078868 -0.05909595 -0.19366036 0.17655277
0.008496694 -0.2578421 0.096321926 -0.050785832 0.18283726 -0.0070865587 -0.16795285 -0.21612717
0.18929344 0.2662672 -0.11349963 -0.046313 -0.2347991 -0.19960542 -0.006628437 0.101327024
-0.114404365 -0.08403694 0.023576925 0.15575784 0.20980805 0.027077546 0.11355175 -0.06357625

mu.2.weight f4 [128, 128]
00000000: a1e6 7b3d ab00 71bd a8c9 93bc e231 883c
00000010: adc3 803c 150e 91bd c699 0dbd 9790 60bd
00000020: 8df3 7ebc d5ea e4bb 4783 78bc de28 bdbd
00000030: ac5b 40bd 17a9 a53c 24b0 93bd 476c 233d
00000040: 8c48 8abd bd18 53bd d065 5e3d 42bd 943c
00000050: 687a 5f3d 2010 063c 10b1 163d eb32 70bd
00000060: 85d5 d73c c320 093c c1d9 4ebd b7ee c6bc
00000070: d1ef 73bd d984 9e3d bf40 043d 06b1 463d
00000080: acb9 6e3d 9dc5 29bd b7fd 093d f51a b6bd
00000090: a1cb ae3d d7ff 2cbc 5ef2 a0bc 3739 f5bc
000000a0: 0f07 f3bc 869f 24bd 32cf 65bd 7d6a dcbc
000000b0: d915 963d d17c ff3b 2c0c 303d 15f1 33bc
000000c0: d797 093d 6bf1 78bd ec5a f0bc 467b 583c
000000d0: db2f cbbc a9de 55bd fcf3 81bd 1d79 8a3d
000000e0: 72b3 a8bd 8ae5 bdbd 74ac 723d ad9b b6bd
000000f0: 91d4 3e3b f963 41bd a5f4 bbbc 9740 c33a
00000100: bd8a 953d 652d 5f3d 7561 d03a 4d96 243d
00000110: 44a0 20bd 8b46 a93c 480a 843d d524 503c
00000120: 48c4 d9bc f6ef 8abc d462 8b3d fdf2 a0bd
00000130: 4c30 9bbd 3662 b8bd aeb1 fabc 469e 48bd
00000140: efb8 033c fab8 903c 09cb 123d 76b7 a83b
00000150: 7935 d93c 9a3c 65bd 6143 11bc 01ce 0c3d
00000160: 107b 3abd a162 31bd 187e c9bd 832a 0f3d
00000170: cf3c aebc 383d a93c c902 773d 50ad 8d3d
00000180: 8e36 a13c a765 563d 5145 3dbd b9f6 a6bd
00000190: 43b2 5ebc 56d3 1b3d 17fa 50bb 086f 403d
000001a0: 25a9 5dbd eb76 83bd 4dbe 16bd 8d9f c3bd
000001b0: 156e 4f3d 398f a6bd 67f4 b3bd 7739 69bd
000001c0: 0e77 88bc 1914 56bd f9b2 b43c fcae 5abc
000001d0: d653 91bd 202d 0fbd 8cc1 95bc 1889 80bd
000001e0: 5997 b1bd 5571 9cbc 24f8 35bd 2365 2fbd
000001f0: 04ec 44bd ae67 ccbd 579d a03d 9f90 5a3d
00000200: 4a90 a63c b1a1 b6bd 7f99 41bd a492 21bd
00000210: aae2 4c3d 34e6 0a3b 454f 70bd c607 3abd
00000220: 5fec 613d 0109 803d f948 153d e224 983c
00000230: dfc4 3bba 8f9b b53d e3b2 e9bc d9dd 1fbd
00000240: ee7c 7cbd 2386 8b3d 1ef7 04bd cd66 a7bb
00000250: 5455 28bd a183 acbc 55da a33d b8e1 6dbc
00000260: 8d49 ad3d e695 9dbd de42 aa3d fdd2 3ebc
00000270: 133d 053d c729 f03c b3f2 803d d288 a63b
00000280: 120f 3b3d 7030 99bd f105 6a3d 227f 3d3d
00000290: f04d a33d 9686 8fbd a80d 373d 9c7b cf3c
000002a0: 7a7b 84bd e57d 163c b47c 1c3d d5d5 9ebb
000002b0: a19f b73c 12c3 23bd f83b 15bd dca2 563c
000002c0: 6d87 03bd 319c e0bc 87b6 bcbc cc33 1f3d
000002d0: 0523 b9bd e13f b9bd 94bf 6a3d c00c 30bd
000002e0: 0321 373d a8e4 973d 237a db3c 8616 3ebd
000002f0: ac7f 6ebd 23c4 7d3d 22ce 633d 0260 09bd
00000300: 1417 9f3d 21a0 31bd a92b 003d 050d 893d
00000310: 0d17 e33c e894 99bd fde1 52ba 3e28 273d
00000320: dacd a1bd c707 f93c c88b 8cbd a3db 1a3d
00000330: c63c 9b3b 557d 6dbd e4e9 5d3d 2208 a23c
00000340: fab4 a63c d699 2c3d a779 5fbd 946b 20bd
00000350: 5239 8c3d 6e15 83bd 71bd 5ebd fc4d a13c
00000360: 04ad 4dbd 84c5 6bbd 93f5 11bc 773b 913c
00000370: 48ad a53d a7f7 243d 660d a33d d2b4 533d
00000380: 59f6 42bd dd4e 0cbd 3f92 473d 7d25 21bd
00000390: 9c9d 893d 9160 4fbd 54b8 6338 8960 9e3c
000003a0: 3d52 52bd 4d14 8ebd 7f2b eabb 2279 823d
000003b0: 62aa 98bd 29d4 8cbd a442 04bd f23b f1bb
000003c0: 556c 87bd e4af 97bd 9119 913c 491b 723d
000003d0: e503 ffbb 804e 9a3d 845c 82bc 15e8 733d
000003e0: dfbf 523d 2775 94bd 0ad5 6bbd 6ca5 05bd
000003f0: 253a c63d 8f81 2dbd 8189 a4ba 9aa3 6bbd
0.06149924 -0.058838528 -0.018040493 0.016625348 0.015718305 -0.07082764 -0.034570478 -0.05482539
-0.015560997 -0.006986002 -0.015168018 -0.092363104 -0.046962425 0.02022223 -0.072113305 0.039898183
-0.067521185 -0.051537264 0.054296315 0.018156651 0.054560095 0.008182555 0.036789954 -0.05864231
0.026346931 0.008369627 -0.050500635 -0.02428375 -0.05955488 0.077401824 0.03228831 0.048508666
0.05828254 -0.041448224 0.033689227 -0.088918604 0.08534933 -0.010559044 -0.01964682 -0.029934509
-0.029666452 -0.040191196 -0.0561058 -0.026906246 0.07328386 0.0077968617 0.042980358 -0.010982771
0.03359207 -0.06077711 -0.02934023 0.013212984 -0.024803093 -0.0522143 -0.063453645 0.06761382
-0.082373515 -0.09272297 0.059246495 -0.089164115 0.0029118399 -0.047214482 -0.022943804 0.0014896569
0.07301853 0.05448665 0.0015898185 0.0401824 -0.03921534 0.02066352 0.064472735 0.012704094
-0.026582852 -0.016960125 0.06805959 -0.07858846 -0.07577571 -0.09003107 -0.030602302 -0.048979066
0.008039697 0.017666329 0.03583816 0.0051488234 0.026514756 -0.055965997 -0.008866162 0.034376148
-0.045527518 -0.04330695 -0.098385036 0.03495265 -0.02126923 0.020659074 0.06030539 0.06917822
0.019679334 0.052343037 -0.046208683 -0.08152527 -0.013592306 0.038043343 -0.0031887346 0.046980888
-0.054116387 -0.06419166 -0.03680258 -0.09551916 0.05064209 -0.08132786 -0.087868504 -0.05693957
-0.016658332 -0.05226526 0.022057997 -0.013347384 -0.070960686 -0.034955144 -0.018280767 -0.062761486
-0.086714454 -0.01909701 -0.0444261 -0.04282106 -0.048076645 -0.09980713 0.0784251 0.053360578
0.020332474 -0.08917559 -0.047265526 -0.039446488 0.05002085 0.002119434 -0.058669347 -0.04541757
0.05515706 0.06251717 0.036446545 0.018572275 -0.000716282 0.08867561 -0.028527683 -0.03902993
-0.06164258 0.06812694 -0.03246223 -0.0051086904 -0.041097 -0.02105886 0.08000628 -0.014519148
0.08461294 -0.076946065 0.08313535 -0.011646983 0.032528948 0.029316796 0.06296291 0.005082228
0.04566867 -0.07479942 0.057134572 0.04626382 0.0797385 -0.07008092 0.044690758 0.025327496
-0.06468864 0.009185289 0.038204864 -0.004847268 0.022414984 -0.039980955 -0.036434144 0.013100352
-0.032111574 -0.027418228 -0.023036255 0.038867757 -0.090398826 -0.09045387 0.05731161 -0.04298091
0.044709217 0.074166596 0.026791638 -0.0464082 -0.058227226 0.06195463 0.055616505 -0.033538826
0.07768074 -0.0433656 0.031291638 0.066919364 0.027720952 -0.07499105 -0.0008044539 0.040809862
-0.07900591 0.030399216 -0.06862599 0.03780712 0.0047374694 -0.057980854 0.054178134 0.019779269
0.020349968 0.042138897 -0.054559376 -0.039165094 0.068468705 -0.06400572 -0.054379884 0.019690506
-0.05021383 -0.057561412 -0.008908647 0.01772855 0.080896914 0.040275242 0.0796154 0.051686116
-0.047598217 -0.034254897 0.048723456 -0.039342392 0.06719515 -0.050629202 5.4292686e-05 0.01933314
-0.05134796 -0.06937466 -0.0071462984 0.063707605 -0.07454373 -0.06876404 -0.032290116 -0.0073618824
-0.066124596 -0.07406595 0.017712386 0.059108052 -0.0077824467 0.07534504 -0.015913256 0.059547503
0.051452514 -0.072489075 -0.057576217 -0.03262846 0.09679059 -0.042359885 -0.0012553186 -0.05752907

mu.2.bias f4 [128]
00000000: 21a7 8c3d 9ed1 8e3d 280b a13d b924 3bbd
00000010: 5aac 7dbd 9939 ba3c 1e67 903d 51a7 963d
00000020: 5a1d e23c 7a7e 09bd a8fb 633d c83f 8cbd
00000030: cbd9 a33d 7643 363c 0625 333d e43c 7b3c
00000040: e9cc a73d 414b 8e3d b919 723d 2931 c03c
00000050: d455 3b3d 703f bcbc 1a4e 5cbd 1ab8 fbbb
00000060: 22e4 4bbb 8198 9f3b 002d 403c 875a 333c
00000070: 0ebe 21bd 1399 103d bf03 de3c 0316 073d
00000080: 2a73 07bc bdfd 7b3d 3557 c83c c539 8dbd
00000090: 6cf8 ac3d 1b7c 5d3d fa0d 92bd 75d3 83bd
000000a0: 8b0a afbd 2efc 803d 29eb 23bd dc95 bf3d
000000b0: fad0 8d3d dd71 67bd e226 853d fd5c 96bd
000000c0: e17d 033d f1a8 81bd e356 74bd 651b 753d
000000d0: 0237 fd3c 22ae 9c3d d42f c73d 39d6 68bc
000000e0: b60d 8dbd 3c3b 913d 0901 133d 8a61 15bd
000000f0: f5f4 eebc 6d67 27bd 193f 933d 5b82 7cbd
00000100: 44c4 563d 7f08 7bbd 27dc 3abd e569 ab3d
00000110: 2239 6abd ce03 5bbd f57f a1bd 7aaf 37bd
00000120: 5048 383d b1f0 5d3d a74d fdbc 3dd7 993d
00000130: 6462 b03b 958f d73b b744 fa3c 3b2a c2bc
00000140: e76c 3a3d b7ac d33a 0793 8f3d 065b 91bd
00000150: 9bba f0bc 7f9d 6ebc 31fc b83d 2034 a3bd
00000160: 8535 e33c 4088 f1ba 1b03 973d cf21 1e3d
00000170: 4666 043c 6330 4f3d 81b6 4a3d 8fca 5bbb
00000180: 83e9 5d3c 281f 403d 7b2b efbc e3cc 3e3c
00000190: 08d3 153d d686 27bd dc7e 523c 13fa 93bc
000001a0: c738 7abd 0965 8bbd d7e3 303d 1742 533d
000001b0: 552d a43d 5440 bdbd 4086 3cbd 2752 923d
000001c0: 8f04 8ebd 2ddc 80bd b0cf 663d ca98 89bd
000001d0: 1b20 4ebd 0362 93bd f777 243d d48f eebc
000001e0: 6671 85bd ec16 a23c f691 593d 9a19 8e3d
000001f0: b553 e73c 32fb 8fbd 77f0 243d 63b1 11bd
0.06867815 0.06973575 0.07863456 -0.04568932 -0.061931945 0.022732543 0.07050918 0.07356132
0.027601887 -0.033567883 0.05565992 -0.06848103 0.08000525 0.011124482 0.04373648 0.015334342
0.081933804 0.06947947 0.059106562 0.023460941 0.04573615 -0.022979468 -0.05378542 -0.0076818587
-0.003111132 0.004870475 0.011729479 0.010946876 -0.03948789 0.035302233 0.027101396 0.032979976
-0.008267203 0.06152128 0.024455646 -0.06895784 0.0844582 0.054073434 -0.07131572 -0.064368166
-0.08546933 0.062980995 -0.040019188 0.09354755 0.06924625 -0.056505073 0.06501557 -0.07341955
0.03210247 -0.06331051 -0.059653174 0.05984058 0.030910019 0.07650401 0.09725919 -0.014211231
-0.06887381 0.07091376 0.03588966 -0.036469974 -0.029169539 -0.04087012 0.07189769 -0.061647754
0.052433267 -0.0612874 -0.04562011 0.08369807 -0.057183392 -0.053470425 -0.07885734 -0.044845082
0.044990838 0.05418462 -0.030920817 0.075117566 0.005382823 0.0065783956 0.030550344 -0.023701778
0.045514014 0.0016149495 0.07010465 -0.070974395 -0.029385855 -0.014563917 0.09032477 -0.079689264
0.027735481 -0.0018427446 0.07373639 0.03860646 0.0080810245 0.050583255 0.049490456 -0.0033537482
0.013544443 0.046904713 -0.029195538 0.0116455285 0.03657821 -0.040900074 0.012847628 -0.01806358
-0.061089303 -0.0680638 0.043186035 0.0515767 0.08016459 -0.09240785 -0.04602647 0.071445756
-0.06934463 -0.06291995 0.05635041 -0.06718595 -0.050323587 -0.071964286 0.04015347 -0.029121317
-0.0651577 0.01978632 0.053117715 0.06938477 0.028238157 -0.070303336 0.040268388 -0.03556956

mu.4.weight f4 [4, 128]
00000000: 1f32 dc3b ef06 493c 84e1 c03b 34a3 b13b
00000010: 2e48 523c 14fe b43b 0a0f 6d3c 6b14 643c
00000020: 181a 053b bc70 9e3c ff01 6e3a be4c 683a
00000030: a148 b83b be20 09bb e639 5039 cdcd 533b
00000040: 8225 273c d46d 903c e11d 203a 31d5 793c
00000050: 34c0 17bc aa7d 4f3c d4ab db3b 7e2e c03a
00000060: 8074 053c 3553 873c 6543 503c 1f75 b33b
00000070: d8eb 363b 8af7 943c b308 053c 1f7a 49b9
00000080: 31f4 133b ba0c c03b 7f15 d83b 3dbd 903c
00000090: adb6 f63b 5b08 b73a d0e4 d9ba 07e2 9f3b
000000a0: ed69 523c 5492 333c cf83 073c 5aff 1e3c
000000b0: 5bb0 b43b 343a 9dbb 7874 af3b cfe3 05bc
000000c0: da26 023c 26d3 843c 7b90 873c fc66 c0b9
000000d0: 0b57 a43b c4ad 2a3c 54a2 5f3c 707c 703c
000000e0: 8159 0d3c 0e8c ef3b d0c5 ac3b b66e 3c3c
000000f0: 1786 5f3b e99b 323c ca8e 5f3b 4de4 e13b
00000100: ba4d f63c 8194 ed3b 0dc3 5c3a 4b77 723c
00000110: 4cbd 803b 6d8b 8d3b 91bd eb3b 77cf 82ba
00000120: a8b4 a13b 59df 8e3c 86c4 663c 0235 473c
00000130: f16f 073c bd24 873b 5d4f 7d3c d2f7 3c3c
00000140: 43ea b43b f51e 8a3b cc14 ed3b 14df 583a
00000150: f289 093c 59fc ab3b d171 cd3c 2e12 0e3b
00000160: bb72 183c 0e48 683a 7549 b93b bfa7 0f3a
00000170: 4aed 12b9 23cf d13b 8511 11bb 4c65 173c
00000180: 0a58 2cbc e7d5 db3b ab54 953b 2ec4 2f3b
00000190: 44b1 9739 109c 99ba 9bf9 ce3b dd9b c33b
000001a0: 783a 983b 13b2 823c 7688 cc3b f003 623b
000001b0: 6cc4 2e3c d51a fb3a 4384 3d3b 206e fb3b
000001c0: 47a5 283c 632e 0f3c e51f 833b 20b9 83bb
000001d0: ce51 b03b 16f9 2d3a 01ee 4c3b 6be7 253a
000001e0: 701a 1739 670b 793c be56 dd3b 9408 293c
000001f0: eef3 3c3c 8662 a53b 96f9 4a3b 290e abba
00000200: d219 a03b 97cb 1f3b 90d6 bdbb 9726 f8bb
00000210: b133 29ba 006b 94ba f49a 55bb 356d 04bc
00000220: 5d85 2ebb 92bd b8bb 3c7b a7bb 29d3 e5b9
00000230: c453 9aba a4a0 663b bf26 4ebc e399 89bb
00000240: 80a0 c8ba 4419 c0bb 79a0 e2b9 199f 10bc
00000250: 82d5 dcbc 08d1 18bc b843 e9bb 74d2 fe39
00000260: 8426 91bb 2e16 63bb 804f 88bc fc4e 2cbb
00000270: ccc4 09bc 8c6a a7bb 2afb 41bc a6db 1fbc
00000280: d67d dd3a 2dff b6bc 88a7 7cbb b3c9 3a3b
00000290: 2288 2abb 4d13 8d3a 487d a0b8 9536 4ebb
000002a0: acfe beba 856f ddbb 985f bdb5 cb1b 8a3b
000002b0: 54b6 1e3b 431d 283c d69d 10bb cdb8 0a3c
000002c0: 4490 7abc 7463 64bc 5398 56bc babf 59bc
000002d0: 4726 f9bb 60d8 bdbb ca96 f9bb e129 38bc
000002e0: 7599 40ba 3700 ebbb afcc 3c3a e13c 5fbb
000002f0: eb26 0e3b 7bfe 78ba ce2c 9cba 5534 99ba
00000300: c7e6 f8bb 9187 22bc bc88 edba 8b17 63bb
00000310: 56c0 0a3c fc85 e83b e07a 1b3a f7cf a53b
00000320: c3d4 4c3b 8f61 1cbc cea6 ae3a 20e3 e3bb
00000330: e83d 06bc fb2e 0f3b 1cde ebba 5741 62bb
00000340: 055f ebbb 0269 b23b 2344 c8bb 6ce8 bbbb
00000350: c1d1 1ebc f426 22bc ddde dfbc 289f e7ba
00000360: f24b dabb 131b 093b 7e32 b1bb a47e e33a
00000370: a372 293c 976a b4bb 4552 87bc 91c7 f8b9
00000380: 9e10 99bc c51b a3bb 3a4c 353c fd3c 63bb
00000390: 1363 2b3b 50e2 b5ba 6cbc 9abb 42a8 49bb
000003a0: b207 f138 3198 04bc 1211 d9ba 005c fa38
000003b0: 892d 953a bd42 26ba f6a1 193b 0fa0 4aba
000003c0: 079b 78bc 7dda 6a3b 9a35 4ebb 3bac e83a
000003d0: 7ac8 823b 55f3 da3a 987d febb fb2b 64bc
000003e0: c2ec 27bb 6e42 10bc 81c2 2fbc d596 e33b
000003f0: ba96 28bb 74a3 84bb 2dd2 7f3b 3c75 27bb
0.006719842 0.0122697195 0.0058862586 0.0054210667 0.012834592 0.0055234525 0.014468918 0.013920884
0.0020309743 0.019340865 0.0009079277 0.0008861533 0.0056238924 -0.0020924057 0.00019857995 0.0032318712
0.010201814 0.017630495 0.0006107968 0.015248583 -0.009262133 0.012664238 0.006703833 0.0014662293
0.008145452 0.016519168 0.012711381 0.0054766084 0.002791157 0.018184442 0.00811975 -0.00019214347
0.002257597 0.005860892 0.0065943594 0.01766836 0.007529101 0.0013964282 -0.0016623978 0.0048792395
0.0128426375 0.01096018 0.008271172 0.009704435 0.0055141873 -0.004798198 0.0053544603 -0.00817199
0.007943833 0.016213965 0.016548386 -0.00036697823 0.005015259 0.0104174055 0.013649542 0.014678106
0.008627296 0.007310397 0.0052726045 0.011501005 0.0034107023 0.01090143 0.0034112209 0.0068936707
0.03006636 0.007250369 0.0008421399 0.0147989495 0.003928816 0.0043195994 0.007194229 -0.0009980042
0.004934866 0.017440485 0.014084941 0.012158634 0.008266435 0.0041242526 0.015460816 0.011533694
0.0055210902 0.004215116 0.007235145 0.00082729873 0.008394705 0.005248588 0.025078686 0.0021678316
0.009304698 0.00088608346 0.0056545087 0.0005480013 -0.00014012042 0.0064028664 -0.0022135687 0.00924046
-0.010519037 0.0067088488 0.0045572123 0.0026819813 0.00028933038 -0.0011719484 0.0063163764 0.005969508
0.004645642 0.015954053 0.0062418533 0.003448721 0.010666948 0.0019157777 0.0028917945 0.00767304
0.010293311 0.008739087 0.004001605 -0.0040198714 0.0053808456 0.0006636543 0.003126979 0.00063287345
0.00014410331 0.015200472 0.0067547252 0.010316987 0.011532767 0.0050471453 0.0030971519 -0.0013050485
0.0048858905 0.0024382824 -0.0057934 -0.0075729596 -0.0006454541 -0.0011323392 -0.003259358 -0.008082678
-0.0026629784 -0.005637833 -0.005111126 -0.0004383561 -0.0011774232 0.0035190964 -0.01258248 -0.004199253
-0.0015306622 -0.005862387 -0.0004322564 -0.008826994 -0.026957277 -0.009327181 -0.0071186684 0.00048603455
-0.0044296402 -0.0034650671 -0.016639471 -0.0026292196 -0.008408736 -0.005109137 -0.011839667 -0.009756958
0.0016898464 -0.022338474 -0.0038552005 0.002850157 -0.0026021083 0.0010763198 -7.65273e-05 -0.003146564
-0.0014571748 -0.006757679 -1.4109419e-06 0.004214739 0.0024217563 0.010260883 -0.0022066734 0.0084669115
-0.015293185 -0.013939727 -0.01309784 -0.01329034 -0.00760344 -0.005793616 -0.0076168524 -0.011240453
-0.00073470856 -0.0071716565 0.0007202131 -0.0034063386 0.0021690677 -0.000949837 -0.0011915208 -0.001168857
-0.00759587 -0.009920017 -0.0018122415 -0.0034651484 0.008468708 0.0070960503 0.00059310906 0.0050601917
0.0031254746 -0.009544744 0.0013324858 -0.0069545656 -0.008193471 0.002184807 -0.0017995271 -0.003452381
-0.007182958 0.005444647 -0.006111638 -0.005734494 -0.009693564 -0.009896982 -0.02732795 -0.0017671334
-0.0066618854 0.0020920679 -0.0054076305 0.0017356467 0.010342273 -0.0055058706 -0.016518721 -0.00047450935
-0.018684682 -0.0049776756 0.011065537 -0.0034673803 0.0026151582 -0.001387665 -0.0047221687 -0.0030770455
0.00011493209 -0.008092926 -0.0016560873 0.00011938065 0.0011381368 -0.0006342342 0.0023442484 -0.0007729539
-0.01517368 0.0035835796 -0.0031465054 0.0017751524 0.003991184 0.0016704599 -0.007766437 -0.013926501
-0.0025623296 -0.008804901 -0.010727526 0.006945471 -0.0025724606 -0.0040478054 0.0039035187 -0.0025552055

mu.4.bias f4 [4]
00000000: d8f1 463c 6fa2 2abc bcae 5d3b 9c99 b3bb
0.012142621 -0.010414704 0.0033826074 -0.005480958
