experiments/data/sawyer_clutter_200steps_10H/h_sac/2021-06-08_16-47-30_clutter_200steps_10H/model_final.pt (torch_old, 358080 bytes, 12 tensors)

log_std f4 [1, 12]
-1.3890344 -1.1916342 -0.923924 -0.7546644 -0.73598427 -0.5813093 -0.9127562 -0.60569805
-0.98675317 -0.70797795 -2.1324987 -1.9586617
00000000: e1cb b1bf 7887 98bf 4986 6cbf b031 41bf
00000010: 7769 3cbf b0d0 14bf 64aa 69bf 070f 1bbf
00000020: db9b 7cbf 0b3e 35bf dc7a 08c0 6db5 fabf

mu.0.weight f4 [200, 14]
0.13295713 -0.27718484 -0.04552588 0.26414305 0.024665058 -0.2780745 -0.34052873 -0.163187
0.42141968 -0.31793687 -0.2467797 -0.24289668 0.43145427 -0.030558461 0.22363797 0.2606748
0.18815765 0.32548892 0.026327431 0.1286083 -0.29531288 0.19425192 -0.47863448 0.31111234
-0.023699269 0.17279096 -0.15636888 0.33493802 0.11902295 0.36407056 -0.14513074 0.11856193
-0.4200434 -0.075283475 -0.33165264 0.19125932 0.08407785 -0.2959927 -0.3894334 -0.07797206
-0.2918792 0.06825474 0.3098937 -0.66552806 0.41100174 -0.08428595 -0.1188134 0.007899691
-0.22291917 0.07893298 -0.023028651 -0.03356709 0.11325999 -0.22856294 0.13436073 -0.6595484
0.2795516 0.1607948 -0.2761246 -0.21849187 0.3139355 0.20006385 -0.5460579 -0.08008905
-0.36862588 -0.08347323 -0.15402275 -0.3188079 -0.3060729 -0.59988374 0.013823519 -0.18807107
0.34804845 0.106599756 -0.5043421 -0.09808491 -0.14723283 -0.09777404 0.037969746 -0.2581496
-0.45028794 -0.11884759 0.11333405 -0.34523782 -0.05859838 -0.631113 -0.051062003 -0.0052260226
0.048290074 0.21403198 0.083692096 -0.29883483 -0.06983276 -0.19084992 -0.17375948 0.50782764
0.65269244 0.31863803 -0.18492419 -0.047342494 -0.17632385 0.21569945 0.20498507 -0.16957545
-0.35335454 -0.16287531 -0.44595644 0.13169494 -0.31549698 -0.0959438 -0.38202235 0.1725829
0.14345673 0.32990086 -0.2712986 -0.35693318 -0.32209885 0.15684314 0.296201 -0.20508716
0.06995399 -0.36642542 0.1294406 -0.26577032 0.2676591 0.20370005 0.028093893 -0.44259617
-0.10363393 0.035039235 -0.09410869 -0.24292848 -0.050219573 -0.24639693 -0.0900461 -0.19541332
-0.16139576 -0.085020885 0.27379304 -0.6368188 0.15018485 -0.025694255 0.2731017 -0.34569332
-0.22877054 0.20790313 -0.15378763 0.29560205 -0.067307465 0.08172248 0.10415582 -0.24983239
-0.18222906 -0.48288986 0.31794563 0.12670714 0.25845903 -0.12156366 -0.36220306 -0.4059071
0.16238289 0.21402903 -0.122818656 -0.3306475 0.16415252 -0.017830618 0.5597876 -0.10962725
0.39741877 0.029432602 -0.67923355 -0.083933495 -0.10519504 0.27983105 -0.37270683 0.016551917
0.3219109 0.034149595 -0.013447698 0.15556955 0.37547037 -0.26022795 0.20317595 0.9328374
0.054684684 -0.0018551312 0.1317859 0.4394464 0.13519846 0.08366343 0.04312298 -0.25402984
-0.10252838 0.43095914 0.033182733 -0.2889753 -0.07941728 0.53736705 0.10217825 0.641407
0.21696925 0.038974073 0.0077571245 0.24194726 -0.18005037 0.10444727 0.12728108 0.2843298
-0.12863393 0.16660963 0.3431306 -0.28387412 -0.18071137 -0.42134592 -0.46598917 0.0658812
-0.20831837 -0.26980484 -0.19052419 0.10354485 -0.16276824 -0.44427785 -0.27993903 -0.38331264
0.25752133 -0.18568282 -0.030162398 0.41280425 -0.4111406 0.30075216 0.025341421 0.028237307
-0.017352954 -0.20043522 0.00079837686 -0.22717449 -0.99569535 -0.1619773 0.32387662 0.5561232
-0.13304345 0.31921837 0.06403203 0.106655195 0.03556358 -0.08270255 -0.2589935 -0.17132643
0.10204074 0.402771 0.5463038 -0.087387696 0.28520563 -0.21387872 -0.18176888 -0.08497701
00000000: ea25 083e 2ceb 8dbe 5879 3abd c23d 873e
00000010: 600e ca3c c85f 8ebe c859 aebe 7e1a 27be
00000020: 52c4 d73e 9fc8 a2be d1b3 7cbe e8b9 78be
00000030: 93e7 dc3e bd55 fabc 5a01 653e 2b77 853e
00000040: 66ac 403e 7ca6 a63e a0ac d73c e5b1 033e
00000050: 4033 97be fae9 463e 940f f5be 1e4a 9f3e
00000060: f824 c2bc 1df0 303e 2a1f 20be ff7c ab3e
00000070: 4ec2 f33d 7567 ba3e 279d 14be 99d0 f23d
00000080: ee0f d7be 392e 9abd 60ce a9be 7cd9 433e
00000090: 0231 ac3d 5b8c 97be d163 c7be d1af 9fbd
000000a0: 3171 95be 24c9 8b3d 63aa 9e3e 0c60 2abf
000000b0: d26e d23e 1d9e acbd 7154 f3bd b56d 013c
000000c0: ec44 64be 9da7 a13d 95a6 bcbc a57d 09bd
000000d0: dbf4 e73d 670c 6abe dc95 093e 2ad8 28bf
000000e0: 6321 8f3e 64a7 243e 3460 8dbe 55bc 5fbe
000000f0: 27bc a03e 8add 4c3e 73ca 0bbf ba05 a4bd
00000100: 88bc bcbe 03f4 aabd 24b8 1dbe ca3a a3be
00000110: 96b5 9cbe fb91 19bf 0b7c 623c b495 40be
00000120: 6833 b23e f950 da3d 901c 01bf bee0 c8bd
00000130: 34c4 16be c23d c8bd 2a86 1b3d 2f2c 84be
00000140: 248c e6be 5e66 f3bd af1b e83d 03c3 b0be
00000150: db04 70bd 9f90 21bf 6426 51bd 0e3f abbb
00000160: d0cb 453d 332b 5b3e c366 ab3d e100 99be
00000170: 7a04 8fbd 296e 43be 01ee 31be fe00 023f
00000180: da16 273f 8624 a33e c45c 3dbe 34ea 41bd
00000190: 3d8e 34be 51e0 5c3e 9be7 513e 30a5 2dbe
000001a0: e3ea b4be c9c8 26be 6754 e4be 0adb 063e
000001b0: d288 a1be 2f7e c4bd 6f98 c3be 92b9 303e
000001c0: 52e6 123e c4e8 a83e a6e7 8abe f2bf b6be
000001d0: 24ea a4be 7d9b 203e a8a7 973e 5e02 52be
000001e0: 0a44 8f3d 1d9c bbbe 148c 043e 0c13 88be
000001f0: 9d0a 893e bf96 503e 2a25 e63c f79b e2be
00000200: 073e d4bd 4d85 0f3d 0fbc c0bd 3ec2 78be
00000210: 0ab3 4dbd 7a4f 7cbe 176a b8bd 6e1a 48be
00000220: ee44 25be 6e1f aebd 9a2e 8c3e 8f06 23bf
00000230: 0fca 193e c27c d2bc fcd3 8b3e b7fe b0be
00000240: d342 6abe 8fe4 543e 817a 1dbe 2759 973e
00000250: 7fd8 89bd 1e5e a73d a64f d53d 10d4 7fbe
00000260: 419a 3abe 573d f7be c5c9 a23e 84bf 013e
00000270: be54 843e 5ef6 f8bd ae72 b9be 0ed3 cfbe
00000280: b347 263e 6d2a 5b3e 5988 fbbd a14a a9be
00000290: 9917 283e 8411 92bc 3d4e 0f3f 4084 e0bd
000002a0: 797a cb3e a41c f13c 40e2 2dbf 53e5 abbd
000002b0: 7f70 d7bd 0446 8f3e 6ed3 bebe e397 873c
000002c0: 81d1 a43e 72e0 0b3d bc53 5cbc a04d 1f3e
000002d0: a73d c03e 993c 85be 5b0d 503e 6fce 6e3f
000002e0: 0cfd 5f3d e027 f3ba e2f2 063e 1eff e03e
000002f0: 7771 0a3e bb57 ab3d b9a1 303d 3310 82be
00000300: 66fa d1bd ada6 dc3e 9eea 073d 92f4 93be
00000310: 87a5 a2bd e390 093f d542 d13d 4033 243f
00000320: 302d 5e3e 47a3 1f3d 7a2f fe3b 06c1 773e
00000330: 205f 38be 73e8 d53d f955 023e ad93 913e
00000340: 9db8 03be b79b 2a3e d0ae af3e f357 91be
00000350: 670c 39be a7ba d7be 2296 eebe b9ec 863d
00000360: 6951 55be dc23 8abe c618 43be 530f d43d
00000370: b8ac 26be 6378 e3be 2b54 8fbe 8e41 c4be
00000380: d6d9 833e a323 3ebe 2217 f7bc 145b d33e
00000390: 0581 d2be 30fc 993e d098 cf3c ed51 e73c
000003a0: c827 8ebc e43e 4dbe 2a4a 513a 6ea0 68be
000003b0: e4e5 7ebf 61dd 25be 28d3 a53e 175e 0e3f
000003c0: 8b3c 08be 9770 a33e 3a23 833d 0a6e da3d
000003d0: 1eab 113d f45f a9bd cc9a 84be 3270 2fbe
000003e0: bcfa d03d 0038 ce3e 91da 0b3f 52f8 b2bd
000003f0: 7906 923e 0603 5bbe 9f21 3abe 6d08 aebd

mu.0.bias f4 [200]
-0.16556522 -0.110602535 0.20392913 0.00603441 0.019264765 0.03418915 -0.039787933 -0.37865043
0.005405858 -0.2731104 -0.2960757 -0.27512044 0.017324198 -0.05764113 0.31122953 0.26982555
0.1651126 0.016532311 -0.19925432 -0.26885834 0.16389486 -0.29396966 -0.11649965 0.2626278
0.0023215523 0.2394231 0.11090684 -0.13521427 -0.4090998 0.24058416 -0.044654123 0.009868194
-0.15907751 0.115277044 0.40345564 -0.18667786 0.034751587 0.1490117 0.28949222 -0.05262761
0.15495798 -0.283036 0.13023701 -0.14418948 0.03555587 -0.09971734 -0.35443336 -0.19283953
0.20405562 -0.16744423 -0.1303475 -0.019869665 -0.06590488 -0.14426108 0.11613078 0.25959527
-0.2830588 0.1790308 0.111312374 -0.26861593 0.17807613 -0.049889807 0.032143198 -0.38058358
-0.064130865 0.23545627 0.37094945 -0.028416058 0.25068554 -0.29253548 -0.14805149 0.108060576
-0.07869479 -0.12459984 0.28647488 0.18400261 -0.20520557 -0.29859516 -0.028623085 0.16699652
0.2876951 0.17935468 0.02860449 0.03838992 0.20596504 0.12077843 -0.5698919 0.031989664
0.108206645 0.1712942 -0.16058032 0.047136318 0.35619277 0.17393632 -0.118000336 0.08667471
0.21598811 0.13353883 -0.062503055 0.15950878 0.014300771 -0.29740462 0.043691896 -0.3218669
-0.08766249 -0.1541538 -0.06570638 0.2710033 -0.012105828 0.2787312 0.027991142 -0.45204484
-0.42397338 -0.10118615 0.03312932 -0.315408 0.38478526 -0.22041759 -0.18753012 0.10160941
0.010899839 -0.07156786 -0.07691854 -0.18500526 -0.2699785 -0.10270503 -0.0561706 -0.19460107
0.19908331 0.09222762 0.15306222 -0.4131074 0.1044615 -0.21508877 -0.03240188 -0.22099362
-0.10200576 0.14140686 0.19148435 -0.21822315 -0.22420025 0.041081507 0.047257945 -0.12066879
0.059627347 -0.25955123 -0.056612026 0.27824327 -0.11592045 -0.28868487 0.20675269 -0.24677713
0.35640475 -0.2785553 0.21239087 0.013986605 -0.2986118 0.032865368 -0.038724653 -0.19762428
0.13275199 0.16504784 -0.014022537 0.13420273 0.09278802 0.18598531 0.042668667 0.17217349
0.35529828 -0.07525609 0.06384694 0.11819148 0.19418032 0.03780526 0.31397244 -0.32690004
0.050676785 0.07938227 0.018630806 -0.03264536 -0.19286838 0.19663516 -0.013220941 0.21272072
-0.22881255 -0.42174673 -0.17543177 0.16341476 0.12633465 -0.050991707 0.1913906 0.027837435
0.19971216 -0.15975857 0.12854 -0.22730245 0.23540354 0.044832647 0.04115619 -0.07604181
00000000: ee89 29be 9583 e2bd ccd2 503e 4dbc c53b
00000010: 24d1 9d3c ec09 0c3d acf8 22bd 78de c1be
00000020: a023 b13b 20d5 8bbe 3c97 97be 96dc 8cbe
00000030: 7aeb 8d3c 1b19 6cbd 7a59 9f3e 9326 8a3e
00000040: 4713 293e c56e 873c 5309 4cbe cda7 89be
00000050: 0ed4 273e 3183 96be 5e97 eebd 2777 863e
00000060: 2f25 183b 542b 753e 2023 e33d 9c75 0abe
00000070: 8775 d1be b25b 763e 3ee7 36bd 35ae 213c
00000080: 37e5 22be 5f16 ec3d bd91 ce3e 7b28 3fbe
00000090: ae57 0e3d 8696 183e 5338 943e 0c90 57bd
000000a0: 4ead 1e3e 18ea 90be da5c 053e 68a6 13be
000000b0: 08a3 113d 9b38 ccbd 4a78 b5be ba77 45be
000000c0: f5f3 503e 8076 2bbe d179 05be b5c5 a2bc
000000d0: 23f9 86bd 2db9 13be f9d5 ed3d ace9 843e
000000e0: 15ed 90be da53 373e bef7 e33d 0788 89be
000000f0: 9759 363e 4159 4cbd 96a8 033d dadb c2be
00000100: 0b57 83bd 731b 713e 16ed bd3e cbc8 e8bc
00000110: db59 803e 36c7 95be cf9a 17be dd4e dd3d
00000120: bc2a a1bd 332e ffbd d6ac 923e 2e6b 3c3e
00000130: 6921 52be 77e1 98be f67a eabc 2301 2b3e
00000140: c64c 933e c1a8 373e f753 ea3c c03e 1d3d
00000150: 80e8 523e ae5a f73d 70e4 11bf 9807 033d
00000160: 729b dd3d bf67 2f3e 2b6f 24be 0312 413d
00000170: e65e b63e 5d1c 323e 29aa f1bd 8382 b13d
00000180: fd2b 5d3e 67be 083e 9a01 80bd 4556 233e
00000190: c84d 6a3c 6b45 98be 46f6 323d bdcb a4be
000001a0: 6488 b3bd 7eda 1dbe 1191 86bd f2c0 8a3e
000001b0: 8657 46bc dbb5 8e3e ae4d e53c 6c72 e7be
000001c0: 0a13 d9be af3a cfbd 9cb2 073d 287d a1be
000001d0: 9302 c53e 26b5 61be e507 40be 9818 d03d
000001e0: 3d95 323c 2c92 92bd 7887 9dbd 0572 3dbe
000001f0: 9f3a 8abe 0457 d2bd 2513 66bd 8145 47be
00000200: 7fdc 4b3e d6e1 bc3d 58bc 1c3e d082 d3be
00000210: e9ef d53d 3b40 5cbe d5b7 04bd 274c 62be
00000220: 65e8 d0bd f6cc 103e 7914 443e e475 5fbe
00000230: c094 65be 1545 283d 8c91 413d 3321 f7bd
00000240: ce3b 743d e6e3 84be 03e2 67bd e775 8e3e
00000250: b367 edbd 81ce 93be fab6 533e 25b3 7cbe
00000260: af7a b63e cd9e 8ebe fe7c 593e 1328 653c
00000270: a5e3 98be d69d 063d be9d 1ebd 055e 4abe
00000280: 23f0 073e 4d02 293e c8be 65bc 716c 093e
00000290: a507 be3d ef72 3e3e 57c5 2e3d 3f4e 303e
000002a0: a8e9 b53e dd1f 9abd 2fc2 823d 600e f23d
000002b0: 35d7 463e b0d9 1a3d ffc0 a03e 715f a7be
000002c0: 7692 4f3d 2c93 a23d a29f 983c 24b7 05bd
000002d0: 4a7f 45be ba5a 493e a59c 58bc 76d3 593e
000002e0: d64d 6abe 30ef d7be 63a4 33be 3356 273e
000002f0: df5d 013e aedc 50bd e6fb 433e 550b e43c
00000300: 5881 4c3e c097 23be fd9f 033e f9c1 68be
00000310: a00d 713e 70a2 373d 6593 283d cfbb 9bbd

mu.2.weight f4 [200, 200]
-0.20058405 -0.03605268 -0.074189484 -0.17190494 -0.14140913 0.028178336 0.08531448 -0.04438574
-0.117190816 -0.044350404 -0.22989023 -0.2560574 -0.5177888 -0.05007456 -0.060868643 -0.119293466
-0.17535965 -0.06819306 0.025717437 0.023813086 0.09053891 0.030765979 0.10617208 -0.053747457
-0.035049208 0.009739931 -0.029466772 0.012919646 -0.20923012 0.21596153 -0.22289884 0.17883092
-0.08393276 -0.23372567 -0.16875681 -0.07788599 0.09706271 -0.09597524 -0.07180061 -0.044809207
-0.18631588 0.06852582 0.055634703 0.09461004 0.032308653 -0.05823561 0.0763462 0.016253743
-0.31335908 -0.03895818 0.07481513 0.2555799 -0.024050992 0.1619587 -0.3387175 0.15624763
-0.14395003 -0.014188065 -0.22779958 0.09807685 0.15251982 -0.24172758 0.002588062 0.1831814
-0.037485328 -0.0016542891 0.08898977 -0.04540967 -0.0031863973 -0.18511641 0.2422428 0.092335224
-0.16501656 0.09383364 0.035221383 0.12951447 -0.032874513 -0.012990027 0.1135395 -0.017909192
0.17950767 0.09417145 -0.11039908 -0.22214794 -0.06673137 0.029742777 -0.18104218 0.026607132
0.026077423 0.18727311 -0.4675459 -0.157478 0.14060925 0.26264432 -0.004079888 0.09411652
0.05920251 0.13374478 -0.5239392 -0.37090495 -0.11830397 0.17144814 0.0046912027 -0.046188056
0.16242655 -0.111070275 0.08302646 -0.048410248 0.044531275 -0.018277854 -0.17204383 -0.02486896
-0.25666237 0.08246663 0.15229768 -0.29970628 -0.051956866 0.06406955 -0.025579782 0.13796175
-0.07258093 0.17417207 -0.044228435 0.026132599 0.1607269 -0.21166608 0.01569184 0.20611633
-0.05835332 -0.16088822 -0.1599898 0.00070684333 0.07728475 -0.040750753 -0.17387643 -0.07842061
0.116880976 0.08764657 -0.2835335 0.030189939 -0.09774423 -0.17395884 0.035260297 -0.10108106
-0.03865614 0.15899594 -0.10462216 -0.28094396 0.15626639 0.19065318 -0.3052294 0.079573825
-0.011566929 0.08008814 -0.173891 0.04662089 -0.07700726 0.10306629 -0.14847216 0.14507636
0.056411996 -0.039362315 -0.1658275 0.045117836 0.058376998 0.0107899 0.14713812 -0.04814418
-0.003715441 0.2282814 0.014350416 0.16127089 0.108954154 -0.1617464 -0.017497266 -0.35411036
0.12232419 -0.20572875 0.027793415 -0.2044019 0.0082686525 0.039140727 -0.007617317 -0.14511685
0.24132326 0.052900888 0.025274698 0.08499308 0.008709706 0.21181442 -0.12077806 0.09064476
0.08410269 0.06436896 0.055629212 -0.0117014665 -0.056213893 0.049175106 0.19476129 0.17467184
0.052951433 0.01290666 -0.019193135 -0.008084461 -0.04113755 -0.027032122 -0.01955645 0.010202611
-0.07455707 0.029467613 -0.043021046 0.05706031 0.06430135 0.0629902 -0.059627082 -0.009333737
0.014002449 0.046236895 0.0062183547 -0.05658099 0.025033712 0.055809382 -0.029750258 -0.06634158
-0.011244226 0.022111688 0.015895747 0.025373423 -0.07021972 0.039455578 -0.07315105 -0.0052095503
-0.0032902753 0.04018375 0.0127713485 -0.019823503 -0.068725444 0.05650727 -0.060162123 -0.005207446
-0.069545165 0.020326797 0.029450456 0.047309503 -0.012041878 -0.035127312 0.068163104 0.021319523
-0.012729462 0.012221103 -0.06412064 -0.051979 0.02153307 -0.06325043 -0.02301357 -0.0696548
00000000: e865 4dbe faab 13bd a8f0 97bd d907 30be
00000010: 8ecd 10be 41d6 e63c 5cb9 ae3d d2cd 35bd
00000020: bd01 f0bd c5a8 35bd 5868 6bbe f519 83be
00000030: cf8d 04bf fb1a 4dbd 6651 79bd 2250 f4bd
00000040: 7b91 33be cea8 8bbd 60ad d23c a913 c33c
00000050: 776c b93d ef08 fc3c bf70 d93d 4b26 5cbd
00000060: c28f 0fbd 3b94 1f3c 4d64 f1bc ecac 533c
00000070: 6c40 56be 0525 5d3e 983f 64be 741f 373e
00000080: f0e4 abbd c855 6fbe 96ce 2cbe b182 9fbd
00000090: d0c8 c63d ab8e c4bd 330c 93bd dc89 37bd
000000a0: 97c9 3ebe 4457 8c3d 37e1 633d e9c2 c13d
000000b0: 1456 043d 7788 6ebd 665b 9c3d 9226 853c
000000c0: 9a70 a0be 9d92 1fbd ad38 993d 5edb 823e
000000d0: 9606 c5bc 80d8 253e 616c adbe 61ff 1f3e
000000e0: a367 13be 0f75 68bc 4b44 69be 84dc c83d
000000f0: 282e 1c3e 6f87 77be 7a9c 293b e893 3b3e
00000100: 378a 19bd bbd4 d8ba 4540 b63d 7dff 39bd
00000110: e0d2 50bb 288f 3dbe 7f0e 783e 401a bd3d
00000120: 1afa 28be da2b c03d 4c44 103d 719f 043e
00000130: 6da7 06bd 1fd4 54bc 6687 e83d 4cb6 92bc
00000140: dcd0 373e f6dc c03d ea18 e2bd c07a 63be
00000150: 75aa 88bd 20a7 f33c 1f63 39be 33f7 d93c
00000160: 52a0 d53c 86c4 3f3e 2d62 efbe ea41 21be
00000170: dffb 0f3e 5179 863e 95b0 85bb 29c0 c03d
00000180: 557e 723d 64f4 083e e120 06bf 41e7 bdbe
00000190: 5a49 f2bd 1a90 2f3e a9b8 993b b02f 3dbd
000001a0: 2553 263e d078 e3bd c709 aa3d d349 46bd
000001b0: 6d66 363d 70bb 95bc 422c 30be fdb9 cbbc
000001c0: 4069 83be 44e4 a83d ecf3 1b3e 1a73 99be
000001d0: b9d0 54bd e536 833d b18c d1bc d845 0d3e
000001e0: 50a5 94bd 2a5a 323e e028 35bd 0814 d63c
000001f0: 9895 243e febe 58be 2c8c 803c 2910 533e
00000200: e403 6fbd e2bf 24be 5ed4 23be 744b 393a
00000210: 7847 9e3d 43ea 26bd aa0c 32be fc9a a0bd
00000220: 4b5f ef3d 0b80 b33d 4e2b 91be e450 f73c
00000230: 202e c8bd 4422 32be 1a6d 103d 9603 cfbd
00000240: e755 1ebd d5cf 223e 2544 d6bd e3d7 8fbe
00000250: 4c04 203e 963a 433e 0747 9cbe 9af7 a23d
00000260: 3783 3dbc 4005 a43d 7b10 32be 8cf5 3e3d
00000270: fbb5 9dbd 6b14 d33d 1609 18be e68e 143e
00000280: 4410 673d 613a 21bd afce 29be 7bcd 383d
00000290: b81c 6f3d 1fc8 303c 60ab 163e d532 45bd
000002a0: c27e 73bb 99c2 693e 021e 6b3c 3224 253e
000002b0: 5b23 df3d d9a0 25be 6d56 8fbc f44d b5be
000002c0: 1b85 fa3d 8faa 52be 04af e33c bb4e 51be
000002d0: 3e79 073c 0752 203d b09a f9bb 8399 14be
000002e0: 721d 773e 9aae 583d e20c cf3c da10 ae3d
000002f0: 28b3 0e3c e1e5 583e 7d5a f7bd f6a3 b93d
00000300: 083e ac3d e0d3 833d 75db 633d 82b7 3fbc
00000310: 8a40 66bd d66b 493d 816f 473e 2ddd 323e
00000320: 9ae3 583d 7576 533c ec3a 9dbc b074 04bc
00000330: d97f 28bd 7872 ddbc d934 a0bc da28 273c
00000340: 61b1 98bd 1066 f13c d636 30bd 12b8 693d
00000350: 6db0 833d 0201 813d 873b 74bd 88ec 18bc
00000360: 876a 653c e662 3d3d 57c3 cb3b 78c1 67bd
00000370: 8013 cd3c 6198 643d d0b6 f3bc 18de 87bd
00000380: b439 38bc 9223 b53c cc37 823c eddb cf3c
00000390: 5bcf 8fbd 2c9c 213d 38d0 95bd e0b4 aabb
000003a0: a9a1 57bb b797 243d eb3e 513c e664 a2bc
000003b0: edbf 8cbd 2b74 673d 8f6c 76bd 39a3 aabb
000003c0: b26d 8ebd 6284 a63c 1542 f13c 9cc7 413d
000003d0: 4c4b 45bc a8e1 0fbd 1999 8b3d 48a6 ae3c
000003e0: 3c8f 50bc 053b 483c af51 83bd efe7 54bd
000003f0: 1f66 b03c 7189 81bd f486 bcbc 2da7 8ebd

mu.2.bias f4 [200]
0.036301564 -0.039360326 -0.057742372 0.035185732 0.019788051 -0.011478611 -0.02434422 0.032572474
-0.044721782 -0.07936207 0.120485 0.0536881 0.05506873 -0.056676134 -0.017614953 -0.027688446
-0.07213908 -0.002374231 0.036051426 -0.039346036 0.034382712 0.07684142 -0.02767606 0.021457557
-0.020594092 -0.004733842 -0.030796485 0.011284632 0.042126905 0.044075936 0.14644867 0.08999714
-0.04365382 0.0902651 0.10278487 -0.066549994 0.023384804 -0.10409054 -0.16685727 0.024246287
0.045850463 -0.025556026 0.039919786 0.006670495 -0.014032131 0.06248538 0.06010396 0.06083472
-0.010575397 -0.0541887 -0.10831878 0.012178278 -0.025323236 0.035015993 -0.0032411348 0.064256795
-0.01902799 -0.05873951 -0.09391286 -0.06047032 0.041355554 0.05564651 0.063200586 -0.0061635105
-0.05458827 0.055340994 0.14354646 -0.00031310273 0.07297244 0.09453835 -0.09197086 -0.10528771
0.09991339 -0.07317674 0.14830142 0.014094871 0.0024166878 0.04311851 0.011731473 0.05947966
0.030284258 -0.055759184 -0.016585905 -0.03630819 0.025310857 0.10854786 -0.04067427 -0.035326622
0.009759521 -0.111745335 0.090226926 0.08096954 0.03456496 0.06150595 0.00096294936 0.04535802
0.06057503 0.022680214 -0.0671646 0.049177725 -0.0579537 0.033673547 -0.11027374 0.009188153
0.10287388 -0.0008718298 -0.08289268 -0.040946554 0.0074449284 0.008137382 0.040631264 -0.06788146
-0.02216125 0.07137028 -0.09251527 -0.052327856 0.0709908 -0.09111478 -0.017597716 -0.0059089614
-0.13429298 0.09447871 -0.009133964 0.014412394 0.045253895 -0.064862475 -0.011488899 0.042528868
0.024726441 0.01839765 -0.14580603 0.0262621 0.04308353 0.024476735 0.07626899 -0.06612161
-0.10372154 0.03046172 -0.052308947 0.02466962 -0.11607031 -0.0022229068 0.05636849 0.008580572
0.023411157 0.004773035 0.013205623 0.023100961 -0.10277068 0.084900595 0.058173325 -0.017068077
-0.039315034 0.01736732 0.054928012 0.00020856131 -0.1106332 -0.094516836 0.048377253 0.00065568544
0.038372964 0.017134879 0.12862742 -0.007993834 0.011367343 0.03780965 0.06376928 0.09248344
0.06673532 -0.0014605199 -0.030862508 -0.18364981 -0.14695324 -0.059928548 0.036576673 -0.029046353
0.01682455 0.060215615 -0.037236545 0.016249353 -0.011238859 0.029159091 0.07154037 0.13999514
0.061615404 0.045594197 0.015862951 0.06231261 0.012342171 0.08628736 -0.06543369 -0.0391425
0.10603045 -0.05970949 0.024722626 -0.031234514 -0.044866893 -0.06153352 -0.025337333 -0.06274723
00000000: f3b0 143d 4b38 21bd 4483 6cbd ea1e 103d
00000010: 8d1a a23c c910 3cbc 886d c7bc b76a 053d
00000020: 302e 37bd 9588 a2bd d7c0 f63d 0ee8 5b3d
00000030: c08f 613d 3c25 68bd 3c4d 90bc e1d2 e2bc
00000040: a7bd 93bd fc98 1bbb a9aa 133d 4f29 21bd
00000050: e3d4 0c3d 095f 9d3d e8b8 e2bc c2c7 af3c
00000060: f1b4 a8bc 581e 9bbb e948 fcbc 2de3 383c
00000070: 438d 2c3d f888 343d a4f6 153e 6c50 b83d
00000080: 59ce 32bd e9dc b83d e080 d23d 5d4b 88bd
00000090: 7d91 bf3c 6c2d d5bd a2dc 2abe 26a0 c63c
000000a0: b2cd 3b3d df5a d1bc ee82 233d 2b94 da3b
000000b0: 06e7 65bc abf0 7f3d 922f 763d d42d 793d
000000c0: 6e44 2dbc f8f4 5dbd 3dd6 ddbd 6687 473c
000000d0: ad72 cfbc ee6c 0f3d 3869 54bb 1199 833d
000000e0: 96e0 9bbc d798 70bd 6355 c0bd baaf 77bd
000000f0: 7164 293d 98ed 633d 4f6f 813d 46f7 c9bb
00000100: f397 5fbd 3dad 623d d8fd 123e f027 a4b9
00000110: 9372 953d 539d c13d 385b bcbd 15a1 d7bd
00000120: 649f cc3d b0dd 95bd 54dc 173e 2cee 663c
00000130: 4b61 1e3b 099d 303d 5d35 403c f2a0 733d
00000140: b116 f83c be63 64bd 2adf 87bc e6b7 14bd
00000150: b758 cf3c 574e de3d 109a 26bd a6b2 10bd
00000160: 66e6 1f3c bdda e4bd e5c8 b83d 5cd3 a53d
00000170: fd93 0d3d aaed 7b3d 706e 7c3a 55c9 393d
00000180: 861d 783d dbcb b93c 988d 89bd 956e 493d
00000190: dc60 6dbd 46ed 093d 33d7 e1bd e889 163c
000001a0: 8aaf d23d 828b 64ba a3c3 a9bd 93b7 27bd
000001b0: 96f4 f33b a752 053c f86c 263d 6f05 8bbd
000001c0: 828b b5bc 952a 923d a578 bdbd bc55 56bd
000001d0: a063 913d 639a babd 1629 90bc f69f c1bb
000001e0: 1984 09be 0e7e c13d 9fa6 15bc f621 6c3c
000001f0: 265c 393d 9ed6 84bd ef3b 3cbc c032 2e3d
00000200: 1b8f ca3c abb6 963c 2d4e 15be 9e23 d73c
00000210: 5b78 303d 6f83 c83c eb32 9c3d c46a 87bd
00000220: f56b d4bd db8a f93c e841 56bd f117 ca3c
00000230: 45b6 edbd 30ae 11bb a5e2 663d 8795 0c3c
00000240: c1c8 bf3c 1f67 9c3b 665c 583c 3a3e bd3c
00000250: 6f79 d2bd 5de0 ad3d 2747 6e3d 5ad2 8bbc
00000260: cd08 21bd e945 8e3c 32fc 603d 40b1 5a39
00000270: a993 e2bd 0b92 c1bd 3a27 463d 4ee2 2b3a
00000280: f82c 1d3d 725e 8c3c e8b6 033e 92f8 02bc
00000290: 183e 3a3c 4bde 1a3d 7899 823d f567 bd3d
000002a0: 87ac 883d ea6e bfba 5fd3 fcbc b20e 3cbe
000002b0: e97a 16be a377 75bd 6cd1 153d 9ef2 edbc
000002c0: a4d3 893c a6a4 763d 5985 18bd 5d1d 853c
000002d0: 3123 38bc 0cdf ee3c c283 923d e35a 0f3e
000002e0: 6f60 7c3d fbc0 3a3d 05f3 813c 823b 7f3d
000002f0: d136 4a3c 6db7 b03d 1902 86bd e353 20bd
00000300: 7e26 d93d f091 74bd 1b87 ca3c 86df ffbc
00000310: 59c6 37bd 930a 7cbd 3d90 cfbc 9f81 80bd

mu.4.weight f4 [12, 200]
-0.04690363 -0.0038001607 0.1802508 -0.20222938 0.15823449 -0.07171809 0.05936453 -0.038596254
-0.0958628 -0.23975892 0.0048103873 -0.06309219 -0.06423916 -0.15199317 -0.11533387 0.13906837
-0.0823987 -0.029787593 -0.075012594 -0.085607104 0.033273462 -0.124375075 0.06662976 0.068304926
0.21997774 -0.17744842 0.14450671 -0.19861937 0.13816899 0.31892726 0.0070030545 0.3318499
0.25349665 -0.13839172 0.048200738 -0.023696698 -0.058613926 -0.0063880244 0.16738154 0.00023485339
-0.13444139 -0.22026393 -0.1477961 -0.006129981 0.36117828 -0.018126396 0.30743316 0.15095928
-0.14330743 0.03849123 -0.08329877 -0.25823334 -0.15466191 -0.17542699 -0.017430313 -0.08089266
0.1411762 0.10253834 -0.18229029 0.081983626 0.0045766174 0.006780677 0.3476005 0.15866667
0.010190903 -0.08152243 0.19041185 -0.15572871 -0.08413429 0.23700042 -0.11988374 -0.16216645
-0.08953475 0.2921511 0.1442103 -0.038119566 0.21292944 0.3284554 -0.038710095 -0.08701072
-0.0551766 -0.025305456 0.21959494 0.10299131 0.018108856 -0.030783104 0.1483185 0.08105936
0.11888221 0.116043694 0.07187114 -0.06024356 -0.24226452 -0.25362924 0.15027489 -0.10988336
0.23703587 -0.3615273 0.05899413 0.012079769 -0.023112647 0.09768049 0.3546499 -0.38026404
-0.013657 0.019871585 0.087743446 -0.0070793303 -0.024107069 -0.021888452 -0.11193817 0.15231481
0.03997612 0.13583842 -0.3010132 0.18195802 -0.09394623 0.0018409352 0.083248146 -0.07917757
-0.49382 0.25437403 0.021907775 -0.044215422 0.020896811 -0.03133794 -0.10901745 0.1574199
-0.15399264 -0.26256934 -0.017682644 0.008890371 0.107402906 0.064792626 0.16208787 -0.119461656
-0.10055866 -0.06348954 0.012953525 0.06503034 -0.5089468 -0.059573397 -0.1102769 0.237207
0.021231366 -0.063135564 0.08875285 0.20839265 -0.087390445 0.01369159 -0.19002774 -0.11065947
0.03655675 0.029038316 0.008071354 0.028891226 0.06633234 0.03581466 0.15739797 -0.00045570688
-0.085214876 -0.045515064 -0.008886339 0.016762728 0.04532385 -0.028283296 0.06029289 -0.44566002
-0.18316582 0.29975882 -0.043533903 -0.35343817 -0.0069340044 -0.041838888 -0.015999159 -0.073873825
0.17782776 0.030774377 -0.05318869 0.06577567 0.21650085 -0.009679232 -0.18651094 -0.28347316
-0.11947613 0.0035853193 -0.28748184 0.1510916 0.034917798 0.041001342 -0.085009575 0.23944297
-0.26512823 -0.07030426 -0.032850504 -0.14436099 0.08354351 0.33236012 0.0038962148 -0.119816825
0.055347413 -0.0147409355 -0.14055924 0.085562885 0.11647032 -0.10567188 0.016075151 -0.07359763
0.11415873 -0.021211931 0.025526168 0.06369602 -0.10528932 0.499195 -0.16391905 -0.03154605
0.019050937 0.1272733 -0.10134583 -0.2540701 -0.15798245 0.029124051 -0.13704443 0.1713126
-0.016543556 0.08603769 -0.08882318 -0.122676864 -0.10139224 -0.20555465 -0.011219988 -0.34294298
-0.22059387 0.16458474 0.034941442 0.047905125 0.081650935 -0.060726598 -0.17820315 -0.031469807
-0.009405212 -0.114619926 0.1340587 -0.17458284 -0.16553327 -0.10643819 0.33451116 -0.001237506
0.25558296 -0.0044494458 0.29856935 -0.014880358 0.14555573 0.3234061 -0.11662288 0.0835958
00000000: 051e 40bd 1e0c 79bb aa93 383e 3815 4fbe
00000010: 3908 223e efe0 92bd 3928 733d 1b17 1ebd
00000020: b753 c4bd 5d83 75be 74a0 9d3b 7a36 81bd
00000030: d28f 83bd 19a4 1bbe 2a34 ecbd f067 0e3e
00000040: a6c0 a8bd 1c05 f4bc 34a0 99bd c752 afbd
00000050: c149 083d 5cb8 febd 2f75 883d 74e3 8b3d
00000060: d841 613e 0ab5 35be 91f9 133e e062 4bbe
00000070: 2c7c 0d3e 6f4a a33e e179 e53b 3be8 a93e
00000080: 50ca 813e 8fb6 0dbe 236e 453d 941f c2bc
00000090: 2815 70bd a252 d1bb 1166 2b3e fa42 7639
000000a0: 01ab 09be de8c 61be dc57 17be 02de c8bb
000000b0: 5cec b83e cf7d 94bc e167 9d3e 1295 1a3e
000000c0: 2fbf 12be fba8 1d3d 8c98 aabd 2937 84be
000000d0: b15f 1ebe 22a3 33be 04ca 8ebc 0dab a5bd
000000e0: 7e90 103e 9fff d13d 4eaa 3abe 08e7 a73d
000000f0: 73f7 953b 7130 de3b b1f8 b13e 8479 223e
00000100: bff7 263c 3bf5 a6bd 53fb 423e 5977 1fbe
00000110: 994e acbd 3db0 723e 9b85 f5bd f60e 26be
00000120: ff5d b7bd d494 953e ddab 133e 4323 1cbd
00000130: 2d0a 5a3e 4e2b a83e 7a8e 1ebd ad32 b2bd
00000140: dc00 62bd 634d cfbc 7fdd 603e 1ced d23d
00000150: 0659 943c d92c fcbc cee0 173e 7302 a63d
00000160: 8478 f33d 51a8 ed3d 2d31 933d f3c1 76bd
00000170: 3114 78be b1db 81be a9e1 193e 870a e1bd
00000180: 88b9 723e 1b1a b9be d4a3 713d 39ea 453c
00000190: bc56 bdbc b50c c83d ac94 b53e f8b1 c2be
000001a0: 9cc1 5fbc bcc9 a23c d6b2 b33d baf9 e7bb
000001b0: 307c c5bc 694f b3bc d73f e5bd 6af8 1b3e
000001c0: 00be 233d 3a19 0b3e 671e 9abe 3453 3a3e
000001d0: e266 c0bd 894b f13a 017e aa3d da27 a2bd
000001e0: fad5 fcbe 503d 823e ef77 b33c 3b1b 35bd
000001f0: ca2f ab3c 365c 00bd 8a44 dfbd af32 213e
00000200: 3fb0 1dbe 7d6f 86be 31db 90bc eba8 113c
00000210: 0ef6 db3d ffb1 843d 5dfa 253e 50a8 f4bd
00000220: b3f1 cdbd ce06 82bd 063b 543c a02e 853d
00000230: 564a 02bf 3c03 74bd dbd8 e1bd 64e6 723e
00000240: 67ed ad3c 384d 81bd 0ec4 b53d e264 553e
00000250: c3f9 b2bd b152 603c a296 42be 6fa1 e2bd
00000260: 88bc 153d c3e1 ed3c b63d 043c 4bad ec3c
00000270: 40d9 873d 65b2 123d ef2c 213e f1eb eeb9
00000280: 2385 aebd 016e 3abd 0298 11bc fd51 893c
00000290: 80a5 393d 5fb2 e7bc adf5 763d 8d2d e4be
000002a0: d28f 3bbe fd79 993e 9b50 32bd d9f5 b4be
000002b0: a536 e3bb 415f 2bbd ab10 83bc 294b 97bd
000002c0: 7b18 363e 8c1a fc3c 62dc 59bd 65b5 863d
000002d0: 66b2 5d3e a495 1ebc b9fc 3ebe 6523 91be
000002e0: e7af f4bd adf7 6a3b d230 93be c2b7 1a3e
000002f0: f705 0f3d 06f1 273d 8019 aebd 8a30 753e
00000300: e3be 87be aefb 8fbd 408e 06bd 5ed3 13be
00000310: dc18 ab3d 1b2b aa3e a357 7f3b 8662 f5bd
00000320: f8b3 623d f783 71bc c3ee 0fbe 983b af3d
00000330: fe87 ee3d 806a d8bd 09b0 833c 5bba 96bd
00000340: 0dcc e93d a5c4 adbc 411c d13c 0f73 823d
00000350: eda1 d7bd 7d96 ff3e 65da 27be 6e36 01bd
00000360: b610 9c3c ef53 023e 678e cfbd 7a15 82be
00000370: 27c6 21be 9095 ee3c 6055 0cbe 926c 2f3e
00000380: 5a86 87bc 8734 b03d ede8 b5bd 023e fbbd
00000390: bca6 cfbd eb7c 52be 0ad4 37bc 3996 afbe
000003a0: 5ce3 61be e788 283e c21e 0f3d 2a38 443d
000003b0: 9b38 a73d 74bc 78bd e37a 36be 7ce6 00bd
000003c0: 5118 1abc dabd eabd af46 093e d8c5 32be
000003d0: 8e81 29be 44fc d9bd 0c45 ab3e d033 a2ba
000003e0: c5db 823e a8cc 91bb 15de 983e bfcc 73bc
000003f0: 900c 153e 7c95 a53e fad7 eebd 4634 ab3d

mu.4.bias f4 [12]
-0.011566251 -0.02908645 -0.022793775 0.076693594 -0.034773197 -0.07178826 0.04062834 -0.052482493
-0.017926116 -0.007526953 0.024852118 -0.02505492
00000000: 5f80 3dbc b546 eebc 03ba babc 8811 9d3d
00000010: 576e 0ebd b905 93bd e769 263d e2f7 56bd
00000020: cad9 92bc a8a4 f6bb ab96 cb3c fa3f cdbc

reward_fun.0.weight f4 [200, 14]
-0.010026322 0.10532084 -0.0087066805 0.22359233 -0.332903 0.11547011 -0.10910257 0.20023248
-0.029312635 -0.04215891 -0.5038692 0.25874522 0.012727278 -0.05755823 0.1016074 -0.2197454
-0.18526746 -0.09923545 -0.2899967 -0.25736907 0.03593291 -0.30068693 0.29188892 -0.00507651
0.186571 0.22167249 0.15735264 0.20540328 -0.22032937 0.31595343 0.07057388 -0.3819824
0.07829731 0.09962593 -0.17705013 0.11295123 0.02954508 0.22009933 -0.3082136 0.016419005
-0.15728381 0.38993576 0.1905898 -0.3846263 -0.049659573 0.011515627 -0.038024243 -0.06950545
-0.13557084 -0.096251965 0.21759701 0.17696637 0.19971819 -0.053555068 -0.19120495 -0.037926055
0.30471885 -0.24824838 -0.04192273 0.08237951 0.26352838 0.015955433 -0.075430654 0.18965667
-0.2561066 -0.07580079 0.009313138 -0.15997109 0.101895064 -0.2878608 0.11465901 -0.34681386
-0.3642425 -0.060449805 -0.24666521 -0.116772935 -0.23472242 -0.17645891 0.15477194 0.23974107
-0.22956854 -0.096304215 -0.0068747834 0.055393126 0.22347838 -0.42349544 0.26953828 -0.084369466
-0.19632424 0.048506223 0.20359178 0.062967174 -0.10406615 0.30247635 -0.15987971 -0.06972829
-0.4930489 -0.1397972 0.14796798 -0.24345191 0.36555123 0.07742996 -0.1618521 0.2799293
-0.13229957 0.12007634 0.14215863 -0.11711438 -0.44704494 0.22453314 -0.1604449 0.30803612
0.25371832 -0.2632816 0.052098434 0.111360215 -0.06827306 0.0044200295 0.11773563 0.29334518
0.14175405 -0.17712481 0.30037573 0.044786945 0.2678934 0.14520931 -0.11910925 0.25367582
-0.07895073 -0.14052282 -0.2774157 -0.04209455 0.012326406 -0.002777394 0.068114504 -0.255172
0.11911123 -0.04938518 0.3769695 -0.036730316 0.04401431 0.16944866 -0.07150582 0.047211252
-0.11326441 -0.10285636 -0.19956751 -0.16829741 0.279941 0.08920234 0.26679084 -0.30318603
-0.28317103 0.37247235 0.33407643 0.2496226 0.09742755 0.08602989 0.16207685 0.1927486
0.16034356 0.21393824 -0.15942903 0.19152646 0.21514373 0.15296872 0.13124791 -0.10837717
0.27429935 0.008149311 0.19770762 -0.21820252 -0.0216215 -0.10621424 -0.035134714 0.008281191
-0.28922918 0.18317162 0.09500068 -0.20704553 0.35184273 0.09699333 0.28781685 -0.23311448
0.2657553 -0.16373971 0.2892502 -0.057818465 0.1310487 -0.1327707 -0.102165945 -0.25692326
0.10222834 0.06045484 -0.33354393 0.24594627 0.0552857 0.12894046 0.14142618 -0.049897708
0.2088902 0.10010711 0.054737236 -0.18446426 0.19492716 0.115039326 0.25557193 -0.12446997
-0.08160556 0.39938167 0.33256346 0.07152971 -0.24380687 -0.31734636 -0.05495346 -0.044678893
-0.078179926 0.26481655 -0.047776207 -0.17330647 0.08864961 -0.10783533 0.3088352 -0.22627416
0.23109259 -0.4048067 -0.13432473 -0.315059 -0.10990149 -0.032058552 0.0748846 -0.10505117
-0.20437598 -0.31196448 0.17781946 0.25197122 0.29935277 0.12816612 0.25725493 -0.18659583
0.19906734 0.02729449 -0.023941368 0.27932984 0.17490137 -0.17408635 -0.05828742 0.07004927
0.23045328 -0.113475285 -0.08003549 -0.30301175 0.021275347 0.20332769 -0.059433073 0.09790212
00000000: 7145 24bc 74b2 d73d 77a6 0ebc 63f5 643e
00000010: 4372 aabe 987b ec3d 2b71 dfbd be09 4d3e
00000020: 0d21 f0bc d2ae 2cbd 92fd 00bf 417a 843e
00000030: 1386 503c 2ec2 6bbd 8a17 d03d f004 61be
00000040: c1b6 3dbe f53b cbbd 737a 94be e1c5 83be
00000050: 632e 133d a3f3 99be 7772 953e da58 a6bb
00000060: 780c 3f3e 1dfe 623e 0d21 213e 3d55 523e
00000070: 069e 61be a6c4 a13e 0a89 903d 3293 c3be
00000080: 575a a03d ae08 cc3d a14c 35be f952 e73d
00000090: 8608 f23c b861 613e 2cce 9dbe 2681 863c
000000a0: 020f 21be a9a5 c73e f929 433e bded c4be
000000b0: d667 4bbd 0aac 3c3c 4fbf 1bbd e058 8ebd
000000c0: 15d3 0abe c01f c5bd c0d1 5e3e ac36 353e
000000d0: ed82 4c3e 8f5c 5bbd 3bcb 43be 5a58 1bbd
000000e0: 1c04 9c3e d334 7ebe 2bb7 2bbd 97b6 a83d
000000f0: 31ed 863e f8b4 823c 637b 9abd 5c35 423e
00000100: 6720 83be 723d 9bbd 2296 183c 76cf 23be
00000110: 5cae d03d 7e62 93be 58d2 ea3d 9691 b1be
00000120: fe7d babe 379a 77bd ce95 7cbe a626 efbd
00000130: 135b 70be a5b1 34be 897c 1e3e af7e 753e
00000140: 0414 6bbe 253b c5bd dd45 e1bb e7e3 623d
00000150: 84d7 643e 65d4 d8be ec00 8a3e e6c9 acbd
00000160: 3909 49be 76ae 463d 5d7a 503e eff4 803d
00000170: a220 d5bd 2ede 9a3e 82b7 23be b5cd 8ebd
00000180: e870 fcbe ff26 0fbe eb84 173e 754b 79be
00000190: 8829 bb3e 9993 9e3d 8fbc 25be e552 8f3e
000001a0: 8a79 07be 96ea f53d 0892 113e aad9 efbd
000001b0: 13e3 e4be 04ec 653e ab4b 24be e9b6 9d3e
000001c0: 5ee7 813e d9cc 86be 2b65 553d d310 e43d
000001d0: bfd2 8bbd e5d5 903b 611f f13d 5731 963e
000001e0: f927 113e 3560 35be d9ca 993e 8472 373d
000001f0: 5329 893e c0b1 143e 8def f3bd cce1 813e
00000200: ecb0 a1bd 37e5 0fbe 6e09 8ebe 566b 2cbd
00000210: b2f4 493c f004 36bb 9e7f 8b3d e8a5 82be
00000220: 97f0 f33d 1d48 4abd 2502 c13e 8772 16bd
00000230: 5948 343d f383 2d3e a571 92bd 9660 413d
00000240: 2cf7 e7bd 5ba6 d2bd 6d5b 4cbe 2856 2cbe
00000250: 6d54 8f3e b7af b63d cf98 883e 333b 9bbe
00000260: cbfb 90be b2b4 be3e 110c ab3e 119d 7f3e
00000270: 1888 c73d 7030 b03d 79f7 253e e45f 453e
00000280: 1a31 243e a012 5b3e 5d41 23be 831f 443e
00000290: a34e 5c3e d5a3 1c3e da65 063e daf4 ddbd
000002a0: f770 8c3e b084 053c de73 4a3e 7b70 5fbe
000002b0: 921f b1bc da86 d9bd 6be9 0fbd d5ad 073c
000002c0: d915 94be 5791 3b3e b78f c23d be03 54be
000002d0: bb24 b43e 70a4 c63d bb5c 933e 90b5 6ebe
000002e0: 1411 883e 62ab 27be 9a18 943e 0ed3 6cbd
000002f0: a131 063e 0bf5 07be 613c d1bd 728b 83be
00000300: 185d d13d 7f9f 773d 45c6 aabe 57d9 7b3e
00000310: 4273 623d f808 043e 06d2 103e 8a61 4cbd
00000320: 50e7 553e f504 cd3d 2734 603d 33e4 3cbe
00000330: fc9a 473e bd99 eb3d 53da 823e 1dea febd
00000340: d120 a7bd c17b cc3e c245 aa3e 2b7e 923d
00000350: 82a8 79be 397b a2be e116 61bd 3701 37bd
00000360: cc1c a0bd 0996 873e fcb0 43bd 4077 31be
00000370: ed8d b53d c5d8 dcbd a61f 9e3e 6ab4 67be
00000380: 89a3 6c3e d342 cfbe 6c8c 09be 6a4f a1be
00000390: 0814 e1bd d44f 03bd 195d 993d 1125 d7bd
000003a0: f047 51be cfb9 9fbe 4e16 363e 5f02 813e
000003b0: c444 993e fb3d 033e ebb6 833e fa12 3fbe
000003c0: 4fd8 4b3e b298 df3c b020 c4bc 5204 8f3e
000003d0: 5819 333e b143 32be cabe 6ebd fe75 8f3d
000003e0: f2fb 6b3e bb65 e8bd a6e9 a3bd 5b24 9bbe
000003f0: a349 ae3c 2235 503e 1870 73bd e880 c83d

reward_fun.0.bias f4 [200]
0.14219528 -0.11417231 -0.15311329 0.19715923 0.013638946 0.030026326 -0.15977241 -0.32502815
0.15252328 -0.0009661555 0.24336788 0.11435307 -0.16412917 -0.41132033 -0.11621354 -0.012846558
-0.12657961 0.005218263 -0.20447339 -0.19797571 0.14959392 0.12848641 -0.016328469 0.045385286
0.0011560102 0.2296374 0.01971697 0.084164456 -0.23166434 -0.036860455 -0.21118021 0.16033606
-0.088581115 -0.015928425 -0.20471832 -0.1583732 0.046226766 0.020927817 -0.12586075 -0.23979023
0.10124609 0.07983932 0.15698254 0.038109876 0.111058585 0.20588675 -0.3206692 0.1317559
-0.027635433 -0.17223676 -0.3062621 0.17709658 -0.1498643 -0.33723152 -0.06450405 0.17537363
0.055708203 -0.17733496 -0.04782467 0.081745096 0.19474766 -0.13389423 -0.13049063 0.036842287
-0.20234409 -0.11179245 -0.06818096 0.10651129 0.03234499 0.070005886 0.038887277 0.12266426
0.16806833 -0.019616965 -0.17264923 -0.05686241 0.33735853 0.14140002 0.15862322 0.18296224
0.25551423 0.22729939 -0.13391179 0.19475198 0.02492452 -0.1756768 -0.08520558 -0.031007817
-0.02059026 -0.117655344 -0.050396312 -0.034299888 0.0802714 -0.012337892 0.25454825 -0.19660981
-0.008017451 -0.019882632 -0.07002981 0.15509756 -0.0526378 -0.34670582 -0.15114434 -0.21725559
-0.02630485 0.119400784 -0.088446915 0.064082704 -0.06224242 -0.084592976 -0.2208004 0.15750122
-0.013828929 0.07955104 -0.17409907 0.14734058 0.027858086 0.048893083 0.1472323 0.22280692
-0.113621995 -0.086277395 -0.32777166 0.21433489 0.2517833 -0.18289702 -0.13330838 0.19563141
0.01596884 -0.09624819 0.09922726 0.062182475 -0.17982064 -0.050012615 -0.20964721 0.24272268
-0.05527558 -0.21007869 0.100583345 0.20003003 -0.053546555 -0.026995914 -0.1211759 0.08022989
-0.25396943 0.028674357 -0.08300266 -0.12203593 -0.068109915 0.19822513 0.06418093 -0.025045611
-0.022770602 0.17592625 0.12051346 -0.12419761 0.24242814 0.24382102 -0.0027128067 0.056544486
0.08322708 -0.04393116 -0.0074215024 -0.06708505 -0.15594366 0.19429639 -0.06577449 -0.22973923
-0.16775173 -0.20602053 0.020694144 -0.22013363 -0.23786937 0.02767783 0.31161958 0.048871413
0.027057428 0.1886762 0.044021342 0.13738482 -0.16198178 -0.16512136 -0.015172346 -0.21040075
0.0024009633 -0.022469493 -0.23247291 0.2235934 -0.26226667 0.07953357 -0.20190357 0.09121102
-0.03880491 -0.017584532 0.07566281 -0.24059416 0.22512136 0.12196399 0.048650593 -0.10783168
00000000: a49b 113e 2cd3 e9bd bbc9 1cbe 1ce4 493e
00000010: e375 5f3c c5f9 f53c 619b 23be 176a a6be
00000020: 102f 1c3e 9945 7dba 6e35 793e f131 ea3d
00000030: 7a11 28be 9498 d2be 5d01 eebd 5f7a 52bc
00000040: 169e 01be f6fd aa3b 7961 51be 25ba 4abe
00000050: 262f 193e f191 033e 48c3 85bc ece5 393d
00000060: 4485 973a 1126 6b3e 7c85 a13c 6a5e ac3d
00000070: 6b39 6dbe fdfa 16bd a03f 58be 232f 243e
00000080: 046a b5bd 547c 82bc aea1 51be 962c 22be
00000090: 4758 3d3d d070 ab3c a4e1 00be 928b 75be
000000a0: 1c5a cf3d cc82 a33d 08c0 203e 1a19 1c3d
000000b0: af72 e33d fad3 523e c12e a4be 05eb 063e
000000c0: b463 e2bc d55e 30be 63ce 9cbe ce58 353e
000000d0: 0776 19be 9ca9 acbe b31a 84bd 2595 333e
000000e0: 492e 643d 4c97 35be cde3 43bd f969 a73d
000000f0: ee6b 473e 921b 09be 569f 05be f0e7 163d
00000100: 4a33 4fbe 71f3 e4bd 76a2 8bbd 9722 da3d
00000110: 2e7c 043d 3f5f 8f3d 4448 1f3d 6637 fb3d
00000120: 1b1a 2c3e c2b3 a0bc f6ca 30be 8fe8 68bd
00000130: 42ba ac3e 2bcb 103e 206e 223e 745a 3b3e
00000140: c3d2 823e 2cc1 683e 2c20 09be 106d 473e
00000150: 822e cc3c 9ee4 33be 4380 aebd 1b04 febc
00000160: e8ac a8bc 49f5 f0bd 5d6c 4ebd 0a7e 0cbd
00000170: 5565 a43d df24 4abc 2654 823e 1554 49be
00000180: a05b 03bc e7e0 a2bc ca6b 8fbd e5d1 1e3e
00000190: bc9a 57bd 6d83 b1be 95c5 1abe 4078 5ebe
000001a0: 457d d7bc 6688 f43d a823 b5bd cb3d 833d
000001b0: e8f1 7ebd 153f adbd 8019 62be 0048 213e
000001c0: bb92 62bc a8eb a23d 0747 32be 73e0 163e
000001d0: a436 e43c 1d44 483d 10c4 163e 7f27 643e
000001e0: a6b2 e8bd 34b2 b0bd b0d1 a7be 9b7a 5b3e
000001f0: bee9 803e 5b49 3bbe fe81 08be 9a53 483e
00000200: 16d1 823c c51d c5bd a937 cb3d 0db3 7e3d
00000210: e722 38be 07da 4cbd c2ad 56be 4b8c 783e
00000220: a668 62bd de1e 57be a4fe cd3d acd4 4c3e
00000230: a253 5bbd 8926 ddbc 122b f8bd 924f a43d
00000240: 4808 82be 7ce6 ea3c 4cfd a9bd f9ed f9bd
00000250: 367d 8bbd 87fb 4a3e 4b71 833d 742c cdbc
00000260: 6a89 babc 0326 343e c3cf f63d 515b febd
00000270: 153f 783e 38ac 793e 58c9 31bb 319b 673d
00000280: f672 aa3d 29f1 33bd 1330 f3bb e363 89bd
00000290: b2af 1fbe a2f5 463e c7b4 86bd c340 6bbe
000002a0: 1cc7 2bbe 0cf7 52be c486 a93c b66a 61be
000002b0: 0794 73be 9ebc e23c 9a8c 9f3e 642d 483d
000002c0: 8aa7 dd3c 5534 413e b94f 343d 9bae 0c3e
000002d0: 8dde 25be 9315 29be 6e95 78bc 4b73 57be
000002e0: 7b59 1d3b f111 b8bc 610d 6ebe abf5 643e
000002f0: d147 86be 7fe2 a23d cfbf 4ebe d8cc ba3d
00000300: e6f1 1ebd 700d 90bc 1af5 9a3d 515e 76be
00000310: 3786 663e 42c8 f93d d845 473d dbd6 dcbd

reward_fun.2.weight f4 [200, 200]
-0.083246276 -0.061567448 -0.116791256 0.017132223 0.12992878 -0.500848 -0.054107018 0.01780669
0.04519008 -0.09996284 -0.0308425 0.012586732 -0.0772902 -0.07674743 0.109379254 0.11533836
0.08209335 0.06918285 -0.35967234 -0.06607997 -0.077185884 -0.04420948 -0.007978427 -0.039449837
-0.04837701 -0.22703531 -0.38582298 -0.019955218 0.015314791 0.02976391 -0.071510725 -0.029230079
0.058364812 -0.0035476547 -0.2305773 -0.1476925 0.0031721033 0.0263153 -0.65086544 0.028347664
0.036088955 0.0831445 0.0517663 -0.17080948 -0.0067668525 -0.027689068 -0.0025755588 0.029194187
0.05166836 -0.5365442 -0.429483 -0.040374026 -0.017512748 -0.16209723 0.021298718 0.07387386
-0.01657367 0.1213745 0.0062835785 0.08493778 0.008713459 -0.083177514 0.108092494 -0.11826229
0.06007902 -0.02322238 0.012361612 -0.014495195 -0.0868967 -0.2800159 0.18593566 -0.20425257
-0.32428232 0.11848045 0.12977092 0.09312671 -0.1013547 0.02425727 -0.06605459 -0.016763994
-0.0045138444 -0.05660778 -0.020584293 0.0073872567 -0.045613777 -0.08898351 -0.24134691 0.11557406
-0.09792537 -0.49321142 0.024629917 0.024179978 0.09073209 -0.09227431 -0.09115839 0.04138726
0.04784665 -0.11583249 -0.38865414 0.02964343 0.19614857 -0.042189732 -0.03634311 0.012897153
0.06824369 -0.0046238215 0.023983533 -0.09902301 0.056099214 0.08143237 0.15843163 0.0013598013
0.21565384 0.14574905 -0.30980468 0.038635716 0.12571426 -0.039817136 0.0050423997 -0.1974051
-0.023871444 -0.032116465 -0.3109964 -0.028934302 0.03213971 -0.096368544 -0.027969347 0.07366253
0.0622218 0.17517595 0.074460134 -0.28191602 -0.039229162 -0.013903058 -0.21946475 0.14839052
0.18072072 -0.20476922 0.008988154 -0.061168402 0.056863915 0.068564884 -0.07627139 0.04838719
0.011488472 -0.00886332 0.15497416 -0.07556747 0.2796812 -0.08240006 0.0045513245 -0.104478955
-0.041868523 0.10092816 -0.22715609 -0.008828863 0.11666163 0.011002344 0.081549704 -0.046229385
-0.33843035 -0.04282509 0.050987624 0.24829328 -0.1461993 -0.10688404 0.087047964 -0.080364764
0.0711004 -0.1800269 0.068413466 -0.053632423 0.13492763 -0.22082749 -0.2417406 -0.029965913
0.10258361 0.27120596 -0.08522425 -0.018529447 -0.6964673 0.100630954 -0.15715642 0.0655515
-0.11351104 0.015963638 0.11898665 -0.33531296 -0.014076141 0.07498229 -0.062352344 -0.27221847
0.03988342 -0.09805269 -0.0101005845 0.08438042 -0.09106805 0.11115833 -0.24790911 -0.017169742
0.038736433 -0.0133862365 -0.23268089 0.005698064 -0.17324401 -0.099995315 0.21227853 0.18902384
0.022478608 -0.09758268 -0.07104208 0.014141239 -0.0071027023 -0.014114718 -0.090130515 -0.032810923
0.049090303 -0.025098776 -0.077559784 0.035299532 -0.05554169 -0.033948325 0.091033615 0.13560033
0.059734184 0.019157518 0.014866736 0.08756847 0.10293534 -0.08877751 -0.21845427 -0.027484793
0.14168796 -0.17234299 -0.02553738 -0.10566144 0.037513316 0.24190389 0.071032576 0.10598665
0.030567411 -0.02619562 -0.00052720297 -0.0038440302 0.07644405 0.07204245 -0.097702175 -0.040993202
0.029301854 0.01754354 -0.03279729 0.027215756 -0.012670873 -0.087729 0.002504646 -0.034940813
00000000: 067d aabd 262e 7cbd 4130 efbd e058 8c3c
00000010: 0d0c 053e 9337 00bf 529f 5dbd 56df 913c
00000020: 3c19 393d 51b9 ccbd 69a9 fcbc 9538 4e3c
00000030: 534a 9ebd c22d 9dbd 3b02 e03d 8536 ec3d
00000040: 8f20 a83d bdaf 8d3d f926 b8be ef54 87bd
00000050: a213 9ebd 0015 35bd f3b7 02bc 2796 21bd
00000060: f926 46bd f27b 68be 978a c5be 2079 a3bc
00000070: e4ea 7a3c 72d3 f33c 3774 92bd eb73 efbc
00000080: f10f 6f3d c57f 68bb 751c 6cbe b43c 17be
00000090: 10e3 4f3b 2f93 d73c 1e9f 26bf 5c39 e83c
000000a0: 03d2 133d aa47 aa3d e608 543d aee8 2ebe
000000b0: 79bc ddbb 2fd4 e2bc b5ca 28bb a628 ef3c
000000c0: 34a2 533d f65a 09bf 32e5 dbbe 3c5f 25bd
000000d0: e576 8fbc d1fc 25be a67a ae3c 2e4b 973d
000000e0: 81c5 87bc 3293 f83d 7ae6 cd3b dcf3 ad3d
000000f0: e5c2 0e3c f958 aabd 995f dd3d 8033 f2bd
00000100: 6b15 763d dc3c bebc 5c88 4a3c 417d 6dbc
00000110: e6f6 b1bd 3e5e 8fbe eb65 3e3e 9627 51be
00000120: 5508 a6be e1a5 f23d abe2 043e 37b9 be3d
00000130: 0e93 cfbd 2fb7 c63c a147 87bd a554 89bc
00000140: dfe8 93bb 8fdd 67bd 64a0 a8bc cd10 f23b
00000150: 83d5 3abd fd3c b6bd a523 77be 18b2 ec3d
00000160: 198d c8bd 3586 fcbe aec4 c93c 1715 c63c
00000170: bfd1 b93d 50fa bcbd 40b1 babd b085 293d
00000180: d9fa 433d 9639 edbd adfd c6be c7d6 f23c
00000190: 2cdb 483e 24cf 2cbd 83dc 14bd 954e 533c
000001a0: 59c3 8b3d 6d83 97bb 1d79 c43c 93cc cabd
000001b0: 4ac8 653d 04c6 a63d e73b 223e 5c3b b23a
000001c0: 5cd4 5c3e 3d3f 153e b89e 9ebe 7c40 1e3d
000001d0: 3dbb 003e 4b17 23bd b73a a53b 9024 4abe
000001e0: 0c8e c3bc 8e8c 03bd ec3a 9fbe a107 edbc
000001f0: eea4 033d df5c c5bd f91f e5bc 61dc 963d
00000200: 49dc 7e3d 5361 333e 8e7e 983d 4c57 90be
00000210: c2ae 20bd a7c9 63bc 5ebb 60be aff3 173e
00000220: da0e 393e 06af 51be 0d43 133c b88b 7abd
00000230: 23ea 683d bf6b 8c3d 2d34 9cbd a531 463d
00000240: 253a 3c3c 7537 11bc 8cb1 1e3e 1ec3 9abd
00000250: 6032 8f3e 5dc1 a8bd 4723 953b 10f9 d5bd
00000260: 547e 2bbd 6cb3 ce3d 9b9b 68be efa6 10bc
00000270: 4bec ee3d 2d43 343c 8803 a73d 065b 3dbd
00000280: be46 adbe 5d69 2fbd 66d8 503d 9840 7e3e
00000290: 45b5 15be 05e6 dabd 3446 b23d 4896 a4bd
000002a0: 169d 913d f958 38be 5c1c 8c3d acad 5bbd
000002b0: 782a 0a3e 9a20 62be d98a 77be 137b f5bc
000002c0: 5b17 d23d 82db 8a3e 0d8a aebd 11cb 97bc
000002d0: ae4b 32bf 9a17 ce3d 9ded 20be dd3f 863d
000002e0: 7a78 e8bd 2dc6 823c 46af f33d 24ae abbe
000002f0: 9d9f 66bc 5190 993d 2c65 7fbd 3860 8bbe
00000300: cc5c 233d d9cf c8bd ec7c 25bc a4cf ac3d
00000310: e381 babd fba6 e33d e3db 7dbe 8fa7 8cbc
00000320: 18aa 1e3d f251 5bbc e643 6ebe d3b6 ba3b
00000330: e166 31be 58ca ccbd 8b5f 593e 778f 413e
00000340: 0f25 b83c 6ed9 c7bd 837e 91bd a8b0 673c
00000350: c9bd e8bb 6b41 67bc 5996 b8bd bf64 06bd
00000360: ea12 493d f39b cdbc aad7 9ebd 3e96 103d
00000370: af7f 63bd 660d 0bbd d56f ba3d d0da 0a3e
00000380: d5ab 743d 3af0 9c3c 9c93 733c 1957 b33d
00000390: c3cf d23d fcd0 b5bd 7ab2 5fbe ca27 e1bc
000003a0: a616 113e ae7a 30be c433 d1bc 0665 d8bd
000003b0: 90a7 193d a7b5 773e 8779 913d 870f d93d
000003c0: 8268 fa3c 3298 d6bc fe33 0aba 20ec 7bbb
000003d0: b38e 9c3d fe8a 933d 1418 c8bd 7de8 27bd
000003e0: 710a f03c 78b7 8f3c 7356 06bd 94f3 de3c
000003f0: 7e99 4fbc 43ab b3bd fd24 243b 191e 0fbd
