experiments/data/sawyer_clutter_200steps_10H/h_sac/2021-06-08_16-47-30_clutter_200steps_10H/policy_3000.pt (torch_old, 75801 bytes, 6 tensors)

mu.0.weight f4 [128, 12]
00000000: 3e3f 35be 8790 69bd b242 673e 399e 41be
00000010: c442 febb 1e0c 823d d47d 23be 791e 0a3e
00000020: 7119 86be e108 41be 9e1f 6a3d 914a 8b3e
00000030: f03c 2b3e 777d 0c3e 6647 62be cc4a 88bd
00000040: fdbe e33b a2a1 48be 96ac ef3d abd7 4dbe
00000050: 2987 0b3e 120e 47be 7b47 14be b104 3d3e
00000060: e41a 153e 3e1a 94be f714 3f3e 80d1 28bc
00000070: 7748 293e ddae 70bd 2241 6d3e c87d d7bd
00000080: 184d 7f3d 10f2 913d 88ee 363d 5dad 01be
00000090: 1888 213d 6067 ba3b 9334 093d 4f5f cd3d
000000a0: d7cb 88be 372d 843e ec09 0c3e d7ae 323e
000000b0: 8400 8abe 413f 9c3d b749 a03c f30a 26be
000000c0: bfee dabd ec51 0e3e 253b 8ebe 22d2 1bbd
000000d0: 95d3 3a3d f839 4b3c 3439 ef3d c751 683e
000000e0: c5d3 eabd 4b46 873e b9ad 813e fd5d 863e
000000f0: 8617 823c 3623 83be 9900 00be 0c44 bdbd
00000100: b7ba 633e 92a5 98be ef07 89be b816 d43d
00000110: 3af5 893e a84d e43d 8ae3 ddbc 2d33 763b
00000120: ab7d a9bd 61a0 073e 13e1 b8bd 1f58 513e
00000130: cfd3 9a3d c5f1 363d 5bef c93d 4d35 933e
00000140: 9c89 953d 4555 0bbe 0516 6abc 494f 56bd
00000150: a107 7a3d 0956 fb3d 83f0 823d ad35 c13c
00000160: 56f9 4ebd 672d 8abe 0605 8dbe b705 a33d
00000170: 1ba5 c2bc 8aeb 813e 5d35 f63d eb28 e7bd
00000180: b221 7f3e 0b2d 2c3e 0beb de3d 4c15 d73b
00000190: f5d3 0d3e 8942 693e b109 863e dece 963c
000001a0: 3249 5ebe 5746 a03c 98f8 05be 3ee1 053e
000001b0: 535b 6b3e 944b 65be 1b95 693e 8258 943d
000001c0: e2e1 8fbd 3be9 34be 0dd5 393e 8301 503e
000001d0: f0ea cdbc 262c 10be 26c9 f0bd 6134 063e
000001e0: 767a b4bd bd06 ddbd 7f4a 4d3d ccfd 7abe
000001f0: d4a7 8b3e 8de1 9dbd 32b9 aebd 4c44 8d3e
00000200: e7c2 763e 207a e5bd abf9 5b3e 6322 c23c
00000210: 97ef a3bd 3123 11be 866d 76be 8594 36be
00000220: 07b0 6fbe 6671 73be 8ae7 64be 1185 cf3d
00000230: 113d 57be 00ab d6bd ccd3 6bbe 2476 383d
00000240: 2b63 12be c8fa 53bd 79a9 68be 0b32 913e
00000250: 3d30 8cbe 9a7f 35be 0ca3 443e bc2f 173e
00000260: 6bb9 68be 2e28 ad3d 9736 933d efcf 79be
00000270: faed 61bd 2615 a03d 8d94 7cbe 1564 fcbd
00000280: caa2 563e d9d4 5fbe 1c95 a9bc a4e3 97bd
00000290: f2c9 13bd 0ac7 3dbe 869a b1bd 2f83 7d3e
000002a0: 1cec b2bd edce 5c3e 89e9 28bd a084 46be
000002b0: b1dc 7fbe c0e9 e1bc 2478 8a3e 474f 64be
000002c0: 6048 d6bd a8be 1ebe 4c86 6d3e 4c31 12bd
000002d0: fa13 2ebe 4321 73bd ff2f 79bd 2063 893e
000002e0: 89ce 443d 73d2 8c3e 3728 633c b4e4 eb3c
000002f0: 471e 2a3e 1ebe 78be 3b0f 52be 8cd1 48be
00000300: 27bf 343e df0e 26be 912f 74be 8d47 613d
00000310: 5657 5f3e ae88 9ebd d3c9 d2bd b27a 793e
00000320: 50da 143d 1597 36be 2a7d 70be 4a91 213b
00000330: c6c4 8ebc 5a04 233d dcbc c53c 8902 e3bd
00000340: 449b 1d3e a98e 383e 6109 46be 55c1 ecbc
00000350: 04f6 893e b280 efbd b19b b3bd 0fa2 193e
00000360: 4b36 943b 23e1 5bbe 1a7b 72be f4e1 c43d
00000370: 9c61 3f3e 7b2b 85be 3ec3 833d a4ae 04be
00000380: aa9d 873e 2aea 91bd b191 243e 5e21 18be
00000390: 04c9 58be b9cd 0cbe c886 483e 38b9 83be
000003a0: 7660 4e3e 5efd 453e 36d3 613e 1f4d 723e
000003b0: 3d52 853e 7dbb 6ebe dfdd 673d bc2d 5f3e
000003c0: 1dfb 923d 2850 fbbd b443 9dbd 503c 2cbc
000003d0: 9e44 af3c 6287 5cbe 595d 88be 8e51 9cbc
000003e0: 2862 d8bd 4c07 5e3e 1cb6 303e dd8a 0fbd
000003f0: 6668 e13d a0b6 5abd 1539 86be a453 aa3d
-0.17699906 -0.057022598 0.22584036 -0.18908013 -0.007759424 0.063499674 -0.15965968 0.13488187
-0.26191285 -0.18851043 0.05715906 0.27205327 0.16722465 0.13719736 -0.22097549 -0.06654891
0.006950258 -0.19592908 0.1170284 -0.20101802 0.13625778 -0.19438961 -0.14480393 0.18458821
0.14561039 -0.2892627 0.18660341 -0.010303855 0.1653155 -0.058760513 0.23169377 -0.10522038
0.06232938 0.07126248 0.044661075 -0.12663789 0.03943643 0.005688593 0.033497404 0.10027944
-0.26718017 0.25815746 0.1367566 0.17449509 -0.26953518 0.07629252 0.0195664 -0.16215114
-0.106900685 0.13898438 -0.277795 -0.038042195 0.045611937 0.012403958 0.116808325 0.22687446
-0.11466173 0.26420817 0.25327852 0.26243582 0.015880357 -0.256128 -0.12500228 -0.092414945
0.22239195 -0.2981382 -0.26763865 0.10355896 0.26944906 0.11147624 -0.027086038 0.0037567124
-0.082759224 0.13244773 -0.090273045 0.20443772 0.075599305 0.044664163 0.098601066 0.28751603
0.073016375 -0.13606746 -0.014287476 -0.052321706 0.06104243 0.12272269 0.0639353 0.023585165
-0.050530754 -0.26987764 -0.27542895 0.079600744 -0.023760369 0.25375015 0.12021897 -0.11287101
0.24915197 0.16814058 0.10884675 0.006563818 0.13850386 0.22779287 0.2617927 0.018409189
-0.2170761 0.01956479 -0.13083112 0.13074204 0.22984056 -0.22392112 0.22810785 0.07243444
-0.070255056 -0.17667095 0.18147679 0.20313077 -0.025136441 -0.14079341 -0.11757116 0.13105918
-0.0881242 -0.10792301 0.050119873 -0.24510878 0.2727648 -0.07709036 -0.08531417 0.2759117
0.24097787 -0.11204934 0.2148196 0.023698037 -0.080046825 -0.1417358 -0.24065217 -0.17830093
-0.23406993 -0.23773727 -0.2235395 0.10132802 -0.21019389 -0.104818344 -0.23030013 0.045034543
-0.14295642 -0.051752836 -0.22720899 0.28358492 -0.27380553 -0.17724457 0.19202822 0.14764303
-0.22726981 0.08454929 0.071881466 -0.24395727 -0.055158593 0.07816534 -0.24666043 -0.12323777
0.20960537 -0.21858539 -0.020700984 -0.07416466 -0.036081262 -0.18532959 -0.08672051 0.24757074
-0.087364405 0.21563311 -0.04123834 -0.1938653 -0.24986531 -0.027577281 0.27044785 -0.22295867
-0.10463023 -0.15502417 0.23195761 -0.035691544 -0.16999808 -0.059357893 -0.06083679 0.2683344
0.04804853 0.2750431 0.013864568 0.028795578 0.16613112 -0.24291274 -0.20513622 -0.19611186
0.17651044 -0.1621661 -0.2384627 0.054999877 0.2181066 -0.07740913 -0.10292401 0.24363211
0.03634101 -0.1783107 -0.23485246 0.002465325 -0.017427813 0.03979907 0.024137907 -0.11084468
0.1539126 0.1802317 -0.19339515 -0.028900782 0.26945508 -0.116944686 -0.0876993 0.15003227
0.004523074 -0.21472602 -0.23679772 0.0961341 0.18689579 -0.26009735 0.06433724 -0.12957245
0.26487476 -0.071247414 0.16071202 -0.14856479 -0.21170431 -0.13750352 0.19582665 -0.25727248
0.20153984 0.19334933 0.22053227 0.23662232 0.26039305 -0.23313709 0.056608077 0.2179479
0.07176802 -0.12271148 -0.07678929 -0.0105124265 0.021395024 -0.2153602 -0.2663372 -0.019081857
-0.10565597 0.21682471 0.17256969 -0.03504454 0.110062405 -0.05339682 -0.26215425 0.083167344

mu.0.bias f4 [128]
00000000: fc9a abbd 0ebb df3d f1ce 1fbd 0643 acbd
00000010: 9668 803e 76c1 baba 3395 27bc 70a8 47be
00000020: eb59 03be 2e4c 90be f83c 32be 6a3b 81be
00000030: 440b 9abd 1bb6 3cbe 5d26 02bd e56b 383e
00000040: 0075 5a3e a5b2 783e c9dd 983b 74b5 aebd
00000050: dfc5 23be e00c 37be ae6e 92bd 6800 00be
00000060: 81ce fabd 70d0 8dbe d88c 8a3e 533a 9cbc
00000070: 184b 87be f4b6 49bd bdbc 6d3e 3ac3 ee3c
00000080: 31d7 753e f146 b6bd fbc1 5e3e bef1 babd
00000090: b229 c3bc 5e2a 633e f7ad 0fbe 9227 6c3d
000000a0: 341c 8bbe f4ad 513d 6ca9 67be 5738 28be
000000b0: 7c81 d6bd 089b 14be f3c0 9ebd 8b4f 7bbe
000000c0: 174d 0a3e a6eb 26bd cb07 2f3e d470 14be
000000d0: 9b27 61be 56eb 123e 9238 88bc 03d7 203e
000000e0: 5a94 54bd fa90 453d 3ee3 3fbe 2a9f 503e
000000f0: 3642 cebd 6b0f 9abe 9a28 c9bd 214b d2bd
00000100: a51c 3c3e ae9f d2bd 1c62 f9bd 8385 6abe
00000110: 2fc4 043e c961 60be bc0c 8e3e 6608 9f3d
00000120: 7838 103e 7ffb 433e 4735 873e 3a24 813e
00000130: 219b e83d 8929 353e b442 63be fbc7 0bbe
00000140: 045c 7dbe 07d0 3d3e 446f 86bd 415c f23d
00000150: 84d4 703e 88c9 073e 3a6f b5bd 65dc 413e
00000160: 12ed 3cbe 7a59 1abe b7e4 8c3e 5ddc 81bd
00000170: 749d 7c3e cb9b 1dbe c6f5 c7bd a8fb bd3d
00000180: 8c29 01be 452e f53d 5ad9 84bc 6c2d 4c3e
00000190: 0d2c e4bd b420 c3bd 2443 6cbe eb31 a03c
000001a0: 584a 783d 3417 193e a9d3 3bbe 84d9 1fbe
000001b0: 4ab2 803e 3602 95be fd3c 77be bf6e cd3d
000001c0: 95c6 91be 4bb2 bebd 0c1f 823e 258a c43d
000001d0: a2a5 023e 7789 8abe 6885 953c 1067 5ebc
000001e0: ae93 54bc 0f1c 95be d0a0 833e 9c75 c4bd
000001f0: e96a b53d 23bd 843e ee31 8cbe 3118 13be
-0.0837917 0.1092435 -0.039015714 -0.08411221 0.25079793 -0.001424833 -0.010228443 -0.19497848
-0.1282727 -0.2818312 -0.1740607 -0.25240642 -0.0752168 -0.18428843 -0.031774867 0.18009908
0.21333694 0.24286897 0.0046651107 -0.08530703 -0.1599345 -0.17876005 -0.07150017 -0.12500155
-0.12246419 -0.27698088 0.2706058 -0.01907078 -0.2642448 -0.049246743 0.23216529 0.029145826
0.2400787 -0.0890025 0.21753685 -0.0912814 -0.023823593 0.2218413 -0.14031206 0.057654925
-0.27169955 0.051191285 -0.22623223 -0.16427742 -0.10473916 -0.14512265 -0.07751646 -0.24542062
0.1350597 -0.040752076 0.17092817 -0.14496166 -0.21987765 0.14347586 -0.016628537 0.1570702
-0.05189929 0.048233964 -0.1873903 0.20373216 -0.100712225 -0.30089888 -0.09822197 -0.10268236
0.18370302 -0.10284363 -0.12176916 -0.22902493 0.12965463 -0.21912302 0.2774409 0.07765274
0.14084041 0.19138907 0.26407835 0.2522295 0.113577135 0.17691626 -0.22193414 -0.13650505
-0.24742132 0.18536387 -0.06564191 0.11834002 0.23518568 0.13260472 -0.088591054 0.1893173
-0.1844981 -0.15073195 0.27518246 -0.06340859 0.24669439 -0.15391462 -0.097636744 0.09276515
-0.12613505 0.11971716 -0.016216923 0.19939202 -0.111412145 -0.09527722 -0.23072487 0.019555053
0.060617775 0.14950258 -0.1834246 -0.1561032 0.25136024 -0.2910325 -0.24144359 0.10030889
-0.2847182 -0.093113504 0.25414312 0.095966615 0.12758496 -0.27058002 0.01825209 -0.013574377
-0.012974663 -0.2912297 0.25708628 -0.09592745 0.08858282 0.2592555 -0.27381843 -0.14364697

mu.2.weight f4 [128, 128]
00000000: 8203 2e3c cf06 69bd 39af b63d d7fd 1b3d
00000010: a54d a53d 5f22 6c3d bd60 093c 1613 673b
00000020: 6a2f a93c 8ec3 933d 894e bd3d bab6 b4bd
00000030: 5de2 96bd 4c99 8dbd dc88 4fbc 4221 33bd
00000040: b4dc 8bbd c0ee 883d bce6 15bd de8d f63c
00000050: 58c4 743d 8d1c 3fbd 589b 9a3c 85d7 a1bc
00000060: 9734 39bd f78c 9c3d 274a 7ebd 7d20 3f3d
00000070: 6a30 abbd 5d91 953d 6b20 dc3c b732 31bd
00000080: e24c 35bc e791 733d d38b a73d 0841 e63c
00000090: ceb0 26bd 0314 cfbc 30d6 433d 049f 3e3d
000000a0: af85 493d ef94 bfbc 0457 a4bd 2749 fbbc
000000b0: c938 15bd 8407 1c3d 5590 80bc fe1d 253d
000000c0: 7531 aabd eadd 113d 0384 523d 64df 813c
000000d0: ca7a c73c d5c5 6a3d 5a50 6c3c 8407 443d
000000e0: 039f 30ba 9d82 25bd fcdf fa3c 612e 003d
000000f0: 2adc 92bd 0906 95bd a64f be3c 0f01 963d
00000100: 4e6e 5bbd 2c82 7d3c ce35 eb3c 54da 433c
00000110: 9464 8ebc 60fe f9bc 2ee4 0abd ab46 82bd
00000120: 6afd 383b d4ff 2c3d 006e e13b 7a64 27bd
00000130: cda0 02bc 6998 a83c 33e7 fa3c b6bb 7b3d
00000140: 0138 a9bd a6dd 8dbc 6a53 023c eb05 483d
00000150: 4511 923d 79ba 25bd f336 c4bc dc8c bfbd
00000160: 793a 0cbd aae6 4d3b 7442 173d 269d 313d
00000170: d7e2 7bbc 51af 1cbc 4310 edbc 853b 2c3d
00000180: 250c 233c 761c 0dbd 8b64 a0bd beb8 a2bd
00000190: 310c fabc 6634 ea3c 7a2a d9bc cbb4 26bd
000001a0: f792 ef3c 45f8 b0bc f487 1e3c 2eeb a3bd
000001b0: 92a2 7e3c a257 a83c ba70 603c 80de bf39
000001c0: b68c 07bd 063c 7bbd cc96 713d 1ef6 e2bc
000001d0: a492 f7bc 8567 ea3c 2dd4 b83b 36f4 663d
000001e0: af5a 0e3d f019 b73d a1fd 3abb 7dcd 61ba
000001f0: 94b8 ddbc 2e38 13bc 1efe dfbb 09c7 88bd
00000200: 8e97 a83b a52c 523d 99b7 0dbd 2b49 87bd
00000210: 2fa8 febc 1e0a afbd 81f2 823d ea4c ffbc
00000220: 525a 67bd 5c05 8c3c 3e20 d83b a283 9e3d
00000230: bd02 283c 3d57 563d 5929 693d 9d21 bd3c
00000240: b018 91bd 5355 f33c 18e8 a53b f574 cbbb
00000250: f22e 1e3d a1cf 84bd 1eef 9c3c 7415 8d3d
00000260: 9b02 07bd 4e81 c33c 3840 eebd 5cac b5bc
00000270: 5e89 973d 95b5 afbd 7bb7 88bc 6e70 5ebc
00000280: e896 c63b 701e 51bd b088 afbd bbda 3dbd
00000290: 11b8 87bd 97e8 ad3b bd94 8ebd 54ab adbd
000002a0: 446f 833b 6370 36bc a007 f83c 2db3 5d3d
000002b0: ac19 f7bc a0f2 e7bc 241e 0dbd 231f 6bbd
000002c0: 8804 abbd 725f 31bd 851e 613d 87ee 8dbc
000002d0: 15a6 e23d c9e2 5e3b db7a bf3d 927b e03b
000002e0: ddb1 f8bb 7afd 1b3d c4de ea3b 7db8 bdbd
000002f0: a527 523d c137 c8bd 2cf6 4fbd 9bc9 41bd
00000300: 0f85 7e3d 3724 393c ad15 0e3d ea9b 833d
00000310: 02a9 6f3c 783b b4bd 4ecf d5bd e7a1 68bd
00000320: c502 873d c0c8 8dbc d0ee 5fbd 4e1f 763d
00000330: b120 1e3d f247 3fbc 6d67 4bbd 8e52 6cbd
00000340: 0383 e5bc 42ee 033d a3cb 6b3d f975 863d
00000350: e599 41bd 7249 803d 06a9 113d 4828 813d
00000360: 33a2 6f3b bc94 933d d89c 05bd 0616 643d
00000370: 337a b0bd 6dfc 28bd 7172 263d 24da 363d
00000380: 747f ba3d 2a3b 05bd 864f 8ebd 6347 60bd
00000390: 8cd9 4c3c 319a a33b 065a 16bd 4076 39bd
000003a0: b26d 313d 0ad4 36bd 816d 63bd 4845 9b3d
000003b0: 7185 1bbd a2a5 bb3c d97a 91bc a5d1 303d
000003c0: 32b2 54bd 3c0d d63d 61ed 31bd 9ad8 893d
000003d0: 44f6 1fbd 1727 6abd 6638 04bd 0106 63bc
000003e0: fb08 283c 6b6f 94b9 0ba1 c0bd 0652 e1bc
000003f0: 1448 b2bd 40ae 85bc 95a1 413d dc65 b4bc
0.0106209535 -0.05689126 0.0892014 0.038083877 0.0807145 0.057649966 0.008384881 0.003525918
0.020652492 0.072150335 0.09243495 -0.08823915 -0.07367394 -0.06914005 -0.012666907 -0.04373289
-0.06829205 0.06686163 -0.036597 0.030096944 0.05975756 -0.046658088 0.018872902 -0.019756088
-0.04521617 0.076440744 -0.062082436 0.046661843 -0.083588436 0.073031165 0.026870927 -0.043261256
-0.011065694 0.059465315 0.08180966 0.028107181 -0.040695958 -0.025278097 0.047811687 0.046538368
0.049199756 -0.023386447 -0.080244094 -0.03067453 -0.036431108 0.038093105 -0.015693823 0.040311806
-0.083102144 0.035612024 0.051395427 0.015853591 0.024350543 0.057317574 0.014423454 0.04785873
-0.0006737562 -0.040407766 0.030624382 0.03129423 -0.07170899 -0.07276542 0.023231339 0.07324421
-0.05357199 0.01547293 0.02871218 0.011953909 -0.017381944 -0.030516803 -0.033909015 -0.06361135
0.0028227218 0.042236164 0.006879568 -0.040867306 -0.007972908 0.020580487 0.030627823 0.061458312
-0.08262635 -0.017317604 0.007954458 0.04883377 0.071322 -0.040461037 -0.023951983 -0.09353039
-0.03423545 0.0031418004 0.03692861 0.04336276 -0.015373907 -0.009563283 -0.028938418 0.04204895
0.009951626 -0.03445097 -0.07831677 -0.07945393 -0.030523391 0.028589439 -0.026509512 -0.04069976
0.029244883 -0.02160276 0.009675968 -0.08003841 0.0155416895 0.0205496 0.013698751 0.00036596134
-0.033093177 -0.06133654 0.0589817 -0.027705248 -0.03022129 0.028613815 0.0056405277 0.05638524
0.03475445 0.08940494 -0.0028532522 -0.0008613689 -0.027065553 -0.008985562 -0.006835713 -0.06678588
0.00514502 0.051312108 -0.03459892 -0.066057526 -0.031086056 -0.085468516 0.0639391 -0.031164605
-0.05648262 0.0170924 0.0065956404 0.07739951 0.010254559 0.05232929 0.056924198 0.023087317
-0.07084787 0.029703772 0.005063068 -0.0062090107 0.03861899 -0.064849146 0.019156989 0.068888575
-0.03296147 0.023865368 -0.116333425 -0.022176914 0.073992476 -0.08579556 -0.016689053 -0.01357661
0.00606047 -0.051054418 -0.08570993 -0.046351176 -0.06626905 0.005307268 -0.06961963 -0.08479944
0.0040110666 -0.0111351935 0.030277073 0.054125953 -0.030163608 -0.028313935 -0.034452572 -0.05740274
-0.08350474 -0.043303914 0.054960746 -0.017325653 0.11066834 0.0034009686 0.09349605 0.006850668
-0.0075895623 0.03808353 0.007167669 -0.09263704 0.05130734 -0.09776259 -0.050771877 -0.047311407
0.062138613 0.011300138 0.03468864 0.064262226 0.014627697 -0.08800405 -0.10439931 -0.056795027
0.06592325 -0.01730764 -0.05467111 0.06008845 0.038605396 -0.011674868 -0.04965918 -0.057695918
-0.028016573 0.032209642 0.05756725 0.0656547 -0.047265906 0.062640086 0.035561584 0.06306511
0.0036565184 0.07206103 -0.03262028 0.055685066 -0.08617058 -0.041256357 0.040636484 0.04464163
0.09106341 -0.032527126 -0.06948762 -0.05475558 0.012503039 0.0049927463 -0.036706947 -0.045278788
0.043317504 -0.04463581 -0.055524353 0.07581574 -0.037969057 0.022906128 -0.017758774 0.043168683
-0.051927753 0.10451743 -0.043439273 0.067307666 -0.039053217 -0.057166185 -0.03228035 -0.013856412
0.010256047 -0.00028311773 -0.094057165 -0.027504932 -0.08705154 -0.01631844 0.047273237 -0.022021227

mu.2.bias f4 [128]
00000000: 3a91 4bbd b81c 96bd 59e9 94bc 6e23 80bd
00000010: 9647 b4bd 7cf7 6ebb 063f 71ba f812 013d
00000020: acbf 2f3d 4bc8 b1bd eac2 793d d87e 63bd
00000030: 5ca6 79bd e2d0 963d 6aa7 f1bb 32b1 a53d
00000040: 71bb bb3b 7bbd 733c c3ea 213d 3a63 273d
00000050: 7caf 1fbc 4557 e8bb 85d7 9c3d 894a 70bd
00000060: 01d5 b9bd ad4c 063c e00d 6e3d 7297 a43d
00000070: 5c7d 103d c1a9 683d b916 8dbd bdeb 023c
00000080: 9167 283d ed7e db3c 269c a13d 7a4a 89bc
00000090: daae 85bd 44ba 8fbd b4e9 b2bd f20f ab3a
000000a0: 0d16 ad3c 1904 bb3d d919 9c3d ebad 71bb
000000b0: dba8 973d c28f d8b9 0c76 933c f564 6a3d
000000c0: 3e0c 253c f218 94bd b9ad bcbd 3c88 14bd
000000d0: a8b3 813d d005 933d 4782 153a 14d6 ad3d
000000e0: 5206 cfbd e20f 953d bd93 3cbc f066 72bd
000000f0: 41f1 813a bc2a cbba 5660 dc3c 74be 43bd
00000100: 8da8 dd3c a6d0 273c 5fb4 a93d d530 96bd
00000110: 7656 a63c 279c 6cbc 717f 303d 29ae 8539
00000120: a9fa 9abd dc6f 9ebd fb62 093c 1e96 17bc
00000130: 90b5 c3bb 3c7c 4bbd 3a9a 84bd 4e4f 71bd
00000140: 6b8f 92bc 7ea7 d0bb c79e 153c 488b 1c3d
00000150: 08d5 99bd f920 a23c 1912 6bbc e293 7e3c
00000160: a8ab 8dbd f1b2 aa3c a585 9e3c cf86 ad3d
00000170: 97d6 833d 3684 b6bb d55e 093d 1234 3dbd
00000180: 1077 02bd 8dee 9ebd 8d8f 91bd 770c febc
00000190: b6ca e73c f2aa 843b df4a 443d d34a 383d
000001a0: 6bab b53d 95d8 ea3c 2a39 4abc 4249 823d
000001b0: dc5c 6d3d 2728 373c 53b0 633c 7e15 9fbd
000001c0: 5fad 103d b4cb 673d 997f afbd 70b2 113d
000001d0: 11af 19bd e51d 93bd 87e0 993b 6aac 16bd
000001e0: fe53 413c 5412 673b 43d1 893d 127e 59bd
000001f0: e859 d0bb 209e 7b3c 35d3 ccbc bc7e 80bd
-0.049699046 -0.073296964 -0.018177675 -0.06256758 -0.088027164 -0.003646343 -0.00092028116 0.03151223
0.042907402 -0.08680781 0.0609769 -0.05554089 -0.06094967 0.0736406 -0.0073746936 0.08090438
0.005729132 0.014876719 0.039530527 0.040866114 -0.009746429 -0.0070904815 0.076582946 -0.058664832
-0.090738304 0.008196992 0.0581187 0.080366984 0.035275802 0.056802515 -0.068891 0.007990775
0.041114394 0.026793921 0.07891111 -0.016759146 -0.06527491 -0.07017949 -0.087359816 0.0013051017
0.021128679 0.09131641 0.076221175 -0.0036877345 0.074052535 -0.00041305838 0.018000625 0.057225186
0.01007372 -0.072313204 -0.092128225 -0.036262736 0.06333095 0.07178843 0.0005703312 0.08488098
-0.101086274 0.0727842 -0.011509833 -0.0591802 0.0009913818 -0.0015500407 0.026901405 -0.047789052
0.02705791 0.010242617 0.08286356 -0.07333533 0.0203049 -0.0144415265 0.043090288 0.00025497496
-0.07567341 -0.07736179 0.008385415 -0.009252099 -0.0059725717 -0.049679026 -0.06474729 -0.05891352
-0.017890653 -0.006367623 0.009132094 0.038218766 -0.075113356 0.019791113 -0.014347577 0.015538188
-0.069175065 0.020837279 0.019350836 0.08472978 0.06437414 -0.00556996 0.033537704 -0.046192236
-0.031851828 -0.07760344 -0.07107458 -0.031011803 0.028294902 0.0040486986 0.047922965 0.044993233
0.08870586 0.028667727 -0.012342731 0.06361629 0.057949886 0.011179007 0.013897019 -0.07767771
0.03532159 0.05659075 -0.08569259 0.035570562 -0.037520472 -0.07183436 0.004695955 -0.03678552
0.01179981 0.0035258727 0.06729367 -0.053098746 -0.006358374 0.015357524 -0.025003055 -0.06274173

mu.4.weight f4 [4, 128]
00000000: a139 433b 981a 033c b611 dabb 1b9f 8f38
00000010: 0ed9 5cbb 293d b9bc 98ec b83a 1b75 94bc
00000020: 77cb 67bc 1f1e ac3a 60b4 fb3a dc26 49bb
00000030: 6337 a8bc 07d1 84bb 5173 c93b 472d 053c
00000040: 55b8 60bb 7559 a1bb 9203 403b ee8f fdbb
00000050: 3e74 233c bb41 f93a b605 1e3c 639f 063b
00000060: 5554 11ba 0509 41bc 4116 5e3b 9892 4abc
00000070: 78af 8dbc c460 b3bc 17ae 083c 8769 4aba
00000080: ce49 37bb a382 d2ba 04e4 25bb 796d 96bc
00000090: 86c2 32bb ab63 84bb cc68 10bb 617e 203a
000000a0: b02c 7bba f834 e5bb 23b3 a5bb c63b abbc
000000b0: c6b9 b33a 1e9b 873b eb11 39bc 1911 b83b
000000c0: d798 90ba f2ef 8fbc 009a f83a e00f d5b8
000000d0: 3f09 f3bb 7046 1c3b 3f56 4c3b 48db 77bc
000000e0: f1bf 973b 3c85 bf3c 4607 2d3a 3cd9 0cbb
000000f0: 2f55 c0ba dd2f c13b 8624 c53b fe52 0cbc
00000100: 132e 0f3c 8e6e 61bb 57d9 d9bb 7ea2 1abb
00000110: 128c bf3b 7188 ecbc ade0 36bb 666f bcbb
00000120: fb0b d23b 2acc 79bb f5fb 19bc 606f 8b3b
00000130: 51a8 fc3a 4bc5 3839 a9a1 753b d91e 5cbb
00000140: 74ae c43b f45a 163b 2271 77ba 0ed7 ee3a
00000150: 8326 5fbb 0279 613b 002e 32bc fe27 26bd
00000160: b295 cd3c 139e 183d 9c16 d23a cb6b a73c
00000170: 2272 a83b ed2c 773b 803c 79bc 41e5 89b9
00000180: 47d9 6bbb cddb 5fbc afc4 803b af50 6e3b
00000190: 809c 60bc 5eed 83b9 a663 923b c1c8 e6bc
000001a0: 137a c9bb 7561 78bb ed9e 8d3a 98ce 43bc
000001b0: 0972 f33a 5c34 4c3a 23d2 223c 4f9c b4bb
000001c0: 24e1 4a37 f8e6 36bc f674 a1ba 81b5 2838
000001d0: 56e8 3abc af5e 20bc d364 563b 745f 8e3c
000001e0: 30f4 ea3a 5218 853a 6f33 3fbc b598 9939
000001f0: f047 b63c 3778 a03b bb40 e1bc 35dd 71bc
00000200: 2096 e43b 81b9 98bc 540d 1dbc be05 c038
00000210: 9c65 9a3a 4b3f c4bb e3a5 983b 5296 223c
00000220: e7c3 823b a563 043b c4bf ac3b 7544 14bc
00000230: fd11 c2bb 6842 f6bb b675 19bb 2f72 043a
00000240: 7316 583a c903 993b 5890 e73b f291 8b3c
00000250: 59f4 3b3c 406c c0ba 0d73 1bbb 0e2e 9d3b
00000260: c433 0a3c 3ed8 0ebc 33b0 653b 5849 31bb
00000270: 88dc 2fbb 5434 723c b5c0 853a 94b9 b53a
00000280: f40c 223b 5bc4 e93b 550e 883a 9dfb 7bbb
00000290: d553 c83a 020c 90bc 8dae d53a 4569 0e3c
000002a0: 065c 8f3a 1b22 24bb 50d8 4fba e2e2 f13b
000002b0: 9ec9 e93a c07b ebba 0d21 aa3b 0a4e 493b
000002c0: d82e cb3b 4e9f 253c 7049 c5bb 04ed 1b3b
000002d0: 12e1 843c 0426 073c c267 cb3b 3bcb 80bb
000002e0: 83ed 12bb 8721 873b 4cfc 7dba ba14 083b
000002f0: 5457 473b 17d0 513b cad2 e93b f0eb de3b
00000300: dd58 7aba afc0 383b a731 293c 2206 053c
00000310: ee24 543b 3d5f 7c3c 648b 6dba b5c7 21bc
00000320: 64ee 3f3b 7326 b33a 8c0d e4ba 4ac0 bdb9
00000330: 74c5 b43b 3373 dd3a da5d 893a 4198 5d3c
00000340: ef9a 0b3c 4dfe a33b 3114 1f3a bada d43b
00000350: c8ea 553a 8d7b 003c 5e68 1abb aef6 ecbc
00000360: 9b9e ceba edb6 4e3c 60e4 ac3b 10be e0ba
00000370: f7da 093c d8fa cc3a de0f 403b 80dc 3bbb
00000380: 9453 893b e4fd 013a 03e7 da3a 35a0 453b
00000390: 2b70 753c 7266 e93a 5807 143c 74aa 1abc
000003a0: 36ae 733b ec72 113c 63b4 653b 5e47 d4ba
000003b0: 4ed2 f33a 4a12 053c afe4 833b 9a08 6bbb
000003c0: cfe1 043b 4782 333c a100 753b 9c7c baba
000003d0: 9327 ac3b abb1 c5bb 8bb9 0b3c 5541 d0bb
000003e0: 126d 2fbb a800 ed3b 55c1 263c caec 883b
000003f0: 4676 773b 11c2 b63b c161 c1bb aa1f 043b
0.0029788988 0.008001946 -0.0066549433 6.848407e-05 -0.003369871 -0.022612171 0.0014108596 -0.018122246
-0.014147631 0.0013131535 0.0019203536 -0.0030693328 -0.020534223 -0.0040532383 0.00614778 0.008128471
-0.0034289558 -0.004923994 0.0029299003 -0.007738105 0.009976445 0.0019016782 0.009644916 0.002054178
-0.00055438775 -0.011781936 0.0033887776 -0.012364052 -0.017295584 -0.021896727 0.0083422875 -0.0007721413
-0.0027967575 -0.0016060661 -0.002531291 -0.018362748 -0.002727659 -0.0040402017 -0.002203512 0.00061223475
-0.0009581549 -0.0069948398 -0.005056755 -0.020902526 0.0013711981 0.0041383645 -0.011295776 0.0056172726
-0.0011031878 -0.01757047 0.0018966794 -0.000101595884 -0.0074168737 0.0023845695 0.0031179336 -0.015127964
0.0046310355 0.02337896 0.000660051 -0.0021491786 -0.0014673824 0.0058955983 0.006016317 -0.008564709
0.008739012 -0.003439817 -0.0066482234 -0.0023595388 0.005845555 -0.028873654 -0.0027904913 -0.0057505844
0.0064101196 -0.0038116076 -0.00939845 0.0042552203 0.0019276236 0.00017621105 0.003748039 -0.0033587723
0.0060022417 0.0022942396 -0.00094391603 0.001822205 -0.0034050054 0.0034404402 -0.010875225 -0.040565483
0.025095794 0.037260126 0.0016028467 0.020437142 0.005140559 0.0037715987 -0.015212178 -0.00026301484
-0.0035987662 -0.013663244 0.0039296965 0.003636401 -0.0137091875 -0.0002516312 0.0044674454 -0.028171899
-0.0061485856 -0.0037899886 0.001080481 -0.011951111 0.0018573414 0.00077897846 0.009937796 -0.0055117975
1.2092558e-05 -0.011163466 -0.0012318182 4.022336e-05 -0.011407932 -0.009788199 0.0032713905 0.0173795
0.0017925557 0.0010154343 -0.011669978 0.0002929621 0.0222511 0.004897143 -0.027496686 -0.0147622125
0.006975904 -0.018643143 -0.009585697 9.156343e-05 0.001177955 -0.0059889904 0.004658447 0.0099235345
0.0039906385 0.0020200994 0.0052718837 -0.009049525 -0.0059225545 -0.0075152405 -0.0023416108 0.0005052415
0.0008243091 0.0046696407 0.0070667677 0.017037366 0.011471831 -0.0014680699 -0.0023719699 0.00479675
0.008435193 -0.008718548 0.003504765 -0.0027051773 -0.0026834328 0.014782984 0.0010204526 0.0013864511
0.002472696 0.007134003 0.0010380248 -0.0038449534 0.0015283773 -0.01758385 0.001630263 0.00869209
0.0010937459 -0.0025044743 -0.00079286564 0.007381783 0.0017836576 -0.0017965958 0.0051919282 0.003071668
0.0062006526 0.010108782 -0.0060207173 0.0023792395 0.016220603 0.00824881 0.0062074373 -0.003930477
-0.00224194 0.00412387 -0.0009688779 0.0020764307 0.0030417042 0.00320149 0.0071357237 0.0068030283
-0.0009549985 0.002819102 0.010326779 0.008119138 0.0032370645 0.015403566 -0.00090616033 -0.009874274
0.002928638 0.0013668075 -0.0017399057 -0.00036192156 0.0055167023 0.0016895294 0.001048024 0.01352507
0.008520826 0.0050046802 0.00060683774 0.006495801 0.00081602903 0.007841957 -0.0023560743 -0.02892622
-0.0015763821 0.012616855 0.005276248 -0.0017146487 0.008414022 0.0015638722 0.0029306333 -0.0028665364
0.0041908715 0.0004958792 0.0016700927 0.0030155305 0.014980356 0.001780702 0.009034954 -0.009440053
0.0037182695 0.008877497 0.0035050146 -0.0016195585 0.0018602104 0.008122036 0.004025064 -0.0035863281
0.0020276194 0.0109563535 0.0037384408 -0.001422781 0.005253741 -0.0060331426 0.008528124 -0.0063554444
-0.0026767892 0.0072327442 0.01017793 0.004178618 0.0037759705 0.0055773337 -0.0059015458 0.0020160475

mu.4.bias f4 [4]
00000000: 4f07 123b 423c c63b 69e5 8cbb 95a9 d93b
0.0022282188 0.0060496638 -0.0042998088 0.00664253
