experiments/data/sawyer_clutter_200steps_10H/h_sac/2021-06-08_17-52-16_clutter_200steps_10H/model_5000.pt (torch_old, 358080 bytes, 12 tensors)

log_std f4 [1, 12]
000000 cf a1 bb bf 3b a6 90 bf af a1 88 bf 37 c1 47 bf
       -1.4658755 -1.130073 -1.0674342 -0.780292
000010 95 d3 5e bf 9b b8 1c bf 38 29 6c bf 47 1e 1c bf
       -0.870416 -0.61219186 -0.92250395 -0.609837
000020 32 c9 98 bf 0b 93 46 bf 76 00 04 c0 f4 66 fc bf
       -1.19364 -0.7756812 -2.0625281 -1.9718919

mu.0.weight f4 [200, 14]
000000 dc 81 67 3e 18 07 c5 be 32 24 58 bd 6c fe 30 bd
       0.22608131 -0.38481975 -0.052768894 -0.043211386
000010 42 b1 46 3d b1 fc 91 3e 71 ae 58 bc 53 bc 97 3d
       0.04850889 0.285131 -0.013225184 0.07408967
000020 c9 0f 51 3c 3d 51 99 3e d4 db 0f 3d 21 31 8b 3d
       0.012760111 0.29944792 0.035121754 0.0679648
000030 8b 3e 02 3f 5c 0f 26 3f db e5 0f be 13 29 9c be
       0.50876683 0.64867187 -0.14052527 -0.30500087
000040 81 55 9f 3c 0a 1f a1 3e 36 10 e4 3d 4b af ee bd
       0.019449951 0.31468993 0.111359045 -0.11654528
000050 2e ec e2 be eb 17 a7 3e ba 6f f5 3d 3a ce 89 bd
       -0.44320816 0.32635435 0.11984201 -0.06728788
000060 c9 62 bb be 89 4e a4 bd 66 c6 75 3f 8a be 11 3f
       -0.36598805 -0.08022792 0.96005857 0.56931365
000070 69 ec 0f 3f ed 5d 19 be 92 0f 86 3e 7c d0 93 bd
       0.5622011 -0.14977236 0.26183754 -0.072174996
000080 f7 28 eb 3d 7e ad f3 3e 13 23 8c 3e 04 83 f9 3e
       0.11482423 0.47593302 0.2737051 0.4873277
000090 8b 94 4c 3e eb 00 8f be b1 cb 25 bd a8 fd 70 be
       0.1997854 -0.27930388 -0.04047746 -0.23534262
0000a0 51 54 54 be 91 02 97 3e 98 2e 26 be 9a d4 6b be
       -0.20735289 0.29494146 -0.16228712 -0.2303032
0000b0 0e a3 a6 3a 9b d6 ba 3e dd b0 86 3e b7 2d b2 3d
       0.0012713389 0.36491856 0.2630681 0.08700126
0000c0 48 50 f1 be 14 d9 98 3e 29 5f 93 be 89 53 5f be
       -0.47131562 0.29853117 -0.2878354 -0.2180921
0000d0 da b1 be 3e ee 06 ad be b1 ad 2c bf bf f4 10 3f
       0.37245065 -0.3379435 -0.6745253 0.5662345
0000e0 96 28 07 3d f6 3d 83 3e 2f 75 e0 3d 1a ea 13 3f
       0.03299769 0.2563321 0.10959851 0.57779086
0000f0 30 52 e6 3d 5d df 53 be db 9c 36 be d9 1e 88 3e
       0.11246145 -0.20690675 -0.17833273 0.26586035
000100 4e 62 9a be 91 ab ff 3d 3c b0 d1 bd 66 f4 05 3e
       -0.30153126 0.124838956 -0.10238692 0.13081512
000110 fb 40 a2 be 59 c6 32 bf 79 f8 84 3d 27 40 2b 3e
       -0.316902 -0.69833905 0.06492705 0.16723691
000120 5d 46 b8 3d 68 ed a9 3d d4 59 c1 bd 7b 01 6d be
       0.08997796 0.08297235 -0.094409615 -0.23145096
000130 52 66 34 be 36 5a 55 bd e1 2f e5 3d 28 ec 3d 3c
       -0.17617157 -0.052087985 0.11190773 0.011591949
000140 7c 36 8e be 4e c0 86 bd 66 dd 45 3f ab af 39 be
       -0.27775943 -0.06579648 0.7729095 -0.18133418
000150 41 c1 0f 3f 08 9b 16 3d 1a 15 bb 3e 65 51 89 be
       0.5615426 0.036768943 0.36539537 -0.26819912
000160 07 8d 95 bd d2 36 67 bd 8e ff bb 3e 56 98 7f be
       -0.073022895 -0.056448765 0.3671841 -0.24960455
000170 a8 9e a6 bc e6 d1 da bc b7 b0 5c 3e 1b 66 de 3d
       -0.020339325 -0.026711415 0.21551786 0.10859319
000180 df f4 89 3d 52 4d 36 3c 04 a7 14 bf bd e0 17 be
       0.067361586 0.011126833 -0.58067346 -0.14831825
000190 e2 39 43 bd 04 48 b3 be 82 04 a6 3e 55 17 40 bd
       -0.047662623 -0.3501588 0.32425314 -0.04689725
0001a0 8e 7b 9b bc 78 6b 40 be d3 00 ab be 73 5d 99 3e
       -0.018979814 -0.18790996 -0.33399066 0.2995411
0001b0 a5 2a 97 be f6 13 3e be 44 ac f9 3e 03 26 f8 be
       -0.29524723 -0.18562302 0.4876424 -0.484665
0001c0 9e eb 26 be 3d ca 1b 3c ec 11 c3 3e 30 98 8b 3e
       -0.16300818 0.009508667 0.3809961 0.27264547
0001d0 f5 94 b0 be ad 6b 01 be 69 23 c6 3d da bd 46 bd
       -0.34488645 -0.12638731 0.09674723 -0.0485209
0001e0 f5 af cd 3e 5f c7 45 be 4e c9 73 be d3 66 2c be
       0.40173307 -0.19314335 -0.2380726 -0.168361
0001f0 8e 2f ca bd 99 d4 be be 8b 40 f3 be 43 03 3b be
       -0.098723516 -0.37271574 -0.4751018 -0.18262963
000200 7c 3b 12 3e a5 cc 9f be 43 4b b2 3e bd ee 2a be
       0.14280504 -0.3121082 0.34823045 -0.16692634
000210 6a 17 3e be c8 d4 b2 be 7c dc 80 be 3b 0e 64 3d
       -0.1856362 -0.34927964 -0.25168216 0.055677634
000220 1c b6 b1 3e 29 0c a4 3d 9e 82 2c bf 3a ac a5 be
       0.3470925 0.08010132 -0.67386806 -0.3235796
000230 93 51 68 3e c2 f0 e5 3e a2 6e 2b 3a 9a c9 10 be
       0.22687368 0.44910246 0.0006539618 -0.14139405
000240 9f 4c 27 3e d0 f9 ae bd 68 1e d8 3e 49 a4 78 bd
       0.16337822 -0.08543742 0.42210698 -0.06070355
000250 83 99 88 bd d1 ca a6 be 35 d8 5d 3e 1d 7b 0e 3e
       -0.06669905 -0.32576612 0.21664508 0.13914151
000260 95 e3 0c 3f 8a 75 73 be 4d 1c e6 3e 1a 5e 42 be
       0.5503476 -0.23775306 0.44943467 -0.1898121
000270 48 68 b6 3d e6 48 97 bc 57 57 38 3d 2c cc b6 be
       0.08906609 -0.018467378 0.04500517 -0.35702646
000280 8e a5 18 3e 34 86 af bd bf 62 73 3e 04 33 97 bd
       0.14906904 -0.08570519 0.23768137 -0.07382777
000290 5f 73 a5 3e 37 83 78 bc bf 5f 21 bf 4f 2d 5e be
       0.32314584 -0.015168003 -0.6303672 -0.21696971
0002a0 1f 32 cc be f7 ab 8c be 38 bd 18 3e e1 bc 03 3e
       -0.3988199 -0.2747495 0.14915931 0.1286502
0002b0 02 69 04 3e c7 88 43 3e 92 c3 c9 be d5 b7 03 be
       0.12930682 0.19095145 -0.3940702 -0.12863095
0002c0 80 de 02 3e 8c f7 ac 3e 64 e0 63 3e c8 bc 61 3d
       0.1278019 0.33782613 0.22253567 0.055111676
0002d0 91 0a 14 be 14 df 99 be 20 cf e0 3e 9b 56 85 be
       -0.14457156 -0.30053008 0.43908024 -0.26042637
0002e0 c9 31 a5 be ff 42 c1 3e 7e 5b c6 be 4c b6 b4 bd
       -0.32264546 0.37746426 -0.38741678 -0.08823833
0002f0 f6 66 a8 be 61 4b 41 be 85 92 89 be 2b 60 fe 3c
       -0.32891053 -0.18876411 -0.26869598 0.031051716
000300 62 fb fa be ed 50 5d bd 38 32 26 3f 56 cb d0 3d
       -0.49019915 -0.054032255 0.6492038 0.10195033
000310 6d f4 0e 3e 79 a8 2d 3f c0 21 a1 3e 29 51 32 3e
       0.13960429 0.67835194 0.31471062 0.17413773
000320 81 b8 64 3e 38 05 a0 be f2 68 94 3e 08 a2 66 be
       0.22336008 -0.31253982 0.28986317 -0.22522748
000330 99 21 f9 bd 8f f7 7b be cd 68 58 3d 2d 30 73 3d
       -0.12164611 -0.24606155 0.05283432 0.059372116
000340 dc 1d 9a be b7 d9 10 3d 8e 48 92 3e c8 3b aa be
       -0.30100906 0.03536388 0.2857098 -0.33248734
000350 72 ad df bc 95 30 4a 3e 73 9a 36 3e 2a e0 2f be
       -0.027304385 0.19745095 0.17832355 -0.17175356
000360 52 d4 29 be a2 13 38 3d 72 44 09 3e b2 f3 af 3d
       -0.165849 0.0449406 0.13405016 0.08591403
000370 4d b6 bf 3e 64 a5 8a 3e b5 50 09 bf 58 e1 6b be
       0.37443772 0.27079308 -0.53638774 -0.2303518
000380 de e7 16 3f a0 71 63 3e 37 6b c9 bd 1f b8 80 bc
       0.5894755 0.22211313 -0.09834903 -0.015712796
000390 ed 18 cd be 15 73 91 39 d2 99 64 3d 67 05 1d be
       -0.4005808 0.00027742298 0.055810757 -0.15334092
0003a0 9e 3a cf be 59 25 ba 3b d5 09 fe be 9f 41 b8 be
       -0.4047441 0.0056807217 -0.49616876 -0.35987565
0003b0 b2 48 11 bf 37 7a 75 3e 0f ba 02 3f e4 e1 54 3e
       -0.5675155 0.23972403 0.5106515 0.20789295
0003c0 20 69 0d be e9 47 2b be 76 81 73 3e 82 52 0f 3e
       -0.13809633 -0.1672665 0.23779854 0.13996318
0003d0 4b d6 3d be ee 38 d9 3e 7f 73 91 3e e7 79 85 3d
       -0.18538778 0.42426246 0.2840843 0.06517392
0003e0 2d c7 09 3e 54 85 64 3e 29 79 4e be 37 9b 96 be
       0.13454886 0.22316486 -0.20163406 -0.29415295
0003f0 6a e3 1b bf 8e fb 06 bf f7 08 16 bf 45 57 24 be
       -0.6089388 -0.5272759 -0.5860743 -0.16048916

mu.0.bias f4 [200]
000000 22 89 14 3e f1 11 b8 be c3 13 ad bc ab 58 6e 3e
       0.14505437 -0.35951188 -0.021127587 0.23276012
000010 89 c3 a8 3b 9b b6 d1 3d 23 3b 8b be d5 e9 0b 3e
       0.0051502627 0.10239907 -0.27193555 0.13663419
000020 29 0b 53 3d 9d b4 19 bd 61 40 7d be 8c 91 1e 3e
       0.051524315 -0.037525762 -0.2473159 0.15485209
000030 00 9a 95 be 2c 1d 65 3d 8e 6d b9 3d 32 2a e8 3c
       -0.29219055 0.055936024 0.09054099 0.028340433
000040 47 84 9f be 98 b4 15 3e 14 a0 1d bd 93 92 62 be
       -0.31155607 0.14619672 -0.03848274 -0.22126226
000050 44 8b 43 3e 97 53 63 be 09 bc 8e bd b5 55 99 be
       0.19096094 -0.22199856 -0.069694586 -0.29948202
000060 21 62 b4 bb 8b d3 3c be c4 da 6c 3e 8d f8 89 3e
       -0.005504862 -0.18440072 0.23130327 0.26947442
000070 54 6f 4d bd 55 08 07 3b 83 69 78 3e 3e e2 a2 3e
       -0.050155 0.0020604332 0.24259 0.31813234
000080 8b 1d 65 be 15 bd ae be 0d 57 05 bd f2 6e c3 bd
       -0.22374551 -0.34128633 -0.03255372 -0.095426455
000090 a8 31 91 be 09 c1 51 be 62 4b b2 3d c1 65 ac be
       -0.28358197 -0.20483793 0.087057844 -0.33671382
0000a0 ce a1 7b be bf 51 d7 bd f1 cf 60 be c9 c2 9c be
       -0.24573442 -0.10513639 -0.21954323 -0.3061736
0000b0 a2 5b 23 3e 50 b2 45 3d 3b 08 bf 3d f5 67 a2 3d
       0.15952924 0.048265755 0.09327742 0.079299845
0000c0 15 37 76 3e fe d4 86 bc fb 8b 01 3d 28 9b d9 3c
       0.2404445 -0.016458984 0.031627636 0.026563242
0000d0 f8 e8 4b be 36 36 9a be 64 a7 7a 3e fc c3 4c 3e
       -0.1991309 -0.30119485 0.24477917 0.19996637
0000e0 e1 e3 bf bd 20 44 67 be 75 55 25 be 74 a4 03 3e
       -0.09369636 -0.22584581 -0.1614588 0.12855703
0000f0 ed 7b c0 3e 17 7c 64 bc f2 e6 06 3d ee 63 9a bc
       0.37594548 -0.013945601 0.03293509 -0.018846478
000100 5a 23 59 be 1a 04 99 bd 37 b6 01 be 70 69 1f 3e
       -0.21204892 -0.074714854 -0.12667166 0.15567565
000110 1d c1 c7 bd c4 d9 8a 3d 5e 1f 57 3e 95 a0 55 be
       -0.0975363 0.06779817 0.2100806 -0.20862038
000120 f3 91 9f 3d 8c ed bf bd be 94 c1 bd 35 f4 4d bd
       0.077915095 -0.0937148 -0.094521984 -0.050281722
000130 47 59 3a be 6a e8 07 3b 2c 41 05 3d 0d 2b 1e be
       -0.18198119 0.0020737895 0.032532856 -0.1544611
000140 63 28 9f 3e b7 69 15 be f4 b0 2c be f9 ce 50 3d
       0.310855 -0.14591108 -0.16864377 0.050978635
000150 df e0 77 bd 64 2f 28 be a2 f1 cc 3d 32 09 7d 3e
       -0.06051719 -0.16424328 0.10007025 0.24710539
000160 39 da 16 be 7e 76 4f be 71 ca 8f 3e cb da 33 3e
       -0.14731683 -0.20260045 0.28084138 0.17563932
000170 12 a8 70 3c 18 19 b3 3d 8f c7 35 be c3 ea cc be
       0.014688509 0.08745021 -0.17751907 -0.4002286
000180 b4 73 b5 3c 29 f4 ea bd 72 2c 74 3c 09 40 d3 3d
       0.022149898 -0.11472351 0.014903175 0.10314948
000190 2b a0 3f be f7 05 90 3e a4 8e 35 3e 96 4a 74 3e
       -0.18713443 0.2812955 0.17730194 0.23856577
0001a0 82 65 82 3e 08 42 04 be 07 9b 22 3d c9 33 93 be
       0.2546807 -0.12915814 0.039698627 -0.28750446
0001b0 64 7d d8 bd 22 84 20 3e 03 1c 5c be 29 a4 ee bd
       -0.10570791 0.15675405 -0.2149506 -0.11652405
0001c0 1e 4e 79 3e 3c 77 67 be b2 b8 b2 bd b0 01 f8 3d
       0.24346206 -0.22604078 -0.08726634 0.12109697
0001d0 49 39 ce be 32 1d ac 3e 53 26 41 be b4 06 99 3e
       -0.4027808 0.33616024 -0.18862276 0.29887927
0001e0 e2 b2 c6 3c 2e f1 84 3d 6b d9 e7 3d 52 cf 67 3e
       0.02425522 0.06491314 0.11320766 0.2263768
0001f0 85 07 65 be f2 e6 d0 bd fd c0 c8 3c 0f ed 11 3e
       -0.2236615 -0.10200299 0.024506086 0.14250587
000200 5e 79 94 be ae f8 54 3e 2f 17 94 be 74 af 77 bd
       -0.28998846 0.20797989 -0.28923938 -0.06047006
000210 b8 72 5c 3e 23 41 26 be 73 b6 26 3c ce 2a 54 3e
       0.21528137 -0.16235785 0.010175335 0.20719454
000220 4b 9c 35 3d d1 52 8b be 73 10 3d be 8e 78 88 3e
       0.044338506 -0.2721162 -0.18463306 0.26654476
000230 eb c8 25 3b da 2e 20 3d a7 a8 4f bd 7f 23 98 3d
       0.0025296758 0.03910718 -0.05069795 0.07428645
000240 42 49 d8 3c e2 35 97 3e a4 f2 21 be 4e e3 88 be
       0.02640212 0.29533297 -0.15815216 -0.2673592
000250 42 b5 5e ba b5 b4 83 bd 31 9b fa bc 46 90 ae 3d
       -0.00084956374 -0.064309515 -0.03059158 0.08523612
000260 cb fa 2c be 97 c3 b3 3e 4b a6 a0 bd 13 a6 5b be
       -0.16892545 0.3511016 -0.07844218 -0.21450071
000270 3a 35 85 be 39 40 1e 3e 43 5f 80 bd 4a d3 f6 bd
       -0.2601717 0.15454186 -0.0626817 -0.12052019
000280 d3 75 72 be e5 02 8c be fc b7 a3 be 8a a1 3c 3e
       -0.23677759 -0.27345958 -0.31976306 0.18420997
000290 ca 94 85 bd 20 d9 a6 3e 74 ac 4d 3e 19 88 4e be
       -0.0652252 0.32587528 0.20085317 -0.20169105
0002a0 ab 81 75 be 16 ad b2 bb b4 09 d7 3d 5b 80 6c be
       -0.23975246 -0.0054527624 0.104998976 -0.23095839
0002b0 02 45 61 be 01 76 61 be 87 ce 62 be cf f2 c9 3e
       -0.2199898 -0.22017671 -0.22149096 0.3944306
0002c0 9b 00 51 3c 6c 14 2e 3e ee ca 68 3c be 0c bf 3e
       0.012756492 0.16999978 0.014208538 0.3731441
0002d0 37 d4 61 3e f5 dc 1a 3e 32 98 66 3c 05 72 8f bd
       0.2205361 0.15123351 0.014074372 -0.070041694
0002e0 5f 0f 96 3e 06 75 a3 be 1f 89 2a be f7 fb 67 39
       0.29308602 -0.3192522 -0.1665387 0.00022123741
0002f0 9b e3 fa 3d 42 b1 a9 bd a7 55 c7 bc 0f 5b 97 bd
       0.122504435 -0.08285762 -0.024332834 -0.07390415
000300 3f 61 71 3e 73 9a 96 bd 51 94 10 be 12 e7 8f 3e
       0.23572253 -0.073536776 -0.14119078 0.2810598
000310 ec 4c 44 3e d2 01 91 bd f4 4e 91 bd 20 7d 2e 3e
       0.19169968 -0.07080425 -0.07095137 0.17039919

mu.2.weight f4 [200, 200]
000000 e3 a6 24 3e 00 11 8a 3d 24 38 20 bd d0 be 9e 3c
       0.16079287 0.06741524 -0.03911604 0.019378096
000010 85 2c a9 be 2a c3 35 be a5 6d 62 bc ff 7c 86 bd
       -0.33041778 -0.1775023 -0.013820087 -0.0656681
000020 84 a8 f2 3d f1 c2 d7 3d 21 c9 43 3e cb bc 4c bd
       0.11848548 0.10535229 0.19119693 -0.049984735
000030 4e f8 c2 be f4 22 c4 bd 13 82 b4 3d 78 aa 82 3d
       -0.38080066 -0.09576979 0.08813872 0.063801706
000040 1a cd ff bc d5 2e 1f 3d 56 cf 09 3d b0 54 8f 3e
       -0.03122573 0.038863022 0.033644997 0.279943
000050 ed ca 6e bd 56 a1 62 3e e2 81 8f 3d 7a b4 ce 3d
       -0.058298994 0.22131857 0.07007195 0.10093017
000060 d9 9d 94 3b e9 87 7c bc c8 eb 80 3d 4d 5e f6 3c
       0.0045354185 -0.015413263 0.06294972 0.030074263
000070 4a d3 48 3d 4d 21 0b 3d 36 93 e5 bc 45 e5 1d bc
       0.049029626 0.033967305 -0.028024297 -0.009637182
000080 14 f1 b9 3c 36 4e 1e 3e c3 cf 3f 3b 3d c3 01 bd
       0.022697963 0.15459523 0.0029268123 -0.031680334
000090 f6 e1 ac be b0 c9 8b 3e 4f 95 49 3d fb 55 c6 3e
       -0.33766145 0.27302313 0.049214657 0.38737473
0000a0 a7 8b 15 be 9a dc 28 be e4 33 1d bc 12 1f 39 bd
       -0.14604054 -0.16490403 -0.009594891 -0.045195647
0000b0 eb 6d 87 3e a3 40 a8 bc f6 b0 77 3c 53 32 eb bc
       0.26451048 -0.020538634 0.015117874 -0.02871052
0000c0 96 d2 1b 3d 16 db 6b 3b 1d fd 9d 3d 04 59 90 3d
       0.038042627 0.003598874 0.07714293 0.070482284
0000d0 14 01 a5 bd a6 f6 7c bd 91 d2 ec 3d 83 6b 70 be
       -0.08056846 -0.06175866 0.115636 -0.23478512
0000e0 b2 26 6a be 78 9a 19 3d fc 34 10 3e 23 c2 24 be
       -0.22866324 0.03750083 0.14082712 -0.16089682
0000f0 66 fe de 3c d0 03 25 bd 2f ac 02 3c a7 d0 c1 3d
       0.027220916 -0.04028684 0.007975622 0.094636254
000100 be 00 c5 bd a1 3c 0a bd ac 2d 55 bd a7 80 17 be
       -0.09619282 -0.033749226 -0.05204551 -0.1479517
000110 51 fe 2a 3d 76 61 fe 3c ad a1 b4 bd ef d9 46 3d
       0.04174644 0.031052332 -0.088199 0.04854768
000120 aa 34 e8 3d c0 c3 1b be 43 b2 59 3d 9a f7 f6 bb
       0.1133817 -0.15211391 0.05314852 -0.0075368406
000130 76 41 94 3d 7a a1 b2 3d 2f 7b 17 bd ad 70 a8 be
       0.07239048 0.087222055 -0.03698271 -0.32898465
000140 1a 45 e7 3c 80 25 af bd 70 66 c1 3d f7 50 4f 3d
       0.028231192 -0.085520744 0.094433665 0.050614323
000150 09 05 9c 3a 34 a6 07 bd b4 bd b9 3c 72 88 4f 3b
       0.0011903356 -0.033117488 0.022673465 0.003166702
000160 d8 50 36 3d 84 49 ba 3d 80 2c a4 bd cf 06 11 be
       0.044510692 0.09096053 -0.080163 -0.14162754
000170 be 20 19 3e 06 84 89 3c 7d dc f2 3c e1 a9 22 3c
       0.14953896 0.016786586 0.029646153 0.009928198
000180 0b ad 80 3d f8 8f 31 bd 07 27 5c 3d 69 fb 46 bd
       0.06283005 -0.04335019 0.053748157 -0.048579607
000190 46 ae dd bc 10 b9 34 be 08 c6 37 3d 78 23 69 3e
       -0.02706064 -0.1764872 0.04486659 0.22767437
0001a0 77 3f 0e 3e 21 f5 18 be 36 fb 84 3d 33 bb 88 3d
       0.13891397 -0.1493726 0.06493227 0.066763304
0001b0 ae 0f 56 3d 3b 77 86 bd a6 bd ff bd 0a dc c3 3d
       0.052261047 -0.0656571 -0.124873444 0.095634535
0001c0 a3 73 fd 3c 85 9a 38 bd 49 ec 2b 3c 21 39 93 3b
       0.030938929 -0.045069236 0.0104933465 0.0044928943
0001d0 73 10 ed 3d 22 fc 70 bd 3c 85 87 3d 46 bc 67 be
       0.11575403 -0.058834203 0.06617209 -0.22630414
0001e0 3c 38 c9 3e 95 51 5c 3d e2 85 96 3b 4f 8a 01 be
       0.39300716 0.05378874 0.004593597 -0.12650417
0001f0 9e 3c 0f 3d 13 fe 10 bd ab 8d 49 3d 4c a9 ce 3b
       0.03496992 -0.035398554 0.04920737 0.006306803
000200 bb b4 64 3d 59 fa 8b bd 17 9d 70 3c 46 32 29 be
       0.05583642 -0.068348594 0.014685891 -0.16523084
000210 f5 b7 dc bc bc fe a3 bb 7d ad 62 bc b0 ee cc bd
       -0.026943186 -0.005004732 -0.013835308 -0.100064635
000220 f1 81 10 bd e0 cb eb be c2 10 41 be a4 d0 4b bb
       -0.03528017 -0.46053982 -0.18854049 -0.0031099701
000230 94 89 ed bd 64 57 b7 3d 21 31 e3 3c 82 ba e0 39
       -0.115985066 0.08952215 0.027733387 0.00042863569
000240 13 d1 6d ba f3 89 32 3e 0d 63 3b be 05 df c3 3d
       -0.0009071987 0.17435436 -0.18299504 0.09564022
000250 20 4d 88 bb 08 4e aa 3d d6 f2 f5 3d 23 30 37 be
       -0.0041595846 0.083156645 0.12009208 -0.17889456
000260 cf 48 89 bd 8a e3 f3 39 77 01 cb 3c 48 c2 ed bc
       -0.0670334 0.00046518102 0.024780972 -0.029023305
000270 81 1d 28 3e 1e 11 a5 3b 55 45 0d 3d 96 12 dc 3d
       0.16417505 0.005037441 0.03448995 0.107457325
000280 25 de 9b bc e8 12 c6 3c 5a 49 4e 3c 0c 74 16 3c
       -0.019026825 0.024178937 0.012590731 0.009182941
000290 fd 18 a1 be cd 99 cc 3d 08 98 81 3d e7 fb a8 bb
       -0.31464377 0.09990273 0.06327826 -0.005156982
0002a0 5a 7e b1 3d be 67 1f be d4 f8 eb 3b 03 f6 41 bf
       0.08666678 -0.15566918 0.0072012935 -0.7576601
0002b0 1b cf d6 bd a7 0f 29 be aa 4b 33 be bd 9a 6a 3d
       -0.10488721 -0.16509877 -0.17509332 0.057276476
0002c0 01 55 3d bd b5 67 a9 3d cf c8 88 3d ab ad 8e 3c
       -0.046223644 0.08271734 0.06678926 0.017416796
0002d0 44 33 d9 be 65 2d 39 bd 12 eb 90 bd 40 1e b7 bd
       -0.42421925 -0.045209307 -0.07076086 -0.089413166
0002e0 bb 87 01 be 66 c4 56 3e 70 6e 7e 3d 09 fa d2 bc
       -0.12649433 0.20973358 0.06211704 -0.025753992
0002f0 5e 7f 4f 3d 41 6c 0a 3c db 02 89 3e 5c a5 33 3c
       0.050658576 0.008448661 0.2675999 0.010964718
000300 50 1f ad bd ef e0 b0 bd 7b 56 1a 3e 9e b1 2c bb
       -0.08453238 -0.08636653 0.15072052 -0.0026350985
000310 10 aa b1 3c 1d 00 02 be 4f 0a e0 3c 45 0e 8c 3d
       0.021687537 -0.12695356 0.027348666 0.06838659
000320 ef 87 17 be f5 a7 f7 3c ce 60 78 bc d8 71 14 3e
       -0.14797948 0.030231455 -0.015159799 0.14496553
000330 59 c4 87 3c 3f 57 08 3d 6a 7a 55 3d 3c 3d e1 bd
       0.016573118 0.03328633 0.052118696 -0.10998008
000340 d2 2c 4f 3e 1b 29 56 3d 31 e8 12 be fc df 9a bd
       0.20231941 0.052285295 -0.14346386 -0.07562253
000350 78 29 8a bd 32 52 56 3d 2f d7 8d 3d 9c b8 ae bc
       -0.06746191 0.05232448 0.06925809 -0.021328263
000360 8a fd 6b 3c b7 05 a9 bd 8f be 06 3e 01 70 2a be
       0.01440371 -0.08253043 0.1315863 -0.16644289
000370 82 35 7e bd 8f 15 30 3d f0 27 2d be f4 de a9 be
       -0.062062748 0.04298931 -0.16909766 -0.33177912
000380 a7 49 ca bd df af 3c be aa ac 3f 3b 39 ae d6 bc
       -0.09877329 -0.18426464 0.0029247203 -0.026206123
000390 f3 7c 25 be 94 c2 a2 bd bc ef dc 3d 04 5a 25 3d
       -0.16160946 -0.07947269 0.10787913 0.04036905
0003a0 bf fc 8c bd 0c 15 37 bd 12 b1 83 bd 39 7e eb 3d
       -0.06884145 -0.044697806 -0.06430258 0.114986844
0003b0 c1 7e 57 3c 5a b3 5c bf 57 dd 65 bd 4b 5c d9 bd
       0.013152779 -0.8621117 -0.05611929 -0.106133066
0003c0 25 48 a4 3e 69 93 75 3d 7b 10 3d 3e 2f 1b 87 be
       0.32086292 0.059955034 0.18463318 -0.26387927
0003d0 1d fa c0 3e 6e 06 1e 3e 28 dd 64 3d 68 31 9d be
       0.3769082 0.1543214 0.055874974 -0.30701756
0003e0 b2 e8 67 3d 22 72 81 3d c0 92 9d bd c6 0c 77 bb
       0.0566184 0.06320597 -0.07694006 -0.0037696823
0003f0 bf 8a 0a 3e 52 02 ef 3e fe 0c 72 be d8 f9 a1 3d
       0.1352949 0.46681458 -0.23637769 0.07908982

mu.2.bias f4 [200]
000000 b0 41 34 3d eb 41 b7 b9 dd 81 7b 3a cd 50 b8 3d
       0.044007957 -0.00034953593 0.0009594241 0.089997865
000010 bf f7 87 bc 1e b6 0c 3c 56 f2 53 bc 6a 51 81 3d
       -0.016597627 0.008588342 -0.012936195 0.063143566
000020 02 de 0d 3e 0e 25 30 bd ed 73 8f ba 1b 61 26 3c
       0.1385422 -0.043004088 -0.0010944583 0.010154988
000030 04 95 3b bd da 1f a0 bd 95 ee 50 bd 7d 08 a5 bc
       -0.04579641 -0.07818575 -0.05100878 -0.02014565
000040 a3 cd d2 bd d4 4e 23 3c 8e c6 3e 3b 16 00 e3 bc
       -0.10293128 0.009967525 0.0029110047 -0.027710002
000050 f8 4f e3 b9 d5 a5 11 3d 55 b4 e7 3c 53 12 aa b9
       -0.00043356395 0.03555854 0.028284231 -0.0003243858
000060 4a 05 38 3c 33 70 d7 bd d6 58 31 be 84 85 2c 3d
       0.01123173 -0.10519447 -0.17319044 0.042119518
000070 ab 2f 7c 3d c4 cf 89 3b a8 67 ba bc 77 78 ff 3b
       0.061568897 0.004205676 -0.022754505 0.007796343
000080 15 6b 4d 3d ad a6 74 3d 30 25 7f bd 5c f5 8a bd
       0.05015095 0.059729267 -0.062291324 -0.0678508
000090 b7 e4 ee bc a9 bb a8 bd 88 d0 6c 3d d0 e9 0d 3e
       -0.029161794 -0.08238918 0.05781606 0.13858724
0000a0 a6 50 2f 3b 28 04 0d bd d0 72 18 3d 1a 1b cf bd
       0.002675095 -0.03442779 0.03721887 -0.10112591
0000b0 15 86 b8 3c 39 5f 82 bd 80 f1 9c 3c 5c 09 9d 3d
       0.022524873 -0.063658185 0.019158125 0.07667801
0000c0 1c a8 d9 3d 33 16 89 3d c1 b1 0a bd b0 6a 4e ba
       0.106277674 0.06693687 -0.033860926 -0.0007874174
0000d0 d0 f5 83 3b 34 c6 a3 3d 85 aa a3 3c 7f b9 54 3c
       0.004027106 0.079967886 0.019978771 0.012983679
0000e0 cd 93 b7 3c 77 0f 6d 3c 83 a5 00 bd 01 cc 6a bd
       0.022409344 0.014469019 -0.031407844 -0.05732346
0000f0 2c a5 fd bb 91 cf f8 bc 37 de 10 3e 25 1c 95 3d
       -0.0077406373 -0.030372413 0.14147268 0.07280759
000100 7e d7 83 bd bf 8b 93 3c f3 18 7e 3d 16 be 88 3d
       -0.06437586 0.018010972 0.062035512 0.06676881
000110 b3 61 83 3b 6d a1 88 3c 14 62 96 bd e4 80 0d 3d
       0.0040094494 0.016678536 -0.07342926 0.034546748
000120 39 d7 08 bd 82 f6 47 bd b9 15 40 3c 4b 2f d1 bd
       -0.033408377 -0.048819073 0.011723929 -0.102140985
000130 a9 17 d4 3d 47 a2 4d bd df 53 6d 3c d3 ed 6d bb
       0.10356075 -0.050203588 0.014485328 -0.0036305084
000140 0d ef c7 3d 62 ed 32 3c 12 90 34 3d 1a 11 7d 3b
       0.09762392 0.010920854 0.04408271 0.003861493
000150 fc 89 32 bc fa 36 b8 3d 7b c5 4f 3d b7 d2 ca bc
       -0.010897156 0.08994861 0.05072544 -0.02475868
000160 71 10 ea 3c 4f 36 e3 bc d6 9b 87 3c ae 1a fc bb
       0.028572293 -0.027735857 0.0165538 -0.00769361
000170 5b fb 58 3d ce d7 7d bd 97 73 c2 3d aa 21 88 3c
       0.052974086 -0.061973386 0.09494703 0.016617615
000180 bb ee 2d 3d 2c bc 5d bc 8d e1 b6 bd 96 28 84 bd
       0.042464 -0.013533633 -0.08929739 -0.06453054
000190 0a 54 ee 3b c9 fc ae bd 0d e0 fa bd f7 6d 65 3d
       0.007273202 -0.08544309 -0.122497655 0.056013074
0001a0 2f aa da 3d 39 c5 87 bd 93 00 98 3d 75 f6 d2 bd
       0.10676991 -0.06629414 0.074219845 -0.10300914
0001b0 a2 ff 6b 3c 85 bc 36 bb a6 b8 a8 3c 5f 95 86 3d
       0.014404209 -0.0027883362 0.02059586 0.06571459
0001c0 b8 bc 91 bd 9a 5c 79 bd 4d e1 68 3b 0c a4 a6 3d
       -0.07116073 -0.060879327 0.003553468 0.08136758
0001d0 37 f6 1c bc f6 05 14 bc d8 6b d4 ba ba 25 f7 bd
       -0.009580187 -0.009034624 -0.0016206456 -0.12067743
0001e0 3b d6 09 3e f0 1b 0c bd fb 5f b2 3d cf c8 47 3d
       0.13460629 -0.03420633 0.08709713 0.04877549
0001f0 1f b3 5b 3c b2 74 a4 3d 01 19 89 3d fb 16 8a 3d
       0.013409405 0.0803007 0.06694222 0.067426644
000200 09 2a ec bd 1c 22 81 bb fc 03 07 3e 76 54 a7 3d
       -0.11531455 -0.0039408337 0.13185114 0.081704065
000210 30 41 92 3c e1 64 ca 3b bc 8d ca 3c 00 30 ef bc
       0.01785335 0.0061765765 0.024725787 -0.029197693
000220 ea 8a 2b 3d 51 67 81 bc a5 7c 81 3a a5 be 41 3c
       0.041880526 -0.015796335 0.0009879066 0.011825238
000230 90 7f 94 3a 1a 58 96 3c 88 0e d1 3c 28 68 ac 3d
       0.001132952 0.018352557 0.025519624 0.08418304
000240 d3 a1 ea 3d 4d 48 4e 3b 6e 2f bb bc e5 79 b8 bd
       0.11456647 0.00314762 -0.022849765 -0.090076245
000250 af e8 af 3c ce 03 19 bd b6 61 03 3d 48 43 26 bd
       0.021473257 -0.037357144 0.032075606 -0.04059151
000260 f9 5b 23 3d 69 73 a1 3d 28 7b 8f 3c 46 41 77 3c
       0.039882634 0.07883341 0.01751478 0.015091246
000270 e6 b0 47 3c 48 e0 e4 3c f8 c9 fa bc d5 49 71 bd
       0.012188172 0.027938977 -0.030613884 -0.058908302
000280 6b 48 20 bc 44 1e 5e 3c fd a8 7b bd 9f 15 8c bd
       -0.009782891 0.013557021 -0.061440457 -0.068400614
000290 eb 72 38 3d ad 44 85 3d ab 5c c8 bc fe d8 12 be
       0.04503147 0.065072395 -0.02445825 -0.14340588
0002a0 d2 4b e3 3c 2e 4c 29 bb 2d 70 b3 3b eb d4 67 bc
       0.027746115 -0.002583276 0.005476019 -0.014149885
0002b0 b1 ac 8a 3d 14 87 76 bd f1 49 52 3c 86 b2 9a 3b
       0.067712195 -0.060187414 0.012835012 0.0047209887
0002c0 c4 17 e4 3c e1 0b fb 3b 70 a6 e1 bd b1 25 ab bc
       0.027843364 0.007661328 -0.110180736 -0.020891996
0002d0 b5 8d 2e ba a3 1a 3a bd 70 f2 56 bd b1 ab de 3c
       -0.0006658689 -0.04543556 -0.0524773 0.027181478
0002e0 c0 f5 02 bd d2 b9 7f 3d dd 91 32 3d 4b 51 8a 3b
       -0.031972647 0.06243307 0.043596137 0.0042211167
0002f0 33 b3 42 3d 01 4c fc bc 68 39 11 3c dc 79 8c 3d
       0.04753418 -0.03079796 0.008863784 0.0685918
000300 c8 c2 aa 3d 57 ce 68 bd d3 1c b0 bd dc f9 6b 3d
       0.08337933 -0.056837406 -0.08599248 0.05761133
000310 1a b6 90 bd 16 10 3d 3d c8 56 03 bd 45 69 fc bc
       -0.07065983 0.04615792 -0.032065183 -0.030811915

mu.4.weight f4 [12, 200]
000000 99 d8 0c be dd 0c 90 3e e2 79 91 3e bf bd a5 3e
       -0.137545 0.28134814 0.28413302 0.32371327
000010 1c 5a 8d 3e 59 52 e1 bc 0b 9e 58 3e fb df c0 bd
       0.2760781 -0.027505087 0.21154039 -0.09417721
000020 0c 43 13 be 95 de 6f be f3 95 91 bc 5e a5 f9 3d
       -0.14381045 -0.23424752 -0.017771697 0.121897444
000030 cb 45 6d be 85 eb 0d 3e ac 21 01 3e 23 43 2f 3e
       -0.23171155 0.13859375 0.12610501 0.17115454
000040 89 a4 6e 3d 83 26 25 3e bf 36 63 be ea 11 5e bd
       0.05826238 0.16127972 -0.22188853 -0.054216303
000050 c9 90 3b be 13 55 f3 3d c0 6e 59 bc f8 4d ae bd
       -0.1831695 0.11881461 -0.013271034 -0.08510965
000060 98 71 c7 bd ad 06 f0 3d 18 de 81 3e 31 3b 27 be
       -0.09738463 0.11720023 0.25364757 -0.16331173
000070 d1 f6 c3 3d 61 cc 09 3e d4 3c b4 be 86 c9 df 3d
       0.09568561 0.1345687 -0.35202658 0.109271094
000080 b2 24 d4 bd c0 99 ab be e0 8d 36 be a5 90 47 3e
       -0.103585616 -0.3351574 -0.17827559 0.19488771
000090 12 e9 5d be 14 44 c3 bd c3 ef bb 3d 43 58 18 3e
       -0.2167094 -0.09534469 0.0917659 0.14877419
0000a0 4d 65 28 be fc 34 e0 bc c3 b8 4f bd 96 45 84 3d
       -0.16444893 -0.027369015 -0.050713312 0.06458585
0000b0 c3 6d 3e bd 39 21 30 3d c7 16 71 be b6 4e a7 bd
       -0.046491396 0.043000434 -0.23543845 -0.0816931
0000c0 b8 85 d2 3c f0 d3 21 3e 9f ab fd 3d 82 ed be 3d
       0.025698528 0.15803504 0.1238625 0.09322645
0000d0 1e 49 2e bd f3 bb 8f 3e 33 e3 86 3e b8 74 96 3c
       -0.0425502 0.2807308 0.26345214 0.018366203
0000e0 0d aa f4 bd cc 68 8a bd da 36 cc 3d 80 2b 23 be
       -0.11946497 -0.0675827 0.099713996 -0.15934563
0000f0 b9 ac 9f bd 1c 4f af 3b 78 da 18 3e 83 13 74 be
       -0.07796616 0.0053500067 0.14927089 -0.23835568
000100 54 14 2d 3d e9 59 aa 3d 94 a8 2b be a1 eb 48 bc
       0.042255715 0.0831793 -0.16763526 -0.01226321
000110 d6 80 0d 3e 35 1b 87 3e 34 f5 d7 be aa c4 ba bc
       0.13818678 0.26387945 -0.42179263 -0.022798855
000120 d8 69 8a bd 41 6e 86 bd d6 b8 ea bd a3 fd a6 be
       -0.06758469 -0.06563998 -0.11461036 -0.32615384
000130 69 f4 c8 bd 04 45 84 bc 80 2d 25 be ad 0d 6a bb
       -0.098122425 -0.01614619 -0.16130638 -0.0035713718
000140 bb 9a b9 bd da ac 88 be b8 63 53 3e 86 83 0e 3d
       -0.090627156 -0.26694375 0.20643508 0.0347934
000150 b2 e5 48 be 27 c3 f6 3c ca d3 3d be 10 6a 31 3e
       -0.19618872 0.030122353 -0.18537822 0.17325616
000160 14 4a e4 bd 21 29 9a 3e 5c cc 90 3d 1c 17 9b 3c
       -0.11146942 0.30109504 0.070702285 0.018931918
000170 12 fd e0 bd e8 5e 12 bd ff fd dc 3d a9 f6 41 3d
       -0.10985769 -0.03573504 0.107906334 0.047354374
000180 88 b7 01 be ec 75 45 3c 8d dc 53 3d 47 ff 30 3e
       -0.12667668 0.012052041 0.051724005 0.1728488
000190 a5 f1 d3 3d 25 8f 80 be c3 82 64 3e 88 b4 32 3c
       0.103488244 -0.2510921 0.22315507 0.0109073
0001a0 7d bf 00 3e f2 e1 fc bd 06 26 fa 3c d2 64 3c be
       0.12573047 -0.12347783 0.03053571 -0.18397835
0001b0 97 9d 0d 3e 3d 7a dd be 55 fa 63 bd 76 91 87 bd
       0.13829647 -0.43257323 -0.055658657 -0.06619541
0001c0 e4 7d 74 3e 57 5c 99 3c 20 0d 1b 3e 0f f3 49 be
       0.23876148 0.018720789 0.15141726 -0.19721626
0001d0 94 eb 54 3e f7 a2 da bc aa 48 3f bd ca cc a7 bc
       0.20792991 -0.026689036 -0.046700157 -0.020483393
0001e0 59 bf 40 3e 06 ff 1f 3e 4b e1 e0 3c 4c ca ad be
       0.18822993 0.15624627 0.027451178 -0.33943403
0001f0 88 86 b5 3d 73 74 7e bb 1c d6 5c 3e f4 95 49 3d
       0.088635504 -0.0038826733 0.21566051 0.049215272
000200 ac 7b eb 3d fd 6e 21 bd 98 e8 c5 bd ac 84 06 3e
       0.11498198 -0.039412487 -0.09663504 0.13136548
000210 60 40 64 be d3 53 61 3e 7a d0 8c be 1c e9 d3 bc
       -0.22290182 0.22004633 -0.27502805 -0.025867991
000220 c0 e0 ec 3d 68 b6 75 be 01 92 63 3d 97 97 27 3e
       0.11566305 -0.23995364 0.055559162 0.1636642
000230 85 51 01 3c 22 a8 cb 3d e7 4e 03 3e e3 14 3a bb
       0.007892971 0.09944178 0.12823068 -0.0028393797
000240 e2 6c bc be e9 49 2c 3d 66 98 05 be ce 4a ea bd
       -0.3680182 0.042062674 -0.13046417 -0.11440049
000250 02 89 c8 3d 63 44 2b bd d3 91 99 bd b4 37 48 bd
       0.09791757 -0.041813266 -0.07498517 -0.048881248
000260 93 2f 45 3c 34 4e 99 be f5 32 3e be e6 c4 3a 3e
       0.012035268 -0.29942477 -0.18574126 0.18239173
000270 da 07 56 3e f2 b4 41 3d d8 82 3e 3d 22 50 b9 bb
       0.20901433 0.047291704 0.0465115 -0.0056553045
000280 34 a6 d6 bd a2 6b 00 be 8d 94 76 bc da 52 c8 be
       -0.104809195 -0.12541059 -0.015050066 -0.3912571
000290 83 58 ef bd 55 32 37 3e de ef 05 bd bb a8 20 be
       -0.11686804 0.17890294 -0.03269946 -0.15689366
0002a0 00 05 f7 3d e5 65 32 bc e0 6f 36 be 1f 09 ba 3d
       0.120615005 -0.010888551 -0.17816114 0.09083771
0002b0 a4 b3 68 be e1 12 3d 3f d4 e6 0f be 1a 31 6e 3c
       -0.22724777 0.7385693 -0.14052898 0.014538074
0002c0 d7 93 05 be 0e b8 38 3e 92 a8 90 3e b7 a5 83 3d
       -0.13044678 0.18038961 0.2825361 0.06428092
0002d0 28 fd 06 be f3 83 8c bd 6e df 7a 3d 01 c3 66 3d
       -0.13182509 -0.06861105 0.061248235 0.056338314
0002e0 86 1d 2f be c9 a9 f8 3d 35 0d 0f be 59 4f 1a be
       -0.17101106 0.12141759 -0.13969882 -0.15069331
0002f0 43 fd 09 3e c7 e3 23 3d cc b8 ea bc b4 9c d5 3a
       0.13475518 0.040012147 -0.028652571 0.0016297312
000300 6d 46 d8 bd 64 51 9d be ab 64 88 3e 40 cb c9 3d
       -0.10560308 -0.3072616 0.26639304 0.0985322
000310 b8 e9 0d 3d 56 cc 9b 3d 32 c7 c2 3e a3 f1 33 3e
       0.03464672 0.07607333 0.380426 0.17572646
000320 71 76 03 3d 6b 31 96 be 29 3f 90 be e3 d8 e7 3d
       0.032095376 -0.29334578 -0.28173187 0.11320665
000330 43 76 a8 bd 6c 30 37 be 06 bd 11 3e 1f f4 2f 3e
       -0.08225682 -0.17889565 0.14232263 0.17182969
000340 68 88 86 be fa b1 a3 3d 74 a3 f4 3c d9 31 87 3d
       -0.26275945 0.07992931 0.029863097 0.066013046
000350 6c 17 52 3e 74 6e 1a be aa 78 93 be ec b1 bd bd
       0.20516747 -0.15081197 -0.28802997 -0.092624515
000360 69 3a a1 be 05 dc 2b 3e a5 d8 73 bd 9b 69 21 3b
       -0.31489876 0.1678315 -0.05953278 0.0024629596
000370 c0 cc 1f 3e 6e cd 0c be ec a8 a6 3d c3 72 e9 3d
       0.1560545 -0.1375024 0.08137688 0.11398842
000380 5c 0b c7 bb 0e 52 64 bd e2 c9 5c 3d a5 1f 80 3d
       -0.006074352 -0.055742316 0.053903468 0.06256036
000390 17 5e d6 3c df 39 bc bd e0 7e ba 3c 25 c3 c9 bd
       0.026167912 -0.091907255 0.022765577 -0.09851674
0003a0 31 6b cc bd 13 d6 59 3e f9 09 18 3b e9 0c 50 3d
       -0.09981383 0.21273069 0.0023199304 0.050793562
0003b0 50 50 f3 3d 78 7a e2 3d f2 c7 62 3e 96 8f 1f 3e
       0.11880553 0.11058515 0.22146586 0.15582117
0003c0 21 f5 99 3d 42 64 00 3e f6 9b a7 bd ad a8 2d 3e
       0.07517458 0.12538245 -0.08184044 0.16958876
0003d0 d7 ba 28 3b 52 2b da bd c5 51 81 be 83 2b 10 bc
       0.002574613 -0.10652794 -0.25257698 -0.0087994365
0003e0 7e c4 8a 3e 71 5a cf bd 27 f8 93 3e a8 0b 72 be
       0.27103037 -0.10124672 0.28900263 -0.23637259
0003f0 a1 22 3c 3d a7 65 19 3e 93 eb b3 be 11 20 67 3e
       0.045931462 0.14980184 -0.35140666 0.22570826

mu.4.bias f4 [12]
000000 88 63 66 3d f4 56 92 3d 1b c9 2b ba b6 c6 6f 3c
       0.056247264 0.07145491 -0.00065530994 0.014634779
000010 31 1a 31 bd f9 ba 98 bd ac 95 c2 3b 04 52 27 3d
       -0.04323787 -0.07457537 0.0059382524 0.0408497
000020 c2 63 81 bd ae 04 18 3d bb 13 6d bb 51 46 c7 3c
       -0.063178554 0.037113838 -0.003617509 0.024325522

reward_fun.0.weight f4 [200, 14]
000000 20 10 d8 3d c2 3e ba be 45 77 29 3c 9f 15 ce 3e
       0.105499506 -0.36376005 0.0103433775 0.4025087
000010 aa 49 49 be 67 a2 68 3e 0e 1c 92 be f6 85 09 3d
       -0.19657007 0.22718202 -0.2853703 0.03357502
000020 ed f8 1e be 02 59 4b be 16 39 23 3d 1e b8 ea bc
       -0.15524645 -0.19858173 0.039849363 -0.028652247
000030 7b df f2 3d ee ac 65 3d 21 86 97 3e 19 6f bc 3e
       0.11859032 0.05607312 0.2959452 0.3680351
000040 35 da 72 be 1f 2f 1d be b7 b0 0c bd 4e f3 a0 3d
       -0.23716052 -0.15350007 -0.034348216 0.07858907
000050 e3 ae 8b bc 24 10 e2 3d e1 9a 8a 3e 59 a8 3d 3e
       -0.017051166 0.11038235 0.27071288 0.18521251
000060 f6 a5 58 3d 4e 07 07 3e 1c 98 85 3e 14 52 86 3e
       0.052892648 0.1318638 0.26092613 0.26234496
000070 01 a0 32 be 67 b7 ef 3d 95 f5 24 3e 67 83 82 be
       -0.17443849 0.11704903 0.16109307 -0.25490877
000080 0e 20 51 3e b7 af b0 be 89 88 21 3e ab fd 35 3e
       0.20422384 -0.3450906 0.1577474 0.17772548
000090 e7 47 6c 3e 26 3e f2 bd 71 61 ac be 5d 98 9e 3d
       0.23074304 -0.1182826 -0.33668092 0.07743905
0000a0 a8 87 80 be d5 05 ec 3d 3d e2 ab 3e 27 46 3d 3e
       -0.25103498 0.1152455 0.33571044 0.18483792
0000b0 88 35 55 3c 93 3a 82 3e 46 66 96 bd 57 11 81 3e
       0.013013251 0.25435314 -0.07343726 0.25208542
0000c0 b6 3d b0 bc 99 10 87 be f4 12 60 3b 12 7e df bd
       -0.021513801 -0.2637985 0.0034190984 -0.10912718
0000d0 bd c7 93 bc 32 39 d1 3d d6 5b 80 3e 43 00 8e be
       -0.018039579 0.10215987 0.25070065 -0.27734575
0000e0 90 41 a7 3e dd 7a 0c be a2 00 99 be 0e 7c 74 3d
       0.32667208 -0.13718744 -0.29883295 0.05968862
0000f0 bc d4 59 3e 54 c2 80 bd d5 78 bf bd 66 c3 86 3e
       0.21272558 -0.06287065 -0.09349219 0.26320952
000100 39 9c 29 be a8 13 69 3e c5 72 65 3c fa 99 46 3b
       -0.165635 0.22761405 0.014004414 0.003030418
000110 d7 71 76 3e 5d 2f b2 be 93 b7 7d 3d be 1c 3a bd
       0.24066864 -0.3480176 0.06194265 -0.045437567
000120 d3 3b ab bc a8 40 4c 3e 12 34 22 3e 1c 4e ec bd
       -0.02090255 0.1994654 0.15840176 -0.11538336
000130 7c e1 37 bd c9 0e 0d 3e c8 d8 4e be e0 4f 56 be
       -0.044892773 0.13775171 -0.20199883 -0.20928907
000140 d2 45 41 be e4 2f 82 bd 94 3f c7 3e 73 07 06 3e
       -0.1887429 -0.06356791 0.38915694 0.13088779
000150 86 55 ed 3d e2 89 9e 3d d0 0c 80 be 2e a8 c0 bd
       0.11588578 0.07741143 -0.25009775 -0.09407078
000160 a2 fb 13 3e 76 16 41 3d 66 9c 87 3e 16 ef 7c 3b
       0.14451459 0.04714056 0.2648651 0.0038594655
000170 24 89 8a 3e 26 ff a2 bd 84 e3 12 3e ce 16 57 be
       0.27057755 -0.07958822 0.14344603 -0.21004793
000180 f7 2a 6d be 79 6f c8 3d ec 9d 2a 3e 14 d9 0f bd
       -0.23160921 0.09786887 0.16661805 -0.03511913
000190 c6 41 72 3d 88 fc 35 be 1c aa 32 3e af 39 b4 3d
       0.059144758 -0.17772114 0.17447704 0.08800065
0001a0 22 8f 80 be ef c0 12 3e d0 54 39 3e f7 4f 86 3e
       -0.25109202 0.14331411 0.1809876 0.26232883
0001b0 c2 1e bf be 09 ed 80 3e 42 50 08 3e ad 5a 3e bd
       -0.37328154 0.25180843 0.13311866 -0.046473194
0001c0 64 4b a3 3d 67 ad 89 be b6 53 a5 3d 3d 36 71 be
       0.07973364 -0.26890108 0.08072607 -0.23555847
0001d0 8c 30 96 3e cf 65 42 3d 6d fd 6f 3c 07 2b 62 be
       0.29333913 0.047460373 0.014647824 -0.22086726
0001e0 7c ff 94 be 58 76 de bd 03 64 53 be 8b 1e 84 3e
       -0.2910117 -0.10862416 -0.2064362 0.25804552
0001f0 6e 99 40 be 7d 8b 5e 3d ac 95 28 3e a6 07 b4 3d
       -0.18808529 0.054332245 0.16463345 0.08790521
000200 f2 5d fe bd dd d4 07 bd f1 1b 2f 3e 00 a3 8a 3e
       -0.124202624 -0.033161987 0.17100503 0.27077484
000210 09 e6 a2 3d 12 f1 9f 3d 79 d8 04 3d 05 56 a7 bd
       0.07954032 0.078096524 0.032433007 -0.08170704
000220 b6 c3 8e 3e 82 d9 dd bd 80 7a 2c be 72 b5 bd bd
       0.2788369 -0.10832502 -0.16843605 -0.092631236
000230 a9 98 7b 3e cb 82 5d be 58 01 eb bc 87 5c 73 3e
       0.24569954 -0.21631925 -0.028687164 0.23765765
000240 40 d0 67 3e 43 b8 1e be d9 b1 2a be 6f 1c b5 bb
       0.22638035 -0.15499978 -0.16669406 -0.005527071
000250 79 00 43 3e 11 bc 95 bc d9 57 09 be 24 41 a1 bd
       0.19043149 -0.018278154 -0.13412417 -0.07873753
000260 87 f6 23 be 60 51 cc be 7e 08 85 3e 1d a9 85 be
       -0.16012011 -0.39905834 0.25983042 -0.26105586
000270 c1 67 2d 3e 90 18 fc 3c 08 e2 37 3e e5 f9 6a be
       0.1693411 0.030773431 0.17957318 -0.2294689
000280 48 19 7a 3e 57 5d 77 3e cf b1 37 3d 05 59 9d bd
       0.24423707 0.241567 0.044847306 -0.07682995
000290 91 ac d6 bd 3e d3 37 bd da b2 83 bd f4 39 69 be
       -0.10482133 -0.04487919 -0.064305976 -0.22776014
0002a0 6a d5 d7 3d 5b e2 1d 3d a2 b0 97 be 5b 2f 09 3e
       0.105387524 0.038545948 -0.29626948 0.13396971
0002b0 fd 6b bb bd 75 e5 2e 3e f3 71 93 bd 6d ff 05 3d
       -0.091514565 0.17079718 -0.071994685 0.032714296
0002c0 89 9d 58 be 7b 41 21 3d 0f be c1 3d 31 29 e1 3c
       -0.21153845 0.039369088 0.09460079 0.027485462
0002d0 55 7a a5 3e 57 34 cb 3e e9 de 1a 3d 15 46 7c be
       0.32319894 0.3968837 0.03781024 -0.24636109
0002e0 a1 aa 0c bd 1c c1 9c 3e 21 e2 9a 3d c5 f2 57 3e
       -0.034342412 0.3061608 0.07562662 0.21088703
0002f0 18 69 9e 3e 7e ee 13 bd 31 96 88 be a0 6e 39 3e
       0.30939555 -0.036116116 -0.26677087 0.18108606
000300 50 8a 25 3e 0d 49 f9 bd 6b 94 94 3e 9c 53 a6 3e
       0.16166043 -0.121721365 0.29019484 0.32485664
000310 1c 22 c1 3d 04 c5 7d bd 30 d6 86 be e6 cb 0e be
       0.09430334 -0.061955467 -0.26335287 -0.13944969
000320 a5 a0 8d 3d 7c 27 54 be cb 2c 3b 3e ca eb a3 3e
       0.06915406 -0.20718187 0.18278806 0.3201583
000330 f8 83 9e 3d 09 6d 31 be 4b 17 a5 be 3b a6 57 3d
       0.07740015 -0.1732675 -0.32244334 0.052648764
000340 35 cf 97 3e ab da 49 3e e9 82 19 3e db 6a 90 3e
       0.29650274 0.19712321 0.14991345 0.28206524
000350 6f f7 41 3e 9b d0 9c 3e 8a bd 18 3e d0 e0 85 3e
       0.18942045 0.30627903 0.14916053 0.2614808
000360 fa 97 51 3e 24 3a cb bc 5b e4 4b be 69 06 c3 3d
       0.2046813 -0.024807997 -0.1991133 0.09522707
000370 d9 45 3c bd 4b 8c b0 3e 89 c7 55 bd 37 f2 37 be
       -0.04596505 0.34482035 -0.052192245 -0.17963491
000380 55 4a 01 be 2f 56 f3 3d a3 c0 9d 3c 40 f8 eb bd
       -0.12626012 0.118816726 0.019256895 -0.11521959
000390 de c4 12 3d 1a 48 3f be 39 46 49 3e fe fe fe 3d
       0.03583228 -0.18679848 0.19655694 0.1245098
0003a0 73 d3 29 bd 2c c8 3b be f1 d9 d6 bd 33 f6 03 3e
       -0.04146142 -0.18338078 -0.10490788 0.12886886
0003b0 b8 75 9d 3e f7 54 9b be 36 65 c7 3d 8f ac 31 3e
       0.30753875 -0.3033826 0.09736101 0.17350982
0003c0 c3 6c 92 3e 9e c2 89 be 8c 2a 73 bd 86 ca 4c be
       0.28598604 -0.26906294 -0.059366748 -0.19999132
0003d0 b5 14 19 be 94 ae aa 3e 9e be 6a bd c5 e1 40 3e
       -0.14949305 0.33336318 -0.057310693 0.18836124
0003e0 58 06 4f bd 31 a1 35 be fa 0b 84 3e 77 48 53 bd
       -0.05054316 -0.17737271 0.25790387 -0.05158278
0003f0 9b 46 4b 3e f2 29 fc bd 99 e0 ec bd 4c dd 4c be
       0.19851153 -0.12312688 -0.11566276 -0.20006293

reward_fun.0.bias f4 [200]
000000 7e f3 5e be 96 4b 53 be b2 6d a4 bd 32 b5 70 3e
       -0.21772572 -0.20634302 -0.08028735 0.2350662
000010 17 69 41 be 27 38 0a be 65 cd 48 be 48 43 3f 3e
       -0.18887745 -0.13497983 -0.19609602 0.1867801
000020 fc 3b d3 bd ad 4a ba 3d 35 a8 9e bd 96 36 2c be
       -0.103141755 0.090962745 -0.07746927 -0.16817698
000030 55 88 67 3e e7 5b 2a bc d0 1f 3e 3e 41 11 8b be
       0.226106 -0.010397888 0.18566823 -0.271616
000040 03 e4 a1 3d e1 51 6a be 38 3a 34 be 20 af 39 3e
       0.07904818 -0.22882797 -0.17600334 0.18133211
000050 33 2e ef bd a7 5b 60 3e d3 c0 4c 3d 32 94 8e be
       -0.11678734 0.21909963 0.04998858 -0.2784744
000060 63 15 44 3e 95 26 78 bd e4 fb f7 3d ee 20 02 3d
       0.19148783 -0.06058367 0.12108591 0.031769685
000070 e8 f6 84 3e 35 87 97 bd 18 38 61 be 3d 2b f7 3d
       0.25969625 -0.073988356 -0.21994054 0.12068794
000080 53 d7 8a be f6 f3 70 3e 63 98 18 be ff 0d 68 be
       -0.27117404 0.23530564 -0.14901881 -0.22661589
000090 fb 6a 79 be 49 a7 3d 3e bc 04 af 3c 44 7c cd bb
       -0.24357216 0.18520845 0.021364562 -0.006270917
0000a0 22 72 47 be cf fc 13 3e 5e 44 48 be 26 f4 73 be
       -0.19477132 0.14451908 -0.1955733 -0.23823604
0000b0 30 da 66 bb 71 ad 2a be 06 c5 23 be 01 8d 78 3e
       -0.0035225265 -0.16667725 -0.15993127 0.24272539
0000c0 af 32 68 bb 10 e6 22 be f9 d5 9d 3d 8d c1 4f be
       -0.00354306 -0.15908074 0.07706828 -0.20288678
0000d0 a1 92 85 bd b5 86 64 3b 4e 62 df 3d e3 b0 0a 3e
       -0.06522108 0.003487033 0.10907422 0.1354404
0000e0 b0 47 59 bd 2c 6a 54 3c 50 38 24 be c1 e4 db bd
       -0.053046882 0.0129647665 -0.16037107 -0.10736991
0000f0 9b 9c 5b 3d cd 31 23 3e 50 5c 07 be d3 b3 18 3e
       0.053616147 0.15936966 -0.13218808 0.14912347
000100 13 6f cd bd ac 61 c3 3d c9 60 1a 3e 0e c8 77 3d
       -0.10030951 0.09540114 0.15075983 0.06049352
000110 d9 4d 14 3e 3e 31 04 be 89 8b dd 3d 3b cf f0 bc
       0.14482822 -0.1290941 0.1081763 -0.02939569
000120 15 df 98 bd fe a9 c8 bd da b0 24 3e 42 95 fe bd
       -0.074644245 -0.097980484 0.16083089 -0.124308124
000130 dc 52 53 3e f4 d8 1d be 10 fc 54 3e 74 17 08 3d
       0.20637077 -0.15414792 0.20799279 0.03322549
000140 27 9f 2d 3e 28 ca d1 3d 61 85 7d bd d4 a1 99 be
       0.16955243 0.10243636 -0.06189478 -0.30006278
000150 44 4f 7b be b2 42 43 be dc 9a 2a be 9b a6 77 be
       -0.24541956 -0.19068411 -0.16660637 -0.24184649
000160 64 23 28 bd 7a 5a 3c 3e ff 27 c4 3d 1e 06 6f bd
       -0.041049376 0.18393889 0.09577941 -0.058355443
000170 18 d6 36 3e 41 2d 67 3e 5c e6 28 be d7 16 2b 3e
       0.17855108 0.22575857 -0.16494125 0.16707931
000180 00 80 03 be 35 26 d4 bd 7c f1 dc 3d 92 23 01 3d
       -0.12841797 -0.1035885 0.10788247 0.031528063
000190 23 8a d8 bc 3f 08 e2 bc d5 4a c5 3c 48 87 0a bd
       -0.026433056 -0.027591823 0.024083534 -0.03382042
0001a0 58 43 dd bd 47 70 78 3e 27 0c 22 be 76 4a 8f be
       -0.108038604 0.2426158 -0.15824948 -0.27986497
0001b0 e9 84 c1 bd da 1d 4a be ac 11 e9 bd b5 c2 88 be
       -0.09449179 -0.1973795 -0.11380324 -0.2671105
0001c0 69 38 28 3c 83 81 f6 bc 77 7a 05 3e 96 42 34 3e
       0.0102673555 -0.030091053 0.13034998 0.17603526
0001d0 77 ad 1f 3e 55 dd 6d be 24 7b 88 3e 09 6a 01 be
       0.15593515 -0.23228963 0.2665645 -0.12638105
0001e0 e0 80 bf bd 28 4e 35 be 5f c7 4d bc 28 49 83 bb
       -0.09350753 -0.17705595 -0.012559741 -0.0040065236
0001f0 15 80 3f be 6d ac 7d 3e 46 00 fa 3d 45 b0 ab 3d
       -0.18701203 0.24772806 0.122070834 0.0838323
000200 0c bb ae bd 47 2b 29 be fc 1a 0b be df 4d 79 3e
       -0.0853177 -0.16520415 -0.13584512 0.24346112
000210 83 39 65 3e 9b fb 00 3e c5 24 26 3e 7c 4c 36 be
       0.2238522 0.1259598 0.16224964 -0.17802614
000220 f8 08 6d be 78 bc c8 3c 2e b5 74 bd 8f 9c 37 3a
       -0.23147953 0.024503931 -0.0597431 0.0007004225
000230 fb c8 d1 bd e8 f5 40 3e 40 e8 a3 be 7f ae 54 3e
       -0.10243412 0.18843806 -0.3201313 0.2076969
000240 66 6f 64 3d 36 4f be 3d 85 7d fb bd 30 25 30 3d
       0.0557703 0.09292452 -0.122798 0.043004215
000250 2c f7 9d be a9 8f 36 bd 2c d7 64 3d 2c 8a f6 bd
       -0.3085264 -0.0445706 0.055869266 -0.12038073
000260 0c 31 2d bd b5 98 55 bd 67 42 4b 3d f4 c7 3e be
       -0.042283103 -0.052147586 0.049623873 -0.18630964
000270 7a 67 d2 bb c4 94 b1 bb 75 44 2e 3e 81 9c 27 3e
       -0.006421027 -0.0054193456 0.17018302 0.16368295
000280 1b 09 71 bd 9c 53 95 bd 28 f6 5b 3b eb 61 fc 3d
       -0.058846574 -0.07291338 0.0033563469 0.12323364
000290 69 dc 8c 3b 0a 7f 72 be a2 8a 4c be c8 ec 96 be
       0.004298736 -0.23681274 -0.19974759 -0.29477525
0002a0 3c 96 b0 3d 4d 5a 60 bd 44 bf 0a be 7b 91 bc bd
       0.08622405 -0.054773618 -0.13549525 -0.09207436
0002b0 54 4e 1e 3e d5 5d 81 3e 5c 74 0b 3e 5c 53 26 3e
       0.15459567 0.252669 0.13618606 0.16242737
0002c0 bf 92 12 3e 16 d7 41 3e 80 6f 4b 3e 9f ed 04 3e
       0.14313792 0.18929705 0.19866753 0.1298127
0002d0 97 8f cf bb a8 4f 82 bd 2d 99 34 be fe 5a 3a bd
       -0.006334256 -0.063628495 -0.17636557 -0.045496933
0002e0 94 f4 38 be b8 66 5b be 03 7b 7e bd 59 27 82 be
       -0.18062049 -0.21425903 -0.062129032 -0.25420645
0002f0 0f 35 2c be 56 de 73 be d4 ea 86 3e dc 7a 30 be
       -0.16817115 -0.23815283 0.26351035 -0.17234367
000300 0d a7 0e 3e 08 c5 b5 bd 4d ce 76 bd 26 6e 1a 3e
       0.13930912 -0.08875471 -0.060255338 0.15081081
000310 fa b6 71 be 14 2f 19 3e 6f 53 75 be cd 4a 17 bd
       -0.23604956 0.14959365 -0.23957609 -0.03693657
