experiments/data/sawyer_clutter_200steps_10H/mpc/2021-06-23_09-56-42_clutter_200steps_10H/model_4200.pt (torch_old, 358082 bytes, 12 tensors)

log_std f4 [1, 12]
00000000: dccb f3bf 94b7 d8bf 0617 a7bf 0990 7cbf
00000010: 0c65 88bf 7a66 3abf 674c 88bf 6a05 3fbf
00000020: e72f 9cbf a166 74bf c442 11c0 d705 12c0
-1.9046588 -1.6931024 -1.3053901 -0.9865728 -1.0655837 -0.72812617 -1.0648316 -0.74617636
-1.2202119 -0.954691 -2.2697 -2.2816064

mu.0.weight f4 [200, 14]
00000000: cf22 013e 6613 1c3f 47ad cabe 6fa6 dc3d
00000010: 4bec 9d3e be9c c13d b8fc 9b3e 515a bdbe
00000020: 9b25 56bd c4e7 a93e 1f3a e0be 6956 12bf
00000030: ac28 50be fb63 7d3d 4c45 5dbe 8380 f23d
00000040: 18c0 9abd 6831 1b3e 1b10 d63c aec7 923e
00000050: 500f 7cbe 75e3 6cbc beb0 9d3e f6a0 c23d
00000060: 8b08 643e c8d7 ea3e aefc 29be 8e10 3cbe
00000070: ba9f 073f 31b7 11be 1447 d83b 1c0c 843e
00000080: b48c 753e 121e 7f3e fa33 abbe 61ff 913d
00000090: 0185 843e 6339 abbe 91a8 883d 4140 3ebe
000000a0: ab61 9bbe a6fc edba 1e35 c63d dc81 95be
000000b0: efd9 f3bd e0db 00bf 3244 363c 3038 143b
000000c0: f305 9e3e 3f8f abbe db9e 2abe b7f7 8abe
000000d0: effb 823e c5a0 80be 11a8 3c3e 091b 363f
000000e0: 66be 0cbe a513 4ebd 57ab 8bbe 7eb1 c5bd
000000f0: 2a24 0fbe 895a 8cbe 3209 6a3e 818b ddbd
00000100: 4672 2c3e b3df c1bc 94d0 d33e 8b54 ffbe
00000110: ff9c 82be 19c4 d03e b931 adbe 7f5f 5cbe
00000120: 4ae1 aebd 4455 6abe cfae 5bbe 40b3 4d3e
00000130: 0341 483e 24c3 8d3b 4f4d 7cbe 24ca d13c
00000140: d6dd 99be 011b 0a3f 6aac 3abd 180b 8abe
00000150: b3f4 0ebd 6e0e de3e 2fb3 d83b 87b0 b1be
00000160: e11a 033f 16b1 34bd 6986 7bbc 343d 493e
00000170: d7f8 bfbe 45f3 3fbc dae4 883e 1de0 803e
00000180: 0421 cc3e 1171 19be 22e2 cdba a0fb ef3e
00000190: b7a2 ccbc 8c63 613b cc53 9abe b80c 9b3e
000001a0: cb8d 01bc bbe0 bdbe 5e2a b93e b916 e33e
000001b0: 5d07 9abe 0fef 8dbd 8803 1bbf c62b 773e
000001c0: 5ffe 24bf 5c38 013e 3211 50be ede6 7bbe
000001d0: 3c6d b63d 0850 a13e b176 4abe 8dcd 58bd
000001e0: 7e95 213e e0d6 80be dad1 813e 1aba 14be
000001f0: e8ad 7e3d d475 babe 9b64 a9be f61c 8cbe
00000200: 8164 a8bc 1f8a 903e 4021 5fbe 4ff9 25be
00000210: 8a8d 8ebe 8e24 3a3e cb81 ff3c 7776 923c
00000220: 04fd 4b3e b3c8 d13e b055 583e 6770 75be
00000230: 7b2b d33e f07e 61bd 001f 083e d268 c13e
00000240: 6760 123e 69e6 6b3e 7722 883e e1eb 6a3e
00000250: 2a34 98be 7ae9 f4bd 6a57 80be c5b6 d0be
00000260: 0351 d53e 5b53 843d 131d 973d f290 f93e
00000270: 38f5 8b3e 9992 a13e 105f 2c3e 9914 aebc
00000280: 9af5 0b3e f0d6 e8bd f3d8 d8be 2686 b1be
00000290: eccc 8c3e 80cd ccbc d6b4 593d 7c00 d9bd
000002a0: 0fee 38be 8646 403e cfd5 abbd feb0 06be
000002b0: 7d9c 3d3e 1405 06be a46c 52be 1530 b3bd
000002c0: 36bc 60be d6a0 8abe 3c63 eebe 947b 93be
000002d0: 2d8f 6dbe 71fc 9a3d 6577 bb3e 5ed1 e83e
000002e0: a964 0dbe 9089 9b3e 14e4 ac3d da8e af3e
000002f0: 615a 133e d725 ef3e b5c0 e73a b9ae 1f3e
00000300: d243 863d e0f1 21bd 84e6 d3be 6237 e73e
00000310: dd9c c4be fd42 41be 1757 03be ec0d a73b
00000320: e34d 8e3c 9ed7 853e 6fdf 523e a55d 02bf
00000330: 8bfd cabe 5c5b 823c 3bf9 6ebe 59ef 01bf
00000340: fcde b23d dc1d 073f 9a40 b4bd 1e43 a83e
00000350: 0336 80be 8990 c23e 6713 b6be 3027 2f3e
00000360: 9e61 51be 7f1c e63d 6351 8d3d 82d7 99bd
00000370: 9e12 513d db12 f03e ab47 09bf 4519 943e
00000380: af6d 5d3e adc6 f03e 1910 54bd 2204 643e
00000390: 8e17 d9be b78c 803e 6e8e c63d ee9b 823e
000003a0: 0f7e 0bbe 8107 e5bd 275b 4cbe 0e2a 103d
000003b0: a9d1 0a3c d9d7 9e3d c0f9 a2be 7aea ab3c
000003c0: 304b c6be 4fa6 3bbd 2120 0abe 3b1b a03c
000003d0: 2886 96be 4016 4a3e ac08 563e 0078 b6be
000003e0: 9ff5 8e3e 372d 2ebe 110e 96be 9e21 243f
000003f0: 86ab a13e b69b f33e 474f e7be 1939 8b3e
0.12610935 0.609671 -0.39585325 0.10773932 0.3084434 0.09453724 0.30466247 -0.36982968
-0.052281957 0.33184636 -0.43794343 -0.571631 -0.20328015 0.061862927 -0.21608466 0.11840918
-0.0755617 0.15155566 0.026130727 0.2866797 -0.24615216 -0.014458527 0.30798906 0.09503357
0.22268884 0.45867753 -0.16600296 -0.1836569 0.529781 -0.14230038 0.00660027 0.2579049
0.23979455 0.24913815 -0.33438092 0.07128788 0.25882724 -0.3344222 0.066727765 -0.18579198
-0.30347952 -0.001815696 0.096781 -0.29200637 -0.11906802 -0.503355 0.0111246575 0.0022616498
0.30863914 -0.33507726 -0.16662161 -0.27142116 0.25582835 -0.25122657 0.18423487 0.71135
-0.13744506 -0.050311703 -0.2727916 -0.096529946 -0.13978639 -0.27412823 0.2285507 -0.10817624
0.16840467 -0.023666238 0.4137007 -0.4986919 -0.25510404 0.4077461 -0.33826998 -0.21520804
-0.08539064 -0.22884089 -0.21453403 0.2008791 0.1955605 0.004326241 -0.24638866 0.025609083
-0.3005206 0.53947455 -0.045574583 -0.2696159 -0.034901332 0.43370384 0.006613157 -0.34704992
0.5121289 -0.044114195 -0.01535187 0.19652253 -0.37494537 -0.011715715 0.267371 0.25170985
0.3986894 -0.14984538 -0.0015707652 0.46871662 -0.024979932 0.003439161 -0.30142057 0.3028314
-0.007907341 -0.37085518 0.36165136 0.44353274 -0.30083743 -0.069303624 -0.60552263 0.24137792
-0.6445064 0.12619156 -0.2031906 -0.2459981 0.089075536 0.31506371 -0.1977184 -0.052930404
0.15779683 -0.25163937 0.25355417 -0.14524117 0.06217757 -0.3641802 -0.33084568 -0.27365845
-0.020555736 0.28230378 -0.21790028 -0.16208385 -0.2784236 0.18178007 0.03118982 0.017878754
0.19920737 0.40973434 0.21126437 -0.2396866 0.4124411 -0.055052698 0.13293076 0.37775284
0.14294587 0.23037113 0.26588795 0.22941543 -0.29727298 -0.119585946 -0.25066692 -0.40764442
0.4166337 0.06461211 0.07378592 0.48743397 0.27335525 0.31557158 0.16833138 -0.021250056
0.13667908 -0.11369121 -0.4235302 -0.3467266 0.27500093 -0.025000334 0.053150974 -0.105957955
-0.18059562 0.18776903 -0.0839039 -0.13153455 0.18516727 -0.13087875 -0.20549256 -0.08749405
-0.21946797 -0.27075833 -0.46560085 -0.2880522 -0.23199148 0.075676806 0.36614528 0.45472234
-0.1380793 0.3037839 0.0844194 0.34288675 0.14389946 0.46708557 0.0017681333 0.15593995
0.065559044 -0.03953731 -0.41386807 0.4515944 -0.38400927 -0.1887321 -0.12826191 0.005098095
0.017371124 0.26141065 0.20593046 -0.5092414 -0.39646563 0.015912704 -0.23337261 -0.5075584
0.08733937 0.52779937 -0.08801384 0.32863706 -0.25041208 0.38000897 -0.35561678 0.17104793
-0.20447394 0.11235904 0.06900289 -0.07511808 0.051043145 0.46889386 -0.5362498 0.2892553
0.21623872 0.47026578 -0.051773164 0.22267202 -0.42400783 0.25107357 0.09695135 0.2550959
-0.13622306 -0.11183072 -0.19956647 0.035196356 0.008472838 0.077560134 -0.3183117 0.02098583
-0.3872924 -0.0458129 -0.13488819 0.019544234 -0.29399228 0.1973505 0.20901746 -0.35638428
0.2792177 -0.17009436 -0.29307607 0.64113796 0.31576174 0.47579736 -0.4517767 0.27192

mu.0.bias f4 [200]
00000000: cbb6 d6be 7a73 9b3e 7d2d 02be 16a9 20be
00000010: 3dca 07be fb18 6f3d b516 15bd ccc2 413e
00000020: e263 90be 1a0c 3e3e aa05 d23d 05ad a93d
00000030: de39 3c3e f89d 9abe 9f3c 843d 3dce 303c
00000040: 0aad 9e3e 7900 97bd c6f0 cabd 3cde 61be
00000050: b225 ed3c 5b2e 95bd 0706 d8bc 0f56 6bbe
00000060: f019 803d cbf9 f0bd ccdd 43be e998 66be
00000070: 6a7c 093e f6a7 adbc c6f8 76be d8a9 08be
00000080: e026 a23c 1a9c 0c3e 9853 3c3e 6ca4 b73e
00000090: 2896 babd f20f 5e3d 05c8 34be 4cac 2bbd
000000a0: 195b c3be f67c 813c 7352 983d c4b9 3b3d
000000b0: 3288 803e ecbd 6cbe 8b42 b6bd f9fa 423e
000000c0: eac4 30be c17a d03c eadb 0d3e d127 d63d
000000d0: 9b95 ee3d 8059 c4bc e68f 88bd 18bd 613d
000000e0: f2d4 46be bf57 1e3e ee84 213e 4787 c43d
000000f0: f242 493e 8a3e 463d 3112 1abe 1be8 cebd
00000100: 0efc 47be 04ec 8c3d dc87 363e f9c1 243d
00000110: e074 5dbe a85b 0b3d e3e7 debd 7329 44bd
00000120: 3c9b 13be 1e11 fe3d 9218 8a3e 2632 0cbe
00000130: 186c feb7 4727 7a3e aa98 23be 631e a0bd
00000140: 16ff d93d 0e71 d13d f80c 03be 09b7 513e
00000150: 4fe3 13bd 00cc 303d 8afe d0bd 5918 0d3d
00000160: 1beb a53d d121 24be 4a09 9e3e b261 dabd
00000170: 76a4 45be 2df9 9fbe 9efb 83bc ddc7 a3bd
00000180: ab89 f8bc a74f a63d 5f47 27bd 1e65 7ebd
00000190: 6a02 0fbe 8eac b13e 90ad fe3d 26b0 c03d
000001a0: 9a8b dcbd 57f6 f13d 13e2 87bc 25e1 e9bd
000001b0: 27fc 543e eea8 62be b44e 54be 1b3b 2abd
000001c0: e406 ab3e f516 e23d 4e5c afbd fb3a 623e
000001d0: b3e2 403d 678b 81be 47f6 13be abae 543e
000001e0: 6975 66be effa 853e dcaf 743d ec1d 4c3e
000001f0: 3e5d e6bd b72f db3d 0727 f93d 9755 2d3e
00000200: fc9e ca3d 3fe9 923e 5620 78be 3da5 203e
00000210: 5344 843e db5d 94be 303a 883e ed3d c0bc
00000220: 1e83 59be c83a 06bd 2f4b 343e b899 c6bd
00000230: b895 dabc 00a7 6bbd 2cb6 8c3e 4ba4 d23d
00000240: 4680 893e 53d3 c4bc 6c90 13be b5ca 683e
00000250: 6a55 343e 4de2 9ebe 4d52 f3bc 9e3e 4cbe
00000260: 3dd0 af3e 49ab 7ebe ecc6 f23c 3351 e13d
00000270: 80a1 5cbe 3316 d83d 3d9f 403e d804 48bd
00000280: 2a2f 073d d976 823e 460c 07be d15d 3fbe
00000290: 7063 81be c374 e13d 4fef e9bd 7e16 513b
000002a0: a24f b5bd f749 d8bc 3e63 3ebe 79b3 9a3e
000002b0: a940 45be b5fd 213e c403 1bbc ecca 913e
000002c0: 56db 57be a8ec ee3c ecf6 b3be 2e93 9fbc
000002d0: 7f28 093e 6706 36be b200 cbbe 7262 05be
000002e0: 432f acbc 399d dcbd dd83 273e 5139 0a3e
000002f0: 8d4c aa3d 8ec8 79be 7545 adbd 9ae4 863e
00000300: 1bf2 fd3d f883 91be 73ff d2bc 4621 4c3e
00000310: 87c9 2b3e 84b9 213e 3701 d6bd 08bf 4b3b
-0.41936335 0.3036154 -0.12712665 -0.15689501 -0.13260742 0.058373433 -0.03639861 0.18921965
-0.28201205 0.18559304 0.102549866 0.08284954 0.1838145 -0.30198646 0.06456875 0.010791359
0.30991393 -0.07373137 -0.09909205 -0.22057432 0.028948639 -0.07284232 -0.026370062 -0.22982047
0.06254947 -0.11766394 -0.19127578 -0.22519268 0.13426366 -0.021198254 -0.24118337 -0.1334604
0.019793928 0.13731423 0.18391263 0.3586763 -0.09110671 0.054214425 -0.17654426 -0.041912362
-0.3815544 0.015806656 0.07437601 0.045831457 0.2510391 -0.23119324 -0.08899411 0.19041051
-0.17262617 0.025449159 0.13853422 0.10456813 0.11649629 -0.023968458 -0.066680714 0.055111974
-0.1941717 0.1546316 0.15773365 0.095961146 0.19654444 0.048399486 -0.15046002 -0.10102864
-0.19529745 0.06880954 0.17825264 0.04022405 -0.21626616 0.034022957 -0.10884073 -0.04789109
-0.14414686 0.124056086 0.2697187 -0.13691005 -3.0329495e-05 0.24429046 -0.15976205 -0.07818296
0.10644357 0.102266416 -0.12797916 0.20479979 -0.03610545 0.0431633 -0.102047995 0.034447048
0.081014834 -0.16028525 0.30866462 -0.10663165 -0.19301018 -0.31244794 -0.016111191 -0.07997105
-0.030339083 0.08120661 -0.04083955 -0.06210815 -0.13965765 0.3470196 0.12435448 0.09408598
-0.107688144 0.11814564 -0.016587293 -0.11419896 0.20799313 -0.22134754 -0.20733148 -0.041560274
0.33403695 0.11039535 -0.085625276 0.22092812 0.047091197 -0.25301668 -0.14449416 0.20769756
-0.22505726 0.2616801 0.059738025 0.1993329 -0.11248253 0.1070246 0.12165647 0.16927181
0.09893605 0.28693578 -0.24231085 0.15688033 0.25833377 -0.28977856 0.26606894 -0.023467029
-0.21241423 -0.032770902 0.17606805 -0.09697288 -0.02668272 -0.05753231 0.27482736 0.10285243
0.26855677 -0.024026548 -0.14410561 0.22733577 0.17610708 -0.3103203 -0.02970233 -0.19945762
0.3433856 -0.24870028 0.029635869 0.11001816 -0.21545982 0.10551109 0.18810745 -0.048832744
0.033003964 0.254813 -0.13188276 -0.18688132 -0.25271177 0.11008599 -0.114225976 0.0031904276
-0.088530794 -0.026402457 -0.18592545 0.30215052 -0.19262947 0.15819438 -0.009461347 0.2847513
-0.21079764 0.02916558 -0.35149324 -0.01947936 0.13394354 -0.1777588 -0.39648968 -0.13025835
-0.02101863 -0.10772175 0.16358896 0.13498427 0.08315382 -0.24392912 -0.084605135 0.26346284
0.123996936 -0.28420997 -0.025756573 0.19934568 0.16776095 0.15793425 -0.104494505 0.0031089205

mu.2.weight f4 [200, 200]
00000000: f2b4 a43e f359 36be 2589 7e3c fbcb 21bd
00000010: 72f1 9d3e c7e3 cb3c c0b6 d2bc 76fc e5ba
00000020: d5a6 153c f584 e63d 4d5e fa3d f53c c6bc
00000030: a623 a23d 616b 43bf eebb 9a3d 2b1f 433e
00000040: f7a9 863c 073f e13d 0ae3 1ebd ebea 063d
00000050: f9eb 93bc 7cf1 5bbd dc4f 3abd d230 93bd
00000060: 662e 4e3c 3859 c33d 2733 8b3d 77a6 063e
00000070: b937 503e a52c 073e 2975 cfbd 4472 1b3e
00000080: 9ac0 043c 15c7 123e ef10 3fbd e7a8 8e3d
00000090: 6790 b6bd a8ab 2e3e 0b36 f33d e5fa 08be
000000a0: 3cba a63e a979 22be a4c6 40be 9642 66bd
000000b0: f0c9 ef3a 4497 c8be 5ae0 683d 2e33 fabd
000000c0: c4ca 36be 0db1 c63c 54ac 173e ae35 7cbe
000000d0: 6ee6 12be 0ff6 013e acdc 32be 5b79 8c3b
000000e0: 083e ab3c edb4 02bd 3926 80be 4655 d73c
000000f0: 419f 603d 6e88 debe 7369 85bd 9b6b 8d3b
00000100: d9c7 04bc d825 8abd 155e 27be ea92 94be
00000110: a80d 9f3b c2d6 a63d decd 153d f5e4 593e
00000120: d10a 453e e001 bc3c 0811 febb 50e2 28bc
00000130: dca1 3abe 66de 64be 7c8e bebe 37b5 49be
00000140: 2e62 04bd c6a8 0d3e c8fb 323e 6186 293e
00000150: 231b a23d 59c3 88be 658f ea3d b967 aebc
00000160: 0dea 59bd daf6 e0be 3b66 30bd 0dc1 c93d
00000170: 4ebb b1bc 2abb 9c3d d21d 603d cf12 6d3e
00000180: d69f 173e 2ea6 07bf 7e01 d53d 556f 0c3e
00000190: 5b1d 123e dbe9 0dbe b817 0a3e 202c fb3d
000001a0: 5805 58be 1ba0 c1bc 2ce8 103d a747 7cbe
000001b0: e6ef 963c de8f 15bd e895 57be c7c7 e63d
000001c0: c527 5bbe 11cd 38bd 0186 923b 4183 d43c
000001d0: 7f38 9cbd f7e1 c3bd 086c b3bd 0274 693e
000001e0: 885a 663e 3c35 fcbd 73a4 94bd 795c 61bd
000001f0: 194d 533a 6e0e 9b3d b097 8bbc 8fbb bbbd
00000200: 50d3 eabc c6ca 983d ada3 993a f2cb 99bd
00000210: 4f3d fcbd 93f1 ee3c 04ff a3bd 84ff b93d
00000220: 5b4e 91bd 46f6 d43c 10e3 513e 82e4 8d3d
00000230: 5b30 563b 6b0a 1e3d 7772 bb3d c171 2cbd
00000240: 77dc adbe a533 5bbc 73e3 a9be 567c d83d
00000250: 8e22 893d d951 1cbf a0c5 773d 587f 77bd
00000260: 06a4 e4bc b6bb 50bd 7c39 15ba 53a8 873d
00000270: 1e4d a73e d0f6 823c 114c 58be 8938 8fbe
00000280: 415d 2a3e 8d04 a83c 1689 863e d8a6 5f3d
00000290: c2fd d9bd ec05 133e 5dd3 ffbd 9a7b c0bd
000002a0: 7b2b 6d3e 4479 13bd 5aff e93a f6ad 073e
000002b0: 9f59 103e a025 733e 9f4d bebc 656a f13c
000002c0: 1da9 edbd beeb e63d afe7 c9bd c540 333d
000002d0: 68f7 6bbb 68ff 6bbe bbca 94be 69c8 cd3d
000002e0: cfe3 38bf 04c8 1ebe f1fa 4dbc 95ea a53c
000002f0: 7e04 f0bd 0c94 d6bd 9881 9c3d 3561 a43c
00000300: 42bb e1bc e312 313e 7272 803e 262f 2ebb
00000310: 8ad5 093e 94bc acbd 6051 ddbd 6ab4 0dbd
00000320: 909d bd3e 537f 21be 6a09 b5bc f16a 15bd
00000330: 568a febc 4edc bf3d 5a66 9d3d 5f8c 48bc
00000340: e0a5 7e3c 4cc8 e63d 4d6d ec3d a96a ae3d
00000350: fcdc c53d e144 80be 301a 0f3e 87e8 8fbd
00000360: 65f1 7d3d c265 e0bd 60aa 783e ef1f 86bc
00000370: 1315 043e b33a 453d bf17 94bd 6591 0d3e
00000380: 8951 70be cd71 653d a8c0 1fbe 3608 7dbd
00000390: 4e3b 193d 933e a03d 461f 36bd f5c8 b83c
000003a0: 8d49 8dbd ca0b 7dbd 5c6f e2bd ec3a 2d3d
000003b0: 1464 ff3d a195 c0bc 8a40 36bc f40b d5bc
000003c0: f17e 803d 75e3 b5bd fe67 6c3d 53b8 8a3d
000003d0: 9cb6 31bd cc7e 923e 8db4 883d 2f63 ec3d
000003e0: db12 243d e1e9 0b3e f7aa 28bd de4f aa3d
000003f0: aeb0 c13d 5341 3d3d db01 2e3c 3fb0 d13d
0.321693 -0.1780775 0.0155356275 -0.03950117 0.3084827 0.024888886 -0.025721908 -0.0017546553
0.009134014 0.11255828 0.12225018 -0.024198988 0.07916956 -0.7633572 0.07555376 0.19054858
0.016438467 0.1099835 -0.03879074 0.03293888 -0.018056856 -0.053697094 -0.045486316 -0.07187046
0.012584304 0.095385015 0.06796866 0.13149439 0.20333757 0.13200624 -0.101297684 0.15180308
0.00810256 0.14333756 -0.04664701 0.06965809 -0.08914261 0.17057669 0.11875542 -0.13376959
0.3256396 -0.15866722 -0.18825775 -0.056215845 0.0018294435 -0.39177907 0.056854583 -0.12216793
-0.17850786 0.024254346 0.14811832 -0.24629852 -0.14345714 0.1269152 -0.17466992 0.0042869276
0.020903602 -0.031910826 -0.25029162 0.026285779 0.054839376 -0.43463463 -0.065142535 0.004315806
-0.008104288 -0.06745499 -0.16344483 -0.29018337 0.004853923 0.081464306 0.036573283 0.21278746
0.19242407 0.022950113 -0.007753495 -0.010307863 -0.18225807 -0.22350463 -0.37218082 -0.19698034
-0.032320194 0.13833913 0.1747886 0.16555168 0.07915332 -0.26711538 0.114531316 -0.021289693
-0.053201724 -0.43938333 -0.043066245 0.09851275 -0.02169576 0.07652886 0.05471594 0.23151706
0.14807066 -0.52987945 0.10400675 0.13714345 0.1426901 -0.1385874 0.1348561 0.122642756
-0.21095788 -0.023635915 0.035377666 -0.24636708 0.01842494 -0.036514156 -0.21053278 0.11268573
-0.2140189 -0.04511744 0.004471541 0.025941493 -0.07627963 -0.09564584 -0.0876084 0.2279816
0.22495472 -0.12314841 -0.07257929 -0.05501983 0.00080604997 0.075711116 -0.017040104 -0.09166633
-0.028665215 0.07460551 0.0011721753 -0.075096026 -0.12316381 0.029167926 -0.08007625 0.09081939
-0.07095023 0.025996339 0.20496774 0.0692835 0.003268263 0.038584154 0.09152692 -0.04210067
-0.33957264 -0.013379012 -0.33181342 0.1057059 0.06696044 -0.6106239 0.060491204 -0.06042418
-0.027910244 -0.050960265 -0.0005692465 0.06623902 0.32676023 0.01598683 -0.21122767 -0.2797282
0.16637136 0.020509982 0.26276463 0.054602474 -0.106441036 0.14357728 -0.12491486 -0.09398575
0.23161118 -0.03600432 0.001785259 0.13249955 0.14096688 0.23744822 -0.023230372 0.029469678
-0.116045214 0.11275433 -0.09858643 0.04376294 -0.003600562 -0.23046649 -0.2906092 0.10047991
-0.7222261 -0.15505987 -0.012572036 0.020253459 -0.11719607 -0.104774565 0.076419055 0.020065883
-0.027555112 0.17292361 0.25087315 -0.0026578396 0.13460365 -0.08434406 -0.10806537 -0.034595884
0.37034273 -0.15771227 -0.022099216 -0.03647894 -0.031071823 0.09368192 0.07685538 -0.012240498
0.015542477 0.11268672 0.11544285 0.085164376 0.0966129 -0.2505255 0.13974833 -0.07026773
0.06199779 -0.10956909 0.24283743 -0.016372649 0.12898664 0.048151683 -0.07231092 0.13824995
-0.23468603 0.056016732 -0.15600836 -0.06177541 0.037410073 0.07824435 -0.04446342 0.022556761
-0.06898794 -0.06177882 -0.11056396 0.04229252 0.1247026 -0.023508849 -0.011123786 -0.026006676
0.06274212 -0.088812746 0.057716362 0.06773438 -0.04338704 0.28612363 0.06675062 0.11542355
0.040057044 0.13663436 -0.04117867 0.08316015 0.09457527 0.046204876 0.01062056 0.102386944

mu.2.bias f4 [200]
00000000: 8c0c 15bd 9ddf 333d c813 ee3d 22e9 31bd
00000010: 010b 92bc 6e61 cbb9 647b c1bd 3601 ecbd
00000020: d117 743d 886c 8b3d a7d7 763d 318b 41bd
00000030: 2179 b9bc 655f e8bc d2c3 dabb b37f ba3d
00000040: 27aa 0f3d 57ff 833b fb44 a1bd 6210 0fbc
00000050: a18f 2ebd 3883 40bd 97b8 b43d 694e 18bd
00000060: 8894 be3d 0586 143d 8dfc 11bc e38b b63d
00000070: 4612 01bd e1bb b73c f11f cdbc 3663 26bd
00000080: c8af 943d 1b66 fb3c 3d4b 8e3b 7602 1b3d
00000090: 3a73 7cbc 8d28 ffbd 6677 debd fe66 193d
000000a0: e30a 703d aeca 833d c56a b43c eb09 1cbd
000000b0: d314 443d 326a bfbd fd24 d8bb f2af 373d
000000c0: e61b 7f3d 1d2e 6d3d 3bba d13b 8cf0 0e3d
000000d0: 5f75 9c3c 2816 e5bd bc5d 16bd b806 91bd
000000e0: 1039 0ebd a9e3 e2bd 9a70 31ba d4d5 80bc
000000f0: d0c9 eabc a518 23bd 4689 57bc 7aea d33c
00000100: 7796 123d bf9e 743d 53bf 853d 7c11 373c
00000110: 4c4a ce3d 36df 06bd 5246 67bd 4314 f4bb
00000120: fcbc 363c 7cd2 253d d916 2c3d 473b 52bc
00000130: aa39 443d 175b 80bd 546f 953d 1679 603a
00000140: 75f8 833d fe5b e43d 0b31 64bd 98a5 993c
00000150: 85e3 05bd ee9b 10bc d9d4 2dbd a6f6 0dbc
00000160: 2c41 17bd 446c 8d3d a414 153d 3098 a23d
00000170: 170e 593d bb69 0abc 66ec 03bc e491 343d
00000180: 0d1c f83c a142 183c dd86 80bd 3246 f6bb
00000190: 05af 46bc d67a c4bc 32b9 3f3d 9976 473d
000001a0: bddf 8dbd 0028 90bd cada 0d3c c8d1 b03d
000001b0: 147c c9bd f09b 853d fac7 413c 2bc0 cabd
000001c0: 1738 2bbd cc98 b63d 63ea b0bc 8f08 a8bb
000001d0: 381a 813d edcf 143c 25c5 193d cf58 64bd
000001e0: 8582 0e3e 9e7e 40bd d9a8 2cbd 55bc 80bc
000001f0: e8b1 443d c585 8ebd 5dd7 96bd 512d 5fbb
00000200: 1477 1d3d 1c86 133c 57dd 713d 0925 07bd
00000210: cb77 44bd cf81 fe3b e787 303d 600f bf3d
00000220: 24fc 65bb 302c bdbd 6abd 33bc f53c f23d
00000230: 35a3 21bd 6c14 9e3d 833e 28bb 1328 6bbc
00000240: 7fb9 053d dbe0 d83b c679 863d 81ef 83bd
00000250: 5d98 1a3d db72 423d 0357 d2bb 14df da3b
00000260: e92c 83bd 413c d03c e7fa 093e 9477 4cbd
00000270: 705f c03d 4a48 583d 7a58 3bbc 803b 563d
00000280: ba6e 04be f7ab 3dbd 901c 21bd 1449 40bb
00000290: 6b0c d13d 6bcf bcbc 94cd a13c 69be a9bc
000002a0: bf52 06bd 22a2 31ba 824b 993c ca5b bb3d
000002b0: c19c 55bd ef1d 043c bcbc 3cbd bdb0 d13c
000002c0: 4152 083d a7f7 0abd 3877 fd3c 51a2 803d
000002d0: 79f6 813b 984b 5e3d 226b 1f3d ccdc 163d
000002e0: 9f1f 9dbc d362 73bb 077e 393b c3e9 023d
000002f0: a87b 4c3d d556 ba3d 7a47 713d 8261 c53c
00000300: 81fe fc3d 092c f93c 44ed debd fc39 b33c
00000310: 30cd 86bc e730 7abd 6f4e 873d 682b 1f3b
-0.03638892 0.043914426 0.11624867 -0.043435223 -0.017827513 -0.00038791768 -0.09447363 -0.115236685
0.059593026 0.0680781 0.060264256 -0.047251884 -0.022640767 -0.0283658 -0.0066761756 0.09106388
0.03507438 0.0040282416 -0.07874485 -0.008731933 -0.042617444 -0.04700014 0.0882427 -0.037184153
0.09305674 0.036260623 -0.00891031 0.089134 -0.031511568 0.022428455 -0.025039645 -0.04062196
0.0726009 0.030688336 0.004342465 0.037844144 -0.0154083315 -0.12458906 -0.10862617 0.037451737
0.058604132 0.064351425 0.022023568 -0.038095396 0.047871422 -0.09346427 -0.006596206 0.04484553
0.062282465 0.057905305 0.006400374 0.034897372 0.019098936 -0.111858666 -0.036710486 -0.070813596
-0.034722388 -0.11078579 -0.0006768793 -0.015726961 -0.028660685 -0.039818425 -0.013155287 0.025868643
0.035788026 0.059721705 0.06530633 0.011173602 0.10072765 -0.032927714 -0.056463547 -0.0074487044
0.011153456 0.040483937 0.042013977 -0.012831516 0.047906555 -0.06267374 0.07296625 0.0008562965
0.06443874 0.111503586 -0.055710834 0.018755719 -0.032687683 -0.008826239 -0.042439315 -0.008664763
-0.036927387 0.06905416 0.036396638 0.07939184 0.052991953 -0.00844806 -0.008051967 0.044084445
0.030286813 0.009293229 -0.06275723 -0.007515692 -0.012126689 -0.023984354 0.046807475 0.048697088
-0.0692744 -0.070388794 0.00865812 0.086337626 -0.09838119 0.06523883 0.011827463 -0.098999344
-0.04180154 0.089158624 -0.02159614 -0.0051279734 0.06303829 0.0090827765 0.037541527 -0.055748757
0.13916977 -0.04699575 -0.042153213 -0.015714804 0.048021227 -0.06959108 -0.07365296 -0.003405411
0.03844364 0.009004142 0.059048977 -0.032994304 -0.047965806 0.0077669392 0.043098357 0.093291044
-0.0035092914 -0.09236944 -0.010970453 0.11828033 -0.039462287 0.07718739 -0.0025672026 -0.014352816
0.032647606 0.0066186017 0.06566195 -0.06442166 0.03774296 0.047472816 -0.006419064 0.006679425
-0.0640505 0.025419356 0.13474618 -0.049918726 0.09393203 0.052803315 -0.011434669 0.052302837
-0.12932864 -0.046306577 -0.03933388 -0.0029340433 0.10207447 -0.023048123 0.019751348 -0.020720677
-0.032793757 -0.0006776174 0.018712763 0.09148367 -0.052151445 0.008063777 -0.04607843 0.02559697
0.03328157 -0.033927586 0.030940637 0.062809594 0.0039661494 0.05427131 0.03892053 0.036831662
-0.019180117 -0.0037137761 0.0028303878 0.031961214 0.049922615 0.09098593 0.058906056 0.024094347
0.1235323 0.030416505 -0.108850986 0.021878235 -0.016455263 -0.061081793 0.06606757 0.0024287347

mu.4.weight f4 [12, 200]
00000000: f236 dd3c 44f7 42b9 2ea4 903d 327e bfbc
00000010: 7b9d 43bb 83b6 23be a998 d4bd da83 873e
00000020: f85b 10be 93aa 1b3d 5710 e8bc 3829 5e3e
00000030: 7c1a 57bd 14f9 24be 8a81 da3e a6d0 6c3d
00000040: 44af 6bbc 0119 a7bd b864 52bd 7c99 553e
00000050: 168a f0bd fd92 aabc 7495 783d 7e64 803d
00000060: 971d 663e 5fe0 51be 886d ba3d 78fc e13d
00000070: 3c83 4d3e 5596 0fbd b87d 80be f07f 43bd
00000080: 15a3 703d 4c72 d7bb c2be 2abc 0ba7 a33e
00000090: ef09 f6bd f7cf e2bd 0c91 f43d 7468 88bd
000000a0: 8f20 13bd 5e2c 8cbd 9db7 2d3e f26b f3bd
000000b0: 3511 c5bd 0d2f e4bd 2944 d33d 5110 323e
000000c0: ae22 4f3d 8412 cb3d 94d3 f5bd 5cc2 2e3c
000000d0: f1b6 c4bd 0ef9 893d beba 5ebe 272c 483d
000000e0: 312e ba3c ff15 d13c 3c14 443e fc13 113d
000000f0: 50a0 643e b1c1 993d 9dff 5abd 4d96 f6bd
00000100: 5754 a8bd 7c13 923d a9da 08be 152b 42be
00000110: 5404 d8bd 9b46 2e3d b77a 743e 3c2f 643a
00000120: 2496 013d 2f54 d13c 9e9d ee3d 80e5 70bd
00000130: c6d7 8d3e 99cb 6bbe 87f3 b93d c332 88bb
00000140: dc62 a4be 4c48 be3d 7be7 a8bd 036d 0b3e
00000150: cc57 183d 349d d53d db2f 233d 0586 f3bc
00000160: e8d6 e6bd 3d81 34bd d87f 903e 07c6 3e3d
00000170: 89c0 2cbb 757e b1bd c6e7 c03c 079c 39bd
00000180: 8d0e b8bd e26c 0bbd f4b5 563d 72d1 81be
00000190: 8271 98be 73b6 abbd 1f44 80bc fc62 a33d
000001a0: 7707 aeba ce9e 193d 3b8d db3c aa75 323e
000001b0: d7d7 a03d d709 efbd 7c69 b8bd caa0 973e
000001c0: 4c5a 10be 02aa 7fbd 6a5d a13e e4b2 f2bd
000001d0: 3e25 79bc ed08 e63d 7398 993c a87d 463e
000001e0: 62aa 0fbe 332c 64bd 1f13 213e 4155 89be
000001f0: 6d38 04bb 4ff9 c43d 3310 a6bb 0c4e 78be
00000200: ad14 57be b234 3f3e d16f 5dbd 458f 393e
00000210: 2656 aa3d 3884 4e3e 1b48 333d 3cc4 2c3e
00000220: 6ce1 8f3d 2f2b d5bd a6f8 36bc db1c 2fbd
00000230: 8e52 a2bc da60 8ebe 3610 35bd d062 303e
00000240: 976c 30be 213a b0bc 5c76 e2bd 72c9 43be
00000250: a994 a5be 9125 bb3c b8ec 01be c97f 8fbd
00000260: 3ab9 8bbc 8580 173e 3208 a73d f92d c1bb
00000270: 696e c0bd 5541 673d e856 943c 539f e53d
00000280: 9342 5d3e fa68 25bd 1b91 b53d 3b71 cdbd
00000290: 00a0 37be d7e2 3cbe b520 223e c3e0 af3d
000002a0: 6a41 4f3c 868b 8e3b 4725 02bd a2ab b23d
000002b0: e85f 133d 6048 fa3d b5b9 d1bc 591b 60bd
000002c0: 7699 0dbe 6241 1dbe 9fec 943d 86e2 98bd
000002d0: 53c9 35bd a47f c4bc 7d89 d93e 33a3 0dbd
000002e0: dc20 59bd 69c4 9cbc fa20 c93c 7dfa 18be
000002f0: 5ca8 c2bb e220 8a3d cb9c b5be 5419 d7bc
00000300: b50f 043e 7bc7 abbe c108 c93d 7ef8 85bb
00000310: 7913 223d 807d 02be 59f4 923d d1c1 adbd
00000320: 06ba 663a 3440 06be 635a 9d3d 56f6 bb3c
00000330: 218d f63d 1664 e9bd dff9 9a3e d6ef 6bbe
00000340: c9be 6cbe f26d 9bbd ab4a 08be 782b 88bd
00000350: 2826 b03d 8c0f 26be 741e ef3d 6eb9 a03d
00000360: 1c8a d6bc a26a dbbd 4513 233d 7b97 e4bc
00000370: fb2d 96bd 5bc4 9bbd d349 78be 9852 6e3d
00000380: 51f8 69bd e99b 96be e96e 07bb d136 5bbd
00000390: 15fa 5f3d ebbf 623e 2b88 ae3d 5cd0 1a3b
000003a0: 65ef b4bd 889c 253e 2263 92be 0908 a1be
000003b0: 9a6d 6e3d db64 34be b3c9 20bd 5f3a 9e3d
000003c0: 7bda 873e 8760 173d e162 48be d28a 74bd
000003d0: ede1 e33c cb1c 803d 2977 063d bc33 593e
000003e0: 3da8 cbbd a3af 3fbc d8c3 8bbd b352 51bd
000003f0: bec3 96bd 340e 2ebe 5f92 0bbf 458e 9e3c
0.027003739 -0.00018593395 0.07062565 -0.023375604 -0.0029848504 -0.15987591 -0.1038068 0.26467782
-0.14097583 0.03800447 -0.028328104 0.21695411 -0.05251549 -0.16110641 0.42676955 0.05781617
-0.014385048 -0.08159066 -0.051365584 0.20859331 -0.11745088 -0.020822043 0.060689405 0.06269167
0.22472225 -0.20495747 0.09102923 0.11034483 0.20069593 -0.035055477 -0.25095916 -0.047729433
0.058749277 -0.0065749045 -0.010421457 0.3196338 -0.120136134 -0.110748224 0.11941728 -0.06660548
-0.035919722 -0.068444 0.16964574 -0.11885823 -0.096224226 -0.11141787 0.10315735 0.17389037
0.050570183 0.09915641 -0.12003246 0.010666456 -0.09605206 0.067369565 -0.21750924 0.048870232
0.022727104 0.025523184 0.19148344 0.03541945 0.2232678 0.07507647 -0.053466428 -0.12040386
-0.082192115 0.071326226 -0.13364662 -0.18961747 -0.105477005 0.042547803 0.23874937 0.0008704548
0.031637326 0.025552837 0.11651157 -0.05881262 0.27703685 -0.23026885 0.09079652 -0.004156442
-0.32106674 0.09291133 -0.082472764 0.13615803 0.037193105 0.10430375 0.03984056 -0.029726991
-0.11271459 -0.044068564 0.28222537 0.046575572 -0.0026359877 -0.08666698 0.023548018 -0.045314815
-0.0898715 -0.034039386 0.052419618 -0.25355107 -0.297741 -0.08384409 -0.015657483 0.07977864
-0.0013277371 0.037504964 0.026800742 0.17427698 0.07853668 -0.11671799 -0.090044945 0.2961486
-0.14096946 -0.06241799 0.31516582 -0.11850527 -0.015206633 0.11232171 0.018749451 0.19383872
-0.1402984 -0.055706214 0.1572995 -0.26822856 -0.0020175234 0.09617864 -0.005067849 -0.24248523
-0.21003981 0.18672445 -0.054061715 0.18121059 0.08317213 0.20167625 0.043769937 0.16871732
0.07025418 -0.10408627 -0.011167681 -0.042752128 -0.019814756 -0.27808267 -0.044204913 0.17225194
-0.17228924 -0.021512093 -0.110577315 -0.19119814 -0.3233998 0.022845061 -0.12687957 -0.07006795
-0.017056096 0.1479512 0.0815586 -0.005895373 -0.09396059 0.05645879 0.018107846 0.11212029
0.21607427 -0.040383317 0.08865567 -0.100313626 -0.17932129 -0.18445908 0.15832789 0.08587792
0.012649873 0.0043501286 -0.03177383 0.087241426 0.035980135 0.12220836 -0.025601247 -0.05471358
-0.13828072 -0.15356973 0.072716944 -0.07465081 -0.04438145 -0.023986645 0.42487708 -0.034579467
-0.053009853 -0.019136624 0.024551857 -0.14939304 -0.00594048 0.06744553 -0.35471186 -0.026257195
0.12896617 -0.3355063 0.09816123 -0.0040884605 0.03956935 -0.12743187 0.07175512 -0.08484233
0.00088015234 -0.13110429 0.076832555 0.02294461 0.12038637 -0.11396043 0.30268762 -0.23040709
-0.23119654 -0.0758933 -0.13309734 -0.06648916 0.08601028 -0.16216868 0.1167573 0.07847868
-0.026188903 -0.10713698 0.0398133 -0.027904263 -0.07332989 -0.07605811 -0.24246912 0.058184236
-0.05712158 -0.29415825 -0.0020665473 -0.053519074 0.054681856 0.22143523 0.08522066 0.0023622727
-0.088347234 0.16172993 -0.28591257 -0.31451443 0.058209993 -0.17616598 -0.039254855 0.07725977
0.26533875 0.03695729 -0.1956897 -0.059702702 0.02781769 0.06255492 0.032828484 0.21211141
-0.09944198 -0.01169959 -0.068244636 -0.05110426 -0.073615536 -0.16997606 -0.5452022 0.019354949

mu.4.bias f4 [12]
00000000: ff9b 18bd b8d0 e53d 035a 633d c126 d23b
00000010: dab9 d4bd 101d 90bd 4bca 0e3c 2152 013d
00000020: 8dfe 3fbd 7c85 b6bd 65ce fb3d 1f28 143c
-0.037258144 0.112214506 0.055505764 0.006413311 -0.10387011 -0.07036793 0.008715223 0.031572465
-0.046873618 -0.08912179 0.12295226 0.009042769

reward_fun.0.weight f4 [200, 14]
00000000: af01 823e c519 a93e 1f05 89be c838 da3d
00000010: 53e5 9e3e d834 a73d e7d1 8ebc 1956 123e
00000020: 4d4d 213d e3cf 80be 36a9 603e 89c3 1dbe
00000030: 93e2 3d3e 6d2b 41be a4c3 dcbd f761 0fbf
00000040: 276e 80be f3e9 0a3e 8b6d 1a3e a966 ca3c
00000050: 0538 663d 6803 0b3e c0c3 14be d7a9 613e
00000060: c6e4 9ebe a3db 063e 632f 0bbe 470e 243e
00000070: ae15 cfbc 5972 4a3e fdd8 ccbd ba46 8cbd
00000080: a5da a83e 9cfb dc3c 2376 9b3c 7325 5e3e
00000090: 29c3 373e 9be5 653e b686 a0be 5b3d aebe
000000a0: 2af5 32be 9a04 8abe 79b9 973e 8861 41bd
000000b0: 78e7 66bd 79c0 73bd f08f 2abd bb2d 103e
000000c0: 5400 d33d 4d53 af3d e58c 29be 536a c83d
000000d0: 15a8 453e c8e8 083e 155f dfbe 4eb5 abbe
000000e0: e0c7 a5be 92c6 e5be e198 b43d c018 f5bd
000000f0: 0a73 30bd fd91 913e aa55 9a3e c7bc 303d
00000100: 9238 413e 9903 73be 73ac 24bd 9b2a debd
00000110: 129d 9d3e aab3 083f 5127 17bd bac6 e53e
00000120: c21e 783d 5d6d 833e 2fa0 0fbe ef3c f6bb
00000130: 53f3 603c c812 333d 8878 82be b94d 6bbe
00000140: 1f40 5a3e 8c8b a6bd d32c 5fbe 13e6 953d
00000150: 8d9d 1bbe 8eeb cebd a8ec c2bd 6d5f 343e
00000160: 7516 afbd 179c 09be 63fa 2d3c 1782 37be
00000170: 0983 f53c b7ae 3abe 266c b73e b4f6 fcbd
00000180: 74da 2b3d a895 66be dc63 22be fde2 9bbe
00000190: 546d 5cbe 7873 bfbc c906 3f3e 0f9a fb3c
000001a0: 621b 383e f83b 093c beb3 ac3c 91d5 ca3d
000001b0: 8aec 8d3e 632b e3be fe0e 753d fae3 dd3e
000001c0: 21f0 353e 581b 8a3e 4614 2dbc c33e 6c3e
000001d0: 60a8 473e 0030 893e f1f6 8bbe aea0 13be
000001e0: 3e13 84be af60 153e 78a7 213e 20f9 a0be
000001f0: 79ba ebbe 4bd7 2b3e 3575 6abe 31c9 c43e
00000200: ca0e 81be 688b 12be 652b 7b3d ec5d a3bd
00000210: 2ad3 cc3d 64c8 7abe 45ec 07be a655 103e
00000220: edc6 dbbc 52d5 48be 4afb 3ebd 640d 71be
00000230: f225 f2bd dbfb 2bbe b41a 2a3e 41a1 81bd
00000240: ce0b 143e 8dea 2a3b 3d89 243e dc7f 5abd
00000250: 94e2 5fbd db95 a8be 43c1 063e 5f31 bc3d
00000260: ef35 98be 6c3c 4a3e 861c 3bbe 5af5 0c3e
00000270: 5b1f ac3e d287 f2bd 1d92 10bd 1f5a b0be
00000280: 9b4e 8dbe 28e1 3a3e f592 273e 1a62 3d3e
00000290: 233a 9abe 4376 f53c 7dcf 63be dba1 d43d
000002a0: 0814 c3be 3fe2 483e 4691 993e a29f d3bb
000002b0: 6069 29be b7e2 11be 8cf4 1c3e a25b c93d
000002c0: 34b0 3dbd 09cc 51bd 3ec7 14be 419a 2d3e
000002d0: 3e5e f8bc dcd5 5bbd fb19 a23e 644b e13d
000002e0: bc38 283e a0e3 a63d 59b4 46bd dc28 45be
000002f0: 14de 2f3e d8e1 3d3d 7f9e acbd 0ef1 f4bd
00000300: 893e 1b3d 7cd3 973e 87f0 95be 46b4 243f
00000310: 7527 a4be bb1f 23bd 15dd c5bd 1b68 a5bc
00000320: 17ce 31be fc50 82be 442d 803d a150 9bbd
00000330: 3e55 bebc 856a 203d e367 893e 6b87 06be
00000340: 2eef a0be 51ba 453e 9f6e 27be 5e6d e5bd
00000350: de44 773b 6cbe 11be cf77 313e 249d 7abe
00000360: d8ba 853e 3592 1dbe f842 443e ef1d 983d
00000370: a370 87be 318a 4f3e dfca 89be d299 efbd
00000380: 5f22 ae3e 017c 91bd 97fb 9a3e fbff 893e
00000390: 3feb a43e 206f a13d 0078 683e df26 bebe
000003a0: 564a 76bd 9210 983e bb6c a1be bba2 bb3d
000003b0: 6913 9dbe 9b4a fbbe 2539 7cbe 1c10 143e
000003c0: 8d97 6abd 09a3 873e 2afc 9dbe 672b a43e
000003d0: 1212 f2bc 01d3 e23d 59b9 573d d387 a73c
000003e0: 1140 203d 2619 d5bd c82a fcbd a6b3 ae3e
000003f0: e08b 743d 0648 35bd f138 943e 71bc 393e
0.2539191 0.33027473 -0.2676172 0.106553614 0.31034335 0.08164376 -0.017434074 0.14290656
0.03938036 -0.25158605 0.21939549 -0.15406622 0.18543462 -0.18864222 -0.10779503 -0.5600886
-0.2508404 0.13565807 0.1508085 0.024707155 0.05620577 0.13575518 -0.14527798 0.22037445
-0.31033915 0.13169722 -0.13592295 0.16021071 -0.025278892 0.19770183 -0.10002325 -0.068494275
0.32979313 0.026975445 0.01897723 0.21693973 0.17945541 0.22450869 -0.31352776 -0.34031186
-0.17476335 -0.26956636 0.29633692 -0.047212154 -0.05637309 -0.059509728 -0.041641176 0.14079945
0.10302797 0.0856081 -0.16557653 0.09785905 0.193024 0.13370049 -0.4362723 -0.33536762
-0.32379055 -0.4487806 0.08818222 -0.11967611 -0.04307846 0.28431693 0.30143481 0.043148782
0.18869236 -0.23731841 -0.040203523 -0.1084797 0.30783898 0.53399146 -0.03690273 0.4487818
0.060576208 0.25669375 -0.14025949 -0.007514588 0.013729888 0.043719083 -0.25482583 -0.22978868
0.21313523 -0.08132085 -0.21794443 0.07319274 -0.1519682 -0.10103522 -0.09517795 0.17614527
-0.08549205 -0.1343845 0.010618779 -0.17920719 0.029969709 -0.18230711 0.35824698 -0.123517424
0.04195638 -0.22518027 -0.15858406 -0.30446616 -0.2152608 -0.02337049 0.18654932 0.03071311
0.17979196 0.008376114 0.021081802 0.09904016 0.27719527 -0.4436904 0.05982875 0.43337995
0.17767383 0.26973987 -0.010563916 0.23070817 0.19497824 0.26794434 -0.2733684 -0.14416763
-0.2579593 0.14587663 0.1578654 -0.31440067 -0.46040705 0.16781346 -0.22896273 0.38434747
-0.25206596 -0.14310992 0.06132068 -0.079768986 0.10001214 -0.24490505 -0.13273723 0.14095172
-0.026828254 -0.19612625 -0.046626367 -0.23540264 -0.11823644 -0.16795294 0.16611749 -0.06329585
0.14457628 0.0026079745 0.16067977 -0.053344592 -0.05465944 -0.3292683 0.13159661 0.09189104
-0.29728648 0.19749612 -0.182726 0.13765469 0.33617672 -0.11842312 -0.035295594 -0.34443757
-0.27599034 0.18249953 0.16364653 0.18494454 -0.3012248 0.029963618 -0.22247119 0.10382434
-0.3810122 0.19617556 0.29993647 -0.0064582387 -0.16544104 -0.14246641 0.15327662 0.09831931
-0.04631062 -0.051219974 -0.1452913 0.16953374 -0.030318376 -0.05367075 0.31660447 0.11000708
0.16427892 0.08148885 -0.048511837 -0.19253868 0.1717456 0.04635796 -0.08428668 -0.1196004
0.037901435 0.29653537 -0.2928507 0.64337575 -0.32061353 -0.039825182 -0.09661309 -0.020191243
-0.17363773 -0.2545241 0.06258634 -0.07583738 -0.023234006 0.039164085 0.26837072 -0.13137595
-0.3143248 0.19309355 -0.16350792 -0.11202501 0.0037730257 -0.14232796 0.1733086 -0.24474007
0.26119113 -0.15387805 0.19166172 0.074275844 -0.26453122 0.2026756 -0.2691259 -0.11699261
0.34010598 -0.0710373 0.30270073 0.2695311 0.3221073 0.078825235 0.22702026 -0.3713903
-0.060129486 0.29700142 -0.31528267 0.09161898 -0.3067887 -0.49080357 -0.24631174 0.1445927
-0.057273436 0.26491573 -0.30856448 0.32064363 -0.029549632 0.11075402 0.052666996 0.020450508
0.0391236 -0.10405187 -0.123128474 0.34121436 0.059703708 -0.04425814 0.28949693 0.18138291

reward_fun.0.bias f4 [200]
00000000: f2d3 6cbe 06d1 113e e7f3 103e b50f 2f3e
00000010: c009 7fbe 9f49 8b3e 644c 613e e7fd 99bd
00000020: e19e 68be 56ba c9bc e6b8 843d 8824 3bbe
00000030: 6565 81bd 169c b9bc 2deb 9bbe e7b6 be3d
00000040: 5f6d 563d 6bfe b63d a000 d43d 46cb 173e
00000050: 055e 54be 5ac8 9a3e b3c7 41bd d870 79be
00000060: 604b 0c3e 9c07 d6bd 4c29 003d 846a 08be
00000070: e053 153e d749 81be 1dab ec3d 584e ad3c
00000080: 857e f63c 3948 debd 7add e13d dedc 123d
00000090: 89e5 97be cb70 54be d694 d13b 933f 94be
000000a0: 3542 65bc 84fd 81be 02d8 313e c8d5 1abd
000000b0: 70e2 83be c157 47be c23a d63c 9ef2 4cbd
000000c0: cc78 3c3e 6767 043e a369 953d 423f 083e
000000d0: ab2a 02be b74b e83d d6a5 003e 95cb 14be
000000e0: 37c8 6cbe c41d 1b3e 68fc 573e 33fb 18be
000000f0: e875 d53d e8cb 943d 12e9 353d 864b ef3c
00000100: 2038 33be 6186 31be 0fc3 3a3e f104 5d3e
00000110: a19c 41be ff88 873d 1486 1a3d edc0 19be
00000120: c238 a13d 6c19 c3bd 466b a33d efa5 4fbe
00000130: 3942 573d d01a 513e 569f 59be 0903 063e
00000140: c697 1b3e da73 eabd b727 f73d faf3 5dbe
00000150: bcc1 38be 8488 54be 661f 65be 9071 88be
00000160: 67d4 2b3e c4f9 423e 5115 00be 52a2 5dbd
00000170: 73f9 51bb 3af6 553e 2bdb 9d3d 4670 e5bd
00000180: c580 653e 0974 853e 1939 37bb cdd1 86bd
00000190: 4e54 143e c73a 86be c98f d03d 1ab9 57be
000001a0: 7c9c 673e ec2b f33d 6d48 883e 9015 503d
000001b0: 155e 1f3e c765 61be e66f 64bd 133c 74bc
000001c0: bbda 20bd 8900 28be cf16 b03c 7ebe b8bc
000001d0: dd41 78be 0f1d 84be abe5 febd 7770 97bd
000001e0: bb49 08bd 431d 31bd 91b2 603e 0577 eebd
000001f0: 5ac1 81bd c2c1 9fbe 36b6 d5bd 8035 adbc
00000200: 8bc9 393e bbc7 953d 8460 06be 97b4 3a3e
00000210: 7305 623e 931c 60bd e90f 133d ae8f 02be
00000220: f959 33be 6ddb 043e 409d 323e 7229 823e
00000230: 8f3d b43d 8b82 f2bd e7d1 46be 3fab 13be
00000240: d375 d0bd de7d 64bb d035 10be 5ce6 cd3d
00000250: ba75 77be 6769 18be d8b9 17be af35 31bd
00000260: 37e8 77be 2310 60be 59fb 943d 2dd8 3f3e
00000270: 450c 03bd df38 c93c 6822 cf3d 6dea a5bd
00000280: cdf1 11be c18f 6fbe f690 1bbe 8c7d d83d
00000290: 80a5 9fbd 86ba 53be f5df 84be 2af6 963d
000002a0: a0a6 e03d 96db 09be a342 62be 93bf 94bb
000002b0: d0ee 223e ce10 2b3e 2860 7fbe cad4 18be
000002c0: b757 ad3e 6bc5 8ebd 5041 60be e14e 533e
000002d0: 7838 17be d4dc a63d c0a6 4e3c 7f07 4bbe
000002e0: ac41 833d 5de1 853d 6dc4 49be 8c64 d2bd
000002f0: e41e efbd 30fd 8b3d 511a 6abe 069d 1cbe
00000300: 0240 103e 3cd9 5dbe b804 7d3d 3a45 4a3e
00000310: 9184 e3bd 05be a03b 1983 3f3d a2bd 3abe
-0.23127726 0.14239892 0.14155541 0.17095836 -0.24906063 0.27204606 0.22001797 -0.07519131
-0.22716857 -0.024624985 0.06480579 -0.18275654 -0.063181676 -0.022657435 -0.30452862 0.093122296
0.0523504 0.08935245 0.10351682 0.14823636 -0.2073899 0.3023098 -0.04730959 -0.24359453
0.13700628 -0.1045067 0.031289384 -0.13321882 0.14582777 -0.25251648 0.11556075 0.021155521
0.030089626 -0.10853619 0.110285714 0.035855167 -0.2966731 -0.20746152 0.0063959165 -0.28954753
-0.013992836 -0.2538873 0.17367557 -0.037801534 -0.25758696 -0.19467069 0.026151065 -0.050036065
0.18405455 0.1293007 0.07295539 0.13305381 -0.12711589 0.113425665 0.12563261 -0.14530785
-0.23123251 0.15148073 0.21092379 -0.14939575 0.104228795 0.072654545 0.044411726 0.029210817
-0.17501879 -0.17336418 0.18238471 0.21583916 -0.18907405 0.06617927 0.037725523 -0.15015002
0.07872154 -0.09526333 0.07979445 -0.20278142 0.05255339 0.20420384 -0.21252188 0.13087095
0.15194616 -0.11447878 0.12068122 -0.21675101 -0.18042654 -0.20755202 -0.22375259 -0.2664914
0.16780244 0.1904059 -0.12508132 -0.05410988 -0.0032039552 0.20894709 0.077078186 -0.11203055
0.22412403 0.2606509 -0.0027957617 -0.06582985 0.14485285 -0.2621672 0.10183675 -0.21066704
0.22618288 0.11873612 0.26617756 0.050801814 0.15563233 -0.22011481 -0.055770777 -0.014906901
-0.039271098 -0.16406454 0.021495251 -0.022551771 -0.24243875 -0.2580342 -0.124461494 -0.07394498
-0.03327344 -0.043240797 0.21943118 -0.11643795 -0.06335707 -0.31202513 -0.104351446 -0.021143675
0.18143289 0.07313486 -0.13122755 0.18232952 0.22072391 -0.05471475 0.035903845 -0.12750122
-0.1751479 0.1297433 0.17442799 0.25422245 0.08800804 -0.11841305 -0.19416009 -0.14420794
-0.10178723 -0.0034865062 -0.14083028 0.10053703 -0.24166003 -0.14883958 -0.14816988 -0.043264087
-0.24209677 -0.21881156 0.07274503 0.18734808 -0.031994123 0.024563251 0.10113984 -0.08101354
-0.14252396 -0.23394682 -0.15192017 0.10570821 -0.077952385 -0.20676622 -0.25952116 0.07371171
0.10969281 -0.13462672 -0.22095732 -0.004539439 0.15911412 0.16705629 -0.24939024 -0.14924923
0.33855984 -0.06971248 -0.21899915 0.20635559 -0.14767635 0.08147588 0.0126129985 -0.19827078
0.0640901 0.06537125 -0.19703837 -0.10273084 -0.11675814 0.06835401 -0.22861601 -0.15294275
0.14086917 -0.216649 0.06177208 0.1975297 -0.111092694 0.0049054646 0.046755884 -0.18236402

reward_fun.2.weight f4 [200, 200]
00000000: 3c02 3c3d 67a8 3f3c fa0f 47bd 17a5 4fbc
00000010: c718 5cbc a879 5c3d ca70 953d cd2d 45bd
00000020: 8ffc 22bd a3d6 31bb 2026 80be 3bd5 173e
00000030: 7b19 b73d ecf7 b93c e365 233b 1d9f 2cbd
00000040: f6be 3dbc c1a0 633d 819d 9abd 6c05 c6bd
00000050: 7bd7 323d dd7c b53c 74a2 003d e9c8 8abe
00000060: e589 ee3b 3011 c3be a3b6 b43d eefc fa3c
00000070: 1f83 2fbc c62c 033e 2a11 95bc 35c3 803d
00000080: efa9 90be a53d 97bc 2b08 6dbd 9f96 d2bd
00000090: 8d7e 9dbe e76e a6bd 0010 a13d fd9c 873c
000000a0: d58c 2ebc fe13 f5bc d9f1 c6bd 3780 69bd
000000b0: d3c2 153c a8d9 0dbe 73c1 ddbd fb6c 9b3d
000000c0: 81c3 ef3c 285c 19bc c01b f93b 7bbd 853d
000000d0: c0a9 cebb 3257 e8bd e0f0 513d 2b81 15bc
000000e0: 267b 8fbe bd02 bb3d ca54 9bbc 11c9 12be
000000f0: 83cd a53d b438 db3b e91b dc3c a51a 5dbd
00000100: 3b9b 7abd 7e1e ad3d 2c6f debc 28a2 d9bd
00000110: df22 d43c b194 7d3d 04ba 5abe dd39 edbc
00000120: 1f60 c9bd d5f0 4f3d 2378 27bd 4827 0d3d
00000130: e069 dabb 6123 593e 0533 9b3d 06ca 13bb
00000140: 6592 153d 33c8 40be e309 723c 3f6b 91bd
00000150: af16 483b 3101 65bd c02a 333e b4f5 203e
00000160: e692 153d b532 08be 7d94 1e3d e14c bebd
00000170: 2a4a b6bc 1e7f c93b aad3 05bd 28fb 513e
00000180: 98d4 25bd ed62 0a3e af1e db3d ce99 0dbe
00000190: 99df 0bbc d5b2 093e a4f5 33bd 5e39 46bd
000001a0: 0636 d63d 5045 e63b 3e78 a1bd 5cf8 a0bd
000001b0: 5660 92bd 6571 263d d134 96bd 2a44 b3bd
000001c0: 825c 98bd c4de 82be 1ed9 923d 8a5c 29bd
000001d0: 3477 913c 7cad 8dbe 28ed 5a3d 389a e13c
000001e0: daa1 183e 9d71 303c dae5 01be a878 e63d
000001f0: 96b9 f3bc 0bd4 81be 0a37 7cbe f445 a3bd
00000200: 5768 833d ff60 113e 68e6 54bd 2e26 073d
00000210: 21e5 163d 8c0b 3f3d 0910 55bd fd07 66bd
00000220: 214d 89bd a0fd 823d 7066 1a3d c854 b0bd
00000230: 9428 d1bc 8a30 0cbd f292 47bd f5c9 a43d
00000240: 27dd 13bc e9a7 c43d cfdc 84bc d5e5 283d
00000250: d80c a03c 7929 a93c 2399 57bd 454c 9b3d
00000260: 34c7 b4bd 03c2 48be 3784 bcbb b1ec 61bd
00000270: 22a7 563d 724a 543c 2d91 21be fbc3 063e
00000280: 78b4 493d 06e5 093d 51e2 993d 149a 023c
00000290: 491b 86bd 67ad e33c 7fc8 153e f257 a63d
000002a0: d5a1 1c3e c9b6 9c3d 6bfa 6abd 9f7d 923d
000002b0: 044c 143d 31e8 efbd 7a6f 763d d6eb ffbd
000002c0: c154 1cbd 09d3 bdbd 06ad 8bbd cff0 90bc
000002d0: 343d 82bd 8d76 163d 1196 cebc 62aa f1bc
000002e0: 8de4 a4bc da2f a43d d64b 90bd 046c bcbd
000002f0: d269 cabd c348 c1bc ba55 bb3d 1074 f0bd
00000300: 0d51 e2bd b5b9 afbe 6836 dd3c a01d bb3b
00000310: 10c3 443d a99d 7abc 891e 18bd af92 703d
00000320: bb1c eabc 21b4 ac3c cee5 2b3d f739 86bc
00000330: e9bd 10bd 265d 85bc 619d 233d 64b5 1f3d
00000340: 014b 53bd 0088 63ba 9b85 253d 364c 7b3c
00000350: b472 24bc 80ab 38bd f66c 69bd 9ebc 023d
00000360: e136 91bd e9c1 d6bc c243 a93c d35f ecbc
00000370: a03d 0fbb 6b1d 24bd 3b61 63bd 8690 193d
00000380: 4496 c3bc d284 553d 24ba 3ebd c846 80bd
00000390: 4e01 25bd f751 153d fcf0 013c 99fc 933b
000003a0: db21 8abd 88de 1f3d 5d3f 833d f2b1 613d
000003b0: cc19 3e3d 5a07 68bd 4e7d 6bbd 388a ca3c
000003c0: b6c2 6cbd ccfc a2bc e6e8 443d dd55 74bd
000003d0: 0a0d 94bd 489e 1b3d dba7 f8bc aded 1abd
000003e0: 92b2 443d 5b6d 82bd f696 15bd 4421 86bc
000003f0: c139 f4bc b413 e1bc 14a4 8fbd 070c 51bd
0.04590057 0.011697865 -0.04859922 -0.012673638 -0.013433642 0.053826958 0.072969034 -0.048139382
-0.03979164 -0.002713599 -0.25029087 0.14827435 0.08940407 0.022701226 0.0024932555 -0.04214393
-0.011581173 0.05557323 -0.07549573 -0.09669003 0.04366253 0.022154266 0.031404927 -0.27106407
0.007279622 -0.3809905 0.08823898 0.030638184 -0.010712414 0.12810048 -0.018196661 0.06287233
-0.2825465 -0.018462012 -0.057869118 -0.10282635 -0.30760613 -0.08126622 0.0786438 0.01655435
-0.010653694 -0.02991676 -0.097140975 -0.05700704 0.009140688 -0.1385256 -0.10827913 0.07589146
0.029268028 -0.009360351 0.007602185 0.06530281 -0.006306857 -0.11344756 0.051255107 -0.009125034
-0.28023642 0.09131382 -0.018961329 -0.14334513 0.08095839 0.006690109 0.026868777 -0.05398049
-0.061183196 0.084530815 -0.02715262 -0.10626632 0.025895534 0.06190938 -0.21360022 -0.028958255
-0.09832787 0.050766785 -0.040886056 0.03446129 -0.0066654533 0.21204902 0.075780906 -0.0022550835
0.036516566 -0.1882637 0.014772865 -0.07100534 0.0030531099 -0.05590934 0.17496777 0.15718728
0.036517046 -0.13300593 0.03871583 -0.09292007 -0.022252161 0.0061491868 -0.03267256 0.20505965
-0.04048595 0.135143 0.10699212 -0.13828203 -0.008537197 0.13447125 -0.043935433 -0.048394553
0.10459523 0.0070273057 -0.078842625 -0.07859871 -0.07147281 0.040635485 -0.07334293 -0.08753236
-0.074395195 -0.25560582 0.07170318 -0.041348018 0.017757036 -0.2767142 0.053448826 0.027539358
0.14905491 0.010769275 -0.12685338 0.11253482 -0.02975158 -0.25357088 -0.2463037 -0.07972327
0.064163856 0.14197157 -0.051977545 0.032995395 0.036839608 0.04664187 -0.052017245 -0.056159962
-0.06704164 0.063960314 0.03769535 -0.08609921 -0.025532044 -0.034225978 -0.048724122 0.08046333
-0.009024895 0.09602339 -0.016218571 0.04123481 0.019537374 0.020649659 -0.052636277 0.07582907
-0.088270575 -0.1960526 -0.005753066 -0.055157367 0.052405484 0.012957202 -0.15778036 0.13160698
0.049244374 0.03366568 0.075138696 0.007971305 -0.06548173 0.027792646 0.14627264 0.08122243
0.15296109 0.07652051 -0.057367723 0.071528666 0.036205307 -0.11714209 0.060164906 -0.12496154
-0.038166765 -0.092687674 -0.06820111 -0.017692951 -0.0635933 0.036734153 -0.025218042 -0.02950019
-0.020128513 0.080169395 -0.070457146 -0.0920029 -0.09883465 -0.023594266 0.091472104 -0.11740887
-0.110506155 -0.3432137 0.027003482 0.0057103187 0.04803759 -0.015296378 -0.037138496 0.05873364
-0.028578153 0.021081986 0.041967206 -0.016385062 -0.035337362 -0.016279768 0.03994501 0.038991347
-0.0515852 -0.00086796284 0.04041062 0.015337994 -0.010037113 -0.04508543 -0.05698868 0.03191816
-0.070905454 -0.02621551 0.020662192 -0.028854286 -0.00218568 -0.040067118 -0.055512648 0.037491344
-0.023875363 0.05212862 -0.046564236 -0.062635005 -0.040284447 0.03645512 0.00793099 0.004516196
-0.06744739 0.03903058 0.0640857 0.055101342 0.04641132 -0.056647636 -0.057492547 0.024724111
-0.05780288 -0.019895934 0.04807367 -0.059652198 -0.072290495 0.037992746 -0.030353477 -0.03782432
0.04802186 -0.06368514 -0.03652092 -0.016373284 -0.029812695 -0.027475215 -0.07013717 -0.05103686
