experiments/data/sawyer_clutter_200steps_10H/mpc/2021-06-23_09-56-42_clutter_200steps_10H/model_1800.pt (torch_old, 358082 bytes, 12 tensors)

log_std f4 [1, 12]
00000000: b6b4 edbf 231a d2bf f22e b4bf edaa 97bf
00000010: 03b3 99bf d779 6abf 3fdc a8bf 9cf1 73bf
00000020: 64cd a4bf c0ed 90bf cdf8 10c0 a3aa 0fc0
-1.8570774 -1.6414226 -1.4076827 -1.1849037 -1.2007755 -0.9159216 -1.3192214 -0.9529054
-1.287518 -1.1322556 -2.2651856 -2.2447898

mu.0.weight f4 [200, 14]
00000000: 9ff0 013e 2d29 d83e 9935 5ebe 93a9 cf3c
00000010: 27e3 6c3e 27ff 2f3c 8a9b 963e 3a7e ccbe
00000020: 045a 18bd 2683 a13e af36 eabe 756f e3be
00000030: e9d1 59be b719 453e 9192 74be 4063 253e
00000040: 7d85 92bd 06da 213e 4290 703b 05fb 893e
00000050: 5735 82be 0220 aa3c a9e5 933e ae91 503d
00000060: 496a 453e 0d02 d03e 18ae 17be 2305 29be
00000070: 356f df3e a0e9 4abe 0858 c43a 4083 393e
00000080: 1a5c 853e a3d3 583e 50a3 9dbe ad9f 873d
00000090: fc43 8d3e 8a67 8fbe c25a c33d d3e7 63be
000000a0: 073c 96be ea14 24bd c8c2 8c3d 42d4 76be
000000b0: 3239 dcbc f649 0dbf b3c6 6f3d e541 fabc
000000c0: dfee 983e 6f89 bebe 64db 2bbe 0ca8 98be
000000d0: 2c5e 9a3e 901a b0be de6c 433e e93f 183f
000000e0: ac20 e8bd 7205 81bd 4917 6dbe ec0a 3ebe
000000f0: 7bd3 b2bd 497e 66be c883 6a3e 6ef4 15be
00000100: f194 f83d 4447 123d 5d0f ad3e 8529 02bf
00000110: dad3 4dbe 0d1e bf3e dff6 9cbe 9981 45be
00000120: add7 dabd 332f 38be d422 64be 930e 683e
00000130: 7ae0 1a3e a00f a93b 775c 66be 0d62 e83c
00000140: 146a 84be 5f2a 0f3f 3a22 b3bd 41fa acbe
00000150: 2de9 ce3d 34be da3e 159c be3c c273 74be
00000160: 2fc7 b43e 9452 95bd 244a 35bd c5d7 5a3e
00000170: 1a42 bbbe 8d61 d43c a01b 9f3e 47ea 793e
00000180: ac1f f13e e241 21be fc75 cd3c fa7a b83e
00000190: bd87 8db9 e025 d13d 154f 9cbe e16f 9a3e
000001a0: a109 293d 8e00 babe 83f2 a93e 90a5 e53e
000001b0: 3c5a 40be 4bda b7bd 3a50 17bf f318 163e
000001c0: 101d dbbe d624 0a3e 85c6 3dbe 37be 62be
000001d0: 1804 a83d ebaf 833e b80d 69be fb75 7bbd
000001e0: 95a4 393e d178 73be 6313 863e 6c2d 41be
000001f0: 7c6b a63d a517 94be 9d4e 62be afeb 70be
00000200: fd48 e7bc 8ad0 583e 56af 45be 45de e0bd
00000210: 0ac0 8dbe 4416 5c3e 81df f63c 9ef4 2939
00000220: 3c3f 713e f037 883e 511f 283e da88 5abe
00000230: 2a63 9d3e 0a90 eabd 0b85 4a3e 79cb bf3e
00000240: 2aa9 463e ff42 433e 9587 593e 9c10 6b3e
00000250: efce 8abe 17e9 aabd 31a0 85be 361e c1be
00000260: eec6 c83e 77c6 113e b7e2 823a 5503 c33e
00000270: e345 973e 73c5 803e 084c 283e 7b13 07bd
00000280: be4e 0a3e 2958 2dbe 6fab cbbe 8ff2 80be
00000290: 8465 9c3e 45aa 343c 6870 873d 677d fcbd
000002a0: 392e d4bd 39cf d03d 811e 5d3b 23ab 33be
000002b0: 0258 793e 7119 bcbd 206b 74be 1aca cdbd
000002c0: 9eb3 6abe 410e 72be 5e12 b1be 9e5f 04be
000002d0: c3ba 64be 9cbd 1fbc d4ab ad3e 1298 ca3e
000002e0: 2988 14be e24a 973e c1b2 aa3d afa3 913e
000002f0: 6cd7 c73d 3524 db3e d60c 323d c96f a83d
00000300: 3105 ee3d eaf4 6e3b 7dfe bbbe 0175 e13e
00000310: 43f3 a1be a8d3 2ebe e103 0dbe aae2 ca3d
00000320: 130e 88bc 029a 923e cadb 273e 1ddb babe
00000330: fc0a c1be 6605 1fbd 1522 85be 7431 0abf
00000340: 009c ac3d eb34 0a3f 8faf 5cbd 7e58 a23e
00000350: 9c38 1fbe 287e aa3e 03dc a5be 003e f33d
00000360: 9b2f 70be d079 fa3d 048c e63d 44ac 8fbd
00000370: 7715 fc3d 261d dc3e 7878 06bf 2e4e 8d3e
00000380: daa8 513e c98e ed3e 055a 9ebd fe8b 443e
00000390: b23d afbe 9049 733e 7a5d 983d cade 5d3e
000003a0: a041 d6bd ac85 1bbe d3d8 61be 946c 863c
000003b0: a83c 32bc a8a4 f03d 8529 8bbe 5a10 15bd
000003c0: 081a b5be 04a2 96bd d10e f6bd a444 9337
000003d0: fa23 7cbe 86ce 1e3e ebde 443e 9d1a b0be
000003e0: ea49 713e 6f74 0bbe 8427 85be 02a0 233f
000003f0: 8826 9b3e 5ffe c33e 3870 87be 9763 493e
0.12689446 0.42218915 -0.21700133 0.025349414 0.23133527 0.010741985 0.29415542 -0.39940053
-0.03719522 0.3154537 -0.45744845 -0.44420972 -0.2127148 0.1924809 -0.23884036 0.16151142
-0.07154367 0.15805826 0.0036707078 0.26949325 -0.2543132 0.020767216 0.28886154 0.05092018
0.19278826 0.40626565 -0.14812505 -0.16505866 0.43639532 -0.19815683 0.0014979849 0.18116474
0.2604683 0.21174483 -0.3078866 0.066222526 0.2759093 -0.28008682 0.09538795 -0.22256403
-0.29342672 -0.040059008 0.06873089 -0.24104407 -0.026882742 -0.5519098 0.058539104 -0.030549
0.29869744 -0.3721423 -0.1678291 -0.2981571 0.30149972 -0.34395266 0.19084498 0.5947252
-0.11334357 -0.06299867 -0.23153414 -0.18558854 -0.08731743 -0.22509111 0.22901833 -0.14644024
0.12137783 0.035712495 0.33800784 -0.50844604 -0.20100346 0.37327614 -0.30657098 -0.19287719
-0.10685668 -0.17986755 -0.22278911 0.2266181 0.15124694 0.0051593333 -0.2249621 0.028367067
-0.2586218 0.5592403 -0.087467626 -0.3378468 0.101030685 0.42723238 0.023267785 -0.23872283
0.35308215 -0.07291141 -0.04426016 0.21371372 -0.3657387 0.025925422 0.31075764 0.24405776
0.47094476 -0.15747789 0.025080673 0.36031324 -0.0002699475 0.10212302 -0.30529085 0.30163482
0.04126895 -0.36328548 0.33192834 0.44852877 -0.18784422 -0.08977183 -0.5910679 0.14657955
-0.4279561 0.13490614 -0.1853276 -0.22142874 0.08203906 0.25720152 -0.2275914 -0.06139181
0.1812919 -0.23776557 0.26186666 -0.18864983 0.0812597 -0.2892429 -0.22100301 -0.23527406
-0.028233046 0.21173301 -0.19305167 -0.109798945 -0.27685577 0.21492869 0.030135872 0.00016208223
0.23559278 0.26605177 0.16418196 -0.21341267 0.3073972 -0.114532545 0.19777314 0.37459925
0.19400468 0.19068526 0.21243127 0.22955555 -0.27111003 -0.083452396 -0.2609878 -0.37718362
0.3921427 0.14235865 0.0009985779 0.3808848 0.29545507 0.25150642 0.16435254 -0.032977562
0.135066 -0.16928162 -0.3977923 -0.25185058 0.305462 0.011026924 0.06613237 -0.12328606
-0.10360379 0.101957746 0.0033740106 -0.17545752 0.24349979 -0.0918454 -0.2386899 -0.100483134
-0.22920081 -0.2363825 -0.34584326 -0.129271 -0.22336869 -0.009749796 0.33920157 0.39569145
-0.14505066 0.2954932 0.08334876 0.28445193 0.09757885 0.4280106 0.043469273 0.08224446
0.11622084 0.0036461898 -0.36717597 0.4403458 -0.31630906 -0.17072928 -0.13771011 0.09906514
-0.016608274 0.28633124 0.16392437 -0.36495295 -0.37703693 -0.038823508 -0.26002565 -0.5398171
0.08428192 0.53986996 -0.053878363 0.3170814 -0.15548939 0.33299375 -0.32394418 0.1187706
-0.2345566 0.12230265 0.112571746 -0.07015279 0.123087816 0.42990988 -0.5252757 0.2759871
0.20474568 0.46398 -0.077320136 0.19194028 -0.34226757 0.2375853 0.07439704 0.21667019
-0.10461736 -0.1518771 -0.22055368 0.016409196 -0.010878719 0.11750156 -0.27180114 -0.036392547
-0.35371423 -0.07355121 -0.12014545 1.7555729e-05 -0.24623099 0.1550847 0.19225661 -0.34395304
0.23563352 -0.13618635 -0.2600671 0.6391603 0.30302835 0.38280007 -0.26452804 0.19666897

mu.0.bias f4 [200]
00000000: 1a07 9cbe af0f 963e d0b4 1bbe bd6a f0bd
00000010: a22d 0ebe 94c6 4d3d ab56 353d 8d63 483e
00000020: 5281 37be 44f6 5f3e 8b97 f53d 04cf e23d
00000030: 83e2 713e 6a46 7dbe 7c96 fc3d 3de2 2dbd
00000040: 71bb 943e b106 15bd 8ff6 c5bb 369b 49be
00000050: 9592 d93b 51bf cf3c 6e1f bb3d b048 89be
00000060: 93c1 843d 48cb 29be e254 56be 70cd 39be
00000070: 1170 9e3d e65c 58bd 6869 6fbe c260 9abd
00000080: c814 9aba c4c0 153e f776 363e cd78 b73e
00000090: 47ca cebd c2a2 a83d 9d9c 13be 75b4 50bd
000000a0: f7b3 91be d646 663d 2cad cc3c b35d c83d
000000b0: 2cb5 7d3e bf4c 4cbe 3ba4 e2bd c0cf 1a3e
000000c0: 818f 29be 7fde 543c 13e5 e83d 6195 a03c
000000d0: d258 1b3e 24a0 12bc f36c 32bd 80ab d63c
000000e0: 0273 98bd a0d8 0d3e 6884 253e 9123 303e
000000f0: 2e02 3f3e e1ac f83d 87d6 0cbe 538a 67bc
00000100: 637f 1fbe 4759 3f3d 2204 503e 342d 2e3d
00000110: 3948 05be fe66 b43d 4235 9dbd b632 823c
00000120: c4a2 7cbd 4f3d b83d 68a7 853e 42dd 15be
00000130: 6979 e8bb dfce 793e ef12 12be 3347 d4bc
00000140: 818b 373e 3501 1c3e 813e d2bd 2c2e 353e
00000150: edb7 76bc 963b 023c f207 91bd b23b 213d
00000160: da5f e83d 4198 25be 9438 993e 6009 cdbc
00000170: 5138 3cbe 7c3f 32be 6534 933c d8f8 30bd
00000180: d35b f53b 7df0 823d b910 89bd 1abf 68bd
00000190: 5049 c7bd 9134 953e 4f29 fc3d 8d08 133d
000001a0: 34bf 05be d2ac 1a3d 0e7f 593d 0090 8cbd
000001b0: 9538 563e abe3 24be 2b63 15be 9589 2ebd
000001c0: 9ec4 963e b363 043e 1b77 5bbd da6f 873e
000001d0: dae8 5c3c 9cf1 35be f91c 35be 3a2b 463e
000001e0: d2f9 50be a60a 813e 1623 053e c5f6 343e
000001f0: 5fbf edbd 9d02 b33d c8c2 0b3e de7e 593e
00000200: 112f 043e 3348 913e 183f 48be 330c 323e
00000210: 83c2 5b3e 0676 79be f567 8f3e 1a04 babd
00000220: c363 3ebe ffdc 9cbc ea4d 553e 97dd dfbd
00000230: bf10 ecbc 1b7c 81bd 68d6 843e cb88 063e
00000240: 4c1e 353e c8b9 993b 534a ddbd b5b9 3e3e
00000250: 608c 763e 8c3f 42be 9e42 393c e155 44be
00000260: 6eac b73e 604d 76be 8cec 563c 9d19 213e
00000270: a1be 1bbe ad4d cdbb 1148 843e eee4 b93c
00000280: 28a4 933c b1c8 8c3e f72c 08be a3b3 4cbe
00000290: d441 3ebe f073 1a3e 1a64 24bd 2d57 efbc
000002a0: 43ec ddbd babd fcbb f320 45be df79 813e
000002b0: 20a7 3dbe 7b9d 3a3e d63a b3bc ae8c 773e
000002c0: a0e1 1abe f98c 623d dbcd 6fbe 0a35 9f3c
000002d0: 6dad 573e 2532 cfbd 9e63 aabe 37fc 1abe
000002e0: e047 643d 0d01 dbbd 5164 673e 9d9f 163e
000002f0: efed e03d 7f37 5cbe 0a65 a6bd 742f 713e
00000300: 2f62 173e 7615 97be 378a 903b 8a47 803e
00000310: d108 283e 7c2a 2f3e 6b42 43bd 69c4 8d3d
-0.30474168 0.2930884 -0.15205693 -0.11739109 -0.13884595 0.050238207 0.044272106 0.19569226
-0.17920426 0.21871287 0.11991795 0.11074641 0.23621564 -0.24733892 0.1233339 -0.042452086
0.29049256 -0.036383335 -0.006041355 -0.19688115 0.0066397884 0.025359781 0.09136854 -0.2681327
0.06482234 -0.16581452 -0.20930818 -0.18144774 0.07736219 -0.05282297 -0.23380053 -0.07537986
-0.0011755461 0.14624316 0.17818819 0.3583435 -0.10097175 0.082341686 -0.14415212 -0.050953347
-0.28457615 0.0562199 0.024984919 0.09783497 0.24776143 -0.19951151 -0.11066481 0.15118313
-0.16558649 0.0129925 0.113718174 0.01960248 0.15170601 -0.008949313 -0.043560933 0.026204824
-0.07443811 0.13852167 0.1616379 0.17201068 0.18653175 0.12142349 -0.1375371 -0.0141321
-0.15575938 0.046716 0.20314077 0.042523578 -0.13015832 0.08808707 -0.07676174 0.015893321
-0.061678663 0.08996069 0.26104283 -0.14635184 -0.0070945513 0.24395321 -0.14265035 -0.025912857
0.1792431 0.15234835 -0.10265828 0.17693394 -0.0150585 0.007948777 -0.070815936 0.03936357
0.11346407 -0.16171362 0.29925978 -0.025028884 -0.18380858 -0.1740703 0.01796932 -0.043206066
0.007487753 0.06393526 -0.06692643 -0.056822874 -0.0973078 0.29141667 0.123125665 0.035896827
-0.1306122 0.03776247 0.053099684 -0.06863403 0.20920022 -0.16102473 -0.14588611 -0.042611677
0.29446882 0.12928657 -0.053580385 0.26452523 0.0134832505 -0.17767948 -0.17686833 0.19352427
-0.20407799 0.25203437 0.13001665 0.1767226 -0.11608767 0.08740733 0.13648522 0.21239802
0.1290858 0.28375396 -0.19555318 0.17387466 0.21460919 -0.24361429 0.28009 -0.090828136
-0.18592744 -0.019148348 0.20830503 -0.10930937 -0.028816579 -0.06322499 0.2594483 0.1313812
0.17687339 0.0046913363 -0.10805192 0.18625529 0.24076986 -0.18969554 0.011307387 -0.19173385
0.3587374 -0.24052954 0.013117921 0.15732427 -0.15209438 -0.006265363 0.25836232 0.02269217
0.018022612 0.27496865 -0.13298403 -0.19990401 -0.18579799 0.15083289 -0.040134527 -0.029216373
-0.10836079 -0.007713047 -0.1925085 0.25288293 -0.18520784 0.18224137 -0.021878641 0.24174759
-0.15125132 0.055310223 -0.23418371 0.01943447 0.2106225 -0.10116986 -0.33279127 -0.15135275
0.055732608 -0.1069356 0.22596861 0.14709325 0.10982882 -0.21505545 -0.081247404 0.23553258
0.14783548 -0.2950856 0.0044110077 0.2505458 0.16409613 0.1710605 -0.047670763 0.06922228

mu.2.weight f4 [200, 200]
00000000: ce82 313e 72fb 993d 2092 a73d 251a 0fbe
00000010: edce a03e f158 373e c36e 6dbd 8228 943c
00000020: d07e 90bd fbc0 ab3d 9a1f 133e 03e4 0a3c
00000030: 9785 fc3d 0e44 11bf 34db 813d ba2c f63d
00000040: 4541 503d 89a2 163d dff4 183c 1aa9 a0bc
00000050: 9e6b afbd cdf6 f0bc 10a4 283d 23ca bbbd
00000060: 5f68 37bd d0c7 033e 8910 9f3d 64c3 633e
00000070: 63a8 003e 2f94 5c3e 56ab 12be b21e ad3d
00000080: 66dd 84bd 4f18 6f3d 5a26 96bd b323 5d3d
00000090: c92d d6bd 3ac6 b13d b655 493e 507c f4bd
000000a0: e599 a0bd e44e 32be f985 78be 381a fbbd
000000b0: ceed cb3c 76f0 0bbf 3137 f23c 225e be3b
000000c0: 0433 8fbe f786 b83d cfd9 103e 7e7a 38be
000000d0: 684a 00be 0dfc 333e ce10 f0bc 4bab 343b
000000e0: 7ac8 16bd cb7e 11be 4d93 9dbe 8f2f 1abc
000000f0: a1b5 ae3c 432a 7dbe 48bb 05be f65c 053d
00000100: 4c02 973d bfa2 3f3c 1d8f 5fbe aaec 82bd
00000110: 69f1 8c3c 41b8 003d 6435 3fbc e3f1 bb3d
00000120: 024c f13d bcc1 8b3d ac99 e43c 548c 1bbd
00000130: 70a9 37be 7a3a 66be 3238 b8be 75ab 41be
00000140: 9b2e 3ebd 4ada 9a3d 789f 5b3e 0b27 543e
00000150: e6fc 783c 5784 0bbe ac14 083e 9624 aebc
00000160: a9ae fdbc 50bb aabe 6a4d 02bd b4aa 313d
00000170: 7f84 a13c 6b42 a13d d7f5 fe3d a9ff 4c3e
00000180: 9d7d 883d c446 08bf 89c0 ea3d 1959 1e3d
00000190: 5a8b 093e 4c25 94bd 4204 e43d 7cb0 063e
000001a0: c9d7 c9ba bca4 eebd d525 9abc 6712 76bd
000001b0: c8ab 7e3c b78f 413c 1730 67bd 22f1 af3d
000001c0: 465a 9cbe 5547 953c e796 ed3c 68fe 5cbc
000001d0: 98dc bdbd aafc fbbd a104 42be d89c 0a3e
000001e0: fba5 ef3e c278 0dbe 7258 79be 2b7c 92bd
000001f0: 7494 4abc 5a1d 0d3d a66e 483c 9321 2dbc
00000200: 3002 21bd 7a55 9b3d 696c 4c3d cbe9 38bd
00000210: fd37 00be 1dc9 c6bc 8718 2abd 2948 5f3d
00000220: 97cc 75bd 2dd6 06bd fd9a df3d 976c 193d
00000230: a046 643c db59 ba3b 3966 b03d 87d4 843d
00000240: 8ffb 28be ba08 253d 2e29 ebbe 07c7 983d
00000250: bb72 3b3d 8f5e c8be 069c 923b a4e4 a2bd
00000260: c369 253c 3f9e 363d d1b6 483d 7247 ac3d
00000270: 085d 333e 07d8 92bd e572 06be b630 c8bd
00000280: 7c64 373e 17ec be3c 7dd9 a73d 72d2 a73d
00000290: b6cb 63be c206 f03d be9a 09bd 5c96 21be
000002a0: 6e55 733e d4c7 95bd 86da 13bd ec15 8c3d
000002b0: 6e8e b83d 9fc1 273e 1c62 113d ab8e 953c
000002c0: a1ca 83bd 858c ce3d 00bf b2bd 860c 1f3d
000002d0: 3b98 523c d96d 7cbe 21ce cdbe c561 213d
000002e0: 9f91 7fbe ecc8 7dbe f386 bebc 98b3 c53c
000002f0: d3ba 003e 91f3 1ebe ab06 f13d b2c5 6d3d
00000300: 7261 3dbd 73f0 0f3e 208a 6e3e 51ec 903d
00000310: 535d d03d 42c9 78bd d7b6 efbd 349d fdbd
00000320: 1890 223e 0a24 5ebd 4324 9339 02fb a73c
00000330: e6cb 5f3c b987 b73d 19af 2b3d 1f65 2b3c
00000340: 7cfa 383d 529d 063e 3581 8c3d 14ac 0b3e
00000350: 1787 843d 4d4f 5ebe 55c0 f43d 9644 6ebd
00000360: f543 883d 05f2 43bd 9c31 d23d 0fc8 dc3b
00000370: d519 ed3d ee0a 863d 62db 8bbc 4254 1a3e
00000380: a747 b5bd c01f 43bd 8010 f6bd 4456 81bc
00000390: 5357 a33d c98b 3d3e a76d d7bc a302 a3bd
000003a0: 4132 39bd 2542 1abd fe0e a5bd e2b2 633d
000003b0: 1faa 403e 7454 b5bc 2d58 4dbd c5cd 37bd
000003c0: f106 b2bc 0af7 9abd 3b4d 3d3d a80f ee3b
000003d0: ebee 0ebc 4795 013e 8369 b63d b7bf 3d3d
000003e0: 2ec3 6fba fef6 ee3d 42c8 debd de6e 3b3d
000003f0: 044f a33d 8210 d83c ea56 8bbc 601f 873d
0.17335054 0.075186625 0.08182168 -0.13974817 0.31407872 0.17905022 -0.05796696 0.018085722
-0.070554376 0.083864175 0.14367524 0.008477214 0.12330168 -0.5674447 0.06340638 0.1202025
0.050843496 0.0367761 0.009335726 -0.019611884 -0.08565448 -0.029414559 0.041172087 -0.09169414
-0.04477727 0.12869191 0.07766826 0.22242504 0.12564234 0.21540903 -0.14323172 0.0845312
-0.06487541 0.05837279 -0.07331534 0.053989124 -0.104579516 0.08680387 0.19661602 -0.11937773
-0.07841853 -0.17412907 -0.24269857 -0.1226086 0.024893668 -0.5466379 0.029567333 0.0058095613
-0.2796861 0.090101175 0.14145587 -0.18015477 -0.12528384 0.17576618 -0.029304888 0.002756792
-0.036812283 -0.14208524 -0.30776444 -0.009410753 0.021326842 -0.24723153 -0.13059723 0.032559358
0.07373485 0.011696517 -0.21831937 -0.06392796 0.017204957 0.03142572 -0.011670444 0.091769956
0.117820755 0.06824061 0.027905308 -0.037975624 -0.17935729 -0.22483245 -0.35980374 -0.18913062
-0.046431165 0.075611666 0.21447551 0.20718019 0.015197014 -0.13624702 0.13289136 -0.02125768
-0.030967074 -0.33346033 -0.03181211 0.043375686 0.0197165 0.07873996 0.12449234 0.20019402
0.06664584 -0.5323298 0.114625044 0.03865919 0.13432065 -0.07233676 0.111336246 0.13153261
-0.0015399392 -0.11652514 -0.018816868 -0.060076144 0.0155438855 0.011814049 -0.056442346 0.08590914
-0.30537623 0.01822249 0.02900262 -0.01348839 -0.092705905 -0.12304051 -0.18947078 0.13536394
0.4680632 -0.13815597 -0.24350145 -0.071525894 -0.012364496 0.03445182 0.012233412 -0.010567087
-0.039308727 0.07584663 0.049908075 -0.045144837 -0.12521358 -0.02426582 -0.041527297 0.054512177
-0.060009565 -0.032919098 0.109182335 0.037457075 0.013932854 0.005686981 0.086132474 0.06485849
-0.16502212 0.040291525 -0.45929855 0.074598365 0.045763712 -0.39134642 0.004474166 -0.07953766
0.010096016 0.04458451 0.049002472 0.084120646 0.17515957 -0.0717011 -0.13129766 -0.09774916
0.17909425 0.023305936 0.081957795 0.08194436 -0.22245678 0.11720039 -0.03359484 -0.15780014
0.23763058 -0.07313505 -0.036097072 0.06840119 0.09011541 0.16382454 0.035493955 0.018256506
-0.06435133 0.10085396 -0.087278366 0.038830303 0.012853677 -0.24651279 -0.40196326 0.03939988
-0.24957894 -0.24783677 -0.023257708 0.024133489 0.12571268 -0.155226 0.1176885 0.058049865
-0.04623551 0.14056568 0.23294878 0.07076324 0.1017405 -0.06073881 -0.11704796 -0.123835
0.1587528 -0.05423359 0.00028065042 0.020505432 0.013659453 0.08961434 0.041915033 0.010461121
0.045160756 0.1314595 0.06860582 0.13639861 0.06471079 -0.21709938 0.11950747 -0.058170877
0.06653587 -0.04783823 0.102633685 0.006737716 0.11577193 0.065450534 -0.017072383 0.15071204
-0.08851557 -0.0476377 -0.12014866 -0.015788205 0.0797564 0.18510355 -0.026297403 -0.07959487
-0.04521394 -0.037660737 -0.080595 0.055590518 0.18814896 -0.022134997 -0.05013292 -0.04487397
-0.021731826 -0.0756665 0.04621623 0.00726505 -0.008723955 0.12654601 0.089068435 0.04632541
-0.00091462105 0.11668204 -0.1087804 0.045760028 0.079740554 0.026375059 -0.017009217 0.06597781

mu.2.bias f4 [200]
00000000: 2fdd 0abc 0ad0 af3d 31ff 823d 22e9 31bd
00000010: e1bc 6fbc aba0 903c 54ee 42bd f48f a4bd
00000020: f022 8f3d ebfd 883d 7a49 163e 3639 73bc
00000030: af96 16bd 9e5e 1fbd f2b1 043d 76ac 9e3d
00000040: f8a9 333d 589c fb3a fb44 a1bd baba 5a3c
00000050: 0801 acbc 7279 95bc 4284 913d b6a6 86bc
00000060: bcca a23d 4518 b1bb 8018 c4bc de5d 923d
00000070: a6b5 34bd 6106 2c3c 7fc3 9f3c f3bd febc
00000080: 3331 e73c 60c1 633c 4274 4bbd db3e 313d
00000090: b53e 98bb ffbe c3bd 2d86 a1bd 2783 8e3c
000000a0: 4a2a 923d 5d1c 953d 7d2c e03c 2d45 dd3c
000000b0: 8fa1 0ebc 8ec8 4ebd bcd5 35bc 67e2 433d
000000c0: b434 803d 74af 5d3d c95e 173d 43d5 e33c
000000d0: 55ea 943c c865 7fbd 75a2 7bbd b806 91bd
000000e0: 149e f0bb a28e c7bd 0ee8 97bb 4749 9a3c
000000f0: 2af9 04bd d8ef 3fbd 981e a33c 38ae bf3c
00000100: 2a22 7a3d 1512 973d a318 993d ba25 413b
00000110: 8b0a c43d 8653 d0bc 6860 a7bd 925e cabc
00000120: cb63 2c3c b930 693c 5bfa be3c e709 24bc
00000130: 0f39 1b3d 29ca 7bbd a540 883d 1679 603a
00000140: 3487 043d a7de b23d febc 81bd 3f14 2f3c
00000150: 85e3 05bd b3c3 463d b820 303c d87d a43c
00000160: 16d4 4dbd ce57 8c3d e88f a53c 0c58 cc3d
00000170: efac e23c 79ef 9a3c 2574 cebc 1ec7 5c3d
00000180: e80d 363d 0c03 96bc 536d 86bd 6851 1abc
00000190: e72f abbc 86c6 bd3c c3a8 3c3d 0d64 783d
000001a0: d305 2dbd 0028 90bd f64c 963c cac3 8c3d
000001b0: 808c debd ca81 903d 2940 8b3d 8c07 2fbd
000001c0: 71e7 95bc 33c7 eb3c f58b e6bc d686 0e3c
000001d0: 1ef3 613d 2804 75bc 9ff5 393d f800 fdbc
000001e0: bc0e cc3d 9e7e 40bd 8f91 c9bc 1d82 d83a
000001f0: 3654 023d ca55 61bd b439 90bd ea71 293d
00000200: 59e3 353d 3ce3 093d 57dd 713d 9391 8ebc
00000210: ec35 cdbc 425a 24bd 1fa6 9f3c de91 b43d
00000220: 09c5 a1bc 185d 5dbd bf56 dcbc 7789 f73d
00000230: b68f 7abd e5c0 853d 3a78 253d 2f57 27bc
00000240: 81fc 493b 88b9 243c f1f7 ab3d acb3 82bd
00000250: 3797 24bb 3f7a 2e3d 56c3 0dba 2cb5 45bc
00000260: 6ea3 12bd 6a29 f6bc b7b2 a43d 9477 4cbd
00000270: 6f48 fb3d e985 4b3d 01d7 45bc ca49 5f3d
00000280: 8d69 1bbd e4a2 6a39 d70e 983c 1194 55bd
00000290: 588b b03d 0bfc 71bc 7ff1 883b e37d 8cbc
000002a0: 424e e23c 7372 e0bb 824b 993c 909f a33d
000002b0: 3c34 e0bc 7645 fa3b 1596 33bd 4b22 763c
000002c0: 92e0 f83c 79e0 47bc 4b0d 523c 1beb 8c3d
000002d0: 07d8 263d f73b 9a3d 0b1c dc3c 9a35 503d
000002e0: 956f e63c d362 73bb 489a 90bb 0a5d da3c
000002f0: 0fe4 603d c32a 5f3d e621 603d 0e4c ee3c
00000300: 2069 943d 283f 3b3c 5f56 c1bd 880b 0c3d
00000310: 3b52 3ebd 3c95 66bd 5fa6 673d 1897 40bc
-0.008475586 0.08584602 0.0639633 -0.043435223 -0.014632435 0.017654737 -0.04759057 -0.080352694
0.06989086 0.06689056 0.14676467 -0.014845183 -0.036764797 -0.038908593 0.032396264 0.07747738
0.043863267 0.0019196374 -0.07874485 0.013350183 -0.020996585 -0.018246386 0.07105304 -0.016436916
0.07948825 -0.0054045045 -0.023937464 0.0714681 -0.044118546 0.010499568 0.0195024 -0.031096434
0.028221702 0.013901085 -0.04967142 0.043272834 -0.004646147 -0.09557914 -0.0788692 0.017396523
0.07136972 0.072808005 0.027364964 0.027010525 -0.008705511 -0.050484233 -0.0110983215 0.047823336
0.06260052 0.054122403 0.03695563 0.027811652 0.018178144 -0.062352926 -0.061434228 -0.070813596
-0.007343063 -0.09744002 -0.0046358174 0.01883377 -0.032464184 -0.046859592 0.01991205 0.023398504
0.061067738 0.07376496 0.07475402 0.002947195 0.095723234 -0.025430452 -0.08172685 -0.024703298
0.010521839 0.014232808 0.023312738 -0.0100121265 0.037896212 -0.06147209 0.06652955 0.0008562965
0.032355502 0.08733874 -0.063348755 0.010685979 -0.032687683 0.048526477 0.010749988 0.020079538
-0.05025109 0.06852685 0.020210221 0.09977731 0.027670352 0.018913018 -0.025201866 0.05390083
0.044446856 -0.018312 -0.06563821 -0.009418823 -0.020896865 0.023165952 0.04605938 0.06064229
-0.042241883 -0.070388794 0.018347245 0.06873281 -0.10866642 0.07056005 0.06799347 -0.042731807
-0.018298836 0.028781509 -0.028142909 0.00869914 0.055163495 -0.014954604 0.04540026 -0.030884251
0.09963748 -0.04699575 -0.02460554 0.0016518269 0.03181859 -0.055013455 -0.07042256 0.041368403
0.04440627 0.033663973 0.059048977 -0.0174034 -0.025050126 -0.04012514 0.019488392 0.088168845
-0.019747274 -0.05404386 -0.026896833 0.12086766 -0.06117221 0.06530932 0.04039786 -0.010213657
0.003082067 0.010054 0.083969004 -0.06381926 -0.0025114545 0.04259705 -0.00054078305 -0.0120671205
-0.03580039 -0.030049045 0.080419 -0.049918726 0.12269675 0.049688254 -0.012075187 0.05451373
-0.037942458 0.0002237666 0.018561764 -0.05214316 0.08620328 -0.014769564 0.004179179 -0.017149871
0.027625207 -0.006849581 0.018712763 0.079894185 -0.027368657 0.007637675 -0.0438443 0.0150228245
0.030380521 -0.012199515 0.012820552 0.0688078 0.040733363 0.07530969 0.02686884 0.05083237
0.028129378 -0.0037137761 -0.004412923 0.026655693 0.054904994 0.05448414 0.054719828 0.029089
0.072466135 0.011428632 -0.09440302 0.034190685 -0.04646514 -0.056294665 0.05655515 -0.011754774

mu.4.weight f4 [12, 200]
00000000: 962a bb3c 4c86 51bc 2e10 dc3c 327e bfbc
00000010: 74da 6d3b 35ab fbbd 2755 e8bd dc64 553e
00000020: 3b35 9ebd 99c7 873d 92c0 30bc 90b8 d33d
00000030: 9203 17bc 14f1 bebd 2d30 8d3e 554e 5c3d
00000040: ac83 08bd 9efd 14bd b864 52bd b2a4 053e
00000050: c2da d2bd 1ba9 933b 65db 3f3d cddd 2d3d
00000060: 056b 173e 9b1d 14be 5471 9b3d bcd0 883d
00000070: dbdb 343e 9566 86bc abb1 1abe 0ae4 43bd
00000080: d726 bd3c aeba 59bc d53b 00bd 0100 903e
00000090: b22d c3bd c6c2 37bd e737 d23d 2015 42bd
000000a0: 1b5d 6abc 3476 acbd 71ad df3d aaa1 74bd
000000b0: 7692 82bd 3ad6 6ebd 3a82 ce3d 4d90 113e
000000c0: 44e1 c5bb 222a 983d 7379 97bd 8464 8a3c
000000d0: 10dc 3e3a bee4 933d 0dba 13be 272c 483d
000000e0: 923b c43b 7f20 413d c1eb 0e3e 534b 0c3b
000000f0: d69f 3f3e a6d4 503d 3105 40bd 921c 03be
00000100: 59e2 25bd 2a6d 423d df7c a6bd 966e 4dbe
00000110: 050c 05bd be63 78bc 3a83 733d b814 103b
00000120: 8d80 abba f781 233d d1af f93d f5dc b5bb
00000130: aa50 613e 5c38 27be d332 b83d c332 88bb
00000140: c8fb 76be 8a03 943d b3cf 86bd b45f af3c
00000150: cc57 183d 8f46 b73d d1ee 813d e41f 3ebc
00000160: 46cd 09be e446 25bd 1f04 7a3e bceb 033d
00000170: 6ccb 083d a51b 93bd e583 833d 6720 5cbd
00000180: 7632 72bd c7bb 88bd 14dd 043d a595 cabd
00000190: 87be 78be b827 bfbd 89f1 4cbc dded be3d
000001a0: 30ac 1cbd ce9e 193d c7be 703a 82bd ab3d
000001b0: f975 8d3d 492a eebd f803 2dbd 15a0 5e3e
000001c0: 8d5b 48bd 06b0 b1bc f100 6c3e 62ec cfbd
000001d0: ecb1 50bc 94de 453d 1518 373d 27c2 3b3e
000001e0: dfd8 e2bd 332c 64bd aa44 3a3e c46f a03c
000001f0: 22a3 1cbd ce7c ad3d 7442 4dbc b151 19be
00000200: 662f 51be be72 1c3e d16f 5dbd f4d9 e33d
00000210: 237a 5b3d a617 193e 0ade da3c 3765 063e
00000220: 8c87 813d 8c49 c7bd ad50 80bc 2d14 603b
00000230: 057e 0c3d 3c79 90be 5e3c eabc b49f 0b3e
00000240: 8e56 0ebe 1de7 ffbc 30fa b5bd c3ce e0bd
00000250: 5234 6abe 396f b63c 926e 23be b5d6 8cbd
00000260: 91f9 943c 12d8 c93d 1475 e33d f92d c1bb
00000270: 9135 52bd e49f be3d d8b0 bc3b 5184 a53d
00000280: ac65 d03d 7b28 b6bc 7e5b 203c 6617 a7bd
00000290: d55d c8bd 8da0 1cbe c94a a83d 4e5b 4e3d
000002a0: 70da ef3c e6c0 69bb 4725 02bd c012 603d
000002b0: ae52 863c 3935 033d fb6e 5e3d d20f be3b
000002c0: 8bc8 edbd a442 20be d12c 733d c685 98bd
000002d0: a42e b1bc 7b4f 73bc 327e 403e e19d 97bd
000002e0: 5cbe 2abd 69c4 9cbc fc27 16bd dc57 bfbd
000002f0: f389 353c d88a 433d 206d bcbe 1148 86bc
00000300: 2b6c 6d3d 1683 26be ffe8 713d c6e3 c73b
00000310: 26e0 f53c ed1f a1bd 7b93 813d 90fe 3abd
00000320: 6d52 d8ba 42f3 9cbd 5f3e 4f3d 56f6 bb3c
00000330: 7eeb d53d 9498 e0bd ccab 053e 9f00 14be
00000340: 486b 42be 0575 c2bd 42c2 9cbd 1d41 03bd
00000350: a7c3 ca3d c123 16be ac77 353e a108 263d
00000360: fbf5 0dbd d2d8 bebd 4513 233d 01e0 9d3c
00000370: 9553 b73d c17f 0bbd 7bd8 28be e801 543d
00000380: a83b a0bd b3d3 bebd 9a21 383d 7016 fbbc
00000390: e424 9f3d 00f9 183e 7c31 bb3c 67b6 1a3b
000003a0: a616 b5bd 1bae 153e 65f0 7ebe 0047 a1be
000003b0: 7697 843d babd 22bd 6791 56bd d801 fa3b
000003c0: c81b 743e 344e 873c 6470 32be 4eec d0bc
000003d0: 8744 0a3c 1c9a c83d a9ec 0fbc 9a66 283e
000003e0: 60d9 29bd b7a4 8c3c 8eca 3ebd d013 e2bc
000003f0: b667 7cbd 1346 0bbe 40cb 03bf 458e 9e3c
0.022847455 -0.0127883665 0.026863184 -0.023375604 0.0036293538 -0.122885145 -0.113443665 0.20839256
-0.07724997 0.06629867 -0.0107881 0.10337937 -0.00921716 -0.09323326 0.27575818 0.05378564
-0.033328697 -0.03637468 -0.051365584 0.13051108 -0.10295631 0.004506243 0.04684009 0.042447854
0.14786918 -0.14464419 0.07589975 0.06680438 0.17661993 -0.016406337 -0.15106837 -0.047824897
0.02308981 -0.013289137 -0.03130706 0.28125003 -0.095302 -0.044863485 0.10264569 -0.047383428
-0.014304425 -0.08420983 0.10921753 -0.059724487 -0.063755915 -0.05830977 0.100834325 0.14215203
-0.0060388166 0.07429911 -0.073962115 0.016893633 0.00072807167 0.072213635 -0.14426441 0.048870232
0.0059885466 0.04715013 0.1395712 0.0021407201 0.18713316 0.050984047 -0.04687995 -0.12803867
-0.040499065 0.04746739 -0.08129286 -0.20061716 -0.032482166 -0.015160499 0.05945132 0.0021985006
-0.0013084576 0.039918866 0.121917374 -0.005550022 0.22003427 -0.16330093 0.08994069 -0.004156442
-0.24119484 0.072272375 -0.06582584 0.02140794 0.037193105 0.08949005 0.06344379 -0.011604283
-0.13457212 -0.04035081 0.24415635 0.032207236 0.033397123 -0.07183007 0.06421641 -0.05374184
-0.059130155 -0.06676441 0.0324374 -0.09891824 -0.2429143 -0.093337476 -0.012508758 0.093227126
-0.03825015 0.037504964 0.00091837015 0.08385755 0.06907267 -0.11629159 -0.042240113 0.21740754
-0.048915435 -0.02169038 0.23047234 -0.10152508 -0.012737732 0.04830797 0.0447007 0.18335782
-0.11076521 -0.055706214 0.18190256 0.019584544 -0.038241513 0.0847107 -0.012528051 -0.14972569
-0.20428237 0.15278146 -0.054061715 0.11125556 0.053583276 0.14950427 0.026717205 0.13124548
0.06324682 -0.09730825 -0.01566347 0.0034191713 0.03429987 -0.28217494 -0.028593238 0.1363514
-0.13900205 -0.031238133 -0.0888561 -0.10976937 -0.22871521 0.022269832 -0.15960148 -0.068768896
0.018185409 0.09855665 0.11106315 -0.005895373 -0.051320616 0.093078405 0.005758386 0.08081878
0.10175642 -0.0222361 0.009787438 -0.0815876 -0.09783522 -0.1529562 0.08217389 0.050380044
0.029278964 -0.0035667955 -0.03177383 0.05470538 0.016396847 0.03203318 0.054305058 0.005800226
-0.11610516 -0.15650421 0.059368912 -0.0744739 -0.021628685 -0.014850493 0.1879814 -0.0740316
-0.041685447 -0.019136624 -0.036659226 -0.0934293 0.011080253 0.047739834 -0.36802006 -0.016391786
0.057964485 -0.16260943 0.059060093 0.0061001508 0.030014109 -0.078674175 0.06326958 -0.045652926
-0.0016504057 -0.07663585 0.05059659 0.02294461 0.10445307 -0.10966602 0.13053817 -0.14453362
-0.18986237 -0.09494976 -0.07654239 -0.03204452 0.09900599 -0.14662077 0.17721432 0.040535573
-0.034658413 -0.09318699 0.0398133 0.019271852 0.08951489 -0.034057382 -0.16488831 0.05175963
-0.078238785 -0.09317722 0.04495392 -0.030650347 0.07770708 0.14938736 0.022850744 0.0023607255
-0.088422105 0.14617197 -0.2489639 -0.3149948 0.064742014 -0.03973172 -0.05238476 0.0076296143
0.23838723 0.016516782 -0.17425686 -0.025503304 0.00843919 0.09795019 -0.0087844515 0.1644539
-0.04146707 0.017168386 -0.04657989 -0.027597338 -0.061622344 -0.1360095 -0.5148201 0.019354949

mu.4.bias f4 [12]
00000000: e016 37bd 0793 a73d 9f93 663d 42a9 12bd
00000010: df76 a3bd c7e7 a7bd b462 2f3d 82cc 87bc
00000020: 4627 37bd 730f 3ebd 1e17 c23d eb0d 483c
-0.04469955 0.0818234 0.056293126 -0.035805948 -0.07981657 -0.08198505 0.04281874 -0.01657701
-0.04471519 -0.046401452 0.094770655 0.01221035

reward_fun.0.weight f4 [200, 14]
00000000: ac32 413e bd4c 6d3e 27fe 68be 1e31 a13d
00000010: 3448 8a3e 3f5e 833d 0151 2cbd 06a6 453e
00000020: 7c71 4f3d 535c 76be 5fa4 853e d122 03be
00000030: 7868 433e db80 2abe a6b4 12be 6476 c0be
00000040: 3ddd 90be d59b 873d a1a8 233e 93a4 f038
00000050: 005f 943d 8b95 9a3d 6f09 3cbe fc92 483e
00000060: 809a 98be cbee 0b3e d099 9bbd 1f37 543e
00000070: fa64 15bd af67 5e3e caef acbd dd10 223c
00000080: 6310 963e 5270 95bc d124 363d 4049 383e
00000090: 58c3 4e3e eeaa 8e3e 844a 86be 760e 68be
000000a0: aa06 6ebe a360 61be 491f 733e 47fa 63bb
000000b0: 0762 eabd c946 03be ced5 bfbb 8cdb e73d
000000c0: 81f2 213d ec94 113e e04c 2cbe 7c83 903d
000000d0: d3f7 503e 892b e83d 8c72 f6be 0d20 85be
000000e0: fdd0 83be c4ce a2be aeff f43d 3a4b b4bd
000000f0: 270d 8cbd 0e4c 963e 627e 973e 568a cd3c
00000100: 0d90 373e b04f 2bbe b761 073d 761d 3b3c
00000110: 4014 a63e c359 d53e c1a4 3abd 6aba b93e
00000120: cbb6 ad3d ae45 913e f481 2fbe 4342 94bb
00000130: 0e9b df3c bdae 853d a69d 80be 9c86 46be
00000140: 4e68 563e 7491 b9bd c9bb 65be 2578 723d
00000150: 1f07 25be 64c9 c0bd c192 05be 17fa 3c3e
00000160: f4e3 c2bd adf9 b1bd 556b 093b 2e8f 20be
00000170: 78af 3e3d d310 47be 1257 b03e 3a68 1fbe
00000180: ba79 823c c99c 70be a6a7 adbd f21d 6bbe
00000190: f5e4 1fbe ff5e 96bd a1ba 6a3e 39ed dcbc
000001a0: 6d04 333e 730e 393c 11a2 9b3d 40cc cc3d
000001b0: 35b3 993e b5f1 bdbe 1485 8d3d 7aea a23e
000001c0: 6849 213e 25e5 6a3e 2ffc 7ebd f494 333e
000001d0: d334 003e f019 ac3e d664 60be 2bd2 22be
000001e0: f131 82be 3517 f13d 521c 7e3e 304c 55be
000001f0: 8772 c6be 0e39 3d3e d016 22be 531c ba3e
00000200: 5051 8ebe 6b74 0cbe c50e 623d 9859 59bd
00000210: 4b27 943d 9172 60be 01f0 04be 13f6 0f3e
00000220: 79c8 5a3d ade8 2ebe e960 05be b9bf 81be
00000230: 8124 0abe f6d8 5dbe c32d 473e a3b3 8aba
00000240: 9307 f43d 0709 90bd 362c 263e a24a aabd
00000250: 0712 8bbd f089 6bbe 6f4e 113e 0610 ec3d
00000260: 0f7f 92be 4570 533e 9c18 51be 61dc 1c3e
00000270: df8f 9c3e 40c4 f7bd 67e8 053d 786b 9cbe
00000280: 6e74 88be bba1 353e 07cb fd3d be9a 143e
00000290: 3de2 b5be 20a4 1d3d a063 13be 5523 c23d
000002a0: 0dbf a6be bb19 883e e229 7f3e af95 b6ba
000002b0: e441 1bbe 7391 25be daed 153e e661 ca3d
000002c0: ce89 68bd 1a66 7abd 840f 1cbe 32ed 0b3e
000002d0: f7c3 05bd 5d3a 15bc 195e a13e 6873 6b3d
000002e0: 30fa 0c3e eca1 be3d 69d4 00bc f104 1abe
000002f0: dae1 4c3e 0109 833d aeb2 f9bd 26c9 9fbd
00000300: 1bd8 453d 213b b13e 1081 89be 71fb e03e
00000310: 0260 b9be c127 b5bc c8ef 90bd c829 61bd
00000320: 443d 32be bb47 43be db1f 303d 8709 07be
00000330: 480f 023c 23d1 e53d 836f 833e 8d37 b0bd
00000340: ef81 91be 2cf8 2a3e e840 06be 85ed 25be
00000350: 3bcd 823c 6746 aabd 64f8 073e 0b47 5ebe
00000360: 91f9 843e bbc4 f3bd 43e6 463e 4ca1 5a3c
00000370: 0657 63be 7ff1 6c3e fa37 89be af00 d8bd
00000380: 9619 673e 6dd5 cdbd b3c1 8b3e a322 f23d
00000390: 1c69 a43e 8c18 e23d 8b91 2e3e 2ab6 8dbe
000003a0: 6ab2 a8bd b097 773e 7f3b 5fbe f183 bb3d
000003b0: f644 8bbe c233 e5be e0de 5ebe 9497 2e3e
000003c0: 511f b2bd 6d01 873e dc1e 7dbe b004 703e
000003d0: 5905 50bd ed6d e03d 6f2b 9b3d 5270 3d3d
000003e0: f249 c53d 7f6d 16be a67b f8bd 7622 673e
000003f0: dbf6 8e3d 6c33 aabc c561 903e 5b49 483e
0.18866986 0.23173805 -0.22753201 0.078706965 0.27008212 0.064144604 -0.04206944 0.19301614
0.050645337 -0.24058656 0.26101968 -0.1280625 0.1908282 -0.16650717 -0.14326724 -0.37590325
-0.2829379 0.066215195 0.15982296 0.00011474746 0.07244682 0.07548054 -0.18362974 0.1958732
-0.29805374 0.13665311 -0.07597697 0.20724152 -0.036473252 0.2171924 -0.08444174 0.009891716
0.29309377 -0.018242035 0.044468705 0.17996693 0.20191705 0.27864784 -0.26228726 -0.22661766
-0.2324473 -0.2200952 0.23742403 -0.0034786628 -0.114444785 -0.12819971 -0.005854345 0.11321172
0.03953791 0.14216965 -0.168262 0.07056329 0.20407037 0.11336429 -0.48134267 -0.26001015
-0.25745383 -0.31798375 0.119628295 -0.08803411 -0.06838446 0.293549 0.2958861 0.025090378
0.17926045 -0.16729617 0.033052173 0.011420598 0.32437325 0.41670045 -0.045567278 0.36275035
0.084821306 0.28373474 -0.17139417 -0.0045245006 0.027295616 0.06527469 -0.25120276 -0.19387287
0.20938227 -0.09060946 -0.22434916 0.05919661 -0.16115998 -0.09413412 -0.13044263 0.18454777
-0.09516135 -0.086902 0.0020968516 -0.15679619 0.04655406 -0.19440012 0.3444143 -0.15567103
0.015927184 -0.23497309 -0.08479242 -0.22960642 -0.15614684 -0.07342338 0.22922756 -0.026968585
0.17482157 0.011294949 0.07599271 0.09999895 0.30019537 -0.3709847 0.06910148 0.31819516
0.15750659 0.22938974 -0.06225222 0.1753729 0.12520151 0.3361354 -0.21913466 -0.15900485
-0.25428727 0.117720045 0.24815491 -0.20829844 -0.38759252 0.18478796 -0.15829015 0.36349735
-0.27796412 -0.13716285 0.055189867 -0.05306396 0.07234057 -0.21918704 -0.12982179 0.14058714
0.053413842 -0.17080946 -0.1302525 -0.25341585 -0.13490488 -0.21664795 0.1945105 -0.00105821
0.11915507 -0.07032972 0.16227803 -0.08315016 -0.06790548 -0.23001838 0.14190076 0.11526494
-0.28612563 0.20648296 -0.20419544 0.15318443 0.30578515 -0.120979786 0.03269234 -0.30550742
-0.2665133 0.17737477 0.1239224 0.14512154 -0.3552417 0.0384866 -0.14393473 0.09479395
-0.32567635 0.2658213 0.24918321 -0.0013930107 -0.15161854 -0.16168766 0.14641514 0.09881954
-0.056772046 -0.061132528 -0.15240294 0.13664702 -0.03265759 -0.009108153 0.31517103 0.057483107
0.13767314 0.09308228 -0.0078631425 -0.15040947 0.2000803 0.06398202 -0.121922836 -0.07802038
0.048301797 0.34615424 -0.2685628 0.43941835 -0.3620606 -0.022113683 -0.07076985 -0.054971486
-0.17406183 -0.19070332 0.04299913 -0.13187228 0.007938214 0.1122153 0.25671014 -0.086043455
-0.28419444 0.16696233 -0.13110697 -0.16203888 0.015967002 -0.083142094 0.13278347 -0.21706788
0.25971654 -0.11902758 0.19423775 0.01334412 -0.22201166 0.23138998 -0.2680052 -0.105470054
0.22568354 -0.10050473 0.27296218 0.11823013 0.32111442 0.11039838 0.17047708 -0.27678043
-0.08237155 0.24178958 -0.2180004 0.09156025 -0.2720105 -0.4476605 -0.21764708 0.1705001
-0.086973794 0.26368275 -0.24718803 0.23439288 -0.05078635 0.10958467 0.07576644 0.046249695
0.096332446 -0.14690207 -0.12132959 0.2257174 0.06980678 -0.020776473 0.28199592 0.19559233

reward_fun.0.bias f4 [200]
00000000: 60b1 7dbe ccb0 133e fa4d f63d 2860 3b3e
00000010: fe13 86be c9a8 8d3e 2e65 673e 6722 bcbd
00000020: 9c25 5dbe 80d2 55bc 48fe 8e3d 6bfb 33be
00000030: 47d3 40bd aa22 49bd ba2f 8dbe 4a91 d73d
00000040: b39f f83d 32a8 273e f819 f13d 49b3 113e
00000050: 8c40 68be 3da2 9c3e c1c3 bdbc 2cae 6fbe
00000060: a5b7 083e 0872 c2bd 34fc 983d 1c58 02be
00000070: ec86 1e3e 1296 6cbe 286f 103e 76ab 213d
00000080: 04cc 653b 9dab d9bd e80c 0d3e 3a43 953c
00000090: 3414 8abe b33c 42be c870 4a3c a897 7abe
000000a0: 7ed9 7f3c ad77 65be b82d 293e 6928 a53b
000000b0: 5ad4 74be 90cb 52be 7b9c d13b 1c7f 74bd
000000c0: 5c79 3b3e 06b0 033e 2ea8 ec3d 90db 0c3e
000000d0: fd46 f7bd 0e13 a33d 26ad 153e 1962 1fbe
000000e0: 65eb 54be fa35 313e 0c41 533e 7433 b5bd
000000f0: 7484 0e3e f66f 9b3d c6dc 203d bbe1 2f3d
00000100: f8d4 2cbe 27aa 1cbe b103 433e 43c8 5d3e
00000110: b3d6 36be 0b3c a93d f03f ae3d ea57 20be
00000120: ba9d e83d cf5c b6bd f231 9b3d 57ec 45be
00000130: 4a5b 8e3d 908d 603e 1f7b 6bbe 8313 243e
00000140: 70a5 573e 74d4 e9bd 8c38 063e de42 fcbd
00000150: 4f37 28be b899 6cbe 7d48 55be 22e7 79be
00000160: 41ef 3d3e 110b 563e 9edb 26be 8afe 9ebd
00000170: e81f f63b b451 593e 2737 983d 652b 1fbe
00000180: 8ddb 753e 8540 6f3e 0458 2e3c 615f 73bd
00000190: f8b4 273e e3ad 5abe e089 053e 8e76 3bbe
000001a0: 4046 403e 5986 f03d 75c5 5b3e d4c0 673d
000001b0: b509 3c3e e973 4bbe 5805 62bd e6b7 8c3d
000001c0: 47f1 8abd 1c30 1bbe f7b4 f03c 2849 cdbc
000001d0: a7c3 52be 25ac 72be bbaa b0bd 5a65 c8bd
000001e0: 4fa7 9cbc 668f 23bd b2c8 613e b3bd e8bd
000001f0: a45c 30bd 2372 91be 6561 bcbd ad33 a1bc
00000200: 5ded 103e 8f96 bc3d 3efd 1abe 0af0 5d3e
00000210: d110 6b3e f083 84bd d32f 0f3d 4309 23be
00000220: fc58 41be 0d7f fc3d ec14 173e 109f 693e
00000230: 9e15 b03d fecc c8bd 4c08 65be 0c77 17be
00000240: 90be e3bd 05d2 8abc c505 11be 7bd1 dd3d
00000250: 3c71 86be 0f3c 13be 316e 07be 2d58 cebc
00000260: da66 6bbe c0da 50be d11a ee3d 5a68 3a3e
00000270: 5942 36bd 278e 6d3d 35c0 d13d 31ac bbbd
00000280: 7255 1bbe c944 68be ebf7 febd 9691 073e
00000290: 8fa8 eebd ae58 2fbe bb2c 59be 97ad ed3d
000002a0: 0249 e73d f37f 12be 75b6 67be 48f4 3d3d
000002b0: 7cea 213e 22ca 3a3e 03a9 5fbe e070 0ebe
000002c0: 5922 a23e ac2d 97bd f53c 51be 5e02 493e
000002d0: 160b 0abe 085e ca3d a893 2dbd d095 41be
000002e0: bd46 893d 4ea2 9a3d c245 6abe 6f67 07be
000002f0: 609c e4bd 938d ac3d 396a 77be 68e1 20be
00000300: 63f2 153e 4ae5 85be 5772 9b3d e168 483e
00000310: 83c3 e3bd ef98 bb3c 55af 443d 4cf3 3cbe
-0.24774694 0.14422911 0.120265916 0.182984 -0.26187128 0.27667835 0.2259719 -0.09186249
-0.21596378 -0.013050675 0.06982094 -0.17576377 -0.04707649 -0.049105324 -0.27575475 0.105257586
0.12139835 0.16372755 0.11772531 0.14228548 -0.22680873 0.30592528 -0.023164632 -0.23406285
0.13351305 -0.09494406 0.07469979 -0.12728924 0.15481156 -0.23104122 0.14104903 0.03947016
0.003506423 -0.10628436 0.13774455 0.018220533 -0.2696854 -0.18968467 0.012355991 -0.24471915
0.015615819 -0.22408934 0.16521347 0.0050402177 -0.2390913 -0.20585465 0.0063968278 -0.059691533
0.18308014 0.12860116 0.11555515 0.13755631 -0.12074087 0.07962619 0.14616832 -0.15564765
-0.20792921 0.17305747 0.20630282 -0.088477045 0.13917714 0.07589714 0.039273046 0.042939883
-0.16878116 -0.15299283 0.19044377 0.21658425 -0.17855339 0.082634054 0.08508289 -0.15658537
0.11358209 -0.089044206 0.07577886 -0.19328438 0.06951006 0.21929002 -0.22996186 0.16023068
0.21059203 -0.11417475 0.13107508 -0.123174414 -0.16427349 -0.23105514 -0.20828433 -0.24404576
0.185483 0.20902659 -0.16294715 -0.07763393 0.0075111277 0.21222574 0.074323945 -0.15543897
0.24009533 0.23364456 0.010641102 -0.059417132 0.16377628 -0.21355395 0.13040876 -0.18306944
0.18776798 0.11744375 0.21462043 0.05658038 0.18363078 -0.19868435 -0.055180877 0.06871013
-0.06784301 -0.15155071 0.029383166 -0.025059298 -0.20582448 -0.2369848 -0.08626314 -0.09784956
-0.019122748 -0.039931677 0.22049215 -0.11364307 -0.0430571 -0.28407392 -0.09198264 -0.019677961
0.14153047 0.09208404 -0.15135667 0.21673599 0.22955634 -0.064704776 0.034957718 -0.15921502
-0.18881601 0.123289205 0.14754075 0.22814584 0.08597873 -0.09804724 -0.22366446 -0.14791507
-0.11120331 -0.016945848 -0.14162357 0.10830971 -0.26258266 -0.1437838 -0.13225628 -0.02518853
-0.22988454 -0.20395947 0.116262086 0.1820387 -0.044496868 0.057996895 0.10241739 -0.09163702
-0.15169314 -0.2268249 -0.1244963 0.1323913 -0.11653244 -0.17123672 -0.2120847 0.11605375
0.11293222 -0.14306621 -0.22628196 0.046375543 0.15812105 0.1824117 -0.21841817 -0.13910246
0.3166683 -0.07381758 -0.2043341 0.1962981 -0.13480791 0.09881216 -0.042377144 -0.18904805
0.067029454 0.075504884 -0.22878173 -0.1322305 -0.11162639 0.08425441 -0.24161614 -0.15710986
0.14643244 -0.26151496 0.07590168 0.19571258 -0.11121275 0.022900073 0.048018772 -0.18452185

reward_fun.2.weight f4 [200, 200]
00000000: a204 dc3c b416 c3bb 9e2d 38bc 2bbc 42bc
00000010: 393a fbbc 78b9 553d 6b01 853d 711d ecbd
00000020: 9144 13bd 8676 303d 0d6c 4fbe ad6d 0f3e
00000030: a876 e03d f5bf 34bc d06f 2dbd db76 46bc
00000040: 8988 953c b5db 7d3d d44a a3bd 65d0 83bd
00000050: 5c00 b63c 13ac e13c 7ac6 1abd 2c5e 42be
00000060: f677 12bc 943f cabe 6328 c43d a8ad 263c
00000070: f1cd 32bc 9552 603d ff4d 38bd 523a 5a3d
00000080: 754a 17be 92cc 52bc 2a13 243c bf8e 55bd
00000090: 282f 5abe 28a5 fabd dd92 a83d d986 37bd
000000a0: ef35 1cbc aceb 48bd 5aef b3bd c495 22bd
000000b0: 0e96 3dbd ffc5 e3bd aa75 ddbd 9690 833d
000000c0: fafd 1b3d 6f82 60bc ddc5 a83c ae6b 723d
000000d0: 67a0 443c 2da3 aabd 465d 4a3d 3c8e ee3c
000000e0: c374 2bbb 13f8 933d af65 9abc dd34 0ebe
000000f0: 4303 953d 7ff2 3f3c 095d 823c a971 b8bd
00000100: bfc7 92bd 635a 9f3d fdd4 29bd aeb9 c8bd
00000110: e071 4f3d ba21 ab3d 360d e23b 7557 31bc
00000120: a592 e6bd d183 4c3d 5909 3bbd 09b0 5d3d
00000130: 828a a7bd ba7e 1a3e e0d4 b93d 3a2e bebc
00000140: 2541 363c fded 34be 42b0 8ebc 9aa0 ccbd
00000150: a887 96bb a84f 6ebd 2c81 163e 1d02 0a3e
00000160: eee2 023d 7b36 a4bd b61c 553d 25f0 d8bc
00000170: 0401 2e3c cdba 4eba 9290 dbbc ce0a 4d3d
00000180: cb9a 5fbd 9c02 ea3d 9ebb 9d3d 112d dabd
00000190: 91b5 16bc 2323 013e 47a7 16bd 56c2 63bd
000001a0: 0a73 a13d 4efb d1bc 4f87 cabd 261b 94bd
000001b0: 9cc6 96bd c08d 4a3d 8f70 bebd 122b 94bd
000001c0: ffb9 41bd 91b7 17be 8dee ab3d 1ebe 5ebd
000001d0: 51ce e7bc ae28 f1bd b496 373d 0f12 84bb
000001e0: 0b8c c53d 9181 23b9 60c5 a1bd 204f d43d
000001f0: 9a4e 7fbc 4ec1 4ebe b72d 27be 01a9 0ebd
00000200: 1aed 633d 48b9 bd3d 3ab6 93bd 8cc9 023d
00000210: 213a 633d 273b 403d fe90 223d 3c47 bfbd
00000220: 8afc b1bd d80e 693d 3b65 0a3d 5043 05bd
00000230: 0c42 9e3d a38e 923d 5ac9 2fbd db00 043e
00000240: f2cc 6fbd 5708 b03d 9c08 10bd cfa6 3e3d
00000250: a749 143a e943 54bd cc3e 56bd 0460 f73c
00000260: dbf6 03bc e96f 2fbe 252e bdbc b76d 7cbd
00000270: c133 043d 476a 88bd 6a59 ddbd 139f 013e
00000280: c455 99bd bff5 2b3c 00f4 b23d 9947 5cbc
00000290: 5f36 acbc fff1 a73d 7b86 e83d 7ef8 913d
000002a0: 1f19 ce3d ef87 813d 6336 20bd 2c76 833d
000002b0: b0ff d5bc bdf6 ddbd ec0c 8c3d c781 fdbd
000002c0: bb03 01bd aebd 96bd bc33 90bd a648 dbbc
000002d0: 8a20 04bd 6d91 8c3d 89b6 a0bc 50cc 1e3c
000002e0: fe0e 74bd 7764 ac3d ed8f 6cbd ad65 91bd
000002f0: 65f7 c1bd eb25 38bd 3a4e 893d f169 cabd
00000300: 793e 41bd fd42 8bbe cb5c 883b 0872 f83c
00000310: 6a23 3e3d 394d 8cbd cf6e 0ebd 7578 183d
00000320: bb1c eabc 21b4 ac3c cee5 2b3d f739 86bc
00000330: e9bd 10bd 265d 85bc 619d 233d 64b5 1f3d
00000340: 014b 53bd 0088 63ba 9b85 253d 364c 7b3c
00000350: b472 24bc 80ab 38bd f66c 69bd 9ebc 023d
00000360: e136 91bd e9c1 d6bc c243 a93c d35f ecbc
00000370: a03d 0fbb 6b1d 24bd 3b61 63bd 8690 193d
00000380: 4496 c3bc d284 553d 24ba 3ebd c846 80bd
00000390: 4e01 25bd f751 153d fcf0 013c 99fc 933b
000003a0: db21 8abd 88de 1f3d 5d3f 833d f2b1 613d
000003b0: cc19 3e3d 5a07 68bd 4e7d 6bbd 388a ca3c
000003c0: b6c2 6cbd ccfc a2bc e6e8 443d dd55 74bd
000003d0: 0a0d 94bd 489e 1b3d dba7 f8bc aded 1abd
000003e0: 92b2 443d 5b6d 82bd f696 15bd 4421 86bc
000003f0: c139 f4bc b413 e1bc 14a4 8fbd 070c 51bd
0.026857678 -0.005953634 -0.011241345 -0.011885683 -0.030667411 0.05217883 0.06494411 -0.11529053
-0.035954062 0.043081783 -0.20256062 0.14006682 0.10960132 -0.011032094 -0.04234296 -0.012113298
0.018253582 0.061977107 -0.07973257 -0.064362325 0.022216968 0.027547872 -0.03778694 -0.18981236
-0.008939734 -0.3950163 0.09578016 0.010173239 -0.010913358 0.054766256 -0.044996258 0.053278275
-0.14774497 -0.012866156 0.010014335 -0.052138086 -0.21307051 -0.12238532 0.08231137 -0.044806335
-0.009534343 -0.04905288 -0.08785887 -0.03969361 -0.04628568 -0.11121749 -0.10813458 0.06424062
0.038084008 -0.013702973 0.020602161 0.059184723 0.0120011335 -0.083319046 0.04940536 0.029120557
-0.0026162125 0.07225051 -0.018847315 -0.13887353 0.07276013 0.01171553 0.015913503 -0.09006054
-0.07167005 0.07780912 -0.041462887 -0.098010406 0.05064571 0.08356042 0.0068985475 -0.010824074
-0.11258439 0.049930397 -0.04566321 0.05412296 -0.08180715 0.15087405 0.09073806 -0.023215402
0.01112393 -0.1766891 -0.01741803 -0.0999157 -0.004593808 -0.058181435 0.14697713 0.13477369
0.0319547 -0.08018204 0.052029334 -0.026481697 0.010620359 -0.0007886112 -0.026802335 0.050059132
-0.05459098 0.11426279 0.07701801 -0.10653127 -0.009198562 0.1261106 -0.03678062 -0.055605255
0.0788327 -0.025632527 -0.09889089 -0.07231741 -0.073621005 0.04945159 -0.092988126 -0.072347775
-0.04729652 -0.14816119 0.08395109 -0.05438053 -0.028296622 -0.11775337 0.044821456 -0.004030473
0.09645852 -0.00015593159 -0.078989744 0.103666544 -0.015582705 -0.20190927 -0.16326033 -0.034829143
0.05564604 0.09263855 -0.07212491 0.03193049 0.055475358 0.046931412 0.039689057 -0.09339759
-0.08690746 0.05689892 0.033787947 -0.032534897 0.07727441 0.07156112 -0.042916633 0.12890951
-0.05854506 0.08595341 -0.03516446 0.0465458 0.0005656727 -0.051822577 -0.05230598 0.030197151
-0.00805446 -0.17132534 -0.023093292 -0.06162807 0.03227592 -0.06660896 -0.1080807 0.12658338
-0.074870616 0.010495602 0.087379456 -0.013444805 -0.02102202 0.08200454 0.11353775 0.07127474
0.10063385 0.063247554 -0.039114367 0.06419024 -0.026122898 -0.10838077 0.06838402 -0.12378269
-0.0314977 -0.07360397 -0.070411175 -0.02676804 -0.032257594 0.06863675 -0.01961829 0.009692267
-0.05958461 0.084176 -0.057754446 -0.07099471 -0.09471015 -0.044958036 0.06704374 -0.09883488
-0.04717872 -0.27199546 0.0041614524 0.030327812 0.046420492 -0.068506666 -0.034773644 0.03722425
-0.028578153 0.021081986 0.041967206 -0.016385062 -0.035337362 -0.016279768 0.03994501 0.038991347
-0.0515852 -0.00086796284 0.04041062 0.015337994 -0.010037113 -0.04508543 -0.05698868 0.03191816
-0.070905454 -0.02621551 0.020662192 -0.028854286 -0.00218568 -0.040067118 -0.055512648 0.037491344
-0.023875363 0.05212862 -0.046564236 -0.062635005 -0.040284447 0.03645512 0.00793099 0.004516196
-0.06744739 0.03903058 0.0640857 0.055101342 0.04641132 -0.056647636 -0.057492547 0.024724111
-0.05780288 -0.019895934 0.04807367 -0.059652198 -0.072290495 0.037992746 -0.030353477 -0.03782432
0.04802186 -0.06368514 -0.03652092 -0.016373284 -0.029812695 -0.027475215 -0.07013717 -0.05103686
