experiments/data/sawyer_clutter_200steps_10H/mpc/2021-06-22_18-39-25_clutter_200steps_10H/model_final.pt (torch_old, 358080 bytes, 12 tensors)

log_std f4 [1, 12]
-1.9324878 -1.5750612 -1.2762786 -0.9809262 -1.0099318 -0.7272788 -0.97416997 -0.69472814
-1.1501068 -0.87350446 -2.2549067 -2.2444658
00000000: c35b f7bf 9b9b c9bf 195d a3bf fb1d 7bbf
00000010: 7245 81bf f22e 3abf 3463 79bf b4d9 31bf
00000020: b336 93bf fd9d 5fbf 6450 10c0 54a5 0fc0

mu.0.weight f4 [200, 14]
-0.19870518 -0.7877858 -0.015716044 -0.15736447 0.0995039 -0.21532099 -0.22098713 0.22419605
0.4723567 0.026947252 -0.31997925 -0.24236163 -0.29598573 0.30059588 -0.13582593 -0.10283843
0.3171565 -0.008111331 -0.09847342 0.15544493 -0.39306128 0.36252004 -0.038853027 0.25472808
0.3831007 0.057366095 0.294796 0.13381492 -0.38287187 0.010083176 0.06029162 -0.59786654
0.31093162 0.19659999 -0.06617805 0.3308168 0.2576336 -0.0581072 -0.16359037 -0.29646656
-0.08451847 -0.0062446855 0.10865804 -0.46124706 -0.039790597 -0.047176138 0.15604155 -0.34378982
-0.12066032 -0.38778934 0.19944721 -0.49537382 -0.23490524 -0.5057973 -0.07615302 0.8165272
-0.14791352 0.3042311 -0.12929955 -0.4628922 0.04204935 0.11171889 -0.00792438 -0.035157453
-0.047597215 0.22576691 0.38706133 -0.1693995 0.038821876 0.76589954 -0.2434974 0.4516603
-0.3824162 0.074026674 0.27846825 -0.010377711 -0.23303333 -0.6164222 -0.041749064 0.039884336
0.02643331 -0.6431252 -0.2936678 -0.38599265 -0.18846047 0.024927782 -0.19619593 -0.25693962
-0.38308218 -0.28960404 -0.24703638 0.1671817 -0.31024748 -0.14406423 0.058152802 0.019025175
0.42002848 -0.3018799 -0.17003629 -0.021391777 0.5628612 -0.16015603 0.41172463 0.3090269
0.12921391 -0.267436 0.043597303 0.07929843 -0.20959412 -0.14227052 -0.52019715 -0.41293123
-0.06343102 -0.39296955 -0.29682094 -0.5404593 -0.2883691 -0.17407568 -0.35432726 0.24310596
0.23363477 -0.15486987 -4.5403016e-05 0.15289246 0.59428924 -0.0046392283 0.07454391 0.48841855
-0.09908064 0.3359978 0.022950588 0.17473924 0.14163968 0.1445147 -0.028475542 0.29775032
0.19268048 0.10095044 -0.10735276 -0.626432 -0.008276222 -0.18526584 -0.27852973 -0.5792492
-0.4502773 -0.17368613 -0.019746382 0.2667181 -0.15400913 -0.090924606 0.4035604 -0.08649588
-0.37281787 0.20678432 0.401291 -0.14411765 -0.75852567 0.022249771 -0.5568405 -0.19130665
-0.345768 -0.32549006 0.33275455 0.1632745 0.067717105 0.3122324 0.44318122 0.3955305
0.26686305 -0.16394678 -0.25026518 -0.29385826 0.010120954 -0.3827117 -0.21288903 -0.31599015
0.19087717 -0.048579857 -0.15426172 0.37663254 0.4499197 -0.5549507 -0.012301805 0.2942087
0.52437276 -0.24880733 0.18180422 0.007957691 -0.37181878 -0.2586448 -0.06267628 0.21291989
-0.110436596 0.1671712 -0.9353145 -0.041282143 -0.1573202 0.01419325 -0.50658107 -0.29201213
-0.5063216 -0.5649487 0.15642098 -0.3023087 0.13812621 -0.3974141 -0.06550813 -0.14704004
-0.2486174 0.3995741 0.03815958 -0.07945939 0.009275517 -0.2526413 -0.21013403 -0.37846017
0.09179195 -0.08691822 0.14347643 0.24200533 0.3228029 -0.53224295 -0.40849462 0.6410478
0.22129288 -0.15696567 -0.296763 -0.280373 -0.07562479 0.16596752 0.22714241 0.21032542
-0.073489726 0.18319455 -0.36614233 -0.24190544 0.53352207 0.4515896 0.09704314 -0.14452946
-0.44104165 -0.051621698 0.096500196 0.023325145 0.29397637 0.145023 -0.00081670156 -0.39826155
-0.29112384 -0.14138688 0.2832968 -0.26974452 -0.040332153 0.46683413 0.07309572 0.24731798
00000000: 5f79 4bbe 55ac 49bf efbe 80bc 2724 21be
00000010: b3c8 cb3d 1b7d 5cbe 734a 62be a693 653e
00000020: bdd8 f13e 7cc0 dc3c 52d4 a3be a62d 78be
00000030: 718b 97be b4e7 993e f415 0bbe f49c d2bd
00000040: 5662 a23e 63e5 04bc 6fac c9bd f52c 1f3e
00000050: 543f c9be 3a9c b93e 5a24 1fbd b86b 823e
00000060: c625 c43e b6f8 6a3d 80ef 963e c706 093e
00000070: c807 c4be e833 253c 59f4 763d c80d 19bf
00000080: 6e32 9f3e 8251 493e 5c88 87bd d260 a93e
00000090: 8de8 833e d101 6ebd 3c84 27be 77ca 97be
000000a0: 0518 adbd 38a0 ccbb 1b88 de3d 9328 ecbe
000000b0: 77fb 22bd c43b 41bd 5bc9 1f3e 3805 b0be
000000c0: c21c f7bd 538c c6be e43b 4c3e a3a1 fdbe
000000d0: 008b 70be ef7b 01bf 1df6 9bbd ed07 513f
000000e0: a476 17be 2ec4 9b3e 1a67 04be 3500 edbe
000000f0: f03b 2c3d e0cc e43d 42d5 01bc 4301 10bd
00000100: 4cf5 42bd 712f 673e e72c c63e 1077 2dbe
00000110: b003 1f3d fe11 443f 6257 79be 0540 e73e
00000120: 0ecc c3be 4c9b 973d 6493 8e3e 4607 2abc
00000130: 4aa0 6ebe d8cd 1dbf 1101 2bbd c25d 233d
00000140: ab8a d83c daa3 24bf a05b 96be d4a0 c5be
00000150: c8fb 40be 5935 cc3c 96e7 48be 978d 83be
00000160: 5923 c4be fb46 94be 1bf7 7cbe ae31 2b3e
00000170: c2d8 9ebe 9385 13be a231 6e3d afda 9b3c
00000180: f90d d73e 0190 9abe fe1d 2ebe cf3d afbc
00000190: ac17 103f f1ff 23be 92cd d23e c638 9e3e
000001a0: a750 043e 5fed 88be 1693 323d 3767 a23d
000001b0: d79f 56be 5daf 11be a42b 05bf b96b d3be
000001c0: 1fe8 81bd 4e33 c9be eaf8 97be 8a5b 0abf
000001d0: 1da5 93be e540 32be 626a b5be c5f0 783e
000001e0: f43d 6f3e 3596 1ebe 1e6f 3eb8 d78f 1c3e
000001f0: 5723 183f ab04 98bb 7aaa 983d ff11 fa3e
00000200: caea cabd e707 ac3e df02 bc3c d8ee 323e
00000210: fe09 113e a9fb 133e 8a45 e9bc bb72 983e
00000220: 084e 453e 1bbf ce3d c4db dbbd d95d 20bf
00000230: fe98 07bc 54b6 3dbe 739b 8ebe ad49 14bf
00000240: bf8a e6be c7da 31be 2ac3 a1bc 468f 883e
00000250: 92b4 1dbe ae36 babd 789f ce3e c024 b1bd
00000260: fce1 bebe 45bf 533e 0476 cd3e 9493 13be
00000270: bd2e 42bf 2745 b63c 198d 0ebf e4e5 43be
00000280: 8108 b1be a2a6 a6be ce5e aa3e 6e31 273e
00000290: 44af 8a3d eddc 9f3e a6e8 e23e f982 ca3e
000002a0: 46a2 883e aae1 27be c222 80be 9774 96be
000002b0: 5cd2 253c caf2 c3be 95ff 59be 76c9 a1be
000002c0: 4e75 433e acfb 46bd c9f6 1dbe fbd5 c03e
000002d0: e05b e63e 4011 0ebf 838d 49bc 86a2 963e
000002e0: 4b3d 063f 59c7 7ebe e32a 3a3e fa60 023c
000002f0: 085f bebe 176d 84be 6c5c 80bd ac07 5a3e
00000300: 952c e2bd ed2e 2b3e c570 6fbf 7717 29bd
00000310: 8c18 21be ce8a 683c 4caf 01bf 9d82 95be
00000320: 4b9e 01bf 7aa0 10bf d22c 203e 35c8 9abe
00000330: f570 0d3e dc79 cbbe 2029 86bd aa91 16be
00000340: 8f95 7ebe fa94 cc3e 384d 1c3d 9bbb a2bd
00000350: 57f8 173c 335a 81be 602d 57be 88c5 c1be
00000360: 6bfd bb3d 2e02 b2bd 7ceb 123e 3fd0 773e
00000370: 6c46 a53e 1341 08bf 3526 d1be b51b 243f
00000380: 9a9a 623e 9cbb 20be 52f1 97be 0d8d 8fbe
00000390: 2be1 9abd 64f3 293e 0598 683e 8c5f 573e
000003a0: c881 96bd 5a97 3b3e 0277 bbbe 0fb6 77be
000003b0: e794 083f c136 e73e 8ebe c63d 88ff 13be
000003c0: 36d0 e1be 4671 53bd e5a1 c53d 6014 bf3c
000003d0: 1284 963e e980 143e ea17 56ba f0e8 cbbe
000003e0: 2f0e 95be b9c7 10be 470c 913e f41b 8abe
000003f0: 5433 25bd e204 ef3e 35b3 953d ed40 7d3e

mu.0.bias f4 [200]
-0.10536412 0.2092764 -0.2947995 -0.34671018 -0.12816902 0.16649464 0.33557862 0.020189524
-0.031350914 -0.063798875 -0.10690192 -0.27409306 -0.29061067 -0.31242922 -0.47537208 -0.19642502
0.1578678 0.32201362 0.3112339 -0.23966162 -0.068074636 -0.13384636 -0.12801906 0.22541085
-0.10727081 -0.116642796 -0.3301132 0.32383084 -0.15708444 -0.13382106 -0.19385391 -0.17571391
-0.117000364 -0.08147701 0.011394572 0.19351558 0.27295938 0.1609384 -0.1777223 -0.071496375
-0.04999428 0.20305973 0.044303894 -0.059426937 -0.16118638 0.107376315 0.2698906 -0.015793202
0.21890016 0.23706226 -0.1233578 -0.23845199 -0.19838403 0.15181065 0.17917398 -0.04815912
0.28919214 0.07227101 -0.24000332 -0.029449612 -0.09474443 -0.18169197 -0.16683027 -0.19034867
0.1653981 -0.088333115 -0.25549343 -0.23606254 -0.2922873 0.20913352 -0.1674904 0.06580397
-0.03397529 -0.03007366 -0.06755226 -0.100482956 0.3267712 0.054320075 -0.13962233 0.2614466
-0.29546785 -0.049774814 -0.038873687 0.14301185 -0.45504886 0.10340102 -0.063157655 -0.046171635
-0.25238493 -0.2704988 0.121744625 0.06383586 -0.007995812 0.24828939 0.101254284 0.19521901
0.07745071 0.10038482 0.1599079 -0.26598823 0.29418206 -0.06874187 -0.23395652 0.15094869
0.04626204 -0.09880263 -0.10694193 -0.28873527 0.20769612 0.14160648 0.00540683 0.18302652
0.19748671 0.08033409 0.14814308 -0.3713401 0.06181621 0.09510594 -0.2392459 0.3060235
0.06982357 -0.34867734 -0.18808089 0.177537 0.25118425 -0.24319643 0.10401721 -0.09059244
-0.07890967 -0.0550723 -0.2320353 0.12919034 0.13739286 -0.19618413 0.08795903 0.27050105
-0.18007445 0.2556729 -0.28858718 -0.16515426 -0.12721561 -0.35669777 -0.1529501 -0.08512142
-0.2699255 0.2389147 0.1708163 -0.105752446 0.0076771956 -0.2606577 -0.18752567 -0.05772458
0.019699818 0.17914751 -0.032808937 -0.2541126 0.07835258 0.13933878 0.13719995 0.16132265
-0.13381626 0.14816035 0.23790807 -0.17162171 -0.14760707 0.21111575 -0.19007108 -0.2994098
0.217928 -0.32950142 -0.14959587 0.0010006925 0.3696623 -0.040313415 0.06394252 0.12956676
0.018685052 0.3382064 -0.22249627 0.32480338 0.234462 -0.0648443 0.25260165 -0.20975259
-0.16302475 0.34480584 -0.0054012886 -0.037659325 -0.034003507 0.00087912387 0.1278888 0.086550444
0.26012996 0.35118288 0.06798281 -0.16945983 0.20601168 -0.13399006 -0.21161498 -0.41532007
00000000: 25c9 d7bd 8d4c 563e f6ef 96be ff83 b1be
00000010: bd3e 03be 927d 2a3e f6d0 ab3e 8064 a53c
00000020: d169 00bd fca8 82bd 65ef dabd ed55 8cbe
00000030: ecca 94be b9f6 9fbe f863 f3be a423 49be
00000040: 19a8 213e f8de a43e 0d5a 9f3e db69 75be
00000050: b76a 8bbd 050f 09be 6e17 03be 1ad2 663e
00000060: ccb0 dbbd 6be2 eebd 9904 a9be 28cd a53e
00000070: beda 20be 6308 09be a481 46be 59ee 33be
00000080: e39d efbd 6bdd a6bd 4db0 3a3c f328 463e
00000090: 55c1 8b3e 09cd 243e d6fc 35be b16c 92bd
000000a0: cdc6 4cbd e4ee 4f3e 0078 353d a969 73bd
000000b0: 0b0e 25be 1de8 db3d 1a2f 8a3e bf60 81bc
000000c0: 5d27 603e 73c0 723e 04a3 fcbd c22c 74be
000000d0: 2f25 4bbe 4074 1b3e 6279 373e 7f42 45bd
000000e0: fe10 943e d302 943d 6ec3 75be 5040 f1bc
000000f0: 5e09 c2bd 760d 3abe 8ed5 2abe c3ea 42be
00000100: 1f5e 293e fee7 b4bd 09d0 82be 61ba 71be
00000110: aea6 95be 1927 563e 9a82 2bbe 3bc4 863d
00000120: ac29 0bbd 095d f6bc d758 8abd 02ca cdbd
00000130: 8e4e a73e ba7e 5e3d 28f9 0ebe 54dc 853e
00000140: 9047 97be ade0 4bbd 043a 1fbd b371 123e
00000150: 2afc e8be eac3 d33d cd58 81bd 781e 3dbd
00000160: 9938 81be d27e 8abe 3f55 f93d 60bc 823d
00000170: de00 03bc 933f 7e3e 685e cf3d 7ee7 473e
00000180: 7a9e 9e3d 8e96 cd3d e6be 233e 9c2f 88be
00000190: 089f 963e 8ac8 8cbd 4c92 6fbe 4b92 1a3e
000001a0: 447d 3d3d 0959 cabd 5f04 dbbd 1cd5 93be
000001b0: 4bae 543e 4a01 113e c72b b13b 4e6b 3b3e
000001c0: f539 4a3e 3386 a43d d2b2 173e 4a20 bebe
000001d0: ff32 7d3d e7c6 c23d e1fc 74be 1daf 9c3e
000001e0: a9ff 8e3d d685 b2be 4798 40be 42cc 353e
000001f0: 399b 803e 7c08 79be fa06 d53d 8788 b9bd
00000200: 659b a1bd 7e93 61bd a99a 6dbe 794a 043e
00000210: b7b0 0c3e 7ee4 48be dd23 b43d 1d7f 8a3e
00000220: 7065 38be 8fe7 823e b3c1 93be 331e 29be
00000230: cf44 02be 17a1 b6be f39e 1cbe 2454 aebd
00000240: ad33 8abe 0ea6 743e 78ea 2e3e bd94 d8bd
00000250: fc90 fb3b ed74 85be bb06 40be 9c70 6cbd
00000260: 8361 a13c 7272 373e aa62 06bd 0c1b 82be
00000270: 5177 a03d d3ae 0e3e 257e 0c3e c431 253e
00000280: 2107 09be 59b7 173e 2c9e 733e 9abd 2fbe
00000290: 4f26 17be ba2e 583e fea1 42be 3e4c 99be
000002a0: 8528 5f3e 69b4 a8be a92f 19be ab29 833a
000002b0: 6144 bd3e ae1f 25bd 4cf4 823d 26ad 043e
000002c0: 6511 993c 6429 ad3e 10d6 63be a14c a63e
000002d0: ce16 703e 17cd 84bd 0155 813e 62c9 56be
000002e0: f6ef 26be 648a b03e 4bfd b0bb aa40 1abd
000002f0: 4347 0bbd 0175 663a 48f5 023e 5c41 b13d
00000300: c12f 853e 3ece b33e 923a 8b3d e186 2dbe
00000310: baf4 523e b134 09be 99b1 58be d5a4 d4be

mu.2.weight f4 [200, 200]
-0.011251459 0.09009351 -0.004158514 0.06837956 -0.06789215 -0.22446968 -0.015013939 0.01859496
0.012647203 0.011285931 -0.115679346 -0.031278428 0.2058722 0.26269493 -0.17415701 -0.064896636
-0.32842875 0.020983301 0.032180727 -0.047059365 0.06212335 0.14007807 -0.23091437 0.012927765
-0.008728075 0.03639006 0.025345225 -0.16581106 0.032426123 -0.07865655 0.08928624 -0.0028113923
-0.17748244 0.07825825 0.2530686 -0.0954332 -0.07279725 -0.30442852 -0.17460172 0.16754393
0.04027598 0.21706566 -0.068972 0.04379094 0.00077429856 -0.0030176549 0.10267984 -0.19468482
-0.0069621895 0.013047672 0.0818718 0.04539264 -0.047954783 0.12592824 -0.051410563 0.11497484
0.08873579 -0.047138456 -0.030210761 -0.08115638 0.11606412 -0.30270308 0.042198393 -0.025322722
0.13297223 0.003822263 -0.40703458 0.1495424 -0.16682748 -0.03263598 -0.015323575 0.0098654935
0.005624202 -0.015928233 0.13178511 -0.15525517 -0.121100076 0.04210987 0.03471654 0.24122778
-0.20043124 0.047220923 -0.041993972 0.01719583 -0.46541145 -0.019449262 0.060461756 -0.017131513
-0.31561455 -0.3108903 -0.11081827 0.04332506 -0.02630384 -0.0348407 0.00623838 0.085302845
0.15502807 -0.1335305 0.022476807 0.10139898 0.017623244 -0.08079827 0.18581001 0.15099117
0.02754499 0.07053862 -0.10124959 0.10363316 0.03790578 -0.13254264 0.001851346 -0.2821567
0.12139159 -0.12504636 -0.03427131 0.029448986 -0.060787868 -0.083843745 0.035890415 -0.057734326
-0.116658874 -0.08874989 -0.025608957 0.090983406 -0.12966786 0.23269334 -0.2877684 0.08403078
-0.5020584 0.10919927 -0.042487465 -0.098169476 0.028214233 0.075785905 -0.12951426 -0.0066360952
0.055283833 -0.40580264 0.022420552 -0.19859514 -0.05845122 -0.103838235 -0.02497174 0.06741954
-0.43054116 0.18016459 0.073322095 -0.12730607 0.08647521 -0.046969827 0.027612815 0.00038684436
-0.5238907 0.25580955 -0.17736366 -0.12057937 -0.07760569 0.06355646 -0.074051484 0.11298494
0.07420589 -0.12181019 0.14085972 -0.03350444 0.4824131 0.04522214 0.0081381975 -0.08530817
0.03979031 0.026136698 0.09012536 0.09372771 0.0182113 0.0035480254 0.07978238 0.12272936
0.101854384 0.06320085 0.21783051 0.07529751 0.01046564 -0.064254336 0.104864955 -0.0004584152
-0.0588406 0.17622063 0.074689366 0.10509266 -0.1457738 -0.00631777 0.004641464 -0.010859947
-0.12945093 -0.1321067 0.027495133 0.14656033 0.07787855 -0.23451746 0.06757476 -0.028597184
0.11468031 0.041022427 0.198241 -0.11616883 -0.25855345 0.09745931 0.047206882 -0.010553105
0.029139454 0.06856614 0.045609027 -0.1041757 0.0873092 -0.056670077 0.14428431 -0.17065112
-0.1677162 -0.20064034 -0.015523884 0.24942803 0.076202966 -0.118373156 0.006272019 -0.07418874
0.04585342 -0.147789 0.050993074 0.11338044 -0.13929774 -0.3696391 -0.10921755 0.040251564
0.0016956932 -0.0791487 0.007933714 0.02857524 0.14015488 0.04244337 -0.1079976 0.04130694
0.06538742 -0.041154247 -0.13827077 -0.053381246 0.054218203 -0.03267246 0.15258116 0.12552755
-0.14526927 -0.020422276 -0.11015918 0.014100936 -0.0410658 0.0027507076 -0.007767607 0.049524218
00000000: 0a58 38bc f282 b83d 2544 88bb 950a 8c3d
00000010: 0a0b 8bbd 61db 65be 06fd 75bc 7554 983c
00000020: 3736 4f3c a0e8 383c 4be9 ecbd cf1d 00bd
00000030: 29d0 523e f37f 863e 3756 32be 87e8 84bd
00000040: d027 a8be 2ce5 ab3c f0cf 033d 52c1 40bd
00000050: 0e75 7e3d a070 0f3e d174 6cbe face 533c
00000060: 3300 0fbc be0d 153d caa0 cf3c 60ca 29be
00000070: 41d1 043d af16 a1bd b4db b63d 563f 38bb
00000080: f5bd 35be dd45 a03d 3592 813e 7b72 c3bd
00000090: b916 95bd 0ede 9bbe cbca 32be a390 2b3e
000000a0: 6df8 243d 7646 5e3e 3141 8dbd 215e 333d
000000b0: 4cfa 4a3a d9c3 45bb cf49 d23d 755b 47be
000000c0: 1423 e4bb e7c5 553c 67ac a73d a2ed 393d
000000d0: 3c6c 44bd 55f3 003e e293 52bd ee77 eb3d
000000e0: 1cbb b53d 4114 41bd 8f7c f7bc 5135 a6bd
000000f0: 06b3 ed3d e6fb 9abe 39d8 2c3d 9971 cfbc
00000100: df29 083e ef7e 7a3b d666 d0be a521 193e
00000110: d3d4 2abe 4ead 05bd bb0f 7bbc e1a2 213c
00000120: 3a4b b83b ed7b 82bc adf2 063e 36fb 1ebe
00000130: 5103 f8bd 667b 2c3d ee32 0e3d 6a04 773e
00000140: d93d 4dbe ba6a 413d df01 2cbd 45de 8c3c
00000150: 694a eebe 0f54 9fbc bfa6 773d 6357 8cbc
00000160: 3b98 a1be 032d 9fbe b0f4 e2bd 9e75 313d
00000170: 277b d7bc 1fb5 0ebd 536b cc3b 42b3 ae3d
00000180: aebf 1e3e 38bc 08be 4821 b83c 45aa cf3d
00000190: 9f5e 903c 9079 a5bd fb44 3e3e 6e9d 1a3e
000001a0: 08a6 e13c 8d76 903d f25b cfbd 9f3d d43d
000001b0: 1743 1b3d 42b9 07be dda8 f23a d876 90be
000001c0: 279c f83d 270c 00be 1360 0cbd 003f f13c
000001d0: b3fc 78bd 45b6 abbd d401 133d d47a 6cbd
000001e0: d9ea eebd 81c2 b5bd e0c9 d1bc 8255 ba3d
000001f0: a7c7 04be 2a47 6e3e 6156 93be 5418 ac3d
00000200: e686 00bf dea3 df3d 5607 2ebd 140d c9bd
00000210: 8921 e73c a435 9b3d 639f 04be 9a73 d9bb
00000220: 4d71 623d 5dc5 cfbe 4eab b73c 865c 4bbe
00000230: 8c6a 6fbd 24a9 d4bd 8991 ccbc 4113 8a3d
00000240: e46f dcbe 117d 383e e529 963d 865c 02be
00000250: ea19 b13d 6f63 40bd 4534 e23c 5fd1 ca39
00000260: b31d 06bf 78f9 823e d29e 35be 51f2 f6bd
00000270: bbef 9ebd e429 823d 4ea8 97bd a664 e73d
00000280: 42f9 973d 9f77 f9bd 883d 103e f43b 09bd
00000290: dafe f63e da3a 393d 1356 053c 0db6 aebd
000002a0: 2afb 223d a11c d63c a593 b83d 50f4 bf3d
000002b0: dd2f 953c fd85 683b f264 a33d 8859 fb3d
000002c0: 0899 d03d 726f 813d f60e 5f3e 9535 9a3d
000002d0: 1378 2b3c c797 83bd 70c3 d63d 7257 f0b9
000002e0: d702 71bd 2e73 343e bdf6 983d d23a d73d
000002f0: ba45 15be 4c05 cfbb 6c17 983b ebed 31bc
00000300: c98e 04be fb46 07be 793d e13c e913 163e
00000310: ca7e 9f3d 5825 70be a364 8a3d a444 eabc
00000320: 83dd ea3d 2207 283d b0ff 4a3e ece9 edbd
00000330: 1e61 84be bf98 c73d 015c 413d eee6 2cbc
00000340: ddb5 ee3c 686c 8c3d 88d0 3a3d 125a d5bd
00000350: 2acf b23d e21e 68bd 44bf 133e 2bbf 2ebe
00000360: ccbd 2bbe a974 4dbe e457 7ebc 106a 7f3e
00000370: 4d10 9c3d a06d f2bd 8285 cd3b 44f0 97bd
00000380: ccd0 3b3d 0056 17be 1dde 503d 0134 e83d
00000390: 11a4 0ebe 5641 bdbe 73ad dfbd d3de 243d
000003a0: 0642 de3a b718 a2bd 69fc 013c 9f16 ea3c
000003b0: c384 0f3e 19d9 2d3d d92d ddbd 7731 293d
000003c0: d7e9 853d 5b91 28bd da96 0dbe 4ba6 5abd
000003d0: e813 5e3d 8fd3 05bd 3c3e 1c3e 4b8a 003e
000003e0: 78c1 14be 9e4c a7bc 239b e1bd 9d07 673c
000003f0: 9d34 28bd 3745 343b 6987 febb e8d9 4a3d

mu.2.bias f4 [200]
-0.005858108 0.04903851 -0.06054781 -0.03191544 -0.0956349 0.018529082 0.017134279 0.0074952906
-0.0769423 0.11161095 0.014782782 0.012423776 -0.02059064 0.11170718 0.07819173 0.07643132
-0.014889075 0.10221704 -0.000721546 0.014093005 0.06081147 0.022415714 0.09648268 -0.050481126
-0.014618036 0.06326977 -0.057981923 -0.03935222 0.012835918 0.053833734 0.11408358 -0.115772605
-0.060215764 0.033897452 -0.036435477 0.06421013 0.008747035 0.061564878 0.027482877 -0.03303988
-0.029091366 0.15792504 0.005645698 0.11726768 -0.0041746856 -0.09434092 -0.10679163 0.0119133545
0.08650394 0.055439297 0.0054068407 0.06651131 -0.06562249 0.01815012 0.051518515 -0.13040598
-0.02774138 0.08389612 0.029497894 -0.054179177 -0.02663729 -0.021314306 -0.007657074 0.035098974
-0.08149229 -0.07504708 -0.018817302 0.10600099 0.0364874 -0.021736365 0.038194567 0.03244981
-0.031468574 0.0679232 -0.063925244 0.17836359 -0.007116978 0.018344112 0.019655377 0.083353646
-0.09426503 -0.04800101 0.06338619 0.05099179 -0.054287076 -0.09444471 0.021980561 -0.02684795
0.03453524 0.066120856 -0.043532036 -0.08523114 0.05308231 0.030404683 0.091305256 -0.0037439368
0.0646198 -0.0953084 -0.046677303 0.038360056 0.087100625 0.07742532 -0.16548215 0.023658652
-0.10219802 0.015321444 0.057517387 0.008016692 0.12961172 0.0018149108 -0.019552136 0.01289837
-0.02848215 0.062831946 0.10172606 0.0027543292 0.07598636 -0.078671046 -0.027923083 -0.011926717
-0.04159649 0.03812664 0.070384964 0.03762457 -0.05588319 0.18413492 0.078564316 0.051074777
0.06619711 0.009945786 0.05666258 0.011094617 -0.054782297 0.0721981 0.124986604 0.06788305
0.015235896 -0.03604049 -0.0026592251 -0.009373498 -0.024946498 -0.060751352 0.0015000025 0.06879511
-0.10960691 0.04890067 -0.02446172 0.10104267 0.074210234 0.062132455 -0.043048684 0.056935083
-0.030281555 0.06695568 -0.110115364 -0.040578 0.025854504 -0.061293125 -0.08113054 -0.021317407
0.011018478 0.058204442 0.03720002 -0.019317145 -0.04078184 -0.043920048 -0.01878812 0.0009085647
0.016667314 0.016347839 -0.042941682 -0.0013268539 -0.009251181 -0.010759605 -0.0042299377 0.016703576
-0.021874415 -0.064667515 -0.01908759 0.02352287 0.08586771 -0.056364596 -0.03112291 0.11554873
-0.026400078 0.094785966 0.021446878 0.030285468 -0.061082613 0.09417099 0.065533124 -0.035740763
-0.062742256 0.04491342 0.053195164 0.046812512 0.02348962 -0.0801804 0.06321889 0.053469516
00000000: 5ff5 bfbb 9bdc 483d fb00 78bd c4b9 02bd
00000010: 3bdc c3bd 4dca 973c 305d 8c3c 0e9b f53b
00000020: ed93 9dbd 4894 e43d 7b33 723c 188d 4b3c
00000030: b4ad a8bc bcc6 e43d fc22 a03d 0688 9c3d
00000040: 4ff1 73bc 2b57 d13d 2226 3dba 59e6 663c
00000050: 7315 793d 29a1 b73c b698 c53d 4cc5 4ebd
00000060: 7d80 6fbc 9593 813d 747e 6dbd cb2f 21bd
00000070: be4d 523c c380 5c3d a7a4 e93d 301a edbd
00000080: cea4 76bd 0ed8 0a3d 5e3d 15bd 9a80 833d
00000090: b94f 0f3c 742b 7c3d c523 e13c d354 07bd
000000a0: 0451 eebc 1ab7 213e 8cff b83b 0a2a f03d
000000b0: cdcb 88bb d035 c1bd 92b5 dabd 3b30 433c
000000c0: fa28 b13d 5114 633d de2b b13b 1537 883d
000000d0: 1665 86bd 8faf 943c 1405 533d 2589 05be
000000e0: e441 e3bc bbd1 ab3d 91a5 f13c fcea 5dbd
000000f0: 7236 dabc 579b aebc 31e8 fabb f1c3 0f3d
00000100: 6ee5 a6bd 49b2 99bd be26 9abc 0c17 d93d
00000110: d073 153d 7610 b2bc e871 1c3d 18ea 043d
00000120: 31e5 00bd 521b 8b3d 3deb 82bd f2a4 363e
00000130: 8a35 e9bb 6446 963c 5004 a13c 51b5 aa3d
00000140: 060e c1bd b59c 44bd 9ed0 813d c4dc 503d
00000150: 205c 5ebd 3a6c c1bd 9410 b43c 3bf0 dbbc
00000160: d374 0d3d 5f6a 873d a64e 32bd aa8d aebd
00000170: d66c 593d 3e13 f93c 40fe ba3d d65c 75bb
00000180: 6357 843d 0d31 c3bd b330 3fbd 6f1f 1d3d
00000190: d061 b23d 2b91 9e3d 2774 29be cacf c13c
000001a0: 324d d1bd cb06 7b3c 5a97 6b3d 7158 033c
000001b0: efb8 043e 4de2 ed3a cd2b a0bc af53 533c
000001c0: 6653 e9bc 09ae 803d c155 d03d fa81 343b
000001d0: bd9e 9b3d 491e a1bd f3be e4bc 4768 43bc
000001e0: 1561 2abd ae2a 1c3d fe25 903d 391c 1a3d
000001f0: c6e5 64bd dd8d 3c3e 54e6 a03d c933 513d
00000200: 5a92 873d a6f3 223c 0617 683d 32c6 353c
00000210: 6763 60bd 99dc 933d faf8 ff3d 4506 8b3d
00000220: fb9f 793c 319f 13bd 6546 2ebb 4d93 19bc
00000230: 995c ccbc 69d6 78bd bb9b c43a 73e4 8c3d
00000240: 9679 e0bd 124c 483d f263 c8bc 76ef ce3d
00000250: 89fb 973d 9a7e 7e3d d153 30bd c334 693d
00000260: 0611 f8bc 0f20 893d 2a84 e1bd 1e35 26bd
00000270: d3cc d33c 800e 7bbd c527 a6bd d8a1 aebc
00000280: d986 343c c867 6e3d 0c5f 183d fd3e 9ebc
00000290: dc0a 27bd 82e5 33bd 8be9 99bc bf2c 6e3a
000002a0: e489 883c e7eb 853c 9ee3 2fbd d4e9 adba
000002b0: 4492 17bc 0e49 30bc 4a9b 8abb f0d5 883c
000002c0: f931 b3bc 6770 84bd 945d 9cbc 09b3 c03c
000002d0: 69db af3d 90de 66bd 79f5 febc d0a4 ec3d
000002e0: fa44 d8bc 251f c23d 5db1 af3c 3b19 f83c
000002f0: c331 7abd b8dc c03d 3b36 863d e864 12bd
00000300: 037f 80bd 22f7 373d 2ce3 593d 7abe 3f3d
00000310: 4e6d c03c 9f35 a4bd e878 813d da02 5b3d

mu.4.weight f4 [12, 200]
0.03234889 0.13311209 -0.07511595 0.037617847 -0.19495608 -0.040791456 -0.034700092 -0.13415676
-0.037768308 0.20697121 -0.2787979 -0.03466477 -0.07858012 0.17898524 -0.14364162 -0.12639229
0.08997746 0.063438356 0.05154491 0.037653334 -0.03619142 -0.09794879 0.04192488 0.12992643
-0.06685681 -0.14951794 0.04793494 0.061299738 0.028516173 -0.06108433 -0.18227188 -0.1590349
-0.16588064 0.16151002 -0.17138506 0.15119635 -0.15313917 -0.06233106 -0.14797354 -0.30592117
-0.16692036 0.057464834 0.2672918 -0.09685146 -0.11400982 0.32173875 0.029364726 -0.18633692
0.15569568 0.024393445 -0.26214248 0.13810559 -0.13624668 0.08960124 0.47034386 0.0072830277
0.1559545 -0.033081118 -0.116418466 -0.121201195 -0.004369208 -0.05455037 -0.29807094 -0.11996843
-0.10509128 0.7259251 0.09230035 0.0918495 0.045314174 -0.013732226 -0.081111744 -0.008831178
-0.0798359 -0.08154165 0.26194045 -0.32439685 0.067855515 -0.031176364 -0.10438166 0.043566395
-0.217248 -0.18920188 -0.32426822 0.037337665 -0.17085408 0.20609859 0.33650252 0.03982487
0.03697795 -0.045519244 0.18261579 0.026767854 -0.18663226 -0.06637758 0.06433131 -0.045008533
0.25479946 0.14646526 -0.0373291 0.08991585 0.5233099 0.061704136 -0.17179565 -0.019855008
-0.05790035 -0.90401906 0.25367263 -0.23630446 -0.14269969 0.013587979 -0.25526032 -0.095255286
0.28191718 0.08597551 -0.06340812 0.10909278 -0.26104325 -0.008327653 0.025899477 0.045447074
0.039907273 0.13884173 -0.19001362 0.18825077 -0.006162263 -0.05989997 -0.059605204 0.19646816
0.056462325 0.09573697 -0.22325408 0.15675312 0.027336353 0.2503569 0.16015835 -0.01450913
-0.049477365 -0.046886835 -0.8880048 -0.17464697 0.060636323 -0.45358804 0.25194737 0.19350821
0.22943452 0.08682869 0.04823755 0.1949547 -0.04519187 -0.031667676 -0.008653221 0.05758855
0.07087806 -0.06256951 -0.18089548 -0.059238248 -0.24572986 0.034059193 -0.16269843 0.06613595
-0.042692024 -0.0045679347 0.024985665 -0.054368105 0.10981939 0.050961915 0.1225766 0.02529543
0.06306302 -0.059722643 0.13406636 -0.0016291544 0.16528618 -0.053524014 0.092099346 -0.045220148
0.031234821 0.07519716 -0.21877222 -0.060368575 0.377919 -0.040979713 0.14064443 -0.10191263
0.13034494 0.25200185 0.12825888 -0.11284798 0.12252391 -0.06404451 -0.0956031 -0.016327204
0.030565113 0.13564698 -0.19498831 0.29960254 0.13832763 0.14077578 0.03130378 0.05425426
0.25164908 -0.046935637 -0.006827063 -0.16846924 0.100869104 0.08151491 0.21740936 -0.3252898
0.035040047 -0.31555134 0.25746158 0.20633325 0.21192393 0.11204606 0.27254876 0.13791776
-0.09167896 -0.05379641 0.104842186 -0.03026623 0.036077257 0.02388037 0.09265185 0.039366473
-0.10269354 -0.1930443 -0.2158794 0.20359609 0.047686536 0.04483289 0.06501444 0.27809754
-0.008441601 0.172645 0.088270724 0.09344862 0.06743506 -0.08759646 -0.040143024 0.20054054
0.46299055 0.03304095 -0.026695218 -0.07374777 0.15271682 0.05973677 -0.11315441 0.08017369
-0.08017412 0.24141704 0.08702764 0.23360418 0.08935998 0.039475486 -0.0017771627 0.16637546
00000000: 4580 043d 894e 083e 64d6 99bd 2c15 1a3d
00000010: 91a2 47be f114 27bd af21 0ebd 6460 09be
00000020: f1b2 1abd 43f0 533e 99be 8ebe a5fc 0dbd
00000030: 9dee a0bd e847 373e ca16 13be fb6c 01be
00000040: 1a46 b83d f8eb 813d c120 533d 623a 1a3d
00000050: 743d 14bd 6099 c8bd 6cb9 2b3d 6f0b 053e
00000060: 39ec 88bd 3b1b 19be 6d57 443d 6f15 7b3d
00000070: c09a e93c 9033 7abd 7ba5 3abe 0bda 22be
00000080: 9ddc 29be e262 253e 917f 2fbe 37d3 1a3e
00000090: 84d0 1cbe db4e 7fbd 6086 17be b3a1 9cbe
000000a0: 2ced 2abe 3f60 6b3d 79da 883e 0f5a c6bd
000000b0: fb7d e9bd f1ba a43e 4b8e f03c 1bcf 3ebe
000000c0: b06e 1f3e c3d4 c73c 8a37 86be 8d6b 0d3e
000000d0: 4084 0bbe db80 b73d e9d0 f03e 77a6 ee3b
000000e0: 89b2 1f3e 1180 07bd ce6c eebd 5538 f8bd
000000f0: 932b 8fbb 3570 5fbd c19c 98be 02b2 f5bd
00000100: 193a d7bd 3ad6 393f f707 bd3d 971b bc3d
00000110: 5b9b 393d 21fd 60bc ea1d a6bd a5b0 10bc
00000120: 0181 a3bd 4fff a6bd 0f1d 863e 5817 a6be
00000130: d5f7 8a3d 9365 ffbc 0dc6 d5bd ad72 323d
00000140: 4276 5ebe 23be 41be 7c06 a6be 61ef 183d
00000150: 5ff4 2ebe 820b 533e 0f4a ac3e 671f 233d
00000160: 3176 173d 6372 3abd a2ff 3a3e 4248 db3c
00000170: 871c 3fbe f8f0 87bd 22c0 833d de5a 38bd
00000180: 1375 823e fdfa 153e 66e6 18bd cd25 b83d
00000190: a3f7 053f 7abd 7c3d 33eb 2fbe f8a6 a2bc
000001a0: eb28 6dbd cb6d 67bf 61e1 813e ccf9 71be
000001b0: de1f 12be 1da0 5e3c 7bb1 82be 3415 c3bd
000001c0: 7357 903e ee13 b03d 1edc 81bd 096c df3d
000001d0: 76a7 85be b570 08bc 242b d43c b626 3a3d
000001e0: cf75 233d 872c 0e3e ee92 42be cfc4 403e
000001f0: cfec c9bb ac59 75bd 9624 74bd f32e 493e
00000200: 0a45 673d bf11 c43d b89c 64be e483 203e
00000210: 7df0 df3c c82e 803e 8d00 243e b4b7 6dbc
00000220: c7a8 4abd 690c 40bd 4854 63bf a8d6 32be
00000230: cb5d 783d b13c e8be 3fff 803e 0427 463e
00000240: e2f0 6a3e 3dd3 b13d bd94 453d 34a2 473e
00000250: 1c1b 39bd f7b5 01bd 3dc6 0dbc f9e1 6b3d
00000260: 8428 913d 7124 80bd aa3c 39be cea3 72bd
00000270: 9ca0 7bbe a781 0b3d 6b9a 26be 4972 873d
00000280: d5dd 2ebd 9dae 95bb bdae cc3c 17b1 5ebd
00000290: fde8 e03d 71bd 503d 7109 fb3d 5d38 cf3c
000002a0: 2f27 813d bb9f 74bd b148 093e 5a89 d5ba
000002b0: c840 293e ff3b 5bbd 959e bc3d c338 39bd
000002c0: 2be0 ff3c f800 9a3d d305 60be 0a45 77bd
000002d0: 997e c13e 58da 27bd 1805 103e 92b7 d0bd
000002e0: 2579 053e 6306 813e 4c56 033e d71c e7bd
000002f0: d1ed fa3d c529 83bd 8fcb c3bd a1c0 85bc
00000300: b063 fa3c 0be7 0a3e 04ab 47be 8165 993e
00000310: c2a5 0d3e 8727 103e 6438 003d b739 5e3d
00000320: 26d8 803e 953f 40bd 8eb5 dfbb 3383 2cbe
00000330: 7694 ce3d 4af1 a63d 8fa0 5e3e 628c a6be
00000340: 2786 0f3d f28f a1be 01d2 833e 0649 533e
00000350: 9602 593e 6878 e53d 838b 8b3e 503a 0d3e
00000360: 2ec2 bbbd a059 5cbd 80b7 d63d e3f0 f7bc
00000370: bfc5 133d c4a0 c33c 41c0 bd3d bd3e 213d
00000380: fe50 d2bd 68ad 45be 7d0f 5dbe 7e7b 503e
00000390: f552 433d b1a2 373d 4a26 853d cd62 8e3e
000003a0: a44e 0abc dac9 303e 48c7 b43d fd61 bf3d
000003b0: 651b 8a3d c665 b3bd 036d 24bd 805a 4d3e
000003c0: 190d ed3e f255 073d eeaf dabc 1209 97bd
000003d0: cc61 1c3e 8bae 743d 80bd e7bd 1b32 a43d
000003e0: 5432 a4bd 0736 773e 8c3b b23d ef35 6f3e
000003f0: 5d02 b73d 0cb1 213d afef e8ba 545e 2a3e

mu.4.bias f4 [12]
-0.021679947 -0.03807992 -0.09530236 -0.042123657 -0.054633055 0.14523259 -0.03748385 0.060860876
-0.07406851 0.055973247 -0.0018792293 0.03746362
00000000: 259a b1bc b1f9 1bbd e22d c3bd db89 2cbd
00000010: e9c6 5fbd dab7 143e aa88 19bd 4149 793d
00000020: 3bb1 97bd 3444 653d 7950 f6ba 7473 193d

reward_fun.0.weight f4 [200, 14]
0.15540694 -0.09512445 0.045547567 -0.16365924 0.076215506 -0.062072445 -0.07547589 -0.18541193
0.17077684 -0.076884106 0.10803397 0.28893992 -0.38484 -0.19716446 0.34650022 0.030729627
0.12635905 0.090367496 -0.27235 -0.22642985 0.07440937 0.0033699542 0.024886638 -0.13606371
-0.1303768 -0.1578735 0.23791495 -0.36043432 0.21978375 -0.13525067 -0.009957919 0.03860384
-0.053274292 0.12496786 -0.011979732 0.034066733 0.079382785 0.08337044 0.21508268 0.033340804
-0.18184523 0.10396589 -0.06884862 -0.22093114 0.11639748 -0.16324441 -0.36381087 0.02045825
0.17466608 0.19731455 -0.25134245 -0.11642326 0.03049508 -0.17025352 -0.3777942 -0.067420036
-0.040126324 0.000738913 0.13851216 -0.06384325 0.05955443 -0.2878052 -0.13760397 0.037855227
0.025120586 0.07721051 -0.06614803 0.111206904 0.38265154 -0.50611913 0.07832569 -0.40982175
0.1912856 0.2565966 0.23207912 0.17197168 -0.045301892 0.115805626 -0.16953649 -0.18286078
0.08804546 -0.06463775 -0.019729476 -0.0015173382 0.07999919 0.55785304 0.1227612 -0.027413277
0.051564097 0.08450688 -0.1551996 -0.04606795 -0.07982288 -0.075556256 -0.3705531 0.21829882
0.009593814 0.35463607 0.13344024 0.21447296 0.13127463 0.15865469 -0.06034473 -0.09256415
0.050492592 0.03925473 -0.12350356 0.07583226 -0.2628968 0.40556455 0.25646943 0.23313874
-0.06132526 -0.29744026 0.0005560621 -0.2588648 -0.07864546 0.14861393 0.15429276 0.069930874
0.08194958 -0.14699255 0.19320099 -0.11899047 -0.081647076 -0.31780234 -0.33272776 -0.05971809
-0.16659309 -0.27402198 0.080242746 -0.28476354 0.2558932 0.03133357 -0.21542314 -0.23752235
0.00088159426 0.26489827 -0.29747257 0.06214585 0.19127312 0.36598602 -0.08065101 0.1740781
-0.05405646 0.28911594 -0.011844857 0.17761678 0.1100442 0.014993209 -0.17839417 -0.4170736
0.22435033 -0.3127603 -0.003803634 -0.010167095 0.21047716 -0.023465564 0.23627535 -0.042178944
-0.088786505 -0.0370519 -0.1350742 0.03452331 -0.372949 0.22739941 0.21278675 -0.21134908
0.042226266 -0.22643057 -0.27364933 0.21762139 -0.17385487 -0.11928125 -0.30510902 0.2038404
0.00011252513 0.18012133 -0.2605758 -0.08974912 0.064964704 0.06403502 -0.18044159 0.34544793
0.13713138 0.21672848 -0.15234654 0.032039694 -0.27121934 0.03712382 -0.069224544 -0.30070674
-0.22625478 -0.23890574 0.4827856 0.26126516 0.0700501 0.56454486 0.13103394 -0.1680339
-0.07500448 0.25243825 0.051335275 0.022595588 -0.20847309 -0.14029828 0.027282098 -0.13826168
-0.117918216 0.07367588 -0.25692275 -0.2726819 -0.25669724 -0.2548838 0.01433977 0.023117041
0.18671854 0.13882804 0.2282252 -0.21222703 -0.15028402 0.039927 0.15754138 -0.29872903
-0.26308498 0.118252166 -0.063573174 -0.025699953 -0.23657286 -0.2139853 -0.20420697 0.30800146
0.2024427 0.05190544 -0.15530185 -0.089824095 0.19236149 -0.4693971 0.043335944 0.031099245
0.16080967 -0.21307556 0.007042607 0.074505195 -0.21845661 -0.039474398 0.051004834 0.046121735
0.09724478 0.21463916 -0.603162 -0.0050994996 0.17017956 0.17119344 0.09439436 0.17873545
00000000: ff22 1f3e 9cd0 c2bd 1690 3a3d 4a96 27be
00000010: e016 9c3d ad3f 7ebd 1a93 9abd a0dc 3dbe
00000020: 20e0 2e3e 6a75 9dbd ea40 dd3d efef 933e
00000030: c009 c5be 7be5 49be 7a68 b13e b3bc fb3c
00000040: 4464 013e 9812 b93d 7671 8bbe 3add 67be
00000050: f163 983d 73da 5c3b 10df cb3c 4954 0bbe
00000060: 7f81 05be 97a9 21be fa9f 733e d98a b8be
00000070: fe0e 613e 277f 0abe 8a26 23bc 0f1f 1e3d
00000080: 2536 5abd 26ef ff3d a346 44bc 8f89 0b3d
00000090: 7193 a23d 1fbe aa3d a23e 5c3e 5e90 083d
000000a0: a335 3abe 12ec d43d 8100 8dbd c63b 62be
000000b0: cd61 ee3d 8b29 27be 6b45 babe 0f98 a73c
000000c0: aadb 323e d30c 4a3e f5af 80be 516f eebd
000000d0: d1d0 f93c f056 2ebe 3e6e c1be 8413 8abd
000000e0: 805b 24bd 9db3 413a 22d6 0d3e 40c0 82bd
000000f0: 59ef 733d 345b 93be 0ee8 0cbe 150e 1b3d
00000100: b0c9 cd3c 8b20 9e3d 9e78 87bd 72c0 e33d
00000110: e7ea c33e 0691 01bf 3869 a03d 28d4 d1be
00000120: 5fe0 433e a160 833e 26a6 6d3e 5819 303e
00000130: 7a8e 39bd 802b ed3d f99a 2dbe db3f 3bbe
00000140: 2e51 b43d cc60 84bd b69f a1bc 6ce1 c6ba
00000150: 9ed6 a33d 75cf 0e3f 396a fb3d cf91 e0bc
00000160: e034 533d f111 ad3d a5ec 1ebe bfb1 3cbd
00000170: 2e7a a3bd 3dbd 9abd 23b9 bdbe ba89 5f3e
00000180: 5f2f 1d3c dc92 b53e 8fa4 083e cd9e 5b3e
00000190: db6c 063e 6076 223e 092c 77bd 4692 bdbd
000001a0: 52d1 4e3d 91c9 203d 6fef fcbd f24d 9b3d
000001b0: 699a 86be 28a6 cf3e f64f 833e ecbb 6e3e
000001c0: 3230 7bbd 174a 98be b2c4 113a ed89 84be
000001d0: df10 a1bd 402e 183e ecfe 1d3e eb37 8f3d
000001e0: 2ed5 a73d 3785 16be 7bd6 453e 47b1 f3bd
000001f0: 9536 a7bd fdb6 a2be 4b5b aabe f59a 74bd
00000200: 6197 2abe 9c4c 8cbe 4f56 a43d 87cc 91be
00000210: 6f04 833e a157 003d e297 5cbe 0f39 73be
00000220: ca1a 673a bfa0 873e 534e 98be a68c 7e3d
00000230: 1add 433e 8562 bb3e 5b2c a5bd 8841 323e
00000240: 4e6a 5dbd 0107 943e ee10 42bc 2ce1 353e
00000250: db5e e13d 14a6 753c f6ac 36be ac8a d5be
00000260: 18bc 653e 1e22 a0be 6446 79bb e393 26bc
00000270: 5387 573e db3a c0bc 2af2 713e d4c3 2cbd
00000280: b3d5 b5bd bcc3 17bd e450 0abe 5068 0d3d
00000290: 2cf3 bebe 64db 683e c5e4 593e e56b 58be
000002a0: 73f5 2c3d 6add 67be c41b 8cbe 24d8 5e3e
000002b0: 0307 32be ba49 f4bd 4037 9cbe 8abb 503e
000002c0: 78fb eb38 ba71 383e 316a 85be 63ce b7bd
000002d0: 370c 853d cb24 833d aec5 38be 8dde b03e
000002e0: 2b6c 0c3e 12ee 5d3e bb00 1cbe 0e3c 033d
000002f0: 43dd 8abe 260f 183d 99c5 8dbd 3cf6 99be
00000300: 55af 67be b5a3 74be ad2f f73e 8cc4 853e
00000310: 6d76 8f3d 0386 103f c32d 063e 1411 2cbe
00000320: f39b 99bd 963f 813e f044 523d 621a b93c
00000330: f879 55be 5aaa 0fbe b57e df3c 7894 0dbe
00000340: 1b7f f1bd 61e3 963d 618b 83be f69c 8bbe
00000350: d26d 83be 2180 82be 5bf1 6a3c f35f bd3c
00000360: 2533 3f3e f028 0e3e deb3 693e 0b52 59be
00000370: 0ee4 19be 7e8a 233d 8752 213e 03f3 98be
00000380: 13b3 86be 312e f23d a732 82bd b588 d2bc
00000390: 2840 72be f61e 5bbe a21b 51be 5eb2 9d3e
000003a0: 244d 4f3e cc9a 543d 7307 1fbe b2f5 b7bd
000003b0: 69fa 443e d154 f0be 0881 313d d8c3 fe3c
000003c0: 4aab 243e 7b30 5abe abc5 e63b 2e96 983d
000003d0: 17b3 5fbe e8af 21bd 72ea 503d 25ea 3c3d
000003e0: 4528 c73d 5eca 5b3e d368 1abf b419 a7bb
000003f0: 8d43 2e3e 554d 2f3e d551 c13d 6d06 373e

reward_fun.0.bias f4 [200]
0.07001673 0.16547808 -0.26076698 -0.25506437 0.13727094 0.016064437 0.25816318 -0.23506884
-0.16438162 -0.17269182 0.18140645 -0.27952182 0.16090819 0.10737989 0.0996568 -0.21789186
0.33642134 0.2323825 0.080157585 -0.13678575 -0.023515625 0.11093504 0.1500627 -0.056344263
0.2881717 -0.27711403 0.28594992 0.028922817 -0.20457484 0.13408442 0.21865268 -0.1020713
0.06338886 -0.15594606 -0.051775865 0.16491075 -0.2609035 0.04351046 0.00841904 -0.016335048
-0.070964694 0.09191445 -0.19407912 -0.1845662 -0.088675655 -0.27694488 -0.24444067 0.0723047
-0.118566886 -0.102260835 -0.20446818 0.054459956 0.03229626 -0.14617491 -0.1274465 -0.17866264
-0.153932 0.10751561 -0.074842475 0.03181443 -3.497487e-05 -0.24108638 0.03434104 -0.17658071
-0.19253814 -0.04657539 0.24799529 0.1652442 0.17278008 -0.17650414 0.028185537 0.1361818
0.016101148 -0.18612504 0.24237487 0.13463028 -0.14573796 -0.18776205 -0.00795065 -0.24682789
-0.031126397 -0.2410932 -0.25643006 -0.09359979 0.18736042 0.03228241 0.100276105 0.22156803
0.050849933 0.20364662 -0.027117042 -0.03820567 -0.18475206 -0.28550285 -0.054794826 0.038780905
0.19566445 -0.26849583 -0.0530813 -0.21510822 0.06818569 0.16441451 -0.11723648 -0.13616908
-0.38862684 -0.19138993 -0.043033812 0.16694047 -0.049605105 0.28054672 0.10951261 -0.10965374
-0.17511411 -0.21379149 0.023581669 -0.006594806 -0.1654585 -0.09630521 0.13272099 -0.28911826
0.24962465 -0.25554317 0.08803627 -0.18207957 0.080446266 -0.23514529 -0.1475878 -0.14416632
0.014106716 -0.11082654 0.10485624 -0.056950312 -0.29316223 -0.28626993 0.2044406 -0.066797115
0.28147098 0.06987033 -0.15368587 -0.29063115 0.28288049 -0.23773395 -0.20659648 0.0683288
0.02205075 0.18958205 0.023256894 -0.26874813 0.06652123 -0.10895726 0.22421852 0.09846153
-0.20802434 -0.037470266 0.08004808 0.16912928 0.124062 0.03233727 -0.105351925 0.017296977
-0.26032138 -0.010260674 0.1767652 0.04051537 -0.21309157 0.04669986 0.1523172 -0.23832539
-0.09253299 -0.030524801 -0.23995917 0.29923412 0.09175359 -0.023823427 -0.17547765 0.15061283
0.052186683 0.22041436 0.065357976 -0.025580399 0.20444871 -0.103706166 -0.14686865 0.15874402
0.12695459 -0.2236961 -0.03859844 -0.14843719 0.19034597 -0.02237264 0.15444022 0.14985177
-0.31557083 -0.08473213 0.09114278 -0.21557234 -0.13048318 -0.21410656 0.21882395 0.16824263
00000000: ee64 8f3d 1673 293e 4083 85be cc97 82be
00000010: c190 0c3e 9199 833c f72d 843e e3b5 70be
00000020: a853 28be 20d6 30be 9dc2 393e 7c1d 8fbe
00000030: 1ec5 243e fde9 db3d dd18 cc3d 0b1f 5fbe
00000040: 6b3f ac3e aef5 6d3e a929 a43d 9011 0cbe
00000050: d7a3 c0bc e931 e33d 09aa 193e 3ec9 66bd
00000060: 3e8b 933e e4e1 8dbe 0768 923e 8bef ec3c
00000070: 117c 51be 6d4d 093e 7de6 5f3e c20a d1bd
00000080: 05d2 813d 53b0 1fbe ee12 54bd 5dde 283e
00000090: 2595 85be 0638 323d 03f0 093c 14d1 85bc
000000a0: f055 91bd a53d bc3d adbc 46be ecfe 3cbe
000000b0: 959b b5bd b8cb 8dbe a84e 7abe 7d14 943d
000000c0: 32d3 f2bd 216e d1bd 1b60 51be 6711 5f3d
000000d0: 1549 043d e0ae 15be 5681 02be 57f3 36be
000000e0: 5aa0 1dbe 2531 dc3d 0347 99bd d94f 023d
000000f0: fbb1 12b8 59df 76be 31a9 0c3d 93d1 34be
00000100: b828 45be d6c5 3ebd 7af2 7d3e c735 293e
00000110: 43ed 303e 80bd 34be 5be5 e63c 3e73 0b3e
00000120: 8ee6 833c 9097 3ebe 1e31 783e 85dc 093e
00000130: 553c 15be b244 40be 7143 02bc 73c0 7cbe
00000140: c9fc febc 23e1 76be cd4a 83be 3fb1 bfbd
00000150: 69db 3f3e 8f3a 043d 8f5d cd3d bbe2 623e
00000160: 0548 503d bd88 503e 8f24 debc 8c7d 1cbd
00000170: a52f 3dbe 6e2d 92be 8a70 60bd bad8 1e3d
00000180: 435c 483e 4978 89be c76b 59bd 5445 5cbe
00000190: f0a4 8b3d 475c 283e ae19 f0bd e86f 0bbe
000001a0: 19fa c6be b9fb 43be 3944 30bd 71f2 2a3e
000001b0: b92e 4bbd d2a3 8f3e 2648 e03d 2492 e0bd
000001c0: 1d51 33be 28ec 5abe 582e c13c 3e19 d8bb
000001d0: f46d 29be aa3b c5bd 03e8 073e 4f07 94be
000001e0: 9b9d 7f3e 8ed6 82be 5c4c b43d 1173 3abe
000001f0: 03c1 a43d edc9 70be 4221 17be 56a0 13be
00000200: db1f 673c 06f9 e2bd debe d63d bb44 69bd
00000210: 5c19 96be f991 92be e058 513e edcc 88bd
00000220: f71c 903e 2d18 8f3d d45f 1dbe 9bcd 94be
00000230: b6d5 903e 8770 73be 078e 53be f8ef 8b3d
00000240: c6a3 b43c cc21 423e 3e85 be3c 5b99 89be
00000250: 483c 883d fc24 dfbd 8a99 653e 33a6 c93d
00000260: 5504 55be 6c7a 19bd 3ff0 a33d 3a30 2d3e
00000270: 3814 fe3d 1674 043d c0c2 d7bd 64b2 8d3c
00000280: d848 85be 631c 28bc f001 353e 72f3 253d
00000290: ad34 5abe 5a48 3f3d 0af9 1b3e 920b 74be
000002a0: f081 bdbd 260f fabc dbb7 75be 3735 993e
000002b0: 4ee9 bb3d 5929 c3bc 6ab0 33be 403a 1a3e
000002c0: b4c1 553d 4db4 613e 67da 853d fc8d d1bc
000002d0: 015b 513e e663 d4bd bc64 16be cb8d 223e
000002e0: 6200 023e 9710 65be 6619 1ebd ebff 17be
000002f0: 0eea 423e d446 b7bc 9425 1e3e be72 193e
00000300: 8092 a1be 0a88 adbd 11a9 ba3d ffbe 5cbe
00000310: 629d 05be c03e 5bbe 6313 603e cc47 2c3e

reward_fun.2.weight f4 [200, 200]
0.01601063 0.11509128 0.07083554 -0.015518186 0.0082322415 -0.08962716 -0.1725594 -0.039113708
-0.03376878 -0.034081526 -0.002026439 -0.123675495 0.018438527 -0.09577424 -0.058366757 0.06295182
0.1292808 0.059961267 0.0011334431 0.12087348 -0.058332406 0.013911729 0.08578559 -0.0976699
0.029177047 0.14653252 -0.10715819 -0.045519754 0.07821332 0.14201097 0.052863233 0.01517786
0.060228825 0.11361779 0.05645843 0.084016405 -0.00093010056 -0.03047967 0.022192327 -0.096295826
-0.06361021 0.036105327 0.14855468 -0.039958972 -0.011705007 0.028141538 -0.031745862 -0.0022102774
0.07581169 -0.06720779 -0.12091079 0.021773852 0.082016386 -0.053449787 -0.047822107 0.13238941
0.10344417 0.009631666 -0.017873315 0.013862986 -0.038769145 0.07899281 0.17115292 0.09428831
0.042753007 0.04191408 -0.011193883 -0.00051257707 -0.049710833 -0.057619195 0.012523329 0.07934376
-0.14592393 0.026607621 0.14888683 -0.08400419 -0.017715639 -0.022110958 -0.34731406 -0.01424154
-0.10414651 -0.0025623702 -0.18483159 0.10818895 0.024862729 0.09033413 0.049496297 0.052316435
0.08937653 -0.13871872 0.03032766 0.03324408 -0.10070381 -0.07582365 -0.09209579 -0.15341316
0.05236123 -0.054933436 0.078614235 -0.014573847 -0.06880183 0.01181554 0.017249105 -0.032777093
-0.0057268683 -0.0065817707 -0.046221245 0.0046244883 -0.007561207 0.11373567 -0.2104165 -0.06086796
-0.0045301896 -0.16356233 -0.0155379865 0.087706745 0.020014122 0.05164057 -0.018201416 0.108696714
0.007705133 -0.11651769 -0.059007537 0.03003125 -0.083796956 -0.008109278 -0.079811 0.039836694
0.014355902 -0.008118432 0.010708552 0.060755968 -0.008355914 -0.07486375 0.040282074 -0.03665678
0.016509851 0.07509217 0.06905578 0.11134038 -0.08888066 -0.034883484 -0.15324055 0.065032996
0.114338174 0.11984921 0.15155482 0.05216015 -0.009364679 -0.049298387 -0.006115621 0.15676455
-0.0629605 0.005462092 -0.13324982 -0.04969168 0.08739269 0.10746808 -0.07815237 -0.04097165
0.10423486 0.014693173 0.0048387563 0.06778845 -0.13019104 0.025915181 -0.007783387 -0.056518916
-0.058768887 0.17246619 0.26238927 -0.059805535 -0.09061296 0.02068579 0.071773075 0.053975668
0.041316535 0.025197852 0.08143639 0.048764963 0.0770751 -0.16923945 -0.058365043 0.040795047
-0.045454536 -0.13636743 -0.05582002 -0.03951005 0.02360106 -0.17149234 0.10427553 -0.0522041
0.0482057 -0.0134065775 0.0202437 0.086293176 -0.045796566 0.01019323 0.1254181 -0.094786964
-0.067264594 -0.003217154 0.083600804 0.04019071 0.10456103 -0.097665645 0.0535764 -0.04176604
-0.17905913 0.060212687 -0.021473724 0.10986472 0.08139592 0.07432527 -0.0021249321 0.003217687
-0.041114155 -0.0401951 -0.09158924 0.09631612 0.07666315 -0.044377603 0.010355824 0.054998543
-0.053134594 0.017602937 -0.046890855 0.026761921 0.08000244 0.078210495 -0.03802417 -0.013791504
0.03299618 0.08952813 0.03817955 -0.03679318 -0.21790536 0.05977318 -0.08274636 0.15064065
-0.074556135 -0.064021915 0.14001271 0.14838031 -0.04258333 0.04818515 -0.10752933 0.026157448
-0.106353976 -0.0074040946 -0.037376292 -0.059712242 0.04503334 -0.05887228 0.09675347 0.18315561
00000000: ba28 833c fab4 eb3d 3912 913d fd3f 7ebc
00000010: 86e0 063c 728e b7bd 69b3 30be b235 20bd
00000020: 2251 0abd 1299 0bbd 01ce 04bb 9449 fdbd
00000030: 650c 973c 4925 c4bd fb11 6fbd e2ec 803d
00000040: 3062 043e f299 753d 0a90 943a 848c f73d
00000050: f6ed 6ebd 05ee 633c 5bb0 af3d 2807 c8bd
00000060: b404 ef3c 9f0c 163e c175 dbbd ec72 3abd
00000070: 4e2e a03d 536b 113e 1e87 583d 8fac 783c
00000080: 80b2 763d 72b0 e83d f440 673d cb10 ac3d
00000090: fed1 73ba 80b0 f9bc afcc b53c bf36 c5bd
000000a0: 1246 82bd 2ee3 133d b81e 183e 05ac 23bd
000000b0: 5cc6 3fbc 1589 e63c f307 02bd 4dda 10bb
000000c0: 2943 9b3d 3da4 89bd 14a0 f7bd 145f b23c
000000d0: 35f8 a73d 2aee 5abd 1de1 43bd 1791 073e
000000e0: 89da d33d 23ce 1d3c 0f6b 92bc 9421 633c
000000f0: 65cc 1ebd fbc6 a13d b642 2f3e 3b1a c13d
00000100: c71d 2f3d 19ae 2b3d 8c66 37bc 775e 06ba
00000110: 969d 4bbd 1b02 6cbd a62e 4d3c fb7e a23d
00000120: 156d 15be 3af8 d93c ca75 183e 640a acbd
00000130: 6320 91bc 0a22 b5bc 26d3 b1be 5955 69bc
00000140: c44a d5bd 70ed 27bb 7e44 3dbe 2b92 dd3d
00000150: ecac cb3c 1a01 b93d a1bc 4a3d c249 563d
00000160: 0b0b b73d 480c 0ebe b671 f83c f22a 083d
00000170: cd3d cebd 6e49 9bbd b89c bcbd 5718 1dbe
00000180: bb78 563d e201 61bd 8000 a13d 25c7 6ebc
00000190: f9e7 8cbd f795 413c ff4d 8d3c 4641 06bd
000001a0: 74a8 bbbb e5ab d7bb 7d52 3dbd 0589 973b
000001b0: 00c4 f7bb 3fee e83d 6c77 57be af50 79bd
000001c0: fc71 94bb e27c 27be 0a93 7ebc 989f b33d
000001d0: a8f4 a33c 1085 533d 231b 95bc 629c de3d
000001e0: 577b fc3b d4a0 eebd e3b1 71bd 1904 f63c
000001f0: bd9d abbd c7dc 04bc f373 a3bd cd2b 233d
00000200: 0435 6b3c 2c03 05bc ec72 2f3c 40db 783d
00000210: 3ee7 08bc 2a52 99bd d1fe 243d 6b25 16bd
00000220: ab3f 873c ecc9 993d 1e6d 8d3d 6d06 e43d
00000230: 1007 b6bd fce1 0ebd 17eb 1cbe 0530 853d
00000240: 222a ea3d 8173 f53d 3031 1b3e e2a5 553d
00000250: 506e 19bc 1bed 49bd 8c65 c8bb e386 203e
00000260: 6ff1 80bd 59fb b23b a472 08be 8189 4bbd
00000270: f0fa b23d 3a18 dc3d 5a0e a0bd e4d1 27bd
00000280: 1679 d53d a2bb 703c 6e8e 9e3b acd4 8a3d
00000290: cd50 05be 134c d43c c80b ffbb 6180 67bd
000002a0: a5b7 70bd fa9a 303e e357 863e a6f6 74bd
000002b0: 4a93 b9bd 3f75 a93c c3fd 923d 9715 5d3d
000002c0: 873b 293d ba6b ce3c 1fc8 a63d c5bd 473d
000002d0: 8dd9 9d3d 1b4d 2dbe 2f10 6fbd b518 273d
000002e0: 892e 3abd e7a3 0bbe 89a3 64bd 4ad5 21bd
000002f0: 0357 c13c b09b 2fbe 698e d53d f7d3 55bd
00000300: 5773 453d 43a7 5bbc 1ed6 a53c 7aba b03d
00000310: 2e95 3bbd 8101 273c 9a6d 003e ab1f c2bd
00000320: 05c2 89bd e3d6 52bb e636 ab3d 049f 243d
00000330: 1824 d63d ed04 c8bd ed72 5b3d de12 2bbd
00000340: 475b 37be 94a1 763d aae9 afbc c100 e13d
00000350: e7b2 a63d d937 983d 7242 0bbb d4df 523b
00000360: 5167 28bd 9ea3 24bd 2493 bbbd 6341 c53d
00000370: 9201 9d3d 4ac5 35bd 79ab 293c 2746 613d
00000380: a9a3 59bd 0934 903c a010 40bd d13b db3c
00000390: 52d8 a33d d32c a03d 3bbf 1bbd c3f5 61bc
000003a0: 0127 073d 865a b73d 2962 1c3d 72b4 16bd
000003b0: 9522 5fbe b9d4 743d ec76 a9bd 8b41 1a3e
000003c0: e3b0 98bd ec1d 83bd 7e5f 0f3e 02f1 173e
000003d0: dc6b 2ebd cb5d 453d 5638 dcbd 2548 d63c
000003e0: 1dd0 d9bd 0c9e f2bb e217 19bd d394 74bd
000003f0: e174 383d 0f24 71bd af26 c63d 258d 3b3e
