experiments/data/sawyer_clutter_200steps_10H/sac/2021-06-09_09-37-32_clutter_200steps_10H/policy_final.pt (torch_old, 75801 bytes, 6 tensors)

mu.0.weight f4 [128, 12]
000000 0e 11 d9 3d f9 19 58 be b5 df 2e be b8 01 bd bd
       0.10598956 -0.21103658 -0.17077525 -0.092288435
000010 a2 a7 5a be 7b 82 4d be 9f 75 1c be a8 0d df b9
       -0.2135301 -0.20069306 -0.15279244 -0.0004254405
000020 dc b6 61 bd cf 41 a6 3e b1 e6 82 bd 55 b6 0b 3e
       -0.05510603 0.32472083 -0.06391657 0.13643773
000030 1b ee ba bd 83 47 d4 bc 0f 8e 1f 3e e4 25 16 3e
       -0.09127446 -0.025913006 0.15581535 0.14662892
000040 de 0b 17 3e 0e 2f 20 3e 1a 46 8f be ae 10 88 bd
       0.1475062 0.1564295 -0.2798317 -0.066438064
000050 e2 58 34 be 23 5b a3 3d 28 35 2e 3d 9e 36 76 bd
       -0.17612031 0.07976367 0.042531163 -0.06011068
000060 bc 29 c8 3d a2 0d 60 3e 8d 34 13 be f9 d7 cb 3d
       0.09773585 0.218802 -0.14375515 0.09953303
000070 68 8e 5e 3d 1d ff 39 be 5a 51 74 3e f7 f8 4f 3e
       0.054335028 -0.18163724 0.23859158 0.20309816
000080 0a ff 16 3d a9 d3 74 bd d6 90 0c 3e e3 0d 80 3e
       0.036864318 -0.059772167 0.13727126 0.25010595
000090 8b b6 37 bb 78 2f 37 be 4c 17 07 be ab 23 eb bd
       -0.0028032388 -0.17889202 -0.13192481 -0.114814125
0000a0 a7 0f 0e 3e da e3 18 be 7b c8 06 be 8c 50 91 bd
       0.13873158 -0.14930668 -0.13162415 -0.07095441
0000b0 5e 41 4c 3e 11 17 59 be ee b7 0a 3e 10 34 2e be
       0.1994681 -0.21200205 0.13546726 -0.17012048
0000c0 ce 5a 97 bd 01 d9 d6 bd 16 78 80 bd d0 cf 7c 3d
       -0.073903665 -0.10490609 -0.062729046 0.061721623
0000d0 83 e5 cf 3d f3 ef 81 3b 79 0f d3 3d d5 9c 6e bd
       0.10151198 0.0039653718 0.103056855 -0.058255035
0000e0 df 9a 32 be dc 5e 42 3b 18 4b 03 3a 01 c3 23 be
       -0.17441891 0.0029658591 0.0005008443 -0.15992357
0000f0 b9 ac 90 be 1c 60 54 3e eb 7d 2c bd 66 d8 1b be
       -0.28256777 0.20739788 -0.042112272 -0.15219268
000100 cd 11 7f 3e b4 af da bd 3a 0b 3b bc 87 03 d2 bd
       0.24909134 -0.10678044 -0.011416251 -0.10254579
000110 12 f0 30 3e cd 18 e8 3d 69 c7 51 3e 45 0f 8b be
       0.1727908 0.113328554 0.20486225 -0.27160087
000120 f2 3a 87 be 8b 0f 58 be 55 31 75 3e ec 97 44 be
       -0.2641216 -0.21099679 0.239446 -0.19198579
000130 8b c2 f2 3d ed c1 00 3d 77 c2 1d bd b3 77 2e 3e
       0.118535124 0.031434942 -0.038515534 0.17037849
000140 d1 43 36 3e 06 28 81 3e 21 cb 6f 3e 88 e0 da 3d
       0.17799307 0.25225848 0.23417331 0.10687357
000150 69 e6 33 be b3 ba 0f bd b1 cb 08 bd 8b 8a 1e 3e
       -0.17568363 -0.03509016 -0.03339738 0.15482537
000160 38 78 87 3e f0 94 51 3d 2d ab 91 be 59 80 e7 bc
       0.26458907 0.05116743 -0.2845091 -0.028259443
000170 8d 52 5c be 18 d9 89 3e 5c 28 9f bc 10 b3 48 be
       -0.21515866 0.26923442 -0.019428425 -0.19599557
000180 11 8d 34 bd 36 3c a2 3d 1c 01 44 bb 1c 02 24 3e
       -0.044079844 0.079216406 -0.0029907888 0.1601643
000190 27 f6 9c 3b da 0f 82 be 83 d8 45 3d 91 f0 e3 bd
       0.004790086 -0.2540272 0.048302185 -0.11129869
0001a0 e0 b3 16 3c 5a d9 c0 39 4f 78 f5 bd 3d c4 98 bb
       0.009198159 0.00036783033 -0.11985838 -0.0046620653
0001b0 ca 43 f2 bd dd 01 91 be b0 aa 01 be 81 11 a5 3b
       -0.11829336 -0.28321734 -0.12662768 0.005037487
0001c0 d8 8b 32 be 03 73 89 be 21 89 c3 bd 5f 9e e1 bd
       -0.17436159 -0.2684556 -0.0954764 -0.11016535
0001d0 8b ab 15 be 93 e6 33 3d a7 4e 12 be ab d6 71 be
       -0.1461622 0.043921065 -0.14287816 -0.23617046
0001e0 ea b2 04 3e d4 df 80 3e 6f 57 e7 3d 1d 17 36 be
       0.12958875 0.25170767 0.112959735 -0.17782255
0001f0 98 7d 77 3e 77 3c 5d 3e 98 ad 5c be 48 0f 89 bc
       0.24169004 0.21605097 -0.21550596 -0.01673092
000200 9f b6 d4 3d 81 37 12 3e 1c 97 34 be 8e 0c 5c be
       0.10386395 0.14278986 -0.17635769 -0.21489164
000210 c1 0a 10 3e 1d 21 9f bd 28 c7 8d bc f6 87 76 3e
       0.14066602 -0.07769988 -0.01730688 0.24075302
000220 c0 d3 37 3c 11 02 5d 3e 99 da 45 3e 5b da ad 3d
       0.011219919 0.2158282 0.1932167 0.084889136
000230 5c 67 11 3e 04 be 7d 3e 7b 87 30 bc 30 e7 f3 3d
       0.14199585 0.24779516 -0.010774489 0.1190933
000240 9d 53 9b 3d 86 04 99 3e 8b a7 68 3e 92 4e 06 be
       0.07584307 0.29886264 0.22720163 -0.1311591
000250 cd 50 a8 3c 8d 65 1c 3e 2c c2 03 bc d5 29 72 3e
       0.020546341 0.15273114 -0.0080419 0.2364877
000260 33 07 5b 3e b0 7f 4d 3d f1 ba 08 3e 26 64 54 3e
       0.21389465 0.0501706 0.13352562 0.20741329
000270 24 87 24 3e 59 86 02 3e 1a 7a 50 3e 87 08 0a 3e
       0.16067177 0.12746562 0.20359078 0.13479815
000280 46 3b 23 3e 15 be 6c be f0 c0 3c 3e e3 89 65 be
       0.1594058 -0.23119386 0.18432975 -0.22415881
000290 ae 8e 70 3d 1a 34 7c bd 95 2b 55 be 34 7b 4b 3c
       0.05872982 -0.061573125 -0.20817406 0.012419511
0002a0 b1 e1 8d 3c 78 67 43 3e 53 fc 38 be 1b 88 01 3d
       0.017319532 0.19082439 -0.18065004 0.03162394
0002b0 94 8f fb bd da 1b 0d bd 10 6f 4d 3e 91 5a ce bd
       -0.12283245 -0.03445039 0.20061898 -0.10075868
0002c0 9f 7d 09 be 80 21 8a bc 0d a9 cc bd 7f 28 7c be
       -0.13426827 -0.016861677 -0.099931814 -0.24624823
0002d0 8d a3 63 be 03 59 35 3e 70 2a fc 3b 15 34 86 bd
       -0.22230358 0.17709737 0.0076954886 -0.065529026
0002e0 9e 5f 66 be 10 ae c4 bd 14 d5 81 bc 8b 1d 6a 3d
       -0.22497413 -0.09603512 -0.015848674 0.05715708
0002f0 33 d8 3a 3d 1c 5a 4f 3e ff 00 a0 3c 94 ed fc bd
       0.04561634 0.20249218 0.019531725 -0.12350002
000300 dd f6 4f 3c e7 19 48 be b6 82 1b be 20 0f 25 3e
       0.012693134 -0.19541131 -0.15186581 0.16119051
000310 e3 b8 0b bd 9a 84 aa bd a4 46 96 be 1c 40 72 3e
       -0.03411187 -0.08326073 -0.2935077 0.23657268
000320 13 d0 58 3e e3 73 80 3e af 39 e0 bc d0 f8 cb 3d
       0.21173124 0.25088415 -0.027371256 0.099595666
000330 b5 08 63 3e 15 c4 79 be 84 66 2d 3e a7 b6 d4 bd
       0.2217129 -0.24391206 0.16933638 -0.10386401
000340 3b a7 91 3d 54 2c 8f bd e0 79 b9 3d ec c7 87 be
       0.07111975 -0.06990877 0.09056449 -0.26519716
000350 29 23 e0 3d b4 86 cd bb 82 e7 0d be 9a 1e e2 bd
       0.10944206 -0.0062721614 -0.13857844 -0.11040993
000360 bf a9 46 3b 68 fd 3d bd f7 db 93 bc 1d 76 11 be
       0.003031358 -0.046384245 -0.018049223 -0.14205213
000370 96 0c 2b bd e8 4e 5c 3e 66 b0 0f be e2 2a 66 be
       -0.04176005 0.21514475 -0.14032134 -0.22477296
000380 4a e7 33 3d 8e 67 28 be cf da d9 bd 67 fa f0 3d
       0.043921746 -0.16445753 -0.106374376 0.117665105
000390 f5 b5 d9 3d f8 2a 48 3e aa e9 10 be 0f 93 84 3c
       0.10630409 0.19547641 -0.14151636 0.016183404
0003a0 9f f8 e8 bd ea 30 7c bd bf 6f 43 be 69 4e 1e be
       -0.11375546 -0.061570086 -0.19085597 -0.15459599
0003b0 0a 75 44 be 91 01 78 3e c2 55 18 bd 14 98 9b 3d
       -0.19185272 0.24219348 -0.03719116 0.07597366
0003c0 91 b7 d7 3d a8 ba 86 be e5 7b e4 3d 33 63 08 be
       0.105330594 -0.26314282 0.111564435 -0.13319091
0003d0 07 62 3d 3e 9f 57 78 be b2 e6 32 be 28 83 0e be
       0.18494426 -0.24252175 -0.17470816 -0.1391722
0003e0 59 d2 b4 bd 52 ea ac bd a9 d8 35 3d 95 c4 58 be
       -0.08829183 -0.084431306 0.044396076 -0.2116874
0003f0 71 52 e4 3d 30 e3 e7 bd 2f fa 84 3e ad 44 24 be
       0.11148537 -0.113226295 0.25972125 -0.16041823

mu.0.bias f4 [128]
000000 58 31 e7 3d 55 73 8a 3d 54 9a bc 3d 6e 94 44 bd
       0.112887084 0.06760279 0.09209123 -0.047993116
000010 5c 24 89 3e 84 0e b6 3d b3 74 ae bd 61 1e 0e 3e
       0.26785553 0.088894874 -0.08518352 0.13878776
000020 b0 8c fb bd 19 9f d2 bb 51 2d 91 3d ca d5 46 3d
       -0.122826934 -0.0064276573 0.070887215 0.04854373
000030 f8 e0 0e 3e 40 3f 33 3e 1a 53 87 be 7e da 8d 3d
       0.13953006 0.17504597 -0.2643059 0.0692644
000040 19 6c 87 3d 25 5f 02 3e a2 90 71 3e 3e ae 40 3d
       0.06612415 0.12731607 0.2359033 0.04704117
000050 ce ca 8f 3d 2b 8d 5d be 3e fb 8f 3e c4 cf fc 3d
       0.07021104 -0.21635883 0.2812137 0.12344316
000060 f8 16 01 3d da db 90 be 36 67 c5 bd 3c 6d b9 3d
       0.031516045 -0.28292733 -0.096388265 0.09054038
000070 39 2f 54 be 30 13 7c 3e 60 11 e6 bd d1 d3 92 be
       -0.20721139 0.24616694 -0.11233783 -0.28677228
000080 ac 50 75 be 55 a3 db bd 7c 2a 0b 3c b2 f6 fe bd
       -0.23956555 -0.107245125 0.008494016 -0.12449397
000090 4a b4 2a be 22 0c 86 3e e5 63 b5 bd 47 f6 5f be
       -0.16670337 0.26181132 -0.08856944 -0.21871291
0000a0 25 d1 83 3e ee 32 88 bd 5b 1f 4b bd aa 9d 3c 3e
       0.25745502 -0.06650339 -0.04959045 0.18419519
0000b0 ad 77 68 bd f2 7c be bc 8b 79 cf 3d 58 c1 f9 3b
       -0.056754757 -0.023252938 0.10130604 0.0076219253
0000c0 97 9f 7f be ca b6 1b be 4b 35 1d 3e 3f f3 8a be
       -0.24963222 -0.15206447 0.15352361 -0.27138707
0000d0 b6 12 f5 bd f1 7d ea bd 10 5a 0c be c2 24 1a 3e
       -0.119664595 -0.11449803 -0.13706231 0.15053084
0000e0 ac ac 4f be f6 f9 81 3e 5f b3 bf bd ba 49 91 3c
       -0.20280713 0.25386018 -0.09360384 0.01773535
0000f0 9e 0e 1d be 33 f6 f7 bd ef 18 c8 3c 92 14 21 be
       -0.15337607 -0.12107506 0.024425952 -0.15730503
000100 99 43 51 be 4f 95 26 be f4 c4 45 3e 73 b8 17 be
       -0.20435943 -0.16267894 0.19313413 -0.14816456
000110 0f 74 3f be c8 40 c1 3d ed 35 7d 3e db d4 79 be
       -0.18696617 0.09436184 0.24727602 -0.24397604
000120 4f 58 3b be 80 65 b6 bd ef 76 c3 bd b0 80 49 be
       -0.18295406 -0.08906078 -0.09544169 -0.19677997
000130 4a ea 2f bd 88 7e 92 be 69 2a 78 be c2 18 34 3e
       -0.042948045 -0.2861216 -0.24234928 0.1758757
000140 73 5a ea 3d 36 c1 d2 bd 4f ea b5 bc 32 bf fd 3d
       0.11443033 -0.10290758 -0.022206454 0.12389983
000150 0d 60 71 3e 36 3c 47 be b6 bd 95 3e 25 be 39 be
       0.23571797 -0.19456562 0.292463 -0.1813894
000160 fd 31 29 bd 10 11 58 3e 54 a8 34 3e 6b df 15 3e
       -0.04130744 0.21100259 0.17642337 0.14636008
000170 43 5f 33 3d 2f e8 15 be 61 a5 89 3e 5b f9 23 3e
       0.04379202 -0.14639352 0.26883987 0.1601309
000180 85 5a 2c be 2b f9 83 be 12 48 a4 bc 06 0a 48 bd
       -0.16831405 -0.25776038 -0.020053897 -0.048837684
000190 53 33 04 3d 9f de 8f 3e a6 ed 62 bd 3a 4c 2f bd
       0.03227551 0.28099534 -0.05540242 -0.042797305
0001a0 64 85 93 be 0e df 7f be 75 ee 73 be 39 fb 29 3d
       -0.28812706 -0.24987432 -0.23821433 0.04149935
0001b0 d1 9a 57 be 2c c5 08 3e 65 42 2d be 73 04 5f 3d
       -0.21055152 0.13356465 -0.16919859 0.054447602
0001c0 eb 8d 41 be 2d 77 2b 3e e9 3b 87 3d 39 c9 50 bd
       -0.18901794 0.1674468 0.06603224 -0.05097315
0001d0 dc c0 5f be 02 fb 28 be 99 00 26 be a9 01 43 be
       -0.21850914 -0.16502002 -0.16211165 -0.19043602
0001e0 aa e9 df 3d ff 69 43 3e 1e 3b fa bc 87 56 09 3e
       0.1093324 0.19083403 -0.030545767 0.13411914
0001f0 43 c8 34 3e 05 28 c1 bd ea d7 03 be e7 a1 f9 bd
       0.17654519 -0.09431461 -0.12875333 -0.121890835

mu.2.weight f4 [128, 128]
000000 97 3f b7 bd a9 64 a5 bd f3 a2 1f bd cf c1 2b 3d
       -0.08947676 -0.0807584 -0.03897376 0.041932877
000010 d0 df 98 bb 5b 8d d7 3d 76 4f 62 3d 91 2a 83 3d
       -0.0046653524 0.10525008 0.05525156 0.06404603
000020 fc ac 20 bb 45 1d 91 3d 68 60 fb bc b3 ce b5 3b
       -0.002451717 0.07085661 -0.030685619 0.005548322
000030 88 d5 78 3d 38 a6 f2 3c 25 d3 79 bd ca b4 f6 3c
       0.060750514 0.029620275 -0.06099238 0.030115504
000040 7b 34 89 bd cf 70 a2 3d b2 c1 9b bd 0c 47 75 3d
       -0.06699463 0.07931673 -0.07605304 0.05988221
000050 12 61 98 3d f3 42 d3 3c b5 a8 6d bd 6a 66 9f 3d
       0.0744039 0.02578876 -0.05802222 0.07783206
000060 21 cd c2 3c bf 74 5f 3c 92 8c ac 3d 8e 89 a3 3c
       0.023779454 0.013638674 0.08425249 0.019963052
000070 54 dc 54 bb 34 fc 4b 3d 54 94 1c 3d 45 8e 8e bd
       -0.0032479959 0.049801067 0.038227394 -0.069607295
000080 8a cc fb 3c 82 f3 6f bd b9 7f 5e bd b9 7d 17 3d
       0.03073718 -0.058581837 -0.054321025 0.036985133
000090 fd b0 6d bd 65 a4 c9 3d ff f6 46 3d e5 53 74 3d
       -0.058030117 0.09845809 0.048575398 0.05965032
0000a0 23 81 72 3d 64 a6 26 3d c5 84 a5 3d 8b 0a d6 3d
       0.059205186 0.040686026 0.080819644 0.1045123
0000b0 26 36 f0 3c c1 a0 10 bd 5e a1 6d bd c1 5b b9 3d
       0.029322695 -0.035309557 -0.05801522 0.09050704
0000c0 75 3b a5 bd fb df 1c 3c 9a 94 16 3d ef 61 8c 3d
       -0.08067981 0.0095748855 0.03676281 0.06854617
0000d0 46 ab 41 bd e0 9b 8e bc e0 48 6c bd eb 03 4a bd
       -0.04728248 -0.017408311 -0.057686687 -0.049320143
0000e0 aa a3 9c 3b 87 27 9b bd a7 82 71 bd 65 6d d2 3d
       0.0047802525 -0.075758986 -0.05896249 0.102747716
0000f0 70 68 5e bd c1 dd 85 bd a0 a2 7f 3d 03 18 0b bc
       -0.054298818 -0.06536437 0.06241095 -0.008489612
000100 e7 03 59 3d 14 83 5b bd 7d 40 f9 bb f8 69 5a bd
       0.052982237 -0.053591803 -0.0076065646 -0.053323716
000110 21 14 db bc 08 a5 96 3d 62 97 50 3d f4 e2 8d 3d
       -0.026742997 0.07355696 0.05092562 0.069280535
000120 06 aa d9 3d f7 fc 83 bd 07 b5 5a bd b3 dd 48 bd
       0.106281325 -0.064447336 -0.053395297 -0.049039554
000130 7a 87 a4 bc 14 b1 38 3c f2 dc 4f 3c b2 43 43 bd
       -0.020084132 0.011272687 0.012686955 -0.04767198
000140 39 cb 47 bd 9b a7 2d 3c 1e b3 8f bd ae 67 ef bb
       -0.048777793 0.010599042 -0.07016586 -0.0073060608
000150 08 b1 b5 bd 40 54 a0 3d 22 c3 7e bb 50 33 c2 bc
       -0.08871657 0.078285694 -0.0038873632 -0.023706108
000160 2e 32 9e bd b4 e4 b8 3c dc 76 44 3c 33 7d b6 bd
       -0.07724415 0.022569992 0.011991229 -0.089105986
000170 ab 8c 8d bd fb 28 f3 3c 31 6b 48 bd 10 a4 41 bd
       -0.06911596 0.029682627 -0.04893035 -0.047275603
000180 08 2d 5b 3d b5 c3 71 bd c5 07 92 bd 8a f9 8b bd
       0.053509742 -0.05902453 -0.07130388 -0.06834705
000190 15 8f db 3c e2 a2 16 bd 0d a0 7e bd ed 0d 8c bc
       0.026801625 -0.03677643 -0.062164355 -0.017096484
0001a0 57 3a 78 bd 73 69 a8 3d 54 77 83 3d 91 66 36 bd
       -0.060602512 0.08223238 0.064192444 -0.04453141
0001b0 59 78 34 bd 1c 21 23 3d 68 ed 6f bb 85 78 16 3d
       -0.044060085 0.039826497 -0.003661001 0.03673603
0001c0 62 80 3e 3d 53 a3 d4 bd ba 58 3f 3d df 90 39 3c
       0.046509154 -0.10382714 0.046715476 0.011326044
0001d0 82 18 5c ba 2d 56 27 bb 6a 46 ad bd 0b 85 15 3d
       -0.0008395986 -0.0025533543 -0.08460696 0.036503833
0001e0 8f 79 9a 3d 33 0f 88 bd d4 1a 0f bd a4 d0 7f bd
       0.07542717 -0.06643524 -0.034937695 -0.062454835
0001f0 87 ad f9 bc ac cc 2c 3d 70 cb 49 bd 9f 7f dc bc
       -0.030478252 0.042187378 -0.04926628 -0.026916323
000200 6a a1 a4 bc 89 be 9a 3d 00 ef 4b 3d 93 2f 95 3d
       -0.0200965 0.07555873 0.049788475 0.07284465
000210 4c 6e 88 bd 86 7d bb 3c 1c 40 b3 bd cf d0 84 bd
       -0.066616625 0.022887003 -0.08752462 -0.064851396
000220 4f 47 28 3d b2 1f 60 3d 6c 5c f6 3a d2 2a 8a 3d
       0.04108363 0.054717727 0.0018795854 0.067464486
000230 d4 1a 19 bd 1e 06 93 3d dd b1 1c 3d 59 ab 74 bd
       -0.0373791 0.07178901 0.03825556 -0.059733722
000240 e6 32 2a bd df 6c 86 3d 68 10 31 3d 2c 8f af 3d
       -0.041552447 0.06563734 0.043228537 0.0857223
000250 4c 39 a0 bd 75 0a d5 3d 36 ec 99 3d 69 88 2d bd
       -0.078234285 0.10402385 0.07515757 -0.04236642
000260 ce b7 dd 3c 67 0a a2 bd a0 e7 1f bb 09 c4 9b 3d
       0.027065184 -0.0791214 -0.0024399534 0.0760575
000270 9f 42 89 3d 05 6f 5f 3d a9 1e 93 3d 72 33 b2 3d
       0.0670216 0.054549236 0.07183582 0.08701219
000280 c8 b2 41 3d 7b 6a 83 bd 3a 5e 95 3d 54 b5 a0 bd
       0.04728964 -0.06416794 0.07293363 -0.078470856
000290 ed 44 b6 bd 2e 88 81 3d 60 2d 05 3d 70 15 85 3d
       -0.08899865 0.06324802 0.032513976 0.064982295
0002a0 98 72 60 bd cd 1b be bd fb 75 10 bd d6 30 51 3d
       -0.054796785 -0.09282646 -0.035268765 0.051071964
0002b0 f5 1d da 3b 57 27 92 bd c7 b8 64 bd cb 5b 1d bd
       0.006656403 -0.0713641 -0.05584028 -0.03841762
0002c0 bd f2 ee 3c ea f4 64 3d 49 10 55 bb 73 36 14 3c
       0.029168481 0.05589763 -0.0032510927 0.009046185
0002d0 5a d0 70 bd 14 b6 96 3d c3 07 4b 3c c8 d7 0f bd
       -0.05879245 0.073589474 0.012391987 -0.035117894
0002e0 25 62 20 3d 26 64 8e 3d 82 a4 4f bd a6 16 0d 3d
       0.039156098 0.069526955 -0.050693996 0.034445427
0002f0 e2 fa 4f 3d ef 2e 10 3d 1c 81 d8 3c 6c 30 37 3d
       0.05077637 0.03520101 0.026428752 0.044723913
000300 ce 8b 45 bc 79 60 ac bd 74 97 a5 3c b7 a5 22 3c
       -0.012057258 -0.08416838 0.02021382 0.009927205
000310 7a 9d 8d bd 4a 59 5a 3d 6e ff a2 3c bf b8 85 bc
       -0.06914802 0.05330781 0.019897189 -0.016323445
000320 4f 52 77 3d 4b 57 b1 bb 30 00 a6 3b c7 c4 12 3c
       0.06038123 -0.0054120175 0.0050659403 0.008958048
000330 9c e4 4c 3d 72 25 e5 3c 18 27 7a 3c ce c0 37 bd
       0.050022706 0.027971957 0.01526811 -0.044861607
000340 aa ab c1 3d 8b 09 be bd 33 47 a0 3d 86 30 8e 3d
       0.094565704 -0.09279164 0.0782608 0.06942849
000350 0e eb 3f 3c 93 dc bf bd bd 7a 50 bd 4d a1 83 3d
       0.011713756 -0.09368243 -0.050898302 0.0642725
000360 96 f4 ab 3b c5 90 8a bd 5b 62 b2 3c a4 8c 07 bc
       0.005247663 -0.06765894 0.021775415 -0.008273277
000370 df 89 8e 3a ef c3 2e 3d 4d 7c de 3c de cd 8d 3c
       0.0010874829 0.042667326 0.02715888 0.01731008
000380 6b 6c 0c 3c 21 a3 9e 3d 4a da e7 3b e1 92 72 bd
       0.008570771 0.07745958 0.0070755826 -0.059222106
000390 3f 45 8a 3d 7a 59 8f 3c 22 95 8c 3d 62 4a 96 3c
       0.06751489 0.01749872 0.06864382 0.018346015
0003a0 e2 5c 98 bd 0b c4 8d bd 65 a2 84 bc 2e 11 87 3d
       -0.07439591 -0.06922158 -0.016190717 0.06595074
0003b0 7a 07 a4 bb 7b 04 1b bd aa 47 72 3d 29 70 79 bd
       -0.005005774 -0.03784607 0.059150375 -0.06089798
0003c0 80 20 c4 3a 59 36 62 bc 1a fb c8 3b cc c4 db 3b
       0.0014963299 -0.013806903 0.0061334493 0.0067068096
0003d0 e2 8c 43 bd 83 19 84 bd 77 e3 b1 bd f2 89 64 3d
       -0.04774178 -0.064501785 -0.086859636 0.055795617
0003e0 eb c1 c0 3c dd 55 4e 3d 0d 11 79 3d 6b 5c 15 bd
       0.023529967 0.050374854 0.060807277 -0.03646509
0003f0 dc 6c 28 bd 52 19 96 bc 84 56 e8 bc 8e cd a1 bd
       -0.04111944 -0.01832262 -0.028361566 -0.079005346

mu.2.bias f4 [128]
000000 56 c5 95 3d b0 5f 8a bd 9d b5 49 bd 76 e5 3f 3d
       0.073130295 -0.06756532 -0.049245466 0.04684969
000010 f8 55 00 3c a4 a3 9e 3d 50 9b 3a 3d 38 b1 17 bc
       0.007832997 0.07746056 0.045558274 -0.009258561
000020 5d db 59 bd 75 ae 46 3d 32 18 69 bd 6d 3f a8 bc
       -0.053187717 0.04850622 -0.05690784 -0.020538056
000030 87 70 11 3d df 0e 09 bd e6 75 a8 bd 08 72 8a 3c
       0.035507705 -0.033461448 -0.08225612 0.016900077
000040 24 22 88 bd c7 57 84 bd 12 47 89 3d 56 4a 9f 3d
       -0.06647137 -0.06462055 0.06703009 0.0777785
000050 64 1a 5b bd 7e 9c aa 3a 0f 86 4d 3c 33 bd 7c 3d
       -0.053491965 0.0013016609 0.012544169 0.061703872
000060 26 62 b6 3d ff 95 70 3d ca 29 89 3d a8 83 ba bd
       0.08905439 0.058736797 0.06697424 -0.09107143
000070 f6 a2 11 bc c6 3c 2a bd bd 97 b1 3d d7 7f 4d bd
       -0.008888951 -0.041561864 0.0867152 -0.050170746
000080 7f 56 a0 3d ef e3 a0 bd 21 45 5d bd 47 4d 97 3d
       0.07828998 -0.07855975 -0.054021005 0.07387786
000090 89 ea 94 bd c6 0b 23 bc d2 bb b1 3c e3 2f 3c 3c
       -0.072712965 -0.0099515375 0.021696005 0.011486026
0000a0 77 07 18 3d c4 66 17 bd 13 05 1e bd 1f 41 02 bd
       0.037116494 -0.03696324 -0.038579058 -0.031800386
0000b0 00 25 94 3b bd 55 a2 3c 1e 06 ed 3c 99 19 ae 3d
       0.0045210123 0.019816274 0.028933581 0.08500976
0000c0 f0 a4 81 bd d6 f1 8a bd fc 94 59 bd 7f 00 8d 3d
       -0.063302875 -0.06784408 -0.0531206 0.0688486
0000d0 35 c2 98 3d 6e 01 ac 3d d6 c2 a4 bc 36 ae 69 3d
       0.07458917 0.0839871 -0.020112436 0.057050906
0000e0 e2 fe 93 bd 9e 2e 82 bd 70 8b fb 39 41 66 3e bd
       -0.072263494 -0.06356548 0.0004797834 -0.046484236
0000f0 64 98 0a 3d 0d 58 94 3d 12 73 78 3d d4 48 99 3d
       0.033836737 0.07243357 0.060656615 0.07484594
000100 ac 27 ad bc 80 03 38 3d 3c 01 31 3d be 59 39 3d
       -0.021137081 0.044925213 0.043214068 0.0452516
000110 ea 90 a4 bb 51 59 e4 bc 7b a1 f4 bc 22 75 9a 3d
       -0.005022158 -0.02787462 -0.029862156 0.075418726
000120 79 12 78 3d df 0c d4 3b b4 94 53 bd 10 69 e6 bb
       0.060564492 0.006471261 -0.051655486 -0.0070315674
000130 aa ae 82 bd f0 bc 0f bd 40 75 be bd 0e 78 2d 3d
       -0.06380971 -0.035092294 -0.092997074 0.04235082
000140 aa 75 74 3d 72 c4 a8 3d 87 98 96 bd 55 f1 89 3d
       0.059682526 0.08240594 -0.07353311 0.067354836
000150 63 6e 47 3c dd e7 aa 3b 9e 56 14 bc 8f 04 ed 3c
       0.012172314 0.0052156285 -0.009053854 0.028932838
000160 ae 35 59 bc ff c4 2b 3d 0c d7 84 bd 41 40 3b bd
       -0.013257427 0.041935917 -0.064863294 -0.045715574
000170 54 de b2 3d 21 f8 6c bd 62 f4 99 3d 5c c8 07 bd
       0.08733812 -0.05785382 0.075173154 -0.033150062
000180 61 21 0b bd 66 43 2d 3d 14 10 15 3d 67 26 c7 bc
       -0.03396738 0.042300604 0.036392286 -0.024310304
000190 b0 63 53 3d fc 7e ba bc 21 54 a0 3b 5c dd b2 3d
       0.05160874 -0.022765629 0.0048928414 0.08733627
0001a0 ac dd fc 3b 42 4e 9e 3b 72 8d 6c bd e7 e8 8a bd
       0.007716855 0.0048311064 -0.05775208 -0.06782704
0001b0 16 47 18 3d 56 a2 3a bd 42 cf 55 bd 86 58 bc bc
       0.037177168 -0.045564972 -0.05219961 -0.02299143
0001c0 77 3c 6a bd b0 cc 0f 3d ac 2c fa 3c 67 f5 aa 3d
       -0.05718657 0.035107315 0.03053888 0.08347588
0001d0 86 f1 b2 bb 70 c1 fc bc 61 41 87 3d ca 5d 88 bd
       -0.0054609207 -0.030853957 0.06604267 -0.06658514
0001e0 25 e7 bc 3d c4 2b a3 3d 96 08 49 3c 8c 68 f9 3b
       0.09223775 0.07967332 0.012270113 0.00761134
0001f0 20 45 fa 3a 28 da 96 bd 75 a2 f7 bb 97 44 5f bd
       0.0019094087 -0.07365829 -0.007557208 -0.05450877

mu.4.weight f4 [4, 128]
000000 7f 30 60 3a 0a 9d 88 bb 8a bd d6 bb b9 bf 27 bb
       0.00085521484 -0.004169111 -0.0065533565 -0.0025596453
000010 cc cc 3c bc a6 3b 63 3b 05 20 9b bb a1 40 53 ba
       -0.011523437 0.0034673004 -0.0047340416 -0.00080586417
000020 ae d0 8e 3b f8 e8 bf b9 82 51 61 bc 50 62 51 bc
       0.0043583727 -0.00036603934 -0.013752343 -0.012779787
000030 f2 a6 0f bb eb 06 28 3c 00 ad 44 3a dc 8c 77 3a
       -0.0021919576 0.010255556 0.00075025856 0.0009443292
000040 5f de 01 bc 14 f0 0e bc 16 56 f2 b9 ca ae 2d 3a
       -0.007926553 -0.008724231 -0.00046221976 0.0006625472
000050 45 38 2b 39 9b 31 5e 3a ec a5 a6 3b 51 7e ee ba
       0.00016328793 0.000847602 0.0050856974 -0.0018195604
000060 22 13 19 3b 93 7a 39 bc fb 8c 67 bc d9 be d4 b9
       0.0023357351 -0.011320728 -0.014132733 -0.00040577984
000070 60 b2 5c 3a 89 7a fd bb ae 57 4b bb c4 4f 5c bb
       0.0008418914 -0.0077355546 -0.0031027603 -0.003361688
000080 ee e0 0d bc 13 4b 9a 3a 24 ce 20 bc 61 e5 b1 ba
       -0.008659584 0.0011771641 -0.009814773 -0.0013572389
000090 f4 00 82 bb dc 29 df bb 9c fe 24 bb 3e 90 87 39
       -0.003967399 -0.00681041 -0.0025176173 0.00025856675
0000a0 91 e4 09 bc b6 76 b7 bb 74 72 f6 3a 21 73 8e bc
       -0.008416311 -0.0055988682 0.001880242 -0.017388882
0000b0 60 3d d7 3a 39 4e 1b 3b c7 4d 62 bc 4b 44 88 3b
       0.0016421489 0.0023697747 -0.013812489 0.004158532
0000c0 61 8d b8 3b de 0c b9 bb e5 43 5c ba 3a 03 92 bb
       0.005632088 -0.005647286 -0.0008402451 -0.004455951
0000d0 28 99 8c 3b c7 4d 01 bc e7 7f 38 bc c0 7f 75 38
       0.0042907186 -0.007892079 -0.011260963 5.853153e-05
0000e0 2b ed 1d 3b de 0c e4 ba 06 dc 1a bc de 93 12 bb
       0.0024097662 -0.0017398854 -0.009451872 -0.0022365968
0000f0 f4 54 27 bb ad f5 77 bc 29 19 15 bb a8 da 1d bc
       -0.0025532814 -0.015134257 -0.0022750592 -0.009634651
000100 c5 fa 19 bb 4f ff a6 ba 45 ea 97 3b 17 66 b1 3b
       -0.0023495418 -0.0012740883 0.0046360814 0.0054137814
000110 72 69 b6 3b 1c b9 ea b9 0b cb 49 bc 00 88 1c bc
       0.0055667693 -0.00044769875 -0.012316476 -0.009553909
000120 6d 2e 5a bb 9d ba 3b bc c4 b0 a7 bb 85 da d9 ba
       -0.0033291832 -0.011458066 -0.0051175077 -0.001662091
000130 32 b8 52 bc c6 fd 71 b9 78 a4 97 ba 60 cf 37 bc
       -0.012861298 -0.00023078089 -0.0011569401 -0.011218876
000140 a0 b0 03 bb 01 79 25 bb d1 d8 25 bc 3c af b6 bb
       -0.002009429 -0.0025249126 -0.010122494 -0.005575089
000150 26 af a5 ba 73 64 2f bc 34 85 6c ba 1f d1 bd bb
       -0.0012640699 -0.010705101 -0.00090225344 -0.0057927514
000160 d3 1f ca 3b de e3 17 bc 24 da 3c ba 31 ef 88 3b
       0.0061683445 -0.009270636 -0.00072041363 0.0041789045
000170 15 89 70 bc 88 13 a4 bb af c1 e5 bb af b3 85 bb
       -0.01468112 -0.005007211 -0.0070116143 -0.004080258
000180 2d f9 c0 3b e8 8c a8 bb 41 4d b7 3b 61 c3 35 3c
       0.005889079 -0.0051437505 0.005593926 0.011093945
000190 e2 9d e6 bb 4f d8 18 3a f7 ce de bb 9d d9 bf bb
       -0.007037864 0.00058305723 -0.0067995745 -0.005854799
0001a0 cd 98 61 3a d4 d7 e9 ba c4 3f 04 bb 78 a7 08 bb
       0.0008605838 -0.0017840811 -0.002017961 -0.0020851772
0001b0 b8 86 06 bc 21 72 1a bb 81 9a 10 bc 12 83 f9 3a
       -0.00821083 -0.0023566561 -0.008825899 0.0019036254
0001c0 dc 9b 1e 3a 62 d1 e5 bb 38 3b ed bb f2 ab 48 bb
       0.00060504465 -0.0070134858 -0.0072397254 -0.0030620066
0001d0 a9 18 41 bb fc 02 6a bc 36 5b 19 bb 69 a8 6c bc
       -0.0029464161 -0.014282938 -0.0023400313 -0.014444449
0001e0 87 70 22 bc 71 98 03 bb 87 cb 01 3c b1 6b ea bb
       -0.009914524 -0.0020079876 0.00792206 -0.007153951
0001f0 ad 44 75 bb b3 e3 04 bc 64 5e 1e bc d7 49 50 3a
       -0.0037424967 -0.008110928 -0.009666059 0.00079455733
000200 b0 12 09 3b 9c cc dc bb 1b 6c 8c bb d0 71 98 bb
       0.002091568 -0.0067382585 -0.004285348 -0.0046522394
000210 c4 68 37 bc be 4f 8a 3b cc 6b 50 3b c1 c8 e4 b8
       -0.011194412 0.004220932 0.0031802533 -0.000109092805
000220 54 46 3f 3b e6 de b7 bb f9 f2 0a bc f2 ca fe ba
       0.0029186206 -0.0056112884 -0.008480781 -0.0019439145
000230 ab 45 19 bc 6d 5c e8 3a ca a2 30 3b 44 17 9e b8
       -0.009354989 0.001772774 0.0026952499 -7.538361e-05
000240 28 83 29 3b b7 00 8b bc a7 19 82 bb 7c fb fb bb
       0.0025865529 -0.016968114 -0.003970343 -0.0076898914
000250 58 98 8f 3a 17 b1 d1 bb 2f 3e 43 3b ed 9c ac bb
       0.0010955436 -0.0063992846 0.0029791703 -0.0052677304
000260 89 9f 65 3b 35 be 25 bc 45 89 54 3b 02 27 bf 3a
       0.0035037717 -0.01011615 0.0032430452 0.0014583769
000270 44 27 38 3a 47 00 6d bc 99 98 8b bb 99 1b 0c ba
       0.0007024894 -0.014465398 -0.0042601344 -0.00053446885
000280 b7 3b 8a bb 52 bc 61 3b 66 b3 74 bb f8 18 3c ba
       -0.0042185443 0.0034444523 -0.0037338375 -0.00071753515
000290 bd ef 8d ba a7 32 33 bc 27 c1 98 bb e9 39 8e bb
       -0.0010828894 -0.010937369 -0.0046616974 -0.0043403995
0002a0 ca a3 c0 3b 52 79 46 bb fb 47 ff 3a 46 0e 05 bc
       0.0058789 -0.0030284715 0.0019476408 -0.008121079
0002b0 50 61 6b 3b 3b 2f 9c bb 84 65 71 bb d0 59 6e 3b
       0.0035916157 -0.0047663725 -0.003683419 0.003636945
0002c0 42 2a 9d 38 18 b0 e2 bb 7a 9a a2 3a 65 bb ac bb
       7.4942145e-05 -0.0069179647 0.0012405657 -0.0052713626
0002d0 11 91 50 ba e3 e4 21 bc 9a 73 e2 bb d4 69 06 ba
       -0.0007956187 -0.009881231 -0.0069107534 -0.0005127464
0002e0 91 16 b4 3a 4d 89 3d bb 01 d8 8a bb 96 31 19 bc
       0.0013739635 -0.002892095 -0.0042371755 -0.009350201
0002f0 2e fc a5 3a 93 ea 73 bb 57 f4 11 bb 55 0f 00 bc
       0.0012663656 -0.0037218675 -0.0022270882 -0.007816155
000300 97 db 31 3b a4 b4 b6 3b 2b d3 4c 3b 4f 03 28 3b
       0.0027138942 0.0055757333 0.0031253796 0.0025636738
000310 a8 fa 21 3b 64 63 e4 bb 46 94 53 ba f5 0e 1a bc
       0.0024716053 -0.006969856 -0.00080711057 -0.00940298
000320 7d 79 ae bb 1f 26 2f bc ef 5c b7 bb f8 fa a0 bc
       -0.005324541 -0.010690241 -0.0055957953 -0.019650921
000330 e2 3c 34 bc f8 66 f1 37 01 59 c9 ba c8 01 75 bb
       -0.011000844 2.8777387e-05 -0.0015361608 -0.0037385095
000340 ab 3d d7 bb ba 28 1e bc 23 23 3b 3b a8 38 08 bc
       -0.0065686307 -0.009653265 0.0028554879 -0.008314289
000350 39 5f 85 bb 0f d0 09 bd e5 59 b3 bb 89 10 93 bb
       -0.0040701893 -0.033645686 -0.0054733627 -0.004488055
000360 33 53 2e 3b 0c 4e 17 bc d3 ee 94 bb 72 e7 96 3b
       0.0026599884 -0.009234916 -0.0045450716 0.004605227
000370 f0 76 9d bb 97 ed e2 3a 29 b9 17 bc de b0 92 bb
       -0.004805438 0.0017313239 -0.009260454 -0.0044766506
000380 f4 f5 93 bb 8c fa 4e bc 7e 95 0d 3b 8f cc c9 bc
       -0.004515404 -0.012632977 0.0021603997 -0.024633674
000390 6f 20 fd bb eb 67 90 3b 39 6a b2 3b 43 d8 a5 ba
       -0.0077248137 0.0044069192 0.0054447916 -0.0012652952
0003a0 ea 41 59 bb 54 09 a0 bc 57 66 04 3c bf 74 37 bc
       -0.003315086 -0.019535698 0.00808104 -0.011197268
0003b0 85 6f 7c bb 18 dd b5 bb ab ff a3 bb 9f 7b 04 3b
       -0.003851862 -0.005550038 -0.005004843 0.0020215285
0003c0 c1 95 31 3b 3e fe fe bc 3c df c5 bb c1 3c 7e bb
       0.0027097317 -0.031127091 -0.0060385745 -0.0038793536
0003d0 6a 22 09 bb cb a7 00 bc 72 76 a6 bb ba b3 a3 bb
       -0.0020925053 -0.007852505 -0.0050800378 -0.0049957903
0003e0 20 e7 01 bc ed 49 07 bc f2 7d 6a 3b 04 dc f6 bb
       -0.00792864 -0.008257371 0.0035780636 -0.007533552
0003f0 7c 50 2f bc f0 7a 4f bb ae 9e 11 bc e9 5e 2a bc
       -0.010700341 -0.003165897 -0.00888793 -0.010398605

mu.4.bias f4 [4]
000000 61 bc a1 bb 4e f1 0e bc 67 a7 58 3c 38 55 c4 bb
       -0.0049357866 -0.008724524 0.013223506 -0.005991604
