experiments/data/sawyer_clutter_200steps_10H/sac/2021-06-09_09-37-32_clutter_200steps_10H/policy_6000.pt (torch_old, 75801 bytes, 6 tensors)

mu.0.weight f4 [128, 12]
00000000: b135 de3d 90ad 57be cff0 2ebe fe08 babd
00000010: 5b64 57be 2715 4cbe 1c65 1abe 9c6b 1b39
00000020: 1522 60bd c688 a73e abb3 6dbd 6a59 0d3e
00000030: 2969 b9bd efbf cfbc 62f6 1f3e b99d 153e
00000040: b693 173e 1621 203e 6ebe 8ebe 676d 87bd
00000050: 8f4c 34be 19fe a23d 4808 2f3d 47a7 76bd
00000060: 0cc1 c83d 6bee 5f3e 4f99 13be ee79 ca3d
00000070: e123 5d3d 9c8c 39be 7428 743e 2684 4f3e
00000080: b6a5 143d d0b2 74bd 6f9b 0c3e 4d05 803e
00000090: 7a75 8bba 40a6 37be fe31 06be 5d39 eabd
000000a0: fb56 0f3e ea66 1abe d77a 05be fca4 8ebd
000000b0: 0cb7 4d3e 3da4 59be 543f 0c3e 3ca9 2ebe
000000c0: 6441 98bd 5eb5 d7bd 84f9 7fbd f328 7c3d
000000d0: f4e2 cf3d 530e 5b3b a049 d33d ea1a 6ebd
000000e0: a17e 32be 10e3 1d3b 30ea d139 09e7 23be
000000f0: cd7e 90be 0783 533e 5dd9 30bd 234b 1cbe
00000100: 07bb 7d3e e634 dabd 5141 4ebc 0734 d3bd
00000110: 10ee 2f3e 7f52 e83d 65d1 503e 6633 8bbe
00000120: 38a8 87be 6aae 58be 34ed 733e 0534 45be
00000130: 0f60 f03d 2aec 013d 2524 23bd 49ba 2d3e
00000140: 2ba2 343e 2c0d 813e 6081 6e3e b093 da3d
00000150: b426 33be 7ff8 15bd a768 0ebd 6c13 1f3e
00000160: 1b5b 873e 774b 563d b76e 91be ccb8 eabc
00000170: 8c09 5ebe 5a25 8a3e 2f90 94bc b455 48be
00000180: f2ce 36bd 7d5e a43d efdd 4abb 9f29 243e
00000190: f6c5 a43b 76c5 81be 65fb 453d e3f6 e5bd
000001a0: ee60 183c c60d 853a d085 f4bd a4d2 8fbb
000001b0: 7b5d f0bd 4609 92be 26af 01be 369a a73b
000001c0: 89f6 32be f7c2 89be 8570 c3bd b6fe e0bd
000001d0: b997 15be 00dd 323d f675 12be 0a23 72be
000001e0: 97a0 033e d737 803e 3d96 e43d bd04 37be
000001f0: 2899 753e 048e 5c3e 3755 5ebe a0da 93bc
00000200: 3c4b d13d 749d 113e 2cef 35be 630d 5dbe
00000210: 1333 103e aa09 9fbd e411 91bc 9b80 763e
00000220: 29c3 323c 76e7 5d3e 049e 453e 4189 ad3d
00000230: 949c 103e 08f3 7d3e acb9 36bc 48b0 f43d
00000240: b78e 993d d2a9 983e 5f3e 673e 19ef 06be
00000250: 4830 9e3c cd75 1c3e d9ec 1bbc 4388 713e
00000260: 8950 593e 5ca3 4e3d b67f 073e c744 543e
00000270: 2661 233e d278 023e fc43 4f3e 6ee8 083e
00000280: 54a3 213e 8e2f 6cbe 668f 3b3e 5921 67be
00000290: 96b8 6b3d c4a3 7bbd 3643 56be a7fb 483c
000002a0: 1b21 883c 1ded 423e ece1 39be ec45 fc3c
000002b0: 79c9 f9bd d044 0abd 24b7 4c3e 854b cdbd
000002c0: 646c 08be 342c 89bc 54fc ccbd 6678 7bbe
000002d0: 702d 64be 85ae 353e 3a1a f63b 6b22 86bd
000002e0: 81d7 66be 5734 c4bd af93 84bc b548 6a3d
000002f0: aecb 393d 5a42 4f3e 8cc3 9c3c d2c2 fcbd
00000300: e94c 3f3c c7cb 48be 4ff3 1cbe bec1 223e
00000310: 34a8 13bd d822 a7bd eddf 96be 3814 713e
00000320: 8096 573e 3651 803e 5c6a e5bc d2d5 cb3d
00000330: ea18 613e 0d73 78be 404d 2c3e 48da d6bd
00000340: 4d82 8e3d 6537 8dbd eff3 b43d 295e 88be
00000350: d50d db3d 0652 a0bb 13e4 0fbe 227b e0bd
00000360: 4538 3d3b b9f2 40bd a739 91bc 2404 13be
00000370: 93c0 2abd 3298 5c3e c06f 0fbe dcf4 65be
00000380: cacf 343d 767b 28be d9e7 d8bd 644d f03d
00000390: e191 da3d 8d53 483e ad05 12be 82b9 853c
000003a0: 0b98 e7bd 1fd2 79bd fed8 42be 997d 1ebe
000003b0: aef4 44be 896d 783e c05a 15bd 30d5 9b3d
000003c0: c22b da3d 8e70 87be 9a82 e43d 2b49 09be
000003d0: 9616 3e3e 642d 79be 071a 32be b7cc 0dbe
000003e0: 6eef b1bd 56ff afbd fb95 393d 3eff 59be
000003f0: c6b4 e33d a2ab e9bd cb52 843e 8823 25be
0.108500846 -0.21062303 -0.17084049 -0.090837464 -0.21034376 -0.19929944 -0.15077633 0.0001482204
-0.054720003 0.32721537 -0.058032673 0.1380364 -0.09053261 -0.025360076 0.15621331 0.14610948
0.14802441 0.15637621 -0.2787966 -0.06612664 -0.1760733 0.079586215 0.042732507 -0.06021812
0.09802446 0.21868293 -0.14413951 0.098865375 0.053989295 -0.18120044 0.23843557 0.20265254
0.036290847 -0.05974084 0.13731168 0.25004044 -0.0010639869 -0.17934513 -0.13105008 -0.114367224
0.13998024 -0.15078321 -0.13035141 -0.06965062 0.20089358 -0.21254058 0.13696033 -0.17056745
-0.07434347 -0.1053264 -0.062493816 0.06156249 0.1015071 0.0033425286 0.10316777 -0.058131136
-0.17431118 0.0024091639 0.0004003807 -0.16006102 -0.2822174 0.20655452 -0.043176044 -0.15263037
0.24778377 -0.10654621 -0.012588815 -0.10312658 0.17180657 0.1134386 0.20392378 -0.2718765
-0.26495528 -0.21160284 0.23820955 -0.19258125 0.11737072 0.031719364 -0.039829392 0.16965593
0.17639987 0.25205362 0.2329154 0.106727004 -0.17495233 -0.036613937 -0.034767773 0.15534753
0.26436695 0.052318063 -0.2840478 -0.028652571 -0.2168333 0.26981622 -0.018135158 -0.19563943
-0.044630952 0.08025835 -0.0030955037 0.16031502 0.0050284816 -0.25345963 0.04833545 -0.112287305
0.009300454 0.00101512 -0.11939585 -0.004389124 -0.1173658 -0.285227 -0.1266447 0.005114819
-0.17476858 -0.2690656 -0.09542946 -0.10986082 -0.14608659 0.043667793 -0.14302811 -0.23646179
0.12854229 0.25042602 0.11161468 -0.17872901 0.23984206 0.2153855 -0.21712194 -0.018048584
0.10219428 0.1422022 -0.17767018 -0.21587138 0.14081983 -0.07765515 -0.017708726 0.24072497
0.010910788 0.21670327 0.1929856 0.08473445 0.1412223 0.2479974 -0.011152666 0.119476855
0.07497924 0.29817063 0.22582386 -0.13177146 0.019310132 0.15279312 -0.009516918 0.23587136
0.21222128 0.05044876 0.13232312 0.20729361 0.15955028 0.12741402 0.20240778 0.13369915
0.15784961 -0.23065016 0.18316421 -0.22571315 0.05754908 -0.061435476 -0.20924076 0.01226703
0.016617348 0.19035764 -0.18152589 0.03079506 -0.12196631 -0.03375703 0.19991738 -0.1002417
-0.13322598 -0.01674471 -0.10009065 -0.24557647 -0.22282958 0.17742355 0.0075104507 -0.065495335
-0.22543146 -0.095802955 -0.016183702 0.057198245 0.04536026 0.20240155 0.019136213 -0.123418465
0.011676052 -0.19608985 -0.1532719 0.1589422 -0.036049083 -0.08160943 -0.29467717 0.23542869
0.21053505 0.2506196 -0.028004818 0.09952892 0.2198216 -0.24262638 0.16826344 -0.104908526
0.06958447 -0.06895331 0.08835589 -0.26634338 0.106959976 -0.0048925905 -0.14051847 -0.10960986
0.002887265 -0.04710648 -0.017727686 -0.14357048 -0.04168756 0.21542433 -0.14007473 -0.22456688
0.044143476 -0.16453347 -0.105910964 0.11733511 0.106723554 0.19563122 -0.14259978 0.016323809
-0.11308297 -0.060991403 -0.19028088 -0.15477599 -0.19233963 0.24260534 -0.0364635 0.07609022
0.106528774 -0.2645306 0.11157723 -0.13406818 0.18563303 -0.24333721 -0.17392741 -0.13847624
-0.08688246 -0.08593623 0.04530905 -0.21288773 0.11118464 -0.114096895 0.25844416 -0.16126835

mu.0.bias f4 [128]
00000000: ac88 e93d b0a6 893d 3851 bc3d 4b57 3ebd
00000010: a73c 893e 0e6b b23d 3490 b0bd 4ad5 0e3e
00000020: 78b6 fbbd 90e3 bfbb fbba 8d3d 6e31 463d
00000030: 3c4a 0d3e 4c64 313e ab90 87be a7e2 8d3d
00000040: abed 833d 410d 003e f0ad 713e f266 413d
00000050: 495f 913d 794a 5ebe a573 8f3e 27aa f93d
00000060: 44b4 fa3c 1d5c 91be e8d7 c5bd 7f09 b73d
00000070: a5a5 55be ece1 7b3e f61e e4bd 63e0 92be
00000080: be72 74be 34c5 ddbd e969 173c 324a 01be
00000090: 7c80 2abe 0ad1 843e e7ed b4bd 3bdb 5fbe
000000a0: 7196 843e 8d28 8cbd 251a 4bbd 66a9 3b3e
000000b0: e26f 6dbd 4b12 cbbc 85cb cd3d 64ba d43b
000000c0: f3f1 7ebe f2cb 1bbe 1a3e 1b3e 135a 8bbe
000000d0: dfb4 f7bd 6032 ecbd 4ceb 0bbe f2f6 1a3e
000000e0: 6d56 51be d3e3 823e 6c02 bfbd 4f8e 823c
000000f0: 57f0 1ebe c92f fbbd f38e c03c 9580 21be
00000100: b448 53be f1bf 24be be4c 433e d08b 18be
00000110: 3c64 3fbe 9e0c be3d 6027 7a3e dddf 78be
00000120: dfe5 3cbe 52be b3bd 5f89 c2bd 2037 4abe
00000130: aed6 2ebd 1236 93be e269 78be 84d2 333e
00000140: 18ac ea3d 8469 d6bd cf67 bcbc affd f93d
00000150: d695 713e d20d 4abe 8646 953e 1dd3 39be
00000160: 4507 24bd 9b46 583e b2e2 323e 4f13 163e
00000170: 5bf0 2d3d 4225 16be 628a 883e a7bf 213e
00000180: b4fa 2dbe 939d 84be 2580 a1bc db29 45bd
00000190: 64bc 053d 192e 8f3e 6b9b 6cbd d669 30bd
000001a0: 7126 93be 1d1c 80be 2436 74be 654b 243d
000001b0: c9e4 57be d11c 063e 37e8 2dbe 9d97 633d
000001c0: 3e43 43be 5f9f 2c3e 2f54 853d 4b18 50bd
000001d0: 3c83 5ebe 6413 2cbe 10f8 24be 6aec 42be
000001e0: f91d dc3d 5547 443e b74b 00bd c20b 0a3e
000001f0: 1239 323e 7c08 c5bd 8b4f 04be 5ceb fdbd
0.11403021 0.06721246 0.09195179 -0.046469968 0.26804087 0.08711825 -0.086212546 0.13948551
-0.122906625 -0.005855985 0.06920429 0.048386984 0.1379785 0.17323416 -0.2647756 0.06927996
0.06441816 0.12505056 0.23601508 0.047217317 0.07098252 -0.21708097 0.28017917 0.12190657
0.030603535 -0.2839059 -0.096603215 0.08937358 -0.2086397 0.24597901 -0.11138718 -0.28686818
-0.23871896 -0.10828629 0.00924156 -0.1262596 -0.16650575 0.25940734 -0.08834439 -0.21860974
0.25896028 -0.06843672 -0.04958548 0.18326339 -0.057968028 -0.024788996 0.10048584 0.006491946
-0.24896984 -0.15214518 0.15160409 -0.2721716 -0.12095045 -0.11533046 -0.13663977 0.15133265
-0.20443125 0.2556444 -0.09326634 0.015936999 -0.1552137 -0.12264974 0.023505663 -0.15771706
-0.20633203 -0.16088845 0.19072244 -0.14897084 -0.1869058 0.0927975 0.24429083 -0.24304147
-0.18447064 -0.08776535 -0.09498858 -0.19747591 -0.042685203 -0.2875219 -0.24259141 0.17560774
0.114586055 -0.10469344 -0.022998719 0.122065894 0.23592314 -0.19731835 0.29155368 -0.1814694
-0.040045995 0.21120684 0.1746929 0.14655803 0.04246555 -0.1466265 0.26668078 0.15795766
-0.16990167 -0.2590147 -0.019714424 -0.04813562 0.032650366 0.27964857 -0.057765406 -0.043069683
-0.28740266 -0.2502145 -0.23848778 0.040110964 -0.21083368 0.1309693 -0.16983114 0.05556451
-0.1906862 0.1685767 0.06510197 -0.050804418 -0.2172975 -0.16804272 -0.16110253 -0.19035497
0.10747904 0.19167836 -0.031322207 0.13481048 0.17404583 -0.09620759 -0.12920968 -0.12398407

mu.2.weight f4 [128, 128]
00000000: 3759 b4bd 7f0e a3bd 1658 27bd 8a69 233d
00000010: f546 9ebb 3234 d33d c32f 5b3d ec43 883d
00000020: 93f2 04bb a05b 903d 3f1c 04bd a100 853b
00000030: ed62 713d 4964 e03c 0742 77bd c82c f73c
00000040: b314 89bd a08f 9d3d e946 9ebd 5c0d 793d
00000050: d628 963d 8b5a d13c 5880 6bbd a35e 9e3d
00000060: 73fd ba3c 6589 583c ac1a ab3d d5ef 913c
00000070: 28e6 a3bb 64b6 493d 94c6 173d 4fb5 91bd
00000080: 844f f63c f910 6fbd 384a 61bd 4250 0f3d
00000090: bb64 6dbd 688c c53d 33bc 463d 1e88 6f3d
000000a0: f8b1 6d3d febc 1d3d 4363 a43d df0e d43d
000000b0: 6d37 e83c 6a3d 1abd fb30 70bd b0a2 b73d
000000c0: 5ac7 a5bd c2f4 113c a080 0d3d d0ea 883d
000000d0: da7a 49bd 0eed a4bc 64d5 68bd 4bda 4bbd
000000e0: 821c 753b aff8 9ebd bf6b 6cbd fd00 cf3d
000000f0: e293 66bd 7934 89bd 45c3 7a3d 98e9 22bc
00000100: 2cc2 503d b01b 62bd 8a54 22bc f173 59bd
00000110: 2c4e cebc ea03 933d d5cd 473d 61d9 883d
00000120: d48b d53d 1979 84bd 3161 5abd a38e 4abd
00000130: 4445 a2bc 76f1 183c b5b7 3c3c 4383 49bd
00000140: 7ddb 47bd 4219 033c 0fc2 90bd 948e 13bc
00000150: 27c8 b5bd 432f 9c3d 481d b2bb 4da3 c5bc
00000160: 318e 9fbd c6c2 b63c db97 213c 57f5 b7bd
00000170: 6ea3 8fbd 5081 f23c 12f6 51bd eb2f 4abd
00000180: fbc8 523d 3458 74bd d071 91bd 1af1 8abd
00000190: 5ef9 ce3c 59dd 13bd 38c3 82bd cc00 93bc
000001a0: 602f 78bd f36a a73d f606 823d 573d 3ebd
000001b0: eadf 35bd e1b7 193d 3fb8 7fbb fcaa 143d
000001c0: dcf6 353d b21a d4bd 841b 3d3d 0159 2f3c
000001d0: fc72 bcba 46a4 9cbb f9e5 aebd ae91 1a3d
000001e0: 52a8 953d abe8 84bd a9e6 14bd b465 82bd
000001f0: 95e2 09bd c22d 253d a7e3 4bbd 0988 f1bc
00000200: cd78 a2bc ebd7 9b3d 0b27 4b3d 4666 963d
00000210: 928b 86bd f9d8 c03c cf9a b3bd e116 83bd
00000220: fdff 2a3d 71ae 5d3d e553 ee3a 9d0c 8a3d
00000230: f98f 19bd a443 943d ad0a 1d3d 3abf 76bd
00000240: 7c90 2cbd 671f 883d 8b4c 303d 4ded b03d
00000250: d21f 9ebd 5244 d53d dd35 993d 42e1 2dbd
00000260: 091f e43c 9716 a3bd c6bd 07bb 8ea6 9a3d
00000270: f09a 883d 8167 603d 7e48 933d 619e b23d
00000280: 41df 3e3d 8d6b 83bd e665 953d bcd9 a0bd
00000290: 072f b8bd 9b32 823d 1639 063d 123c 853d
000002a0: 76e0 5fbd 9ae5 bdbd 4568 10bd ca90 503d
000002b0: bbbf 033c d57f 91bd 7dd4 67bd 603e 18bd
000002c0: 7375 f13c 5efc 673d b2ee 3ebb 5a1f 1d3c
000002d0: 7569 71bd c88c 943d 280b 4f3c 81b9 0dbd
000002e0: 8c8c 203d 444b 903d 0cb9 4ebd 9e1c 0d3d
000002f0: 552f 533d b119 0e3d 4482 d53c 5c47 393d
00000300: 7c78 34bc db91 adbd 72ce a73c 6c19 1d3c
00000310: 787e 8dbd 3727 5a3d d725 ab3c a194 86bc
00000320: 78d3 763d bda7 72bb 504a 873b 133f 183c
00000330: 1cfa 4c3d 1846 e43c 979d 743c 1fc3 35bd
00000340: a3a1 c23d 46b0 bdbd 1c7e a03d 73dc 8d3d
00000350: cec7 3a3c 114e bfbd bef5 50bd 51f9 823d
00000360: ee6a c33b b744 8bbd be9f b23c fab7 04bc
00000370: 7610 5e3a 07d5 2b3d 3a75 de3c ea9a 8f3c
00000380: b478 0d3c 02ea 9e3d 81a3 f53b 3a7e 74bd
00000390: 4126 8b3d c7cd 8d3c 9172 8d3d 3b12 983c
000003a0: 33fb 96bd 047f 8cbd 1ad4 87bc 3049 873d
000003b0: 4972 bcbb a749 18bd b7a6 733d 726b 75bd
000003c0: 857f ba3a 216c 5ebc eb5b c03b 7256 dc3b
000003d0: 67bf 3fbd adb5 82bd 26e7 b2bd 9f51 663d
000003e0: 6eb0 c53c 58f3 503d bc4b 783d e1aa 15bd
000003f0: f0e2 29bd 3d29 99bc 2510 edbc 7003 a1bd
-0.08806079 -0.07961749 -0.04085549 0.03989557 -0.004830236 0.1031269 0.053512346 0.0665358
-0.0020286187 0.07048726 -0.0322535 0.004058913 0.058932234 0.02739157 -0.060365703 0.03017272
-0.06693401 0.0769341 -0.07728369 0.060803756 0.073320076 0.02555587 -0.057495445 0.07732894
0.022825932 0.013216351 0.08354697 0.017814556 -0.005001802 0.049246207 0.037054613 -0.0711466
0.030067213 -0.058365796 -0.05500242 0.03498865 -0.057957392 0.09645921 0.048519325 0.05847942
0.058031052 0.038510315 0.08026745 0.10354399 0.028346742 -0.037656225 -0.05864046 0.08966577
-0.08094664 0.0089084525 0.034546494 0.06685412 -0.049189426 -0.020132568 -0.05684413 -0.049768727
0.0037401025 -0.077622764 -0.057719942 0.101076104 -0.056293376 -0.066994615 0.06122138 -0.009943388
0.050966427 -0.055202186 -0.009907851 -0.053089086 -0.02518376 0.07178481 0.04878028 0.06682087
0.10427061 -0.0646841 -0.053315345 -0.049452435 -0.019808419 0.0093349125 0.011518409 -0.049197447
-0.048793305 0.008001627 -0.07068264 -0.009006161 -0.08876067 0.07626202 -0.0054356195 -0.02412572
-0.07790793 0.022309672 0.009862865 -0.08982342 -0.070135936 0.029602677 -0.05126006 -0.049362104
0.0514612 -0.05965443 -0.07101786 -0.06784268 0.025265392 -0.036099765 -0.06384891 -0.017944716
-0.060592055 0.08174696 0.06348984 -0.046445217 -0.044402994 0.037528876 -0.0039019731 0.036295876
0.044424877 -0.10356654 0.04616882 0.0107023725 -0.001437753 -0.004780325 -0.085399576 0.037736587
0.07307495 -0.064896904 -0.036352787 -0.063670546 -0.03366335 0.04032684 -0.049777653 -0.029483812
-0.019832993 0.076095425 0.04959778 0.07343726 -0.0656959 0.02354096 -0.08769762 -0.06400848
0.041748036 0.05412144 0.0018182962 0.06740687 -0.03749082 0.07239464 0.03834026 -0.06024096
-0.04212998 0.066466145 0.043041747 0.086390115 -0.07720913 0.10413422 0.07480977 -0.04245115
0.02784683 -0.07963293 -0.002071248 0.07551299 0.06670177 0.05478621 0.07191561 0.08721615
0.04659963 -0.06416998 0.07294826 -0.078540295 -0.08993345 0.063573085 0.032769285 0.06505598
-0.054657422 -0.09272309 -0.03525569 0.05091933 0.008041318 -0.0710446 -0.05659913 -0.03716886
0.02947495 0.05663716 -0.0029133973 0.009589994 -0.058938462 0.072534144 0.012636937 -0.03460074
0.039196536 0.07045606 -0.050469443 0.03445112 0.05155881 0.03469247 0.026063092 0.04523407
-0.011015054 -0.08475085 0.020484183 0.009588581 -0.069088876 0.053260054 0.020892067 -0.016428294
0.060260266 -0.003702625 0.004128732 0.009292382 0.05004321 0.027865455 0.0149301505 -0.044375535
0.09503486 -0.09262137 0.078365535 0.06926813 0.011400176 -0.09341062 -0.051015608 0.063952096
0.0059636747 -0.06800216 0.021804687 -0.008100504 0.0008471081 0.041951206 0.027155507 0.017529923
0.008634735 0.07759477 0.007496298 -0.05969069 0.06794406 0.017310036 0.069066174 0.01856338
-0.07372131 -0.06860164 -0.01658063 0.06605756 -0.0057509285 -0.037179615 0.059485164 -0.05991692
0.0014228678 -0.013575585 0.0058703325 0.0067241723 -0.046813395 -0.06382308 -0.08735494 0.056230184
0.02413198 0.05101332 0.0606191 -0.036539916 -0.04147619 -0.018696422 -0.028938362 -0.07861984

mu.2.bias f4 [128]
00000000: de4d 913d 051f 8abd c511 4cbd d878 423d
00000010: e2b0 d83b 7cfa 9e3d 3313 353d a02a 12bc
00000020: 0fe7 58bd ff92 3e3d b666 6fbd 10c3 b6bc
00000030: 5669 103d 0c26 0abd aa6a a8bd a1be 8b3c
00000040: 2422 88bd 0cb6 83bd 0a90 883d 479e 9c3d
00000050: 1a23 5bbd a97d 9e3a d9a4 5d3c d56c 7f3d
00000060: f956 b03d 941f 6c3d 3252 893d 77f5 babd
00000070: f6a2 11bc 91fe 29bd bfd9 ad3d 4519 4bbd
00000080: 39fb 9c3d 44fd a0bd 7745 5cbd 474d 973d
00000090: 44ec 94bd a315 24bc cea0 a03c 2dfd 403c
000000a0: 799e 113d 7d2e 1dbd 365e 1dbd 74d7 04bd
000000b0: 540c 923b b46b 953c 8f33 ec3c 5b31 af3d
000000c0: 11ad 80bd a4fb 87bd d662 5cbd 8c3e 893d
000000d0: c9e3 983d 4c18 ac3d 97db b1bc 36ae 693d
000000e0: e2fe 93bd 9e2e 82bd 3b9c a439 f294 3fbd
000000f0: f075 083d 1c6f 933d 5035 713d 6245 963d
00000100: ac27 adbc a226 383d 4594 333d 7f5a 3b3d
00000110: cf70 9ebb 5169 dfbc 2786 01bd ee64 993d
00000120: 4b59 703d 1d4f aa3b 5160 5abd b614 d0bb
00000130: 249d 80bd 5c87 0ebd e344 bebd 871b 263d
00000140: 11d9 6c3d 2376 aa3d 1237 96bd c9a0 883d
00000150: 3297 273c fe53 c33b 944f 09bc 29e9 dc3c
00000160: edef 53bc f49b 273d a345 84bd a321 3abd
00000170: be4c b13d cd4a 6dbd e1d8 963d 9097 06bd
00000180: 623c 0bbd a077 2b3d 2bfc 073d 5285 b5bc
00000190: 444d 4e3d f876 babc 8f7e 3e3b 9059 af3d
000001a0: 23a7 033c 6f24 b43b 9fad 70bd cdc7 8dbd
000001b0: 137b 183d bb42 40bd f515 5cbd 5aa8 babc
000001c0: b956 68bd 36e3 113d 8031 fe3c 2fb0 a63d
000001d0: f8fb e7bb 821d 05bd 2053 873d dd3e 8abd
000001e0: 17ad bb3d 910c a43d 66b1 4d3c aa0b bf3b
000001f0: ecbd 113b bc9d 9abd 9e76 08bc 020a 64bd
0.0709493 -0.06744198 -0.049821634 0.047478527 0.006612883 0.0776262 0.044207763 -0.008921295
-0.05295473 0.046526905 -0.058447562 -0.02230981 0.035256706 -0.03372769 -0.082234696 0.017058672
-0.06647137 -0.06431207 0.06668098 0.076473765 -0.053500272 0.0012091893 0.013528072 0.06235965
0.08610339 0.057647303 0.06705131 -0.0912885 -0.008888951 -0.04150254 0.084887974 -0.049584646
0.076651044 -0.078608066 -0.053777184 0.07387786 -0.072716266 -0.010014924 0.019607928 0.011779112
0.035551522 -0.038374413 -0.038419925 -0.032432035 0.004457036 0.018239833 0.028833179 0.08554336
-0.0628301 -0.066397935 -0.053805195 0.06701383 0.074653216 0.08403072 -0.021711154 0.057050906
-0.072263494 -0.06356548 0.00031396918 -0.046772905 0.0333156 0.07198927 0.058888733 0.073374525
-0.021137081 0.044958718 0.043842573 0.0457406 -0.004835225 -0.027271898 -0.03162208 0.07489954
0.058678906 0.0051974193 -0.05331451 -0.006350125 -0.06279972 -0.034797058 -0.09290483 0.040553596
0.0578242 0.08323314 -0.073347226 0.06671292 0.010228919 0.0059609404 -0.008380789 0.026966648
-0.012935621 0.040920213 -0.06458595 -0.045442235 0.086572155 -0.057932664 0.07365585 -0.032859385
-0.033993132 0.04186213 0.03319947 -0.022158299 0.050366655 -0.022761807 0.0029067134 0.085620046
0.008035454 0.0054975073 -0.058759328 -0.069228746 0.037226748 -0.04693864 -0.053731877 -0.022785354
-0.05672333 0.035617076 0.031029463 0.08139073 -0.0070795976 -0.032498844 0.06607652 -0.067502715
0.09163874 0.08010209 0.012554502 0.005830248 0.0022238446 -0.07549617 -0.008329062 -0.055673607

mu.4.weight f4 [4, 128]
00000000: f03e 163a 5a44 92bb 5f27 ddbb 1f78 3ebb
00000010: 1d25 42bc 0443 6f3b 7289 9dbb 9763 3bba
00000020: 5490 9e3b 0c1f 15ba 1ebd 67bc fefe 5bbc
00000030: 49b4 10bb b003 1e3c 5bdf 4b3a 9557 4e3a
00000040: 5fde 01bc 74ef 12bc 14cd 92b9 741f aa3a
00000050: 6f8d ab39 6a05 8a3a d06a b23b 145e 02bb
00000060: a491 d73a 98e4 3ebc 68b0 6bbc 4cb7 06ba
00000070: 60b2 5c3a b645 04bc 6cd9 74bb 3ec8 49bb
00000080: ee8e 0fbc 10b5 913a dca7 21bc 61e5 b1ba
00000090: 24b6 84bb ceff e0bb 6f2f 38bb 903b f739
000000a0: 3121 0ebc 414b b1bb 44a8 ed3a bced 90bc
000000b0: 24f8 c53a 8018 183b 4547 66bc 3b2e 923b
000000c0: 9f3a c73b 18f9 b9bb 02e3 feb9 233f 99bb
000000d0: 8fb4 8f3b 2756 fdbb 700c 3ebc c07f 7538
000000e0: 2bed 1d3b de0c e4ba 49e2 1cbc 3d3b 01bb
000000f0: 83e5 25bb 0feb 7abc 1a07 23bb a9cb 21bc
00000100: c5fa 19bb 9c63 66ba 71b7 a03b 87c3 b43b
00000110: 821b c23b 8a82 59b8 ea97 51bc 6dbd 1abc
00000120: 75d9 5ebb 9d3c 3fbc dd14 afbb 2f08 d5ba
00000130: 00d7 55bc f12f 8db9 d7f9 7fba b314 3ebc
00000140: 6a27 09bb 8c9f 18bb 8e48 26bc 1533 b8bb
00000150: ec59 caba 3588 37bc 9bbe 64ba 2f10 c3bb
00000160: 17ff d93b 965d 1ebc e4ae 6aba 0b06 903b
00000170: 802b 78bc 775e a7bb 3b3e edbb 7d0f 8bbb
00000180: 6107 c93b 9540 a5bb e488 db3b b925 2b3c
00000190: 5449 ecbb 40fb b739 6dd3 efbb 0840 c3bb
000001a0: bf82 823a 15c8 e4ba 2e8d 1cbb 4ba3 1ebb
000001b0: a3ca 04bc e77f 1cbb faea 16bc 20ec 083b
000001c0: a336 2e3a b417 eabb 199b f2bb 279a 4cbb
000001d0: 89a2 42bb 0406 6fbc f523 15bb 6f6b 70bc
000001e0: e3a3 21bc 92c1 02bb 6e16 023c 1b5f f2bb
000001f0: c4db 7ebb 582c 0abc 21e7 1fbc b1b8 643a
00000200: 07f0 ba39 2676 f2bb 2be7 a0bb 7a18 b1bb
00000210: a807 52bc 70ad 983b 357b 503b db92 8db9
00000220: a398 553b 6759 edbb 8c20 27bc 81cc 20bb
00000230: 37a7 1cbc 09cf c13a 39f3 343b c3d6 5fb8
00000240: 2883 293b 5618 90bc a4c1 87bb ce3b fabb
00000250: e881 903a 323c cbbb 903b 643b 4c1d ccbb
00000260: 3afb 523a b449 3abc 590b 4b3b 1276 b23a
00000270: 4427 383a 260e 75bc 81dd b7bb 4e7d a8ba
00000280: a85c b5bb 7778 603b aad0 7abb f818 3cba
00000290: 0238 88ba e57f 36bc 63e4 d2bb 04b9 96bb
000002a0: 7f24 b53b ebca 82bb f4d2 1c3b 2d5a 10bc
000002b0: 6a93 783b e632 d7bb c88a 7abb bf07 7b3b
000002c0: b038 5e39 a1e5 efbb 1d3b a33a 07b4 e3bb
000002d0: 02c4 4dba 1d61 32bc 9cc4 07bc d469 06ba
000002e0: 9116 b43a 4d89 3dbb 58c3 89bb ef96 3bbc
000002f0: 8ed7 893a 3734 85bb 9ac2 58bb 9fa4 1bbc
00000300: 97db 313b e1a4 b23b 5ca6 603b 096c 293b
00000310: f2b2 323b fbe3 eebb 5c86 fdba c274 17bc
00000320: 020f e6bb e46d 47bc 4c68 eabb 632d aabc
00000330: cb54 3cbc 1d07 f4b7 94e5 f0ba 8c47 a5bb
00000340: 3d42 06bc 80a5 21bc ee48 3b3b a80e 21bc
00000350: c66d c0bb dc5d 0dbd 52a3 c9bb a133 cebb
00000360: ccb6 523b db30 2ebc 645f 98bb 4d47 983b
00000370: 06e4 abbb c3ab bd3a b42b 2fbc 5694 9abb
00000380: e37a 83bb 0ecf 6abc af4c 1cbb 9bf7 dbbc
00000390: 29e3 17bc 5ce8 8f3b aed1 a63b 2682 0cbb
000003a0: 0206 64bb 8067 a7bc 57fe 063c b170 58bc
000003b0: 9927 68bb 7afa e7bb a3ae d1bb b9b7 0d3b
000003c0: 7b01 3b3b 4b6c 03bd 581d dfbb 215a b9bb
000003d0: c554 5fbb 4538 19bc 8aa4 a9bb aa7f b5bb
000003e0: 4166 17bc df96 07bc e103 803b 21f5 16bc
000003f0: 3374 39bc c488 73bb 64df 2cbc f5b2 4bbc
0.00057314243 -0.0044637145 -0.006749078 -0.0029063297 -0.011849669 0.003650845 -0.0048076445 -0.0007148324
0.0048389826 -0.0005688525 -0.01414421 -0.013427494 -0.0022080115 0.009644434 0.0007777118 0.0007871327
-0.007926553 -0.008968223 -0.00028000085 0.0012979344 0.00032721038 0.0010530178 0.005444862 -0.00198925
0.0016446603 -0.011651181 -0.01438532 -0.00051390077 0.0008418914 -0.008073261 -0.003736104 -0.003078952
-0.008762104 0.0011116583 -0.009866681 -0.0013572389 -0.004050033 -0.006866432 -0.0028104445 0.0004715589
-0.008674906 -0.0054105823 0.0018131812 -0.017691486 0.0015103859 0.0023207963 -0.014055078 0.0044610775
0.006079986 -0.0056754462 -0.0004861579 -0.004676716 0.004385538 -0.0077312174 -0.011599645 5.853153e-05
0.0024097662 -0.0017398854 -0.009575435 -0.0019719147 -0.0025313802 -0.015314831 -0.002487606 -0.0098752165
-0.0023495418 -0.00087886467 0.0049046804 0.0055164727 0.0059236893 -5.1858406e-05 -0.012792567 -0.009444577
-0.0034004126 -0.011672166 -0.0053430633 -0.0016253049 -0.013051748 -0.00026929335 -0.0009764707 -0.011601615
-0.0020928034 -0.0023288457 -0.010149134 -0.005621324 -0.0015438176 -0.011201908 -0.0008725912 -0.005952857
0.0066527235 -0.009665867 -0.00089524523 0.0043952516 -0.01514709 -0.0051076966 -0.0072400845 -0.0042437897
0.006134913 -0.005043099 0.0066996682 0.0104460055 -0.00721089 0.00035091676 -0.007318905 -0.005958561
0.0009957178 -0.0017454649 -0.002388786 -0.0024206217 -0.008104953 -0.0023879947 -0.009211296 0.0020892695
0.0006645715 -0.007143939 -0.007403743 -0.0031219812 -0.002969893 -0.014588837 -0.0022757028 -0.014674052
-0.009865734 -0.0019951803 0.007939918 -0.0073965914 -0.0038888315 -0.008433424 -0.009759695 0.0008725031
0.0003565552 -0.0073993383 -0.00491037 -0.005404529 -0.012819208 0.0046593472 0.0031811718 -0.00027003032
0.00325922 -0.0072433236 -0.010200631 -0.0024535956 -0.0095613515 0.0014786433 0.0027610792 -5.3367356e-05
0.0025865529 -0.01758973 -0.004142957 -0.007636524 0.0011025043 -0.006202244 0.003482554 -0.0062290784
0.00080483 -0.011370111 0.0030982106 0.001361551 0.0007024894 -0.0149569865 -0.005611122 -0.0012854727
-0.005534727 0.003425149 -0.0038271346 -0.00071753515 -0.0010392668 -0.011138891 -0.006435917 -0.0045996923
0.0055280323 -0.003991475 0.0023929449 -0.008810562 0.0037929663 -0.006567347 -0.0038229693 0.0038304178
0.00021192688 -0.007321075 0.001245353 -0.006948951 -0.0007849337 -0.010887411 -0.008286621 -0.0005127464
0.0013739635 -0.002892095 -0.004204195 -0.01144956 0.0010516511 -0.0040650624 -0.0033074976 -0.009499698
0.0027138942 0.005451784 0.0034278845 0.0025851747 0.0027267304 -0.007290361 -0.001934241 -0.009244146
-0.007020832 -0.012172196 -0.0071535464 -0.020773595 -0.011494826 -2.9090379e-05 -0.0018378966 -0.0050439294
-0.008194503 -0.009866118 0.0028577405 -0.0098301545 -0.005872461 -0.03451334 -0.0061535025 -0.0062927757
0.0032152412 -0.010631765 -0.0046500433 0.0046471716 -0.0052456884 0.0014470745 -0.010691572 -0.00471739
-0.004012452 -0.014331592 -0.0023849418 -0.026851466 -0.009270468 0.004391713 0.0050909137 -0.002143988
-0.003479362 -0.020435095 0.00823935 -0.0132104615 -0.0035423993 -0.0070794197 -0.006398992 0.00216244
0.0028534818 -0.032085698 -0.006808918 -0.005656496 -0.0034077626 -0.009351795 -0.0051770853 -0.0055389004
-0.009240688 -0.008275717 0.0039067124 -0.009213717 -0.011319208 -0.0037160376 -0.010551307 -0.012432803

mu.4.bias f4 [4]
00000000: 35d7 9cbb abd8 1fbc da9a 463c f2b2 a4bb
-0.004786397 -0.0097562475 0.01212188 -0.0050262148
