experiments/data/sawyer_clutter_200steps_10H/h_sac/2021-06-24_10-35-02_clutter_200steps_10H/model_4800.pt (torch_old, 358080 bytes, 12 tensors)

log_std f4 [1, 12]
000000 93 86 ad bf dd 1c a8 bf 76 94 6f bf ee 5e 61 bf
       -1.3556694 -1.3133808 -0.9358591 -0.88035476
000010 6b a0 42 bf 46 31 38 bf 50 77 2c bf 04 46 26 bf
       -0.7602603 -0.71950185 -0.67369556 -0.64950585
000020 97 ea 4a bf e8 e2 43 bf 27 49 f7 bf 4b 75 02 c0
       -0.79264206 -0.76518106 -1.9319199 -2.038409

mu.0.weight f4 [200, 14]
000000 03 ec ae be 60 ca be 3e 35 55 8b be b5 b8 7d 3d
       -0.34164438 0.37263775 -0.27213445 0.06194373
000010 75 c4 c7 be c6 cf 98 3d 27 ca b6 3e e0 60 57 3d
       -0.39017072 0.07461505 0.35701105 0.05258262
000020 55 d1 2a 3e 5d 65 58 be f2 91 c1 3e 4b 63 3f 3e
       0.16681416 -0.21132417 0.3780666 0.18690221
000030 f5 b6 87 3a f1 52 0f bf c5 58 8f 3e a1 9e e8 3d
       0.0010354208 -0.55985934 0.27997413 0.11358381
000040 cf b9 14 bf 83 86 9a 3e f5 54 42 3e 85 c5 03 3f
       -0.5809602 0.3018075 0.18977721 0.51473266
000050 20 68 b6 3d 05 88 ba bc 75 41 49 bc 77 2e 6b be
       0.08906579 -0.022769937 -0.012283673 -0.22966944
000060 c8 7e 87 3e 14 84 5f b8 8c b7 7c 3e 28 0f 0c 3d
       0.26463914 -5.329035e-05 0.24679393 0.03419414
000070 57 b6 89 3b 4b d8 5d 3e 82 9a 7d 3e c7 6b a9 3d
       0.004202645 0.2166454 0.24765971 0.0827251
000080 ff e4 2e be 43 b7 e6 3d 20 b2 28 3e 91 68 dc be
       -0.17079543 0.11265423 0.164742 -0.43048528
000090 4c 1b 0d 3d e7 34 3c 3e 06 57 75 3e 45 bb a4 3e
       0.03444986 0.18379556 0.23958978 0.32174125
0000a0 67 b3 a4 3c 47 70 0b bf 55 24 43 3e 69 24 d5 3e
       0.020105077 -0.54468197 0.19056828 0.4162934
0000b0 67 12 26 bf b7 64 91 3d bd fa 4a 3d 19 15 ad bd
       -0.6487183 0.07099288 0.04955553 -0.0845129
0000c0 d9 7b 18 3e e7 aa 9c be fe 56 59 3e 54 ac f5 bd
       0.14890994 -0.30599138 0.21224591 -0.119957596
0000d0 cb a3 6a be a0 29 80 be ac d3 1e 3e 84 15 0c bf
       -0.22914045 -0.25031757 0.15510434 -0.5472033
0000e0 89 f8 8e be 5a 66 c7 3e 2c 30 0c 3f 19 8c 73 be
       -0.27923992 0.38945276 0.54761004 -0.23783912
0000f0 63 0e 86 3e 1d dc c1 be 58 bc 8f 3e 92 94 87 3d
       0.2618285 -0.37863246 0.28073382 0.066201344
000100 1f fb 26 3e 9d b6 ae 3d 6e fd fc bd 2e bd d7 bd
       0.16306733 0.085309245 -0.123530254 -0.1053413
000110 97 2d 6d be 28 52 ca 3d 23 52 a4 3d 2c c7 f6 3d
       -0.23161922 0.09878951 0.08023479 0.12049708
000120 cc 78 b8 be d0 3e 3e be 10 d5 d3 be 1f 10 29 3d
       -0.3602966 -0.18578649 -0.4137349 0.04127514
000130 e1 8c f3 be 3d 32 11 be dc 13 3e be 35 ca 2b be
       -0.4756842 -0.1417932 -0.18562263 -0.16776355
000140 23 95 31 be d5 5f a3 be 5c ad bb 3e 1f 6d 5d be
       -0.17342047 -0.31909052 0.366557 -0.21623658
000150 88 53 8d be 16 04 19 be d7 fe fa 3e 05 28 67 be
       -0.27602792 -0.14942965 0.49022552 -0.2257386
000160 89 82 42 bd 7d 0b 5d be 39 93 a4 bd 18 fd 9e 3d
       -0.04748777 -0.21586414 -0.08035893 0.077631176
000170 67 f7 46 be 08 b1 c4 be e0 e4 32 3d 0a 5e 85 bd
       -0.19430314 -0.38416314 0.043675303 -0.06512077
000180 d0 44 f1 3e 0a cb 8e be 63 23 fc 3e 87 cc 36 3f
       0.47122812 -0.27889282 0.49245748 0.71405834
000190 4f 48 c0 3e a6 87 b7 3e 22 12 fa bc 00 c8 d4 3d
       0.37555167 0.3584568 -0.030526225 0.103897095
0001a0 a1 ca a4 be 48 8f 63 3c 64 0b 7a 3b 3d 0d be be
       -0.32185844 0.013889141 0.0038153762 -0.37119475
0001b0 47 2f 86 3e 97 82 86 3e 1e ec e3 3e 34 f3 9c be
       0.26207945 0.26271507 0.4451608 -0.306543
0001c0 50 d3 2b 3d 73 f7 3b 3e e3 07 a8 3e 35 74 91 3d
       0.04194957 0.18356113 0.32818517 0.07102243
0001d0 87 f6 20 be 8c 9c dd 3d b5 8e 13 3e 03 1c 84 3d
       -0.15719043 0.108208746 0.14409907 0.06450655
0001e0 44 5c ac be b2 30 03 3e 8e 14 c0 be ef 0a 84 be
       -0.33664143 0.12811545 -0.37515682 -0.25789592
0001f0 c0 e2 e9 be 2e 26 20 bf 5c 56 f3 3e c2 c4 82 3c
       -0.4568081 -0.6255826 0.47526824 0.015962962
000200 c2 d1 9d 3d 51 06 a6 bd e3 02 8a be 35 d3 62 bd
       0.07706024 -0.081066735 -0.26955327 -0.055377204
000210 15 6b 65 3e d2 26 b3 3e a8 f5 a7 be a4 32 82 3e
       0.2240413 0.34990555 -0.32804608 0.2542926
000220 b0 8a 64 bd c6 d5 0c 3e a8 41 82 3e 1f 24 1c 3f
       -0.055796325 0.13753423 0.25440717 0.60992616
000230 af 65 ec 3e 9d b7 07 bf 42 92 ce be 3d da 18 be
       0.46171328 -0.53014547 -0.4034596 -0.14927001
000240 32 c1 9a be a6 f4 09 be 63 d2 d4 bd eb da d2 3d
       -0.3022552 -0.13472232 -0.103916906 0.102956615
000250 3c c7 53 3e 84 63 49 3e 90 c1 db bd cf 19 8d bd
       0.2068147 0.19666868 -0.107302785 -0.06889688
000260 07 e8 fd 3e 5d d3 0b 3d 4b cb 08 3e 96 e4 88 be
       0.49591085 0.03413712 0.133588 -0.26736897
000270 b7 d3 db be 9f 55 e2 be 94 b3 c3 3c 21 a3 98 3e
       -0.42934963 -0.4420595 0.02388934 0.29811957
000280 26 bc 8a 3b 09 21 df be 19 ff 6f be eb 15 16 3d
       0.004233855 -0.4357989 -0.23437156 0.036641996
000290 95 2a 96 3e fd f2 76 be e1 10 d1 bd bb 49 ac be
       0.29329363 -0.2411613 -0.102082975 -0.33650002
0002a0 10 94 01 bf 91 55 0f bf ba 2b 8d be 6b b9 14 bf
       -0.5061655 -0.5598994 -0.27572423 -0.58095425
0002b0 1a b5 a1 3e 55 15 2e 3e aa 20 84 3d 17 84 0d 3e
       0.31583482 0.17000325 0.06451543 0.1381992
0002c0 9d a8 f3 3d e5 0b 42 be c5 cf da 3e 1c 66 8c 3e
       0.11897395 -0.1894985 0.4273664 0.27421653
0002d0 52 9f 75 be fd 9a 33 be 22 95 9f 3e 14 7c d2 3e
       -0.23986557 -0.17539592 0.31168467 0.4111029
0002e0 1e e0 00 3e 1f 58 fd 3b eb 80 04 3f e8 cc b4 3d
       0.12585494 0.007731452 0.51759213 0.08828145
0002f0 3d 44 63 3e d2 b1 c0 3d 05 3f a7 3e 9c e0 7b 3c
       0.22194 0.094089165 0.32665268 0.015373375
000300 78 21 06 be b0 4d b7 be 4d 1a 68 3e 0c 73 77 be
       -0.13098705 -0.35801458 0.22666283 -0.2416498
000310 3b c8 fd 3e 21 7c b2 bc c5 b4 30 3e 1c 6d 53 be
       0.49566826 -0.021787705 0.17256458 -0.2064709
000320 7e af db 3d 54 b2 8b 3e e6 1c 2c be f9 71 cb bc
       0.10726832 0.2728449 -0.16807899 -0.02483462
000330 6a ee 97 be a6 39 29 be 1d 69 38 3d b8 af 47 be
       -0.29674083 -0.16525897 0.04502212 -0.19500625
000340 9c 5a b6 3e 79 d7 ba 3c 95 a8 b3 3e 68 78 80 3e
       0.35616004 0.022807823 0.35089555 0.25091863
000350 71 a5 37 3d b1 d2 c3 be 70 81 a0 3e 88 69 e8 3e
       0.04483551 -0.38246682 0.31348753 0.45393014
000360 73 04 e8 3d 59 82 60 3e b2 f4 8c 3e a5 5a 02 3e
       0.113289736 0.21924724 0.27530438 0.1272989
000370 cd 0c 83 3e ed 33 19 be d9 d0 00 bf f7 03 59 3e
       0.25595704 -0.14961214 -0.50318676 0.21192919
000380 9b d7 f0 3d 3d b7 87 bd 31 c5 a5 3e 9c b1 01 3f
       0.117598735 -0.06626747 0.32377008 0.50661635
000390 34 f6 07 be 65 4c 32 3e d3 16 96 bc de 44 8a be
       -0.13277513 0.17411955 -0.01832143 -0.27005666
0003a0 0b 38 6d be 89 9f 18 bd d5 69 de 3d 72 ff 4c be
       -0.2316591 -0.03726152 0.108600296 -0.2001932
0003b0 a8 06 f9 be 8a 10 17 3f 2e 8f 96 3e ca ba 3b bf
       -0.4863789 0.5900961 0.29406112 -0.7333189
0003c0 49 a9 51 be d8 6e 6d be 7a 5c 8c 3e 62 8c 7e be
       -0.20474733 -0.23186815 0.27414304 -0.2485824
0003d0 ef 27 35 be 5e 65 cd 3e 34 e4 00 be bb 7c 56 bd
       -0.17691015 0.401164 -0.12587053 -0.052365046
0003e0 c2 e8 b4 3e a2 83 a0 3e 7b ab fb bd 2f 6f b2 3e
       0.3533383 0.31350428 -0.12288567 0.3485045
0003f0 23 5a 14 be d8 8e 3d 3e ec 73 10 bf 39 b1 41 be
       -0.1448751 0.18511522 -0.5642688 -0.18915261

mu.0.bias f4 [200]
000000 61 df d3 3e 7a 50 3a bd 35 bd 88 3e 6e 64 4e 3e
       0.41381362 -0.045486905 0.26706854 0.20155498
000010 87 d1 ed 3d 65 23 83 be d2 92 4b bc 80 43 08 be
       0.1161223 -0.2561294 -0.012425141 -0.13306999
000020 a5 6c 23 3d f7 0c fb 3d 6e bd 9c 3e ff 86 15 be
       0.039898533 0.12258332 0.30613273 -0.14602278
000030 b9 d6 47 bd 12 6c 38 bc b6 c7 82 3e ae 1e 13 be
       -0.04878876 -0.011256235 0.25542992 -0.14367172
000040 65 5c d6 3c 23 82 3e be 26 59 29 3d c1 6c 93 3d
       0.026167104 -0.1860433 0.041344784 0.071984775
000050 4c fc 96 3d 3a 97 01 3d 94 24 a3 3e 65 73 72 3d
       0.073723406 0.03163836 0.31863844 0.05919208
000060 ef f5 b1 3d 47 a7 87 be a1 c6 ff bd ca c1 b1 be
       0.08689486 -0.2649481 -0.12489057 -0.34718162
000070 15 03 29 3e c3 1b 44 3c c2 0a 23 bd 87 29 39 be
       0.16505082 0.01196951 -0.03980518 -0.18082248
000080 fd d7 a1 be 98 29 0f be da 1e e3 bd 96 77 4f 3e
       -0.31610098 -0.1398071 -0.11089869 0.20260462
000090 a5 a0 63 3e 6f 64 75 be bd 82 25 3e e5 77 a9 bd
       0.2222925 -0.23964094 0.16163154 -0.08274821
0000a0 10 fc 80 be 52 1f 82 3e b1 45 98 3e 69 7d a5 3d
       -0.25192308 0.2541452 0.2974067 0.08080561
0000b0 f9 f6 bd 3d 02 fd 27 be f3 cb ca 3d b5 38 e1 ba
       0.09275622 -0.16405109 0.099021815 -0.0017183038
0000c0 22 a0 34 3e 5b 88 93 3e 6e 87 5b be 05 f2 8c 3c
       0.17639211 0.28814968 -0.21438381 0.017205248
0000d0 62 b6 be 3d 23 e2 12 3e 2e 44 3b bd 6a c5 1a be
       0.093121305 0.14344077 -0.045719318 -0.1511437
0000e0 fe 91 a5 3e 32 1d f7 bd 5b bc 89 be c9 17 0c be
       0.32337946 -0.120661154 -0.26901516 -0.13680948
0000f0 da 62 99 3e 06 e8 d7 bd 98 ee 50 bc ce 87 73 be
       0.2995823 -0.10542302 -0.012752198 -0.23782274
000100 bd 88 ea bd e8 5d 39 be 28 b5 ae bb 5a d7 9e be
       -0.11451862 -0.18102229 -0.005331654 -0.31023675
000110 4c 48 c1 3d b4 a7 f7 3d 64 5d 62 3e 0b 48 2f be
       0.09437618 0.12092534 0.22105938 -0.17117326
000120 1d 65 bf bd 2d 16 28 be 05 0c 6e 3e 6d dd 42 3e
       -0.09345458 -0.1641471 0.23246773 0.1902978
000130 54 e3 34 3d d1 58 80 bd 0c 97 0b be 07 2b 0b 3e
       0.04416211 -0.062669404 -0.13631839 0.13590632
000140 25 7f 9c bd 11 7d 0c 3e 14 b3 70 3c d7 12 20 be
       -0.076414384 0.13719584 0.014691133 -0.15632187
000150 b6 ea a8 3d e6 c5 55 3e bc 4d 38 3e d2 e5 4d bd
       0.082478926 0.20876274 0.17998403 -0.050268
000160 c6 50 40 3d cf f3 85 3c ee b4 0f bd f3 d1 30 3c
       0.04695203 0.016351609 -0.035084657 0.010792243
000170 3f d7 3d b9 eb a9 9e 3d e5 4c 0d 3e 80 7c b1 be
       -0.0001810463 0.07747253 0.13798864 -0.34665298
000180 09 91 b7 3e c1 00 06 bd 65 17 0e be bc a2 cd bd
       0.3585284 -0.032715563 -0.13876112 -0.10040805
000190 11 82 ef 3c 7f 5a 7d bd 1b 71 68 3e 50 32 63 3e
       0.029236825 -0.061853882 0.22699396 0.22187161
0001a0 5a c8 b0 3d 73 cf af be 5b f2 28 3e ae b2 bb bd
       0.08631964 -0.3433796 0.16498701 -0.0916494
0001b0 ae 77 aa be 0c d7 ac 3d 16 9f 2e 3e e2 8d cd 3c
       -0.33294433 0.084394544 0.17052874 0.025092069
0001c0 41 e5 15 bd d4 81 41 be 9b 02 d2 3d 45 0c 63 be
       -0.036595587 -0.18897182 0.10254403 -0.22172649
0001d0 c2 55 a2 3d 0a eb b5 3e e2 0b cc 3d c5 c4 c2 3d
       0.07926513 0.35530883 0.09963204 0.09510187
0001e0 95 22 06 3c 2e df 02 be 5a 32 04 3e 6b e5 09 3e
       0.008186956 -0.12780449 0.12909833 0.13466422
0001f0 36 65 da bd 7d dc ca 3d d0 42 d1 3c a4 fd a8 3d
       -0.10663836 0.09905336 0.025544554 0.08251503
000200 72 83 03 be b5 14 fd bd 13 98 13 3d 14 9a 6a bd
       -0.12843111 -0.12357465 0.0360337 -0.057275847
000210 78 32 66 3d a3 13 a0 3e c9 c6 65 3d ee 96 16 be
       0.056200475 0.31264982 0.05609778 -0.14706013
000220 8b cb 15 be a1 78 63 3e fb b6 f7 3d a4 53 95 bd
       -0.14628427 0.22213985 0.12095448 -0.07291344
000230 eb 5b 9d 3d e7 ff a4 be 77 27 fd bd 2e b1 0b be
       0.076835476 -0.32226488 -0.12361043 -0.13641807
000240 fe a0 2c 3d c6 48 0e be 3a 38 a0 bd b5 4b 8d 3e
       0.04214572 -0.13894948 -0.07823224 0.27596822
000250 a7 cd fd bd 4d 80 19 be 1f df 7b bd c1 46 1f bd
       -0.12392741 -0.14990349 -0.06149208 -0.038885836
000260 14 a4 25 bc f6 20 f9 bd ca cc 09 3d e3 a5 7a 3e
       -0.01010992 -0.1216449 0.033642568 0.24477343
000270 47 30 00 3d 6d 0b 1d be 70 8f ce bd 0b 39 81 3e
       0.03129604 -0.1533639 -0.10085952 0.25238833
000280 33 cd d7 bc 70 53 b9 3d f6 98 a2 3d c6 22 fc 3d
       -0.026342964 0.090491176 0.07939331 0.1231132
000290 53 1a 88 be 0c e9 d7 bd fe 23 ec 3d 98 f9 c4 be
       -0.26582584 -0.10542497 0.115303025 -0.38471675
0002a0 ef 6e 82 3e 47 2e 5e bc 0b ec e7 bd aa ca 3c 3e
       0.2547526 -0.013560838 -0.113243185 0.18436685
0002b0 d7 e4 34 be d0 05 4f be 6b 75 f5 bb 78 60 ce 3c
       -0.1766542 -0.20217061 -0.007490804 0.025192484
0002c0 32 17 00 3e 5b de 86 3c a7 18 94 bd 48 f5 00 3e
       0.12508848 0.01646345 -0.072312646 0.12593567
0002d0 78 9f 8e 3e 49 fe 20 3e cc d9 b0 bd 04 37 26 be
       0.2785604 0.15722002 -0.086352915 -0.16231924
0002e0 4e 58 a9 3e e8 dc 18 3e d9 e0 a9 3e d1 9f 64 3e
       0.33075184 0.14928019 0.33179358 0.2232659
0002f0 40 e6 59 bb d1 87 6f 3e 47 18 89 3d ef 9c b5 be
       -0.0033248812 0.23391654 0.06694084 -0.35471293
000300 11 b9 34 3e 7b 1a c3 bd 86 d7 84 be de 0f 7b 3e
       0.17648722 -0.09526535 -0.2594568 0.24517772
000310 ab 1e 5c 3e e1 47 f2 3d 96 84 f2 bd 33 e8 75 be
       0.21496074 0.11830116 -0.11841695 -0.24014358

mu.2.weight f4 [200, 200]
000000 cc ce 22 3e c1 b8 ba bd dd 3d c0 bd 98 0c 47 bc
       0.15899199 -0.0911727 -0.093867995 -0.012148999
000010 d2 c6 1c 3e be e7 04 be 57 d8 fb bc 11 5a 18 3e
       0.15310219 -0.12979028 -0.030742807 0.14878108
000020 0b 8a e8 bc b7 64 e6 3c f2 ce 2e bc 5e 46 b8 bd
       -0.028386137 0.028124196 -0.010669457 -0.089977965
000030 8a 7d 87 bd 45 45 86 3c ff d6 df bd 29 d9 84 bd
       -0.066157416 0.016390452 -0.10929679 -0.064867325
000040 4f c9 41 3d 48 01 9c be 6b 78 c7 3d d4 e9 41 3e
       0.047311123 -0.30469728 0.09739765 0.18936855
000050 03 1f e5 bc fd 4d f4 bc 76 7b 3c 3d cb a6 0b bd
       -0.02796889 -0.029822344 0.04601618 -0.034094613
000060 fa 06 8e bc 77 fa a1 3d e0 9b 83 bd 20 a2 24 3d
       -0.017337311 0.079091005 -0.06426215 0.040193677
000070 e8 78 63 be 48 34 39 3d 55 89 79 bb f7 e2 52 3d
       -0.22214091 0.045215875 -0.003807624 0.05148598
000080 1e 8c fa 3d 07 e9 ea 3d 24 64 05 3c 2b 66 99 bd
       0.122337565 0.11470228 0.008141551 -0.0749019
000090 5e 89 73 bb d3 c3 48 3d 40 66 b5 bd 6d c0 cc 3d
       -0.0037160735 0.049014878 -0.08857393 0.0999764
0000a0 7b 7f 00 3d 5c 57 7d 3d 55 69 4c bd 0e ff ed 3d
       0.031371575 0.06185089 -0.04990514 0.116209134
0000b0 c3 cb 24 bd 08 17 19 bd 11 54 1f bd 48 d2 05 bd
       -0.040233385 -0.03737548 -0.03889853 -0.032671243
0000c0 e3 e9 5b 3e fe c3 ef bc 56 69 05 be ea 28 77 bd
       0.2147594 -0.029268261 -0.13028464 -0.060341753
0000d0 8b 5d 36 3d ff 47 97 3d a2 7b 01 be 0b 96 54 3e
       0.044522803 0.07386779 -0.12644818 0.20760362
0000e0 1f 02 d6 bd c1 ef 09 be 9b ab 81 3d d5 36 ae bd
       -0.10449623 -0.13470365 0.06331559 -0.08506552
0000f0 48 72 96 3c 2c 05 e5 bd 86 71 46 3d f0 d9 20 3b
       0.01836504 -0.11182627 0.048448108 0.0024543963
000100 64 61 ad bd 10 37 12 3e 6a 9f 38 bd 50 20 39 bc
       -0.084658414 0.14278817 -0.045073904 -0.011299208
000110 28 0f 50 3b d1 95 e1 bd cc 31 03 3d 5a ce ca 3d
       0.0031747315 -0.11014903 0.032029912 0.0990264
000120 d0 0c 99 bd 4c db 49 bd 74 9b 81 bc 9c 51 18 3d
       -0.07473147 -0.049281403 -0.015821196 0.037187204
000130 6b e6 89 3d 8b 93 0d be 02 38 54 3e 8c 31 88 3d
       0.06733402 -0.13825814 0.2072449 0.06650075
000140 bd d3 c4 bd cd 1e 05 3d 33 92 56 be 73 53 9b bc
       -0.09610698 0.032500077 -0.20954208 -0.01896069
000150 01 07 ca 3d c9 21 7a bd 35 16 b3 3d c0 bf c0 3b
       0.09864617 -0.061067376 0.0874447 0.0058822334
000160 4c 37 40 be 85 1a b8 3b 9b 50 32 be 53 1b 20 3e
       -0.18771094 0.0056183957 -0.17413561 0.15635423
000170 46 83 52 3e 11 d5 aa 3d 84 5a 1c bc dc 09 d7 bc
       0.2055789 0.083414204 -0.009543065 -0.026249819
000180 f4 e8 b2 3d e5 d1 98 3d b2 75 53 3b e8 73 5d 3e
       0.087358385 0.07461909 0.0032266197 0.21626246
000190 8a ce 31 3d c7 7f dd bd c1 32 b1 bb 3a 8e 21 3d
       0.04340986 -0.10815387 -0.0054076617 0.03944228
0001a0 3b 10 67 be 70 08 55 bd 83 79 22 bc 92 de 1b be
       -0.22564785 -0.05201 -0.009916666 -0.15221623
0001b0 cd 8d 5f 3e 2f 3e 3d 3d d3 e8 1a bd 8d 7a 86 3e
       0.21831436 0.04620188 -0.037819695 0.26265374
0001c0 01 2a 45 bc 9c 0f c8 3d f6 75 f4 bd d3 47 33 3e
       -0.01203394 0.09768602 -0.11936562 0.17507868
0001d0 79 a6 39 3e ee 9d 05 3d fe 91 05 3d f6 84 93 3d
       0.1812991 0.032621317 0.032609932 0.07203095
0001e0 c8 20 fa 3c 77 35 10 bd 76 da 62 3d 82 50 ef 3d
       0.03053321 -0.035207238 0.05538412 0.116852775
0001f0 29 51 da 3c 60 bb 58 3d 1c 6a 06 3e d4 64 04 3d
       0.026650028 0.05291307 0.13126415 0.03232272
000200 f2 0f 81 3e 6e e8 ed bb ad 54 c2 bd ce 9b 85 be
       0.25207478 -0.007260374 -0.09488807 -0.26095432
000210 ac 79 c7 bc ee 08 e2 3c 43 c0 c2 3d 1c dc 81 be
       -0.02435001 0.027592149 0.09509327 -0.25363243
000220 49 6d 03 3e 35 e7 99 bd ec 11 f0 bd c5 75 44 bd
       0.12834658 -0.07514802 -0.11722168 -0.047963876
000230 6b 35 01 bd 96 d7 87 3d a1 ba 6a be 35 34 03 bd
       -0.031545084 0.06632917 -0.22922756 -0.03203221
000240 b1 5e 6c bd ef cd 5a 3d 02 2e 94 3b 21 55 22 be
       -0.057707492 0.05341905 0.004522086 -0.15852787
000250 7c d3 c0 bd 41 46 39 3e ea ed 2e 3d d3 2b bd 3d
       -0.094153374 0.18093206 0.04270736 0.092368744
000260 21 62 dc 3d 54 78 b9 3b 3a 23 f0 3d 87 4b d0 bc
       0.10760904 0.005660096 0.11725469 -0.02542664
000270 21 af b8 3d 68 20 9a be c6 71 f1 3c 08 0d 53 bd
       0.09017778 -0.3010285 0.029473197 -0.0515261
000280 9a 6d 44 3d 55 53 cd 3d ca 43 9e 3d 14 e1 3a 3d
       0.047956087 0.1002566 0.077277735 0.045624807
000290 01 73 86 bd 0c 69 39 bd d2 78 e0 bd c0 3a d2 3d
       -0.06564904 -0.045266196 -0.10960545 0.10265112
0002a0 14 60 26 3e a8 77 64 3e 15 39 70 bd 66 f6 34 3e
       0.16247588 0.2231127 -0.058648188 0.17672119
0002b0 82 bd dd 3d 88 52 3d 3d 69 a0 6b be f8 d3 80 bd
       0.10827161 0.046221286 -0.2301041 -0.0629043
0002c0 85 81 e3 bb 10 e2 07 bc 25 4b 32 bc 5a bb ea 3c
       -0.00694293 -0.008293644 -0.010882174 0.02865379
0002d0 73 39 ba 3c 4c 63 82 3c 16 8e 24 be 88 b8 62 bd
       0.022732472 0.015916489 -0.16069826 -0.055351764
0002e0 a0 87 da bd 4c 7a 9c bd fd c8 1a be 63 1e 5c be
       -0.106704 -0.07640514 -0.15115733 -0.21495967
0002f0 4c 1d 14 3e 99 de 4c 3e 7d 54 3d bd 8f f3 3b be
       0.14464301 0.2000679 -0.046223152 -0.18354629
000300 82 30 20 bd a7 2f 96 3d 75 2a 70 be f7 f5 08 3c
       -0.03910876 0.07333308 -0.23453696 0.008359424
000310 b1 c3 80 bd d8 50 38 3c 5c 67 38 3b 88 f0 bb 3d
       -0.06287325 0.011249743 0.002813778 0.09176737
000320 dd a0 19 be dc 70 83 bd 28 ee 20 be 40 f9 a8 3d
       -0.1500277 -0.064180106 -0.1571585 0.08250666
000330 53 44 2d 3d 23 16 26 bd 3f d3 a1 be 41 4c 43 bd
       0.042301487 -0.040548455 -0.3160648 -0.047680143
000340 e1 1a d3 bd 58 6f b8 3d c8 7d 2f bc a1 f6 bc be
       -0.10307861 0.09005612 -0.010711141 -0.36906913
000350 58 33 22 3d a0 ef f9 bc ce d7 30 bd e2 2d b6 3c
       0.039599746 -0.03050977 -0.043174557 0.022238676
000360 d1 9c 46 3e b9 b9 bf 3e 87 98 a7 bd df 8c 11 3d
       0.19395758 0.37446383 -0.08183389 0.035534736
000370 b2 bd ab 3d 18 47 9e 3c cc 63 0f bd 9b 13 91 3d
       0.08385791 0.01932101 -0.035007283 0.070838176
000380 9b 06 c8 3c 70 83 6f 3d d2 b9 2d bd fd 11 0d bd
       0.024417212 0.058474958 -0.04241354 -0.034440983
000390 5e a2 17 3e a1 dd 86 3d 68 aa 26 be 88 76 97 3d
       0.14808032 0.06585241 -0.16275942 0.07395655
0003a0 3a 16 83 3e 0b 52 e1 bb df 9c f1 3d 3d 09 f0 3d
       0.25602895 -0.0068762354 0.11797499 0.11720512
0003b0 0a 01 69 bb 4a 3f 93 3e 8b 81 36 3c d7 3e 9a 3e
       -0.0035553598 0.28759223 0.011139284 0.30126068
0003c0 c7 09 5c be 11 f8 51 3d 8d 04 25 be c6 9c 9f 3d
       -0.21488105 0.051261965 -0.16115017 0.07793574
0003d0 e1 ea bc bd 6b d1 b4 3d 85 5f 12 3e 09 ea d5 bd
       -0.09224487 0.08829006 0.1429425 -0.10445029
0003e0 58 dc 3d bc 63 7b 9c 3d 6e 1d 2f 3e 1a a3 25 be
       -0.011588179 0.07640722 0.1710107 -0.161755
0003f0 d4 fe e2 3d 38 e2 0b 3e 99 0e ab bd 59 cc a5 3d
       0.11083761 0.13660514 -0.08352394 0.08095617

mu.2.bias f4 [200]
000000 a2 5f 86 3d 84 2a 77 bd e0 e3 7f bd 6e d9 ae bb
       0.06561209 -0.06034328 -0.062473178 -0.005335978
000010 be 69 39 3c 8b 81 c3 3b 12 a7 24 3d a6 74 61 bd
       0.011316715 0.0059663705 0.040198393 -0.055042885
000020 bb e4 14 bd 81 49 7f 3d 1a 06 f1 bc d9 d8 99 3d
       -0.036350947 0.06232596 -0.029421855 0.075120635
000030 af 99 47 3d 93 83 b4 3b df b5 9b bc 1b 69 2f bd
       0.04873055 0.005508849 -0.019007621 -0.042824846
000040 fa f3 ba bd 47 cb b3 3d d7 95 b7 bc 8a b9 54 bd
       -0.09128566 0.087790065 -0.022410316 -0.051934756
000050 17 26 a9 3d dd 57 88 3c f0 1d bf 3c 16 7b 18 3e
       0.08259218 0.016643459 0.023329705 0.14890704
000060 9c b5 2c 3b 29 71 ce bc a6 29 2c 3d 5d db 15 3d
       0.0026353365 -0.025200443 0.042031907 0.036586154
000070 65 94 0e bc 17 bb 87 3c 3e 14 07 3c 44 36 61 3c
       -0.008702372 0.016568704 0.008244572 0.013745848
000080 b3 ee ac 3d 54 ca bd 3c a8 31 46 3d 41 67 86 bd
       0.08443966 0.023167767 0.0483872 -0.06562663
000090 f3 94 e4 bc 69 8f 06 bd 2a c5 a1 bc be 2b f2 bc
       -0.027903056 -0.03285161 -0.019747335 -0.029561874
0000a0 d9 2e db 3d 9b 10 b2 3c 7c 83 ec bd 8b a0 c6 bb
       0.10702295 0.021736434 -0.11548516 -0.0060616187
0000b0 1f 4e 69 3d 33 82 c6 3c fa cc ba 3c a1 3b f0 bd
       0.056959268 0.024232006 0.022802819 -0.11730123
0000c0 a6 ac 95 bc 50 80 50 3d 49 0a af 3d fd 08 98 3d
       -0.018270802 0.05090362 0.085468836 0.074235894
0000d0 61 7d 0b 3d b4 b7 97 bd ba ab bc 3c 1f 6d 9d 3c
       0.034055118 -0.074080855 0.023031104 0.019217072
0000e0 ca 8f eb 3d e7 56 97 3d 85 e2 b0 3b b4 e0 5b bd
       0.11502035 0.07389622 0.005398097 -0.05368109
0000f0 21 0c 3c 3d ea e6 90 3d 46 6c 3b be 59 fe d7 3b
       0.045910005 0.07075293 -0.18303022 0.0065916
000100 52 e5 9d 3d 81 06 ab bc e7 c3 64 3d 2c 2b c0 bc
       0.07709755 -0.020877125 0.05585089 -0.023458086
000110 35 c6 41 3c 60 bd 25 bd 77 ed 49 bd ef c6 7e bb
       0.011827041 -0.040463805 -0.04929873 -0.0038875898
000120 d5 ce a5 bd d0 78 04 be af ad 23 3d 8b c5 f8 bc
       -0.08096091 -0.12936711 0.03996056 -0.030367633
000130 bc b7 f8 bc 63 c0 a3 3b 2b e1 8f 3d d2 b4 bd 3d
       -0.030361049 0.0049972995 0.07025369 0.09263004
000140 a2 43 08 bc 9f f5 21 3d fd 02 31 3d 59 3f 35 3e
       -0.008316906 0.039540883 0.04321574 0.17699946
000150 28 44 b2 3d 1b c7 c5 3c 53 5d 92 3d 66 46 53 3d
       0.08704406 0.024142792 0.071467064 0.05158081
000160 2c a2 50 bd 69 a9 85 3d 14 35 21 bd 5a 60 10 3e
       -0.05093591 0.06526453 -0.03935726 0.14099255
000170 04 38 38 bd 89 fb 1c 3d 26 47 c2 3d 69 36 20 3d
       -0.044975296 0.03832582 0.09486227 0.03911439
000180 29 2f 83 3d 15 9c a7 bc 22 0d d7 bc 2b 2e fd bc
       0.064054795 -0.020460168 -0.02625138 -0.030905804
000190 b8 9a c8 bd fc 60 69 3a 7f ce ee 3c d8 b5 9d 3d
       -0.09795135 0.00089026964 0.0291512 0.077006996
0001a0 73 79 26 3d 11 35 7c 3d 5b d9 9d 3d 51 54 9e bc
       0.040643167 0.061574046 0.07707473 -0.019327315
0001b0 67 03 04 3e 71 d4 a7 bc 18 ac 86 3b 79 e8 8d bc
       0.12891923 -0.020487042 0.0041098706 -0.017322766
0001c0 14 f7 58 3b fc 69 c5 bd 7e d1 b2 bc 73 6c 67 bd
       0.0033106254 -0.096393555 -0.02182841 -0.05649991
0001d0 09 2e 12 bd b0 95 98 3c 4c f2 0e be 54 b9 ee 3d
       -0.035688434 0.018626064 -0.13959616 0.11656442
0001e0 0b f5 09 bd 49 0d fd bd 9a a9 d0 bc a3 98 80 3d
       -0.033680957 -0.123560496 -0.025471497 0.06279113
0001f0 a2 35 12 bd e1 70 c4 3d bd 35 b1 bd 54 2e 0a 3e
       -0.03569568 0.095918424 -0.08652828 0.13494235
000200 e3 aa 9f 3d 99 87 41 3d cf 7c 88 3c 1d a1 51 bd
       0.07796266 0.047248457 0.016661076 -0.05117904
000210 ab 3b c2 bc 63 5d b3 bc 08 4f 8c bd 44 eb 86 3d
       -0.023710093 -0.021895116 -0.068510115 0.06587842
000220 eb d3 56 3d 5d 4f f3 3d 12 7b a6 bd 76 0e 2f bd
       0.052448194 0.11880372 -0.081289425 -0.0427384
000230 e0 c6 63 bd 41 1c ab 3d 0b 02 ad bd 34 6e 42 3d
       -0.055609584 0.083549984 -0.08447655 0.04746838
000240 af 89 e3 3d a1 b8 21 bd 19 c1 c2 ba ae b3 14 bd
       0.111102454 -0.039482716 -0.0014858573 -0.03630417
000250 02 ed 98 3c 82 d2 14 3e d5 00 86 bd 58 5d 6b bb
       0.018667702 0.14533427 -0.065431274 -0.0035913792
000260 bc 80 df bd 77 a6 66 bc 6a d4 96 3d 8a f0 86 3d
       -0.10913226 -0.014077774 0.073647335 0.06588848
000270 35 7c 11 bd e0 83 47 3d 9a f3 6b 3d 62 fd cf 3b
       -0.035518844 0.04870975 0.057605363 0.0063473443
000280 19 8c 26 3d ca 91 ed 3d e1 05 4f 3d df 80 12 3d
       0.04066095 0.11600073 0.050542716 0.035767432
000290 e5 81 ac bd 36 f4 13 3e 43 78 a6 bc bf 36 88 3d
       -0.08423213 0.14448628 -0.020321017 0.06651067
0002a0 dd 84 85 3d c3 e3 c5 3d fb a4 16 3d 3f 38 50 bb
       0.06519482 0.09662583 0.03677843 -0.0031771807
0002b0 ae 07 cf 3c de 23 56 bc d2 c2 90 bb 2a 83 04 bc
       0.025272217 -0.013070075 -0.0044177556 -0.008087913
0002c0 8d e7 72 bd 60 c7 91 3c 41 eb 5b 3d 4b 4f b6 3c
       -0.059302855 0.017795265 0.053691152 0.022254607
0002d0 84 3e 12 bd 42 ad 8b 3d 25 56 52 3d 91 f6 95 3d
       -0.03570415 0.06820156 0.051351685 0.073224194
0002e0 6f 15 99 3c c7 0e 0a bd 54 7c d3 3c 67 ef 15 3e
       0.018686978 -0.0337055 0.02581612 0.14642106
0002f0 ac 0d 0b 3c 58 12 ae bd 81 9a 3b 3d 44 a9 0b 3e
       0.008487146 -0.084995925 0.045801643 0.13638788
000300 1c 7d b9 3b ac d1 c4 3c 55 68 df bc 55 8a c2 bb
       0.005660666 0.02402576 -0.02727143 -0.0059369006
000310 6d 8e 9f bd ee 06 d3 3c 0e 5c 73 3d 75 27 8a 3a
       -0.077908374 0.02576014 0.059413962 0.0010540324

mu.4.weight f4 [12, 200]
000000 19 24 86 3e 90 ea b5 3d db e3 ae bb 3f c8 11 3d
       0.26199415 0.0888263 -0.005337221 0.03559136
000010 21 77 63 3d bb cb d9 3d d1 e6 30 be ec 19 b8 3d
       0.055533532 0.10634562 -0.1727555 0.08989319
000020 a6 fa 01 bd 75 2a 27 be a3 41 9b 3d 64 c8 84 bd
       -0.031733178 -0.1632479 0.075808786 -0.06483534
000030 bf c1 04 be 7b 6a b3 3e 73 1d 18 bd 41 22 f9 bd
       -0.12964533 0.35042176 -0.03713746 -0.121647365
000040 d2 64 01 be 0d 81 e9 bc 9b 4a 8c be ea 74 b8 bc
       -0.12636116 -0.028503919 -0.2740067 -0.022516686
000050 65 1f d5 3d b3 65 1e bd 41 2d 4a 3e 4d 22 14 be
       0.10406379 -0.038671207 0.19743825 -0.1446621
000060 3d d8 2e 3d e6 c1 57 3c f1 f7 8f bd ae d4 61 be
       0.04268669 0.013168788 -0.07029713 -0.22053787
000070 2c dc 73 3d 89 fb ec 3d 48 9e 13 3e ac 6f 66 3d
       0.059536144 0.11571414 0.14415848 0.056258842
000080 41 89 8d 3d 8d b0 08 be 9c 58 f6 3d 2e 3a 85 bc
       0.06910945 -0.13348599 0.1202862 -0.016263094
000090 e0 db 44 3e 71 e0 e8 3d 31 93 91 3e 3f ca b5 3d
       0.192245 0.11370934 0.2843261 0.08876466
0000a0 c4 38 1c 3e a4 f3 0c 3e c4 86 35 bd be 37 31 3e
       0.1525603 0.13764817 -0.044317976 0.1730642
0000b0 2a 73 33 bd 23 b0 34 bc 4d 35 9e 3d c8 8e 4d 3e
       -0.043811 -0.011028322 0.0772501 0.20073998
0000c0 3e 55 7f bb 1a ac 22 bd 9b 55 31 be 75 be 8c bd
       -0.003896072 -0.03971491 -0.17317812 -0.06872264
0000d0 2c 29 88 be e8 77 dd bb ed b0 16 3d a4 63 67 3d
       -0.26593912 -0.0067586787 0.036789823 0.05649151
0000e0 3d d3 9e bc 81 32 e8 bc d9 9e 7b 3d bc 0a a4 ba
       -0.019387836 -0.028344395 0.061430786 -0.0012515406
0000f0 26 4c 6d 3d a1 90 ea 3e 36 0a 28 3c 16 86 4b 3d
       0.05793395 0.45813468 0.010256341 0.04968842
000100 46 30 81 be c4 a0 dc 3d 70 22 3e bd ce 04 40 3e
       -0.25232142 0.10772851 -0.04641956 0.18751833
000110 8c f7 6c 3b a7 6e 9c 3d e7 40 4f bd 6e 3f f0 bd
       0.0036158292 0.07638293 -0.050599005 -0.11730848
000120 ef f4 a0 bd 97 82 17 bd 3a 39 dd ba 76 b5 48 bd
       -0.078592174 -0.036989775 -0.0016878017 -0.04900118
000130 dd a8 cf bd 1b 39 fd 3d 57 8a 6c 3e 13 7f 93 bd
       -0.1013963 0.12364408 0.23099647 -0.07201972
000140 4f 47 8e bd 7f 1d 1e 3e 0e 8e 86 bc 9b 44 6a 3b
       -0.06947195 0.1544094 -0.016425159 0.0035746458
000150 e3 85 c9 bd 6e 13 a2 bd de c1 93 bc 58 74 ae 3d
       -0.0983999 -0.07913862 -0.018036779 0.085182846
000160 2d f0 b9 bd 5b c7 5f be d0 cd 21 be 6b 26 cf 3d
       -0.09079013 -0.21853392 -0.15801167 0.101147495
000170 e2 09 03 3d 64 8c 40 bd 12 12 64 be fa ad 91 bc
       0.031991847 -0.047008887 -0.22272518 -0.017783154
000180 49 c8 d1 3c ec 85 85 be a1 a1 83 bd 01 6f b1 3b
       0.025608199 -0.26078737 -0.06427313 0.005414844
000190 e0 0f 64 3e 75 c8 8c bc f8 8f 22 be 96 0e 18 bd
       0.22271681 -0.01718543 -0.15875232 -0.037123285
0001a0 71 16 7f 3d cc 02 ee bd 70 28 2e 3e 85 72 0d 3d
       0.06227726 -0.11621627 0.17007613 0.034533042
0001b0 32 61 02 3e 70 63 7e be ee 53 77 bd cc a7 87 3e
       0.1273239 -0.2484262 -0.060382776 0.26495206
0001c0 5b 99 bf bc f7 91 b6 bd 1c f4 e8 bd a4 33 f9 bc
       -0.023388555 -0.08914559 -0.11374685 -0.030420132
0001d0 3a e7 30 3d 91 49 11 3e 3e 8a 07 be e1 eb 1f 3e
       0.043189265 0.1418822 -0.13236329 0.15617324
0001e0 3d f5 ff 3e 2e cc 99 bd bf fc 25 bd 07 23 2a 3e
       0.4999179 -0.07509647 -0.04052424 0.16614924
0001f0 8f a3 97 be 5d b2 89 3d 29 57 01 3d 74 c1 f4 3c
       -0.29616973 0.06723473 0.031577263 0.029877402
000200 40 d1 ca 3d b3 93 3c bd 91 34 cc bc 76 13 64 bd
       0.099031925 -0.046039294 -0.02492741 -0.055682622
000210 d8 e0 89 bd d3 ce a3 3e d3 66 2d 3d e2 eb 79 bd
       -0.06732339 0.31993732 0.04233439 -0.06101597
000220 0c 67 e9 bb 1d 18 d3 bd 1c 7e 55 bd 48 3d 4b 3e
       -0.00712288 -0.103073336 -0.05212222 0.19847596
000230 64 2e 92 3c 47 53 84 3c 60 83 5c 3e 01 30 fe 3d
       0.017844386 0.016152991 0.2153449 0.124115
000240 f1 4c d7 bc 56 fd b0 bc fe 44 f8 3d 50 c1 e3 bc
       -0.026281806 -0.021605175 0.12122534 -0.02780214
000250 e1 bc c4 bd ff b9 3e 3c b7 1c b0 bd e4 1c a1 bd
       -0.09606338 0.011641025 -0.08599227 -0.078668386
000260 a2 17 9e 3e 38 7f 52 3d d8 c0 e9 3d 5b 64 9b 3c
       0.30877405 0.051390857 0.11413735 0.018968752
000270 bb 78 c3 bd 31 47 59 bc 4e e2 27 be 75 29 0c be
       -0.09544512 -0.013261602 -0.16394922 -0.1368769
000280 7d bd 87 3e 77 97 9a 3d e8 51 08 be 08 8a c4 bd
       0.26511756 0.07548421 -0.13312495 -0.0959664
000290 fc 6e b5 3e b0 c8 ca 3d 6b 10 ed bd ec 91 29 bc
       0.35436237 0.09901559 -0.11575397 -0.010349732
0002a0 ac fe bc bd 19 27 56 be 9c 96 27 3d aa b7 77 3c
       -0.09228262 -0.20913352 0.040915117 0.0151194725
0002b0 c0 56 b8 bc 62 03 8f 3c b0 0a 22 be f6 be b6 3d
       -0.022502303 0.017457668 -0.1582439 0.08923142
0002c0 5c ba 83 be 4c c6 f0 bc 60 d0 14 3c ad 71 f7 bd
       -0.25728118 -0.02939143 0.009082884 -0.12082229
0002d0 fa 45 0a 3e 91 44 e2 bd d1 6a d7 bd 14 08 ad 3d
       0.13503256 -0.11048234 -0.105184205 0.084488064
0002e0 f0 10 45 bd 53 a5 ab 3c 7b 5e fb bc f7 1a ec 3d
       -0.048111856 0.020952856 -0.0306847 0.11528581
0002f0 85 d6 fb bd 69 7a a5 3d 3f 0b af bc bc 1d 66 3c
       -0.12296776 0.080799885 -0.021367667 0.014045175
000300 f8 b6 ff bd da fd 1c be 55 ff af 3d 10 ad 56 be
       -0.124860704 -0.15331212 0.085936226 -0.20964456
000310 b3 f9 af be d6 6a a4 3d 2c 4e 8b be a6 f6 82 bd
       -0.34370193 0.0802819 -0.27208078 -0.06394701
000320 01 fb 1a be 00 8b 2f 3e 44 94 22 3d bf 7a 29 3e
       -0.15134813 0.17142868 0.03969218 0.1655073
000330 c8 8a 1d be d7 13 e7 3c ee 89 9e be ad d0 0e 3e
       -0.15384972 0.028207703 -0.30964607 0.13946791
000340 50 e2 07 bc 91 39 f1 3d 63 e3 6f 3d 83 e0 85 3d
       -0.008293703 0.11778558 0.058566462 0.06536963
000350 62 2f f7 bc 25 9d 15 3e ee 91 2c 3d 70 2e 35 be
       -0.030173961 0.14610727 0.042131357 -0.17693496
000360 4e f4 b8 bb f0 d9 eb 3d 6a ed 07 3d e9 53 77 be
       -0.0056443578 0.11516178 0.0331854 -0.24153103
000370 30 57 96 bd fe 5f 1a 3e 14 30 78 3e 1f 90 9c 3b
       -0.073408484 0.1507568 0.2423709 0.0047779228
000380 ad 12 63 3d b9 a3 78 bc 47 eb e1 3d 12 9e 09 3e
       0.055437732 -0.015175753 0.11031204 0.13439205
000390 e9 4a 20 3b ae 16 57 3e 8b c4 2b be e5 5f 38 bd
       0.0024458712 0.21004745 -0.16774194 -0.045013327
0003a0 d6 09 00 bd c8 58 11 bd 27 57 ef bd 74 6b 10 be
       -0.03125938 -0.03548506 -0.11686545 -0.1410349
0003b0 bf 90 57 3e 56 3a ec bd 7b 4c b5 bb 35 15 25 bd
       0.2105131 -0.11534564 -0.005532799 -0.040303428
0003c0 fc d1 5a 3e df 63 03 3e 16 46 ad 3c af 7c e1 3d
       0.21369165 0.12831067 0.021151584 0.1101011
0003d0 de ea 05 3d 9b 25 48 be 34 a0 86 3d 4a 9f a6 3e
       0.03269469 -0.19545595 0.06573525 0.32543403
0003e0 b1 d8 ee bc e1 b7 9d bd 8f 2b 81 bd 02 65 7f be
       -0.02915606 -0.07701088 -0.06307136 -0.24940875
0003f0 fa 5f 5c be 3c ca 96 3e a0 89 55 3d 08 69 e9 bd
       -0.21520987 0.29451168 0.052133203 -0.11396986

mu.4.bias f4 [12]
000000 12 c7 5b bc 23 9a b3 3d b8 81 1a 3d 87 cd 93 bc
       -0.013414161 0.087696336 0.037721366 -0.018042339
000010 d1 09 de bd d2 fc 9e 3d fc 24 d3 bc e0 96 4d 3d
       -0.10841716 0.077630654 -0.025774471 0.050192714
000020 ce 0c 33 bd 27 eb 76 bd b7 85 57 bc 40 c0 81 3b
       -0.043713383 -0.060282853 -0.013154439 0.0039596856

reward_fun.0.weight f4 [200, 14]
000000 89 63 f1 3d d6 af d5 bd 5d 2f 39 3e ea 09 1f 3e
       0.11786563 -0.10433929 0.18084474 0.15531126
000010 f0 54 dd 3c 11 e0 0b 3d 3e f5 9d 3e db 37 35 3e
       0.02701804 0.034149233 0.30851167 0.17697088
000020 3f 62 cd 3d 32 64 38 be 98 99 2c be 1a cf 2e be
       0.100285046 -0.18006971 -0.16855466 -0.1707119
000030 93 5f 9e be e1 4f b2 3e f0 ad 56 be c2 cf 1a 3d
       -0.30932292 0.34826568 -0.2096479 0.03779579
000040 c4 9d f5 3d 29 a5 92 3e 07 d2 b8 3d bc 5d 2f 3d
       0.11992982 0.28641632 0.090244345 0.042814
000050 9b 36 b6 bd 9c ad 20 3e 19 98 21 3e 36 87 94 bd
       -0.08897134 0.15691227 0.15780677 -0.07252352
000060 33 bd 35 3e 9e f3 31 3d 46 84 97 be 71 5d b0 3d
       0.17747955 0.043445222 -0.29593104 0.086115725
000070 cf f2 83 bd bd 61 80 be 63 92 a0 bd 8d b6 a3 3d
       -0.064427964 -0.25074568 -0.07840421 0.07993803
000080 75 43 71 bd 83 ea 70 be e1 18 35 3d 83 a0 92 3e
       -0.058902223 -0.23526959 0.04421318 0.28638086
000090 f1 b3 82 be 70 35 a3 3d 88 92 2c bd 07 44 6d bd
       -0.2552791 0.07969177 -0.04213193 -0.057926204
0000a0 bb 70 6a be b1 8f b2 3e 70 b0 89 bd 45 3f 8b 3d
       -0.22894566 0.34875253 -0.06723106 0.06799177
0000b0 d4 af 28 3e f5 20 50 be 6c a3 61 3c 51 6e c5 be
       0.16473323 -0.20325072 0.013771873 -0.38560727
0000c0 b0 b5 ac 3d 17 9e 9f 3d 3e 8b 6a 3e 46 42 0e 3d
       0.08433092 0.07793825 0.22904679 0.034731172
0000d0 87 e6 53 be 34 e2 e8 bd ea 5b b1 3d e6 47 36 3e
       -0.20693408 -0.1137127 0.08660109 0.17800865
0000e0 0f f2 6a 3e 6d 9c fa be 5f 11 40 3e 55 88 68 bd
       0.229439 -0.48947468 0.18756627 -0.05677064
0000f0 0e 2b 9a be e9 80 04 3e cd 93 2e be 6e b8 99 bd
       -0.30110973 0.129398 -0.17048569 -0.0750588
000100 ca d2 0a be 5e cd 58 be 2e b1 90 3d 4b a0 b2 3d
       -0.13556972 -0.21172091 0.07065044 0.0872198
000110 84 83 96 3e 20 6d bd 3e 81 b5 c6 3c aa 7d 1c be
       0.29397213 0.36997318 0.02425647 -0.15282312
000120 f7 56 a3 3e b5 90 a3 be 3e 12 7b 3e ef c5 87 be
       0.31902286 -0.3194634 0.24518678 -0.265182
000130 5b 75 94 3c d5 58 fd 3d f5 5f 0b 3d 54 ea f2 bd
       0.018122366 0.12370459 0.03402706 -0.11861101
000140 a2 fe b2 3d 62 b2 b6 3d b5 a4 85 be 1a 5b 2b be
       0.087399736 0.089207426 -0.26102224 -0.16733971
000150 6f 36 82 bd 75 36 f3 bd 43 77 38 bd 7f 1f 2f 3e
       -0.06358039 -0.11875621 -0.04503561 0.17101859
000160 e2 df 4e be 95 21 b0 be 69 dd e1 3d 1a b1 8d 3e
       -0.20202592 -0.3440062 0.11028559 0.2767418
000170 d8 ef 45 be c1 87 0d be 3c 26 0b 3e 29 1f d5 bd
       -0.19329774 -0.13821317 0.13588804 -0.10406334
000180 ad f6 89 be 6d fd 6c be cd 44 ab bc 83 3b 9f 3e
       -0.2694601 -0.2314355 -0.02090683 0.3110009
000190 bf 66 5f 3e a1 ef 87 3e 20 bf aa 3e ba a8 87 3d
       0.21816538 0.2655001 0.33348942 0.06623979
0001a0 68 ed 25 3e 3a c1 60 be bd e9 0c be 4f b6 df 3d
       0.16203845 -0.2194871 -0.13761039 0.109234445
0001b0 1a ff 83 3e d9 f2 30 3d 97 e1 ae be 3b 77 a2 3c
       0.25780565 0.043200348 -0.34156486 0.019832244
0001c0 80 f4 20 3e c7 f1 eb be fd f1 b0 3d 6e fe fe bd
       0.1571827 -0.460829 0.086399056 -0.12450872
0001d0 d4 e7 43 be fe bd 56 3e 28 c2 2a be 0b e0 27 be
       -0.19131404 0.20970914 -0.16675627 -0.1639406
0001e0 02 57 23 be aa bc 96 3d e0 6e 49 be 65 a3 1c be
       -0.1595116 0.073602036 -0.19671202 -0.15296705
0001f0 f5 b1 4d bd c2 55 12 3e 49 2e 83 be 61 7e 1c be
       -0.05021854 0.14290527 -0.2562125 -0.15282585
000200 d8 86 9a bd 77 38 50 be 47 5e 93 bd 5a 54 6a be
       -0.07545251 -0.2033404 -0.07195716 -0.2288374
000210 18 0f b3 3d 02 e5 80 bd 0e ec b8 be 29 ff 10 3e
       0.08743113 -0.0629368 -0.36117595 0.14159836
000220 db f7 a0 3d b8 75 12 be 4d 98 ba 3e 2e 78 e7 3d
       0.07859775 -0.14302719 0.3644432 0.11302219
000230 86 64 f0 3d 98 f8 ab 3e b8 eb 04 3e 87 4f b1 be
       0.11737923 0.335881 0.12980545 -0.34630987
000240 6c 01 20 3d 2f f3 e1 bb 42 c4 04 be 7a 3d 27 be
       0.039063856 -0.006895445 -0.12965491 -0.16332045
000250 e5 c4 15 bd b7 17 8b bd 81 10 b1 3c 0b bf 20 3e
       -0.036564726 -0.067916326 0.021614315 0.15697877
000260 1e a9 df be ba 29 ab bd 9b 91 df 3d 43 d4 43 be
       -0.43683714 -0.08357568 0.10916444 -0.1912394
000270 e9 a5 a5 3d 91 95 88 bc 52 6d 78 be 88 92 2e 3e
       0.080882855 -0.016672881 -0.24260452 0.17048085
000280 50 7b 9c bd 17 6d 1e 3d 05 6f 61 3e 14 f5 f1 3d
       -0.076407075 0.038678255 0.22015007 0.11814323
000290 e0 8a 3d be de 2b 57 3e 2d 3c 46 bc b2 2f 93 be
       -0.18510008 0.21012828 -0.012099308 -0.28747326
0002a0 f7 82 2d 3e dd 2f 3f 3e 97 99 8e bd a6 06 03 bd
       0.1694449 0.18670602 -0.06962889 -0.031988762
0002b0 e4 be 0e 3d 64 9c 91 bd 6c e5 56 3e 5a 4f 13 3e
       0.034850016 -0.07109907 0.20985955 0.14385739
0002c0 28 2c 47 3e a0 99 15 3e f8 cb 8f 3c 5f f6 2e 3e
       0.19450438 0.14609385 0.017553315 0.1708617
0002d0 40 0d bc be 01 e2 ee bd 90 19 30 be 69 a5 5e 3e
       -0.3672886 -0.116642006 -0.17197251 0.21742786
0002e0 e6 3f e2 3e 2b 5b fc bd 7e 57 54 3e ae cb 50 bc
       0.44189376 -0.123220764 0.207365 -0.0127438735
0002f0 ae 3d 73 be 65 ff 86 be 93 0c 64 be da 6b 29 be
       -0.23753998 -0.26366726 -0.22270422 -0.16545048
000300 b8 65 2c 3e 3d a5 46 bb 87 43 84 3e 07 63 1f 3e
       0.16835678 -0.0030310892 0.2583277 0.1556512
000310 36 c0 24 be cb 2b fc 3d e2 c1 2d 3e 97 2b 76 3e
       -0.16088948 0.1231304 0.16968492 0.24040066
000320 9b 49 17 be 84 95 8f 3c 25 92 17 be 8a cd 5a 3e
       -0.14774172 0.01752735 -0.14801843 0.2136747
000330 88 92 ce bd 73 c2 1f 3d 76 76 54 be 04 d5 29 3d
       -0.10086542 0.0390038 -0.20748314 0.041462913
000340 3c f3 44 be 61 75 00 bf e2 a8 9b 3e 1b 96 8a 3d
       -0.19233412 -0.50179106 0.30402285 0.067669116
000350 cf 57 17 3d 6e c6 0c 3e 9d f2 27 3e 4b c5 41 bd
       0.036948975 0.1374757 0.16401143 -0.047307294
000360 f8 d0 db 3d c0 b3 4f be b1 e5 b9 3d 47 35 6e 3e
       0.10733217 -0.20283413 0.09077013 0.23262511
000370 8d 0a e1 3d ed cd 59 be f2 9a 5d 3e 81 aa 20 be
       0.109883405 -0.2126996 0.21641138 -0.15690042
000380 f0 46 89 be f4 bf 3e be a9 64 ad 3e 60 ae 60 3d
       -0.26811934 -0.18627912 0.3386586 0.054853797
000390 66 6a ac bd c2 79 11 3d 82 8b 13 3e 11 c4 84 be
       -0.084187314 0.035516508 0.14408687 -0.25930837
0003a0 39 25 4d 3d a5 e1 7a 3d f4 a9 5b be dc 23 15 3e
       0.050084326 0.061250348 -0.2145155 0.1456446
0003b0 74 28 33 3e 95 15 89 be 96 cc 5a bd eb ed c8 3e
       0.174959 -0.26774278 -0.053417765 0.39244017
0003c0 9a 33 90 be 4d 06 29 be 52 a0 9b 3d d2 da 2d bd
       -0.2816437 -0.1650631 0.07598938 -0.04244501
0003d0 8c 8b fa bd 7e ef 8a bd b7 a9 71 be ab 87 d6 bd
       -0.12233648 -0.06783961 -0.23599897 -0.10475095
0003e0 54 1a 57 be 5d 9b 07 3e 3c 05 01 3e 2f 93 01 3e
       -0.21006137 0.1324286 0.12599653 0.12653802
0003f0 af cb 4a be 01 ce 23 3d 44 14 43 3e a0 ee 85 be
       -0.19804262 0.039991383 0.190507 -0.2615862

reward_fun.0.bias f4 [200]
000000 a8 fc 1d bc d5 a1 4e be fd bc 93 bc ec ac 7b be
       -0.0096427575 -0.20178922 -0.018034453 -0.24577683
000010 25 29 9a 3d 52 12 1e 3e d5 9b cf bd a6 01 f3 bd
       0.07527379 0.15436676 -0.101371445 -0.11865549
000020 31 9b 84 be f4 a4 19 be aa c9 0d be b1 54 8e 3d
       -0.25899652 -0.15004331 -0.1384646 0.06949747
000030 39 d7 8d be 46 47 45 be e0 af b3 3d b3 ce aa bd
       -0.27703264 -0.1926547 0.0877378 -0.08340206
000040 b1 0d 81 bd 64 12 82 3e 0c b0 85 be 1a c3 5b 3e
       -0.063014396 0.25404656 -0.26110876 0.21461144
000050 4d d4 7b 3e b2 39 8c 3b 7a 2a 15 bd 8a 08 e8 bd
       0.24592705 0.0042793388 -0.036417462 -0.11329754
000060 cd 08 8d be 61 e3 f0 bd 16 e4 ec 3d ba f7 68 be
       -0.27545777 -0.11762119 0.115669414 -0.2275075
000070 d8 ae d5 3d e7 fc 83 3e a5 87 c4 3d c8 6a 87 3e
       0.104337394 0.25778887 0.09596185 0.26448655
000080 82 7c 84 bd d8 66 93 be 80 b9 d0 bd 04 5e 1b bd
       -0.064690605 -0.287894 -0.10191631 -0.037931457
000090 06 28 b3 bd 9a 68 82 3e 50 f3 d0 bd aa b9 59 3e
       -0.08747868 0.2547043 -0.10202658 0.21262231
0000a0 0b dc d1 bb 88 7b 34 bb 3c 91 0f bc c6 5c 60 be
       -0.006404405 -0.002753945 -0.008762654 -0.2191039
0000b0 f4 b5 9c bd 73 47 8f be b0 18 cb 3d 93 bf 15 3e
       -0.07651892 -0.279842 0.09916818 0.14623861
0000c0 fc b5 97 be 61 41 1c 3d 78 87 4f 3c e8 06 38 be
       -0.2963103 0.038148288 0.012666576 -0.17971385
0000d0 94 66 98 3d 68 eb 92 3e e9 36 33 3d 06 79 3b bb
       0.0744144 0.28695226 0.04375354 -0.002860607
0000e0 39 e1 b2 3d ce eb 53 3e 8b ee 79 be a4 ff 94 bb
       0.08734364 0.20695421 -0.24407403 -0.0045470763
0000f0 f4 a3 a9 bd 46 5e d1 3c a7 b8 5c be 63 43 3b be
       -0.08283225 0.025557648 -0.21554814 -0.18287425
000100 8d 4d 55 be 5c b3 7d 3e 42 53 8c bc 91 19 81 bc
       -0.20830365 0.24775451 -0.017129544 -0.015759261
000110 95 4a 77 3e 90 6b 88 bd a1 b6 04 bd 2f 19 9a 3d
       0.24149545 -0.06661141 -0.03240073 0.07524335
000120 37 26 8b 3e 43 d6 e2 bd 83 73 25 be 7c fd ae bd
       0.27177593 -0.110760234 -0.16157345 -0.08544442
000130 31 eb 2b 3d 8a 67 ff 3d b7 e3 09 3e 29 de 7a be
       0.041972343 0.124709204 0.13465773 -0.2449881
000140 dc 14 25 be 6a 70 b7 bb 32 b3 3e 3d 57 08 b2 bd
       -0.16121238 -0.0055981176 0.046557613 -0.08692997
000150 63 81 3d bc cf 70 83 3d 73 e9 05 be fd af 0c 3d
       -0.011566493 0.06418001 -0.13077335 0.034347523
000160 0f f6 06 3e 36 0f 44 be 76 1d 0c 3d ba c0 08 3a
       0.13179801 -0.19146428 0.034207784 0.0005216707
000170 d0 3d 29 be 21 a3 30 3d d7 78 70 be 64 b8 8a 3e
       -0.16527486 0.04312432 -0.23483597 0.27093804
000180 89 3b 68 3d fb ef 08 be a3 5b 13 be 93 33 57 3e
       0.056697402 -0.13372795 -0.14390425 0.21015768
000190 1c 31 8e be 78 32 64 3d 75 41 a2 3d 2c 71 27 be
       -0.27771842 0.055712193 0.07922641 -0.16351765
0001a0 a7 48 9b bd bf 95 4c 3c 47 88 48 be a9 8d 08 be
       -0.07582217 0.012486874 -0.19583236 -0.13335289
0001b0 15 93 08 3e 76 84 93 be a2 0b e2 3d 21 53 88 bd
       0.13337357 -0.28811997 0.11037375 -0.066564806
0001c0 73 79 a2 be 5c e1 d8 bd 7d bc 00 3e b8 c7 5b 3e
       -0.31733283 -0.10589859 0.12571903 0.21462905
0001d0 9c c5 25 bd 20 87 38 3b 35 2c d9 ba 55 c5 82 be
       -0.040471658 0.0028156713 -0.0016568961 -0.25541177
0001e0 1d 5b 47 3e fd 60 42 3e 4e 99 22 3c dd 49 17 3d
       0.1946835 0.1898231 0.009924246 0.036935676
0001f0 e0 29 5e be 7f 21 26 3e 76 b9 e7 3d 75 61 23 3d
       -0.21695662 0.16223715 0.11314671 0.039887864
000200 37 79 1f 3e cc 69 6b bd 43 24 f8 bc be e8 4f be
       0.15573584 -0.057473943 -0.030290728 -0.20303628
000210 fe bf ab 3d 68 25 d8 3d 3a 6c 7e be a0 e9 d8 bd
       0.08386229 0.1055401 -0.24845973 -0.105914354
000220 64 13 58 3e 10 c3 00 3e 3f 9d 6d be 9c 8a e3 3d
       0.21101147 0.1257441 -0.23204516 0.11110422
000230 2f b7 28 be 5e bf 61 bd 14 a5 3b 3c 63 22 3b 3e
       -0.16476129 -0.055114143 0.011452932 0.18274836
000240 3f 24 39 be d3 3f 06 be 72 f9 fe bb 32 01 66 bc
       -0.18080233 -0.13110285 -0.007781201 -0.014038371
000250 a0 70 05 be 1a b2 34 3e 6d 19 b9 be 60 e0 8a be
       -0.13031244 0.17646065 -0.3615221 -0.2712431
000260 e1 09 4a 3e 45 e9 73 3e 0b 71 0d be 4e c8 30 3e
       0.19730331 0.23819454 -0.13812654 0.1726391
000270 68 6d af bd 42 0e 39 be 54 62 94 be 19 a8 09 3e
       -0.085657895 -0.18071845 -0.28981268 0.1344303
000280 d8 91 74 be 5b 7e d4 3d fa 4b 29 3e 4c 64 48 3d
       -0.2388376 0.10375663 0.16532889 0.048923776
000290 aa 57 9a bd 1a 4a 8a bd 71 db a4 bd 23 b4 9d be
       -0.07536252 -0.06752415 -0.080496676 -0.30801496
0002a0 ea de 7d be e7 58 47 bd ce 6b f9 bc 23 78 ac bc
       -0.24792066 -0.04866877 -0.030446913 -0.02105338
0002b0 cb 0a 53 3e e6 ae fe bd fe 2d 63 3e 46 71 48 3e
       0.20609586 -0.12435703 0.22185513 0.1957446
0002c0 65 0c e4 bc 0c 84 b6 3d d6 e0 a8 be 32 a1 5c 3e
       -0.027837941 0.08911905 -0.32984036 0.21545866
0002d0 8f e6 a6 3d 01 12 36 be af b7 91 3d db 72 8d bd
       0.08149444 -0.17780305 0.07115113 -0.069066726
0002e0 c0 7d 61 3e fc 84 52 be 0d 47 8e be 38 cd 4c 3e
       0.22020626 -0.20558542 -0.27788582 0.2000016
0002f0 74 8c 36 be ba c7 6b be 64 05 20 be 81 3c 23 be
       -0.17827016 -0.23025408 -0.15627056 -0.15941049
000300 02 60 1c 3c c0 67 48 3e 16 86 e1 bd 5f 0e 62 3c
       0.009544374 0.19570827 -0.11011903 0.013797372
000310 37 73 3f be 40 8c 3f be 76 bd 07 be 4b a6 07 be
       -0.18696295 -0.18705845 -0.13255867 -0.1324703
