experiments/data/sawyer_clutter_200steps_10H/h_sac/2021-06-23_17-17-34_clutter_200steps_10H/model_final.pt (torch_old, 358080 bytes, 12 tensors)

log_std f4 [1, 12]
000000 7b 64 b6 bf 57 d0 9e bf 92 d1 72 bf 0b e8 43 bf
       -1.4249414 -1.240733 -0.9485103 -0.76525944
000010 92 0a 4b bf 9c 2c 11 bf 77 da 53 bf 96 8d 11 bf
       -0.79313004 -0.56708694 -0.82755226 -0.5685667
000020 0c 87 85 bf 80 79 41 bf cf cc f9 bf a0 4e fc bf
       -1.0431838 -0.7557602 -1.9515628 -1.9711494

mu.0.weight f4 [200, 14]
000000 a0 11 fe 3d 34 6d 9d 3e 95 f6 be bd cc a0 55 be
       0.124057055 0.30747378 -0.093243755 -0.2086212
000010 cb 66 ab be 37 f9 16 3f 44 78 d1 3e 51 d0 ad 38
       -0.33476862 0.5897402 0.40912068 8.288085e-05
000020 ea d9 b2 be 99 f9 bb 3d b7 75 eb 3c e5 7c 59 3e
       -0.3493188 0.09178466 0.028742654 0.2123905
000030 77 34 17 bf 9a 1b f0 bd 9f 69 ae 3e 60 f7 9f be
       -0.5906443 -0.117240146 0.34064957 -0.3124342
000040 b9 9a 57 bd e5 a8 cb 3e 31 9f 71 be 43 28 af 3e
       -0.05263779 0.39777294 -0.23595883 0.34210405
000050 7d d2 ba 3e c1 7e 81 3e 1b c6 3c be 49 8f df be
       0.36488715 0.25292018 -0.18434946 -0.43664005
000060 ac df fe bd d6 05 0b be 65 5d 09 bc f5 df f1 be
       -0.12445006 -0.13576445 -0.008384083 -0.47241178
000070 d4 fd 71 bd 81 5e 3b bd 71 f6 81 be 7f 26 18 3f
       -0.05907996 -0.045744423 -0.25383332 0.5943374
000080 8f d4 74 3e cf 31 b2 bd c3 54 90 bd 1f 26 2d bd
       0.2390921 -0.087009065 -0.07047417 -0.042272683
000090 58 12 93 3e c3 89 6a bd 29 d3 17 3e c6 96 99 be
       0.28724933 -0.057260286 0.14826645 -0.29997844
0000a0 ca fb 2f 3f 7f 5e 15 3f 6c 3b 50 3e 56 d4 5d 3d
       0.68743575 0.58347315 0.20335168 0.054157577
0000b0 f4 38 bd be 88 ab 19 3e 09 1f fb bd 58 39 0d 3d
       -0.36957514 0.1500684 -0.12261779 0.034478515
0000c0 07 53 91 3e 4e d9 b1 3e 9b 8d 1c 3e 6c 03 7c bd
       0.28383657 0.34736103 0.15288393 -0.0615267
0000d0 a9 06 0d bf 08 92 39 3d e7 d6 2f 3f 0f 37 a4 be
       -0.5508829 0.045305282 0.6868729 -0.32073256
0000e0 fa 60 e3 bc 04 14 70 be 79 95 b9 bb 27 43 6b be
       -0.027756203 -0.23445135 -0.0056635705 -0.22974835
0000f0 d0 7a 9e be 05 98 d4 3e 4d 6b 9c be 1f cc 88 3e
       -0.30953074 0.41522232 -0.30550614 0.26718232
000100 5f e3 70 bd c1 df 70 bd b6 59 79 3e fa 97 d4 be
       -0.058810588 -0.05880714 0.24350628 -0.415222
000110 38 f5 19 3e 31 20 75 3f a6 af 74 3e 55 91 66 3e
       0.1503495 0.95752245 0.2389513 0.22516377
000120 ee 09 63 3e c2 28 3c 3e b8 eb a2 bd 2a fe bb 3e
       0.22171757 0.18374923 -0.07955116 0.3671735
000130 48 ca 2e 3e 52 03 c5 3d eb 12 68 be 84 7c bd bc
       0.17069352 0.09619774 -0.22663467 -0.023130663
000140 d9 1d 9c bd 54 3b 4c 3e e7 89 03 bf 20 47 05 3f
       -0.076228805 0.19944507 -0.513823 0.52061653
000150 c5 77 1f 3f 11 c7 2b be 7c ca 6d be 77 47 3c bd
       0.6229213 -0.16775157 -0.23221773 -0.04596659
000160 ce 2f a5 be e0 be 0a 3d 00 be fb be 2c 52 71 be
       -0.32263035 0.03387344 -0.49168396 -0.23566502
000170 99 2a cf bd 44 6e 02 3d 31 7c 07 be 9c 4b c2 bd
       -0.10115547 0.03184344 -0.13230969 -0.094870776
000180 c4 46 36 bd 82 7d 28 3f c5 79 af be 81 39 b3 be
       -0.04450108 0.6581651 -0.3427259 -0.3500481
000190 9c 2d c1 3c 79 16 b5 be 62 b8 a6 be 20 78 01 be
       0.023581319 -0.35368708 -0.32562548 -0.1264348
0001a0 ef 8d b4 3e 61 16 f1 3e dd b8 e9 bd 52 1f 96 bd
       0.35264537 0.47087386 -0.11412213 -0.073301926
0001b0 ad bf 50 bf be ba 5e bd 93 3a cf 3c 13 41 b1 3e
       -0.81542474 -0.05437731 0.025296485 0.3461996
0001c0 08 21 93 bd e0 a7 60 bc 43 5c 5e 3e 7f 62 91 be
       -0.071840346 -0.0137118995 0.21714883 -0.2839546
0001d0 da 97 c3 bd 95 c9 bf be 6a 22 48 3d a5 f4 93 bd
       -0.09550448 -0.37458482 0.048860945 -0.072243966
0001e0 d7 bf 91 3e 89 dd 2c be 42 a0 19 bf a7 58 4b be
       0.28466675 -0.16881384 -0.6001016 -0.19858037
0001f0 29 83 34 bf b4 1c 5d be 15 72 82 be e6 4d 32 be
       -0.70512635 -0.2159298 -0.25477663 -0.17412528
000200 40 4b 84 be 4b 72 55 3e ad 38 e1 be 4d 5d 43 be
       -0.2583866 0.2084438 -0.43988553 -0.1907856
000210 80 b4 7e be 23 aa 67 3e 8f e0 9a 3e 6a c3 22 be
       -0.24873543 0.22623496 0.3024945 -0.15894857
000220 a2 de bd be f6 48 9c bd 7a 12 3f bf b3 d8 e5 be
       -0.37083918 -0.07631104 -0.7463757 -0.4489189
000230 6a 5e 5f bd cb 3d 33 be ab a3 13 bc d1 b1 e2 3e
       -0.0545334 -0.17504041 -0.009011189 0.44276288
000240 f5 02 a0 3e ff e3 50 be 4c 75 b3 3d 67 d3 96 be
       0.31252256 -0.20399474 0.08762607 -0.29458162
000250 c1 3b d0 3e ed ed 18 3e d4 17 0b be 1e 4e bb be
       0.4067059 0.14934511 -0.13583308 -0.36583036
000260 94 4a e1 bd 18 de 10 3d f0 a9 66 bd fd 42 be bd
       -0.11000553 0.035368055 -0.05631441 -0.09290121
000270 6e ca ad 3d 56 f1 b1 be 29 23 18 3f 1f 5a f3 bd
       0.08485876 -0.34754437 0.5942865 -0.118824236
000280 62 ad 0a 3e d0 42 d5 be 10 94 8c 3e 95 5c d1 3e
       0.13542703 -0.41652536 0.27456713 0.40890947
000290 ee be af bd 82 f3 98 3e c7 b2 af 3d 4b 55 2b 3e
       -0.08581339 0.29873282 0.08579021 0.16731755
0002a0 d4 99 fb be bc 0f 63 be 70 0f 7c be a2 14 20 be
       -0.491408 -0.22173971 -0.24615264 -0.15632871
0002b0 5c 08 bc be ef ee 33 3e 19 f0 14 bf c2 29 17 bd
       -0.36725128 0.17571615 -0.5817886 -0.036905058
0002c0 c6 29 81 be 35 96 d2 bd 1b 2f a9 be 70 e2 af bd
       -0.25227183 -0.10282556 -0.3304375 -0.085881114
0002d0 0b d6 1b 3f b1 b2 20 3f 01 b1 12 3e 86 46 c2 3e
       0.6087348 0.6277266 0.14325334 0.3794443
0002e0 c1 cb dc 3e 30 73 9a 3d 1a 1a 70 be 78 70 65 3e
       0.43124202 0.075415015 -0.23447457 0.22406185
0002f0 52 f1 67 3e a4 2c c4 3e 1f f5 f7 3c 4f f8 36 be
       0.2265065 0.38315308 0.03026825 -0.1786816
000300 b0 15 74 bd 04 a2 be 3e 88 86 e9 3d b8 bd 09 3f
       -0.059590995 0.37232983 0.11402613 0.5380511
000310 50 58 55 3e fb 77 d8 be 45 41 a9 3e d3 f8 0e be
       0.2083447 -0.42279038 0.3305761 -0.13962106
000320 44 73 d6 bc f9 ac c7 bd d9 24 29 be 67 77 88 3e
       -0.02617801 -0.09749789 -0.16517963 0.26653597
000330 bd 8e cb be 55 eb 7a be 9d 67 85 bd 5f e5 f5 3d
       -0.39757338 -0.24503835 -0.06513903 0.1200664
000340 fc e0 ec bd a5 61 eb 3e 02 e1 29 3d ed 86 09 3f
       -0.1156635 0.45972934 0.04147435 0.53721505
000350 07 b7 55 bd aa 35 e9 3d 48 d6 6e 3e 46 a0 79 3e
       -0.0521765 0.11387189 0.2332393 0.24377546
000360 a8 2e bc 3e dd e1 46 be b0 c2 3f be 8c bd 5b 3b
       0.36754346 -0.19422098 -0.18726611 0.0033529727
000370 f0 8f fa 3e 2e da 66 be 39 7d f6 be bc f8 e7 3e
       0.4893794 -0.22544166 -0.48142412 0.45306957
000380 00 8d e7 be bf 5b 18 be 38 4e d4 be bc 6d d6 3c
       -0.45224762 -0.14878748 -0.41465926 0.026175372
000390 3c 71 41 3e f4 c1 5e be 80 fb 33 3e f7 fa 08 bf
       0.18890852 -0.21753675 0.17576408 -0.5350794
0003a0 2b 49 97 be 30 4c 07 3e ae a1 01 be 82 f4 70 3e
       -0.2954801 0.13212657 -0.12659332 0.23530772
0003b0 6d fd 6f 3e df bb 2a 3f c8 c7 bd be 3e b0 89 3e
       0.23436518 0.6669292 -0.37066483 0.26892275
0003c0 de 7a ae be e7 69 ca be d4 7d 0a 3e 0d 6e ba 3e
       -0.34078115 -0.39533922 0.13524562 0.36412087
0003d0 1d 0d 77 be 28 ec 91 3d 3f 57 f5 bd c7 4c 84 3e
       -0.24126096 0.07125121 -0.119795315 0.25839826
0003e0 95 71 9e be 46 07 09 3d f4 35 72 3e be e2 a8 be
       -0.3094603 0.033454202 0.23653394 -0.3298549
0003f0 2b 03 b1 bd b2 09 74 bc 87 0c 01 3e b3 96 42 be
       -0.08643182 -0.01489489 0.12602435 -0.190028

mu.0.bias f4 [200]
000000 51 dc ae bd 98 a8 41 3e 8e 8e 65 be 4e c5 82 3e
       -0.08538116 0.1891197 -0.22417662 0.25541157
000010 f6 e1 63 be 84 f1 20 3e 3e 13 85 be af ab 95 be
       -0.22254166 0.15717131 -0.25991243 -0.29232547
000020 9c 2b 53 be 93 b3 1d 3d a0 ec 39 be 79 f9 5b be
       -0.20622104 0.038501333 -0.18156672 -0.21481885
000030 d2 6c 98 be f9 cf ee bd fb 56 36 3e d4 28 1e bd
       -0.29770523 -0.116607614 0.17806618 -0.038613155
000040 4b 91 28 3d c4 62 73 3e 25 62 69 be 26 90 3f bd
       0.041154187 0.23768145 -0.22791345 -0.04676833
000050 80 8f 39 3e cb cb 08 be f0 59 73 be ce 78 29 be
       0.18121147 -0.13358991 -0.23764777 -0.1654999
000060 cd 78 7c 3d 64 08 93 be ad 6a 12 3e 66 c3 29 3e
       0.061638642 -0.2871734 0.14298506 0.16578445
000070 cf e1 62 3e 87 42 5d bd 25 50 d8 be e0 e5 cf 3d
       0.22156452 -0.054018524 -0.42248645 0.10151267
000080 ca 70 66 3e 14 4c eb 3d 99 49 2d be a2 66 0b 3c
       0.22503963 0.1148912 -0.16922607 0.008508356
000090 36 6f 17 bd 82 be f8 3d 90 a3 48 be 2f 2e 91 3e
       -0.036971293 0.121457115 -0.19593644 0.28355548
0000a0 ef b8 86 be 4a e2 bc 3c 8a 27 53 be a2 cd 9f 3e
       -0.26312968 0.023057122 -0.20620552 0.31211573
0000b0 df c0 a2 3d cf b5 c6 bd a0 58 09 3e 4b a8 29 be
       0.079469435 -0.09702646 0.13412714 -0.16568105
0000c0 3b 82 cd be 62 1c b5 bd d3 40 c1 3e 16 10 b3 be
       -0.4013842 -0.08843304 0.3774477 -0.3497321
0000d0 19 21 b6 bd 13 bf 21 3e c3 96 98 be 48 f8 a5 be
       -0.088930316 0.15795545 -0.29802522 -0.32415986
0000e0 ef de 42 be d8 80 8a 3d 34 60 46 be 1b 54 40 3e
       -0.19030355 0.06762856 -0.19372636 0.18782084
0000f0 e1 7f 07 3c 2e 06 bd be 31 70 b3 bd 59 4d 3b be
       0.008270235 -0.36918777 -0.08761633 -0.18291225
000100 d0 34 0f 3e fb 8e ac 3e 3d 8f 60 3e 62 c5 41 be
       0.1398499 0.33702835 0.21929641 -0.18922952
000110 cc 5b 88 3e 66 a2 bb 3d 08 d5 12 be 45 79 23 be
       0.26632535 0.091618344 -0.14339077 -0.1596423
000120 d2 e0 28 bc c8 26 b9 bd 60 6f 56 3d 05 4e ac 3c
       -0.010307508 -0.090406 0.05235231 0.021033296
000130 bd ef 4c be bb 54 3c be 73 fc 0b be ee 21 8b 3e
       -0.20013328 -0.18391697 -0.1367052 0.27174324
000140 46 fe b8 bc d6 34 75 be 9f d4 ce bd e8 54 aa 3d
       -0.022582185 -0.23945937 -0.10099148 0.08316976
000150 8c 82 05 be cb 15 d8 3d 41 a5 d9 3d 49 02 3c 3e
       -0.13038081 0.10551032 0.10627223 0.18360247
000160 b0 7f b0 bd 76 0d a8 be b9 d8 75 be 44 55 19 3d
       -0.086181045 -0.3282277 -0.24008454 0.03743483
000170 ef f2 e6 3d 01 b5 a0 3e 13 b9 a0 bd fd af 37 3e
       0.11276805 0.31388095 -0.078478 0.17938228
000180 1c cc 20 3a d0 22 40 3b dc d4 7c 3e 9b a6 1e bd
       0.00061339303 0.0029317625 0.24690574 -0.038733106
000190 c4 fc c0 3d a7 ca d1 3d 49 4c 9c be 41 dc 75 3e
       0.09423211 0.10243731 -0.3052695 0.24009801
0001a0 d4 b0 58 be 72 fa 97 3e 01 5f c7 3d e3 a0 c1 3d
       -0.21161205 0.29683262 0.097349174 0.09454515
0001b0 bf d7 42 3e cc 53 03 3d de e1 4c 3c 67 18 46 3e
       0.19027613 0.032062337 0.012505023 0.19345246
0001c0 05 9d 19 be 74 38 cc 3e 1a 40 8a 3e fb 67 3c 3e
       -0.15001304 0.3988682 0.2700203 0.1839904
0001d0 4b c7 a4 3e 86 2e b7 be 5b 19 bc be 7a 7d 85 3d
       0.32183298 -0.35777682 -0.36738095 0.065180734
0001e0 0d c2 34 3e d9 13 80 be c6 11 2c 3d 36 f7 42 3e
       0.1765215 -0.25015143 0.042009138 0.19039616
0001f0 ed 5e 12 3e 51 40 af bd c8 c6 94 bc 93 86 5b 3d
       0.14294024 -0.08557189 -0.018161193 0.053595137
000200 9d 25 b7 be 4d 95 bb be 83 b4 16 3e e1 30 b4 bd
       -0.35770884 -0.36637345 0.14717297 -0.087983854
000210 d1 ff 6f 3e 61 5a 48 bd a7 92 18 bd c1 29 d7 be
       0.2343743 -0.048914317 -0.037249234 -0.42024043
000220 bf c9 8d 3d cd 67 80 be 04 b1 51 be 50 d5 3d bd
       0.06923246 -0.25079194 -0.20477682 -0.04634601
000230 97 47 de 3e b9 41 4b be fb 0a bf 3e fa 08 2d 3d
       0.43413994 -0.1984929 0.37313065 0.04224489
000240 3d 4e e4 bd 3d e9 ed bd fd 6a 9d bd 78 6d 88 be
       -0.11147735 -0.11616752 -0.07686422 -0.26646018
000250 49 d2 06 bd d8 d0 99 3e e8 a9 02 be 5c ca 52 be
       -0.032915387 0.30042148 -0.12760127 -0.20585006
000260 e9 2c d9 be 0b 4a 80 3e 71 0b 08 be 24 9e 63 be
       -0.42417076 0.2505649 -0.13285615 -0.22228295
000270 3b 4a 14 3d f8 9d 55 be 45 8d be bd e1 34 ad be
       0.036203604 -0.20861042 -0.09304289 -0.33829406
000280 94 a9 3e 3d 4c 14 eb bd 8f aa 00 3e ed 50 36 3d
       0.04654844 -0.11478481 0.12565063 0.04451077
000290 8c c4 ec 3d d3 12 13 be 12 1e 85 bd 4f 68 37 3e
       0.11560926 -0.1436265 -0.06499876 0.17910884
0002a0 bf 4d 93 be 84 af 10 3e 57 14 6b be 38 fb 32 be
       -0.28770253 0.14129454 -0.22956978 -0.17478645
0002b0 43 52 73 be d7 c8 23 be a6 3f d5 3d 12 b6 f7 3d
       -0.23761849 -0.15994583 0.104125306 0.12095274
0002c0 ce 66 ae 3e 2c 49 43 3e f2 58 95 be bf b6 5d 3c
       0.3406281 0.19070882 -0.29169422 0.01353234
0002d0 3c 8e a8 be a4 78 81 3d 1a b0 a5 bd 2e 32 c7 bd
       -0.32921016 0.063218385 -0.08090229 -0.09726368
0002e0 28 a9 a6 bd 4a 5e 2f bd 8a c0 53 3c 13 ff 4e be
       -0.08137733 -0.04281453 0.012924323 -0.2021449
0002f0 77 23 b2 bd 60 1b 32 3e fd a2 22 bd 67 41 93 ba
       -0.08698171 0.17393255 -0.03970622 -0.0011234701
000300 bd 18 18 3e 15 b7 01 be 0d bf ff 3d 5c dc 8b bd
       0.14853187 -0.12667497 0.12487612 -0.068291396
000310 13 ba 5b be 2f 60 17 bd ca 08 21 3e 21 14 88 be
       -0.214577 -0.036956962 0.15726009 -0.26577857

mu.2.weight f4 [200, 200]
000000 13 08 87 be b1 47 3a 3d 96 4d 38 3e cc de 80 bd
       -0.26373348 0.045478527 0.17998347 -0.06292495
000010 d7 04 39 3e a2 ba 05 bd a3 70 27 be 96 3a 3d bd
       0.18068253 -0.03264869 -0.16351561 -0.04619845
000020 df 81 02 be 0a 08 9b be 25 cd 86 3d 88 2b cc bd
       -0.12744854 -0.3027957 0.06582097 -0.099692404
000030 89 4b 17 bd c4 bd 94 be b3 34 fc bd 05 70 e9 bd
       -0.03693727 -0.2905103 -0.12314739 -0.11398319
000040 81 81 48 3e 4d 9e 6a bd ef 01 69 3e fc 16 aa 3d
       0.19580652 -0.057279874 0.22754644 0.08305165
000050 5c 45 97 3c 1a f8 99 bc bc 11 81 3c 83 f4 b6 3e
       0.01846569 -0.018795062 0.015755527 0.35733423
000060 5f 5d 26 3d 00 54 01 3d 68 7f 97 3b 98 b7 5d 3e
       0.04061639 0.03157425 0.0046233423 0.21652067
000070 5e e1 0c 3d 9e f5 60 3d 0c 47 5d 3e 70 a5 82 3e
       0.034394614 0.05492174 0.21609133 0.25516844
000080 f3 5b d8 be 1c 2e b0 3d c6 38 f1 bd 08 47 07 3d
       -0.42257652 0.08602545 -0.11778407 0.033026725
000090 b3 f6 e9 be 77 c1 a3 3c 47 0e 45 3e d4 fd a1 bd
       -0.4569603 0.019989712 0.19243728 -0.07909742
0000a0 dd cb 71 bc fb d8 e7 3d 24 78 5b bd 65 90 19 3e
       -0.014758077 0.113206826 -0.053581372 0.14996488
0000b0 1f 6d 8f bd 37 2d 4e 3f c9 93 4e 3e 0c 03 26 3e
       -0.07003235 0.8053774 0.20173563 0.162121
0000c0 b3 1c 09 3c 4d e1 56 3d 3c e4 0a bd 04 ad e9 be
       0.008368659 0.052460957 -0.033909068 -0.45639813
0000d0 68 d3 56 bd a7 b8 5e bd af f6 c3 bd b9 9e 3c bd
       -0.052447706 -0.054375317 -0.095685355 -0.046049807
0000e0 0d f5 ab 3d cf 1d b1 3d 9f 09 e7 bd e5 ee 06 bc
       0.08396349 0.08648264 -0.11281132 -0.008235668
0000f0 46 be 0d be d0 07 b6 3d a0 e6 4d be 45 e7 dd bd
       -0.13842115 0.08888209 -0.20107508 -0.10835127
000100 c0 8f 95 bd e8 c6 f6 be 12 09 58 3d 39 c7 8e bd
       -0.07302809 -0.48198628 0.052743025 -0.069715925
000110 d5 71 cf bd a8 3b 97 bc 81 4d 0a 3e bd f6 19 3d
       -0.101291336 -0.018461064 0.13506128 0.037588824
000120 da 1c 32 3e d9 b2 55 3e ec 12 06 bd 68 99 f2 3d
       0.17393818 0.20869006 -0.03273289 0.11845666
000130 9f 73 ba 3c 70 2b a9 bd 7f 0e 55 bd ee 0d e5 bd
       0.02276021 -0.08260238 -0.052015778 -0.111842975
000140 5d ab 10 bd 44 f8 4e 3e b6 c3 1a bd f3 20 22 bf
       -0.035319675 0.20211893 -0.0377843 -0.63331527
000150 7a 14 38 bf 2f f8 31 bc f5 d7 3f be 00 74 d9 bc
       -0.71906245 -0.010862394 -0.18734725 -0.02654457
000160 11 56 10 3d 46 7b 3e 3c 05 c6 0e 3e bb 5c 7a bd
       0.03523833 0.01162607 0.13942726 -0.06112359
000170 62 c5 9e bd 08 15 88 3c c0 7f 1b bd fb ba 26 bf
       -0.077524915 0.016611591 -0.03796363 -0.6512906
000180 c5 b8 bf be e2 64 3b bc 68 e8 55 be d3 12 21 bd
       -0.37445655 -0.011437627 -0.20889437 -0.039324593
000190 e0 59 84 be a2 d5 b7 3d 02 04 69 bd a7 94 e9 3c
       -0.2584982 0.08976294 -0.056888588 0.028513266
0001a0 17 ca b8 3c 86 40 2a bd 88 d2 3f 3c e5 05 9d 3c
       0.022557301 -0.04156544 0.011707909 0.01916785
0001b0 20 78 4d 3e f2 8e 07 3e 8f 5b 30 bf 37 11 05 bf
       0.20065355 0.13238123 -0.6888971 -0.5197939
0001c0 03 70 42 3e e1 57 65 3d da c4 28 3e ea ac 2d 3b
       0.18988042 0.05599201 0.16481343 0.002650077
0001d0 a3 70 58 be 72 f9 f4 3d 1a a8 81 bf f4 71 6f bb
       -0.21136717 0.119616404 -1.0129426 -0.0036536427
0001e0 c1 ad 9e 3d 58 ae 7e be 66 be b8 3d e5 db 61 be
       0.07747985 -0.24871194 0.090206906 -0.2205654
0001f0 ca 18 36 be 8a 36 19 3e b0 a5 3a 3c 4c b3 93 bc
       -0.17782894 0.14962211 0.011392042 -0.018029831
000200 a6 08 1e 3e 8a 8c 66 be 54 11 cb 3d bc d0 b2 3d
       0.15432987 -0.22514549 0.099154145 0.08731219
000210 49 4b 2f 3f b2 00 53 3e 39 43 e6 be 4f 8b f8 be
       0.6847425 0.20605734 -0.44973162 -0.48543784
000220 0c af a6 3d b6 ce e5 bc 21 f2 2c 3d 77 ed 0e be
       0.08138856 -0.028052669 0.0422231 -0.13957773
000230 78 4a 7b 39 c8 b2 89 3d 41 a1 c0 3d 14 b8 5b bd
       0.00023964967 0.06723553 0.09405757 -0.053642347
000240 8b 93 aa bd 32 b2 54 be f7 c5 0d bf f4 b7 cc be
       -0.08328923 -0.20771101 -0.55380195 -0.39984095
000250 f2 07 5e be c5 54 c4 bd fe 5b 07 3e 57 a7 85 bd
       -0.21682718 -0.09586481 0.13218686 -0.06526058
000260 ac c9 ef bc 30 c5 87 be 71 68 80 bf 88 2a 1c ba
       -0.02927097 -0.2651763 -1.0031873 -0.00059572654
000270 e3 56 3c 3d 97 93 b5 3d ba e0 93 3e dd 01 44 bf
       0.0459813 0.08866041 0.2888239 -0.76565343
000280 68 8f 41 bc a3 b2 f6 bb 4e 9c a8 bc db fb 80 bd
       -0.011813976 -0.0075286194 -0.020582344 -0.062980376
000290 95 84 f8 3d ec a9 39 be 9e 40 3f be 59 e3 29 bd
       0.12134663 -0.18131226 -0.18676993 -0.04147658
0002a0 b8 19 42 3e 25 88 19 be e7 ee b8 3b 81 1f 3d be
       0.18955123 -0.14993341 0.0056437138 -0.18469049
0002b0 56 95 b1 3e e1 bf b2 be bc ea de bd dd 5e 0e be
       0.34684247 -0.34912017 -0.10884616 -0.13903375
0002c0 af a9 02 3b ca 3b 38 3e aa fd b9 bd 89 4d d1 3e
       0.0019937565 0.17991558 -0.09081586 0.40879467
0002d0 ff 0a 8d be 24 0e 0f 3d 6a 93 df bc 40 4e 26 3d
       -0.27547452 0.034925595 -0.027291972 0.04060197
0002e0 13 79 9f 3e 79 f1 7a be 35 0b cd bd 98 78 a2 bd
       0.3114706 -0.24506177 -0.10011903 -0.07933158
0002f0 14 da 13 bf 24 3f 6f bc 16 95 99 bd 57 0a a3 be
       -0.57754636 -0.014602456 -0.07499139 -0.31843826
000300 2c 76 b4 3b d7 a8 7d bf 38 ec 3b bc a7 6e 94 3e
       0.0055072512 -0.99085754 -0.011469893 0.2899067
000310 49 96 52 3e 5e 4b 1c bd c9 0d 2c bd 72 65 81 be
       0.20565142 -0.038157813 -0.042005334 -0.2527271
000320 db f3 12 bd 71 55 81 3d 8a 0c c3 bd ed 29 16 3c
       -0.03587709 0.06315125 -0.09523876 0.009165269
000330 27 e7 8b be ae 7b 0f bd b9 b0 24 bd c9 0e 48 3d
       -0.27324793 -0.03503006 -0.0402076 0.048842225
000340 37 49 a0 bc 7b b4 b6 3d cf b8 09 3d 82 1f aa be
       -0.019566162 0.08921143 0.033623513 -0.33227164
000350 3e 01 ea bd a8 aa a4 bd 28 e0 c7 3d e1 ad 2c bf
       -0.11426018 -0.080403626 0.09759551 -0.6745282
000360 40 1d 24 bd 14 46 5e 3d 7b 7e 26 3e 80 27 87 bd
       -0.040066957 0.05426605 0.16259186 -0.06599331
000370 ad 35 0f bc f9 bd ca bc 16 9c 52 3e a0 2c 1c be
       -0.008740825 -0.02474879 0.20567355 -0.15251398
000380 16 2a b1 3e 96 08 e2 bb 22 7a f0 bd 08 d1 8c 3d
       0.34602422 -0.006897996 -0.11742045 0.06875807
000390 5e 84 2b bc 75 97 47 3d 23 5d a6 3e 62 c5 31 3d
       -0.0104685705 0.048728425 0.32492933 0.04340113
0003a0 1c 7c d6 3d e7 db 2f 3e 4b f2 04 be dd 8e 9e bd
       0.10472891 0.1717373 -0.12983052 -0.07742093
0003b0 4c 3e 3e 3c 20 a2 bd bd df e1 ff 3d c6 57 e0 3c
       0.011611532 -0.092594385 0.12494253 0.027385604
0003c0 74 82 99 3e f4 58 32 bd 4c e0 bf 3c ae 52 4d 3d
       0.2998234 -0.043541864 0.023422383 0.050127678
0003d0 74 0a a4 bc c1 17 a0 bc 19 96 92 3d 5d 9a 92 bd
       -0.020024516 -0.019542577 0.07157535 -0.07158349
0003e0 7e 20 71 be 91 ed b9 3d 2a 64 9e be 06 01 a1 bb
       -0.23547551 0.09078515 -0.30935794 -0.004913452
0003f0 69 78 50 3e 4d 87 ce bd 0d f1 99 be b6 2b b0 3e
       0.20358433 -0.100844 -0.3006672 0.3440835

mu.2.bias f4 [200]
000000 5e 7a 97 3d 42 9c a8 3d 3f 19 18 bc 95 fe 42 bd
       0.073963866 0.08232929 -0.009283363 -0.04760607
000010 f6 01 34 3d 70 f4 c0 3d b7 2d bc bb 94 05 c6 ba
       0.043947183 0.09421623 -0.0057427543 -0.0015107864
000020 e9 68 c5 3c 01 fc 9a b9 e9 10 70 bd b7 5a 32 bd
       0.024097877 -0.00029560926 -0.058609877 -0.043543544
000030 c2 07 51 3c ef c2 ac bc d0 83 29 3d b4 50 49 3d
       0.012758197 -0.021089045 0.04138547 0.04914923
000040 7a c8 dd bc 7e 6c 8a 3b 7d 4f 6b 3d 37 8f 35 3d
       -0.027073134 0.004224359 0.057448853 0.044326033
000050 97 e6 ac 3d 4f df db 3d 5b af 68 bc 66 a5 3a bd
       0.08442419 0.10735952 -0.014201964 -0.045567892
000060 ac c2 4a 3d 81 93 ec 3d 64 a5 68 3d b8 39 2e bd
       0.04950206 0.11551572 0.056798354 -0.042535514
000070 e1 bc 07 3e 8f 8e 4b 3d f2 fb 98 3c 82 dc 58 bd
       0.13255645 0.0496965 0.018674824 -0.052944668
000080 17 1d 63 3c c8 25 c2 bd 32 06 a3 3d 3a 95 a6 3c
       0.013861916 -0.094798625 0.07960166 0.020334829
000090 0f 86 56 3d 9a 0f 45 3d 43 41 bb 3c ae 56 c1 3c
       0.052373942 0.048110582 0.022858268 0.023600902
0000a0 e7 f5 e8 3d e9 18 5c bd d4 ec c2 3d 4b 5c 71 3b
       0.11375027 -0.053734694 0.09517828 0.0036828693
0000b0 08 dd 3e bc 86 19 f2 3c 1e 8b 3d bd 79 e0 53 bd
       -0.011649378 0.029553186 -0.04627525 -0.051727746
0000c0 55 2b 73 bd 09 d8 be bd 11 aa b5 bd e7 b1 06 bd
       -0.059367497 -0.09318549 -0.08870328 -0.032884505
0000d0 64 dd 56 3e e6 d6 1a bd a0 93 91 bb 28 3d 3d 3d
       0.20982891 -0.0378026 -0.004442647 0.0462009
0000e0 43 a9 0e 3c 63 8a 4b 3d cc 28 a0 bb 98 2e 3b 3d
       0.008707347 0.049692523 -0.004887676 0.045698732
0000f0 d8 11 b0 bc aa 1a 55 be e9 6e 0a bd 4b 3a d0 bd
       -0.021492884 -0.20810953 -0.03379718 -0.101673685
000100 c2 24 4c 3d 3e c9 52 bc 19 cd 9c 3d af 14 89 3c
       0.049839742 -0.012865363 0.07656307 0.016733496
000110 62 6f eb bc 9f a8 a1 3d 6c 1a 8d bd c3 b6 62 3c
       -0.028739635 0.0789349 -0.06889805 0.013837519
000120 9e ed 3d 3c de db 3b bc a8 40 17 3c 41 19 91 3d
       0.011592297 -0.011465995 0.009231724 0.07084895
000130 69 ca af 3b c8 56 e7 3c 5e dd 9a 3d e5 93 3d 3d
       0.0053647053 0.028239623 0.07561754 0.04628362
000140 64 b0 59 3d 02 16 b9 3c 2a 0b d0 3c 2a ad d9 bd
       0.053146735 0.022593502 0.025395948 -0.106287315
000150 2d 2b 87 bd 1b 90 34 3d cb 3d dc 3c a9 99 86 bb
       -0.06600032 0.044082742 0.026884934 -0.004107673
000160 81 96 99 bc 00 71 39 3d 9e eb c8 bc bc 3a 55 3d
       -0.018748524 0.04527378 -0.024526414 0.052057967
000170 54 1d 6f 3d 24 16 31 3d 6a c1 5c 3d bd 50 80 bd
       0.05837758 0.043234006 0.05389539 -0.062653996
000180 99 6c f5 bc dd 20 78 3d 78 f6 f8 3c 66 25 6f bd
       -0.02995901 0.060578216 0.030390963 -0.058385275
000190 bd eb 8f 3c 4a ad e7 3c 84 db 96 bd b8 05 28 bc
       0.017568463 0.028280873 -0.07366088 -0.01025527
0001a0 7c a6 3b bd d5 14 af 3d 78 3f d2 3d 3a 2b 04 3d
       -0.04581307 0.08548895 0.10266012 0.032267787
0001b0 a7 09 1f bb 2c 89 25 bd 55 ef 14 3c 44 48 36 3d
       -0.0024267228 -0.04041402 0.009090264 0.04450251
0001c0 34 21 c2 bd 69 cf ff 3c a6 54 d0 3d 92 f3 df 3d
       -0.09478989 0.03122683 0.101723954 0.10935129
0001d0 3c 57 6f bd f8 67 89 3d 1f 67 ea 3b b4 69 98 bd
       -0.058432803 0.067092836 0.0071534063 -0.07442036
0001e0 01 56 17 3d 44 a6 c5 3c 11 46 8e bc ec d4 d2 bd
       0.036947254 0.024127133 -0.017367395 -0.10294518
0001f0 d0 5c 34 3d 0e d1 86 3d cb f8 84 3d e1 98 7a bd
       0.044033825 0.06582843 0.06492766 -0.061180953
000200 13 33 f6 3d 27 1a f3 3c 73 16 de 3d ec 27 a0 3d
       0.120214604 0.029675556 0.108441256 0.078201145
000210 56 24 51 bd f0 28 cc bc ef a6 37 3d d4 c5 08 3b
       -0.051060043 -0.024921864 0.044836935 0.0020869868
000220 3d b8 85 bd 0f fa 03 be 77 42 66 3d 85 e6 3b bd
       -0.06529281 -0.12888359 0.05621573 -0.045874137
000230 1b 09 eb bc 77 e2 a4 3d 65 4f a2 3d 8e e4 8a bd
       -0.028690865 0.08051007 0.079252996 -0.067818746
000240 05 ad 1b bd 35 f6 9e bc 43 78 1d 3d a5 93 8d 3d
       -0.0380068 -0.01940451 0.03844477 0.069129266
000250 ce f3 a8 3d 62 2f d8 bc d2 ed 2b 3d bd 9b ff bd
       0.08249627 -0.026389781 0.04197485 -0.124808766
000260 bd 3c 3a bd 69 b6 58 bc 76 7c 95 3d 5d a3 ac 3c
       -0.04546808 -0.013227084 0.0729913 0.021073991
000270 1a b2 c8 3c 74 2e e1 3d 7a 5b 50 3d c6 b4 8e 3c
       0.024498988 0.10995188 0.05086849 0.017420184
000280 a8 88 ef 3c 38 b6 fc 3d c7 0b 9e bd 58 03 9a 3d
       0.029239967 0.12339443 -0.0771709 0.07520169
000290 ee 33 50 3d 7c 64 fd 3c 45 96 09 3c 01 db 9e 3d
       0.050830774 0.030931704 0.008397643 0.077566154
0002a0 54 42 e9 3d 2d c1 16 be 48 51 1b bd 4c 1d c8 bc
       0.11389604 -0.14722128 -0.037919313 -0.024428032
0002b0 c7 11 19 bc 72 01 05 bd ea 5b ed bc fa fd 5b 3d
       -0.009342617 -0.03247208 -0.028974492 0.053709008
0002c0 2a 45 46 3d 72 df 50 bd 02 f5 f3 bc 9f d9 59 bd
       0.048405804 -0.050994344 -0.029779915 -0.053186055
0002d0 3b 63 be 3d 49 df 19 3d 11 6b 7b bd bc 36 6a 3d
       0.092962705 0.037566457 -0.061381403 0.057181105
0002e0 46 56 8d 3d ac 30 a8 3d 1f 18 37 3c c0 37 92 3c
       0.06901221 0.082124084 0.0111751845 0.01784885
0002f0 ca c2 51 bd b9 d9 24 3c 83 05 97 bd e6 72 06 bd
       -0.051211156 0.010061675 -0.07374098 -0.03282442
000300 8d db 07 3d 8e 19 9d 3d 86 97 c6 bb 5f 72 1a 3d
       0.033168364 0.0767089 -0.0060605435 0.03770673
000310 1e b6 fc bd ac ce a2 bc 86 ff 08 be dc 4f fe 3c
       -0.123394236 -0.01987394 -0.13378724 0.03104394

mu.4.weight f4 [12, 200]
000000 95 82 6c be 38 01 7c 3e 58 ca 6e bc 89 d6 17 be
       -0.23096688 0.2460984 -0.01457461 -0.14827932
000010 06 18 f7 3c d9 23 84 3e 26 fe 38 be 4e 7b 3b 3c
       0.030162822 0.258086 -0.180657 0.011442972
000020 04 54 f5 bd 1e e6 ce bd 75 97 92 3c a7 f0 30 bd
       -0.11978915 -0.10102485 0.017894486 -0.043198254
000030 fd 62 ab be ff 32 cb 3c d7 1b b6 bd 0c a2 0e be
       -0.3347396 0.02480459 -0.08892029 -0.13929003
000040 69 71 ca 3d 8a b5 13 3e f8 05 37 3e 02 4b 35 bd
       0.098849125 0.1442472 0.1787337 -0.044260986
000050 bd 2d 81 3e 39 77 06 bb 06 5b b1 be df 1d c2 3c
       0.25230208 -0.002051784 -0.34639758 0.023695884
000060 ae 41 44 3d 6a 8c d7 bd 37 21 3c 3e 31 34 59 3d
       0.0479142 -0.10524829 0.18372045 0.05302829
000070 12 fb b0 bc bf e4 1c be ec cd 31 3e 37 6c c1 bb
       -0.021604095 -0.15321635 0.17363709 -0.005902793
000080 d4 97 88 bd 50 39 09 be fb 76 0b be 3c 1d 21 3e
       -0.06669584 -0.13400769 -0.13619606 0.15733808
000090 fb b4 a7 bd 96 74 e9 3d 25 2d 01 be 50 99 be bd
       -0.08188816 0.1139919 -0.12614878 -0.09306586
0000a0 15 75 cf 3d 42 82 15 3e e7 56 61 bd 92 4f 5f 3e
       0.101297535 0.1460047 -0.055014517 0.21807697
0000b0 a4 a3 79 bd 4c fd ed bd 3e c0 f3 bd 4c 29 38 3e
       -0.060947075 -0.11620578 -0.11901902 0.17984504
0000c0 41 77 08 3f fd ac 45 be fd 69 8a 3e 38 6e 81 be
       0.5330697 -0.19304271 0.27033988 -0.25279403
0000d0 a0 d3 e6 3b 4c c9 1b 3e 97 c5 ef 3c ea 6a 81 3d
       0.0070442706 0.15213507 0.029269023 0.0631922
0000e0 60 19 69 bd ca d0 3f 3d 8d 88 84 bd ce c3 27 3d
       -0.056908965 0.046829976 -0.064713575 0.04095822
0000f0 58 eb c3 bc 51 23 cf 3d c2 1c 76 3e 09 ca 0e 3d
       -0.023915932 0.10114158 0.24034408 0.034860644
000100 d2 e9 7e bd 06 6f e0 bd c1 c5 91 be ec b1 6a 3e
       -0.062234707 -0.10958676 -0.28471187 0.22919434
000110 51 36 36 be 87 fe b8 3d a4 60 ad bd f7 8e 56 bd
       -0.17794158 0.09032922 -0.08465698 -0.052382436
000120 e9 71 b2 3e dc 7e 8f 3e 08 98 91 3e d0 09 59 3e
       0.34852532 0.28026474 0.28436303 0.2119515
000130 66 d1 0b 3d 48 53 8a be 2d 3f 55 3e 59 21 2a be
       0.034135245 -0.27016664 0.20824881 -0.16614284
000140 ce 5d 1b be c4 fd 1a bd bc 52 01 3e 92 d2 91 3d
       -0.15172502 -0.037839666 0.12629217 0.07120241
000150 d9 0f b1 bc 9c b4 c7 bd d6 d9 9a 3d 9e 93 36 be
       -0.021614002 -0.097512454 0.0756108 -0.17829749
000160 3e 7b 97 3b 32 5b cf bd f4 ae 9b bd e5 b3 95 3d
       0.004622846 -0.10124816 -0.07601729 0.07309703
000170 cc 38 ce bd ee 27 cd bd bd cb 0c be 0c 80 6f bd
       -0.10069427 -0.100173816 -0.13749595 -0.058471724
000180 ce 63 60 bb a9 40 fd 3d f5 22 ae 3c 57 c9 3c 3b
       -0.0034239176 0.123658486 0.021256903 0.0028806531
000190 07 89 c1 3d 1a 98 8b bb ce 88 b5 bd b2 6e ec bd
       0.09449964 -0.0042600753 -0.08863984 -0.11544551
0001a0 60 93 b1 bc 9c 7b 2f be 64 0e 4a 3d 63 2d 2c be
       -0.02167672 -0.17136997 0.04933013 -0.16814189
0001b0 76 ca 6c bd 80 36 c2 3d 03 a3 17 3e 9a 03 c9 bd
       -0.05781027 0.09483051 0.14808278 -0.0981514
0001c0 c1 2f 16 3e ab 76 95 be 6b 56 34 bd a8 79 f5 3c
       0.14666654 -0.291921 -0.044027727 0.029965237
0001d0 2b 88 69 bd 07 38 91 3d d6 28 8c 3e 24 1c 0e 3e
       -0.057014626 0.070907645 0.27374905 0.13877922
0001e0 4c be 14 bd 50 92 1e 3e cd cb a3 3c 7b 44 7e 3d
       -0.036314294 0.15485501 0.01999464 0.062077027
0001f0 80 13 9a bd 62 f4 c3 3d 96 c1 0f 3e 25 76 a8 be
       -0.075232506 0.09568097 0.14038691 -0.32902637
000200 86 23 86 3d bd 06 10 be 4e fc f1 bd 3a bc 3e 3d
       0.06549744 -0.1406507 -0.118157014 0.046566226
000210 5a 6b b3 bd 46 8e ec bc 0d e6 a9 3d 84 87 08 bd
       -0.0876071 -0.028876435 0.08295832 -0.033332363
000220 3e a7 a4 bd 38 af 9f 3e a2 d8 29 bd 3a 31 6d 3c
       -0.080397114 0.3118837 -0.041466363 0.014477069
000230 6a 97 05 be 63 44 43 be f7 7b bb 3d 36 ef a5 3e
       -0.13046041 -0.19069056 0.09154504 0.32409066
000240 52 12 a1 bc b9 b2 63 3e 63 4a 2d 3c 0c 0a 2e bd
       -0.019662056 0.22236146 0.010576817 -0.04249005
000250 2a d1 0d 3e a7 7e 53 ba aa 55 23 be 7e 09 13 3f
       0.13849321 -0.0008067884 -0.15950647 0.5743636
000260 7e 12 c3 bc fb e9 97 3e e5 ba ab 3d ff c4 06 3d
       -0.023812529 0.296707 0.08385257 0.032902714
000270 f8 9b db be 3c 53 08 be 85 98 85 3c db 84 b4 3c
       -0.42892432 -0.13313001 0.016308079 0.022036007
000280 a5 29 59 be d5 ac 44 be 96 ef b9 bc 70 5c 2a 3e
       -0.21207292 -0.19206555 -0.022697251 0.16636825
000290 5f e8 86 3c 17 df d0 3d 1d 4c df b9 e2 dd af bd
       0.016468225 0.10198801 -0.00042590583 -0.08587243
0002a0 eb 5e 89 3d 95 a4 a9 bd 65 1c 13 3c a0 ab 10 3e
       0.06707557 -0.08283345 0.008978938 0.1412797
0002b0 52 44 78 3d 43 69 3c bd 12 7e 4d bd 93 57 5e 3c
       0.06061203 -0.045998823 -0.05016906 0.013570684
0002c0 cf a6 fa 3a 60 5a 66 bd e2 2f 86 bd 88 d0 0e be
       0.0019123199 -0.056238532 -0.06552102 -0.13946736
0002d0 9e ca 75 bb d3 7f fb bd e5 9b 42 3d 4f cb 9b bd
       -0.0037504802 -0.1228024 0.047511954 -0.076071374
0002e0 6e b1 e3 bc 85 4b 9e be 1f 6d 70 3e 91 2b d5 bd
       -0.027794566 -0.30916992 0.23479126 -0.104087
0002f0 86 e1 83 3e ab ad fb 3d 47 22 31 3e 9d e4 54 bd
       0.25757998 0.12288984 0.17298232 -0.051975835
000300 81 7d b6 3d 14 06 2e be 8f 21 1a be 2d d7 00 be
       0.08910657 -0.16994506 -0.15051864 -0.12582083
000310 3f f5 3c be 10 c4 5b be fe 50 11 bd 36 87 7c bd
       -0.18452929 -0.2146151 -0.03547763 -0.061652385
000320 14 3d 0a bf 80 cb dc 3d 1a 71 27 3e fd c8 70 bd
       -0.5399945 0.10781002 0.16351739 -0.058785427
000330 bd 1b 36 3e c6 55 20 3c af ea 3e be c4 11 5a be
       0.17784019 0.009786075 -0.18644212 -0.2129584
000340 28 48 84 be e2 31 1c be 41 dd f7 bd 03 a1 1f 3d
       -0.258363 -0.15253404 -0.12102748 0.038971912
000350 8f c6 50 be 01 e5 20 bb 92 61 af bc b5 87 17 3a
       -0.20388244 -0.002455056 -0.02140883 0.0005780415
000360 35 bd eb bc c3 17 12 3e 93 01 99 3d 2b 91 c3 3d
       -0.028776744 0.14266877 0.074710034 0.09549173
000370 76 6b 85 be 24 e9 fa 3c ba 7c b3 3d 8d ca 21 3e
       -0.2605855 0.030628748 0.08764024 0.15799923
000380 44 93 45 3e 2a 61 29 bc 10 f5 3e bd 45 ce d7 bd
       0.19294459 -0.010338107 -0.04662043 -0.1053739
000390 18 3f 2e 3e fe 9b 72 3e 4c cd 1f bf 94 5d a4 bd
       0.17016256 0.23692319 -0.62422633 -0.08025661
0003a0 28 a2 ae 3d 4c f6 91 bc 17 c4 34 3e eb a6 28 3e
       0.085270226 -0.017817639 0.17652927 0.16469924
0003b0 75 c1 a0 be 39 5f 4d 3d 3f 06 41 be 30 22 08 3e
       -0.31397596 0.05013964 -0.18850039 0.13294291
0003c0 8a 07 11 bc fc d7 b9 bd e2 60 15 be a1 3a 36 be
       -0.008851895 -0.09074399 -0.14587739 -0.17795803
0003d0 ce 4c c1 ba 20 73 8b be 03 da 78 bd 12 92 53 bc
       -0.0014747621 -0.2723627 -0.060754787 -0.012913244
0003e0 00 9c 6c be fb 80 86 be 23 1e 88 bd c9 d6 c0 bd
       -0.23106384 -0.2627028 -0.06646373 -0.09415967
0003f0 38 7b e9 3d 6e 7b 8f be 30 79 0c 3e f0 c0 ab 3e
       0.11400455 -0.28023857 0.13718104 0.33545637

mu.4.bias f4 [12]
000000 c0 0e 28 bd ad f0 c7 3c 01 26 f8 bc 75 f7 8e 3b
       -0.04102969 0.024406755 -0.03029156 0.0043629953
000010 ac 51 63 3d e1 f0 35 bc 33 2b a4 bc 4a ea 2d bd
       0.05549781 -0.011104793 -0.02004013 -0.042459764
000020 01 a4 30 3c 93 0f 46 bc 5d 67 10 3d ae 6b e9 bc
       0.010781289 -0.012088674 0.035254825 -0.028493728

reward_fun.0.weight f4 [200, 14]
000000 11 13 13 3e 5e 41 c7 bd 8e bd b0 bd de 43 94 be
       0.14362742 -0.09729265 -0.08629905 -0.2895803
000010 b4 65 44 3d 2e c9 8c 3e 4f 7c 4c 3e 42 a6 2a be
       0.047948554 0.27497238 0.19969295 -0.16664985
000020 54 ba af bd 0c dd 7e 3e 46 af 10 3e d0 77 a7 be
       -0.08580461 0.2488901 0.14129362 -0.32708597
000030 90 2a 9b be 29 bb 8c 3e c4 b6 34 3e d1 c2 64 3e
       -0.3030591 0.27486542 0.17647845 0.22339942
000040 65 79 40 bb 9e 02 4f bd cf 24 47 be ce f6 0b bd
       -0.0029369232 -0.050539605 -0.19447635 -0.03417092
000050 ab 09 a8 be 58 4e 4b 3e 15 e6 71 bd 04 8b 13 bd
       -0.32819876 0.19854105 -0.059057314 -0.036021248
000060 66 8b 43 be 32 0b a6 3e d5 82 34 3e fb a1 8a 3e
       -0.19096145 0.32430416 0.17628033 0.27076706
000070 5e fe 87 3e ed a0 3b be 45 dc 53 3e e4 c6 40 be
       0.26561254 -0.18323107 0.20689495 -0.18825871
000080 02 99 2c be b4 a5 01 be 2c f9 2f 3e fd c8 14 3e
       -0.16855243 -0.12660867 0.17184895 0.14529796
000090 18 92 d5 bd 58 df 84 bd 9c 84 d2 3e 29 2d e0 be
       -0.10428256 -0.06487912 0.41116798 -0.43784454
0000a0 51 55 dd 3d 33 e7 b7 3e f8 70 72 be c3 48 48 be
       0.108072884 0.35918579 -0.23675907 -0.19559006
0000b0 21 1e bc 3b ec 02 39 be 6a ed 81 3e 7b 7d 9d 3e
       0.0057408963 -0.18067521 0.25376445 0.30759797
0000c0 93 46 1c be a7 a9 c3 3d 0b df 8d 3d 01 49 22 3e
       -0.15261297 0.09553843 0.06927308 0.15848161
0000d0 8b a8 6c bd be be 11 3e e4 15 d4 3e 25 ee 99 be
       -0.057777923 0.14232919 0.4142295 -0.30064502
0000e0 97 ad 80 be e1 e0 c0 3d 2e 9d 0e 3e 07 06 9c 3c
       -0.2513244 0.09417892 0.13927147 0.019045843
0000f0 a1 a5 b4 bd 81 b9 cc bd 16 5d ed bd 2b 80 92 bd
       -0.08820654 -0.099963196 -0.1159002 -0.07153352
000100 ec e5 0c be 84 0e e3 bd 01 10 46 3e d2 df 22 bd
       -0.13759583 -0.11086753 0.19342043 -0.039764233
000110 b5 ea 02 bf e1 57 47 bd be 88 f0 bd 21 e3 51 bd
       -0.51139385 -0.048667792 -0.117448315 -0.051241998
000120 0b d6 22 3d 84 52 8a 3e 04 92 63 bd 65 1f 12 3e
       0.03975491 0.2701608 -0.055559173 0.14269789
000130 31 7f 2a 3e 35 7a 4d bc 4d dc 72 bc 2c 97 32 be
       0.16650082 -0.012541343 -0.014823032 -0.1744048
000140 35 45 69 3d 16 79 78 be cb a0 f2 bd d8 de da be
       0.056950767 -0.2426494 -0.11847075 -0.4274814
000150 33 ca 9f 3e 9b ec 92 3d fe 7b fa 3d 91 fe 08 be
       0.31208953 0.07174035 0.12230681 -0.1337836
000160 c7 15 38 be ae 14 41 3e 70 e0 91 be 11 0d ce 3b
       -0.17977057 0.18855545 -0.28491545 0.0062881787
000170 a7 b2 92 3e ce 04 81 3d 05 e0 2a be a0 af 2e 3e
       0.28651926 0.062997445 -0.16687019 0.17059183
000180 17 67 a9 3d 01 75 64 bd 61 1e 14 be 2f 93 40 3e
       0.08271616 -0.055775646 -0.14464714 0.18806146
000190 aa ef a6 be 6f 4b 97 be 36 0d 5f be 5d f2 15 3e
       -0.32604724 -0.2954974 -0.21782383 0.14643236
0001a0 72 fd f2 3d 09 42 0c 3e 03 9d b7 bd 3d 56 9f 3d
       0.11864747 0.13697065 -0.089654945 0.077801205
0001b0 b7 08 57 3e 6a ee e6 3b b5 a6 66 bc 6c 7e d5 3e
       0.20999418 0.007047464 -0.014077832 0.41698015
0001c0 0b eb 3d 3e b6 c8 9a 3e 2a 0a c5 be 97 ec 95 bd
       0.18546693 0.30231255 -0.38484317 -0.073205166
0001d0 8f 2d a4 3d 10 ee 0a bc 9a 86 19 be 86 d2 0e bc
       0.08016502 -0.00847961 -0.14992753 -0.008717185
0001e0 d1 ae 0b be f6 11 bb bd 91 9e 89 bd 8b 7c aa be
       -0.13640906 -0.09134285 -0.06719697 -0.33298144
0001f0 61 d6 63 3e 47 bf 40 3e bf a0 e7 3c de 24 2c 3e
       0.22249748 0.18822967 0.028274892 0.16810939
000200 1e fc b1 bd a4 62 51 bd a0 e5 52 3e 09 af ed 39
       -0.08690666 -0.05111946 0.20595407 0.00045334574
000210 74 41 7d 3c a5 fd 89 3e 94 09 c5 3c 0d 94 0b 3e
       0.0154575 0.26951328 0.024052419 0.13630696
000220 b1 3d b0 3e 80 25 38 3e f6 ee b1 3d b8 db a3 be
       0.34422067 0.17983055 0.08688156 -0.3200357
000230 0d 42 ba bd 7f c8 c2 bd 37 7b 88 3e 1c 24 01 bd
       -0.090946294 -0.09510898 0.26656505 -0.031528577
000240 fe 32 16 3e b5 8d 87 bd 72 b1 d0 3d 4a f6 94 be
       0.1466789 -0.06618825 0.10190095 -0.29094154
000250 89 08 9d 3e 25 4b 13 3e cc 47 59 bd 22 e0 47 3e
       0.30670574 0.14384134 -0.053046986 0.19519094
000260 df 67 0a 3e 4f c1 06 be 1d dd 47 be 55 84 0a be
       0.13516186 -0.13159679 -0.19517942 -0.13527043
000270 5d ae aa be 05 d6 35 be 36 1c db bd e9 42 94 bb
       -0.33336154 -0.17757423 -0.1069874 -0.004524578
000280 43 0a 1b 3e a2 11 65 be 4a c7 89 3e 62 0a cb bd
       0.15140633 -0.22370008 0.26909858 -0.0991409
000290 26 48 0d be 64 2f 79 be 19 8f 09 3f 32 14 9c 39
       -0.13797054 -0.24334484 0.53733975 0.00029769685
0002a0 88 3d 71 3d d7 d3 a9 3d 68 93 07 3e 9d 76 94 be
       0.05889657 0.08292358 0.13239825 -0.28996745
0002b0 3a 8a b5 be cf a3 42 bd 1c 63 97 3e b3 6f 82 be
       -0.3545702 -0.0475195 0.29567802 -0.25475845
0002c0 f7 8d be bd be 04 17 be 78 1d 7b 3e 56 ab 87 bb
       -0.093044214 -0.14747903 0.2452296 -0.004140298
0002d0 e7 ad 49 be 84 53 a3 be ef e1 bc 3e a2 f6 27 3e
       -0.19695245 -0.31899655 0.36891124 0.16402677
0002e0 72 1a 25 be 8f fa 88 be e5 2a 34 be b6 b3 0c bd
       -0.1612337 -0.2675366 -0.17594488 -0.034351073
0002f0 46 c0 37 be 6b 42 44 3c 1b e8 89 3b dd e7 43 3e
       -0.1794444 0.011978726 0.0042085773 0.19131418
000300 e5 83 13 be 52 b9 30 3e 6b 00 22 be f4 23 62 be
       -0.14405783 0.17258194 -0.15820472 -0.22084028
000310 f1 8c 89 3e ea 73 9d be 20 e7 04 be d8 c9 1c 3e
       0.26865342 -0.30752498 -0.12978792 0.15311372
000320 5a ef 8e 3d 88 78 4d be 9b ce 04 3e f2 39 cc 3d
       0.069792464 -0.2006551 0.12969439 0.0997199
000330 48 b7 07 3e 85 b2 8b 3e fb 0d bd 3e 21 fb e0 bd
       0.1325351 0.27284637 0.3692473 -0.10985399
000340 27 b4 b2 3e 9f 61 55 be 14 b4 4c be 38 37 75 be
       0.3490307 -0.2083802 -0.1999057 -0.23946846
000350 f1 58 d7 3d 35 7b 74 be 2d 27 62 3d 5e d4 ab 3e
       0.10515011 -0.23875125 0.055213142 0.3356046
000360 0e 31 a5 bc dd f1 2d bc c2 dc e8 bc 38 0a 19 3e
       -0.020164993 -0.010616747 -0.028425578 0.14945304
000370 47 08 85 3e ce 09 3e 3e c1 a3 f3 3e f7 97 05 be
       0.25982878 0.18558428 0.47585872 -0.13046251
000380 03 22 34 3e d5 5e 18 3e 84 35 00 3f 55 92 47 3e
       0.175911 0.14879926 0.5008166 0.19489415
000390 4a 7d aa 3e 17 7b f8 bd 7b e0 13 3e c7 d3 ad be
       0.33298713 -0.121328525 0.14441101 -0.33950636
0003a0 33 da 16 3e af d4 82 be 06 f6 17 3e b4 c7 36 bd
       0.14731674 -0.2555289 0.14839944 -0.044624045
0003b0 84 fa b4 3d 0c 84 ae be ef 59 a1 3d 67 5f 6d 3e
       0.088368446 -0.3408512 0.078784816 0.23180924
0003c0 9c d0 3b be 89 77 12 bd c3 6c 2b 3e f7 f6 dc bd
       -0.18341297 -0.03575853 0.16740708 -0.10789292
0003d0 87 12 69 be 7c 41 cd bd a5 94 11 be 5e a7 93 be
       -0.22760974 -0.10022256 -0.1421686 -0.2883863
0003e0 24 d3 0c 3c 98 64 4f 3e 08 c4 3d bd 9e d9 d3 bd
       0.008595262 0.20253217 -0.046329528 -0.103442416
0003f0 56 68 1e 3e 23 11 58 3e 9f d7 6b be 20 af 84 3e
       0.15469489 0.21100287 -0.23031472 0.2591486

reward_fun.0.bias f4 [200]
000000 9a 81 38 be c6 2f 30 be 70 f0 8d be 6b 31 84 3e
       -0.18018189 -0.17205724 -0.27722502 0.25818953
000010 3a 31 fc 3d 9d 83 02 3e 97 3c a2 3d 4d 90 6d be
       0.12314077 0.12745519 0.07921713 -0.23199578
000020 7f 93 e3 3d 16 39 54 be ab 16 53 be 36 97 8e bd
       0.11112117 -0.20724902 -0.20614116 -0.06962435
000030 41 85 5e be 8e d7 bf bd 82 cd 4d 3e 37 2f ea bd
       -0.2173052 -0.09367286 0.20097926 -0.11434787
000040 67 69 59 bd 9f 88 33 3e b8 6d 79 3e 17 62 23 bd
       -0.053079035 0.17532586 0.2435826 -0.039888468
000050 f7 32 99 be bc 65 05 3e 6e 8f ce bd f1 7b 25 be
       -0.29921696 0.1302709 -0.10085951 -0.16160561
000060 2e 61 33 3e cd 9e 08 3d ff d0 c3 3d a4 9c da 3d
       0.1751754 0.03335457 0.09561347 0.10674408
000070 ab 3a 06 3e 79 22 8d bd fc ea e7 3c 20 c5 30 be
       0.13108318 -0.06891341 0.028310291 -0.17262697
000080 fd 73 59 be 01 bb e2 bd 8a 5f ab be ef 03 67 be
       -0.21235652 -0.110708244 -0.33471328 -0.22560094
000090 42 de 71 be 29 43 3e 3e 73 b6 cf 3d 7b c6 22 bc
       -0.23619941 0.18580307 0.10142221 -0.009935017
0000a0 a7 ab 90 3d 60 14 15 be 6e ad 0c 3d 23 98 25 be
       0.0706399 -0.14558554 0.034345083 -0.16171317
0000b0 06 be 34 3d 42 99 39 be d5 e0 14 3e d4 bf dc 3c
       0.044126533 -0.1812487 0.14538892 0.02694694
0000c0 59 e6 7c 3d 51 9e 85 be 08 90 ee bb 34 8d 1c be
       0.061743114 -0.26097348 -0.0072803535 -0.1528824
0000d0 74 ba 79 be a7 7c 02 3e 7d e4 3e 3e 9c 59 db 3b
       -0.24387532 0.12742864 0.18641849 0.006694032
0000e0 54 41 44 3d 5d ed 3c be 1e 68 1b be 99 d9 bb bb
       0.047913864 -0.18449922 -0.15176436 -0.005732727
0000f0 91 0d 2e bb 0b d2 6c 3e df 58 a9 be 14 5e 70 be
       -0.002655838 0.23127 -0.33075616 -0.23473388
000100 5a 4e 49 3e 6d 79 75 be 74 6d a8 bd 64 93 87 3e
       0.19658795 -0.23972102 -0.082240015 0.26479638
000110 5b 5e ac bb 71 f3 f4 bd 66 83 0a bd d6 86 07 3e
       -0.0052602715 -0.11960495 -0.033816718 0.1323503
000120 35 3f 2c 3e 1c 56 94 be f9 00 2a be 83 58 0a 3e
       0.16820987 -0.28971946 -0.16601934 0.13510327
000130 a1 d8 32 be a4 41 78 be 6e ed d8 bd 1a 74 3a be
       -0.1746545 -0.2424379 -0.10592161 -0.18208352
000140 99 28 f3 3d 7a 81 e1 bd f6 28 ca bd 3e 76 4c 3e
       0.11872978 -0.11011024 -0.09871094 0.19966981
000150 5a 87 a5 be c2 fc a7 bd 56 25 01 3e ce 3b d3 3d
       -0.32329828 -0.082025066 0.12611899 0.10314141
000160 ba 2b 5b bb 74 6e 88 be 87 da 06 bd 4c 30 90 b8
       -0.003344281 -0.2664677 -0.032923248 -6.875451e-05
000170 10 8c 4a 3e 39 12 c4 bd 33 9d 6f 3e b7 f6 98 3d
       0.19779992 -0.09573788 0.2339981 0.07468932
000180 9d 9f 50 3e f2 43 0a 3e d1 9a d3 bd 79 a8 5b 3e
       0.20373388 0.13502482 -0.10332263 0.21450986
000190 5e d3 10 3e d4 a3 93 be 22 dc 90 3e c6 7d 2f be
       0.1414313 -0.28835928 0.28292948 -0.17137823
0001a0 60 33 8b be e9 eb 77 be a0 a9 90 bd 3f 14 65 be
       -0.27187634 -0.24211086 -0.070636034 -0.22371005
0001b0 c1 f0 a6 3b 15 3d 87 be 8c 36 a7 bd 51 fb ad be
       0.005094618 -0.2641379 -0.08164701 -0.33980802
0001c0 d6 4c 18 be 5b 50 5c 3e 5e 4d 8f be 52 2c e7 bd
       -0.1487306 0.21515028 -0.27988714 -0.1128775
0001d0 99 a7 31 be 34 1f 18 be 60 07 4b be 6d c4 35 be
       -0.1734909 -0.14855653 -0.19827032 -0.17750712
0001e0 7d 70 57 bd d3 c5 44 3e 00 37 34 3e fd d4 86 bd
       -0.05259751 0.19216089 0.17599106 -0.06583593
0001f0 70 0e 6a 3c d1 16 38 3d 14 e7 89 bd fc 17 8c 3d
       0.014285669 0.044943634 -0.06733528 0.06840512
000200 62 d4 a7 be 03 7d 36 be 53 af 8d bc ac a9 80 be
       -0.32779223 -0.17821126 -0.017295515 -0.2512945
000210 2a c3 c6 3d 4d 4b e9 3d 1e ef 10 3e aa 4f f5 3c
       0.09705193 0.113913156 0.14153716 0.029945213
000220 1c 04 b7 bd 66 cd 9b be 1b 50 1c be 7f 45 08 be
       -0.08936331 -0.30430144 -0.15264933 -0.1330776
000230 76 76 61 3e 98 0c 52 3e 67 59 9a be 7d 80 8b 3d
       0.22017846 0.20512617 -0.30146334 0.068116166
000240 a1 13 9a 3c fa 65 68 3b 6e 3e 49 3c 6c db 25 3e
       0.018808188 0.0035461173 0.012282951 0.16196984
000250 72 69 01 be 09 09 8a bc 68 a7 dd bd 12 09 2a 3e
       -0.1263788 -0.016850011 -0.10822946 0.16605023
000260 90 00 0e 3e 5f ae 60 be ef 76 76 3d fb 1a 91 bd
       0.13867402 -0.21941517 0.060172018 -0.07085224
000270 0e 78 b5 bd 2f 4b 5f be 62 97 3e 3e 86 f7 19 3e
       -0.08860789 -0.21806024 0.18612435 0.15035829
000280 bc 84 10 3b f2 f5 e3 3d 9e f2 bc 3d 17 a1 f7 bd
       0.0022051772 0.11130895 0.09225963 -0.12091272
000290 bc b4 5e 3e 45 e5 20 be 29 4a b9 3c 10 d6 ba 3d
       0.21748632 -0.1571246 0.02261837 0.091228604
0002a0 3a c3 68 3d 6a 1b 8c 3d 49 2f 98 be 55 18 ed bd
       0.056826808 0.06841166 -0.29723576 -0.115769066
0002b0 45 77 d8 3c 1c 0d 3f 3d 39 00 05 3e 88 15 91 3d
       0.02642406 0.04664336 0.12988366 0.07084185
0002c0 c2 8b 4a 3e 8c 3f 1d 3e f8 bf 59 3d 92 c4 86 3e
       0.19779876 0.15356272 0.05316159 0.26321846
0002d0 f9 ea fa bd 4b 5a 96 be e0 78 16 3c be 95 dd 3c
       -0.12251849 -0.29365763 0.009184092 0.027048942
0002e0 7f 51 d9 bd 2d a1 72 3d 50 b3 8f be 88 72 04 3d
       -0.10611247 0.05923574 -0.28066492 0.032335788
0002f0 9c 69 b1 3d 8a 25 a5 be 8c c9 0b 3c 10 10 d2 bd
       0.086627215 -0.32255203 0.008531939 -0.1025697
000300 18 36 fa 3d d7 56 40 3e a0 b7 da bc 54 9c 7d be
       0.12217349 0.18783127 -0.026698887 -0.24766666
000310 a3 b2 7b be 16 02 64 3e a3 78 0f 3e c3 66 95 bd
       -0.24579863 0.2226642 0.14010863 -0.07294991
