experiments/data/sawyer_clutter_200steps_10H/h_sac/2021-06-23_17-17-34_clutter_200steps_10H/model_5400.pt (torch_old, 358080 bytes, 12 tensors)

log_std f4 [1, 12]
0	0xbfb746f8	-1.4318533
1	0xbf9afc1b	-1.2108186
2	0xbf6f82eb	-0.9355914
3	0xbf41ca28	-0.7569909
4	0xbf4aad94	-0.7917111
5	0xbf0f2e12	-0.5592967
6	0xbf4f84e1	-0.8106213
7	0xbf0c6b31	-0.5485106
8	0xbf86166a	-1.047559
9	0xbf3f205f	-0.7465877
10	0xbff73314	-1.9312463
11	0xbffba792	-1.9660513

mu.0.weight f4 [200, 14]
0	0x3dea208f	0.11431991
1	0x3e9631b6	0.293348
2	0xbd7efdf7	-0.06225392
3	0xbe49b80d	-0.19699116
4	0xbeb110e8	-0.3458321
5	0x3f13488d	0.5753258
6	0x3ed09423	0.4073802
7	0x3bbcdea6	0.0057638464
8	0xbeac4b39	-0.3365114
9	0x3dbc7cbd	0.092034794
10	0x3cee2414	0.029069938
11	0x3e5858e4	0.21127659
12	0xbf14db14	-0.58146787
13	0xbdfb9ad5	-0.12285391
14	0x3eae9be5	0.34103313
15	0xbe9c8e29	-0.3057721
16	0xbd3c6dfa	-0.04600332
17	0x3ecc7859	0.39935568
18	0xbe743d17	-0.23851429
19	0x3ea74cee	0.3267588
20	0x3ec13781	0.3773766
21	0x3e834aca	0.25642997
22	0xbe4ba8c7	-0.19888602
23	0xbeda589d	-0.42645732
24	0xbdfe4a09	-0.12416465
25	0xbdfd5a9b	-0.12370797
26	0xbbc1215d	-0.00589387
27	0xbee871e8	-0.45399404
28	0xbd5b59e2	-0.053552516
29	0xbd543908	-0.0518122
30	0xbe8b9ef1	-0.272697
31	0x3f18088f	0.5938806
32	0x3e7b9f01	0.24572374
33	0xbdc968e3	-0.09834459
34	0xbd82147d	-0.06351564
35	0xbd51a3e6	-0.051181696
36	0x3e903b4c	0.2817024
37	0xbd72b59b	-0.059255224
38	0x3e24b548	0.16084778
39	0xbe96d27e	-0.29457468
40	0x3f31c697	0.6944365
41	0x3f13cf80	0.57738495
42	0x3e4838a9	0.19552864
43	0x3d343221	0.04399312
44	0xbebdd388	-0.37075448
45	0x3e175743	0.14779381
46	0xbde07352	-0.109594956
47	0x3cc0cc26	0.023534846
48	0x3e906f64	0.28209984
49	0x3eb0e14a	0.34546882
50	0x3e17f46d	0.14839335
51	0xbd8e3c77	-0.069451265
52	0xbf0ac316	-0.5420393
53	0x3d2c5562	0.042073615
54	0x3f2fea9a	0.6871735
55	0xbea65f90	-0.32494783
56	0xbcb77bf7	-0.022397978
57	0xbe804349	-0.25051335
58	0xbc83f90c	-0.016109966
59	0xbe7a00ea	-0.24414411
60	0xbe9f87c9	-0.31158283
61	0x3ecef4d4	0.40421164
62	0xbe9cc420	-0.30618382
63	0x3e83e5b9	0.25761202
64	0xbd85ddf9	-0.065364785
65	0xbd38def9	-0.04513452
66	0x3e803fdb	0.25048718
67	0xbeccfed5	-0.4003817
68	0x3e31b19d	0.1735291
69	0x3f71c7fb	0.9444577
70	0x3e71274f	0.23550151
71	0x3e5add57	0.21373497
72	0x3e670cf1	0.2256353
73	0x3e311ac6	0.1729537
74	0xbdb24dcc	-0.08706245
75	0x3eb7d067	0.35901186
76	0x3e367df2	0.17821482
77	0x3ddb4197	0.1070587
78	0xbe61b05e	-0.22039935
79	0xbc612e81	-0.013743998
80	0xbdb05161	-0.08609272
81	0x3e448b4f	0.19193767
82	0xbefda9ce	-0.49543613
83	0x3f02689d	0.5094088
84	0x3f24bfd7	0.64355224
85	0xbe157522	-0.14595464
86	0xbe61f000	-0.22064209
87	0xbd358bb2	-0.044322677
88	0xbe9f506f	-0.31116053
89	0x3c9e9287	0.019356979
90	0xbeebef22	-0.4608088
91	0xbe85ee24	-0.2615825
92	0xbdc53b5c	-0.096304625
93	0x3d333d18	0.043759435
94	0xbdd245a8	-0.10267192
95	0xbdadb0f0	-0.08481014
96	0xbcfefae7	-0.031125499
97	0x3f2c55fa	0.6731869
98	0xbea6c0e7	-0.32569048
99	0xbeb3f5f5	-0.35148588
100	0x3ce76f23	0.028251236
101	0xbeae23f3	-0.34011802
102	0xbeab940f	-0.33511397
103	0xbe0bff2f	-0.13671564
104	0x3ea9d3ba	0.33169347
105	0x3eed0df5	0.4629971
106	0xbde06427	-0.109566025
107	0xbd723557	-0.0591329
108	0xbf4e9ca3	-0.8070776
109	0xbd48cf56	-0.049025856
110	0x3d2e4618	0.042547315
111	0x3eb21e27	0.3478863
112	0xbda4bb37	-0.08043521
113	0xbb821f3b	-0.003971008
114	0x3e4969f1	0.1966932
115	0xbe90f2bf	-0.283102
116	0xbd9d4d99	-0.07680816
117	0xbebe599b	-0.3717774
118	0x3d3c5628	0.045980603
119	0xbda7aa97	-0.08186834
120	0x3e9255a8	0.28580976
121	0xbe26facc	-0.16306609
122	0xbf16c33a	-0.5889164
123	0xbe4d4be5	-0.20048483
124	0xbf34b9f6	-0.70596254
125	0xbe663d22	-0.22484258
126	0xbe874fd5	-0.26428095
127	0xbe34a826	-0.17642269
128	0xbe841c0d	-0.2580265
129	0x3e445548	0.19173157
130	0xbede818c	-0.4345821
131	0xbe454bca	-0.19267192
132	0xbe8112be	-0.25209612
133	0x3e6545a1	0.22389843
134	0x3e98d293	0.29848155
135	0xbe15e531	-0.14638211
136	0xbeb646f5	-0.3560101
137	0xbd9acf1d	-0.07559035
138	0xbf412f3f	-0.75462717
139	0xbee76047	-0.4519064
140	0xbd3f5ef5	-0.046721417
141	0xbe3af612	-0.18257931
142	0xbbe79e65	-0.0070684426
143	0x3ede879a	0.4346283
144	0x3e962a89	0.29329327
145	0xbe53d45f	-0.20686482
146	0x3daa22ed	0.08307443
147	0xbe95cf9c	-0.29259956
148	0x3ecf9984	0.4054681
149	0x3e16d2d9	0.1472887
150	0xbe03a2f0	-0.12855124
151	0xbeb4ecbb	-0.3533686
152	0xbdca7d1b	-0.09887143
153	0x3c75ffb8	0.015014581
154	0xbdb004a6	-0.085946366
155	0xbdcb8c1e	-0.099388346
156	0x3db91a79	0.090382524
157	0xbeafd981	-0.3434563
158	0x3f166ce1	0.58759886
159	0xbde641f7	-0.112430505
160	0x3e0569b1	0.130286
161	0xbed4d1ca	-0.41566306
162	0x3e886335	0.2663819
163	0x3ecd2fe3	0.40075597
164	0xbd64874b	-0.055793088
165	0x3e99da95	0.30049577
166	0x3dcf3df6	0.1011924
167	0x3e1ffca6	0.15623721
168	0xbef9b77a	-0.48772794
169	0xbe68c68f	-0.22731994
170	0xbe86d6d9	-0.2633579
171	0xbe2e5ced	-0.17027636
172	0xbebacf57	-0.36486313
173	0x3e3ca8f0	0.1842382
174	0xbf12b8cf	-0.57313246
175	0xbd2caec9	-0.042158876
176	0xbe792c33	-0.24333267
177	0xbdb970a5	-0.09054688
178	0xbea71181	-0.32630542
179	0xbdd3573a	-0.103193715
180	0x3f1a3ae5	0.60246116
181	0x3f225853	0.6341602
182	0x3e1bc978	0.15213573
183	0x3ec0e297	0.37672874
184	0x3ee3f97e	0.44526285
185	0x3d8a39c9	0.06749303
186	0xbe65a41e	-0.22425887
187	0x3e65edf3	0.22454052
188	0x3e62379f	0.2209153
189	0x3ecbaac7	0.3977873
190	0x3cf80812	0.030277286
191	0xbe3b69cd	-0.18302079
192	0xbd9b0c16	-0.075706646
193	0x3eb41d3b	0.3517855
194	0x3df35b74	0.11882678
195	0x3f0538ab	0.52039593
196	0x3e3dc437	0.18531881
197	0xbed6c1a7	-0.4194462
198	0x3ead8828	0.3389294
199	0xbe0ab00b	-0.13543718
200	0xbcfca2f7	-0.030839426
201	0xbdd592ea	-0.10428412
202	0xbe3dfe55	-0.18554051
203	0x3e83d31d	0.25747004
204	0xbeca3387	-0.39492437
205	0xbe7c1c03	-0.2462006
206	0xbd7bd1ba	-0.061479308
207	0x3e006482	0.1253834
208	0xbdb78255	-0.08960406
209	0x3ef11920	0.4708948
210	0x3d31e5cf	0.043432053
211	0x3f0d90c9	0.5529905
212	0xbd24b580	-0.040212154
213	0x3de80971	0.11329926
214	0x3e771311	0.24128367
215	0x3e722190	0.23645616
216	0x3eb83748	0.35979676
217	0xbe474f11	-0.19463755
218	0xbe3f1bbc	-0.18662924
219	0xbc201030	-0.009769484
220	0x3ef7af57	0.4837596
221	0xbe5b1181	-0.21393396
222	0xbef7c2d6	-0.48390836
223	0x3eeff942	0.46869856
224	0xbeef51a2	-0.46741968
225	0xbdfc2898	-0.1231243
226	0xbed157af	-0.4088721
227	0x3bf7ebf2	0.0075659687
228	0x3e37b435	0.17939837
229	0xbe63266a	-0.22182623
230	0x3e261a7c	0.1622104
231	0xbf04bed0	-0.51853657
232	0xbe94db05	-0.2907335
233	0x3defb87d	0.1170511
234	0xbe09c5b6	-0.13454327
235	0x3e73b10e	0.2379801
236	0x3e5bdb9b	0.21470492
237	0x3f2a0f47	0.6642956
238	0xbec3eac1	-0.3826504
239	0x3e959d3b	0.2922152
240	0xbea539ec	-0.32270753
241	0xbec6a822	-0.3880015
242	0x3e025704	0.12728506
243	0x3eaf7c2b	0.3427442
244	0xbe7e0566	-0.24806747
245	0x3dbaae14	0.09115234
246	0xbde67964	-0.11253622
247	0x3e8290d2	0.25501114
248	0xbea4cf21	-0.32189277
249	0x3ca43440	0.020044446
250	0x3e778be5	0.2417446
251	0xbeae7156	-0.34070843
252	0xbdc5a3de	-0.09650396
253	0xbc6f2d46	-0.014598196
254	0x3df8cd5c	0.12148544
255	0xbe409eaa	-0.18810526

mu.0.bias f4 [200]
0	0xbdc42615	-0.09577576
1	0x3e38c992	0.18045643
2	0xbe5e4623	-0.21706443
3	0x3e817bd6	0.25289792
4	0xbe49a0c7	-0.19690238
5	0x3e2579ab	0.16159694
6	0xbe704be9	-0.23466457
7	0xbe90fbc4	-0.28317082
8	0xbe48ca14	-0.19608337
9	0x3d3c541c	0.04597865
10	0xbe424653	-0.18972139
11	0xbe41bed1	-0.18920447
12	0xbe9b7bf6	-0.30368012
13	0xbdf4f353	-0.11960473
14	0x3e312098	0.1729759
15	0xbcc268dd	-0.023731643
16	0x3d32a103	0.043610584
17	0x3e67943d	0.22615142
18	0xbe6b53c6	-0.22981176
19	0xbd52bbd8	-0.051448673
20	0x3e5104fe	0.2041206
21	0xbdfafb2c	-0.122549385
22	0xbe645295	-0.22297128
23	0xbe3a1f0a	-0.18175903
24	0x3d552d8f	0.0520454
25	0xbe91ac46	-0.28451747
26	0x3e1dd1e4	0.15412098
27	0x3e3edba2	0.18638471
28	0x3e598251	0.21241118
29	0xbd605f62	-0.054778464
30	0xbed326c0	-0.412405
31	0x3def5fe0	0.116882086
32	0x3e62e718	0.22158468
33	0x3dcdbb1d	0.10045455
34	0xbe37a7cb	-0.17935102
35	0x3c62bb49	0.013838598
36	0xbcf3faf3	-0.029782748
37	0x3df78097	0.120850734
38	0xbe3ca56a	-0.18422475
39	0x3e907b90	0.2821927
40	0xbe85be4b	-0.26121745
41	0x3d15f4e5	0.036610503
42	0xbe50a909	-0.20376982
43	0x3e9a9713	0.30193385
44	0x3dae81e0	0.085208654
45	0xbde1f01b	-0.110321246
46	0x3e10d97e	0.14145467
47	0xbe1cd6c3	-0.153163
48	0xbec198aa	-0.37811786
49	0xbdc36580	-0.09540844
50	0x3ec4520f	0.38343856
51	0xbeb2257e	-0.3479423
52	0xbda5eab1	-0.081014045
53	0x3e225b67	0.1585518
54	0xbe99e61d	-0.30058375
55	0xbea698c4	-0.32538426
56	0xbe47e236	-0.19519886
57	0x3d936467	0.071968846
58	0xbe46f7f9	-0.19430532
59	0x3e47fbaa	0.19529596
60	0x3c12faa9	0.008970895
61	0xbeb95550	-0.361979
62	0xbda7b8d8	-0.08189553
63	0xbe331558	-0.1748861
64	0x3e09718a	0.13422218
65	0x3ea7dee7	0.32787248
66	0x3e6eafbc	0.23309225
67	0xbe388549	-0.18019594
68	0x3e853bc9	0.26022175
69	0x3dd439c9	0.10362584
70	0xbe0ae538	-0.13564003
71	0xbe160877	-0.14651667
72	0xbcd2f66a	-0.025752265
73	0xbde0cedd	-0.10976956
74	0x3d8ee054	0.06976381
75	0x3ce0fbaa	0.027463753
76	0xbe4a7e8f	-0.19774841
77	0xbe355bcc	-0.17710799
78	0xbdfb3c8f	-0.1226741
79	0x3e8feb94	0.2810942
80	0xbc945c79	-0.0181105
81	0xbe643bf9	-0.22288503
82	0xbdb992b1	-0.09061182
83	0x3db72280	0.08942127
84	0xbe02020a	-0.1269609
85	0x3dd8bf2f	0.105833404
86	0x3deb68dd	0.114946105
87	0x3e378622	0.17922261
88	0xbdbb4ae7	-0.09145146
89	0xbea5f02e	-0.32409805
90	0xbe6c8e32	-0.23101118
91	0x3d5aca74	0.05341573
92	0x3e04bf11	0.12963511
93	0x3ea398a0	0.3195238
94	0xbdb1ae3e	-0.08675812
95	0x3e2e85f9	0.17043294
96	0x3ca2d117	0.019875092
97	0x3b962167	0.0045816186
98	0x3e6e47dd	0.23269601
99	0xbd346932	-0.044045635
100	0x3dcac67f	0.099011414
101	0x3dfa9131	0.12234724
102	0xbe96e5c5	-0.29472175
103	0x3e701e4b	0.23449056
104	0xbe5df956	-0.21677145
105	0x3e8eec3e	0.27914613
106	0x3dcd2aff	0.100179665
107	0x3dcdd506	0.100503966
108	0x3e384f4b	0.17998998
109	0x3d0169e4	0.031595126
110	0xb9bc8565	-0.0003595754
111	0x3e3ec2a3	0.18628936
112	0xbe0aede2	-0.13567308
113	0x3ec7be5b	0.39012417
114	0x3e8e0353	0.2773691
115	0x3e4195d2	0.18904808
116	0x3eac8996	0.3369872
117	0xbeaf66e1	-0.34258178
118	0xbeb34026	-0.3500988
119	0x3d8b6f6c	0.068083614
120	0x3e355e47	0.17711745
121	0xbe87f689	-0.2655528
122	0x3cfc94da	0.030832697
123	0x3e482704	0.19546133
124	0x3e135823	0.1438909
125	0xbdb13e7b	-0.08654495
126	0xbc30e2af	-0.010796233
127	0x3d7108b5	0.058846194
128	0xbead32a1	-0.3382769
129	0xbec6b776	-0.38811845
130	0x3e222f83	0.15838437
131	0xbdc9e211	-0.09857572
132	0x3e6e0499	0.23243941
133	0xbd3fb393	-0.046802115
134	0xbd1fbd30	-0.038998783
135	0xbed5dad3	-0.41768512
136	0x3d65b44d	0.05608015
137	0xbe80b28b	-0.25136217
138	0xbe43b249	-0.19110979
139	0xbd0cd9e4	-0.034387484
140	0x3eddaf78	0.43297935
141	0xbe41ee77	-0.18938623
142	0x3eb9fb31	0.36324456
143	0x3d2f1a5a	0.04274974
144	0xbdde792b	-0.10862955
145	0xbdfe6261	-0.12421108
146	0xbdab3d6b	-0.08361324
147	0xbe8aee23	-0.2713481
148	0xbce308e5	-0.027714202
149	0x3e99441b	0.29934773
150	0xbdffbc59	-0.12487096
151	0xbe591426	-0.21199092
152	0xbece40c1	-0.40283778
153	0x3e669661	0.22518303
154	0xbe0a7dc1	-0.13524534
155	0xbe5823e1	-0.21107437
156	0x3d61b157	0.055100765
157	0xbe526899	-0.20547713
158	0xbdb71d2e	-0.089411125
159	0xbeaaf793	-0.3339201
160	0x3d2f1807	0.042747524
161	0xbdfefc6b	-0.12450489
162	0x3e01bdd7	0.12670074
163	0x3cdd83a3	0.027040308
164	0x3de3bbf9	0.11119837
165	0xbe0590a5	-0.13043459
166	0xbd7e0012	-0.062011786
167	0x3e352ac4	0.17692095
168	0xbe97e361	-0.29665664
169	0x3e102bc4	0.14079195
170	0xbe6b3f38	-0.22973335
171	0xbe2be62c	-0.16787022
172	0xbe6f2a61	-0.2335601
173	0xbe2d186a	-0.16903844
174	0x3ded86c7	0.11597972
175	0x3e01692b	0.12637775
176	0x3ea9ed40	0.3318882
177	0x3e3dd482	0.18538097
178	0xbe8a177c	-0.26971042
179	0x3c6ade17	0.014335177
180	0xbea5f50e	-0.32413524
181	0x3d74927e	0.05971002
182	0xbd788563	-0.060674082
183	0xbdc0e59c	-0.094187945
184	0xbd9126e4	-0.07087496
185	0xbd61f5bc	-0.05516599
186	0x3ca4a83e	0.020099755
187	0xbe4cc28a	-0.19996086
188	0xbdae4cdb	-0.08510753
189	0x3e40126d	0.18757029
190	0xbcef864c	-0.029238842
191	0x3c90acb1	0.01766047
192	0x3e16529a	0.14679947
193	0xbe0041f5	-0.1252516
194	0x3e102bbb	0.14079182
195	0xbd74c746	-0.059760354
196	0xbe49c870	-0.19705367
197	0xbd479b2d	-0.04873197
198	0x3e24da9d	0.1609902
199	0xbe812243	-0.25221452

mu.2.weight f4 [200, 200]
0	0xbe843175	-0.25818983
1	0x3d74a55e	0.05972802
2	0x3e3390fa	0.17535773
3	0xbd8fd77f	-0.070235245
4	0x3e527ada	0.20554677
5	0xbd7aaf77	-0.061202493
6	0xbd58e021	-0.05294812
7	0xbd4c44d2	-0.04987032
8	0xbe231782	-0.15926936
9	0xbead6018	-0.33862376
10	0x3d95a93e	0.07307671
11	0xbdb8e6e0	-0.09028411
12	0x3d13b25c	0.03605877
13	0xbe93d301	-0.2887192
14	0xbe1176e1	-0.14205505
15	0xbdf4725f	-0.11935877
16	0x3e3d0a62	0.18460992
17	0xbd5bb589	-0.053639922
18	0x3e634219	0.22193183
19	0x3dae70c2	0.085176006
20	0x3c36933c	0.011143502
21	0x3849f055	4.814596e-05
22	0xbd10a6ea	-0.03531543
23	0x3eb3865b	0.35063443
24	0x3d0e3e77	0.03472754
25	0x3c410325	0.011780535
26	0x3cf9d089	0.030494945
27	0x3e61df90	0.22057939
28	0x3d144068	0.036194235
29	0x3d047f26	0.03234782
30	0x3e3be627	0.18349515
31	0x3e8e657c	0.278118
32	0xbecf3669	-0.404712
33	0x3db539e8	0.08848935
34	0xbe023766	-0.12716445
35	0x3d32e2b0	0.043673217
36	0xbeb87bdb	-0.36031994
37	0x3ca99741	0.020702006
38	0x3e4a12cc	0.19733733
39	0xbdbd8328	-0.09253532
40	0xbd8c5f24	-0.06854084
41	0x3debccc9	0.11513669
42	0xbd556714	-0.052100256
43	0x3e0f94c5	0.14021595
44	0xbd8c9685	-0.06864647
45	0x3f2f2e57	0.68430084
46	0x3e3f6181	0.18689539
47	0x3e363548	0.17793763
48	0x3ca5b5cd	0.02022829
49	0x3d379082	0.044815548
50	0xbd06c15d	-0.03289925
51	0xbf03b20b	-0.51443547
52	0xbd6b7ecf	-0.05749398
53	0xbd37ada4	-0.04484333
54	0xbdbc4b54	-0.09194055
55	0xbd50b20e	-0.050951056
56	0x3da35f7a	0.07977195
57	0x3da2b9bf	0.079455845
58	0xbde2dbe5	-0.11077098
59	0xbc5588b2	-0.013033079
60	0xbe1719c0	-0.14755917
61	0x3d988745	0.074476756
62	0xbe6d1555	-0.23152669
63	0xbde2d766	-0.1107624
64	0xbd9c4249	-0.076298304
65	0xbef4efc7	-0.47839186
66	0x3d545719	0.051840875
67	0xbd2c2e8b	-0.042036574
68	0xbe096638	-0.134179
69	0xbccbce48	-0.024878636
70	0x3e28882d	0.16458197
71	0x3d3bfa51	0.045893017
72	0x3e172816	0.14761385
73	0x3e5608da	0.20901814
74	0xbc8b3488	-0.016992822
75	0x3df84adc	0.12123653
76	0x3c6815bb	0.014165337
77	0xbdad9362	-0.08475377
78	0xbd63a52d	-0.055577446
79	0xbdc9408a	-0.09826763
80	0xbd6dfd05	-0.058102626
81	0x3e71256e	0.23549435
82	0x3b78f249	0.003798621
83	0xbf1f2435	-0.6216462
84	0xbf334caa	-0.70038855
85	0xbc24afbf	-0.010051667
86	0xbe4b62f2	-0.19861963
87	0xbca6706d	-0.02031728
88	0x3d0960e1	0.033539657
89	0x3c1d2fd9	0.009593927
90	0x3e0aa690	0.13540101
91	0xbd7cb9e7	-0.061700728
92	0xbd9fb68f	-0.07798492
93	0x3c966652	0.018359337
94	0xbd13feb0	-0.03613156
95	0xbf1b2371	-0.60600954
96	0xbec67987	-0.38764593
97	0xbd0b16db	-0.033957344
98	0xbe3da29a	-0.18519059
99	0xbd1df466	-0.038563155
100	0xbe887c56	-0.2665736
101	0x3db44a18	0.08803195
102	0xbd217c23	-0.039425027
103	0x3cdd8834	0.027042486
104	0x3d3e734d	0.04649668
105	0xbd58eb48	-0.052958757
106	0x3d3d2c57	0.046184864
107	0x3d11faa4	0.03563942
108	0x3e61bd9f	0.22044991
109	0x3deab760	0.11460757
110	0xbf464ffb	-0.7746579
111	0xbf097dd9	-0.53707653
112	0x3e2e79dc	0.17038673
113	0x3d6de176	0.058076344
114	0x3e3b8110	0.18310952
115	0x3c1bd1b2	0.0095104445
116	0xbe8ea4e5	-0.2786018
117	0x3dfe13cc	0.1240612
118	0xbf7d087a	-0.9884106
119	0xbb5925ba	-0.003313406
120	0x3d96bc7a	0.07360168
121	0xbe53845e	-0.20655963
122	0x3dbc6ad7	0.092000656
123	0xbe6c5203	-0.2307816
124	0xbe2eee0a	-0.17082992
125	0x3db84b2d	0.08998714
126	0x3bc4b68a	0.0060032057
127	0xbcb80504	-0.02246333
128	0x3e1546f5	0.14577849
129	0xbe60a414	-0.21937591
130	0x3db754d8	0.089517295
131	0x3db61b05	0.08891872
132	0x3f2809b4	0.65639806
133	0x3e652f03	0.22381215
134	0xbeee09ce	-0.46491855
135	0xbf28885e	-0.6583308
136	0x3daa8581	0.08326245
137	0xbc2ca6d1	-0.010537819
138	0x3d32ccbb	0.043652277
139	0xbe11ae1f	-0.14226578
140	0x3b23a72d	0.002497147
141	0x3d356cef	0.04429334
142	0x3db95986	0.09050278
143	0xbd5f9990	-0.054589808
144	0xbda11702	-0.078657165
145	0xbe6117d1	-0.21981741
146	0xbf14108c	-0.5783775
147	0xbec97a1f	-0.39350984
148	0xbe523d25	-0.20531137
149	0xbdbb828a	-0.09155758
150	0x3e212f61	0.1574073
151	0xbd6980d9	-0.057007644
152	0xbd69178b	-0.056907218
153	0xbe620c24	-0.22074944
154	0xbf75c2bd	-0.9600027
155	0x3cc4072a	0.023929197
156	0x3cf65f90	0.030074865
157	0x3dce3874	0.10069361
158	0x3e71e58d	0.23622723
159	0xbf28bb9e	-0.6591128
160	0xbc0542c0	-0.00813359
161	0xbcd6ef06	-0.026237022
162	0xbcce9eda	-0.02522223
163	0xbd834fcb	-0.06411704
164	0x3e021ebc	0.12707037
165	0xbe1d218e	-0.15344831
166	0xbe47d33b	-0.19514172
167	0xbd30e400	-0.043186188
168	0x3e5ef03c	0.2177133
169	0xbe169a1c	-0.14707226
170	0x3bdc3c54	0.006721059
171	0xbe679aaf	-0.22617601
172	0x3eaf37dd	0.34222308
173	0xbea19888	-0.31561685
174	0xbde2a73b	-0.11067053
175	0xbe2e274a	-0.17007175
176	0xbd0a060a	-0.033697166
177	0x3e3507b1	0.17678715
178	0xbdaf4a4c	-0.08559093
179	0x3ed17681	0.40910724
180	0xbe7560dd	-0.23962732
181	0x3d504d2a	0.05085484
182	0xbc9bbc63	-0.019010728
183	0x3d26bb49	0.040705953
184	0x3e95be17	0.2924659
185	0xbe7328cd	-0.23746033
186	0xbd5166f9	-0.051123593
187	0xbdbfbce2	-0.093621984
188	0xbf0777d5	-0.52917224
189	0xbcbbe90c	-0.022938274
190	0xbda496a7	-0.08036547
191	0xbe9e325f	-0.30897805
192	0x3aaaa50c	0.0013019159
193	0xbf78d6b6	-0.9720262
194	0xbccd90a8	-0.025093392
195	0x3eb48fc0	0.35265923
196	0x3e578b7c	0.21049303
197	0xbd0d088c	-0.03443198
198	0xbd290124	-0.041260853
199	0xbe8bfdfe	-0.27342218
200	0xbd003577	-0.031300988
201	0x3d2b7555	0.041859943
202	0xbdd8f327	-0.10593253
203	0xbc83ca0b	-0.016087553
204	0xbe8de465	-0.27713314
205	0xbcad1b49	-0.021131175
206	0xbceea66b	-0.029132089
207	0x3cdf3e88	0.027251497
208	0xbc46dbae	-0.012137337
209	0x3da4189c	0.08012506
210	0xbcafce77	-0.021460755
211	0xbe9f0d96	-0.31065053
212	0xbde7af0b	-0.11312684
213	0xbdaf96f8	-0.08573717
214	0x3dba861c	0.091076106
215	0xbf230ecd	-0.6369446
216	0xbd1b7a26	-0.037958287
217	0x3d456e41	0.04820085
218	0x3e86bad6	0.2631442
219	0xbd8c0883	-0.06837561
220	0xbad441bf	-0.001619391
221	0x3ba14a09	0.0049221558
222	0x3e3cac68	0.18425143
223	0xbe222211	-0.15833308
224	0x3eaeaf37	0.34118053
225	0x3c764e17	0.0150332665
226	0xbde55c54	-0.11199251
227	0x3d8cbe74	0.068722636
228	0x3b435881	0.002980739
229	0x3ce5aeb0	0.028037399
230	0x3ea0e432	0.314241
231	0x3d203f18	0.03912267
232	0x3dd139e2	0.102161184
233	0x3e1bd4df	0.15217923
234	0xbdcfe758	-0.10151547
235	0xbd47d96e	-0.04879134
236	0x3ce439d4	0.027859606
237	0xbdb5597f	-0.08854961
238	0x3e03f4da	0.12886372
239	0x3ba41b6b	0.0050081513
240	0x3e8ec820	0.27887058
241	0xbd044982	-0.032296665
242	0x3d4bd319	0.049761865
243	0x3d31332f	0.043261703
244	0xbc931edc	-0.01795905
245	0xbc01df64	-0.007926796
246	0x3d959ed1	0.073056825
247	0xbd961fb8	-0.073302686
248	0xbe5887ce	-0.21145555
249	0x3d4c3aeb	0.049860876
250	0xbe968e04	-0.29405224
251	0xbbc040df	-0.0058671082
252	0x3e40557d	0.18782611
253	0xbd964815	-0.07337967
254	0xbe9f8722	-0.31157786
255	0x3eb14a10	0.34626818

mu.2.bias f4 [200]
0	0x3d8f89b7	0.07008689
1	0x3da30a89	0.07960994
2	0xbb91f36e	-0.004454068
3	0xbd49b041	-0.049240354
4	0x3cff637c	0.031175368
5	0x3db58ec8	0.08865124
6	0xbc20d632	-0.009816693
7	0x3c388696	0.011262557
8	0x3cd1f964	0.025631614
9	0x3c35c01b	0.011093165
10	0xbd6bc5f4	-0.05756183
11	0xbd325ab7	-0.043543544
12	0xbc07d915	-0.0082915025
13	0xbcacc2ef	-0.021089045
14	0x3d1a7e77	0.037718263
15	0x3d569f89	0.05239824
16	0xbc38eff1	-0.011287675
17	0x3b74016c	0.0037232293
18	0x3d600f1e	0.054701917
19	0x3d44f554	0.048085526
20	0x3db41aff	0.087942116
21	0x3dc14e59	0.09438772
22	0xbc19f1d3	-0.009396034
23	0xbd3474ad	-0.044056583
24	0x3d5baf6c	0.053634092
25	0x3de83e73	0.11340036
26	0x3d6ccf1a	0.057814695
27	0xbd14569d	-0.036215413
28	0x3e048aef	0.12943624
29	0x3d3db226	0.046312474
30	0x3cba9120	0.02277428
31	0xbd2620a3	-0.04055847
32	0x3ca080e9	0.01959272
33	0xbdbe4417	-0.09290331
34	0x3da34b52	0.079733506
35	0x3cb8282d	0.022480095
36	0x3d41101e	0.04713451
37	0x3d416b46	0.047221445
38	0x3c9a5111	0.018837484
39	0x3c65545e	0.0139971655
40	0x3dd73ab5	0.10509244
41	0xbd43368c	-0.04765944
42	0x3dc96207	0.0983315
43	0xbb0efa38	-0.0021816622
44	0xbb8ccbf4	-0.004296774
45	0x3d080f18	0.03321752
46	0xbd3fcdc4	-0.046827093
47	0xbd65f227	-0.056139138
48	0xbd5ba724	-0.053626195
49	0xbdbab034	-0.09115639
50	0xbdafd6a4	-0.08585861
51	0xbd0a0756	-0.033698402
52	0x3e50d87a	0.2039508
53	0xbd226723	-0.03964914
54	0xbab6c5fb	-0.0013944501
55	0x3d322e15	0.04350098
56	0x3c98b491	0.018640788
57	0x3d8567cb	0.065139376
58	0x3b76dd45	0.0037668508
59	0x3d3ee0a6	0.04660096
60	0xbc9e1ab7	-0.019299848
61	0xbe526e1e	-0.20549819
62	0xbd2cb7b1	-0.04216737
63	0xbdd361ec	-0.103214115
64	0x3d3ea477	0.046543565
65	0xbc7cdc89	-0.015433439
66	0x3da2c87b	0.07948395
67	0x3c81b569	0.015833573
68	0xbc96f429	-0.018426972
69	0x3d99edb3	0.07516041
70	0xbd921056	-0.07132022
71	0x3c3483c0	0.01101774
72	0x3c82bd12	0.015959296
73	0x3acedb20	0.0015781857
74	0x3b0cad38	0.002146555
75	0x3d88d261	0.066807516
76	0x3c14e392	0.00908746
77	0x3d2c5d00	0.04208088
78	0x3d91a9b5	0.07112447
79	0x3d4c651f	0.049901124
80	0x3d8b1484	0.067910224
81	0x3cd7edd1	0.026358517
82	0x3ce81152	0.028328571
83	0xbdcc14ae	-0.09964882
84	0xbd84c526	-0.064829156
85	0x3d1f06cd	0.038824845
86	0x3cdf1f9f	0.027236758
87	0x3a61947a	0.00086051936
88	0xbc83bd9f	-0.01608163
89	0x3d532b21	0.051554803
90	0xbc4eedac	-0.012629908
91	0x3d5dd7de	0.054160945
92	0x3d83532b	0.064123474
93	0x3d455669	0.04817811
94	0x3d450481	0.0481
95	0xbd84e8b0	-0.06489694
96	0xbd090374	-0.03345056
97	0x3d7015a2	0.05861438
98	0x3cfaafe7	0.030601455
99	0xbd6f2566	-0.058385275
100	0x3cb78276	0.022401076
101	0x3ce7ad4a	0.028280873
102	0xbd75c502	-0.060002334
103	0xbc0ecbbd	-0.008715567
104	0xbd570c92	-0.052502222
105	0x3dc25944	0.09489682
106	0x3dbd594d	0.092455484
107	0x3d03ee2e	0.032209568
108	0xbc0d02aa	-0.008606592
109	0xbd26aa53	-0.040689778
110	0x3bc04d92	0.005868622
111	0x3d476a16	0.048685156
112	0xbdc27aae	-0.094960555
113	0x3d0b666c	0.034033224
114	0x3dbdd190	0.092684865
115	0x3dfd7dfa	0.12377544
116	0xbd7ea6e5	-0.06217088
117	0x3d8cf6d4	0.06883016
118	0x3c16fc36	0.009215405
119	0xbd8d7e46	-0.0690885
120	0x3d27fabd	0.041010607
121	0x3cb30e24	0.021857329
122	0xbb9cfd25	-0.0047909194
123	0xbdd9ae21	-0.106289156
124	0x3d1d1e8a	0.038359202
125	0x3d835f52	0.06414665
126	0x3d984465	0.0743492
127	0xbd5791e6	-0.052629374
128	0x3deac085	0.114625014
129	0x3cbc2538	0.022966966
130	0x3dd44038	0.10363811
131	0x3d95edb0	0.07320726
132	0xbd2f4baa	-0.04279677
133	0xbd011979	-0.031518433
134	0x3d2962da	0.041354038
135	0x3c2a396b	0.010389666
136	0xbd87e2dd	-0.066350676
137	0xbdf6081c	-0.120132655
138	0x3d12e54a	0.0358632
139	0xbd40cf6c	-0.047072813
140	0xbcd65d2f	-0.02616748
141	0x3da690e0	0.081331015
142	0x3db28a2d	0.08717761
143	0xbd860aa2	-0.06544997
144	0xbcc9e850	-0.024646908
145	0xbcbfac43	-0.02339757
146	0x3d132d77	0.03593203
147	0x3d989b2c	0.07451472
148	0x3dad425a	0.08459921
149	0xbcabbd18	-0.02096419
150	0x3d2e419c	0.04254304
151	0xbdde4661	-0.108532675
152	0xbd456935	-0.048196036
153	0xbaefe00f	-0.0018301028
154	0x3d9155df	0.07096457
155	0x3c80faa7	0.01574452
156	0x3baac45a	0.005211395
157	0x3dd75293	0.10513797
158	0x3d505b7a	0.05086849
159	0x3c8f3ca2	0.017484967
160	0x3d0b95ad	0.03407829
161	0x3df0e72a	0.11762841
162	0xbd9e0bc7	-0.0771709
163	0x3d8158bc	0.06315753
164	0x3d510b4a	0.051036157
165	0x3ccfbda9	0.025358992
166	0x3c099645	0.008397643
167	0x3d9001fb	0.07031628
168	0x3ddc07e1	0.1074369
169	0xbe191055	-0.14947636
170	0xbcf18cb2	-0.029486034
171	0xbcbe1ac2	-0.023206118
172	0xbc3269aa	-0.01088945
173	0xbcf0a681	-0.02937627
174	0xbce11a30	-0.027478307
175	0x3d5c1ed1	0.053740326
176	0x3d2d7951	0.042352024
177	0xbd32d942	-0.043664224
178	0xbcfed813	-0.031108892
179	0xbd5317d8	-0.05153641
180	0x3dc47cd5	0.09594122
181	0x3d3affeb	0.04565422
182	0xbd710d8d	-0.058850814
183	0x3d864b3f	0.06557321
184	0x3d6cba19	0.057794664
185	0x3d9eb0be	0.07748555
186	0x3ca8358c	0.020533346
187	0x3cabe814	0.020984687
188	0xbd44dbc1	-0.048061136
189	0x3c249da5	0.010047351
190	0xbd902603	-0.070385
191	0xbcb90871	-0.022587033
192	0x3cf8f461	0.030389966
193	0x3d9cc5d6	0.07654922
194	0xbb88166f	-0.004153065
195	0x3d2295f0	0.039693773
196	0xbdf33d43	-0.11876919
197	0xbc7636f3	-0.015027749
198	0xbe159a50	-0.14609647
199	0x3cd4d151	0.025978716

mu.4.weight f4 [12, 200]
0	0xbe76c8d3	-0.24100046
1	0x3e7959a6	0.24350604
2	0xbc446c6a	-0.011988739
3	0xbe196776	-0.14980873
4	0x3d1472a6	0.03624215
5	0x3e83c43e	0.25735658
6	0xbe3453de	-0.17610118
7	0x3c19a9c4	0.009378854
8	0xbdd943cb	-0.106086336
9	0xbde924b5	-0.113839544
10	0x3ccda2be	0.025102016
11	0xbd30f0a7	-0.043198254
12	0xbeaaea33	-0.33381805
13	0x3ccb32ff	0.02480459
14	0xbdbfd6a2	-0.0936711
15	0xbe100f5a	-0.14068356
16	0x3dca380e	0.09873973
17	0x3e174372	0.14771822
18	0x3e379a9f	0.17930077
19	0xbd2a9b74	-0.041652158
20	0x3e81f679	0.25383356
21	0x3c0cdf49	0.008598157
22	0xbeb11287	-0.34584448
23	0x3cab7579	0.020930039
24	0x3d60f8ae	0.05492466
25	0xbdd1ee91	-0.10250581
26	0x3e400ab0	0.18754077
27	0x3d5c5392	0.053790636
28	0xbc904b93	-0.017614162
29	0xbe1a0a49	-0.15042986
30	0x3e3f4ca6	0.18681583
31	0xbb782373	-0.0037862926
32	0xbd790a9b	-0.06080113
33	0xbdea83a9	-0.114508934
34	0xbe080cfc	-0.13286203
35	0x3e23000a	0.15917984
36	0xbdaa0b47	-0.08302932
37	0x3ddd279c	0.107985705
38	0xbe0cf798	-0.13766325
39	0xbdb93832	-0.090439215
40	0x3dbe7d03	0.09301188
41	0x3dfbf1a1	0.123019464
42	0xbd84b831	-0.06480444
43	0x3e63c9be	0.22244927
44	0xbd921388	-0.071326315
45	0xbdf0bb16	-0.11754434
46	0xbde6d8d7	-0.11271828
47	0x3e32014f	0.17383312
48	0x3ef90abb	0.48641
49	0xbe540dfc	-0.2070846
50	0x3e88a11f	0.26685426
51	0xbe7fb61e	-0.24971816
52	0xb96c5dc6	-0.00022541647
53	0x3e13cd05	0.14433677
54	0x3d1f1b54	0.03884442
55	0x3d898e6f	0.0671662
56	0xbd8d9d70	-0.069147944
57	0x3d25ac2f	0.04044741
58	0xbd79b8d0	-0.060967267
59	0x3d3a091e	0.04541885
60	0xbc8f9231	-0.017525764
61	0x3e091176	0.13385567
62	0x3e6288c0	0.22122478
63	0x3d21cab5	0.039499957
64	0xbd8c73ad	-0.06858001
65	0xbdcef4b1	-0.10105265
66	0xbe94f92b	-0.2909635
67	0x3e5d7bae	0.21629211
68	0xbe279d0c	-0.16368502
69	0x3da5b468	0.080910504
70	0xbda94709	-0.08265502
71	0xbd6c4c8f	-0.0576902
72	0x3eb27015	0.34851137
73	0x3e8c8258	0.27443194
74	0x3e852757	0.26006576
75	0x3e4c208f	0.19934295
76	0x3d3984f3	0.045292806
77	0xbe859091	-0.26086858
78	0x3e5be263	0.21473078
79	0xbe242558	-0.1602987
80	0xbe052873	-0.13003711
81	0xbd24af7c	-0.040206417
82	0x3df15984	0.11784652
83	0x3d8f257e	0.06989573
84	0xbd01514d	-0.031571675
85	0xbdc04b21	-0.0938933
86	0x3d9103ec	0.07080826
87	0xbe330fcb	-0.17486493
88	0x3ae5454f	0.0017491969
89	0xbdd23200	-0.10263443
90	0xbd88c907	-0.06678968
91	0x3d976934	0.07393113
92	0xbdc88a23	-0.097919725
93	0xbdcfe17b	-0.10150429
94	0xbe09ef8b	-0.13470285
95	0xbd5a8169	-0.05334607
96	0xbaf0ecbe	-0.0018381102
97	0x3deab62f	0.1146053
98	0x3c242850	0.010019377
99	0x3b3cc957	0.0028806531
100	0x3da839aa	0.082141235
101	0xbb8b981a	-0.0042600753
102	0xbdbafa33	-0.09129753
103	0xbde3ee6e	-0.11129461
104	0xbca78d50	-0.020453125
105	0xbe2d5017	-0.16925083
106	0x3cfbada7	0.030722452
107	0xbe2d4a9d	-0.16922994
108	0xbd5dbdf6	-0.05413624
109	0x3dbb052c	0.09131846
110	0x3e0d5cf9	0.13804998
111	0xbdd744a6	-0.105111405
112	0x3e109e5d	0.14122911
113	0xbe8fa751	-0.2805734
114	0xbd0cf012	-0.034408636
115	0x3cf41306	0.029794227
116	0xbd55a37b	-0.05215786
117	0x3d8d5cec	0.06902489
118	0x3e8d37d8	0.27581668
119	0x3e06fd25	0.13182504
120	0xbd3be5b2	-0.04587335
121	0x3e1a244c	0.15052909
122	0x3b409a1d	0.0029388734
123	0x3d2d6bff	0.04233932
124	0xbd8ab490	-0.06772721
125	0x3dbe9624	0.09305981
126	0x3e038e4f	0.12847255
127	0xbea9c4d6	-0.33157986
128	0x3d878d88	0.06618792
129	0xbe07a58e	-0.13246748
130	0xbe05bd9b	-0.1306061
131	0x3d374391	0.04474217
132	0xbda85bc8	-0.08220631
133	0xbcdafa2b	-0.026730618
134	0x3d95c0f5	0.07312194
135	0xbd197e46	-0.03747394
136	0xbdb3489c	-0.087540835
137	0x3ea1a8d2	0.31574112
138	0xbd436864	-0.047706977
139	0x3c4b9ad8	0.012427054
140	0xbdeda1ae	-0.116031036
141	0xbe41d5e0	-0.18929243
142	0x3db032f4	0.086034685
143	0x3ea564d6	0.32303494
144	0xbccc5a48	-0.024945393
145	0x3e64bcc0	0.22337627
146	0x3c9e2ee7	0.019309474
147	0xbd0a1d95	-0.033719618
148	0x3e0c0db4	0.13677102
149	0xbca018e1	-0.019543113
150	0xbe2d1211	-0.16901423
151	0x3f058035	0.52148753
152	0xbc32567c	-0.010884877
153	0x3e90db25	0.28292194
154	0x3da57e5b	0.08080741
155	0x3d16965e	0.036764495
156	0xbece2f77	-0.40270588
157	0xbdc69bfd	-0.09697721
158	0x3c859885	0.016308079
159	0x3ca10465	0.019655416
160	0xbe533805	-0.20626839
161	0xbe5ad146	-0.21368894
162	0xbcb9ef96	-0.022697251
163	0x3e281107	0.16412745
164	0xbb0ae403	-0.0021193034
165	0x3dcb9f27	0.09942465
166	0xb9df4c1d	-0.00042590583
167	0xbd9493ff	-0.072547905
168	0x3d6727a4	0.05643429
169	0xbd9116a6	-0.07084398
170	0x3c359ebb	0.011085208
171	0x3e0cdddc	0.13756508
172	0x3d304804	0.04303743
173	0xbd426429	-0.0474588
174	0xbd6770a1	-0.056503896
175	0x3c16534c	0.009175133
176	0x3b2a41db	0.0025979194
177	0xbd6548d8	-0.055977672
178	0xbd532d42	-0.051556833
179	0xbe147494	-0.14497596
180	0x3c474649	0.012162753
181	0xbdd9b190	-0.106295705
182	0x3d4531fe	0.04814338
183	0xbe029a87	-0.1275426
184	0xbc9bfad2	-0.019040499
185	0xbea257cb	-0.31707606
186	0x3e70b508	0.23506558
187	0xbdc51649	-0.09623391
188	0x3e831761	0.25603774
189	0x3e027878	0.12741268
190	0x3e2d85be	0.1694555
191	0xbd50f367	-0.051013377
192	0x3dad3ad3	0.084584855
193	0xbe1e08cd	-0.15433045
194	0xbe241d41	-0.16026784
195	0xbe05a5c4	-0.13051516
196	0xbe3875e9	-0.18013729
197	0xbe612386	-0.21986207
198	0xbd6f7f4b	-0.058471005
199	0xbd5fbb0c	-0.05462174
200	0xbf0bed03	-0.54658526
201	0x3dd117db	0.10209628
202	0x3e293059	0.1652235
203	0xbd64779f	-0.055778142
204	0x3e386ac7	0.18009482
205	0x3c4d0e26	0.01251558
206	0xbe40a0a3	-0.18811278
207	0xbe5f8b71	-0.21830536
208	0xbe800ddb	-0.2501057
209	0xbe104186	-0.14087495
210	0xbdf2fa34	-0.11864129
211	0x3d1fa103	0.038971912
212	0xbe61b1ce	-0.22040483
213	0xbb20e501	-0.002455056
214	0xbcb16b4f	-0.021657614
215	0xbbaa097e	-0.00518912
216	0xbd2648c6	-0.040596746
217	0x3e116d1d	0.1420178
218	0x3db15198	0.08658141
219	0x3dcb1572	0.099162
220	0xbe83ab1d	-0.25716487
221	0x3c9993cd	0.018747235
222	0x3da4cbdc	0.080466956
223	0x3e2a3b17	0.16624103
224	0x3e49d7e3	0.1971126
225	0xbbdb2c06	-0.0066885976
226	0xbd216ec5	-0.03941228
227	0xbdc402c4	-0.0957084
228	0x3e2c9ab9	0.16855897
229	0x3e6c4848	0.23074448
230	0xbf1fcc25	-0.62420875
231	0xbd82e298	-0.063908756
232	0x3d8fd9dd	0.07023976
233	0xbbfad0ae	-0.007654271
234	0x3e3057c7	0.17220984
235	0x3e3ee138	0.18640602
236	0xbe9af1d9	-0.3026264
237	0x3d782f5f	0.06059205
238	0xbe4118cd	-0.18857117
239	0x3e04019a	0.12891236
240	0x3a8188d5	0.0009882698
241	0xbdbf133a	-0.09329839
242	0xbe0b4a6d	-0.1360261
243	0xbe3b6333	-0.1829956
244	0x3c839e3f	0.016066669
245	0xbe8aa4b9	-0.27078798
246	0xbd8db48d	-0.06919203
247	0xbbbcd594	-0.005762765
248	0xbe78d01e	-0.2429814
249	0xbe87789d	-0.26459208
250	0xbd83d17c	-0.0643644
251	0xbdb601c6	-0.08887057
252	0x3df36def	0.118862025
253	0xbe8c7989	-0.27436474
254	0x3e1dfb26	0.15427837
255	0x3ea75c28	0.32687497

mu.4.bias f4 [12]
0	0xbd219f6e	-0.039458685
1	0x3ce0b500	0.027430058
2	0xbcfabd0e	-0.030607726
3	0x3c965b44	0.018354066
4	0x3d43561e	0.04768955
5	0xbc87ff79	-0.016601311
6	0xbc8a0109	-0.016846197
7	0xbd3fe85b	-0.04685245
8	0x3bec67a1	0.007214502
9	0xbca517c4	-0.020152934
10	0x3d088c5a	0.033336975
11	0xbcd61137	-0.026131256

reward_fun.0.weight f4 [200, 14]
0	0x3e09e49a	0.13466111
1	0xbdb75bf3	-0.08953085
2	0xbdacc25b	-0.08435508
3	0xbe965a8d	-0.2936596
4	0x3d5d989f	0.05410063
5	0x3e880f7b	0.2657431
6	0x3e3e3ebe	0.18578622
7	0xbe26d76c	-0.16293114
8	0xbd9c0c8a	-0.07619579
9	0x3e80faec	0.25191438
10	0x3e13abca	0.14421001
11	0xbea0abb3	-0.31380996
12	0xbe940744	-0.28911793
13	0x3e917474	0.2840916
14	0x3e11ca3a	0.142373
15	0x3e69cfa9	0.22833122
16	0xbc68dfb5	-0.014213492
17	0xbd4d7a94	-0.050165728
18	0xbe43efbd	-0.19134422
19	0xbd0aee3b	-0.0339186
20	0xbea947c3	-0.33062562
21	0x3e4f5331	0.20246579
22	0xbd687d36	-0.056760035
23	0xbd27ba3b	-0.040949088
24	0xbe4a6689	-0.19765677
25	0x3ea008f1	0.31256822
26	0x3e42121b	0.18952219
27	0x3e8cd771	0.2750812
28	0x3e8ce503	0.27518472
29	0xbe13cbf6	-0.14433274
30	0x3e546a9b	0.20743792
31	0xbe42f786	-0.19039735
32	0xbe2fccee	-0.17168018
33	0xbdf7d104	-0.121004134
34	0x3e340390	0.17579484
35	0x3e175118	0.14777029
36	0xbdccac03	-0.09993746
37	0xbd866dab	-0.06563886
38	0x3ec9dba1	0.39425376
39	0xbed8d5a1	-0.42350486
40	0x3dfe6d1d	0.124231555
41	0x3eb57bfd	0.35446158
42	0xbe6966dc	-0.22793144
43	0xbe2eb2f5	-0.17060454
44	0xbbe25880	-0.0069075227
45	0xbe3f8f43	-0.18706994
46	0x3e6e6374	0.23280126
47	0x3ea2db88	0.31808114
48	0xbe1e5103	-0.15460591
49	0x3df4a216	0.11944978
50	0x3dba2ff3	0.09091177
51	0x3e14ae37	0.14519583
52	0xbdba1ac1	-0.09087134
53	0x3e0943a9	0.13404717
54	0x3ed67562	0.4188643
55	0xbe977953	-0.2958475
56	0xbe8940b4	-0.26807177
57	0x3dccdc17	0.10002916
58	0x3e111bbb	0.14170735
59	0x3c292d1d	0.010325697
60	0xbda13623	-0.07871654
61	0xbdbe8d8e	-0.09304343
62	0xbddc033e	-0.10742806
63	0xbd96ceb7	-0.073636465
64	0xbe09df0f	-0.13463996
65	0xbddef5f3	-0.10886755
66	0x3e545269	0.20734562
67	0xbd7ada0b	-0.0612431
68	0xbefe639d	-0.49685374
69	0xbd98ea4a	-0.07466562
70	0xbe0a9403	-0.13533024
71	0xbd13c3a1	-0.03607524
72	0x3d381cf0	0.044949472
73	0x3e885334	0.2662598
74	0xbd723651	-0.05913383
75	0x3e1cac57	0.15300117
76	0x3e2e9d77	0.17052256
77	0xbbe79c6a	-0.0070682066
78	0xbc67a72e	-0.01413898
79	0xbe347798	-0.17623746
80	0x3d4b1833	0.049583625
81	0xbe833781	-0.25628284
82	0xbdda98f6	-0.10673706
83	0xbed60177	-0.41797993
84	0x3e9c9359	0.30581167
85	0x3d9a1574	0.07523623
86	0x3e00a4d4	0.12562877
87	0xbe04d6cd	-0.12972565
88	0xbe3bca89	-0.1833898
89	0x3e429835	0.19003375
90	0xbe8f4d63	-0.2798873
91	0x3ad31407	0.0016103991
92	0x3e9275e2	0.28605562
93	0x3d77955e	0.060445182
94	0xbe2a2745	-0.16616543
95	0x3e313570	0.17305541
96	0x3d7b0762	0.061286338
97	0xbd5ab5e6	-0.053396128
98	0xbe179303	-0.14802174
99	0x3e46d1f6	0.19416031
100	0xbea97d47	-0.33103392
101	0xbe9259af	-0.28584048
102	0xbe6b25ac	-0.2296359
103	0x3e1000c0	0.14062786
104	0x3df9358f	0.121684186
105	0x3e11d84d	0.14242668
106	0xbda908e8	-0.08253652
107	0x3d9dcff3	0.07705679
108	0x3e509102	0.20367816
109	0xbac8331e	-0.0015274023
110	0xbcc0ac58	-0.02351968
111	0x3ed64eaf	0.41856906
112	0x3e3adbaf	0.18247865
113	0x3e971036	0.29504555
114	0xbebaf718	-0.36516643
115	0xbd9c502e	-0.076324806
116	0x3dcce16f	0.100039355
117	0xbc518370	-0.012787685
118	0xbe1faa6b	-0.15592353
119	0xbcc97c96	-0.02459554
120	0xbe1dd3c1	-0.15412809
121	0xbda58989	-0.080828734
122	0xbd946d87	-0.07247453
123	0xbea3e275	-0.3200871
124	0x3e69f5e8	0.22847712
125	0x3e463394	0.19355613
126	0x3ca6ded9	0.020369934
127	0x3e334445	0.17506512
128	0xbdc0cff0	-0.09414661
129	0xbd49c29d	-0.049257863
130	0x3e4e4c72	0.20146349
131	0x3be424d5	0.0069623985
132	0x3c8c6355	0.017137209
133	0x3e898ead	0.26866665
134	0x3cd46b3a	0.025930036
135	0x3e0c60d3	0.1370881
136	0x3eac0f14	0.33605254
137	0x3e3b292c	0.18277425
138	0x3d9a63c4	0.0753856
139	0xbea2a621	-0.3176737
140	0xbdc56826	-0.09639005
141	0xbdc7e593	-0.09760585
142	0x3e86ed55	0.26352945
143	0xbd3169a9	-0.043313656
144	0x3e137224	0.1439901
145	0xbd7949b5	-0.060861308
146	0x3dcd4323	0.10022571
147	0xbe939fcd	-0.28832856
148	0x3e9cc625	0.30619922
149	0x3e095964	0.13413006
150	0xbd3ced0b	-0.0461245
151	0x3e4e8219	0.20166816
152	0x3ddead71	0.10872925
153	0xbe04fcc6	-0.1298705
154	0xbe3e48e7	-0.18582498
155	0xbe0e00c3	-0.13867478
156	0xbeaab4e6	-0.3334114
157	0xbe408da8	-0.18804038
158	0xbdcf182f	-0.101120345
159	0xbc2e0ede	-0.010623662
160	0x3e147c1b	0.14500467
161	0xbe6c970f	-0.231045
162	0x3e889476	0.26675767
163	0xbdd87a3b	-0.105701886
164	0xbe0ac405	-0.13551338
165	0xbe77f600	-0.24214935
166	0x3f08eaeb	0.53483456
167	0x3b80117e	0.003908335
168	0x3d5868c5	0.05283429
169	0x3da01aee	0.078176364
170	0x3e07b849	0.13253893
171	0xbe8c0151	-0.27344754
172	0xbeada9d1	-0.33918622
173	0xbd3de775	-0.046363313
174	0x3e94fabd	0.29097548
175	0xbe873da8	-0.26414227
176	0xbdb6ef30	-0.0893234
177	0xbe1a51f3	-0.15070324
178	0x3e79f63f	0.24410342
179	0x3a348480	0.0006886199
180	0xbe49b4ae	-0.1969783
181	0xbea85a4f	-0.328814
182	0x3ebcdb68	0.36886144
183	0x3e1abbca	0.15110698
184	0xbe1b467d	-0.15163608
185	0xbe87c17c	-0.26514804
186	0xbe3224c6	-0.1739684
187	0xbcfe215f	-0.031021772
188	0xbe2fbd2d	-0.17162009
189	0x3bccc0c1	0.006248564
190	0x3b3007ca	0.0026860111
191	0x3e4beca5	0.19914491
192	0xbe21d816	-0.15805086
193	0x3e3bee00	0.18352509
194	0xbe310a16	-0.17289004
195	0xbe61996d	-0.22031184
196	0x3e8f97a0	0.28045368
197	0xbe9dfbfb	-0.30856308
198	0xbe0504de	-0.12990138
199	0x3e232d92	0.15935352
200	0x3d9153ac	0.07096037
201	0xbe4cf875	-0.20016654
202	0x3e002129	0.1251265
203	0x3dd0b43f	0.10190629
204	0x3e0624a7	0.1309992
205	0x3e8e43cf	0.2778611
206	0x3ebb94de	0.36637014
207	0xbdd12c44	-0.10213521
208	0x3eaea195	0.34107652
209	0xbe603ff5	-0.21899398
210	0xbe397e2d	-0.18114538
211	0xbe6f592f	-0.23373865
212	0x3dd86766	0.10566597
213	0xbe711e4c	-0.23546714
214	0x3d32212f	0.043488678
215	0x3eaac80b	0.33355746
216	0xbcd53951	-0.026028307
217	0xbb87bc74	-0.0041423384
218	0xbcae3e5a	-0.021269966
219	0x3e0de4a5	0.13856752
220	0x3e8bc297	0.27296898
221	0x3e4649c6	0.1936408
222	0x3ef624f1	0.4807506
223	0xbe1003b8	-0.14063919
224	0x3e59ae40	0.21257877
225	0x3e1f6e1e	0.1556935
226	0x3eeb9c09	0.46017483
227	0x3e3ea0af	0.18615983
228	0x3eb86bfb	0.36019883
229	0xbde6ff25	-0.11279134
230	0x3e169e63	0.14708857
231	0xbeb287d7	-0.34869263
232	0x3e10fa87	0.14158069
233	0xbe813af0	-0.25240278
234	0x3e248167	0.16064988
235	0xbd137c4b	-0.036007207
236	0x3dce60be	0.10077046
237	0xbebbb1f6	-0.3665921
238	0x3d9321ee	0.07184206
239	0x3e79faf2	0.24412134
240	0xbe562580	-0.20912743
241	0xbd078829	-0.033088837
242	0x3e101876	0.14071831
243	0xbdd68b26	-0.10475759
244	0xbe73eb7a	-0.23820296
245	0xbdd5df0f	-0.10442936
246	0xbe0ed5d1	-0.13948752
247	0xbe8d2e72	-0.27574497
248	0x3b9e1ea1	0.0048254286
249	0x3e4af4a6	0.19819888
250	0xbd4f8b01	-0.050669674
251	0xbde0db25	-0.109792985
252	0x3e2492b0	0.16071582
253	0x3e4c1147	0.19928466
254	0xbe71e7e3	-0.23623614
255	0x3e729e9b	0.23693316

reward_fun.0.bias f4 [200]
0	0xbe34e283	-0.17664532
1	0xbe2db0ce	-0.16961977
2	0xbe96adb0	-0.29429388
3	0x3e7b9449	0.24568285
4	0x3e0e9a6d	0.13926096
5	0x3e071b0e	0.13193914
6	0x3dab2c8a	0.083581045
7	0xbe6eeeb3	-0.23333244
8	0x3e074c40	0.13212681
9	0xbe5748f0	-0.21023917
10	0xbe5500f2	-0.20801142
11	0xbd95d685	-0.07316307
12	0xbe44661c	-0.19179577
13	0xbda6c90f	-0.08143818
14	0x3e4c8897	0.1997398
15	0xbde520aa	-0.11187871
16	0xbce35015	-0.027748147
17	0x3e3db355	0.18525441
18	0x3e7ba52d	0.24574728
19	0xbd29e323	-0.04147638
20	0xbe8d6c86	-0.2762186
21	0x3e08d71c	0.13363308
22	0xbdc0db29	-0.094168015
23	0xbe35572b	-0.17709033
24	0x3e367d3f	0.17821215
25	0x3d439d64	0.04775752
26	0x3dbbff2d	0.0917953
27	0x3dd61a5c	0.104542464
28	0x3e0f647d	0.14003177
29	0xbd838e35	-0.06423608
30	0x3d138479	0.036015008
31	0xbe32df0a	-0.17467895
32	0xbe5c42d3	-0.21509866
33	0xbe04a6bf	-0.12954234
34	0xbea8b49f	-0.32950303
35	0xbe5e1234	-0.21686631
36	0xbe76afa4	-0.24090439
37	0x3e3725ae	0.17885467
38	0x3df5db47	0.120047145
39	0xbc0b75f9	-0.008512014
40	0x3d9a5961	0.07536579
41	0xbe15e2a4	-0.14637238
42	0x3d1a0105	0.03759863
43	0xbe2c94e4	-0.16853672
44	0x3d55ecb9	0.05222771
45	0xbe444e44	-0.19170481
46	0x3e1b5cdd	0.15172143
47	0x3cfb4e33	0.030676937
48	0x3d5a4d9d	0.053296674
49	0xbe83eecd	-0.25768128
50	0xbba872be	-0.0051406315
51	0xbe1e0820	-0.15432787
52	0xbe7e24f9	-0.24818791
53	0x3e010d60	0.12602758
54	0x3e4fa01d	0.20275922
55	0x3cb15010	0.021644622
56	0x3d386675	0.045019586
57	0xbe3ed3dd	-0.18635507
58	0xbe1c4f51	-0.15264632
59	0xbbba98a8	-0.0056944676
60	0xbaef9bcc	-0.0018280684
61	0x3e66fe11	0.22557856
62	0xbe9bd6e2	-0.3043738
63	0xbe6087f0	-0.21926856
64	0x3e3f026f	0.18653272
65	0xbe73de09	-0.23815168
66	0xbdd94d4d	-0.10610447
67	0x3e8dc22b	0.276872
68	0xbb94092c	-0.004517695
69	0xbdfedb74	-0.12444201
70	0xbcfc967d	-0.030833477
71	0x3e16a6f8	0.14712131
72	0x3e2c3f2f	0.16820978
73	0xbe8cd6ea	-0.27507716
74	0xbe2ad2e3	-0.1668201
75	0x3e0e3d04	0.13890463
76	0xbe495b74	-0.19663793
77	0xbe66ed31	-0.22551419
78	0xbdd4d808	-0.10392767
79	0xbe3dc950	-0.18533826
80	0x3df11b02	0.117727295
81	0xbdcf2c49	-0.101158686
82	0xbdd4400b	-0.10363778
83	0x3e47c495	0.19508584
84	0xbea4a59b	-0.32157597
85	0xbdbec7e1	-0.093154676
86	0x3e06a3f6	0.13148484
87	0x3dd584f6	0.10425751
88	0xbbe36f35	-0.006940747
89	0xbe83c07f	-0.257328
90	0xbd026282	-0.031832226
91	0xbadc2918	-0.0016796915
92	0x3e59a5dd	0.21254678
93	0xbdc1706b	-0.0944527
94	0x3e67ce64	0.22637326
95	0x3d914a8f	0.07094299
96	0x3e619b91	0.22032
97	0x3e16c5d6	0.14723906
98	0xbde07d8b	-0.109614454
99	0x3e62e585	0.22157867
100	0x3e129db4	0.14317971
101	0xbe939c59	-0.2883022
102	0x3e8cecc9	0.27524403
103	0xbe26e1bf	-0.16297053
104	0xbe825f41	-0.25463298
105	0xbe782b65	-0.24235304
106	0xbd94db43	-0.07268383
107	0xbe6d9209	-0.23200239
108	0x3b3f70d2	0.0029211533
109	0xbe8d70fc	-0.27625263
110	0xbdbcf1d8	-0.092258155
111	0xbead83e4	-0.33889687
112	0xbe14969e	-0.14510581
113	0x3e6f1960	0.23349524
114	0xbe86f3c8	-0.26357865
115	0xbded6d31	-0.11593092
116	0xbe327210	-0.17426324
117	0xbe1f1ebf	-0.15539072
118	0xbe5f8e3c	-0.21831602
119	0xbe4a94b5	-0.1978329
120	0xbd6ab064	-0.057297125
121	0x3e39bdfd	0.18138881
122	0x3e322bd2	0.17399529
123	0xbd21de87	-0.03951886
124	0x3cae6126	0.021286558
125	0x3d5970ee	0.053086214
126	0xbd8819d9	-0.06645555
127	0x3d8e7a8f	0.0695697
128	0xbea79df7	-0.32737705
129	0xbe2b0aa4	-0.16703278
130	0xbc21457f	-0.009843229
131	0xbe7579e7	-0.23972283
132	0x3df8c454	0.121468216
133	0x3ddfdcbe	0.10930775
134	0x3e08a1b3	0.13342933
135	0x3cc61077	0.024177773
136	0xbdb521ba	-0.088443235
137	0xbe985bdb	-0.2975758
138	0xbe18e83a	-0.14932337
139	0xbe04336c	-0.12910241
140	0x3e5a6e8d	0.21331234
141	0x3e44f5c1	0.19234373
142	0xbe92463b	-0.28569207
143	0x3d87a78a	0.066237524
144	0x3cb31c55	0.021864096
145	0x3c9976cc	0.018733405
146	0x3c553323	0.01301268
147	0x3e263533	0.16231231
148	0xbdf48403	-0.11939242
149	0xbb9a1dde	-0.0047032675
150	0xbdd7aeae	-0.105313644
151	0x3e319240	0.17340946
152	0x3e0cd3f5	0.1375273
153	0xbe508fb3	-0.20367317
154	0x3d8675da	0.06565447
155	0xbd93a07c	-0.07208344
156	0xbd873ed7	-0.066037826
157	0xbe4304ed	-0.19044848
158	0x3e42c2b3	0.19019584
159	0x3e1c046d	0.15236063
160	0x3c5dca92	0.013537066
161	0x3df221d7	0.11822861
162	0x3db5891d	0.08864043
163	0xbdff47cd	-0.12464867
164	0x3e65efbe	0.22454736
165	0xbe0f3bde	-0.13987681
166	0x3c50aa67	0.01273594
167	0x3dc5e126	0.09662084
168	0x3d954c4c	0.07289943
169	0x3d8e8c0c	0.069603056
170	0xbe9519e3	-0.29121312
171	0xbddfa7ee	-0.10920702
172	0x3c7357e7	0.0148525005
173	0x3c3cec2d	0.011530918
174	0x3e07da64	0.13266903
175	0x3da21d30	0.07915723
176	0x3e54f254	0.20795566
177	0x3e22ffd9	0.1591791
178	0x3d7552ee	0.05989354
179	0x3e8561a9	0.2605107
180	0xbdf40a44	-0.119160205
181	0xbe95bac2	-0.29244047
182	0x3bf20f59	0.0073870835
183	0x3d1e3a26	0.038629673
184	0xbdd28ca9	-0.10280735
185	0x3d891306	0.066930816
186	0xbe9273c6	-0.28603953
187	0x3d4e5da3	0.050382268
188	0x3dae0a03	0.08498003
189	0xbea3435a	-0.31887323
190	0x3ca52b2a	0.020162184
191	0xbddd78ad	-0.10814033
192	0x3e017dbb	0.12645619
193	0x3e3e161d	0.18563123
194	0xbbc8c65f	-0.0061271633
195	0xbe839937	-0.2570283
196	0xbe6dfbd7	-0.232406
197	0x3e5fd394	0.21858054
198	0x3e159e06	0.14611062
199	0xbd959817	-0.073043995
