experiments/data/sawyer_clutter_200steps_10H/h_sac/2021-06-23_17-17-34_clutter_200steps_10H/policy_4800.pt (torch_old, 75801 bytes, 6 tensors)

mu.0.weight f4 [128, 12]
000000 98 93 94 3e cd 15 c3 3c 79 bb 84 be d5 fb 92 bb
       0.29018855 0.023814106 -0.2592428 -0.004485587
000010 79 be 8a bd 99 c2 7c be ea 49 0b 3e 94 ec b7 bd
       -0.06774611 -0.24683608 0.13602415 -0.089806706
000020 c9 9b 10 be 34 5f 19 be 79 52 76 be 20 7a 62 3e
       -0.14121927 -0.14977723 -0.24054898 0.221169
000030 54 6f 0b bd 7a 13 87 3e 6e d6 5a be 53 08 8b 3e
       -0.034041718 0.26382047 -0.21370861 0.27154788
000040 50 9a 89 be ba 1d 0e 3e 2e 63 8f be a9 4a 84 3e
       -0.26875544 0.13878527 -0.28005356 0.2583821
000050 d7 5e 75 bd 4a 43 18 3e 16 60 91 bd ed 5c 46 3e
       -0.0599049 0.14869419 -0.07098405 0.19371386
000060 a2 ff b8 bd 9f ea 7b be 06 48 07 3e 23 a6 3b be
       -0.09033133 -0.2460122 0.13211069 -0.18325095
000070 56 fa 48 3e 00 43 8a 3e 8a d1 d2 3d a1 ff 93 be
       0.19626746 0.27004242 0.10293873 -0.28905967
000080 27 f8 8e be a2 8d 6a bc 66 86 a3 bd 04 38 25 3e
       -0.279237 -0.014315994 -0.07984619 0.1613465
000090 be 9f e3 3d af da 0d 3e 16 b0 86 3e a5 12 8b 3e
       0.11114453 0.13852952 0.26306218 0.27162662
0000a0 5e 45 7c 3e fb c5 9b 3e 2e c9 1d 3c 08 2e a9 bd
       0.24635836 0.30424485 0.0096304845 -0.08260733
0000b0 bf f9 6a be f5 bf a2 3c d9 73 33 be 9b 01 e6 bc
       -0.22946833 0.019866923 -0.17524661 -0.028076937
0000c0 5c 68 76 be 40 63 9d 3d 64 87 4f 3d 86 9c 2d be
       -0.24063247 0.07684946 0.050666228 -0.1695424
0000d0 08 59 04 3e e0 55 41 3d 61 51 8d be fa b5 ea bd
       0.12924588 0.047201037 -0.2760115 -0.114604905
0000e0 39 64 01 be 94 a1 73 bc 02 7a 91 3a eb f1 8c 3e
       -0.12635888 -0.014870066 0.0011098983 0.2752832
0000f0 45 e4 88 3e 93 d9 47 3d 17 4d 78 bd ee 82 34 3e
       0.26736656 0.04879148 -0.060620394 0.1762807
000100 6e a1 a4 3d 79 17 82 3e 76 5c e2 bd 5f 8e 74 3e
       0.08038603 0.25408533 -0.11052792 0.23882435
000110 4d bf 86 be 4f 03 a1 be 55 ef 28 be 96 06 e6 bd
       -0.26317826 -0.31447837 -0.16497548 -0.11231725
000120 1a b5 1e bd c8 71 8a bd a9 73 25 be 24 29 6b 3e
       -0.03874693 -0.06759983 -0.16157402 0.22964913
000130 7e c1 64 be 6f 3f f5 bd 8e 80 84 be d0 aa 0d be
       -0.22339436 -0.119749896 -0.2587933 -0.13834691
000140 2b 6d 67 bc 78 6f 32 be 69 44 23 be c4 3a 52 3e
       -0.014125149 -0.17425334 -0.15944065 0.2053023
000150 71 9a b7 3d 75 c0 c0 bc 52 04 bd 3d c5 2c 7f be
       0.08965004 -0.02352927 0.0922934 -0.24919422
000160 9e 3b bf bc ce e3 c9 3d 44 8f 6e bd 02 e5 86 3e
       -0.023343857 0.098579034 -0.058242097 0.26346594
000170 bd 68 38 be 5f 0a 4f be 56 a0 4a bd d3 28 1e 3e
       -0.18008704 -0.202188 -0.049469315 0.1544526
000180 da 51 97 3e 6b ab 4c bd 36 5c 7c be 6d 45 29 3e
       0.29554635 -0.049968164 -0.2464455 0.1653039
000190 91 65 96 3d 40 2d fb bd 6a 56 41 3e 3a 4c f4 3c
       0.07343591 -0.1226449 0.1888062 0.029821504
0001a0 42 90 f9 3d 93 b6 53 3e b1 c9 49 be a4 fe d4 bd
       0.12185718 0.20675115 -0.19705845 -0.10400131
0001b0 ef 4a 3e 3e 95 98 70 3e b6 90 a9 3d da db aa bd
       0.18583272 0.23495705 0.082795545 -0.083427146
0001c0 c6 79 79 be 12 0c 86 3e d7 88 75 3e c7 45 02 3e
       -0.24362859 0.26181084 0.23977982 0.1272193
0001d0 36 ef 7f be af 91 53 3e 89 62 26 bd fb f9 31 be
       -0.24993595 0.20661043 -0.040621314 -0.17380516
0001e0 28 e7 31 3d b9 0c 86 3c 53 4b 8a 3e ab 56 30 3d
       0.04343334 0.016363489 0.27010593 0.043051403
0001f0 fd bd 82 be 13 12 53 3c 6b 4f 06 be 53 14 3c be
       -0.25535575 0.012882727 -0.13116233 -0.18367128
000200 10 78 64 3e 6c c2 96 3e ab ff 35 3e 87 1c 3c be
       0.22311425 0.29445207 0.17773311 -0.18370257
000210 0d d4 22 bd 8c 2b b7 3d c3 62 a5 bd c9 d1 6f be
       -0.03975301 0.08943853 -0.08075478 -0.2341987
000220 92 9a 56 3e e0 48 95 bc be 52 85 bd cb 01 0a be
       0.20957401 -0.018223226 -0.065099224 -0.13477246
000230 80 75 ee 3d d1 44 56 3e 71 0d 2c 3e 33 d3 67 be
       0.11643505 0.20924689 0.16802002 -0.2263916
000240 3a a1 0f 3d 77 ae f7 bd 92 64 b8 3d 70 29 99 bd
       0.035065867 -0.120938234 0.09003557 -0.07478607
000250 cd 36 21 3e e5 e2 e9 bd ba 0f 83 be 46 ce 94 bd
       0.15743561 -0.1142023 -0.25597936 -0.07265906
000260 e4 1f 0d 3e fc 7c 59 be 44 39 39 be 1b 2e ef bd
       0.13781697 -0.21239084 -0.18088251 -0.11678716
000270 1e 8e 42 3e b0 82 af 3b b6 d8 6d 3d 13 3b 49 be
       0.18999526 0.0053561553 0.058068 -0.19651441
000280 70 13 65 3e a1 9e fb bd fc fd 7b 3c 60 02 83 3e
       0.22370696 -0.122861154 0.015380379 0.2558775
000290 09 8b 16 3e 0c 9c 5f bd 2d 36 11 be d5 a9 0c 3e
       0.14701475 -0.054592177 -0.14180823 0.13736661
0002a0 f8 fd 03 bd c5 bc 34 3e 4c a5 cb 3d c7 b9 67 be
       -0.032224625 0.17650135 0.09943637 -0.22629462
0002b0 1b cc 85 be eb bd 92 bd 14 2b 71 bd c5 5b 31 3e
       -0.26132283 -0.0716513 -0.058878973 0.17320164
0002c0 a4 6f 4f be ba d4 20 3e 74 81 fe 3c 08 1f 3b be
       -0.20257431 0.15706149 0.031067587 -0.18273556
0002d0 8d 33 81 be c5 7b f2 bc a4 87 5b 3d 35 95 28 3e
       -0.25234643 -0.029600034 0.053596154 0.16463168
0002e0 9d 60 30 3e c5 e6 e7 bd 5f d8 5c 3c c0 ad 31 3e
       0.17224355 -0.11323313 0.013479321 0.17351437
0002f0 8f 35 4c 3e 35 55 37 3e 87 eb 0f be 9d d2 39 be
       0.19942306 0.17903598 -0.1405469 -0.18146749
000300 34 2c 84 be 99 c4 05 be d5 17 87 bd ae 69 64 3e
       -0.25814974 -0.13063277 -0.065963425 0.22305939
000310 03 d5 63 3e 8f 1b 80 3d 8f 12 42 be ec 84 e4 bd
       0.22249226 0.062552564 -0.18952392 -0.11158165
000320 e0 ae 28 3e 37 44 30 be d9 5d e5 bd 38 fc 45 be
       0.1647296 -0.17213522 -0.11199541 -0.19334495
000330 82 ee 44 be 30 ac 6d be b4 d3 d1 3d d6 82 84 be
       -0.19231609 -0.23210216 0.10245457 -0.2588107
000340 cc 3c 6b 3e 2f 79 32 be 78 74 74 3d 34 7c 9a bd
       0.22972411 -0.1742904 0.059681386 -0.07543221
000350 da d0 71 3e d6 f4 8f 3e 29 1e aa 3d 7b 58 b4 3d
       0.23614827 0.28116482 0.08306534 0.08805939
000360 ee ec 72 be f5 19 12 3e d4 ac 85 3e f3 dd 73 be
       -0.23723194 0.14267714 0.2610842 -0.23815136
000370 ad 28 4e be 90 d8 3e 3e 0a aa 83 3e b4 df 18 3e
       -0.20132704 0.186373 0.25715667 0.14929086
000380 e5 1b 61 3e 1d ba 3b be c1 18 8c 3d 45 8d df 3c
       0.21983297 -0.18332715 0.06840659 0.027289042
000390 72 49 2a 3e ad 86 27 3e 9f d0 a1 3d e2 99 49 be
       0.1662958 0.16359968 0.079011194 -0.19687608
0003a0 3e 59 68 be 50 76 45 3e af 75 8a 3e ac dd 90 bc
       -0.22690293 0.19283414 0.2704291 -0.017683826
0003b0 5f aa 83 3d 4d 22 4f 3d 7f 5f e5 3d 7e 37 8d be
       0.0642898 0.05056982 0.11199855 -0.275814
0003c0 f9 19 25 be ac cf 80 bd 3d 42 68 be 13 7a 94 3d
       -0.16123189 -0.0628961 -0.22681518 0.07249846
0003d0 b0 4f c4 bd 4a 14 50 be 9a fd 76 bc 1f 01 b8 3d
       -0.09585512 -0.2032024 -0.015075112 0.08984589
0003e0 6d 4b d1 bb 33 05 ef 3d 5f e6 f8 3c 00 27 63 3d
       -0.0063871653 0.116709135 0.030383287 0.055457115
0003f0 aa 3d 96 bb 0d ac 4e be ad 22 32 3e ed be 32 be
       -0.0045849876 -0.2018282 0.1739604 -0.17455645

mu.0.bias f4 [128]
000000 2a d4 8a bd 51 aa 80 be 98 50 67 be 3b d3 79 be
       -0.06778748 -0.2512994 -0.22589338 -0.24396984
000010 eb 78 f7 3b 5e 98 0b 3e 12 06 5a be 50 c3 4d 3e
       0.0075522563 0.13632342 -0.21291378 0.20094037
000020 bc 83 7f be 19 e6 6c be c2 8e f7 bd 54 6b 7c 3e
       -0.24952596 -0.2313465 -0.12087776 0.24650317
000030 1d b6 c8 3d 38 ea 0a 3e a4 3d c1 bd 92 68 3a 3e
       0.0980036 0.1356591 -0.09435585 0.18203953
000040 c8 7d 43 be 02 61 7f be 51 bf 61 be fb 10 85 be
       -0.1909095 -0.2493935 -0.22045638 -0.25989518
000050 11 73 12 3e 91 2b fd 3d 85 8f 63 bc 7d 81 5a be
       0.14301707 0.12361825 -0.013889198 -0.21338458
000060 dc 0c 96 3d b7 c9 3f be 43 e8 62 be 04 8d 7a 3e
       0.073266715 -0.18729292 -0.22158913 0.24467856
000070 a4 9d 8c bd 6d b9 5a 3d 52 f6 4d be 8e 31 77 3e
       -0.06866005 0.053399492 -0.20113495 0.24139997
000080 ef 8a 41 3e 12 53 0b be 7f a0 ed bd a2 5a 83 3e
       0.18900655 -0.13605908 -0.11602878 0.25655085
000090 b3 c3 61 3e 40 86 2d be cf 2d 3a be 5b 63 ec 3d
       0.2204731 -0.16945744 -0.18181537 0.11542388
0000a0 a4 61 3b bd a8 a4 83 3d ef b6 39 be 69 9c df 3d
       -0.045747414 0.0642789 -0.1813619 0.10918505
0000b0 3c c6 0d 3e fe 44 d4 bd 05 43 94 3e f0 7e c4 3d
       0.13845152 -0.10364722 0.28957382 0.09594524
0000c0 5f c4 0a be d1 31 64 3e 9c ea 7d be 65 2e f2 bd
       -0.13551472 0.22284628 -0.24796528 -0.11825255
0000d0 6f 60 8f bd 08 4e a7 3d 72 26 02 3e fc 9c 69 be
       -0.07000815 0.0816918 0.12709978 -0.22813791
0000e0 74 3e 05 3d 9a d9 db 3d a5 cb 11 3e 99 2d 61 3e
       0.032530263 0.107348636 0.1423784 0.2199005
0000f0 2b 83 0f be 33 0b 4a 3e 6a 2c ef 3d dd 42 f7 bc
       -0.1401488 0.19730835 0.11678393 -0.03018325
000100 20 ad d3 ba da ba 4b 3e 6c 90 9c bd 53 d1 40 be
       -0.0016149618 0.19895497 -0.07644734 -0.18829851
000110 50 23 31 be 04 59 85 3e 8f 67 62 be 40 2d 34 be
       -0.17298627 0.26044476 -0.22109817 -0.17595387
000120 a8 b3 8a 3e 5b 13 0f be 56 8c d9 3d fd 1e 39 3e
       0.27090192 -0.13972227 0.1062247 0.18078227
000130 22 ac 5c be 7f 3c 83 3e b8 33 9f 3d fd e2 5c be
       -0.21550038 0.25632092 0.077735364 -0.21570964
000140 ff 3b 37 be bb 41 3d be d2 b0 d6 3b 1e bf 6b be
       -0.1789398 -0.18482105 0.0065518403 -0.23022124
000150 5a de 5f 3e 83 54 ca bd 4f c7 f8 bd 48 74 a0 bd
       0.21862164 -0.098794006 -0.1214739 -0.07834679
000160 e7 c4 44 3e 6a e5 5b bd 62 35 7b 3d be 05 7f bd
       0.19215737 -0.053685583 0.061330207 -0.062261336
000170 68 14 2b be 38 23 8d be a6 03 86 3e 84 e4 a5 bc
       -0.16707003 -0.27565932 0.2617466 -0.020250566
000180 f2 86 fb bd f5 b9 2d 3e a2 e4 ab 3c b9 9d 87 3d
       -0.12281598 0.16965468 0.020983044 0.0662188
000190 08 e3 08 bb c9 33 90 3e 8c da df bb 6c 4d 12 be
       -0.0020887274 0.2816451 -0.0068314727 -0.14287347
0001a0 10 03 78 be 49 33 cf 3d be 9c 9c 3c df 92 86 3e
       -0.24219918 0.10117204 0.01911771 0.2628393
0001b0 4c 3e 5b 3e e0 24 9d 3d fb 88 85 3d 9b c3 11 bd
       0.21410483 0.07673049 0.065202676 -0.035586935
0001c0 04 83 5b 3e a1 d6 63 3e 06 d4 d1 3d 74 0a 2d 3e
       0.21436697 0.22249843 0.102455184 0.16898519
0001d0 00 40 9f bd 67 03 32 be b6 b5 8a 3d d5 3e 47 3e
       -0.07775879 -0.1738411 0.0677294 0.19457562
0001e0 96 b4 56 3e 39 1a dc 3d d2 fb 57 3e 92 0c 06 3d
       0.20967326 0.10747189 0.21092156 0.03272683
0001f0 ee 01 ea bd 31 bf 2f 3e 33 80 cd 3d 7d 6f 5f 3e
       -0.11426149 0.17162777 0.10034218 0.21819873

mu.2.weight f4 [128, 128]
000000 34 b7 18 bc 4b f6 0c bd 33 23 21 3c 42 4e 94 bd
       -0.009321023 -0.03441457 0.009835052 -0.07241489
000010 b2 11 e8 bc 43 47 7f bd 64 6b aa 3d 1e 71 9b bd
       -0.02832875 -0.06232382 0.083212644 -0.07589935
000020 ab 9d 73 3d d6 e5 82 bd e6 ac 90 3d b6 18 6d 3c
       0.059476536 -0.06391494 0.07064228 0.014471224
000030 31 4c 84 bd e7 6b 21 3b 5b 19 b6 bd b3 24 a9 bc
       -0.06459845 0.0024630965 -0.08891555 -0.020647382
000040 89 6a 25 3d 32 38 92 bd e8 20 3c 3d 47 84 2a 3d
       0.040384803 -0.07139625 0.04592982 0.041630056
000050 56 25 15 bb 62 0f a8 bd f0 54 75 bd a6 3d 8a 3d
       -0.002275785 -0.08206059 -0.059895456 0.0675004
000060 9a cb 7d 3c 18 d9 d1 3c c5 5b b3 bd c6 91 74 3d
       0.015490437 0.025616214 -0.08757738 0.059709333
000070 b0 4c a1 bc e2 9c 16 3d 03 8f 1a bc 98 4c e2 bc
       -0.019689888 0.03677071 -0.009433511 -0.027624413
000080 64 ad 0f 3d a6 58 46 3d cc 62 1c 3a 90 1c de bb
       0.035077468 0.048424385 0.00059656496 -0.0067783073
000090 de 95 4d bd 6a e1 00 bd 17 e1 ad bd 6b 34 13 3d
       -0.050191753 -0.03146497 -0.08490198 0.03593866
0000a0 25 3a 2b bc f2 58 15 bd 4f 0c d2 3c 00 e3 1c bd
       -0.010450874 -0.036461778 0.025640635 -0.03830242
0000b0 42 a9 64 bc 0f f7 37 bd 54 6e 01 3c 02 8b 08 bd
       -0.01395637 -0.044913348 0.007899839 -0.033335693
0000c0 70 bc 6b bd 9e ab ac 3c 1d 48 9c 3d 04 34 95 3d
       -0.057552755 0.021077927 0.07630942 0.07285312
0000d0 af f6 73 3d 78 f8 26 bd ce c0 9a bd 9e c5 52 bd
       0.059561428 -0.040764302 -0.07556306 -0.051457994
0000e0 54 3a 98 3b 16 15 9e 3d cc 82 da 3c f3 d1 4f bd
       0.004645625 0.077188656 0.026673697 -0.050737333
0000f0 60 e0 65 3c 8b 83 5a 3c a4 12 89 bd 2d a4 af 3c
       0.014030546 0.013337026 -0.066930085 0.02144059
000100 a1 b3 8c bd 2f 33 9e 3d 1e 4a 82 3d 6f 46 aa bc
       -0.06870199 0.07724606 0.06361793 -0.020785538
000110 4a c3 aa 3b ae 01 25 3c d7 9c a6 3d 57 1b ac 3c
       0.0052112686 0.010071201 0.081353836 0.02100913
000120 c3 ae 07 3d 58 36 80 bd c0 e4 3c 3b af d2 11 bd
       0.03312565 -0.06260365 0.002882287 -0.035601314
000130 16 d3 4d bd 83 7f bb bb 9d ad a4 3d 19 d0 46 3d
       -0.050250135 -0.0057219877 0.080409266 0.0485383
000140 6d e8 80 3c 7e bd 61 bd 94 c5 78 bd 91 81 99 3d
       0.01573583 -0.055112354 -0.0607353 0.07495416
000150 e2 5d a6 b7 30 41 87 bd 5d 8b a2 3c 59 4c 54 bd
       -1.983246e-05 -0.066042304 0.019841844 -0.051830623
000160 03 19 3a 3b 9a 19 cc 3c b0 c2 48 bd 6e 93 1e bd
       0.0028396256 0.024914552 -0.049013793 -0.03871482
000170 92 ff 3d bc 9b 20 91 bd 80 85 8f bc 74 13 bd bd
       -0.011596577 -0.07086297 -0.017519712 -0.09232226
000180 6d f3 96 3d c9 16 94 bd 02 cd be bd 51 bd 86 bd
       0.073706485 -0.072309084 -0.09316446 -0.06579078
000190 04 ba 0d bc a0 98 3b bc 08 2f d5 bc e5 89 85 bd
       -0.008650307 -0.011449963 -0.026023403 -0.06520442
0001a0 46 36 15 bd 89 f9 9c bd d2 0d 22 3d a8 32 27 bd
       -0.036428712 -0.076647826 0.03956396 -0.040819794
0001b0 85 66 13 bd a6 71 ab 3d 05 56 6a 3c a5 9a f9 3c
       -0.035986442 0.08371286 0.014302735 0.030469248
0001c0 54 97 8e bd a5 7a c9 bc 63 2f 00 bc 75 33 81 3d
       -0.06962457 -0.024594614 -0.007823798 0.06308643
0001d0 d1 73 fb bc 6f dc b0 bd dd 2f 04 3d 65 24 ed 3c
       -0.030694874 -0.08635794 0.03227221 0.028948018
0001e0 90 2f ad bd 4a 11 18 bd f5 14 90 3d 8e 5f 70 bd
       -0.084563375 -0.037125863 0.07035247 -0.058684878
0001f0 4a f9 7d 3c 44 6b 48 3d 4b a2 09 3d 9c 88 0a 3c
       0.01550133 0.04893042 0.03360204 0.008455422
000200 6c 8d 2f bd d2 65 b1 3c c0 b0 51 3d f3 fb 8c bd
       -0.04285948 0.021654997 0.051193953 -0.06883993
000210 c2 e7 48 3d 97 a2 a6 3d e8 bf 83 3d a9 a8 e3 3c
       0.049049146 0.0813648 0.064330876 0.027790384
000220 fc 6f 9e 3d 31 44 fd bc 16 eb b1 3c 29 d4 2b 3c
       0.07736203 -0.030916305 0.021718543 0.010487595
000230 52 60 1c bc 8f c0 02 3d d2 f6 99 3c 53 30 1a 3c
       -0.009544449 0.03192192 0.01879445 0.009410935
000240 e0 78 47 bc d1 b4 b4 3d b9 d0 b2 bd db 8b 52 3d
       -0.012174815 0.088235505 -0.08731217 0.051402908
000250 92 43 c9 bc 53 6e 7f 3d 53 75 ac 3c f7 4b 41 bc
       -0.024568353 0.062361073 0.021052038 -0.011797897
000260 93 08 a8 3d 75 c4 0b 3d ea 2e 85 bb 12 08 e0 bc
       0.082047604 0.034122903 -0.0040644305 -0.027347598
000270 ae 20 bb bc 12 4b 3d bd 79 22 de bc 62 b4 79 3d
       -0.022842731 -0.04621417 -0.027116047 0.060963042
000280 08 4b 7e 3d 2a 60 11 bd 64 a0 78 3d c8 ca 4b bd
       0.062083274 -0.0354921 0.060699835 -0.049753934
000290 63 04 af 3d bf c7 93 3d 3f d3 b4 3d a3 54 8e 3d
       0.085457586 0.07215833 0.088293545 0.06949737
0002a0 95 8c 86 3c 77 1a 5b 3d a7 38 a7 3c 4e 80 99 3c
       0.016424457 0.053492036 0.020412756 0.018737938
0002b0 a9 34 2f 3c cb 9e 92 3b 8e c9 36 3b 2b 7e 03 bd
       0.0106937075 0.004474496 0.0027891132 -0.032102745
0002c0 9d 57 93 bc 53 b5 6a bd c8 8c 33 3d a8 96 40 bc
       -0.017986113 -0.05730183 0.04383543 -0.011754669
0002d0 cf e0 99 3d c2 c0 88 3d 4e 06 0e 3d b6 2c 18 bd
       0.07513582 0.06677391 0.03467398 -0.037152015
0002e0 0d 5c d7 bb 24 cb 1a bd 90 78 c8 3c bd 2e f9 3c
       -0.0065722526 -0.037791386 0.024471551 0.030417794
0002f0 3a 15 84 bc 3a a7 a8 bb e9 6f cc bc 22 d7 10 bb
       -0.016123403 -0.005146888 -0.024955707 -0.0022100885
000300 26 6f 82 3d 02 31 09 3d d1 a5 2a 3d f0 e9 07 3d
       0.06368856 0.033494003 0.04166204 0.033182085
000310 68 d5 ea bc c4 24 6a 3c ca bb 3c 3c b4 da 48 bb
       -0.028666213 0.014290992 0.011519382 -0.0030647935
000320 bf 31 89 3d b1 ce 8a 3c 44 f6 64 bc 67 4e b6 3d
       0.066989414 0.016944261 -0.01397473 0.08901673
000330 27 4b 7a 3d 15 e4 81 bd fa 47 40 bd 17 62 a4 3d
       0.061106827 -0.06342331 -0.046943642 0.08026522
000340 22 71 a1 bd 7d f1 1b bc 95 2c 9d bc 86 fc 40 bd
       -0.078829065 -0.0095180245 -0.019186297 -0.047115825
000350 78 3a 04 3c ae 2a a3 bd 0c 5e e3 3c fa f7 0e 3d
       0.008070581 -0.07967125 0.027754806 0.034904458
000360 9f fb 8d bd 29 a4 52 3d 79 63 6f bd 15 95 2a bd
       -0.069327585 0.051426087 -0.058444474 -0.041646082
000370 1a 9f 75 bd 3b d4 96 bd b3 ba 46 bd 8e 13 b5 bb
       -0.059966184 -0.073646985 -0.048517894 -0.0055260127
000380 e5 ee 1d 39 cc 76 6a bd b3 ed 23 bc 86 4c c7 3d
       0.00015061682 -0.0572422 -0.010005402 0.097313926
000390 87 7e 2f bd b6 73 0a 3b 2a 6f ad 3d 65 b4 d2 bc
       -0.042845275 0.0021126098 0.084684685 -0.025720784
0003a0 cc 31 9b bd d2 13 92 3d 14 f1 55 3d c0 e4 8a bd
       -0.075778574 0.07132687 0.052231863 -0.06781912
0003b0 15 1b 19 bd 7e b5 97 3d 02 d4 01 bb 8c 59 cb ba
       -0.037379343 0.07407664 -0.0019810204 -0.0015514358
0003c0 7d 71 f3 ba 14 d4 a7 bc cf 31 41 3c 17 af 88 bd
       -0.0018573251 -0.020486869 0.01179166 -0.06674021
0003d0 1a 65 d2 3d 24 b7 17 3d 98 a1 f7 3b 58 69 53 bd
       0.1027319 0.03703989 0.0075571053 -0.051614136
0003e0 c7 5e a8 bc 0c e4 81 bd 7c d6 e8 3c 84 c8 a7 3c
       -0.020553006 -0.063423246 0.028422587 0.020481355
0003f0 d4 43 6c bd 88 f1 66 bd 7e e5 ab 3d 6c d7 41 3d
       -0.057681873 -0.056382686 0.083933815 0.047324583

mu.2.bias f4 [128]
000000 ef 68 9e 3d 0a 69 81 3d 3d 5d 7f 3d 44 b5 f3 39
       0.07734858 0.06318863 0.06234478 0.00046483625
000010 d0 69 99 bd 8a 7c 39 bd c8 86 9c 3d a9 a9 df bb
       -0.07490885 -0.045284785 0.07642895 -0.006825645
000020 b6 e0 c9 3c f5 ae 19 bd 1f 8f 35 bd b6 99 81 3c
       0.024643283 -0.037520368 -0.044325944 0.015820365
000030 62 68 af 3d 11 56 97 3d 0d 62 a9 3b a5 d1 ba bc
       0.08564831 0.07389463 0.0051691593 -0.022805044
000040 62 67 cb 3d 2a c1 06 bd 22 53 a8 bb 20 a6 c6 3d
       0.09931828 -0.03289906 -0.0051368633 0.096996546
000050 30 da 99 3d ef ee 67 bd 0c 1e 9f 3d 80 ef 6a bc
       0.07512319 -0.05662435 0.07769403 -0.014339328
000060 95 de 0d bc 14 c5 de bb 5a b4 0f bd 70 ee a3 3d
       -0.008659025 -0.006798396 -0.035084106 0.08004463
000070 d3 71 a1 3d a8 a8 b7 3c 3a 55 50 bd 28 40 1a bd
       0.07883038 0.022419289 -0.05086253 -0.03765884
000080 21 0c 96 bb e3 85 35 3c 36 5e e0 bc a0 55 c0 3d
       -0.0045790826 0.011079284 -0.027388673 0.09391332
000090 13 7c be bc bc 91 9a bd a7 8e c6 bd 4e 0a 8a bd
       -0.023252523 -0.07547328 -0.096951775 -0.06740247
0000a0 9f fb e7 3b 69 2d bb bd 9c a6 97 3d 43 25 18 bc
       0.007079556 -0.09139521 0.07404825 -0.009286228
0000b0 e0 96 3f 3d 74 a0 19 3d 0a 64 91 bd be cb 93 bd
       0.046774745 0.037506536 -0.07099159 -0.07216595
0000c0 ce 18 d7 bc 46 be 7d 3d a1 2d 73 bd f9 0a 2a bd
       -0.026256945 0.061949037 -0.059369687 -0.04151437
0000d0 d7 b2 70 3d c4 6d d4 3c ca 67 fd 3b 9f af 39 bd
       0.058764305 0.025931247 0.00773332 -0.0453335
0000e0 fd 7b 3d 3d c3 c1 14 bd 63 3e fd bc 41 6b 37 bd
       0.046260823 -0.036317598 -0.030913537 -0.04478002
0000f0 2f 7f 5c bd e4 d4 24 3d e0 1b d4 3c ca df 55 3d
       -0.05383223 0.04024209 0.025892198 0.052215375
000100 f5 f1 16 bd 67 fe 36 bc 09 9d 2d bd 07 8b c3 3d
       -0.036851842 -0.011169053 -0.04238609 0.09548002
000110 fb d2 48 3c b3 4a 9b bd 5d 25 6b bd c8 d7 3b bd
       0.012257333 -0.07582607 -0.05740868 -0.045860082
000120 59 73 85 3b 52 b4 c8 3c c9 c2 81 3b a1 48 3a 3c
       0.0040725884 0.024500046 0.003959988 0.011369855
000130 42 46 9e 3d cf 8a 49 bd 30 8a 7c bd 91 38 f9 ba
       0.07728244 -0.049204644 -0.061655223 -0.001901405
000140 17 14 10 3d 34 7c 38 bd ef da 91 3d b1 05 09 3d
       0.03517541 -0.045040324 0.071218364 0.033452693
000150 b3 1e 31 3d af 12 b6 3d 98 11 bf 3b 9a c0 fe bc
       0.043242168 0.08890282 0.0058309548 -0.031097699
000160 90 15 8b 3c 75 af e8 3c 58 f3 d6 bc be 68 7a bd
       0.016978055 0.028403977 -0.026239082 -0.061135046
000170 b4 9e c2 ba 9f 8a 6f 3c 83 72 de 3d e5 07 1a bd
       -0.0014848323 0.014620452 0.10861685 -0.037605185
000180 81 ab 23 bd 3b 64 56 bc d3 38 5c bc 74 82 f5 3b
       -0.03995848 -0.01308542 -0.013441282 0.007492358
000190 f6 d0 91 3d 3c a9 2e bd 16 b3 58 bd 8d 19 a5 3d
       0.07119934 -0.042641863 -0.052905165 0.08061514
0001a0 00 5b 86 bd dd 67 8b bb 83 b4 7d 3d c8 c8 67 3b
       -0.065603256 -0.004254325 0.061939728 0.0035367478
0001b0 6b f9 46 bd f1 ca a2 3d 24 64 84 bd 1c 41 5e bd
       -0.048577707 0.07948864 -0.06464413 -0.054261312
0001c0 90 c7 c9 3c 41 91 b9 bd ef 38 3b 3d 85 24 ca 3c
       0.024631292 -0.09060908 0.045708593 0.024675617
0001d0 17 dd 9d 3c dd a0 b8 3d 9c 7c 6a 3d d7 01 5b 3c
       0.019270463 0.09015057 0.057247743 0.013367138
0001e0 df 0f 6a 3d c5 c9 5e bd c4 23 e9 bc 8b b3 dd bc
       0.057144042 -0.05439164 -0.028459437 -0.027063152
0001f0 10 f2 5c bd e7 80 49 3d 5a 48 9a bd 75 7f 9b 3d
       -0.053941786 0.049195196 -0.07533331 0.0759267

mu.4.weight f4 [4, 128]
000000 68 02 4d bb cc d5 e3 ba a6 51 d6 3b b1 07 f3 ba
       -0.0031281952 -0.0017382442 0.006540495 -0.0018541721
000010 17 62 a7 3b de 26 42 3b 1a 9a 01 3c b3 ca 7f 3b
       0.005108129 0.0029625217 0.007910276 0.003903073
000020 82 65 fb 3b 24 0a c2 3c a3 b4 1a bc 11 e1 cd 3b
       0.007672013 0.023686476 -0.009442481 0.0062829335
000030 a2 b0 b4 39 b2 9c c5 bb 4a b5 28 b9 58 2d 0f bc
       0.00034463877 -0.0060306424 -0.00016089264 -0.008738838
000040 ab 68 85 3b 1c 51 ce ba 08 5e 2a bc 97 1b 1b 3b
       0.0040713153 -0.0015740725 -0.010398395 0.0023667568
000050 03 b5 b1 3b 46 6d ce 3b 2e 05 5b 3c 17 80 1e 3c
       0.0054231896 0.0062996475 0.013367934 0.009674094
000060 6a f2 32 3b be eb 02 ba 95 c3 e1 bb bf 0e 8c 3b
       0.0027305135 -0.0004994235 -0.0068897703 0.004274219
000070 fe b2 c6 3b ec f8 f1 3c 8f 90 5e 3c ca 1d a5 3b
       0.006063818 0.02953764 0.01358427 0.0050389515
000080 1d 25 4d 3d dd 4e 61 3c a9 f5 a0 3a f2 87 65 3c
       0.050084222 0.013751713 0.0012280244 0.014009463
000090 e7 4d 31 3c 0a a5 05 bc 47 14 69 3b ef 8b 91 bb
       0.010821796 -0.008157024 0.0035565065 -0.00444173
0000a0 07 fe 3e 3c 7c e3 09 bb f8 ca 94 b8 1c e8 d3 3b
       0.0116572445 -0.0021040132 -7.094996e-05 0.0064668786
0000b0 ac d7 0c 3b 04 cf 3d 3c 30 8d 1b bb c7 db 10 b9
       0.0021490855 0.011585001 -0.0023735277 -0.00013814784
0000c0 f4 35 19 3c e7 52 4a 3c 28 4f 7b bb 90 2e bb bb
       0.009351242 0.012348867 -0.0038346741 -0.005712338
0000d0 da c2 23 3c 8e 7c bb 3b 31 52 34 3c 6f a6 d5 3c
       0.009995187 0.005721635 0.011005924 0.026080338
0000e0 c9 81 11 3a e5 cb 76 bb 66 b6 1d 3c 6c c2 87 3c
       0.00055506505 -0.0037658152 0.009626007 0.0165722
0000f0 90 ca 41 ba 80 26 7a 3c 7e ca b4 ba ea d2 9a bc
       -0.000739255 0.015267968 -0.0013793258 -0.0188994
000100 19 1b c0 ba 76 11 84 3c 74 38 e5 3c ed e4 ce 3b
       -0.0014656513 0.016121607 0.02798102 0.006313911
000110 d7 3f af 3b b3 fa f0 ba 28 60 92 3b f5 8d e1 39
       0.0053481865 -0.0018385261 0.004467029 0.0004302111
000120 10 ac 25 ba 5c 89 a7 bb 24 3e ca 39 50 51 dd 3c
       -0.000631989 -0.00511281 0.0003857474 0.027016312
000130 8d cc 8d 3c 6b b8 c8 3b 39 1a 73 bb 5b 11 4a 3a
       0.017309451 0.0061255 -0.0037094487 0.00077082746
000140 70 35 8a 3b 92 45 9a ba ed 54 32 3c 66 a9 b5 3b
       0.004217796 -0.0011770001 0.010884506 0.0055438755
000150 b5 86 9f 3b cf 54 57 b8 69 e8 4e bb bb 18 b3 3a
       0.0048683533 -5.133898e-05 -0.0031571633 0.0013663986
000160 c9 bf 55 3b b0 ef fd 3b af 49 9b 3c 0a 35 c0 ba
       0.0032615534 0.0077495202 0.018956034 -0.0014664244
000170 47 cf 9f 3b 3c 9d 0e 3c 0a f9 57 3c d6 b4 46 38
       0.0048770043 0.00870448 0.013181934 4.7375295e-05
000180 12 85 b5 3c 84 a0 0b b8 60 25 6d ba 22 65 5e 3c
       0.02215818 -3.3289674e-05 -0.0009046402 0.013573917
000190 14 7b c3 3b f8 f5 47 bb 42 a1 c4 39 81 ab e9 3c
       0.0059656 -0.00305116 0.0003750418 0.028524162
0001a0 5b 40 e1 3b 67 b8 31 3c 69 aa a7 3c 5e 35 10 3c
       0.006874127 0.010847188 0.020467 0.008801786
0001b0 11 6f 65 3c 32 f4 25 3c 77 78 44 bb 3d 0e 26 39
       0.014003531 0.0101290215 -0.002997903 0.00015836298
0001c0 f5 ae 26 3c af b0 96 3b ca c7 3b 3b 16 22 57 bb
       0.010173549 0.004598699 0.002865302 -0.0032826713
0001d0 5a e8 71 3c b7 55 11 3c d2 d5 f5 bb de 40 35 bc
       0.01476487 0.008870534 -0.007502296 -0.011062829
0001e0 db 05 98 3b 33 14 98 ba 30 be 68 b8 dc 46 aa 3c
       0.00463937 -0.00116027 -5.5490236e-05 0.020785742
0001f0 98 57 a9 bb a0 af bc 3b c1 f9 4c bc d5 20 6e 3c
       -0.0051679127 0.005758241 -0.012510718 0.014534195
000200 2b 55 39 bb 1b a5 1f 3b 82 c0 93 3a f6 49 fd 3a
       -0.0028279524 0.0024359885 0.0011272582 0.001932441
000210 8f 01 45 3a 2d ab f5 3a 72 39 b5 bb 9f 0f e5 b8
       0.0007515186 0.0018743031 -0.0055305297 -0.000109224806
000220 f0 e6 13 3c 85 22 50 3c 76 4b 81 3a 7b 7e 8f 3c
       0.009027228 0.012703543 0.0009864408 0.017516365
000230 6f 81 10 3c 78 be e5 3b 26 81 77 3b 55 e1 75 39
       0.008819922 0.007011231 0.0037766187 0.00023448963
000240 0f 47 26 3c 77 2d 03 bc b4 f2 82 39 4d 1f df ba
       0.010148778 -0.008006445 0.0002497636 -0.0017022878
000250 00 25 6a 3b 59 8e ac 39 2f d3 0a 3b 3b 6a 88 3b
       0.003572762 0.00032912454 0.0021183004 0.0041630543
000260 3e 58 0e 3c eb 8f b8 3a af ac 70 3c 1e a3 fa 3b
       0.008688031 0.0014080977 0.0146896085 0.0076488396
000270 c4 ce 17 3b bd 8f f4 3b e9 c0 0b 3d 51 8c 87 bb
       0.0023164013 0.007463424 0.03411952 -0.0041366
000280 8f f9 66 3c 3b d2 05 3b 86 87 bc 3a e3 98 bf 3a
       0.014097585 0.0020419497 0.0014383651 0.0014617707
000290 94 31 93 3b d2 b2 02 ba 68 fa 65 3b f9 ca f9 3b
       0.004491994 -0.0004985753 0.003509188 0.007623073
0002a0 43 7d a3 3a 3c fc 63 b7 6d e1 f7 bb ad 7d df bb
       0.0012473244 -1.3588982e-05 -0.0075647146 -0.0068204016
0002b0 47 26 d8 3b 79 eb 59 3a ec cd 80 bb 08 9a 49 bc
       0.00659636 0.0008312981 -0.003930798 -0.01230479
0002c0 89 91 84 3b e2 d8 fe 3b dc 23 ff ba 4b bf f8 3b
       0.0040456695 0.0077773193 -0.0019465643 0.0075911633
0002d0 2f 9f 8c 3b ab de 07 3c ac 09 85 3c 09 61 05 3d
       0.004291437 0.008292834 0.016239963 0.032563243
0002e0 69 ac b9 b7 09 99 7b ba 0e 05 e0 3b b5 f3 fb ba
       -2.2134003e-05 -0.0009597694 0.00683654 -0.0019222411
0002f0 50 c3 ee 3b 56 20 5e 3b 9f d0 ca 3a 7d 61 75 3a
       0.0072864667 0.0033893785 0.0015473551 0.0009360535
000300 ee 84 b5 bb d2 62 91 3a 1e 48 88 3c 11 58 60 3b
       -0.005539528 0.0011092073 0.01663595 0.003423218
000310 10 b6 9e 3b d8 c5 eb 3b c3 b5 52 ba 55 1c 81 39
       0.004843481 0.0071952157 -0.0008037949 0.00024625906
000320 5e 41 0f 3c fc a4 ab ba 1c ec 38 bb 15 a3 0d bc
       0.008743612 -0.0013095434 -0.0028216904 -0.008644839
000330 4a c3 12 3b fd 64 49 3c 82 7f 48 3c 7e 05 09 3b
       0.0022394233 0.012292144 0.0122374315 0.0020907815
000340 f9 66 3a ba 22 ec a3 3b 00 af ef 3b 74 98 fa 3b
       -0.0007110681 0.0050025145 0.007314563 0.0076475684
000350 94 d8 d8 3a 66 3c 53 3a b3 4a fa 3a 09 df b9 bb
       0.0016544037 0.00080580113 0.0019095748 -0.00567234
000360 27 56 41 3b 9a e1 a1 ba fe b6 a9 3b 1b ab df 3a
       0.0029500814 -0.001235056 0.005179285 0.0017064543
000370 f4 cd 19 3a 0b 30 6d 3c 11 4a 92 3b 32 e0 81 bb
       0.0005867176 0.014476786 0.004464396 -0.0039634937
000380 9b a0 91 3c 1b 2f 98 3a b3 b0 20 3c 9b 14 91 3b
       0.017776778 0.0011610718 0.009807753 0.004427505
000390 35 81 94 3b b7 aa bb bb de 17 e8 39 4f ea ee b9
       0.0045320042 -0.005727138 0.0004426827 -0.0004556947
0003a0 61 85 94 bb eb e0 d8 39 26 fb 5d 39 0b 82 3e 3b
       -0.0045325016 0.00041366307 0.00021169762 0.002906921
0003b0 c6 e1 15 b8 67 9c 83 3b c7 bb 09 3c a7 40 2d bb
       -3.5734636e-05 0.0040164473 0.008406586 -0.002643624
0003c0 7c 4f bb 3b 21 19 a0 38 36 67 94 3b 49 0f 34 bb
       0.0057162624 7.634075e-05 0.0045289053 -0.002747493
0003d0 2e d1 04 3b 1a 25 94 3a 90 a7 84 3b b5 fd d8 3b
       0.0020266282 0.0011302561 0.0040482953 0.006622041
0003e0 8e cc a8 ba 37 71 09 bb a9 b8 fa 3a 60 a8 84 3c
       -0.0012878345 -0.0020972022 0.0019128519 0.016193569
0003f0 65 9a 07 ba 61 71 ad 3b b6 8d 5a bb ee e6 4e 3b
       -0.0005172848 0.005293057 -0.0033348626 0.003157075

mu.4.bias f4 [4]
000000 ab 3c 35 3c 9f f2 91 3b f9 5b d4 3b 4b 5e 59 3c
       0.011061828 0.0044539715 0.0064806906 0.01326711
