experiments/data/sawyer_clutter_200steps_10H/h_sac/2021-06-23_17-17-34_clutter_200steps_10H/policy_3600.pt (torch_old, 75801 bytes, 6 tensors)

mu.0.weight f4 [128, 12]
000000 02 3e 92 3e 8b fe c3 3c 93 69 84 be c2 32 06 bb
       0.28562933 0.023925086 -0.25861797 -0.0020477031
000010 3a 02 8f bd b9 f3 7e be 19 e2 08 3e e2 9e b1 bd
       -0.069828466 -0.2489766 0.133675 -0.086728826
000020 6f e4 13 be 2b 93 13 be cb a3 78 be 63 a9 64 3e
       -0.14442609 -0.14411609 -0.24281232 0.22330241
000030 af 66 13 bd 47 84 88 3e 63 e6 59 be 2e 97 88 3e
       -0.0359866 0.2666342 -0.21279292 0.2667784
000040 03 bd 88 be 44 37 10 3e ee ad 93 be a4 17 8a 3e
       -0.26706704 0.14083582 -0.28843635 0.2697116
000050 2c e2 70 bd f0 24 1f 3e 4d 7a 91 bd ba 4c 47 3e
       -0.058809444 0.15541434 -0.07103405 0.19462863
000060 48 4d b6 bd 42 c8 72 be de 6c 02 3e 3e b3 40 be
       -0.08901459 -0.23709205 0.12736842 -0.18818375
000070 89 48 4b 3e c5 58 89 3e a4 f4 b9 3d 86 81 91 be
       0.19851889 0.26825538 0.090798646 -0.2841913
000080 5f 5c 92 be b9 6a 7f bc de 6f 9c bd 76 17 22 3e
       -0.285861 -0.0155894095 -0.076385245 0.15829262
000090 10 66 f1 3d 97 59 0e 3e 1f ff 86 3e 6b 45 89 3e
       0.11787045 0.13901363 0.26366517 0.26810774
0000a0 00 ab 7e 3e f5 f2 97 3e 0f bc 1c 3c af f8 9f bd
       0.24869919 0.2967755 0.009566321 -0.078111045
0000b0 df 95 69 be 45 fb 5e 3c 7e 28 30 be bf 41 fc bc
       -0.22811078 0.013609712 -0.17202947 -0.030793069
0000c0 5d 1c 7e be 18 fe 96 3d 77 05 60 3d 70 ae 35 be
       -0.24815507 0.07372683 0.05469271 -0.17742324
0000d0 28 52 0c 3e 63 f4 3d 3d 00 ef 8e be d2 64 de bd
       0.13703215 0.046375643 -0.27916718 -0.10859074
0000e0 a4 be fc bd 86 93 e0 bb 79 04 15 3c 87 54 8d 3e
       -0.12341049 -0.0068535237 0.009095305 0.27603552
0000f0 44 86 88 3e 68 0c 43 3d 0a 55 79 bd 91 76 34 3e
       0.26664937 0.047619253 -0.060872115 0.17623354
000100 df 3f 9f 3d 21 ff 82 3e de 5d ef bd ff 74 7e 3e
       0.07775854 0.25585273 -0.116878256 0.24849318
000110 e1 f3 87 be e6 f8 9b be 9f 55 2b be a5 f4 dc bd
       -0.26553252 -0.30463332 -0.1673188 -0.1078885
000120 61 7e 21 bd 04 33 7f bd c6 71 22 be fd 06 65 3e
       -0.039427165 -0.06230451 -0.15863714 0.22365947
000130 05 a8 69 be 32 1c 01 be af 7c 85 be 92 25 08 be
       -0.22818 -0.12608412 -0.2607169 -0.13295582
000140 17 1b 98 bc 27 85 30 be 93 a6 1e be c3 b4 50 3e
       -0.018567605 -0.17238294 -0.1549323 0.20381455
000150 39 1e a8 3d ba 2b a1 bc 64 f1 c3 3d 93 d6 7b be
       0.082088895 -0.01967417 0.09567526 -0.24593572
000160 2e c6 d4 bc 33 e5 cb 3d bc 6d 85 bd a0 1b 8a 3e
       -0.025973406 0.09955826 -0.06515071 0.269742
000170 fb 7b 39 be 89 d2 47 be 09 69 58 bd 6e 5f 26 3e
       -0.18113701 -0.19513907 -0.052834544 0.16247341
000180 ab 27 97 3e 0a 6a 3c bd c9 5d 80 be 5e 6a 28 3e
       0.29522452 -0.045999564 -0.25071552 0.16446826
000190 4f 1a 92 3d 77 23 ef bd f5 f7 40 3e 84 c6 16 3d
       0.07133924 -0.11676686 0.18844588 0.036810413
0001a0 40 c7 f6 3d 29 7f 59 3e f3 71 49 be d4 f4 c9 bd
       0.12049723 0.21239914 -0.19672374 -0.098611504
0001b0 dc f6 3f 3e 9b bb 75 3e 46 bc a5 3d 93 0b a2 bd
       0.18746513 0.23997347 0.08092551 -0.07912364
0001c0 f5 7c 6c be 88 6e 86 3e 46 bd 78 3e 76 4c ff 3d
       -0.23094542 0.26256204 0.24290952 0.12465756
0001d0 72 26 77 be 64 04 52 3e d4 02 04 bd 2d f0 2f be
       -0.2413576 0.20509487 -0.03222926 -0.17181464
0001e0 c0 12 28 3d 10 7f 48 3c 69 6d 8c 3e c4 3f 2a 3d
       0.041033506 0.012237325 0.27427223 0.041564718
0001f0 ce 64 84 be cd e0 65 3c e6 f1 ff bd 49 f7 3e be
       -0.25858158 0.014030647 -0.1249731 -0.1864902
000200 f9 dd 63 3e 3f 55 95 3e 06 27 31 3e 5e 63 3d be
       0.22252645 0.291666 0.17300043 -0.18494937
000210 37 e5 36 bd 29 4b c6 3d 3a 11 b2 bd 23 45 6e be
       -0.04465219 0.096823044 -0.08694692 -0.23268561
000220 f6 7b 52 3e 90 73 86 bc 44 13 9b bd 7f e8 07 be
       0.205551 -0.016412526 -0.07572034 -0.13272284
000230 26 17 dd 3d a1 30 5c 3e 15 43 29 3e f5 27 67 be
       0.10795431 0.21502925 0.16529496 -0.22573836
000240 a3 9f f1 3c 4b 2e f3 bd 1d 6e b5 3d 8b 44 a1 bd
       0.029495066 -0.11874064 0.08858893 -0.07874402
000250 d6 68 1b 3e d2 ac dd bd 1e bc 87 be 79 4e 8c bd
       0.1517671 -0.108239785 -0.2651071 -0.06850905
000260 e9 13 07 3e b3 2b 51 be 7e f6 3e be 92 09 eb bd
       0.13191189 -0.20426826 -0.18648717 -0.11476435
000270 2e 51 44 3e 9b 55 19 3c 52 d6 62 3d 85 b9 47 be
       0.19171593 0.009358789 0.055380173 -0.19504364
000280 f9 30 62 3e fe 1d f8 bd 74 3e 21 3c 93 94 89 3e
       0.22088994 -0.121150956 0.00984155 0.26871166
000290 0c cc 12 3e bf d1 28 bd aa b8 15 be 65 11 15 3e
       0.1433565 -0.041215654 -0.14621225 0.14557417
0002a0 97 e4 f7 bc 71 9b 37 3e ae f8 c9 3d aa 3a 6b be
       -0.030260367 0.1793039 0.09861885 -0.22971597
0002b0 24 5a 86 be 40 bf 95 bd ca 66 76 bd 97 f5 2e 3e
       -0.26240647 -0.07311869 -0.06015662 0.17085873
0002c0 bd 39 52 be 3b 05 1e 3e 4d a5 05 3d f7 3e 3f be
       -0.20529838 0.15431683 0.032628346 -0.18676363
0002d0 53 90 81 be b5 92 eb bc 7f 89 6c 3d 7b 77 27 3e
       -0.25305423 -0.028756479 0.057748314 0.16354172
0002e0 71 31 35 3e 1b 9c e6 bd 2b 61 59 3c 4f 94 38 3e
       0.17694642 -0.112602435 0.013267796 0.18025325
0002f0 06 1e 52 3e ba 17 3a 3e 8a c4 0b be e0 39 36 be
       0.20519266 0.18173113 -0.13649192 -0.17795515
000300 37 12 85 be 2e 79 01 be 76 09 88 bd 45 17 57 3e
       -0.2599046 -0.12643883 -0.066424295 0.2100497
000310 35 c5 5a 3e f5 08 83 3d 06 54 4b be d6 3b dd bd
       0.21364291 0.06398193 -0.19856271 -0.108024284
000320 29 bc 24 3e 8b 1f 2d be 81 45 f0 bd b1 c3 45 be
       0.16087402 -0.16906564 -0.11732007 -0.19312932
000330 d5 aa 47 be 9b 12 6d be 8e a0 d5 3d 29 bb 86 be
       -0.19498761 -0.23151629 0.10431014 -0.26314667
000340 81 25 6d 3e 76 8f 32 be 1d 90 7a 3d ae 05 92 bd
       0.23158838 -0.17437539 0.061172593 -0.071299896
000350 53 3f 74 3e f1 25 91 3e 00 dd ac 3d 70 33 b9 3d
       0.23852281 0.2834926 0.0844059 0.09043014
000360 25 ae 71 be 5b e3 17 3e 8b 20 81 3e e6 aa 6e be
       -0.23601587 0.14832823 0.2522014 -0.2330738
000370 ac 95 55 be f3 4e 3e 3e f4 a4 80 3e 92 2d 14 3e
       -0.20857877 0.18584804 0.2512585 0.14470509
000380 5e f4 56 3e 98 18 34 be df 8e 84 3d 6c ab e4 3c
       0.20991656 -0.17587507 0.06472563 0.027913772
000390 25 94 29 3e 61 5b 2e 3e cd 15 91 3d b3 f6 44 be
       0.16560419 0.17027046 0.07084236 -0.19234733
0003a0 a3 bb 68 be 9b 04 42 3e 2b 98 86 3e 0f 3b 8c bc
       -0.22727828 0.1894707 0.2628797 -0.017118005
0003b0 a0 db 6d 3d a2 20 54 3d 30 8a dd 3d d4 a5 8c be
       0.05807078 0.051788934 0.10817373 -0.27470267
0003c0 4c b0 22 be 1d 90 82 bd e7 57 69 be 00 bb 90 3d
       -0.15887564 -0.06375144 -0.22787438 0.070669174
0003d0 1b 23 d9 bd 66 c5 52 be 3c 14 76 bc 8e c6 a6 3d
       -0.10602399 -0.20583114 -0.015019473 0.0814334
0003e0 01 3e 66 bc 94 b6 e4 3d 92 b4 03 3d 44 75 4c 3d
       -0.014052869 0.111676365 0.032154627 0.04991652
0003f0 d0 43 31 bc 02 21 4b be 36 2e 2f 3e a0 cf 2f be
       -0.01081939 -0.1983681 0.17107472 -0.17169046

mu.0.bias f4 [128]
000000 84 4b 8d bd c5 4c 78 be 26 18 68 be de 5d 7e be
       -0.06899169 -0.24248035 -0.22665462 -0.24840495
000010 23 5f 4d 3c fd bd 0a 3e 00 ff 58 be 1a 70 4a 3e
       0.012534889 0.13549037 -0.21191025 0.19769326
000020 a7 c3 7d be a3 98 77 be 69 38 00 be fa 98 7d 3e
       -0.24781667 -0.2417932 -0.12521519 0.24765387
000030 b8 41 c4 3d cd 82 0c 3e 42 78 c1 bd 5d db 40 3e
       0.09582847 0.13721772 -0.094467655 0.1883368
000040 f4 33 48 be 8f 63 7c be 55 11 6d be 8a 5c 87 be
       -0.19551069 -0.24647354 -0.23151143 -0.2643779
000050 2a c4 12 3e c1 fd f2 3d 86 4c 55 bc fd 64 5f be
       0.14332643 0.11864806 -0.013018733 -0.21815868
000060 2c 41 a2 3d 95 9c 41 be 68 55 62 be d7 92 7e 3e
       0.07922587 -0.18907388 -0.22102892 0.24860702
000070 97 91 8a bd d0 5f 4b 3d dd f4 4f be 97 dc 72 3e
       -0.0676605 0.04965192 -0.20308252 0.23716961
000080 98 8c 44 3e 58 eb 0b be 98 60 f8 bd f2 82 81 3e
       0.19194257 -0.13663995 -0.12127799 0.25295216
000090 b1 12 5c 3e 8a ac 30 be 58 f7 40 be 4c e3 ec 3d
       0.21491505 -0.17253318 -0.18844354 0.11566791
0000a0 7a 51 4d bd 1d 95 75 3d c5 2b 35 be 65 73 e6 3d
       -0.05012653 0.05995666 -0.17692478 0.112524785
0000b0 f1 d5 0b 3e 1d de c9 bd 9a b8 93 3e c4 51 c7 3d
       0.13655831 -0.09856818 0.28851777 0.097323924
0000c0 39 07 0e be cb f9 5e 3e 3a 21 7c be 10 d6 ec bd
       -0.13869943 0.21774976 -0.2462205 -0.11564267
0000d0 1f f0 7b bd 62 fe a7 3d b1 18 03 3e 57 f1 6d be
       -0.061508294 0.082028165 0.12802388 -0.23236595
0000e0 8d 84 e2 3c b3 7c d9 3d 18 da 10 3e 81 b7 62 3e
       0.027651096 0.106194876 0.14145696 0.22140314
0000f0 5a 0c 10 be be e5 49 3e b9 f9 ec 3d 84 43 d0 bc
       -0.14067212 0.19716546 0.11571068 -0.025422819
000100 e7 df 22 ba 18 6c 4e 3e cf 49 ae bd 4b c8 3a be
       -0.00062131736 0.20158422 -0.085101716 -0.18240468
000110 50 90 30 be 32 42 84 3e fd 01 66 be e4 6a 33 be
       -0.17242551 0.25831753 -0.22461696 -0.17521244
000120 0d f3 85 3e d2 80 0b be f3 be d9 3d 81 47 3b 3e
       0.26161996 -0.1362336 0.10632124 0.18288995
000130 7c 22 63 be 7a 73 82 3e 3b d7 9c 3d c6 77 62 be
       -0.22181123 0.25478727 0.076582395 -0.22116002
000140 91 60 32 be 42 0c 3a be d9 11 0d 3c 63 2d 74 be
       -0.1741965 -0.18168738 0.008610212 -0.23845439
000150 5e cf 58 3e 75 d3 cc bd 7a fb fb bd 5f 96 96 bd
       0.21172854 -0.1000127 -0.12303825 -0.073529
000160 7a 2c 49 3e 90 69 53 bd dd 09 86 3d b0 a2 7e bd
       0.19645873 -0.051614344 0.0654485 -0.06216687
000170 15 e3 28 be ef e8 8f be af 2e 85 3e 06 61 be bc
       -0.16492875 -0.28107402 0.2601218 -0.023239624
000180 9d 06 04 be 18 6e 2f 3e cf 8f ac 3c 57 26 80 3d
       -0.12893148 0.17131841 0.021064667 0.06257313
000190 0d b4 30 ba ee 09 95 3e 1a da bb bb 75 f4 0f be
       -0.0006740697 0.29109138 -0.005732787 -0.14058097
0001a0 e4 75 74 be cf 00 c6 3d 0d 07 99 3c 10 5c 84 3e
       -0.23873097 0.09668123 0.01868012 0.25851488
0001b0 b8 a5 58 3e 67 30 9c 3d c5 a3 8c 3d 8a 2d 26 bd
       0.21156967 0.076264195 0.06867174 -0.040570773
0001c0 74 ed 53 3e 91 fe 66 3e 2f 21 cf 3d 45 aa 2d 3e
       0.2069605 0.22558047 0.10113751 0.16959484
0001d0 d5 88 a6 bd d8 b8 36 be 8e 72 8b 3d ab 8f 48 3e
       -0.081315674 -0.1784395 0.06808959 0.19586055
0001e0 e5 fe 58 3e ff 8b d0 3d e8 eb 59 3e c2 1b 05 3d
       0.21190985 0.10182952 0.21281397 0.032497175
0001f0 a3 77 e4 bd a9 33 24 3e b1 96 d1 3d b6 8f 5b 3e
       -0.111556314 0.16035332 0.1023382 0.2144154

mu.2.weight f4 [128, 128]
000000 9b 8f 1c bc 7e db 0b bd 82 5b 20 3c 3e 0d 93 bd
       -0.009555723 -0.03414487 0.009787442 -0.0718026
000010 47 75 e7 bc 3d ce 7e bd f3 93 a9 3d 10 c9 9b bd
       -0.028254164 -0.062208403 0.08280172 -0.07606709
000020 1e 70 73 3d 10 d7 83 bd bb ce 8e 3d ca 8f 72 3c
       0.059433095 -0.06437504 0.069730245 0.01480479
000030 4c 0a 83 bd aa cd 3e 3b 2e 7f b6 bd cb 14 a1 bc
       -0.06398448 0.0029114285 -0.08910976 -0.019663235
000040 7f 72 2c 3d d0 9f 8f bd 7c fe 39 3d 16 0e 28 3d
       0.04210138 -0.07012904 0.04540871 0.04102906
000050 9e f5 18 bb c3 74 ab bd d2 2b 75 bd 17 a4 8b 3d
       -0.0023339759 -0.0837188 -0.059856243 0.06818407
000060 a6 fc 76 3c 5b 97 d2 3c aa c7 b1 bd 03 f5 74 3d
       0.0150748845 0.025706938 -0.08680661 0.059803974
000070 22 78 ac bc 63 a4 19 3d e3 ca 14 bc f0 97 de bc
       -0.021053378 0.037510287 -0.009081575 -0.027172059
000080 71 29 13 3d a7 9c 47 3d 6f 52 38 3a 63 16 ee bb
       0.035928193 0.04873338 0.00070313265 -0.0072658523
000090 33 64 4d bd de cf 01 bd 7f a1 ae bd df c0 11 3d
       -0.050144386 -0.03169238 -0.08526897 0.035584327
0000a0 db 27 2f bc fd 4b 17 bd 07 78 d2 3c 25 11 1d bd
       -0.010690655 -0.036937702 0.025692 -0.03834643
0000b0 5f ac 5e bc f1 62 39 bd 3c b1 07 3c 8a 31 0b bd
       -0.013590901 -0.045260374 0.008282002 -0.03398279
0000c0 d8 a2 6c bd fe 7d ac 3c 1f 2d 9c 3d 51 6b 94 3d
       -0.057772487 0.021056172 0.07625794 0.072470315
0000d0 32 e3 75 3d 01 28 25 bd 8b b1 99 bd bf d1 4e bd
       0.060031123 -0.040321354 -0.07504567 -0.050493
0000e0 d6 4f b0 3b d6 44 9e 3d bf 84 e2 3c 55 f8 50 bd
       0.005380611 0.07727973 0.027651189 -0.051018078
0000f0 8d ec 79 3c cd ef 64 3c 71 47 89 bd 52 8d af 3c
       0.015254152 0.013973189 -0.067030795 0.021429691
000100 82 46 8d bd 15 62 9d 3d 14 e3 82 3d e5 af ac bc
       -0.06898214 0.07684723 0.06390968 -0.021079967
000110 1e 9e b0 3b 55 a0 21 3c 39 a0 a1 3d a5 0e ab 3c
       0.005389943 0.009864886 0.07891888 0.020881006
000120 f0 81 09 3d 2e 04 7f bd 6f 3d 60 3b f2 3a 13 bd
       0.033571184 -0.062259845 0.0034216305 -0.035944887
000130 f5 87 4f bd 29 28 89 bb cc ea a2 3d c5 94 43 3d
       -0.050666768 -0.0041856957 0.0795494 0.0477493
000140 c1 2f 7e 3c 13 1e 63 bd 39 f2 78 bd c7 14 99 3d
       0.015514315 -0.055448603 -0.060777877 0.07474666
000150 17 aa a3 39 06 df 89 bd 3e 0c a2 3c 44 1d 50 bd
       0.0003121651 -0.067319915 0.019781228 -0.05080916
000160 c4 94 d3 3a 19 56 c4 3c eb 52 49 bd 85 9a 1f bd
       0.0016142358 0.023966836 -0.049151342 -0.03896572
000170 09 d3 30 bc 48 6b 92 bd b9 bf 91 bc b3 5d bc bd
       -0.010792502 -0.071493685 -0.017791616 -0.09197559
000180 9d ba 96 3d 8a 6a 92 bd 2f 33 bf bd c4 d5 85 bd
       0.073598124 -0.07149227 -0.09335934 -0.06534913
000190 0a 6e 09 bc 4e 8f 37 bc 21 05 c3 bc 08 51 85 bd
       -0.008388052 -0.0112036 -0.023806157 -0.06509596
0001a0 da dc 17 bd ce 24 9d bd bf 78 23 3d ca 00 26 bd
       -0.037075855 -0.076730356 0.039910074 -0.040528096
0001b0 94 a2 10 bd fe 7b a9 3d a8 d9 67 3c e4 ac fb 3c
       -0.035311297 0.08275603 0.014151014 0.03072209
0001c0 75 49 8e bd 29 90 c5 bc ba eb 02 bc 89 f6 80 3d
       -0.069476046 -0.024116592 -0.007990772 0.06297023
0001d0 25 97 f9 bc 86 56 b0 bd 41 7a 07 3d c2 fb eb 3c
       -0.03046758 -0.08610253 0.033075575 0.02880657
0001e0 f5 58 ae bd 4c 59 17 bd 3a 98 91 3d c1 c8 70 bd
       -0.08513061 -0.036950395 0.07109113 -0.058785204
0001f0 db fd 7b 3c 57 e7 4e 3d 5d 01 09 3d 74 52 0a 3c
       0.015380348 0.05051359 0.033448566 0.00844251
000200 1f 70 33 bd f4 2c 03 3d 5f 27 32 3d be e9 92 bd
       -0.0438081 0.032025293 0.04349458 -0.07173489
000210 71 36 5a 3d 57 59 a0 3d 0a 9c 7f 3d 85 cd fe 3c
       0.053274576 0.0782954 0.06240467 0.031103859
000220 3b c4 9b 3d 5f 0b fb bc c3 ed bc 3c 1d ea 40 3c
       0.07605787 -0.03064507 0.023062592 0.011774567
000230 d2 39 4e bc 2c ba 13 3d 69 6d cd 3c 14 b5 6a 3c
       -0.012587028 0.03606622 0.025076585 0.014325399
000240 9c fb a2 bc fa 96 bb 3d 36 d4 ae bd c9 b8 32 3d
       -0.019895367 0.09159656 -0.0853657 0.043633256
000250 db c6 a5 bc 2f 0d 8c 3d 45 62 af 3c 26 ee 8b bc
       -0.020236423 0.06838452 0.021409163 -0.017081331
000260 cf 20 a3 3d 75 75 31 3d 58 be 5b 3a 34 31 b7 bc
       0.07965242 0.043324906 0.00083825504 -0.022362329
000270 c9 90 d0 bc ac 02 27 bd bb 61 e5 bc b4 f6 80 3d
       -0.025459664 -0.040774032 -0.028000703 0.06297055
000280 ac c6 87 3d 3f 3c 0c bd 69 67 62 3d 9d 4e 3b bd
       0.066296905 -0.034237143 0.0552744 -0.04572927
000290 04 b6 a8 3d b3 57 8c 3d 00 ce a9 3d 8d 24 87 3d
       0.08237842 0.06852665 0.082912445 0.065987684
0002a0 b5 aa 86 3c eb 4b 71 3d 55 6f a1 3c 32 04 c2 3c
       0.016438821 0.05891029 0.019706408 0.023683641
0002b0 de 54 4c 3c 4a 88 a4 3b 4b 2f a4 3a 03 6e 16 bd
       0.012471406 0.0050211297 0.0012526301 -0.03672601
0002c0 eb 8a 0a bc ee 27 7b bd 4a ec 5f 3d 1d db ef bb
       -0.008455972 -0.061317377 0.054668702 -0.0073198215
0002d0 a0 7a 9d 3d c0 71 91 3d 29 54 0f 3d 2c 0f 19 bd
       0.076894045 0.07101774 0.03499237 -0.037367985
0002e0 7e 33 dc bb ba 5e 19 bd 30 6e e3 3c 2a b8 0e 3d
       -0.0067200055 -0.037443854 0.027762502 0.0348436
0002f0 93 02 21 bc de 68 51 bb 5c 8f c8 bc 8f 3a 3d 3a
       -0.009827274 -0.0031953375 -0.024482422 0.0007218504
000300 24 9d 8e 3d 5c 8d 12 3d 58 ae 08 3d 24 f0 14 3d
       0.06963566 0.035779342 0.033369392 0.03636183
000310 78 12 d9 bc ae dc 81 3c a7 88 8a 3c 29 31 ca 3a
       -0.026498064 0.015852299 0.016910864 0.0015426028
000320 88 4f 7e 3d 92 f0 9b 3c a3 7d 0a bc b0 11 b3 3d
       0.062087566 0.019035611 -0.008452806 0.08743608
000330 47 fe 5a 3d 58 f2 7c bd c5 fd 16 bd c3 f1 9a 3d
       0.053465154 -0.061754555 -0.036863107 0.07565644
000340 c3 59 89 bd 12 f4 40 bb b4 a0 96 bc e7 3d 5e bd
       -0.06706574 -0.0029442352 -0.018387176 -0.054258253
000350 2e ac 14 3b 05 a0 9d bd ad db e6 3c ab 7f 0b 3d
       0.0022685635 -0.07696537 0.028180921 0.0340573
000360 d0 dc 88 bd 9e 90 61 3d 42 e4 55 bd ad 87 27 bd
       -0.06682742 0.05506956 -0.052219637 -0.040900875
000370 12 b0 85 bd 6f 21 8d bd 66 14 4b bd b0 3a 35 bc
       -0.06527723 -0.068911426 -0.04958 -0.0110613555
000380 01 ae 2a 3c 1a 31 63 bd a6 cc 22 bc fb be cf 3d
       0.010417462 -0.05546675 -0.009936487 0.101438485
000390 76 b9 21 bd f7 a5 ee 3a 4c ae a8 3d c6 de c1 bc
       -0.03948351 0.001820742 0.082363695 -0.023665797
0003a0 64 77 9a bd 22 3b 98 3d 38 eb 3c 3d 3e 45 8e bd
       -0.07542303 0.07433154 0.04612276 -0.06946801
0003b0 46 eb 39 bd 7f ec 9a 3d 17 6a 23 3b 4f 92 81 ba
       -0.04539039 0.07564639 0.002493506 -0.0009885522
0003c0 96 c0 04 bc 88 02 8c bc 03 84 39 3c 24 f4 8a bd
       -0.008102557 -0.01709105 0.011322978 -0.067848474
0003d0 19 9d cc 3d 83 bc 06 3d 46 32 5c 3c 19 8d 55 bd
       0.099909015 0.032894623 0.0134397205 -0.052136514
0003e0 70 62 c4 bc 75 1a 8b bd fe 2b d0 3c 6c 71 d1 3c
       -0.02397272 -0.06792156 0.025411602 0.02556678
0003f0 90 c7 67 bd 5d 5f 82 bd d6 45 a9 3d cc 89 33 3d
       -0.056586802 -0.06365845 0.08265273 0.043832585

mu.2.bias f4 [128]
000000 67 1d 9f 3d c3 76 80 3d df b7 68 3d 19 af c6 3a
       0.0776928 0.06272652 0.05681598 0.0015158384
000010 f4 6c 9b bd 33 7b 2f bd c8 86 9c 3d 9e 6c 49 bc
       -0.075891405 -0.0428421 0.07642895 -0.012293963
000020 ee 21 93 3c b5 41 1c bd d1 ca 3b bd b0 bb 7e 3c
       0.017960515 -0.0381486 -0.045847718 0.015547678
000030 78 9c a9 3d e6 c7 95 3d c2 be 17 3b 00 bb 04 bd
       0.08281797 0.07313518 0.0023154472 -0.0324049
000040 aa e5 c8 3d d8 7d 23 bd 3f e0 33 3a 9c 03 c3 3d
       0.0980943 -0.039914936 0.00068617234 0.09522173
000050 a1 96 98 3d e1 22 6f bd 8d 9a 9b 3d 5c 5e 8d bc
       0.07450605 -0.058382872 0.075978376 -0.017256908
000060 d6 e8 07 bc c2 69 d3 bb 70 46 17 bd 68 8b 98 3d
       -0.0082952585 -0.0064518163 -0.03693241 0.07448465
000070 12 20 a6 3d 5c 0c b4 3c c5 05 44 bd 9d a0 3d bd
       0.08111586 0.02197855 -0.047857065 -0.04629575
000080 e0 6f 33 bb 6e fe a4 3b b1 38 de bc 65 24 b3 3d
       -0.0027379915 0.005035213 -0.027126642 0.08747176
000090 0c 29 ce bc f5 97 9a bd 12 51 c8 bd 7c 38 8d bd
       -0.025166057 -0.07548515 -0.09781088 -0.06895539
0000a0 cf 7a b0 3b e7 0b bb bd 4f 7e 66 3d 6c 81 9d bc
       0.0053857337 -0.091331296 0.0562728 -0.019226752
0000b0 ef 5d 37 3d d1 0a 13 3d 5e 87 91 bd 67 9d 93 bd
       0.044767316 0.035898987 -0.07105897 -0.072077565
0000c0 e8 29 cd bc 19 7f 75 3d 09 94 72 bd 46 cc 26 bd
       -0.025044397 0.059935663 -0.05922321 -0.040722154
0000d0 6b 2c 74 3d 41 a4 ec 3c 04 fb 0d 3c 42 9e 33 bd
       0.059612673 0.028886916 0.008665804 -0.0438521
0000e0 45 cf 3d 3d e5 2e 45 bd 49 a9 ef bc 36 88 4d bd
       0.046340246 -0.048140425 -0.029255526 -0.05017873
0000f0 7c ad 76 bd 35 74 32 3d 39 23 d3 3c a9 6f 58 3d
       -0.06022404 0.043567855 0.025773631 0.052840862
000100 d4 7d 1d bd e4 24 5a bc 80 9a 25 bd 05 98 c3 3d
       -0.038450077 -0.0133144595 -0.040430546 0.0955048
000110 41 e2 67 3c 86 34 97 bd 8b 52 7a bd b0 13 5d bd
       0.014153064 -0.07383065 -0.061113875 -0.053973854
000120 0d fc b5 3b 41 b3 cf 3c 4a 20 78 3b ec de f9 3b
       0.0055537284 0.02535403 0.0037861043 0.0076254513
000130 1c 22 9e 3d c1 1e 4a bd 30 8a 7c bd c2 91 83 bb
       0.077213496 -0.049345735 -0.061655223 -0.0040151784
000140 f9 0a 0f 3d b8 ca 40 bd b9 85 89 3d ea 0a fd 3c
       0.034922574 -0.047068328 0.06714959 0.030888993
000150 ab 56 29 3d 89 9c af 3d b5 08 c9 3a 21 6f 00 bd
       0.04134242 0.085747786 0.0015337678 -0.03135598
000160 08 38 5d 3c 92 42 fb 3c 36 fe da bc 2f 52 7a bd
       0.013502128 0.030671392 -0.026732545 -0.061113533
000170 5d bd a3 ba a4 51 a6 3c 36 46 dc 3d e5 07 1a bd
       -0.0012492348 0.020302601 0.10755579 -0.037605185
000180 22 50 15 bd d5 2c 6b bc b6 20 7e bc 6e b9 77 3b
       -0.036453374 -0.0143539505 -0.015510729 0.0037799734
000190 7f d0 8f 3d 1c 94 46 bd 17 ba 5a bd 50 f2 9c 3d
       0.07022189 -0.04848109 -0.053400125 0.07663405
0001a0 00 5b 86 bd a9 17 7a bb 84 aa 63 3d 72 51 d6 3a
       -0.065603256 -0.0038161075 0.05558254 0.0016351177
0001b0 33 ff 33 bd e7 54 a2 3d aa 30 86 bd 71 0a 45 bd
       -0.04394455 0.0792635 -0.06552251 -0.04810566
0001c0 2a c4 c4 3c 67 db bd bd 5d 8d 3c 3d 4c 21 c2 3c
       0.02401932 -0.09270363 0.046033252 0.023697518
0001d0 aa 7d 8f 3c 39 a9 b7 3d 63 a5 66 3d be 51 71 3c
       0.017515976 0.089678235 0.05631007 0.0147289615
0001e0 ef ad 64 3d c2 49 5b bd b5 e1 e8 bc b0 20 dd bc
       0.05582994 -0.053537138 -0.028427938 -0.026993126
0001f0 be 02 60 bd b4 fd 4f 3d 5a 48 9a bd 62 21 98 3d
       -0.054690115 0.05077906 -0.07533331 0.07428242

mu.4.weight f4 [4, 128]
000000 85 e2 19 bb 80 d5 01 38 ef 72 96 3b 22 d3 c4 ba
       -0.0023480963 3.0954834e-05 0.004591338 -0.0015016536
000010 57 c5 99 3b 25 45 28 3a 1a 9a 01 3c 27 01 96 3b
       0.004692714 0.0006418995 0.007910276 0.004577774
000020 70 00 f3 3b 64 56 bf 3c 51 0a 18 bc b0 b2 0b 3c
       0.0074158236 0.023356624 -0.009279803 0.008526489
000030 f0 b3 b1 ba ab 7a ae bb 01 bb dc b9 49 cb aa bb
       -0.0013557654 -0.0053246818 -0.00042101 -0.0052122218
000040 19 5c a9 3b 64 20 5c b9 2a 5e 21 bc 2e 01 fe 3a
       0.0051684496 -0.00020992901 -0.009849111 0.0019379014
000050 63 ba bc 3b ed df a2 3b 72 97 50 3c 64 27 02 3c
       0.0057595237 0.0049705417 0.01273142 0.007943962
000060 7b be d0 3a f8 15 9e ba 1b 80 6c bb 58 28 98 3b
       0.0015925908 -0.001206099 -0.00360871 0.004643481
000070 39 da dc 3b c1 d3 ca 3c 4d ac 61 3c a3 d6 0b 3b
       0.0067398814 0.024759175 0.01377399 0.002133765
000080 b2 00 3d 3d 91 f4 53 3c 1d 14 6e 3a c4 a3 33 3c
       0.04614324 0.012936727 0.00090819766 0.010964338
000090 bc e9 20 3c 6b b4 08 bc 6e 1a 55 3b f0 6c 71 bb
       0.009821352 -0.008343796 0.0032516974 -0.0036838613
0000a0 d2 23 11 3c f6 14 1e bb c6 01 78 bb 28 40 a0 3b
       0.008858638 -0.002412138 -0.0037842854 0.0048904605
0000b0 29 bb f0 3a 05 f3 02 3c 07 7a eb ba 80 bc cb 3a
       0.0018366325 0.007992511 -0.0017965444 0.0015543848
0000c0 b3 f6 1c 3c 6e 9d 36 3c 60 48 89 bb 8d 6b 89 bb
       0.009580302 0.011145933 -0.004189536 -0.0041937293
0000d0 fd dd 06 3c 54 e2 f5 3b 46 52 40 3c b8 04 c7 3c
       0.008231637 0.007503787 0.0117383655 0.024294242
0000e0 0c ed 2c 3a c4 03 eb ba 80 30 1d 3c 30 85 63 3c
       0.0006596602 -0.0017930199 0.009594083 0.013886735
0000f0 b1 8c 91 bb 3f a1 01 3c 2b 0a 93 ba ea 63 7a bc
       -0.0044418206 0.007911979 -0.001121824 -0.01528261
000100 b3 d1 fc b8 ac f8 7e 3c 94 34 e3 3c e6 10 a1 3b
       -0.00012055356 0.015562218 0.027735032 0.0049153445
000110 00 ca a3 3b dd b8 ab ba 73 eb 65 3b 96 bb cb bb
       0.0049984455 -0.0013101358 0.0035082966 -0.0062174303
000120 67 0a 0a 3a 19 75 9b bb ab 69 c8 b9 e6 2d d2 3c
       0.00052658323 -0.0047441837 -0.000382257 0.025656652
000130 26 42 76 3c f9 21 e2 3b 39 1a 73 bb a6 52 80 38
       0.015030419 0.0069010225 -0.0037094487 6.11891e-05
000140 c2 56 71 3b dd 04 b4 ba 55 c5 5d 3c 77 3b 9f 3b
       0.0036825393 -0.001373436 0.013535817 0.0048593837
000150 0f 97 7b 3b 8f 2b a7 b9 24 f2 81 bb 5a 08 68 b8
       0.0038389598 -0.00031885176 -0.003965633 -5.532089e-05
000160 7d 99 64 3b 3d 16 ea 3b 35 ea 8a 3c 94 7f 6a ba
       0.0034881525 0.0071437643 0.016957382 -0.0008945402
000170 a8 62 a8 3b f6 88 75 3b 3d f1 4e 3c d6 b4 46 38
       0.005138714 0.0037465668 0.012630758 4.7375295e-05
000180 10 9a ae 3c 3e ff fc ba 87 66 52 3a 4b 8c 42 3c
       0.021313697 -0.0019302142 0.0008026142 0.011874269
000190 1a 7e cd 3b 95 aa 92 bb 66 63 4b 3a 01 d2 d7 3c
       0.006271136 -0.0044759014 0.0007758647 0.026345255
0001a0 5b 40 e1 3b eb 89 f7 3b 3a 1b 94 3c be 8a 0e 3c
       0.006874127 0.007554283 0.018079389 0.008700071
0001b0 d1 9f 65 3c fb 2a 18 3c b8 00 34 bb 85 39 42 bb
       0.014015154 0.009287591 -0.0027466249 -0.0029636335
0001c0 39 9b 12 3c 23 73 45 3b 78 b6 26 3b 58 b8 50 bb
       0.008948141 0.0030128441 0.002543835 -0.0031848159
0001d0 3d 49 66 3c fb 8b fb 3b 88 0c 02 bc 86 b8 3f bc
       0.014055547 0.007676599 -0.007937558 -0.011701709
0001e0 99 ca 59 3b fc 11 af ba 42 1c 52 39 2a f4 9c 3c
       0.003323233 -0.00133568 0.00020037688 0.019159395
0001f0 54 70 8d bb f3 7a e8 3b c1 f9 4c bc 34 74 3e 3c
       -0.004316369 0.007094735 -0.012510718 0.011624385
000200 3b d6 03 bb fe 94 4c 3b e3 0b 98 3b 17 a1 f7 3a
       -0.0020116705 0.0031216736 0.004640089 0.0018892613
000210 a6 5f 44 3b 67 10 23 3b 72 39 b5 bb 05 73 c7 3b
       0.0029964237 0.0024881603 -0.0055305297 0.0060867094
000220 1e 0f 47 3c eb 61 85 3c 75 4b 53 ba 0f c7 cf 3c
       0.0121496 0.016282042 -0.0008060255 0.025363473
000230 34 18 30 3c f4 4f 0b 3c 42 a0 9b 3b df 25 17 3c
       0.010747958 0.008502949 0.004749329 0.009225338
000240 76 1b 6f 3c 31 dd 08 3b 57 5c 1f bb 12 7c c3 3a
       0.01459395 0.0020883793 -0.0024316513 0.0014914295
000250 35 5f 82 3b 63 c1 a1 3a a7 33 d0 3b 11 b4 f6 3b
       0.0039786347 0.0012340959 0.0063538137 0.00752879
000260 0e 56 23 3c 8c 97 dc 3a fd 1c 8a 3c 9d 9b 4a 3c
       0.0099692475 0.0016829832 0.016859526 0.012366203
000270 5e ed 13 3b ec a6 65 3c 6e 71 08 3d f8 3c 63 bb
       0.0022571902 0.014016848 0.0333113 -0.0034673791
000280 e5 e9 9f 3c 06 9b 72 3b 59 7f ca 3a 4a da 1c 3c
       0.01952071 0.003701867 0.001544933 0.009573529
000290 cf de f1 3b ce c9 47 ba 33 e1 87 3b 99 4c be 3b
       0.007381297 -0.0007621319 0.004146719 0.005807471
0002a0 0b e3 8c 3b 4d 73 ff b8 39 bd 1d bc 64 86 8a bb
       0.0042995266 -0.00012180824 -0.009627634 -0.0042274464
0002b0 21 96 dd 3b 0f 5a b9 3a 5f 3c 5b bb cb 08 47 bc
       0.0067622815 0.001414122 -0.0033452732 -0.0121480925
0002c0 d5 82 ce 3b 31 fc 3e 3c 19 45 b8 b9 a3 e0 09 3c
       0.0063022175 0.011656807 -0.00035146697 0.008415374
0002d0 47 f4 dc 3b 4b 93 0f 3c d4 72 a3 3c 1f 52 25 3d
       0.0067429873 0.008763145 0.019952215 0.04036152
0002e0 5f e4 04 b7 25 df 02 3c 17 df 07 3c 4d dc 7c ba
       -7.920985e-06 0.007987772 0.008292935 -0.00096458645
0002f0 96 97 5b 3c c6 33 0a 3c 0d 81 1d ba c5 e8 9c bb
       0.01340284 0.008435195 -0.0006008305 -0.0047884905
000300 31 e0 11 bb ea a6 00 3b 94 b0 8e 3c 78 61 a2 3b
       -0.0022258873 0.0019630739 0.017418183 0.004955467
000310 95 c1 d1 3b fc e0 d9 3b fc 5e 25 3b f6 ba 7e 3b
       0.0064012506 0.0066491347 0.0025233617 0.0038868762
000320 95 17 2d 3c a1 b3 0b bb 7e bc 37 bb 4e 7e 2e ba
       0.010564704 -0.0021316784 -0.0028035934 -0.0006656394
000330 a7 73 eb 3b ba 17 84 3c 82 7f 48 3c 08 3c 82 39
       0.0071854177 0.016124595 0.0122374315 0.0002484026
000340 14 68 cd b9 9b e1 94 3b 76 37 63 3c c2 2b 24 3c
       -0.0003917819 0.004543496 0.013868203 0.010020198
000350 78 38 31 3b 35 a6 ab 3b 30 03 e0 38 79 11 57 bb
       0.0027041715 0.0052383193 0.00010681746 -0.003281681
000360 a0 f7 d8 3b 22 35 70 ba 44 c9 c7 3b 66 4f eb 3a
       0.006621316 -0.0009163191 0.006096991 0.001795274
000370 2f 3b 38 3a 57 a7 a3 3c 3d ad 06 3c 32 e0 81 bb
       0.0007027862 0.019977255 0.008220014 -0.0039634937
000380 42 fe a8 3c ed 3a d0 3a 38 98 81 3c 3a 74 2c 3c
       0.020629052 0.0015886702 0.015819654 0.010525757
000390 a1 ae e8 3b 64 42 87 bb 87 fd 0b 3a 34 0a 2d 3b
       0.0071008955 -0.0041277874 0.0005340208 0.0026403787
0003a0 61 85 94 bb 47 b4 4e 3b 3c ec 54 bb ff 8d 6b 3b
       -0.0045325016 0.003154056 -0.003248944 0.003594279
0003b0 21 ef 41 ba d0 86 e2 3b 03 61 ff 3b f8 5e c9 3b
       -0.00073979987 0.0069130436 0.007793547 0.0061453544
0003c0 c1 16 12 3c da df 3e 3a 5b 71 91 3b 2f 73 ef ba
       0.008916558 0.0007281281 0.004438562 -0.001826858
0003d0 4a 91 ac 3b c2 b7 67 3b ee 6e 95 3b a6 3d e0 3b
       0.0052663432 0.003535733 0.004560343 0.0068432866
0003e0 9b 86 b6 3a 04 e3 17 bb 63 be e7 3a 91 2c 98 3c
       0.0013925614 -0.0023176083 0.0017680641 0.018575938
0003f0 35 1e b8 ba 12 d2 e3 3b b6 8d 5a bb 54 5e f5 3b
       -0.0014047088 0.0069525326 -0.0033348626 0.0074880514

mu.4.bias f4 [4]
000000 16 3b 24 3c c4 7a dc 3b e6 1f 3c 3b 9a d4 6a 3c
       0.010023853 0.006728502 0.0028705536 0.014332915
